src/runs/ann_left_hand/20241104/20241104-1418/ann_left_hand_3_layers_best.pth (torch, 143302 bytes, 26 tensors)

network.0.weight f4 [63, 126]
000000 29 89 25 be ee 6b 9f bd b6 e3 79 3d 2f 68 ae 3d
       -0.16165604 -0.07784258 0.061008178 0.08515965
000010 48 65 be 3c eb e2 45 bd d0 eb e8 3d 34 0f eb 3b
       0.023241654 -0.04831211 0.11373103 0.007173443
000020 95 89 e6 3d db 7d c1 bb 92 d7 78 3d f4 98 cf bc
       0.112567104 -0.0059048957 0.06075246 -0.025341488
000030 20 cc 84 b9 ed 1c 87 3d d7 a4 66 3d fc 79 1e 3c
       -0.00025329087 0.06597314 0.056309547 0.009672638
000040 99 32 09 3d db 13 da 3b ce c1 67 3d d9 fb 5f ba
       0.03349552 0.006655199 0.05658131 -0.0008544303
000050 94 ce d3 3d d7 f8 b1 bd 1b 90 e6 3b f5 55 87 3d
       0.10342136 -0.086900406 0.0070362217 0.06608192
000060 49 b6 8f 3c 85 70 2d 3d 0a 34 d8 3d 03 5d ca 3d
       0.017542975 0.042343635 0.10556801 0.09881022
000070 1c 1c 92 3d e8 41 07 3e f9 00 2a 3c 99 0a 16 3d
       0.07134268 0.13208735 0.010376208 0.0366312
000080 fa 35 1d 3e 46 bf a8 3d b4 2c a3 bb 97 53 8a 3d
       0.15352622 0.082396075 -0.0049796943 0.06754225
000090 c0 37 c8 3d 26 c3 39 3d 46 3d 01 bd 90 81 2d 3e
       0.097762585 0.045352124 -0.031552576 0.16943955
0000a0 1b bc 39 3e 2e c5 e7 3d 34 d7 c3 3d 2e bc 7a bd
       0.18138163 0.11316906 0.09562531 -0.06121462
0000b0 3d 4a 49 3d a5 3d bc bd 40 cc 8c bd ac 6f 85 bd
       0.049143065 -0.09191445 -0.06874895 -0.0651544
0000c0 e5 7f 15 3c 64 e9 c7 bd 4a 92 21 bd 31 d5 8b 3c
       0.009124731 -0.097613126 -0.039446153 0.017069431
0000d0 fd fb 5e bd 8b 61 0c be 49 2f 16 bd 9c b9 e0 ba
       -0.054439534 -0.13709085 -0.03666619 -0.001714516
0000e0 5f 48 63 be 27 2f 8b be a8 eb dc bc ae 18 28 bd
       -0.22195576 -0.27184412 -0.026967838 -0.04103916
0000f0 42 af 04 be 4c 44 39 be 75 52 7c bd 0d 76 94 3d
       -0.1295748 -0.1809246 -0.061602075 0.07249079
000100 02 9d cb 3c 0e 7b 07 be 0c 78 62 3b db 44 40 bc
       0.02485514 -0.13230535 0.0034556417 -0.011735166
000110 c1 53 80 3c 65 dd be bc 1e 06 9c bc 4b 3f 92 bd
       0.015664937 -0.023298929 -0.019045886 -0.071409784
000120 f0 44 0a 3d cd 64 6b 38 d2 11 9d bd ec a5 39 bd
       0.03375715 5.6122244e-05 -0.076694146 -0.04532425
000130 91 8e c1 3d a7 1e c4 3c e1 46 17 bd a5 f1 41 3d
       0.094510205 0.023940397 -0.03693283 0.04734959
000140 ee 85 10 3e fe 12 f7 3d 99 6c 62 bd 8e bb 49 bd
       0.1411359 0.12064169 -0.055279348 -0.04925113
000150 e4 2b 74 be 09 e5 8a be d4 b2 33 be b7 5e fc bd
       -0.23844868 -0.27127865 -0.17548686 -0.12322753
000160 2e 12 2d 3c 0b 79 75 be b3 e5 ae bb a2 46 64 bc
       0.010563416 -0.23971955 -0.005337441 -0.013932856
000170 f2 8d 8f bd b3 c7 91 bd 10 55 0a 3d bf c2 af bd
       -0.07009496 -0.07118168 0.03377253 -0.08582067
000180 49 48 1c ba 5c 39 ba bd 06 8b 12 bd ef 62 23 bc
       -0.0005961699 -0.09092972 -0.035777114 -0.009972318
000190 21 52 f1 3c c1 82 d5 3c 15 3a ff bd 10 4b 54 3d
       0.029458107 0.026063325 -0.1246225 0.051829398
0001a0 ff ac 16 bd 9f 89 ba bd 1b 84 a2 bc 90 d6 59 bd
       -0.036786076 -0.091082804 -0.019838383 -0.05318314
0001b0 e6 0c a0 bc 27 10 f3 3c 41 8f b9 bc b2 c3 ac 3c
       -0.0195374 0.029670788 -0.022651317 0.021089409
0001c0 60 61 18 3d 30 e7 cc bc 2c d5 45 bb 4e 7d b1 3d
       0.03720224 -0.025012583 -0.0030186875 0.08666478
0001d0 3d 16 9b bc 76 b1 9f 3c 3f 5c d7 bd 5f 09 9f 3d
       -0.018931502 0.0194938 -0.105156414 0.07765459
0001e0 c5 f6 00 3e 06 2b 7f bb b9 00 bc bd ad a0 f9 bc
       0.12594135 -0.0038935556 -0.09179825 -0.030472124
0001f0 d3 c2 89 bb ba a8 8a bd 44 07 15 3e e4 1f f0 3d
       -0.004204133 -0.06770463 0.14553553 0.11724833
000200 a8 86 a6 3d 88 f4 05 bd d7 35 ce bd 20 2f ac bd
       0.081311524 -0.032703906 -0.10068863 -0.08407426
000210 ca c0 97 bd 51 dd 93 3d 9f c3 53 3d 55 7f 3b 3d
       -0.074098185 0.07219947 0.05170023 0.04577573
000220 da 6e 13 bd cd 1e 8c bd 5d d6 1e bc 3e 58 b2 bd
       -0.03599439 -0.06841812 -0.009694663 -0.08708237
000230 29 f1 60 bd dc 83 a5 bd 8d 69 31 3d 4d 14 1d bd
       -0.05491749 -0.08081791 0.04331355 -0.03834944
000240 c2 99 d3 3a 70 60 03 3e 9a 44 61 3c 0a 0c 3f 3e
       0.0016143846 0.12829757 0.013749266 0.18656936
000250 54 33 b5 3d fc 00 c4 bc d9 71 bb bc 7c 1b 87 bd
       0.08847681 -0.02392625 -0.022881435 -0.06597039
000260 52 22 91 bc d0 b6 60 bd 63 53 bf bd fc 73 92 3b
       -0.01771656 -0.054861844 -0.09342077 0.004469393
000270 cd 70 03 3c 9e 28 31 3d f7 a2 32 bd 3a f8 18 3d
       0.008022499 0.043251626 -0.043612447 0.037346102
000280 2b 32 d2 3d 8a 35 f5 3c 5a 8a 1b 3c b1 5d 85 bc
       0.10263475 0.029932756 0.009493435 -0.016280027
000290 e6 a5 64 3e 6c 70 10 3e 45 8a 2a 3d d0 5e 31 3d
       0.2232891 0.14105386 0.04163577 0.04330331
0002a0 9f f6 db bd ca 75 88 bd c3 d4 05 be f8 61 fa 3c
       -0.107403986 -0.066630915 -0.13069443 0.030564293
0002b0 e8 e3 1d ba 7c c0 80 3c 04 6b 8c 3a 01 83 cb bd
       -0.00060230354 0.015716784 0.0010713045 -0.099370964
0002c0 0b c0 39 bd 52 bd ff bd bb ad 3a 3d eb c6 82 bc
       -0.045349162 -0.12487282 0.04557584 -0.015963992
0002d0 01 ce cd bb 12 1c e2 bd af 0a 99 bd 6f 33 51 bc
       -0.006280661 -0.1104051 -0.07472741 -0.01276861
0002e0 c6 77 93 3c 60 79 fb bd 15 f1 82 bd 4c 60 a5 3c
       0.018001448 -0.1227901 -0.06393639 0.02018752
0002f0 49 f6 0c bd 77 12 4c 3e 0a 31 c7 bd 68 4c 87 3d
       -0.034414563 0.19928919 -0.0972615 0.0660637
000300 c9 fc 7e 3d 9b b1 21 3d 66 52 45 3d 66 23 3f 3c
       0.062252793 0.03947602 0.048174284 0.0116661545
000310 a3 1a ac 3c 54 7b f2 bb ef 87 1d bd 4c 31 c4 bb
       0.021008795 -0.0073999558 -0.038459715 -0.005987322
000320 94 19 91 bd 68 29 c3 3b c9 7d 4c 3c 68 17 ef bd
       -0.07084957 0.0059558637 0.012481161 -0.11674386
000330 3c 24 2e be 28 f1 da bd 99 84 0e bd 70 bb 1f be
       -0.1700601 -0.10690528 -0.034794424 -0.15598845
000340 70 56 a6 3d d1 0d ba 3c f4 eb 78 be 10 5f a5 be
       0.081219554 0.022711666 -0.24308759 -0.3229909
000350 4e 63 bb bd 67 ee a2 3d 68 82 00 bd 93 e8 8b 3c
       -0.091498 0.07955628 -0.031374365 0.017078673
000360 8a 17 d8 3d 53 42 3b bd fc 96 1e bd a2 87 11 be
       0.10551365 -0.04571755 -0.03871821 -0.14211896
000370 27 6c 67 3e ff 2d c6 3c 83 40 31 bc 87 d4 95 bc
       0.2259985 0.024191855 -0.010818603 -0.018289817
000380 91 6b 1f 3d 66 a7 53 be 5e 1f 7d 3d 63 91 51 3c
       0.038920943 -0.20669326 0.061797492 0.012791011
000390 79 d6 b9 bd 8b ad e3 ba a7 75 93 bc 8d 62 13 bc
       -0.090741105 -0.0017370445 -0.018000437 -0.008995664
0003a0 07 66 05 be 85 d7 0b be b7 a5 df 3c b0 e8 1f bc
       -0.13027202 -0.13656433 0.027300699 -0.009760067
0003b0 f2 f1 47 bd 45 65 12 3b 07 8b 1e bc ec 4f a7 bc
       -0.04881472 0.0022338193 -0.009676701 -0.020423852
0003c0 ff 58 03 3d 56 b2 29 3d 8d 26 94 3d d6 fb 57 bc
       0.032067295 0.04142984 0.072339155 -0.013182601
0003d0 b7 aa 56 bd db 9c 70 3d e7 ca 19 3d 18 4c d6 bc
       -0.0524089 0.05874334 0.03754702 -0.026159331
0003e0 e9 7e bd 3d 8c 32 a6 3b 0e 9c b2 bd 2f 56 b3 3c
       0.09252722 0.0050719436 -0.08721171 0.021891681
0003f0 e9 47 68 bd 3f aa 0f be 3b fd f4 bd f1 53 9a bc
       -0.056709204 -0.14029787 -0.119623624 -0.018838855

network.0.bias f4 [63]
000000 49 46 16 3f 5f cd 05 3f 7f ce f9 3e 3b 9d 02 3f
       0.58700997 0.52266496 0.48790357 0.51021165
000010 7c dd ed 3e bb bd 00 3f e4 be 00 3f 04 d3 02 3f
       0.46458042 0.50289506 0.50291276 0.51103234
000020 be 64 02 3f 59 bf 06 3f 0c f4 f8 3e a0 fd 00 3f
       0.5093497 0.52635723 0.48623693 0.50387
000030 a9 86 f4 3e 41 c0 01 3f ed 69 f4 3e a5 38 0a 3f
       0.47758988 0.5068398 0.47737065 0.5399268
000040 bb dd 05 3f f6 ed e7 3e fe 50 03 3f fa e5 09 3f
       0.5229146 0.45298737 0.5129546 0.5386654
000050 42 f1 03 3f 30 e7 fc 3e b1 87 01 3f 0f 0e ff 3e
       0.51540005 0.49395132 0.50597674 0.49815413
000060 c2 c4 07 3f 70 a6 fb 3e ff 7d 01 3f ce 19 01 3f
       0.53034604 0.4915042 0.5058288 0.5043
000070 36 19 00 3f 68 6d 01 3f 8a 66 03 3f 54 51 17 3f
       0.5003847 0.50557566 0.5132834 0.5910847
000080 18 d3 0b 3f af 9f fa 3e a0 b4 fe 3e ca 15 f7 3e
       0.5461898 0.48949954 0.4974718 0.4825881
000090 2b ef 06 3f 86 39 07 3f 1f 8e fe 3e ec 21 f2 3e
       0.5270869 0.5282215 0.49717805 0.47291505
0000a0 99 62 00 3f b9 bb ed 3e a3 34 0d 3f 5c 6b 02 3f
       0.5015045 0.46432284 0.5515844 0.5094507
0000b0 7e 36 ff 3e bf b4 fc 3e 93 47 ff 3e 3a 80 03 3f
       0.49846262 0.49356648 0.49859294 0.51367533
0000c0 de 77 f2 3e 84 93 02 3f 8c 5a 06 3f 75 99 02 3f
       0.47357076 0.5100634 0.52481914 0.51015407
0000d0 7c 88 fc 3e b1 52 03 3f 15 de fb 3e ff d3 fd 3e
       0.4932288 0.5129805 0.49192873 0.49575803
0000e0 36 17 e1 3e 53 ff eb 3e 86 2e 00 3f ee bf 00 3f
       0.4396302 0.46093234 0.5007099 0.5029286
0000f0 e5 10 02 3f ce 8b fe 3e f6 f1 fe 3e
       0.5080703 0.49716038 0.49793977

network.1.running_mean f4 [63]
000000 71 b4 45 3e 02 ef 4e 3e 17 40 8e 3f 4c ea e9 3f
       0.19307114 0.20208362 1.1113309 1.8274627
000010 35 ce be 3f e8 1c 21 be 3e 8c 49 3f d7 a1 60 bf
       1.4906679 -0.15733683 0.7872962 -0.8774695
000020 71 8b 4a 3e 81 ab 65 3f 7c 59 12 3f 94 5c 37 3f
       0.19779755 0.8971482 0.5716779 0.7162564
000030 ae db ae 3e dc 4c 94 3f 0a 1d 24 3f 8b 02 2e 3f
       0.34151977 1.1585956 0.6410681 0.6797263
000040 ed c8 7c 3e f8 c6 cc 3e 6f d2 1b 3f 55 4b 25 3f
       0.24686022 0.3999555 0.6086797 0.6456807
000050 2a 90 c6 3e a2 2b 7c bf 73 c7 ca 3e 42 e4 60 3e
       0.38781863 -0.9850408 0.39605293 0.21962073
000060 d8 41 0e bf 66 b1 a1 3d 1f 79 a0 3f 87 3c 02 bf
       -0.5556922 0.07895164 1.2536963 -0.5087361
000070 65 77 94 be 21 b3 21 3f 78 af e0 3e 9b cf b5 3f
       -0.2899734 0.63163954 0.43883872 1.4203981
000080 f6 bc 8d 3f f7 ce c5 3e 57 dd 8d be a0 dc 28 3f
       1.1073291 0.38634464 -0.2770793 0.6596165
000090 c8 9d 33 3f 93 28 90 3f cd 98 34 bf 6c bc 47 bf
       0.7016263 1.1262382 -0.70545655 -0.78021884
0000a0 c3 e8 d1 3e 0f e8 87 3f 04 61 74 3f cc 48 bd 3e
       0.40997896 1.0617694 0.95460534 0.36969602
0000b0 68 d0 69 bf a3 9e 1d bf 37 71 b8 be ab 79 71 3f
       -0.9133363 -0.61570185 -0.36023876 0.94326276
0000c0 8b 9a fb 3f 7c b3 cc 3e 54 d5 99 3f d4 ac 92 be
       1.9656538 0.39980686 1.2018228 -0.28647482
0000d0 c7 7e 09 c0 2d e6 3b 3e 29 08 27 bf 98 bf ef 3b
       -2.1483629 0.18349524 -0.65246826 0.007316541
0000e0 ac b0 39 3f 38 a8 13 3f 7f 95 98 bf 49 36 c7 3e
       0.72535205 0.57678556 -1.1920623 0.38908604
0000f0 72 8d ef 3f 9a 96 c3 3d 10 5e e8 be
       1.8715041 0.09550209 -0.45384264

network.1.running_var f4 [63]
000000 f3 68 5a 3b dc c3 ef 3a 98 a2 95 3b 2a be d7 3b
       0.0033326715 0.0018292624 0.004566502 0.0065839486
000010 29 7d 5a 3b 6b c2 69 3b 24 4b 92 3b 47 87 61 3b
       0.0033338761 0.003566886 0.004464524 0.0034412907
000020 eb b2 82 3b 24 ad 3a 3b 04 06 e2 3a dc ad 31 3b
       0.003988614 0.0028484548 0.0017244224 0.0027111685
000030 a9 6a d7 3b 47 e9 c0 3b 19 bf 4c 3c 6d 4f 77 3b
       0.006573994 0.005887184 0.012496733 0.003773655
000040 49 73 57 3b 51 b3 e4 3a 97 b8 af 3b a0 ac 02 3b
       0.0032875112 0.001744846 0.005362581 0.0019939318
000050 e3 e0 04 3b 91 4f 25 3c 1b e4 29 3b 53 61 4a 3b
       0.0020275644 0.010089771 0.0025923315 0.0030880764
000060 f5 68 24 3b fa a1 cd 3b 96 f3 82 3b 21 b8 d3 3b
       0.0025086973 0.0062754126 0.003996323 0.006461159
000070 bc 52 ee 3b 3b 11 b5 3b 49 ff e0 3a f6 4c 38 3b
       0.0072730463 0.0055257357 0.0017165925 0.0028122044
000080 e6 b6 b6 3b 5b 0a 07 3b 6e ec 16 3b 07 27 3d 3b
       0.0055760024 0.0020605538 0.0023029107 0.0028862373
000090 41 1d fb 3a aa f3 d9 3b ec c5 86 3b b2 2d 01 3b
       0.0019158499 0.0066513615 0.0041129496 0.0019711074
0000a0 89 3b 83 3b d3 2e 88 3b 22 32 00 3c 4b 8a 40 3b
       0.0040049 0.0041559725 0.007824453 0.0029379304
0000b0 ce de 8b 3c 54 e0 ed 3a d9 d5 bd 3b df d6 7b 3b
       0.017074015 0.001814852 0.005793315 0.0038427634
0000c0 8e 7a 8f 3b 2c cc 1f 3c 9a 95 c3 3b b4 60 89 3b
       0.0043786233 0.009753268 0.0059687616 0.004192436
0000d0 b9 a1 37 3c 1c ff 79 3b 44 36 9e 3b 62 86 07 3b
       0.011207991 0.0038146442 0.0048282463 0.0020679464
0000e0 6d d5 19 3b 4d 1c 0b 3b b2 ab 12 3c 8d 73 e8 3a
       0.002347316 0.0021226585 0.008952068 0.0017734632
0000f0 46 b3 19 3c 43 82 0e 3b bd ba 58 3b
       0.009381121 0.0021745123 0.003307029

network.3.weight f4 [63, 63]
000000 29 03 0a 3e 3d 4f 1b 3d 0a bf de 3d 49 de f7 3c
       0.13477768 0.037917364 0.108762816 0.030257361
000010 48 24 1c 3c 2f 0c 23 3e ef 8a aa bb c3 07 89 3b
       0.0095301345 0.15922616 -0.0052045505 0.0041818335
000020 44 bb 00 3e 85 d4 8a be 7b fe 88 bc 15 3a ad bc
       0.12571436 -0.27115265 -0.016722908 -0.02114586
000030 20 41 39 3d 82 a0 10 bd e6 ce 35 3d 80 d6 8b 3d
       0.045228124 -0.035309322 0.044386767 0.06828022
000040 d4 8b 0d 3e 36 5b 42 bd 83 fc 21 3d c9 15 09 3c
       0.13822871 -0.047450267 0.039547455 0.00836701
000050 65 f0 aa 3d 7e 94 ee bc d5 fc 14 be 56 b2 3d be
       0.08346633 -0.029123541 -0.14549573 -0.18525061
000060 f6 00 24 be 7c bd 05 3e 02 0b ff bc 3a 41 6b be
       -0.16015992 0.13060564 -0.031133179 -0.229741
000070 2d 75 22 bd 8d 6f d7 3c 03 bd a0 3d c8 35 8f bd
       -0.03966253 0.026298309 0.07848551 -0.0699268
000080 6c c0 41 3d c1 e1 85 3d c6 8b fb 3c bf 8e 79 bd
       0.04730265 0.065372 0.030706298 -0.06092715
000090 af 38 e5 bd 46 bd bc 3d 1f 42 73 b8 a3 60 c1 3b
       -0.11192452 0.092157885 -5.7997295e-05 0.0059014126
0000a0 cd 3c f6 3b ef 3a b4 bc 71 d8 db bd f5 c2 2c 3e
       0.0075145722 -0.022000758 -0.10734642 0.16871245
0000b0 32 c6 8d bd 76 07 f5 3b 2c d9 eb bd 93 42 d2 bd
       -0.069225684 0.007477696 -0.115160316 -0.10266604
0000c0 a3 22 4a bd cf d7 0f be 3b c1 f7 3d fc f6 7b bd
       -0.04934944 -0.14047168 0.12097403 -0.06151484
0000d0 d3 e1 4b bd a3 45 d4 bc fc 5c 2f be a8 0e 10 3d
       -0.04977591 -0.025912112 -0.17125314 0.035170227
0000e0 e1 6d 44 bd c4 40 01 3e 33 c4 83 3c ec ed 98 bd
       -0.04795635 0.12622362 0.016084766 -0.07467255
0000f0 81 a3 db ba 0c 00 b3 3d cb da a1 bd f6 0e 96 3b
       -0.0016757102 0.08740243 -0.079030596 0.00457942
000100 09 e2 f1 bc c3 5c 2a be 36 9c a4 3d 69 1d e4 bd
       -0.029526727 -0.16636948 0.08037607 -0.11138422
000110 b2 63 1c 3d f8 b8 d3 bd 62 50 5d 3d a3 3e 9e bc
       0.038181014 -0.10338014 0.054031737 -0.019316977
000120 59 55 63 3d 04 6b 6b bd b9 78 43 3d 8e 6f 87 3d
       0.055501316 -0.057475105 0.047722552 0.06613074
000130 26 ae 60 bd cb 96 c8 bd f7 2c 3e 3e 46 9a 20 3e
       -0.05485358 -0.097943865 0.1857184 0.1568385
000140 93 a1 9f bd 21 1c bc bb 90 79 53 bc 40 25 30 be
       -0.0779449 -0.005740658 -0.012907401 -0.1720171
000150 b9 5d 8f bc 09 c4 5c 3d 0e eb 42 3c 9f e3 74 bb
       -0.017500745 0.05389789 0.011896862 -0.0037367118
000160 f7 d9 c6 bc b7 1e 36 3e 9d 71 f9 bc cf 85 a4 3d
       -0.024273856 0.17785154 -0.030449683 0.080333345
000170 24 42 8b bd 21 83 63 bd ff f0 92 bd 93 f8 da bc
       -0.06799725 -0.055544976 -0.071748726 -0.026729858
000180 7c b2 ed 3d 79 a1 68 bc 1c 91 20 be 1f 77 1f 3e
       0.11606309 -0.014198654 -0.15680355 0.15572785
000190 d5 9c 5b 3e bd 5b 1f bd ba 9d e5 bd 27 db 22 be
       0.21446545 -0.038905848 -0.112117246 -0.15903912
0001a0 1d 81 32 3e 0a ae f3 3d e9 62 b1 bd fa c9 d0 bc
       0.17432065 0.1189843 -0.08661444 -0.025486935
0001b0 e9 f0 24 3e a6 dc da 3d 0f 21 b8 3a e6 c5 d0 bd
       0.16107525 0.106866166 0.0014047938 -0.10193996
0001c0 bb ec c5 bd 92 b8 0b be 44 e9 37 be 6f d6 80 3d
       -0.096642934 -0.13644627 -0.17960078 0.062909
0001d0 49 96 76 bc cd 6a 70 3d f2 63 8f 3a ef 5d 4b 3d
       -0.015050479 0.058695603 0.001093982 0.04965013
0001e0 02 db a2 3d 54 30 be bd 87 32 54 bc 5c c6 43 bd
       0.07951929 -0.092865616 -0.0129515 -0.047796592
0001f0 7e 9a f5 3a ab 38 6e be 41 e2 ba bc 43 69 21 be
       0.0018738059 -0.23263805 -0.022812964 -0.1576281
000200 03 01 7d 3d 3c 5c 6f bd a4 b7 ae ba 6b 40 44 bd
       0.061768543 -0.05843757 -0.0013329876 -0.047912996
000210 4b ac 85 bd 8f 23 88 ba 2d ee e3 bd d4 b0 ad 3c
       -0.06527003 -0.0010386574 -0.11129413 0.021202482
000220 26 aa 16 be c0 0f b6 bd dc b1 0b 3e df 97 8b bc
       -0.14713344 -0.08889723 0.13642067 -0.017040191
000230 e8 c4 3b 3d f4 3c 90 bd 1e a7 52 be cb 1a 3b b9
       0.04584208 -0.07042876 -0.20571563 -0.00017843691
000240 94 d8 a0 be 68 dc 47 bd 04 7d bd bd fd f1 ee 3c
       -0.31415236 -0.04879418 -0.092523605 0.029168123
000250 f6 a4 5c 3e 91 5b 00 3e ca 17 f2 3c dc 11 70 3d
       0.21547303 0.1253493 0.02955236 0.058610782
000260 71 12 43 3b db 10 63 3d 54 17 dd bd 68 1a 30 bd
       0.002976563 0.055435997 -0.10795465 -0.042993933
000270 ff 5f 0e bd b1 d0 49 bd c3 a9 01 3e e6 77 fb 3d
       -0.034759518 -0.04927129 0.12662415 0.12278728
000280 68 de 86 3c 0a 20 7f bc c7 2a 74 bd d2 c4 cf bd
       0.016463473 -0.015571604 -0.05961111 -0.10144962
000290 4d f4 31 bb ed c2 f3 bd de d0 ea 3d 14 98 ce bd
       -0.0027153671 -0.119024135 0.114656195 -0.100876
0002a0 ca 6b 0c be 51 0c 95 3c 4c 58 3f bd 69 d5 22 be
       -0.13712993 0.01819435 -0.046715066 -0.15901722
0002b0 9b 75 74 3d 13 12 81 3d 93 3a 00 3e 9b 7e 12 be
       0.05968247 0.063022755 0.12522344 -0.14306109
0002c0 17 dd 0a ba 2e 5b 25 be 18 65 db bd 78 fc 5b 3d
       -0.0005297227 -0.16148064 -0.107126415 0.05370757
0002d0 24 80 1e be a4 34 fc bd 1b 11 04 bd 66 31 a7 bd
       -0.1547857 -0.12314728 -0.032242876 -0.08163719
0002e0 e9 e6 24 be 42 9f d9 bd 34 fe b2 3d 32 eb 60 bd
       -0.1610371 -0.10626079 0.08739892 -0.0549118
0002f0 f6 5f d7 3d 84 dc 9c 3d af 14 65 bd 11 5f 28 3c
       0.1051635 0.076592475 -0.05592793 0.010276572
000300 37 23 47 be bf 72 47 be 49 bf 23 3c 1f 5b b0 3d
       -0.19447027 -0.19477366 0.009994336 0.0861113
000310 47 4e c0 bd 94 82 7e bd 5c 96 07 ba c2 c9 f6 bc
       -0.0938993 -0.062136248 -0.00051722466 -0.030125502
000320 77 1e 25 be 96 c7 61 3e b5 0b 91 bd f8 b0 39 3e
       -0.16124903 0.22048792 -0.07082311 0.18133914
000330 de 85 f8 bb 8b 49 92 3d 0e 66 d1 bd 80 dc 89 3d
       -0.0075843176 0.071429335 -0.102245435 0.0673151
000340 df db e3 bd 69 50 8e 3d 68 c7 a6 bd 03 59 a2 3d
       -0.111259215 0.06948931 -0.081435025 0.07927134
000350 2a e8 d6 bd 53 ab bb bc f2 c2 3e be 00 98 9c 3d
       -0.104935005 -0.022908842 -0.18629053 0.07646179
000360 b3 1e d0 3b a3 61 bf 3d 2f aa 25 be 72 3f 91 ba
       0.006351316 0.093447946 -0.16178201 -0.001108153
000370 a3 84 90 3d fc 80 40 3d 0e c0 e0 bd f6 0f a9 3c
       0.070565484 0.04699801 -0.109741315 0.020637494
000380 2c 40 85 ba 68 2c 93 3c 8f 48 d5 3d f2 13 70 bd
       -0.001016622 0.01796551 0.1041423 -0.05861277
000390 87 bf c1 3d b1 09 89 3d 25 b1 aa bc 32 58 a9 3c
       0.09460359 0.066913016 -0.020836422 0.020671938
0003a0 92 6b 5d bd f3 43 8d 3d 55 de 94 be 54 80 55 3b
       -0.054057665 0.06897726 -0.29075876 0.003257771
0003b0 98 36 96 bc 1a 19 92 3d 62 3b 8d bd 28 07 0d 3e
       -0.01833658 0.07133694 -0.06896092 0.13772261
0003c0 d6 5a 17 bb 04 ed 41 bd 4a 3e 71 bd 5b 5e f9 3d
       -0.0023094914 -0.047345176 -0.058897294 0.121762
0003d0 7a 78 e7 3c f6 0a 84 3d b6 3f bd bd 04 4b 36 3e
       0.02825569 0.06447403 -0.092406675 0.17802054
0003e0 ce 07 c3 3c 1b cc 9b 3d d7 97 81 bc 08 92 a7 bc
       0.023807433 0.076072894 -0.015819473 -0.020455375
0003f0 40 0a 1d 3e fe 4a d3 3d 26 94 80 3d 40 31 73 bb
       0.15335941 0.10317038 0.06278257 -0.0037108213

network.3.bias f4 [63]
000000 be ed ff 3e 8c ec ff 3e d3 27 00 3f 8d 21 00 3f
       0.4998607 0.49985158 0.50060767 0.50051194
000010 08 59 00 3f a8 19 00 3f 41 34 00 3f ed ed ff 3e
       0.5013585 0.5003915 0.50079733 0.4998621
000020 cf 25 00 3f 3e 92 ff 3e 71 22 00 3f 11 c3 ff 3e
       0.5005769 0.4991626 0.50052553 0.4995351
000030 37 63 00 3f a1 1d 00 3f f1 0a 00 3f 73 06 ff 3e
       0.5015139 0.5004521 0.50016695 0.49809608
000040 52 00 00 3f 49 60 ff 3e 9c 6e fe 3e be 63 00 3f
       0.5000049 0.49878147 0.49693763 0.50152194
000050 5e eb ff 3e 04 0c 00 3f 91 20 00 3f dd ac ff 3e
       0.49984258 0.50018334 0.5004969 0.49936572
000060 76 05 00 3f 78 aa ff 3e b3 e3 ff 3e 9a 5a ff 3e
       0.5000833 0.49934745 0.49978408 0.4987381
000070 fd 8d 00 3f fc d2 ff 3e a8 13 02 3f 90 cb ff 3e
       0.50216657 0.49965656 0.50811243 0.49959993
000080 db 11 00 3f 5b c0 ff 3e 71 f8 ff 3e 40 06 00 3f
       0.50027245 0.49951443 0.49994233 0.50009537
000090 21 11 00 3f 37 84 00 3f fe 15 00 3f 01 52 00 3f
       0.50026137 0.50201744 0.5003356 0.5012513
0000a0 76 5f 00 3f 9b a0 ff 3e 38 94 00 3f 82 53 00 3f
       0.5014566 0.4992722 0.50226164 0.5012742
0000b0 54 1a 00 3f c4 f8 ff 3e 27 d2 ff 3e 48 1b 00 3f
       0.50040174 0.4999448 0.4996502 0.5004163
0000c0 75 5c 00 3f 7d 77 00 3f 2b a3 ff 3e 75 d3 ff 3e
       0.5014108 0.50182325 0.49929175 0.49966016
0000d0 0c 12 00 3f 58 9f ff 3e 1d a1 ff 3e d7 da ff 3e
       0.5002754 0.49926257 0.49927607 0.4997165
0000e0 41 06 00 3f 37 07 00 3f fb 38 00 3f 02 06 01 3f
       0.5000954 0.5001101 0.50086945 0.5039979
0000f0 ba b8 ff 3e 1d 03 00 3f 9c e2 ff 3e
       0.49945623 0.5000475 0.49977577

network.4.running_mean f4 [63]
000000 9b 69 c6 3e 9e d1 da 3e 59 92 1b 3e 22 08 ed 3e
       0.38752446 0.4273805 0.15192546 0.46295267
000010 9a ac 39 3f 01 a6 67 3e 69 bb 00 3f ad 98 ae 3e
       0.72528994 0.22621919 0.50285965 0.34100857
000020 18 c3 0a 3f b8 b7 97 3e fc 9b f6 3e f7 1d bb 3e
       0.5420394 0.29632354 0.48165882 0.365463
000030 93 10 18 3f e3 5e ca 3e 83 61 f1 3e 45 9e e5 3e
       0.5940029 0.39525518 0.47144708 0.44847313
000040 ef fe ce 3e 90 c7 d5 3e 31 1e 03 3f b4 fd 41 3f
       0.40428874 0.41753817 0.51217943 0.75777745
000050 74 d0 b8 3e a8 f5 02 3f 5e 21 1e 3f 9a 9e b8 3e
       0.36096537 0.5115609 0.61769664 0.36058503
000060 c2 34 87 3e 79 c6 05 3f ef fc c8 3e ae 0d 1a 3f
       0.2640744 0.5225597 0.39255473 0.60177124
000070 fe 0c 0f 3f db f4 84 3e e7 29 be 3e 57 8d a9 3e
       0.558792 0.2596806 0.37141344 0.33115646
000080 d4 a2 ea 3e a6 5b 8f 3e 88 e4 1e 3f 95 cf bd 3e
       0.45827353 0.2799961 0.6206746 0.37072435
000090 5a 6f 88 3e 9c 62 f9 3e e4 93 c0 3e 4c 57 bc 3e
       0.26647455 0.48708045 0.37612832 0.36785352
0000a0 34 27 e9 3e fa 6e b0 3e 76 a9 e3 3e 02 f5 dd 3e
       0.45537722 0.34459668 0.44465226 0.4335099
0000b0 ee b8 2d 3f 1b 14 e2 3d 22 d3 b2 3e ce ba 11 3f
       0.67860305 0.11038991 0.34926707 0.56925666
0000c0 70 2c 3b 3f 0a 8a bc 3e 34 9c 09 3f 91 15 21 3f
       0.7311468 0.36824065 0.5375397 0.6292353
0000d0 dc b9 1b 3f 1b c0 1e 3e b4 91 06 3f 52 f2 03 3f
       0.60830474 0.1550297 0.52566075 0.51541626
0000e0 83 fb fd 3e 9e 40 e2 3e e1 a2 b7 3e fd 01 02 3f
       0.4960595 0.44189924 0.35866454 0.50784284
0000f0 20 d4 cb 3e d2 2c ba 3e 05 b4 38 3f
       0.39810276 0.3636232 0.7214969

network.4.running_var f4 [63]
000000 65 f4 72 3d 5b b0 cd 3e b4 a0 c8 3d fc f8 05 3e
       0.059315104 0.4017361 0.09796277 0.13083261
000010 13 b4 6a 3e f3 b0 6a 3d c2 54 b5 3d 1a 3e b0 3e
       0.22920255 0.05729766 0.08854057 0.3442238
000020 c5 b8 b4 3e c8 2a d8 3d 0e 14 32 3d 02 f4 bf 3d
       0.35297218 0.10555035 0.043476157 0.09372713
000030 1d 5f 5c 3d 20 34 82 3d 69 7b f4 3d 61 bd 37 3d
       0.053801645 0.06357598 0.11937601 0.04485834
000040 01 33 5c 3e 94 94 84 3e a1 54 7d 3e 57 ff 4d 3e
       0.21503831 0.25894606 0.24739315 0.20116936
000050 8a 31 6e 3e 44 80 90 3e b5 8b a2 3d ce 02 b4 3d
       0.23261085 0.2822286 0.07936803 0.087895975
000060 02 71 51 3e 48 d9 3b 3e e0 77 99 3d 41 ee f0 3d
       0.20453265 0.18344605 0.074935675 0.11764193
000070 78 0e 19 3e 0d 0a 57 3d e9 87 3b 3e ee 69 54 3e
       0.14946926 0.05249982 0.18313564 0.20743534
000080 79 98 6f 3e dc 34 a8 3d 9a 56 f5 3e 2a 35 fc 3e
       0.23398007 0.08213207 0.47917634 0.4925931
000090 16 3c 1a 3e ce 4a da 3d 0c eb cf 3d 55 ce 08 3d
       0.15061983 0.10658799 0.101522535 0.0333999
0000a0 df 35 a4 3d 33 ca ba 3d 0b aa bc 3c 7a ef fc 3d
       0.080180876 0.09120598 0.023030302 0.12350364
0000b0 28 10 13 3e 57 63 1c 3e 05 74 dd 3d 4e a4 e8 3d
       0.14361632 0.1527227 0.108131446 0.11359464
0000c0 21 96 43 3e 40 28 56 3d 75 9b b8 3d 27 33 aa 3e
       0.19100238 0.05228448 0.09014026 0.3324215
0000d0 b4 ed a2 3e f7 1d a8 3e a0 94 ac 3d a8 6e bb 3d
       0.31821978 0.3283536 0.084267855 0.091519654
0000e0 72 20 0d 3f 88 f8 53 3e b0 e5 fd 3c 9c 63 c7 3c
       0.5512763 0.20700276 0.030993313 0.02433949
0000f0 96 ef 9b 3d f1 69 16 3e 3f 10 0a 3e
       0.07614057 0.14688851 0.1348276

network.6.weight f4 [63, 63]
000000 c0 c0 5f 3d eb 76 78 be 0d 2c ef 3d c2 4b 2d 3c
       0.05462718 -0.24264114 0.11678324 0.010577144
000010 43 c2 a6 bd 40 fb df 3d 63 4e fc bd 8e d1 89 3d
       -0.08142521 0.10936594 -0.123196386 0.067294225
000020 e5 ed 50 3d 9f 02 9f bd b2 8c 19 be 91 9b db 3b
       0.051008124 -0.07764172 -0.14995077 0.0067018946
000030 7c 3b cb bc 55 45 67 3d a2 ab ac 3d be 46 1d be
       -0.024808638 0.056462605 0.08431174 -0.15359017
000040 80 da cb ba e0 26 37 be 99 17 81 bd 1f 7e 7b 3d
       -0.0015552789 -0.17885923 -0.06303329 0.061399575
000050 cd d1 76 be c1 ed 9a 3c 38 c1 22 3d c6 d0 ef bd
       -0.2410347 0.018912198 0.03973505 -0.11709742
000060 61 61 68 bd ae af 09 be 95 4b 12 be 54 d1 2d 3d
       -0.056733493 -0.13445923 -0.14286645 0.04243596
000070 88 26 7a bd 0b 55 7a 3d 2c 8a 3b 3d 3a 82 04 be
       -0.061071903 0.06111626 0.045786068 -0.12940302
000080 e7 35 d6 bd 8f 22 a6 3c b4 2b 5d bd 2d f9 63 3d
       -0.104595 0.02028015 -0.053996757 0.055657554
000090 ef c5 9a bd 0b 30 5a 3c bc 37 82 3d 16 69 be bd
       -0.07557284 0.013317118 0.06358287 -0.09297387
0000a0 51 02 b5 bc f0 52 40 3d 43 d3 e6 bd 09 22 b1 3b
       -0.022095831 0.046954095 -0.11270764 0.0054056686
0000b0 5d 73 bf 3d 31 3a 2f be 2d 92 2c 3d 94 39 b1 3d
       0.09348176 -0.17112042 0.04213159 0.0865356
0000c0 2d c6 e4 bd c9 01 c3 3d 79 f7 da 3d a4 b8 cc 3d
       -0.111706115 0.09521825 0.10691733 0.09996155
0000d0 09 9f 0f 3e 4e a7 3d be 67 ea fe 3d 9f b0 31 3e
       0.14025511 -0.18520853 0.124470524 0.17352532
0000e0 7e 94 b2 bd ae 26 9b bd 28 40 db bd 93 32 b7 3c
       -0.08719729 -0.07575737 -0.10705596 0.022362983
0000f0 f1 bb 8f bd ed 71 8f bd ad a2 fb bc a1 15 86 bd
       -0.07018269 -0.070041515 -0.030717218 -0.06547094
000100 23 87 04 be 59 aa fa bd 6c d0 e5 3c 7f 48 87 bd
       -0.12942176 -0.122395225 0.028053485 -0.066056244
000110 1a 45 20 be d5 99 5e bc b8 48 df bd 40 0c cc 3d
       -0.1565136 -0.013586481 -0.10902542 0.09963274
000120 ff a8 19 be b7 cf 1a 3e dd e0 59 bd af 97 be 3d
       -0.15005873 0.151183 -0.053192962 0.09306275
000130 52 68 ae 3d 2a 29 75 bd 2c 4b fb 3d 40 5c b4 3d
       0.08515991 -0.05985371 0.12270197 0.08806658
000140 ec a8 69 bd cc 1d 20 3e cb ff ce bc fd 8b 23 be
       -0.057045862 0.15636367 -0.025268456 -0.1597137
000150 33 38 a9 3b 24 62 4d 3d 51 fa ae bc 70 92 c1 3d
       0.00516417 0.050142422 -0.021359595 0.09451759
000160 3f 9a fc bd 66 fb 15 3e 15 ef 71 3d e8 b5 83 3d
       -0.123341076 0.14646682 0.059065897 0.0643118
000170 4a da 98 bd 84 93 27 3d 09 b5 5a bd 9d 8b 1b bc
       -0.0746351 0.040912166 -0.053395305 -0.009493736
000180 c8 5c f9 bc 9c 15 0d be 5a 95 ee bc 7d 44 1c be
       -0.03043975 -0.13777775 -0.02912395 -0.15260501
000190 68 83 83 bd 2c a7 ee bd d4 ef 4d bd d2 ee fc bc
       -0.06421548 -0.11652979 -0.050277546 -0.030875597
0001a0 62 ef a6 bc ed ae 6d 3d 95 a0 48 be f0 a5 52 bd
       -0.020377818 0.05802815 -0.19592507 -0.05142778
0001b0 7b 24 35 3c d5 3a bf 3d 6d 4b ae bd ca d5 10 3e
       0.011056061 0.09337393 -0.0851048 0.14144054
0001c0 36 63 ea bd 58 57 67 bd c0 d3 6c 3e 7a 61 90 3d
       -0.11444704 -0.056479782 0.23127651 0.07049842
0001d0 4c 19 44 3e de d0 b5 3d 4d d7 28 3d 5a ca 5f 3d
       0.19150275 0.08877729 0.04122095 0.054636337
0001e0 4b 4c 5d 3d 90 88 95 bc 23 f1 5b 3e 79 2e ca 3d
       0.054027837 -0.018253595 0.21478705 0.09872145
0001f0 8b 8e 40 3d 59 2e ef bd 46 58 62 3d 91 17 28 be
       0.04701094 -0.11678762 0.055259965 -0.1641524
000200 e2 83 dd bc 64 1f 08 3e 64 bd c3 bc ba 47 b4 bc
       -0.027040426 0.13293225 -0.02389402 -0.022006858
000210 85 57 12 bb 0f 51 cf bd 9a a1 91 3d 55 5d 53 bd
       -0.0022329998 -0.101228826 0.07110901 -0.05160268
000220 f8 70 12 bb 40 9f 72 bd d1 4c 71 bb 23 89 1b bd
       -0.0022345167 -0.059233904 -0.0036819468 -0.03797258
000230 c3 52 93 bd 21 c7 43 bd 4d 76 b1 3d c7 f0 69 bc
       -0.0719352 -0.047797326 0.08665142 -0.014278597
000240 03 7b dc 3d 28 b2 b1 bd 1c 58 75 3d 70 37 11 3c
       0.1076565 -0.08676559 0.05989848 0.008863315
000250 12 1a f2 bd 0f 51 c0 bd b7 83 3b 3e 60 77 d4 bd
       -0.11821379 -0.09390461 0.18311964 -0.103743315
000260 d5 0d 27 bd fc 85 17 be 22 9d 84 3d 6b 23 36 3d
       -0.040784676 -0.14797205 0.06475283 0.04446737
000270 da 83 e3 ba e8 68 b5 bd b8 4f 08 bd 38 bf 90 3d
       -0.001735802 -0.088579 -0.03327915 0.07067722
000280 93 c3 59 3e 34 0d 89 3d 21 29 3e 3d 19 f1 2f 3d
       0.21266012 0.066919714 0.046425942 0.042954538
000290 af ef fc bc 47 ae 1e bd 0c 5c 11 3e 4f 4f 98 bd
       -0.030876009 -0.038740423 0.1419527 -0.07437002
0002a0 ce 5c 43 3d ef 83 fc 3d 1e f1 63 3e 63 56 b0 3d
       0.047695927 0.12329852 0.22259948 0.08610227
0002b0 0e 4c fd 3d 5c 6b 14 bd df 02 36 3e a7 ab e6 bd
       0.12368022 -0.0362352 0.17774533 -0.11263209
0002c0 cd 69 35 bd ea 70 29 bc 09 0a fd bc be 2e c8 bd
       -0.044290353 -0.010341862 -0.030888574 -0.0977454
0002d0 01 17 04 3e c8 69 f1 3d 6d 76 04 3e 4b 78 39 bd
       0.128994 0.11787754 0.12935801 -0.045280736
0002e0 5a cf 7f 3d a4 c2 8a bc 08 60 f4 3d a6 20 3c bd
       0.062453605 -0.016938515 0.11932379 -0.045929573
0002f0 f3 71 49 3c de 6f 5f 3d 97 7f 4a 3e cd c5 2c 3d
       0.012295234 0.054550044 0.19775234 0.042180825
000300 82 73 ab bc 34 82 c1 bd e0 fc e5 bd ed 98 2b 3e
       -0.020929102 -0.094486624 -0.11229873 0.16757555
000310 10 80 ce bc 74 87 a3 3c 35 41 4a 3d 29 d1 60 3d
       -0.02520755 0.01996205 0.049378593 0.05488697
000320 10 85 2e 3d f2 68 24 be 2a 82 22 be 99 6e ec 3d
       0.042607367 -0.16055658 -0.15869966 0.11544532
000330 a9 40 9d 3b 33 f8 1b 3e fc 63 d2 bb 5a 52 a4 3d
       0.004798968 0.15231399 -0.0064206105 0.0802352
000340 e4 c4 e0 bd 77 17 bd 3d 18 1e 19 3e 56 56 b6 bd
       -0.10975054 0.09232991 0.14952886 -0.08903186
000350 06 3d 44 3e d0 b2 35 3d e9 cf d3 3c 04 af 2c 3d
       0.19163904 0.044359982 0.025855975 0.042159095
000360 22 d0 b3 bd 42 40 c9 bb d5 6b 18 3c 50 45 55 bd
       -0.087799326 -0.0061416933 0.009303053 -0.052068055
000370 ae 44 fc 3d 26 0f cc 3d 66 bd 79 3d f0 a4 d0 3d
       0.12317787 0.09963827 0.06097164 0.10187709
000380 e8 40 17 be 63 4d a2 bc b7 28 7d 3d 42 0e d9 bd
       -0.14770854 -0.019812291 0.061806407 -0.105984226
000390 a6 f1 3f bd db 9c 5e 3d a2 e2 84 3d 9c 9b 8d 3d
       -0.046861313 0.054348808 0.06488539 0.06914446
0003a0 f1 8f c5 bd 80 47 9f bb 76 0a aa 3d c8 86 de 3d
       -0.09646595 -0.0048608184 0.083027765 0.10865551
0003b0 bb 12 68 bd 63 59 d7 3a 88 c0 78 3c fc 75 62 bd
       -0.056658488 0.0016429838 0.015182622 -0.0552883
0003c0 c4 4e 8d 3d 49 26 5e bd f6 bc 8a 3d f7 d2 04 3d
       0.06899789 -0.05423573 0.06774323 0.032427754
0003d0 1e 89 0a 3e 4d ea 9a bd 95 21 94 bd dc a5 f2 3d
       0.13528869 -0.075642206 -0.07232968 0.118480414
0003e0 2b fc 38 be e3 b7 bb bd a0 64 13 bd 00 69 cc bc
       -0.18064944 -0.09165933 -0.035984635 -0.024952412
0003f0 6b 7f 11 3e f2 b2 7a 3d 98 ac 00 be e1 f9 0d 3e
       0.14208762 0.06120581 -0.1256584 0.13864852

network.6.bias f4 [63]
000000 d0 f2 ff 3e fa cd ff 3e 41 fe ff 3e 97 df fe 3e
       0.4998994 0.49961835 0.49998668 0.4977996
000010 c4 20 00 3f fa 8b 00 3f 17 94 ff 3e bf 4e 00 3f
       0.50049996 0.5021359 0.4991767 0.50120157
000020 fb cd 00 3f a8 03 00 3f 45 7c 00 3f e7 97 00 3f
       0.503143 0.5000558 0.5018962 0.50231785
000030 65 d8 0b 3f d2 db fe 3e f3 24 00 3f b6 bb ff 3e
       0.54627067 0.49777085 0.5005638 0.499479
000040 89 e8 ff 3e 8c ae fe 3e 03 09 01 3f 4c e6 ff 3e
       0.49982098 0.49742544 0.50404376 0.4998039
000050 3d d6 ff 3e 75 1f 00 3f b2 d2 ff 3e ec 17 00 3f
       0.49968138 0.50048 0.49965435 0.500365
000060 ac e0 ff 3e be ff ff 3e 13 de ff 3e c1 fc ff 3e
       0.499761 0.49999803 0.49974117 0.49997523
000070 84 d9 ff 3e 79 e4 ff 3e 8f 20 00 3f 93 e4 ff 3e
       0.4997064 0.49978998 0.5004968 0.49979076
000080 48 ca 00 3f df e9 ff 3e 7d 08 00 3f 21 54 01 3f
       0.50308657 0.49983117 0.5001295 0.50518996
000090 aa 9d ff 3e d7 08 00 3f 3d 2b 00 3f 00 e3 ff 3e
       0.49924976 0.5001349 0.50065976 0.49977875
0000a0 32 f4 ff 3e d4 c1 ff 3e 1e cd ff 3e f9 e0 ff 3e
       0.49990994 0.49952567 0.4996118 0.49976328
0000b0 27 40 00 3f 36 75 00 3f b9 0f 00 3f b6 06 00 3f
       0.5009789 0.5017885 0.5002399 0.5001024
0000c0 27 19 00 3f 78 45 00 3f 32 03 00 3f df 8e ff 3e
       0.5003838 0.50106 0.50004876 0.4991369
0000d0 65 47 00 3f be 42 00 3f ff d3 ff 3e 3f f5 ff 3e
       0.5010894 0.5010184 0.49966428 0.49991795
0000e0 4e f2 ff 3e 57 d3 ff 3e cf 83 00 3f 99 b3 ff 3e
       0.4998955 0.49965927 0.50201124 0.4994171
0000f0 27 0f 00 3f b9 1a 00 3f ce f1 ff 3e
       0.5002312 0.50040776 0.4998917

network.7.running_mean f4 [63]
000000 64 0c 68 3e 55 20 fc 3e 65 37 28 3f d6 a0 26 3f
       0.22660977 0.49243417 0.65709525 0.65089166
000010 a4 eb 09 3f e3 10 2c 3f 5c b1 ff 3e 39 3a 36 3f
       0.53875184 0.6721327 0.49940002 0.7118259
000020 22 11 0a 3f 6c 78 13 3f c9 45 28 3f c0 f7 18 3f
       0.5393239 0.57605624 0.65731484 0.59753036
000030 eb 13 0f 3f ed 74 17 3f 9b 80 e4 3e 66 4a bb 3e
       0.5588977 0.5916279 0.44629368 0.365802
000040 a3 73 6c 3e dc 62 22 3f a9 fb 12 3f 52 6c 0b 3f
       0.23090987 0.634321 0.5741525 0.5446216
000050 42 9a 09 3f 32 79 15 3f ab 52 ed 3e d5 d0 20 3f
       0.53751004 0.58388054 0.46352133 0.6281865
000060 b7 a7 89 3e 63 3c cc 3e 50 cf e0 3e 74 93 dd 3e
       0.2688577 0.3988982 0.43908167 0.4327656
000070 6f ac 8e 3e 1a b7 06 3f be cc f5 3e 83 08 a8 3e
       0.2786593 0.5262314 0.48007768 0.32818994
000080 96 9c c7 3e 73 60 ab 3e 8e dd 28 3f d8 bb 25 3f
       0.38986653 0.33472022 0.65963066 0.6473975
000090 ae cf 0d 3f 47 64 fa 3e 1b ea af 3e 33 0c de 3e
       0.5539502 0.4890463 0.34358296 0.43368682
0000a0 1f 56 cf 3e 51 2a 3b 3f cf b6 af 3e ba 38 e2 3e
       0.40495393 0.73111445 0.3431916 0.44183904
0000b0 b9 9e 01 3f 71 dd 4e 3f d9 50 4e 3f de 2e e4 3e
       0.50632817 0.8080664 0.80592114 0.44567007
0000c0 64 22 bd 3e bd 96 11 3f 90 bf 46 3e e7 c3 0f 3f
       0.369403 0.56870633 0.19409013 0.561583
0000d0 11 c3 13 3f f0 7d 4a 3f 48 47 43 3f 74 34 98 3e
       0.5771952 0.79098415 0.7628064 0.2972752
0000e0 ca 96 f3 3e c1 16 0a 3f 40 fc df 3e e5 a4 a2 3e
       0.4757598 0.5394097 0.4374714 0.3176643
0000f0 82 b0 9e 3e 57 a8 cc 3e 95 09 24 3f
       0.3099404 0.39972183 0.6407712

network.7.running_var f4 [63]
000000 a5 6a a4 3e 7f 99 7a 3e 54 4f a3 3e 2e f9 a8 3e
       0.32112613 0.24472617 0.3189646 0.3300261
000010 f0 ce 5c 3e d2 bb b3 3e c7 4f 1e 3d ac df 0e 3e
       0.21563315 0.35104233 0.0386503 0.13952512
000020 76 7e 3d 3e 37 39 16 3e af 3b 0b 3e 39 b3 97 3d
       0.18505272 0.14670263 0.13596986 0.07407231
000030 f1 9c cb 3c 21 46 e7 3d f9 4b 35 3d 41 76 c6 3d
       0.024855109 0.11292673 0.044261906 0.09690524
000040 53 bc cd 3e cc 8f af 3e b7 6f 1c 3e 0f 7b 4b 3e
       0.40182742 0.34289396 0.15276991 0.19871162
000050 16 2f 34 3e af 38 2f 3e bc ff c3 3d 26 0d 0d 3e
       0.17596087 0.17111467 0.09570262 0.13774547
000060 62 b1 0d 3e 03 73 99 3e 40 92 a7 3d 46 a1 aa 3d
       0.13837197 0.2997056 0.08182192 0.08331542
000070 48 bc 92 3d 76 f7 99 3d 7f 2d 32 3e de 82 f8 3d
       0.07164818 0.075179026 0.17400168 0.12134336
000080 71 4a 9c 3d e9 11 0f 3e 2b 61 fb 3d af a6 42 3d
       0.07631386 0.13971676 0.12274393 0.047522243
000090 7d d9 06 3e 13 40 5c 3e e2 26 4d 3d f2 13 38 3e
       0.13168903 0.21508817 0.05008591 0.17976359
0000a0 be c9 25 3e f7 0d 49 3e 80 66 39 3d 26 db 74 3e
       0.1619024 0.19634233 0.045263767 0.23911723
0000b0 59 27 99 3d 31 06 22 3e 97 1e 8f 3e cf 32 ff 3e
       0.07478208 0.15822674 0.27953026 0.4984345
0000c0 81 7d 83 3d 39 73 8b 3d 30 0f 96 3e 0e 13 f1 3e
       0.06420422 0.06809086 0.29308462 0.4708485
0000d0 54 c9 23 3e d5 6e d1 3e 48 d1 4e 3e d9 58 a3 3d
       0.1599477 0.4090487 0.20197022 0.07975931
0000e0 f4 44 99 3e ba 4f 0c 3f 4c e1 ad 3d c7 f8 93 3e
       0.2993542 0.54809153 0.084902376 0.2890074
0000f0 c1 94 25 3d 5a fe 0c 3e 27 72 d8 3e
       0.040425066 0.13768902 0.4227459

network.9.weight f4 [63, 63]
000000 ca 79 e6 3d 2f ad 20 bd ab b4 cb 3d 3a 9e 79 bd
       0.11253698 -0.03922766 0.09946569 -0.060941912
000010 2b d3 14 bd 38 7f 07 bd a3 eb 94 3d c3 d0 3e 3d
       -0.036334198 -0.03308031 0.07271507 0.04658581
000020 08 fc 67 bd 87 bd fa bd 75 f2 f2 bd 18 b9 04 bd
       -0.05663684 -0.12243181 -0.11862651 -0.03240308
000030 d2 b5 a0 be a6 04 70 3d 45 00 3b be cb 65 fb 3d
       -0.31388718 0.058598183 -0.18261822 0.12275275
000040 1a dd 7b bd 50 fa 42 bd f5 ab b6 bd ee ac 35 bb
       -0.061490156 -0.047601998 -0.08919517 -0.0027721482
000050 cb a2 95 3d fc c8 03 3e 62 a0 d1 3d b0 2e 81 3c
       0.07306441 0.12869638 0.10235669 0.015769333
000060 0a 7e 0d bc 1b 27 37 bc b2 2f 57 3d 73 79 34 3e
       -0.008636007 -0.011178757 0.05253572 0.17624454
000070 5f 77 85 3d ea 1e 02 3c db 52 48 3c bb c5 c1 3d
       0.06516909 0.007941941 0.0122267855 0.09461542
000080 ca a8 1a be 02 e8 51 bd bd 60 14 3e bf 43 28 be
       -0.1510345 -0.05124665 0.14490028 -0.16432093
000090 c0 a1 ae bd 6e 73 09 be 02 4c 34 be b3 97 c4 bd
       -0.08526945 -0.13422939 -0.1760712 -0.09599247
0000a0 22 ea b3 bc 9d 73 f0 bd 1a ac 81 bc 53 d0 58 3d
       -0.02196223 -0.117408015 -0.015829135 0.05293305
0000b0 69 90 fd bd 30 d9 91 bd 58 be 76 3d cc c4 27 be
       -0.1238106 -0.07121503 0.06024012 -0.16383666
0000c0 ac c3 87 3d 2c c1 e4 bd 22 77 56 3d 1d e5 c8 3c
       0.06629118 -0.11169657 0.052359708 0.024523312
0000d0 73 7a ac 3d c4 75 d1 bd 1b 00 3b bd 7d c6 c1 3d
       0.08421793 -0.1022754 -0.045654397 0.09461687
0000e0 0b 64 71 bc 58 75 ae bd b8 16 76 bd fa ad f2 3d
       -0.014733325 -0.08518475 -0.06008026 0.1184959
0000f0 0c 7c 07 be 16 97 27 bd 17 de da bc 72 41 86 bc
       -0.13230914 -0.04091557 -0.026717229 -0.016388629
000100 3a 57 3a 3d b5 97 cc 3d 55 24 93 b9 d2 e9 8d bd
       0.045493342 0.09989873 -0.00028065094 -0.06929363
000110 3b 84 c1 3d 7e 35 cf 3c 7b e8 5f bd a6 43 0d 3e
       0.09449049 0.025294062 -0.05466507 0.13795337
000120 4b 7b ad bd 4e 05 d0 bb 6a 03 0d 3e fd ca e6 bd
       -0.08470782 -0.0063482886 0.13770834 -0.11269186
000130 50 db d1 3c 03 c2 aa bc 7b fb 28 3e 83 ec 51 3e
       0.025617272 -0.020844465 0.16502182 0.20500378
000140 40 3a 1b bd f2 97 53 3e ca 7e c6 3d 85 7b 85 bd
       -0.03789735 0.20663431 0.09692152 -0.065177
000150 d5 89 e1 3d 14 0c f5 bd a9 ca c4 bd e8 94 81 3e
       0.110126175 -0.11965194 -0.09608967 0.2530892
000160 c3 f0 11 3d 50 83 87 bd 87 ef cd bc 9a a2 62 bd
       0.03563 -0.06616843 -0.02513863 -0.05533085
000170 da bf 18 bd 6d d7 56 bc 57 5a e8 3d 45 4b 01 be
       -0.03729234 -0.013112885 0.11345356 -0.1262637
000180 f5 d4 f3 bd ce 34 14 3e 3e 78 30 3d 5b 9a 3c 3e
       -0.11905853 0.14473268 0.043083422 0.18418257
000190 c4 7d 66 bd 5d 35 49 bd 70 cc 12 3e a2 c1 bd bc
       -0.056272283 -0.049123157 0.14335799 -0.02316362
0001a0 2b 8a 88 3d 46 01 97 3d 1d 8b 4e 3d 8f 62 56 3d
       0.066669784 0.0737329 0.050425638 0.052340087
0001b0 44 fb de 3c 83 5b dc 3b 49 5c 8b bd 7c 6c c3 3c
       0.027219422 0.0067247762 -0.06804711 0.02385544
0001c0 69 a1 ff bd d0 f5 44 3d 0c 56 4f bd aa 53 28 bd
       -0.124819584 0.048085988 -0.05061917 -0.041095413
0001d0 ad db 11 3c 27 3a 38 3c 2e c4 e0 3d ab 7c 4e be
       0.008902472 0.011244333 0.10974918 -0.20164745
0001e0 3d d7 b7 3d d6 7c f1 3d 27 15 ef 3d d5 2a 1f bc
       0.089766 0.11791389 0.11673956 -0.009714802
0001f0 a1 54 c6 bd b7 62 49 3e eb 59 01 3c 99 60 c6 3c
       -0.096841104 0.19666563 0.007894973 0.024215983
000200 2e 28 15 bd 0f 32 94 bc 8b 40 21 bd 54 da 1c 3e
       -0.03641527 -0.018090276 -0.039368194 0.1531766
000210 49 2d 79 3d ee d1 aa 3b b0 fc 57 3e 74 0e ca bc
       0.060834203 0.005213014 0.21092486 -0.024665095
000220 9e 63 83 3d de f0 b3 3d a7 3e 03 bd 2b 1c 2f 3d
       0.06415485 0.08786176 -0.03204217 0.042751472
000230 c9 c1 d9 bd e4 12 02 39 28 d9 6d 3e 66 92 6b 3d
       -0.10632665 0.00012404803 0.2322737 0.057512663
000240 73 da ab 3d 72 c8 db bd 2f 5c 9c 3d 8d b8 88 3d
       0.08391275 -0.10731591 0.0763477 0.06675825
000250 f5 9e 58 bd 9b 0c 01 3e d9 1f 75 3e ef 76 07 be
       -0.05288597 0.12602465 0.2393793 -0.13228963
000260 b4 a0 0d be 89 5a a6 3b d1 8a 48 3c 47 ad da 3c
       -0.13830835 0.0050767106 0.012240128 0.026693953
000270 50 74 6d 3e 40 39 88 3d 74 1a 9c bc 03 f0 6a bd
       0.23188901 0.066515446 -0.019055583 -0.0573578
000280 c6 3e d3 3d 7e 9f 1a 3b 5e d7 55 bd 46 40 f6 bd
       0.103147075 0.00235936 -0.052207343 -0.12023978
000290 b7 54 30 3e 03 5a 77 bc 8a 0f b2 bc e9 f1 93 3d
       0.17219816 -0.015097144 -0.021735925 0.07223875
0002a0 51 c2 c3 bd a8 a4 0b bd ab 08 1f bd 33 06 f0 3c
       -0.09558547 -0.034092575 -0.038826626 0.029299831
0002b0 ee 60 10 be 95 84 d0 bd 54 de 99 3d 76 7d ee bd
       -0.14099476 -0.10181538 0.07513109 -0.116450235
0002c0 b1 ff 66 3d e2 7c 94 3d 50 b6 a9 bd a2 bd af bd
       0.05639619 0.07250382 -0.082867265 -0.085810915
0002d0 c4 4a 5c bd 0e 39 19 3e af 4a 9d bd c6 b8 2d 3e
       -0.05378224 0.14963171 -0.076802604 0.16965017
0002e0 88 43 06 bc 72 42 0b 3e 1c 8e 60 3c ff 53 93 3c
       -0.008194812 0.13599566 0.0137057565 0.017984388
0002f0 c6 1b e2 3c 12 66 18 bb 73 2a e2 3d a6 5d 61 bd
       0.027601134 -0.0023254198 0.11043253 -0.05502095
000300 9c 20 94 bd 77 f4 26 be 44 dc 81 bd 22 d0 b2 3d
       -0.07232782 -0.16304193 -0.063408405 0.087311044
000310 d6 87 33 3d 5a bc d1 3d bd 06 fe bd 5b 74 82 bd
       0.043830715 0.10241003 -0.12403629 -0.06369849
000320 8f c7 e2 bc e4 00 fa bd 23 66 82 3d 80 7d 99 bd
       -0.027683048 -0.12207201 0.06367137 -0.0749464
000330 fe 3d 8f bd 03 ed 09 bd 62 40 aa 3c c2 b3 79 bd
       -0.06994246 -0.033673298 0.020782653 -0.060962446
000340 5f 22 32 3e 1d 6c f6 3c e0 37 e4 bc c5 34 45 be
       0.17395924 0.03008085 -0.027858675 -0.19258411
000350 18 39 f2 bc 98 ca 2d 3d f8 9e 11 3d 95 f3 a9 3d
       -0.02956824 0.042429537 0.035551995 0.08298413
000360 5a bf 82 3d 6b 1b f3 3d b2 14 32 3e fe d8 ce bc
       0.06384154 0.11870464 0.17390707 -0.025249954
000370 be eb 0c be 0e 88 7a 3c 16 f7 e7 bd 67 f2 ba 3d
       -0.13761804 0.015291227 -0.11326425 0.09128266
000380 3d fb da bd 0b 89 c3 3d 9c fe a9 3d 35 1a b6 bd
       -0.10692451 0.09547623 0.08300516 -0.08891717
000390 a4 46 1c 3e 43 6a 06 3c 12 30 e8 bd 48 9d f7 3d
       0.15261322 0.008204046 -0.11337294 0.12090546
0003a0 41 45 be 3d 08 bf e3 bd d7 a9 cf 3c c3 78 e4 3d
       0.09290553 -0.11120421 0.02534954 0.11155846
0003b0 0b 32 5c be f9 ac d2 bc c2 a9 3c be d7 1d 21 be
       -0.21503465 -0.025717245 -0.18424132 -0.15734039
0003c0 49 e4 2c bd 1b e8 85 bd 60 4a 50 be 74 3f c7 3d
       -0.042209897 -0.06538411 -0.20340872 0.097288996
0003d0 70 80 03 bd 84 ef 54 3e 7d b2 c2 bd 96 b0 f0 3d
       -0.03210491 0.20794493 -0.095067 0.11752431
0003e0 ad 04 bc 3d f1 66 5f bc 35 bc 6f bd 8f 58 d0 3d
       0.09180579 -0.013635383 -0.058529098 0.10173141
0003f0 91 fc e1 3b b8 47 84 bd e7 cc 09 bd 66 09 42 bd
       0.0068965633 -0.06458992 -0.033642676 -0.047372244

network.9.bias f4 [63]
000000 0c f7 ff 3e a1 4f 00 3f 44 88 00 3f bb 04 00 3f
       0.4999317 0.50121504 0.50207925 0.5000722
000010 29 e9 ff 3e dd ef fe 3e e4 fc ff 3e 90 b8 ff 3e
       0.49982575 0.49792376 0.49997628 0.49945498
000020 e4 fc ff 3e 7c 46 00 3f e8 94 ff 3e 8f e5 ff 3e
       0.49997628 0.5010755 0.49918294 0.49979827
000030 f5 bf fe 3e 91 c5 ff 3e 5f 34 00 3f 88 03 00 3f
       0.49755827 0.4995542 0.5007991 0.5000539
000040 01 90 00 3f 42 29 00 3f 3f 6c 00 3f 15 f4 ff 3e
       0.5021973 0.50062954 0.5016517 0.49990907
000050 7f f5 ff 3e 73 e5 ff 3e 87 bc ff 3e e9 14 00 3f
       0.49991986 0.49979743 0.49948522 0.50031906
000060 90 80 00 3f cd 80 00 3f e5 29 00 3f 4e bf ff 3e
       0.5019617 0.50196534 0.50063926 0.4995064
000070 ae aa ff 3e b8 f8 fe 3e 63 a4 01 3f f0 f4 ff 3e
       0.49934906 0.49799132 0.5064146 0.4999156
000080 68 3f ff 3e 93 95 ff 3e 65 31 00 3f b2 db ff 3e
       0.49853063 0.49918804 0.5007537 0.49972302
000090 52 e2 ff 3e 40 ee ff 3e 10 ea 04 3f fa e9 01 3f
       0.49977356 0.49986458 0.5191965 0.50747645
0000a0 5e b9 ff 3e 9e 68 00 3f c8 46 00 3f fd e4 ff 3e
       0.4994611 0.50159633 0.50108004 0.49979392
0000b0 1c a1 ff 3e 8c f8 ff 3e 9d a0 ff 3e e7 21 00 3f
       0.49927604 0.49994314 0.49927226 0.5005173
0000c0 c2 4c 00 3f 00 c0 ff 3e 08 e0 fe 3e 37 90 ff 3e
       0.50117123 0.49951172 0.49780297 0.49914715
0000d0 66 4d 00 3f b3 a0 ff 3e 6f fb ff 3e ed 8b ff 3e
       0.501181 0.4992729 0.49996516 0.49911442
0000e0 59 f7 ff 3e b1 b7 ff 3e 38 a1 01 3f 50 d3 ff 3e
       0.499934 0.49944833 0.50636625 0.49965906
0000f0 40 7d ff 3e eb 00 ff 3e 4a 01 00 3f
       0.49900246 0.49805388 0.50001967

network.10.running_mean f4 [63]
000000 c7 06 87 3e 61 30 32 3f 9f ef 26 3f bc 36 d3 3e
       0.26372358 0.6960507 0.6520938 0.41252697
000010 a1 84 bf 3e 13 c0 c9 3e 64 4b 01 3f 48 83 d6 3e
       0.37405875 0.39404353 0.5050566 0.41897035
000020 1c 1f 32 3f 08 6d 45 3f 64 cd 83 3e 60 3a 05 3f
       0.6957872 0.77119493 0.25742638 0.520422
000030 68 f7 ec 3e 83 72 10 3f 53 54 32 3f d1 9f dd 3e
       0.46282506 0.5642473 0.6965992 0.43285993
000040 6e 37 2d 3f 72 fe 0d 3f 2e a4 21 3f 3b e4 d5 3e
       0.67662704 0.5546638 0.63141143 0.4177569
000050 f2 8f 4c 3f 0f b0 cd 3e bc 94 20 3f 3c 4b bf 3e
       0.79907143 0.40173385 0.6272695 0.37362087
000060 b5 c8 42 3f 11 40 15 3f 88 e3 1f 3f 31 e8 35 3e
       0.76087505 0.5830088 0.6245656 0.17764355
000070 2f de 1d 3f f3 29 db 3e cb b9 29 3f 23 79 be 3d
       0.6166715 0.42805442 0.6629912 0.09300449
000080 09 9a d6 3e 05 11 e3 3e 9a b0 04 3f a1 dd 20 3f
       0.41914394 0.44348922 0.5183197 0.6283818
000090 7c df 09 3f d2 c5 ac 3d a0 aa c4 3e 67 0a 42 3f
       0.53856635 0.08436169 0.38411427 0.7579712
0000a0 b9 1b fa 3e ec 7e 12 3f ea 57 31 3f 24 5f 70 3e
       0.48849276 0.5722492 0.6927477 0.23473793
0000b0 f5 87 2d 3f 6c e1 d8 3e 88 5e f3 3e a7 86 b0 3e
       0.6778558 0.42359483 0.4753306 0.34477732
0000c0 aa de 45 3f c4 2f 71 3e 52 61 29 3f 1c a8 f6 3e
       0.77292883 0.23553377 0.66164124 0.48175132
0000d0 9a 7c 12 3f 36 f5 11 3f d9 31 fa 3e d3 3a 24 3f
       0.57221377 0.5701479 0.48866156 0.6415226
0000e0 52 42 c5 3e 22 64 03 3f b0 5b 3c 3f a6 b5 e5 3e
       0.3852716 0.51324666 0.73577404 0.4486515
0000f0 59 ab c6 3e f7 bd f2 3e b0 56 d8 3e
       0.38802603 0.47410557 0.42253637

network.10.running_var f4 [63]
000000 c7 a5 0a 3e f3 af db 3e aa 5c 99 3e ec e7 95 3e
       0.13539802 0.42907676 0.2995351 0.29278505
000010 cf b1 02 3e 02 f7 ae 3d 68 78 a3 3e f7 e3 e0 3e
       0.12763141 0.08543207 0.319278 0.43923923
000020 ab 54 28 3f 3f ad fd 3e ac d1 af 3d 86 35 88 3e
       0.65754193 0.4954624 0.085849136 0.26603335
000030 48 a8 e7 3d 18 1e a2 3d 60 a0 30 3e 7c 07 9f 3e
       0.11311394 0.07915896 0.17248678 0.31060398
000040 9f d2 47 3e f4 db c5 3e 23 0e eb 3e 56 8d e6 3d
       0.1951394 0.38644373 0.45909223 0.112574264
000050 f4 c2 cd 3e e5 b1 7d 3e d8 85 d5 3d 72 ff 92 3e
       0.401878 0.24774893 0.10425919 0.28710514
000060 0f 5b b7 3e 2f 98 a7 3e 20 78 b3 3e b7 f8 27 3e
       0.3581166 0.32733294 0.35052586 0.16403471
000070 74 e0 df 3e a3 38 5e 3e ee b2 85 3e 22 58 47 3f
       0.43725932 0.21701293 0.26113075 0.77868855
000080 d7 eb 3f 3e 74 9f 88 3e 4f 88 36 3e 9e a9 6c 3e
       0.1874231 0.26684153 0.17825435 0.23111579
000090 79 b1 0d 3f 11 d4 eb 3e 07 c3 52 3d 47 f7 ff 3e
       0.55348927 0.4606023 0.051455524 0.49993345
0000a0 55 d9 ec 3e e3 2d 14 3f 52 b8 03 3e e6 52 17 3f
       0.4625956 0.5788252 0.12863281 0.5911087
0000b0 9c e4 3c 3e 4c e9 b7 3d 57 65 f4 3d a1 f6 50 3e
       0.18446583 0.08980045 0.119333915 0.20406581
0000c0 d6 70 a0 3e 10 ad 1d 3e 11 b5 fa 3d 0c 35 17 3e
       0.31336087 0.1539805 0.12241567 0.1476633
0000d0 fd e2 af 3e 6f 46 75 3e 10 15 15 3e c3 41 0a 3f
       0.34352866 0.2395265 0.14558816 0.54006594
0000e0 61 67 f9 3e 67 f6 5f 3e fe 86 e1 3e bd 32 87 3e
       0.48711684 0.21871339 0.44048303 0.26405898
0000f0 d6 94 d6 3d 80 15 89 3e ef 76 52 3e
       0.10477607 0.26774216 0.20553182
