src/runs/ann_left_hand/20241104/20241104-1417/ann_left_hand_3_layers_best.pth (torch, 143302 bytes, 26 tensors)

network.0.weight f4 [63, 126]
0.0052933563 -0.0054942784 -0.08403686 0.06930591 -0.05557416 -0.055176653 -0.1047747 0.042776313
0.010397329 -0.08409454 0.0018600333 0.0046321102 -0.04738694 -0.024788154 -0.102068804 -0.08795484
0.052611418 -0.023603706 -0.0987263 0.063533515 -0.05009163 -0.012216124 -0.028822483 0.068925224
0.10913019 0.039401773 0.04076386 0.09903463 -0.005363438 0.09862176 -0.045391638 -0.061990093
0.021995766 0.115474775 -0.038326547 -0.041015755 0.012931769 0.07554514 0.10008235 0.088363394
0.0055909962 0.053216908 -0.05435815 0.032040842 0.09362339 0.022214025 -0.023028623 0.003568691
0.054498773 0.04154742 -0.061816696 -0.049955897 -0.033289902 -0.08544928 -0.046137553 -0.046940804
0.057456557 -0.08268904 0.020535594 -0.09213103 -0.094815806 0.016806547 0.0020205046 0.05651922
0.019477786 0.048391685 -0.05274337 0.0073854704 -0.0492826 -0.0631217 -0.041234776 0.0706714
-0.013310391 -0.062772125 0.024004731 -0.04022711 0.024638183 -0.034075946 -0.03383132 -0.0046565123
0.028522942 0.05516662 -0.05618608 0.073499076 0.05899416 -0.09543105 -0.021215979 0.090482935
0.0795651 -0.043256514 0.0955348 0.03289062 0.05024388 0.08323283 -0.012097432 0.0787339
0.12991877 -0.07355679 -0.06365442 0.020562971 -0.019217514 -0.07349078 -0.05943255 -0.03075137
-0.02574476 -0.052258343 -0.089740135 0.033779602 -0.017607937 -0.015851377 -0.027825374 -0.05657425
0.060005505 0.023646649 0.053866018 0.03668039 0.021659635 -0.030502697 -0.048599042 -0.025426166
0.008519346 -0.048246365 -0.01717659 0.01361963 0.01320699 -0.04323325 -0.008968252 0.06645776
0.0410218 0.037969355 -0.022069486 -0.04985636 -0.0014963783 0.0034126511 0.002989514 -0.054228183
0.05799824 -0.055686675 -0.029700793 -0.0386568 -0.04868412 -0.032982558 0.01818595 0.018245544
0.068034664 -0.05661864 -0.05369988 0.08284445 0.01644425 0.004920394 0.06621021 -0.098894216
0.05705534 -0.062597476 0.022862354 -0.07881178 -0.0709304 0.021150729 -0.0086073615 -0.054245453
0.044282317 0.019204764 0.0535348 0.025063915 0.016032279 -0.059895694 -0.0651576 0.052131448
0.063983925 -0.02156583 -0.06411211 -0.030577306 0.08744884 0.047278266 0.06869351 0.03523843
0.056097187 0.070287876 -0.0012580898 0.05316806 -0.0014897598 0.024646508 0.028333852 -0.03172964
0.08959598 0.023909623 0.078596614 0.014573938 -0.037378523 0.08904112 -0.018576322 0.025291603
0.03918192 0.021943375 -0.027383706 0.06958266 -0.034115385 -0.0018425183 0.009330675 0.05784394
0.02144778 -0.046903558 0.110101774 0.025412776 0.04821936 -0.032998174 0.099936806 -0.014453225
-0.0115714455 -0.081264816 0.046503138 0.12796533 0.042827025 0.025060646 0.07256344 -0.023014309
-0.003197847 0.019047186 0.06925459 -0.022625038 0.10304149 -0.057895802 -0.013031892 0.118272424
0.094434656 0.0038551998 0.027139846 0.04994096 0.032945845 0.09864299 0.10061211 -0.09187817
-0.09383196 0.05864884 0.04092409 -0.032327417 0.01976007 0.03329103 0.07613954 -0.021797178
-0.045975547 -0.06492498 -0.049970437 0.026660334 -0.029457323 -0.056252405 -0.02543575 0.009784431
-0.039049476 0.017982727 0.059893437 -0.05121863 -0.0059468844 -0.027713545 0.09150634 -0.0030627192
00000000: e473 ad3b 5909 b4bb 841b acbd 42f0 8d3d
00000010: bba1 63bd ea00 62bd 1e94 d6bd 3736 2f3d
00000020: 8f59 2a3c c239 acbd 5ccc f33a f5c8 973b
00000030: cf18 42bd 8710 cbbc 7309 d1bd ab21 b4bd
00000040: 127f 573d 8f5c c1bc 0431 cabd dc1d 823d
00000050: e22c 4dbd 2326 48bc 211d ecbc ab28 8d3d
00000060: a67f df3d c163 213d 01f8 263d abd2 ca3d
00000070: c7bf afbb 35fa c93d 95ec 39bd 53e9 7dbd
00000080: 7730 b43c 0a7e ec3d 4cfc 1cbd 2300 28bd
00000090: c5df 533c 69b7 9a3d faf7 cc3d def7 b43d
000000a0: ad34 b73b f9f9 593d a7a6 5ebd 423d 033d
000000b0: 9fbd bf3d 30fa b53c 86a6 bcbc b3e0 693b
000000c0: 1b3a 5f3d a12d 2a3d 8133 7dbd 8e9e 4cbd
000000d0: fe5a 08bd 0800 afbd bbfa 3cbd 0045 40bd
000000e0: 9157 6b3d df58 a9bd 433a a83c 32af bcbd
000000f0: ca2e c2bd e2ad 893c 716a 043b b380 673d
00000100: e18f 9f3c 5c36 463d 6f09 58bd d101 f23b
00000110: 8ddc 49bd f345 81bd cce5 28bd 2bbc 903d
00000120: d413 5abc ac8e 80bd 92a5 c43c 2fc5 24bd
00000130: 04d6 c93c 3893 0bbd b692 0abd a895 98bb
00000140: f2a8 e93c 65f6 613d 6023 66bd af86 963d
00000150: dca3 713d 5b71 c3bd 22cd adbc 1e4f b93d
00000160: 07f3 a23d be2d 31bd c0a7 c33d 51b8 063d
00000170: 87cc 4d3d f975 aa3d 4f34 46bc 3d3f a13d
00000180: 6d09 053e f1a4 96bd 405d 82bd ad73 a83c
00000190: 0c6e 9dbc 5682 96bd 8c6f 73bd 4cea fbbc
000001a0: ade6 d2bc d80c 56bd adc9 b7bd 7b5c 0a3d
000001b0: 853e 90bc bfda 81bc 0af2 e3bc 67ba 67bd
000001c0: 55c8 753d 9eb6 c13c 9da2 5c3d 2d3e 163d
000001d0: 8c6f b13c cbe0 f9bc ca0f 47bd 894a d0bc
000001e0: ba94 0b3c fb9d 45bd ecb5 8cbc de24 5f3c
000001f0: 2262 583c 5915 31bd 93ef 12bc 021b 883d
00000200: 7a06 283d c185 1b3d 11cb b4bc 2f36 4cbd
00000210: 2022 c4ba c9a6 5f3b b9eb 433b 5f1e 5ebd
00000220: 908f 6d3d b617 64bd 144f f3bc 9856 1ebd
00000230: 0069 47bd b818 07bd b4fa 943c ae77 953c
00000240: c255 8b3d f2e8 67bd 68f4 5bbd 5aaa a93d
00000250: 17b6 863c 423b a13b 3899 873d 0d89 cabd
00000260: dcb2 693d 1b33 80bd d549 bb3c 1268 a1bd
00000270: f543 91bd 4b44 ad3c e405 0dbc 7b30 5ebd
00000280: 6061 353d 4f53 9d3c 4e47 5b3d d752 cd3c
00000290: 2056 833c 3055 75bd 5971 85bd c987 553d
000002a0: 010a 833d d3aa b0bc 364d 83bd 427d fabc
000002b0: 6118 b33d dba6 413d 2faf 8c3d 2c56 103d
000002c0: 2ac6 653d 17f3 8f3d 7de6 a4ba c0c6 593d
000002d0: 0b44 c3ba 79e7 c93c 651c e83c f0f6 01bd
000002e0: 197e b73d 1dde c33c 43f7 a03d 87c7 6e3c
000002f0: 391a 19bd 315b b63d 5f2d 98bc 5630 cf3c
00000300: 397d 203d 98c2 b33c cb53 e0bc 5b81 8e3d
00000310: 93bc 0bbd a880 f1ba b0df 183c c4ed 6c3d
00000320: 41b3 af3c f21d 40bd 0a7d e13d 742e d03c
00000330: aa81 453d 1829 07bd abab cc3d 38cd 6cbc
00000340: 2996 3dbc 2b6e a6bd 137a 3e3d 5809 033e
00000350: 646b 2f3d fc4b cd3c 249c 943d 8188 bcbc
00000360: f892 51bb d808 9c3c 5ad5 8d3d 2558 b9bc
00000370: 6b07 d33d 2624 6dbd b783 55bc d038 f23d
00000380: f566 c13d 85a7 7c3b 6254 de3c e48e 4c3d
00000390: 39f2 063d 5605 ca3d b90d ce3d 9f2a bcbd
000003a0: f82a c0bd c439 703d 05a0 273d c169 04bd
000003b0: dfdf a13c 2d5c 083d 0cef 9b3d ff8f b2bc
000003c0: db50 3cbd 63f7 84bd cdad 4cbd c666 da3c
000003d0: 7c50 f1bc ec68 66bd a25e d0bc e14e 203c
000003e0: 58f2 1fbd 8350 933c d252 753d a0ca 51bd
000003f0: 15de c2bb 8407 e3bc ad67 bb3d e7b7 48bb

network.0.bias f4 [63]
0.49918327 0.48693877 0.499059 0.50623053 0.494681 0.49102113 0.49884123 0.5009504
0.5053806 0.5049109 0.5021853 0.49092782 0.51413924 0.49751252 0.49404687 0.5008546
0.4996795 0.50689524 0.50498503 0.49545786 0.4993692 0.5007449 0.493102 0.4975864
0.50577456 0.49347147 0.50034475 0.4950123 0.4971405 0.4924514 0.50037324 0.5001728
0.50397867 0.49927408 0.50502795 0.4912647 0.4964336 0.50849146 0.49368066 0.49089843
0.49714145 0.4897837 0.49521548 0.4964994 0.49349725 0.4945027 0.4932237 0.50689054
0.48336968 0.4896141 0.50256073 0.4932836 0.5009198 0.5102954 0.5020106 0.4915971
0.49734616 0.48051196 0.5002368 0.50362235 0.4988399 0.49498802 0.51036525
00000000: f394 ff3e 0a50 f93e a984 ff3e 5398 013f
00000010: d446 fd3e 1f67 fb3e 1e68 ff3e 493e 003f
00000020: 9f60 013f d741 013f 378f 003f e45a fb3e
00000030: a19e 033f f6b9 fe3e b6f3 fc3e 0238 003f
00000040: fed5 ff3e e3c3 013f b346 013f a7ac fd3e
00000050: 52ad ff3e d130 003f de77 fc3e a5c3 fe3e
00000060: 717a 013f 4ba8 fc3e 9816 003f 4172 fd3e
00000070: 3389 fe3e 9722 fc3e 7618 003f 530b 003f
00000080: bf04 013f daa0 ff3e 8349 013f 0c87 fb3e
00000090: 8b2c fe3e 7f2c 023f b6c3 fc3e 0a57 fb3e
000000a0: 5389 fe3e eec4 fa3e e28c fd3e 2b35 fe3e
000000b0: acab fc3e 752f fd3e d187 fc3e 94c3 013f
000000c0: 3b7c f73e b3ae fa3e d2a7 003f ab8f fc3e
000000d0: 483c 003f b8a2 023f c483 003f 9db2 fb3e
000000e0: 28a4 fe3e aa05 f63e 850f 003f 65ed 003f
000000f0: f267 ff3e 126f fd3e 4ca7 023f

network.1.running_mean f4 [63]
0.9551282 1.3416003 0.5161802 -0.013918901 0.5632224 0.23229824 0.46019167 0.8638498
-0.15964375 0.25993088 -0.30219445 0.91656816 0.99731594 0.34847918 -0.34105957 0.8506909
0.49586743 0.5689241 0.123218186 0.76480395 0.6157929 -0.73156965 1.2411277 0.21544817
-0.124463774 0.3102587 0.712368 0.6138927 0.9134083 0.44149223 0.4748644 0.4939105
-0.06364343 -0.61034334 0.40906215 0.8203587 0.81669766 0.2205017 0.24661705 1.0013205
-0.1425763 0.050732095 1.0204035 0.181422 0.2883613 0.23421368 0.75175905 -0.3501038
0.79550844 1.3329542 0.37064275 1.436782 1.3459022 -0.57485753 0.27121386 0.67399395
0.7540966 1.3720192 -0.34887213 -0.4704982 0.0009231697 0.29377308 1.1237239
00000000: 4883 743f 8fb9 ab3f 6324 043f 1a0c 64bc
00000010: 582f 103f 97df 6d3e 3e9e eb3e 4325 5d3f
00000020: a779 23be a915 853e 3bb9 9abe 36a4 6a3f
00000030: 1950 7f3f dd6b b23e 5c9f aebe e1c6 593f
00000040: 56e2 fd3e 03a5 113f d159 fc3d 31ca 433f
00000050: 9aa4 1d3f 2648 3bbf 46dd 9e3f 729e 5c3e
00000060: dde6 febd 3ada 9e3e c05d 363f 1228 1d3f
00000070: 20d5 693f 450b e23e 6d21 f33e d6e1 fc3e
00000080: 7d57 82bd 763f 1cbf 9870 d13e 0703 523f
00000090: 1913 513f 33cb 613e 2e89 7c3e 452b 803f
000000a0: 86ff 11be 75cc 4f3d 959c 823f b0c6 393e
000000b0: 18a4 933e b6d5 6f3e 4873 403f ce40 b3be
000000c0: 71a6 4b3f 3e9e aa3f e3c4 bd3e 79e8 b73f
000000d0: 8646 ac3f dd29 13bf 8bdc 8a3e de8a 2c3f
000000e0: 7a0c 413f 539e af3f 5e9f b2be 24e5 f0be
000000f0: df00 723a 6d69 963e 2fd6 8f3f

network.1.running_var f4 [63]
0.0037903872 0.0026112855 0.0023904145 0.0025430631 0.0017293913 0.002627779 0.0028829519 0.0022062345
0.0027545323 0.0045836335 0.0021597063 0.0050161793 0.0025624516 0.0018356584 0.002607161 0.0018238325
0.0030952597 0.0011127938 0.0017259564 0.0018381869 0.0025352861 0.0042160437 0.0033819051 0.0027419329
0.0031287423 0.002050142 0.002881414 0.0034791364 0.0016165086 0.001770505 0.0019221491 0.0025746387
0.0017012706 0.004562292 0.0031387405 0.0026857955 0.0016963939 0.00079050334 0.0027598452 0.0052002897
0.0018487907 0.0020885938 0.003050478 0.0030410893 0.002448484 0.0021276672 0.001769992 0.0027943559
0.002764648 0.0033749263 0.0016898043 0.00154787 0.0028919503 0.0026830332 0.0024628828 0.0027300045
0.0044406713 0.0011800219 0.0047036745 0.00209436 0.0032222301 0.0022105486 0.0025705271
00000000: 2568 783b 1a22 2b3b 80a8 1c3b 85a9 263b
00000010: beac e23a d136 2c3b e8ef 3c3b 7996 103b
00000020: 6285 343b 4e32 963b dc89 0d3b c35e a43b
00000030: ceee 273b 7a9a f03a e7dc 2a3b aa0d ef3a
00000040: d7d9 4a3b 2adb 913a 7d39 e23a 51ef f03a
00000050: 0b27 263b bd26 8a3b f4a2 5d3b 00b2 333b
00000060: 960b 4d3b ad5b 063b 1bd6 3c3b 3902 643b
00000070: 07e1 d33a 4a10 e83a 9ff0 fb3a 45bb 283b
00000080: 2bfd de3a 477f 953b 54b3 4d3b 2c04 303b
00000090: 8959 de3a c839 4f3a 85de 343b 3167 aa3b
000000a0: 1f53 f23a cae0 083b 87ea 473b 034d 473b
000000b0: bf76 203b 5570 0b3b 14ff e73a 8321 373b
000000c0: 192f 353b de2d 5d3b 6c7c dd3a e6e1 ca3a
000000d0: e086 3d3b d4d5 2f3b 5168 213b e0e9 323b
000000e0: 0d83 913b f7aa 9a3a 4821 9a3b 8841 093b
000000f0: 0d2c 533b dade 103b 4a76 283b

network.3.weight f4 [63, 63]
0.0025263366 -0.09448345 -0.078538276 0.074718654 -0.042839855 0.024839152 0.14352785 0.034692947
-0.13115983 -0.041877665 0.016007928 -0.09021435 -0.01173877 0.11635497 0.017709564 -0.08694654
0.08648328 0.067756064 0.037981402 -0.013112341 0.0022559257 0.053382408 -0.10018101 -0.070516825
0.027194332 -0.067163974 0.062514015 -0.0025724042 -0.025703749 0.1060526 -0.100337654 0.13674656
-0.02463731 0.023603702 -0.031115828 -0.04286437 0.10134206 -0.04271803 0.08884702 0.06113985
0.11096788 -0.04705691 -0.11851408 -0.007072934 -0.050224997 0.029234277 -0.029603388 0.10446738
-0.049188085 0.083047666 0.14244415 -0.1279486 -0.077463925 0.11282187 0.03723088 0.104994185
0.032205943 -0.076309554 0.07925772 0.054372273 0.009013304 0.026500117 -0.13446648 0.10833024
0.0410128 0.096012466 0.103523925 0.0786441 -0.03238659 -0.0072284103 -0.035083003 0.004341043
-0.049781874 -0.050528992 -0.052820202 0.10690769 0.046219278 0.0044619394 -0.0066267606 -0.08660882
-0.10404076 -0.113679856 -0.032914184 0.02920108 0.10817964 0.04982082 0.07049824 0.13264614
0.041781213 0.045776315 0.10939496 0.0944169 0.082640566 0.07137068 -0.10472947 0.08252483
-0.0048349984 -0.112689964 0.09616746 -0.013871635 -0.07017445 0.046832364 0.13827029 -0.10813658
-0.073396616 0.005133131 0.060487345 0.042732384 0.07236569 0.104750164 -0.075491555 0.018727813
-0.01683679 -0.05788018 -0.0042761764 0.1258009 -0.109549105 0.076571636 -0.0031093182 0.061001707
0.07593131 -0.09527688 0.100871705 -0.07463376 -0.10350909 0.04580145 -0.0691539 -0.09219775
-0.006743247 -0.0946193 -0.11588393 -0.053696707 -0.081955284 0.1100273 0.054089073 0.07786435
0.022183398 0.059601936 -0.18108982 0.120281465 -0.03627313 -0.0003172322 0.050574042 0.11857587
0.048641164 0.07699085 0.026912656 -0.16527846 0.057666313 -0.09402996 -0.051491845 0.0068981578
0.02388336 -0.16210479 -0.035315055 0.0072104917 0.06710962 0.029194728 -0.03057608 0.060791194
0.037966374 -0.19644384 0.086738154 0.09469192 -0.043415736 -0.076339945 0.0946384 0.08336316
0.07484088 0.049757075 0.11407479 0.027520102 -0.01982935 -0.037373554 -0.058748987 -0.090237424
0.13932964 0.006863289 0.02508426 0.061098125 0.008059974 -0.06401486 0.051049612 0.08696149
0.011324603 0.1316998 -0.05879061 -0.0666729 -0.1572817 0.103048086 -0.08196047 -0.12490467
0.107781306 -0.09752564 -0.046737276 -0.08961715 -0.049623996 -0.09625458 0.110827714 -0.06273451
-0.071566954 -0.07991422 -0.09394955 0.081678644 -0.10596043 -0.097505644 -0.107672445 -0.1016384
0.06364934 -0.15981087 0.11195463 -0.08833635 0.03294979 -0.074419156 -0.009292327 0.00069838925
-0.096561454 0.03803017 0.10678151 -0.044240404 -0.034769323 -0.14499068 -0.028687164 0.08047304
0.062074687 -0.008599533 0.10102217 0.09639039 0.056877736 0.09325413 -0.04826498 -0.10900539
-0.07299428 -0.13089876 0.123989336 0.13673386 -0.021303317 0.049994737 0.051578112 0.047846753
-0.09789177 -0.07778973 0.051748868 0.016174333 -0.03444 0.0084026465 -0.12077195 -0.15568429
-0.00559831 -0.012767904 -0.005116387 0.10094807 0.1123867 -0.06334959 0.019346757 -0.004982136
00000000: e590 253b 8a80 c1bd add8 a0bd 1806 993d
00000010: d878 2fbd 7a7b cb3c f7f8 123e 311a 0e3d
00000020: c34e 06be ea87 2bbd 0f23 833c 4dc2 b8bd
00000030: f853 40bc 844b ee3d a613 913c 0711 b2bd
00000040: 251e b13d b1c3 8a3d 6392 1b3d 25d5 56bc
00000050: 27d8 133b 83a7 5a3d b42b cdbd 206b 90bd
00000060: a6c6 de3c 448d 89bd 5907 803d c895 28bb
00000070: ab90 d2bc 1b32 d93d d47d cdbd 4a07 0c3e
00000080: 2fd4 c9bc 8d5c c13c 9fe6 febc 8d92 2fbd
00000090: 6d8c cf3d 1af9 2ebd 6df5 b53d c86d 7a3d
000000a0: 2143 e33d bfbe 40bd 83b7 f2bd 12c4 e7bb
000000b0: bab8 4dbd b97c ef3c ce82 f2bc fef2 d53d
000000c0: 7279 49bd e514 aa3d e1dc 113e f504 03be
000000d0: 68a5 9ebd 270f e73d 687f 183d 3107 d73d
000000e0: 61ea 033d 2f48 9cbd df51 a23d 76b5 5e3d
000000f0: 89ac 133c c616 d93c 95b1 09be 3fdc dd3d
00000100: 0afd 273d 2fa2 c43d 5a04 d43d 2810 a13d
00000110: cda7 04bd 4ddc ecbb 32b3 0fbd 4f3f 8e3b
00000120: 14e8 4bbd 7df7 4ebd ff59 58bd 6bf2 da3d
00000130: 6d50 3d3d 7635 923b 4c25 d9bb f75f b1bd
00000140: 5213 d5bd fcd0 e8bd 06d1 06bd 1a37 ef3c
00000150: 498d dd3d eb10 4c3d 6261 903d 64d4 073e
00000160: c722 2b3d f27f 3b3d 770a e03d a65d c13d
00000170: 753f a93d cb2a 923d 687c d6bd c702 a93d
00000180: e86e 9ebb ffc9 e6bd 72f3 c43d db45 63bc
00000190: 9fb7 8fbd 4bd3 3f3d ba96 0d3e b676 ddbd
000001a0: f750 96bd d333 a83b 94c1 773d 2708 2f3d
000001b0: 7634 943d 4187 d63d 519b 9abd 126b 993c
000001c0: 4fed 89bc c513 6dbd 2b1f 8cbb f3d1 003e
000001d0: 485b e0bd 97d1 9c3d b4c5 4bbb eddc 793d
000001e0: e081 9b3d 8620 c3bd d395 ce3d 96d9 98bd
000001f0: 93fc d3bd 4d9a 3b3d 8fa0 8dbd 2dd2 bcbd
00000200: 75f6 dcbb c3c7 c1bd 8e54 edbd 14f1 5bbd
00000210: 2cd8 a7bd fe55 e13d 818c 5d3d 5877 9f3d
00000220: f5b9 b53c 2921 743d 9c6f 39be 2156 f63d
00000230: 2293 14bd 2f52 a6b9 ba26 4f3d e8d7 f23d
00000240: f53b 473d 61ad 9d3d ee77 dc3c c23e 29be
00000250: 8333 6c3d c892 c0bd 1de9 52bd f109 e23b
00000260: 09a7 c33c ccfe 25be 85a6 10bd fd45 ec3b
00000270: c570 893d c829 ef3c b07a fabc 3000 793d
00000280: a182 1b3d 9328 49be c6a3 b13d d6ed c13d
00000290: b3d4 31bd 1e58 9cbd c7d1 c13d 4eba aa3d
000002a0: 2d46 993d 13ce 4b3d 0ba0 e93d d671 e13c
000002b0: 2971 a2bc 0315 19bd c7a2 70bd 66ce b8bd
000002c0: 6eac 0e3e 71e5 e03b 827d cd3c 0742 7a3d
000002d0: fb0d 043c 391a 83bd 6619 513d de18 b23d
000002e0: d48a 393c 50dc 063e 6cce 70bd cd8b 88bd
000002f0: 740e 21be e00a d33d e4da a7bd 05ce ffbd
00000300: 72bc dc3d 86bb c7bd 966f 3fbd 3289 b7bd
00000310: 8842 4bbd 1f21 c5bd a4f9 e23d f37a 80bd
00000320: b291 92bd 11aa a3bd 9f68 c0bd 2247 a73d
00000330: c801 d9bd 0ab1 c7bd 5f83 dcbd cb27 d0bd
00000340: 965a 823d 76a5 23be 7848 e53d b0e9 b4bd
00000350: 5cf6 063d 1269 98bd d83e 18bc 1c14 373a
00000360: 03c2 c5bd 86c5 1b3d 44b0 da3d 6d35 35bd
00000370: 476a 0ebd 7078 14be 5801 ebbc 0dcf a43d
00000380: 0742 7e3d 0ee5 0cbc b6e4 ce3d 5368 c53d
00000390: a1f8 683d 05fc be3d 80b1 45bd 383e dfbd
000003a0: 067e 95bd 530a 06be 1fee fd3d f603 0c3e
000003b0: 4b84 aebc 48c7 4c3d 9243 533d f5fa 433d
000003c0: 7b7b c8bd 3950 9fbd 9ff6 533d 0980 843c
000003d0: f510 0dbd 41ab 093c 4957 f7bd b46b 1fbe
000003e0: 0772 b7bb 7930 51bc 5da7 a7bb ddbd ce3d
000003f0: 002b e63d 6ebd 81bd 177d 9e3c 3041 a3bb

network.3.bias f4 [63]
0.49983644 0.49973297 0.49984002 0.49987966 0.4999907 0.50091803 0.500006 0.50023144
0.4998714 0.50083405 0.50018936 0.4999931 0.5003181 0.49996483 0.4995326 0.5001348
0.4998767 0.49995148 0.4997691 0.5001126 0.500114 0.50005037 0.5002269 0.5002673
0.49986944 0.50017804 0.50033754 0.50022656 0.49979672 0.49966308 0.4997233 0.49978536
0.49953377 0.50056547 0.500206 0.50008434 0.50069493 0.5000461 0.49957526 0.50099653
0.50036937 0.49870786 0.49980578 0.49988338 0.4997042 0.49961653 0.5000237 0.4997516
0.5000724 0.5002235 0.49957353 0.4999372 0.50024354 0.4998649 0.49986464 0.49993354
0.49925432 0.49918294 0.49935344 0.5002315 0.5006444 0.49968845 0.49963135
00000000: 90ea ff3e 00dd ff3e 08eb ff3e 3af0 ff3e
00000010: c8fe ff3e 2a3c 003f 6500 003f 2b0f 003f
00000020: 25ef ff3e a936 003f 690c 003f 18ff ff3e
00000030: d914 003f 64fb ff3e bdc2 ff3e d608 003f
00000040: d7ef ff3e a4f9 ff3e bce1 ff3e 6107 003f
00000050: 7907 003f 4d03 003f df0e 003f 8511 003f
00000060: e3ee ff3e ab0b 003f 1f16 003f d90e 003f
00000070: 5be5 ff3e d7d3 ff3e bbdb ff3e dee3 ff3e
00000080: e4c2 ff3e 0f25 003f 800d 003f 8705 003f
00000090: 8b2d 003f 0503 003f 54c8 ff3e 4f41 003f
000000a0: 3518 003f a356 ff3e 8be6 ff3e b7f0 ff3e
000000b0: 3bd9 ff3e bdcd ff3e 8e01 003f 71df ff3e
000000c0: bf04 003f a60e 003f 1ac8 ff3e c5f7 ff3e
000000d0: f60f 003f 4bee ff3e 42ee ff3e 4af7 ff3e
000000e0: 439e ff3e e894 ff3e 41ab ff3e 2c0f 003f
000000f0: 3b2a 003f 2ad7 ff3e aecf ff3e

network.4.running_mean f4 [63]
0.5604233 0.6957143 0.5001892 0.28407538 0.6600879 0.7601028 0.46214098 0.34653914
0.4606798 0.38309896 0.40395743 0.46870434 0.52696866 0.38321516 0.32514095 0.37605694
0.35322762 0.5625058 0.6673167 0.3609256 0.47727868 0.46528342 0.2585374 0.30437195
0.5365882 0.4823036 0.57483035 0.60301656 0.46181878 0.4482689 0.51170325 0.41118026
0.34168574 0.6987612 0.49396503 0.47222695 0.6877845 0.5917718 0.39812446 0.5656821
0.6876929 0.45043904 0.52248824 0.47601765 0.5337109 0.73794967 0.20720337 0.6070493
0.34437442 0.5234017 0.5104773 0.35764313 0.62452286 0.26093087 0.44742194 0.23075773
0.47159272 0.48573902 0.6313573 0.34152484 0.6374816 0.53871137 0.6488071
00000000: e777 0f3f 551a 323f 660c 003f 5472 913e
00000010: 85fb 283f 1996 423f be9d ec3e 946d b13e
00000020: 39de eb3e 8c25 c43e 82d3 ce3e 04fa ef3e
00000030: 6be7 063f c734 c43e e078 a63e 898a c03e
00000040: 40da b43e 6100 103f 44d5 2a3f 3ecb b83e
00000050: df5d f43e a139 ee3e 045f 843e a4d6 9b3e
00000060: d85d 093f 7ff0 f63e 1528 133f 4b5f 1a3f
00000070: 8373 ec3e 8083 e53e fcfe 023f 3886 d23e
00000080: 6ff1 ae3e 04e2 323f fce8 fc3e bbc7 f13e
00000090: a512 303f 5b7e 173f f8d6 cb3e 8bd0 103f
000000a0: a40c 303f f29f e63e cac1 053f 96b8 f33e
000000b0: 47a1 083f 45ea 3c3f 1f2d 543e 9567 1b3f
000000c0: d851 b03e a7fd 053f a4ae 023f 001d b73e
000000d0: bbe0 1f3f bb98 853e 7d14 e53e c14b 6c3e
000000e0: 9a74 f13e c9b2 f83e a2a0 213f 58dc ae3e
000000f0: fe31 233f fde8 093f 3918 263f

network.4.running_var f4 [63]
0.29780042 0.2888515 0.3847904 0.09860695 0.13260125 0.2147718 0.2814097 0.13323888
0.2697129 0.1633092 0.2270974 0.1591596 0.28283867 0.092115946 0.098556 0.08347777
0.12611206 0.22273704 0.27335528 0.10637021 0.3995502 0.27654174 0.14410147 0.2632792
0.25117588 0.14966702 0.18644543 0.24070205 0.16444227 0.15789078 0.17392902 0.069615595
0.10887889 0.16447444 0.1195743 0.2337719 0.14920488 0.38798845 0.33903143 0.16520992
0.30231434 0.122484915 0.1536096 0.19038956 0.21226072 0.23583193 0.30524316 0.25873435
0.080558635 0.41436797 0.13068582 0.11403087 0.26302695 0.18033487 0.17393348 0.32865393
0.088336475 0.17989741 0.16927406 0.18232368 0.18074062 0.14213175 0.15167114
00000000: 4c79 983e 58e4 933e 3f03 c53e 71f2 c93d
00000010: 9fc8 073e 24ed 5b3e ef14 903e c66f 083e
00000020: cf17 8a3e 873a 273e 398c 683e bcfa 223e
00000030: 3bd0 903e 49a7 bc3d bad7 c93d 65f6 aa3d
00000040: 8523 013e 2e15 643e 39f5 8b3e a0d8 d93d
00000050: d891 cc3e e196 8d3e 568f 133e 88cc 863e
00000060: 209a 803e 5042 193e 8deb 3e3e 997a 763e
00000070: 8e63 283e 1fae 213e 731a 323e 9f92 8e3d
00000080: e5fb de3d fd6b 283e 5fe3 f43d e761 6f3e
00000090: 2ac9 183e 6ca6 c63e 8795 ad3e ca2c 293e
000000a0: f2c8 9a3e 5fd9 fa3d d64b 1d3e 7bf5 423e
000000b0: e05a 593e ed7d 713e d548 9c3e d478 843e
000000c0: edfb a43d 0a28 d43e 81d2 053e 0489 e93d
000000d0: 78ab 863e b4a9 383e 9e1b 323e 5445 a83e
000000e0: c1e9 b43d 0737 383e 2e56 2d3e 0fb3 3a3e
000000f0: 1214 393e fc8a 113e ae4f 1b3e

network.6.weight f4 [63, 63]
-0.03926773 0.019067528 -0.0035610152 -0.10560738 0.117618434 0.018877223 0.03712306 0.05705199
-0.08517409 0.014774849 0.103896745 0.06811437 -0.051400043 -0.10709781 0.08482067 0.02411941
0.11666157 0.01610311 0.11732626 -0.050650753 -0.061242256 -0.054945853 0.007751863 -0.06425052
-0.13007568 -0.014822581 -0.073652975 -0.014411715 -0.09216902 0.07359865 -0.115457326 -0.03011853
0.0941767 -0.084376134 -0.10127397 -0.058473065 0.014131944 0.057137806 -0.05970174 0.071073845
-0.10818437 -0.13257651 0.0614168 -0.05930103 -0.12898982 -0.12628578 0.13160229 0.07762811
-0.027627794 -0.01031344 -0.031393025 0.021838596 0.04289294 0.13444439 -0.12342286 0.019430274
0.0659512 -0.08296587 0.07356663 -0.02077039 0.0038161778 -0.034635942 -0.021953683 -0.0026955293
0.012215271 0.04329641 0.025563667 0.0054714032 0.1226918 0.06408986 0.059610166 -0.051109895
0.015184617 -0.10281113 0.0022063616 -0.011236912 -0.042195983 -0.074853234 0.011159364 -0.0147637725
-0.004823702 0.07873807 -0.11331069 -0.0067605865 0.045208678 -0.055192646 -0.09161203 0.06977922
0.09231968 -0.016303841 0.07008647 0.110918626 0.11499927 0.13165285 -0.10950576 -0.0724886
0.013461051 0.012629293 0.037867997 -0.065230645 0.1493994 -0.098226 -0.035923414 -0.12211714
-0.004302109 -0.038163725 -0.08829997 0.0416735 0.05582282 0.09465962 -0.0034687223 0.14306478
0.07178995 -0.060743917 -0.013278333 0.007749027 0.02004571 -0.042112447 -0.07613691 0.041443396
0.048444204 0.010248725 0.02388884 0.082510844 0.01960353 -0.034850746 -0.02506647 -0.086599045
-0.065878935 0.11703103 -0.003933036 0.023019025 0.10734362 0.011886996 -0.09715616 -0.06715905
0.12596923 -0.090217546 -0.12575147 -0.120683245 -0.06517288 0.07404843 -0.1255881 0.12755819
-0.054248873 0.027687268 -0.124964714 0.02831532 0.07708513 0.12345169 -0.030865442 -0.13478151
0.07142608 -0.04525938 -0.017801762 0.059978466 -0.101147264 0.04064453 0.06646121 -0.006187556
0.09884547 -0.0947991 -0.017587569 -0.022439495 -0.08698214 0.07088254 0.0693306 0.012921667
0.045945182 -0.036574323 0.027408859 -0.05267873 -0.048147704 0.035946906 0.1021434 0.082516916
0.12842728 -0.056080647 0.05997558 -0.028192766 0.109451815 0.11380327 -0.12610178 0.1096231
-0.08130333 -0.064083956 0.048991293 0.094404824 0.07592788 -0.056766443 -0.027676076 -0.11153584
0.16508731 -0.085095316 0.055753794 -0.06799733 0.05365926 0.0045801345 0.16346927 -0.05739005
0.08387395 0.04946582 -0.13822559 0.101705626 -0.03190635 -0.0014216803 0.108421944 -0.039598968
0.08352982 0.12038372 0.10959456 0.053333122 0.106479 -0.012806775 -0.10929671 -0.06833734
0.07758856 -0.04030034 0.003689201 0.097841 -0.08555472 -0.13455646 0.08177341 0.076567635
0.06268066 -0.04130142 -0.050193515 -0.06347385 -0.03870339 0.08162245 0.10961111 -0.07332484
0.03697355 -0.11585935 0.0124694435 0.0026371619 -0.0067493925 -0.02422352 -0.15175699 -0.063439414
-0.0577865 0.11059995 -0.058828685 -0.081371054 0.09497497 0.05690982 -0.018414548 -0.038086068
0.09776624 -0.08219658 -0.1049485 -0.061433326 0.122747846 -0.12930925 0.110802166 -0.09534541
00000000: 33d7 20bd 8133 9c3c ec5f 69bb af48 d8bd
00000010: efe1 f03d 68a4 9a3c 5a0e 183d 59af 693d
00000020: c16f aebd 3512 723c d1c7 d43d 8c7f 8b3d
00000030: da88 52bd 1956 dbbd 76b6 ad3d 1296 c53c
00000040: 43ec ee3d abea 833c c048 f03d 2a77 4fbd
00000050: 29d9 7abd e70e 61bd 5703 fe3b c795 83bd
00000060: 8f32 05be 69da 72bc 5fd7 96bd 1d1f 6cbc
00000070: 1cc3 bcbd e4ba 963d e474 ecbd 23bb f6bc
00000080: b7df c03d 65cd acbd ba68 cfbd 7481 6fbd
00000090: ab89 673c 5509 6a3d d089 74bd 2a8f 913d
000000a0: c48f ddbd 23c2 07be 2f90 7b3d a3e5 72bd
000000b0: e815 04be 0f51 01be c0c2 063e 7dfb 9e3d
000000c0: af53 e2bc b4f9 28bc f995 00bd dbe6 b23c
000000d0: 82b0 2f3d caab 093e 20c5 fcbd 3d2c 9f3c
000000e0: 6c11 873d 03ea a9bd 1aaa 963d aa26 aabc
000000f0: d718 7a3b 6bde 0dbd 36d8 b3bc 7aa7 30bb
00000100: 8f22 483c 9457 313d e56a d13c 7549 b33b
00000110: d745 fb3d 8b41 833d ca29 743d 9c58 51bd
00000120: e6c8 783c a48e d2bd 9b98 103b 061b 38bc
00000130: b2d5 2cbd a74c 99bd c4d5 363c c0e3 71bc
00000140: 2510 9ebb 6d41 a13d 6f0f e8bd e987 ddbb
00000150: bc2c 393d af11 62bd 179f bbbd 68e8 8e3d
00000160: 1a12 bd3d a28f 85bc 7f89 8f3d 4e29 e33d
00000170: bd84 eb3d 01d0 063e 8e44 e0bd e774 94bd
00000180: bd8b 5c3c 18eb 4e3c 791b 1b3d a597 85bd
00000190: 28fc 183e b72a c9bd 6e24 13bd 8d18 fabd
000001a0: b5f8 8cbb 9151 1cbd 9dd6 b4bd d5b1 2a3d
000001b0: 78a6 643d e7dc c13d 8153 63bb 937f 123e
000001c0: 9c06 933d 9dce 78bd 5d8d 59bc 8deb fd3b
000001d0: e736 a43c 1a7e 2cbd abed 9bbd 8dc0 293d
000001e0: 6e6d 463d 45ea 273c 87b2 c33c 72fb a83d
000001f0: 9597 a03c a8bf 0ebd 3358 cdbc d75a b1bd
00000200: 89eb 86bd f7ad ef3d b2e0 80bb 6592 bc3c
00000210: f9d6 db3d adc1 423c cff9 c6bd af8a 89bd
00000220: 14fe 003e fac3 b8bd fec4 00be c728 f7bd
00000230: 5c79 85bd b4a6 973d 2b9a 00be 9d9e 023e
00000240: 1134 5ebd 69d0 e23c 80ed ffbd 88f5 e73c
00000250: cfde 9d3d 3dd4 fc3d 86d9 fcbc 2a04 0abe
00000260: d647 923d e661 39bd 00d5 91bc fbab 753d
00000270: 4c26 cfbd e17a 263d d11c 883d fbc0 cabb
00000280: 7e6f ca3d 0826 c2bd ce13 90bc 08d3 b7bc
00000290: b123 b2bd dd2a 913d 34fd 8d3d 66b5 533c
000002a0: 0431 3c3d f5ce 15bd 8b88 e03c a7c5 57bd
000002b0: 8736 45bd 103d 133d 8f30 d13d a1fe a83d
000002c0: 7182 033e d2b4 65bd f4a8 753d 84f4 e6bc
000002d0: 4628 e03d b011 e93d d320 01be 1382 e03d
000002e0: 5c82 a6bd 733e 83bd 18ab 483d 5157 c13d
000002f0: 1480 9b3d ee83 68bd f0b8 e2bc e76c e4bd
00000300: a60c 293e 7446 aebd 175e 643d 2f42 8bbd
00000310: d0c9 5b3d f414 963b 7d64 273e d411 6bbd
00000320: 1bc6 ab3d ac9c 4a3d 028b 0dbe 0a4b d03d
00000330: 3cb0 02bd ad57 baba 530c de3d 8732 22bd
00000340: af11 ab3d bd8b f63d 1d73 e03d d573 5a3d
00000350: a911 da3d 82d3 51bc f4d6 dfbd 73f4 8bbd
00000360: c0e6 9e3d f811 25bd 86c6 713b dd60 c83d
00000370: 5037 afbd 2bc9 09be d178 a73d 7ecf 9c3d
00000380: b85e 803d ae2b 29bd b797 4dbd 94fe 81bd
00000390: 7287 1ebd ac29 a73d ca7b e03d 552b 96bd
000003a0: 9471 173d ab47 edbd a34c 4c3c 3cd4 2c3b
000003b0: 022a ddbb 6770 c6bc 2f66 1bbe 86ec 81bd
000003c0: 89b1 6cbd 3a82 e23d 59f6 70bd dea5 a6bd
000003d0: 3d82 c23d 451a 693d 1bda 96bc 2300 1cbd
000003e0: ab39 c83d ae56 a8bd 3def d6bd 83a1 7bbd
000003f0: 3963 fb3d a569 04be 3fec e23d 7444 c3bd

network.6.bias f4 [63]
0.4999831 0.4999354 0.49981415 0.5001349 0.4998871 0.49902564 0.49980175 0.49986127
0.50027734 0.50013804 0.49990484 0.4994714 0.49991328 0.5000824 0.50033516 0.50001425
0.499205 0.5000286 0.5001997 0.4997993 0.49997893 0.50051606 0.5001758 0.4998907
0.5005061 0.5000423 0.49991316 0.50052446 0.499497 0.49988577 0.50005054 0.5009227
0.5002158 0.50011325 0.49997032 0.5000947 0.50013065 0.50003517 0.5003108 0.50010127
0.49980792 0.49987 0.49938753 0.50036216 0.49980384 0.4998524 0.50009286 0.5000648
0.50049794 0.49983245 0.49965522 0.49943277 0.50094473 0.50004935 0.5003296 0.49989736
0.50011975 0.49999124 0.5000331 0.500097 0.500029 0.5001495 0.5000765
00000000: c9fd ff3e 88f7 ff3e a4e7 ff3e d708 003f
00000010: 34f1 ff3e 4a80 ff3e 04e6 ff3e d1ed ff3e
00000020: 2d12 003f 0c09 003f 87f3 ff3e b7ba ff3e
00000030: a2f4 ff3e 6605 003f f715 003f ef00 003f
00000040: cc97 ff3e e001 003f 160d 003f b2e5 ff3e
00000050: 3dfd ff3e d221 003f 850b 003f adf1 ff3e
00000060: 2b21 003f c602 003f 9ef4 ff3e 5f22 003f
00000070: 12be ff3e 07f1 ff3e 5003 003f 783c 003f
00000080: 250e 003f 6c07 003f 1cfc ff3e 3506 003f
00000090: 9008 003f 4e02 003f 5e14 003f a306 003f
000000a0: d3e6 ff3e f6ee ff3e b9af ff3e bc17 003f
000000b0: 4ae6 ff3e a7ec ff3e 1606 003f 3f04 003f
000000c0: a220 003f 0aea ff3e cfd2 ff3e a7b5 ff3e
000000d0: ea3d 003f 3c03 003f 9a15 003f 8cf2 ff3e
000000e0: d907 003f dafe ff3e 2b02 003f 5b06 003f
000000f0: e701 003f cc09 003f 0305 003f

network.7.running_mean f4 [63]
0.39371917 0.57768947 0.5650191 0.5210032 0.45181897 0.5934641 0.57316756 0.5253078
0.58861536 0.5206738 0.31559837 0.6793401 0.75981724 0.41192883 0.5172265 0.6416052
0.6700282 0.6401638 0.5429696 0.4629227 0.57065064 0.6646892 0.4947434 0.5646038
0.37738279 0.41949427 0.49789715 0.76514834 0.5138386 0.47220978 0.51804656 0.70130146
0.5351531 0.34852445 0.47472724 0.41046196 0.585937 0.50443476 0.5376928 0.36461872
0.46775743 0.5176542 0.5784762 0.33473063 0.5518065 0.45438018 0.6915036 0.5561153
0.5082714 0.38802147 0.7205718 0.6246283 0.59786904 0.43959248 0.44718236 0.50300336
0.6308467 0.424885 0.30933058 0.23789452 0.6783579 0.33930507 0.24611896
00000000: 8f95 c93e 75e3 133f 17a5 103f 7760 053f
00000010: d154 e73e 43ed 173f 1cbb 123f 927a 063f
00000020: 7faf 163f e14a 053f 1c96 a13e 3ce9 2d3f
00000030: 6283 423f 56e8 d23e f568 043f 3d40 243f
00000040: f886 2b3f c6e1 233f 0e00 0b3f 3404 ed3e
00000050: 2916 123f 1229 2a3f 024f fd3e e089 103f
00000060: 5138 c13e f4c7 d63e 60ec fe3e c3e0 433f
00000070: ed8a 033f 7bc5 f13e b39e 043f 7e88 333f
00000080: cbff 083f cc71 b23e 730f f33e 1228 d23e
00000090: f8ff 153f a322 013f 3ca6 093f 4eaf ba3e
000000a0: e77d ef3e fc84 043f 0417 143f d061 ab3e
000000b0: 3143 0d3f 85a4 e83e 6106 313f 935d 0e3f
000000c0: 131e 023f c0aa c63e 6577 383f a4e7 1f3f
000000d0: f20d 193f 4412 e13e 16f5 e43e d4c4 003f
000000e0: 2b7f 213f 878a d93e 9460 9e3e 9f9a 733e
000000f0: dda8 2d3f 65b9 ad3e 9c06 7c3e

network.7.running_var f4 [63]
0.18657891 0.26045582 0.24796443 0.22332104 0.14739144 0.19040656 0.12850192 0.1828836
0.12292234 0.14159633 0.2641092 0.23702395 0.2030323 0.10583204 0.20118383 0.15045477
0.19099975 0.1192182 0.1352887 0.116555266 0.19990006 0.1811266 0.17433493 0.29144108
0.19012216 0.057103835 0.24690317 0.17407145 0.15124734 0.22883287 0.12589216 0.19525318
0.19516209 0.11179093 0.21107036 0.14485058 0.15504837 0.12668523 0.25476152 0.19830944
0.2267804 0.24291818 0.13298751 0.14464507 0.1995849 0.20449297 0.23615056 0.17774296
0.08380038 0.16154946 0.13405113 0.5287316 0.15634263 0.14424756 0.16832176 0.20127039
0.21121155 0.20183173 0.10785753 0.18335469 0.18777959 0.12528314 0.111086
00000000: 8b0e 3f3e 775a 853e 63ea 7d3e 45ae 643e
00000010: c8ed 163e f0f9 423e 0296 033e d745 3b3e
00000020: b5be fb3d a1fe 103e 5239 873e 68b6 723e
00000030: b3e7 4f3e 78be d83d 2203 4e3e d110 1a3e
00000040: 7095 433e ac28 f43d 1f89 0a3e 87b4 ee3d
00000050: 9ab2 4c3e 4079 393e db84 323e c437 953e
00000060: 62af 423e b6e5 693d 2fd4 7c3e c93f 323e
00000070: 95e0 1a3e 2a53 6a3e e0e9 003e 73f0 473e
00000080: 92d8 473e a5f2 e43d d422 583e b653 143e
00000090: 00c5 1e3e c6b9 013e 1a70 823e a111 4b3e
000000a0: 1f39 683e 8bbf 783e e12d 083e d61d 143e
000000b0: fc5f 4c3e 9b66 513e 74d1 713e 4002 363e
000000c0: 899f ab3d 396d 253e b344 093e f45a 073f
000000d0: 4818 203e a2b5 133e 8a5c 2c3e d319 4e3e
000000e0: d747 583e faac 4e3e 69e4 dc3d 55c1 3b3e
000000f0: 4b49 403e 394a 003e 0f81 e33d

network.9.weight f4 [63, 63]
-0.1063623 -0.025519004 -0.12253872 -0.06817777 -0.0172279 -0.038356956 0.030801056 0.120239936
0.11875419 0.11731387 -0.09384019 -0.053900983 0.02931537 0.08048504 -0.010204166 -0.04799595
-0.023105241 0.058628038 -0.10993407 0.11040355 -0.059864983 -0.043795664 -0.09516295 -0.046920426
-0.06414865 -0.061019037 -0.084585644 0.02640305 0.011481152 0.039592944 0.019862058 0.031951066
-0.10267969 -0.13157144 -0.0899238 -0.0062972656 0.08762842 -0.05322304 0.06546425 0.12961674
0.10166661 0.095273234 -0.04268282 -0.115208045 -0.056623332 0.02597038 0.11995824 0.046716258
0.06215647 -0.1222749 0.037257023 0.040019084 0.03109873 0.071736775 0.11855734 0.018364092
-0.11678319 0.034682833 0.087916136 -0.020573951 0.08747843 0.027402528 0.08960194 0.06929969
0.11874389 0.037396234 -0.01771563 -0.102056466 -0.10522967 -0.10333853 0.017463692 0.13960841
0.13820824 0.005158288 -0.07687763 -0.007816824 -0.1001162 0.05249154 0.033957552 0.10642208
0.09550982 0.038797054 0.08235729 -0.03604373 0.007962963 -0.013094436 -0.07906775 -0.0048749233
-0.03850546 -0.12489511 -0.012164655 0.044650238 0.018040188 0.047673933 0.037712626 -0.018405542
0.023839157 0.021063283 -0.022475049 0.09651005 0.09355588 0.12752406 0.09194904 -0.026487656
-0.048279107 -0.086733736 -0.008244088 -0.104958795 0.06163614 0.069451936 0.10797329 -0.002622702
0.032939795 -0.10259593 0.02827749 -0.04787129 -0.0782665 0.054912243 0.0017546639 -0.09528065
-0.068402715 -0.076474465 0.06623086 0.15456468 -0.00178976 0.07779117 -0.10659924 0.065949
-0.043777835 -0.037859347 -0.0077598053 0.014373678 -0.08998105 0.012734359 -0.07702453 0.08143782
0.092974976 0.08213841 -0.06398747 -0.06893923 0.04906689 0.109499045 -0.0958292 0.12755762
0.08313803 -0.105776876 -0.0066567976 -0.04711549 -0.020010771 -0.08007024 -0.13863738 0.156902
-0.028919507 -0.11782105 0.07319727 -0.10881673 0.11545934 -0.114926495 -0.051728066 0.072179236
0.13840584 -0.011620181 0.03473656 0.03973732 -0.110218994 -0.020123921 0.048788752 -0.07719231
0.046884175 0.075536154 -0.10021345 0.06632423 -0.004390394 0.027347412 -0.103873 0.10833002
0.07522397 0.004380602 -0.045684487 -0.048151452 -0.07248505 -0.023556301 -0.14048623 0.006738841
0.028656522 -0.06596837 0.105562285 0.076722845 0.096911676 -0.007101852 -0.08432809 -0.05560793
-0.018852094 0.033269268 -0.08192387 0.08689675 0.058803365 -0.14188272 0.057095036 -0.062254205
-0.047471985 -0.06357986 0.09826403 0.044251848 -0.106864765 0.06221697 0.0975425 -0.05220253
0.11840974 -0.01208643 -0.11878227 0.015671426 -0.03905636 -0.14693688 0.031649385 0.051595353
0.07878822 0.12300356 -0.039859004 0.11577585 -0.01935511 -0.12366432 -0.06329754 -0.099909045
0.16058333 -0.0968111 0.055974316 -0.03658156 0.07292712 -0.02789809 -0.13167915 0.10279217
-0.009189742 -0.12990761 0.027261285 -0.109242655 0.004480041 0.0097699575 -0.038108427 0.037123602
0.081663325 -0.113449134 0.11630974 -0.14519572 0.06519171 0.07460347 0.047168434 0.048872035
0.02208065 -0.095349856 0.06388091 0.10759049 0.0934379 -0.04000882 0.061147705 -0.0077005387
00000000: 7ad4 d9bd 3b0d d1bc 95f5 fabd c9a0 8bbd
00000010: 8621 8dbc 2f1c 1dbd 7f52 fc3c 5b40 f63d
00000020: 6635 f33d 4142 f03d 492f c0bd 47c7 5cbd
00000030: c926 f03c 57d5 a43d 602f 27bc 6797 44bd
00000040: 3447 bdbc f423 703d 1d25 e1bd 421b e23d
00000050: fc34 75bd 1563 33bd cbe4 c2bd a22f 40bd
00000060: 5e60 83bd 19ef 79bd 3d3b adbd 364b d83c
00000070: 711b 3c3c 362c 223d c1b5 a23c 1fdf 023d
00000080: bb49 d2bd aaba 06be f829 b8bd 4b59 cebb
00000090: 8776 b33d 6700 5abd 1f12 863d 40ba 043e
000000a0: 9536 d03d 9d1e c33d 2ed4 2ebd 32f2 ebbd
000000b0: deed 67bd d6bf d43c aaac f53d 8c59 3f3d
000000c0: c897 7e3d 436b fabd d29a 183d 0deb 233d
000000d0: c4c2 fe3c bbea 923d 31ce f23d 4b70 963c
000000e0: 062c efbd 960f 0e3d 600d b43d b48a a8bc
000000f0: e427 b33d 447b e03c 3981 b73d ffec 8d3d
00000100: ff2f f33d cb2c 193d 5e20 91bc fb02 d1bd
00000110: a782 d7bd 27a3 d3bd 0410 8f3c 82f5 0e3e
00000120: 7686 0d3e db06 a93b 0572 9dbd 2312 00bc
00000130: b909 cdbd 5e01 573d 1317 0b3d d2f3 d93d
00000140: a79a c33d a9e9 1e3d f0aa a83d 97a2 13bd
00000150: 1677 023c 0c8a 56bc 46ee a1bd d2bd 9fbb
00000160: e7b7 1dbd 02c9 ffbd 434e 47bc 2be3 363d
00000170: 04c9 933c be45 433d 8e78 1a3d 38c7 96bc
00000180: 564a c33c e88c ac3c 981d b8bc 10a7 c53d
00000190: 3a9a bf3d ab95 023e c74f bc3d a4fc d8bc
000001a0: 50c0 45bd 75a1 b1bd 3612 07bc a3f4 d6bd
000001b0: 2d76 7c3d d13c 8e3d 1a21 dd3d a3e1 2bbb
000001c0: e1eb 063d d11d d2bd 32a6 e73c b014 44bd
000001d0: 304a a0bd a9eb 603d c0fc e53a 8022 c3bd
000001e0: b916 8cbd a59e 9cbd 0ca4 873d 3446 1e3e
000001f0: 6196 eaba fa50 9f3d b450 dabd 4510 873d
00000200: 6350 33bd 6712 1bbd f745 febb 937f 6b3c
00000210: fc47 b8bd c6a3 503c 09bf 9dbd dfc8 a63d
00000220: aa69 be3d 2f38 a83d dd0b 83bd 0330 8dbd
00000230: 5dfa 483d 0941 e03d 1a42 c4bd 779e 023e
00000240: 4544 aa3d 8ca1 d8bd 4421 dabb 2cfc 40bd
00000250: a1ed a3bc defb a3bd f5f6 0dbe ebaa 203e
00000260: 9ae8 ecbc 2a4c f1bd 73e8 953d 4edb debd
00000270: f275 ec3d 955e ebbd cfe0 53bd b5d2 933d
00000280: 43ba 0d3e 9262 3ebc ec47 0e3d 9ac3 223d
00000290: 7fba e1bd ecda a4bc b7d6 473d 0017 9ebd
000002a0: 9f09 403d b3b2 9a3d b63c cdbd ffd4 873d
000002b0: 4bdd 8fbb ae07 e03c 5ebb d4bd 21dc dd3d
000002c0: 060f 9a3d 278b 8f3b a81f 3bbd 753a 45bd
000002d0: 0b73 94bd 25f9 c0bc 9fdb 0fbe 7fd1 dc3b
000002e0: 15c1 ea3c 6d1a 87bd 0a31 d83d de20 9d3d
000002f0: a179 c63d a7b6 e8bb 35b4 acbd 24c5 63bd
00000300: b56f 9abc 5b45 083d b4c7 a7bd ecf6 b13d
00000310: ccdb 703d b449 11be 7cdc 693d 44fe 7ebd
00000320: fc71 42bd 2836 82bd a73e c93d 6d41 353d
00000330: eadb dabd 39d7 7e3d 5dc4 c73d 52d2 55bd
00000340: ce80 f23d 2906 46bc 1e44 f3bd 5d61 803c
00000350: 90f9 1fbd 9f76 16be c9a2 013d a655 533d
00000360: b85b a13d 4ae9 fb3d 3243 23bd e41b ed3d
00000370: 9c8e 9ebc b843 fdbd 24a2 81bd 1d9d ccbd
00000380: f56f 243e e644 c6bd 5345 653d 8cd6 15bd
00000390: d05a 953d 898a e4bc e6d6 06be b484 d23d
000003a0: 9290 16bc 8006 05be 0f53 df3c 9dba dfbd
000003b0: 4fcd 923b 2c12 203c 9517 1cbd eb0e 183d
000003c0: 1a3f a73d 0558 e8bd cd33 ee3d 30ae 14be
000003d0: 3b83 853d b4c9 983d b033 413d 0b2e 483d
000003e0: 7be2 b43c c946 c3bd ffd3 823d 6758 dc3d
000003f0: 5f5c bf3d 4ae0 23bd 0476 7a3d cd54 fcbb

network.9.bias f4 [63]
0.4996553 0.5004871 0.49986118 0.49994713 0.49976256 0.49979734 0.50000775 0.49981782
0.49998975 0.4998397 0.49946016 0.5000459 0.49987987 0.5000353 0.5000058 0.5000169
0.49991983 0.500112 0.50042564 0.5000365 0.5002254 0.50012445 0.49988052 0.5001466
0.50004804 0.50079393 0.49991208 0.5002067 0.49948514 0.4995304 0.49954924 0.500098
0.5000896 0.49995655 0.49988556 0.49982134 0.49972764 0.50005794 0.49986914 0.4998624
0.5000168 0.49961045 0.5003081 0.5002865 0.49984074 0.49984914 0.49988696 0.49995038
0.5001169 0.49997306 0.499498 0.49989244 0.50037783 0.50043404 0.49993965 0.5002189
0.50041944 0.49977776 0.50004035 0.49949276 0.5007904 0.5003198 0.49945414
00000000: d2d2 ff3e ec1f 003f ceed ff3e 12f9 ff3e
00000010: e1e0 ff3e 70e5 ff3e 8200 003f 1fe8 ff3e
00000020: a8fe ff3e fdea ff3e 3eb9 ff3e 0203 003f
00000030: 41f0 ff3e 5002 003f 6100 003f 1c01 003f
00000040: 7ef5 ff3e 5707 003f e51b 003f 6402 003f
00000050: c60e 003f 2808 003f 57f0 ff3e 9c09 003f
00000060: 2603 003f 0834 003f 7af4 ff3e 8c0d 003f
00000070: 84bc ff3e 73c2 ff3e ebc4 ff3e 6c06 003f
00000080: df05 003f 4efa ff3e 00f1 ff3e 95e8 ff3e
00000090: 4ddc ff3e cc03 003f d9ee ff3e f7ed ff3e
000000a0: 1a01 003f f1cc ff3e 3114 003f c712 003f
000000b0: 20eb ff3e 3aec ff3e 2ff1 ff3e 7ff9 ff3e
000000c0: a907 003f 78fc ff3e 34be ff3e e7f1 ff3e
000000d0: c318 003f 721c 003f 17f8 ff3e 590e 003f
000000e0: 7d1b 003f dfe2 ff3e a502 003f 84bd ff3e
000000f0: cd33 003f f514 003f 74b8 ff3e

network.10.running_mean f4 [63]
0.49720395 0.54822946 0.4781164 0.52281207 0.4728241 0.36880988 0.64574075 0.5825196
0.49602658 0.6224974 0.47863013 0.45116657 0.62607217 0.56486404 0.37155515 0.48555666
0.35169137 0.5212259 0.7526553 0.440851 0.65285236 0.62949663 0.44068587 0.5330134
0.343854 0.44587776 0.43003285 0.455411 0.5504777 0.39410183 0.5776328 0.49991113
0.3598031 0.43543035 0.5097592 0.6546307 0.30561927 0.63779277 0.4315035 0.46248472
0.3588051 0.54663306 0.07222496 0.6280066 0.29447922 0.6415335 0.69750625 0.70575416
0.49325553 0.39861363 0.37467676 0.39790606 0.48766214 0.4923504 0.47598973 0.1786021
0.65597486 0.5940253 0.3063594 0.66326237 0.28667986 0.40258047 0.43568987
00000000: 8491 fe3e c458 0c3f accb f43e 03d7 053f
00000010: 0016 f23e a6d4 bc3e 444f 253f 0120 153f
00000020: 32f7 fd3e fd5b 1f3f 020f f53e 4eff e63e
00000030: 4446 203f ee9a 103f 7a3c be3e e29a f83e
00000040: e410 b43e 106f 053f 05ae 403f 39b7 e13e
00000050: 5521 273f b126 213f 94a1 e13e 9173 083f
00000060: a20d b03e 174a e43e 442d dc3e a12b e93e
00000070: 1bec 0c3f b7c7 c93e bedf 133f 5af4 ff3e
00000080: 1d38 b83e baf0 de3e 947f 023f e195 273f
00000090: 217a 9c3e 6346 233f 07ee dc3e ccca ec3e
000000a0: 4db5 b73e 25f0 0b3f aeea 933d 0ac5 203f
000000b0: fbc5 963e 8a3b 243f c58f 323f 4eac 343f
000000c0: fd8b fc3e 1617 cc3e a2d5 bf3e 58ba cb3e
000000d0: daae f93e 5a15 fc3e edb4 f33e 78e3 363e
000000e0: f8ed 273f 0b12 183f 24db 9c3e 90cb 293f
000000f0: b4c7 923e 071f ce3e be12 df3e

network.10.running_var f4 [63]
0.1980161 0.37011603 0.3962425 0.5868426 0.1764261 0.17204012 0.31110898 0.28770876
0.3662533 0.36177665 0.23339887 0.22276974 0.31520918 0.2001652 0.44601828 0.20076479
0.5859996 0.24428856 0.49570918 0.11584941 0.41252643 0.61917347 0.46992636 0.38121483
0.32016778 0.18148568 0.24511336 0.38044685 0.38400298 0.12356153 0.17075588 0.25775605
0.1631667 0.23922932 0.32072586 0.6533033 0.13315439 0.15955256 0.2998565 0.53760695
0.15158279 0.2716049 0.2518719 0.3346546 0.20584767 0.23697595 0.50196236 0.089049175
0.25444338 0.3176339 0.0755539 0.19504282 0.20384988 0.29440922 0.18461843 0.2174209
0.25541013 0.25186235 0.13815318 0.0960847 0.100381374 0.5975853 0.17599079
00000000: bcc4 4a3e d97f bd3e 4ce0 ca3e 513b 163f
00000010: 0ba9 343e 492b 303e ad49 9f3e 904e 933e
00000020: 8d85 bb3e ca3a b93e 1d00 6f3e c01d 643e
00000030: 1963 a13e 1bf8 4c3e 825c e43e 4995 4d3e
00000040: 1204 163f c826 7a3e 98cd fd3e 7542 ed3d
00000050: aa36 d33e 2782 1e3f 309a f03e 972e c33e
00000060: 08ed a33e 62d7 393e fffe 7a3e eec9 c23e
00000070: 0a9c c43e d40d fd3d a1da 2e3e 9af8 833e
00000080: 2c15 273e 88f8 743e 2e36 a43e e33e 273f
00000090: a059 083e bf61 233e cb86 993e 9ca0 093f
000000a0: 8538 1b3e cc0f 8b3e 5bf5 803e d957 ab3e
000000b0: bbc9 523e d3a9 723e 9b80 003f 6a5f b63d
000000c0: 6746 823e e9a0 a23e 01bc 9a3d 4eb9 473e
000000d0: 06be 503e cebc 963e 9d0c 3d3e 96a3 5e3e
000000e0: 1ec5 823e 1af4 803e 0778 0d3e 0ec8 c43d
000000f0: c094 cd3d 5afb 183f ee36 343e

network.12.weight f4 [63, 63]
0.06773727 0.0873355 -0.13767947 -0.08591049 -0.08495437 0.099411756 0.02460324 0.04630503
-0.08561577 0.11543197 0.09265974 0.06333942 -0.117246136 -0.023054093 0.098308586 -0.03544402
-0.006909099 0.12314451 -0.11663675 0.0961575 0.092781596 0.11444351 0.14249489 -0.08731651
0.042922564 0.11549367 -0.11632377 -0.05186969 -0.06250548 0.10747176 -0.027083805 -0.055780236
-0.09306816 0.03042727 0.104703076 0.101746425 -0.09816894 0.012881373 -0.010083917 0.055819504
-0.027859753 -0.1088729 0.09648513 0.05117331 0.053965826 -0.017845023 -0.044990934 -0.04944649
-0.00797155 -0.049053777 0.08963373 0.04840133 -0.03482918 0.072289266 -0.036847044 0.008993562
0.07186685 0.02545718 0.0436516 -0.10312567 0.033396143 -0.03763451 0.13142161 0.027699027
-0.09651468 0.049137626 -0.065311015 -0.042935852 0.07348126 0.07602622 -0.13396074 0.04057726
0.046933375 -0.07708833 -0.0081870435 0.09155644 -0.11535889 0.017401857 0.056818277 0.024615945
0.012686599 -0.08982801 -0.0055899057 -0.098283514 -0.020862704 0.12035585 -0.02409578 -0.11545212
-0.04329151 -0.062389046 0.054037258 -0.004922265 0.019490689 0.10326638 0.06918346 -0.0827607
-0.043754768 0.07264703 0.056807023 0.043243684 -0.121805266 0.066683516 -0.049080446 -0.038324326
-0.03480916 0.1303033 -0.102324024 0.04076762 0.010146912 -0.07012525 -0.022628864 0.07443044
-0.0663039 0.098178804 0.047844544 0.030929027 0.030694824 -0.11344463 0.029944057 0.10549839
0.029194659 0.014344592 -0.12550305 0.0059344587 0.13817987 -0.074679196 0.05312823 -0.0030050285
-0.023226159 0.087475464 0.040433697 -0.0709874 -0.1306263 -0.07346765 -0.11518298 -0.012450689
0.026501596 -0.03131877 0.10205205 -0.042397335 -0.0047839107 -0.091997206 0.07705461 -0.13644868
-0.06228182 0.0014687846 0.065850034 -0.046904616 -0.10430974 0.055897385 -0.012607666 -0.054277908
0.0013740852 -0.07522343 -0.08020274 0.006484536 0.09980174 0.03999128 -0.07082886 0.017510131
-0.047400888 -0.05676322 0.017660718 -0.067307495 0.0236366 -0.104449555 -0.13759115 0.010690183
0.00503267 0.12716983 -0.07845065 -0.0986342 -0.061249796 0.035510108 -0.088045835 -0.0287781
-0.030142535 -0.06097816 0.06381043 0.009314209 0.08567304 -0.07942596 0.059246406 0.08239919
0.02411102 0.085170165 0.018883118 0.06910935 -0.0495584 -0.065402895 -0.09840493 0.05330849
0.07878888 0.071318656 0.05838504 0.072945766 -0.067690946 0.002163208 0.09865729 0.13081661
-0.069130026 -0.023057422 0.08370387 0.11474954 0.03777411 0.033801388 -0.051768936 -0.07534189
-0.0550295 0.09743978 0.07925534 0.11133376 -0.071486026 0.021789454 0.000104941915 -0.118382804
-0.055860717 -0.04549003 0.0005511542 0.017201638 0.09333061 -0.111223325 0.04896439 -0.0002585401
0.11502564 0.015202753 -0.047215555 -0.043878652 0.10937317 0.1213443 0.05607567 0.08189851
0.1042329 -0.07738822 -0.1272049 0.085330755 -0.07109385 0.04782406 0.084928416 -0.04223543
0.003717327 -0.11934138 -0.009248091 -0.11521046 0.103555076 -0.08494216 0.02632785 -0.01650442
-0.08739228 0.0995067 -0.051307593 0.07951278 0.05428743 0.13337144 -0.05021574 -0.014071957
00000000: d6b9 8a3d f4dc b23d d9fb 0cbe d7f1 afbd
00000010: 8ffc adbd 6498 cb3d bc8c c93c 58aa 3d3d
00000020: 5257 afbd 9967 ec3d 64c4 bd3d 19b8 813d
00000030: be1e f0bd f0db bcbc 0356 c93d c02d 11bd
00000040: b965 e2bb 3033 fc3d 40df eebd 39ee c43d
00000050: 4704 be3d 5c61 ea3d 2eea 113e 00d3 b2bd
00000060: 92cf 2f3d f287 ec3d 283b eebd 5075 54bd
00000070: e002 80bd 271a dc3d dbde ddbc d179 64bd
00000080: 859a bebd 9c42 f93c 916e d63d 6e60 d03d
00000090: cc0c c9bd 650c 533c 0337 25bc fea2 643d
000000a0: 233a e4bc c1f8 debd ff99 c53d 1b9b 513d
000000b0: 450b 5d3d ba2f 92bc 6a48 38bd 6788 4abd
000000c0: 1b9b 02bc 9dec 48bd e491 b73d 7940 463d
000000d0: 0ba9 0ebd 650c 943d edec 16bd bc59 133c
000000e0: ed2e 933d 938b d03c 05cc 323d 8d33 d3bd
000000f0: 65ca 083d a526 1abd 6393 063e 12e9 e23c
00000100: 7da9 c5bd 8944 493d c8c1 85bd 81dd 2fbd
00000110: 587d 963d a3b3 9b3d 012d 09be 5734 263d
00000120: 363d 403d 7de0 9dbd f322 06bc f181 bb3d
00000130: 4841 ecbd 578e 8e3c 48ba 683d 61a7 c93c
00000140: 74db 4f3c bff7 b7bd 872b b7bb de48 c9bd
00000150: 43e8 aabc 217d f63d 8364 c5bc 2972 ecbd
00000160: 7052 31bd a88b 7fbd 2c56 5d3d f44a a1bb
00000170: f0aa 9f3c 537d d33d 0fb0 8d3d 717e a9bd
00000180: 3338 33bd f7c7 943d 7bae 683d 4a20 313d
00000190: 0a75 f9bd 5e91 883d 9408 49bd f8f9 1cbd
000001a0: 0d94 0ebd 3a6e 053e 428f d1bd f3fb 263d
000001b0: 3c3f 263c d49d 8fbd 2b60 b9bc fd6e 983d
000001c0: 57ca 87bd f811 c93d a4f8 433d df5e fd3c
000001d0: b673 fb3c a855 e8bd 3d4d f53c 8a0f d83d
000001e0: a329 ef3c 9405 6b3c df83 00be d975 c23b
000001f0: 067f 0d3e 68f1 98bd fd9c 593d 03f0 44bb
00000200: c944 bebc 5626 b33d ce9d 253d d861 91bd
00000210: e7c2 05be 3576 96bd 0ee5 ebbd fafd 4bbc
00000220: e019 d93c 1c48 00bd aa00 d13d d4a8 2dbd
00000230: 5ac2 9cbb 0869 bcbd cfce 9d3d 34b9 0bbe
00000240: 391b 7fbd 3c84 c03a 62dc 863d 0e1f 40bd
00000250: 58a0 d5bd a8f4 643d 6290 4ebc 8352 5ebd
00000260: a61a b43a be0e 9abd 5641 a4bd 3b7c d43b
00000270: db64 cc3d e5cd 233d b90e 91bd 6871 8f3c
00000280: 6f27 42bd 8d80 68bd 36ad 903c 83d8 89bd
00000290: 8ba1 c13c a6e9 d5bd b2e4 0cbe e125 2f3c
000002a0: 19e9 a43b cf38 023e bcaa a0bd ba00 cabd
000002b0: 11e1 7abd 0c73 113d 6051 b4bd 0dc0 ebbc
000002c0: 7aed f6bc 3cc4 79bd 0baf 823d a09a 183c
000002d0: 5975 af3d 14aa a2bd 5cac 723d e8c0 a83d
000002e0: 7984 c53c b26d ae3d c5b0 9a3c 3489 8d3d
000002f0: c0fd 4abd f4f1 85bd 8688 c9bd 015a 5a3d
00000300: 105c a13d 840f 923d 2725 6f3d 9764 953d
00000310: 8da1 8abd 9cc4 0d3b d50c ca3d caf4 053e
00000320: 0b94 8dbd ebe2 bcbc ef6c ab3d cf01 eb3d
00000330: 06b9 1a3d 5373 0a3d aa0b 54bd d94c 9abd
00000340: 9d66 61bd 828e c73d a050 a23d f402 e43d
00000350: 4467 92bd cc7f b23c 4314 dc38 af72 f2bd
00000360: 35ce 64bd c153 3abd 557b 103a 73ea 8c3c
00000370: 1e24 bf3d 0ec9 e3bd e28e 483d aa8c 87b9
00000380: 9092 eb3d f814 793c 1965 41bd 1aba 33bd
00000390: 0aff df3d 5c83 f83d 9aaf 653d 68ba a73d
000003a0: 0f78 d53d b77d 9ebd 0042 02be e4c1 ae3d
000003b0: a799 91bd 29e3 433d f3ee ad3d 0fff 2cbd
000003c0: 669e 733b 4169 f4bd 4e85 17bc 76f3 ebbd
000003d0: af14 d43d 28f6 adbd 81ad d73c 4734 87bc
000003e0: b9fa b2bd 2bca cb3d e927 52bd 99d7 a23d
000003f0: 7f5c 5e3d 8692 083e 05af 4dbd 118e 66bc
