src/runs/ann_left_hand/20241107/20241107-1717/ann_left_hand_5_layers_best.pth (torch, 314736 bytes, 34 tensors)

network.0.weight f4 [126, 150]
-0.02332323 0.028379682 0.04210611 0.04144651 -0.012949719 0.045301203 0.09933253 -0.0032741937
0.03784122 0.031263996 0.084167734 0.084842645 0.049415942 0.030430708 -0.010603629 0.050302904
0.07938388 -0.037636135 0.04532056 0.055428106 -0.001969842 -0.018244077 0.0045924857 0.059288878
0.045030896 -0.033702955 -0.04566056 0.029819379 -0.06345179 -0.18288198 0.0078080185 0.0248788
-0.058326248 0.004477846 -0.02384653 -0.030858543 -0.124619454 -0.061034806 0.0020332383 -0.005151296
-0.009562314 0.049552973 0.014491044 -0.073600516 -0.005433091 0.09006207 0.073198535 0.00809858
0.038154773 -0.021744018 0.025334684 -0.070956215 0.09138066 0.086015634 0.009550134 0.09173382
0.0391997 -0.02934705 -0.045036215 0.022837458 0.027377155 -0.030383825 -0.06428291 -0.05126939
-0.0054463665 -0.036945827 -0.07525505 0.059367944 -0.10339044 -0.12182452 0.023387274 -0.0013074912
-0.03762128 -0.09327831 -0.045255423 -0.15746412 0.040929858 0.012363047 0.024096197 -0.044607427
-0.00631183 -0.09080059 -0.036916416 0.072900996 -0.09709609 -0.12997887 -0.101715446 0.055040322
-0.023386689 -0.048963703 0.01821378 -0.020408101 0.03954467 -0.0316255 -0.045190185 -0.04224405
-0.04462552 -0.04671195 -0.08191532 -0.20019476 0.07585231 -0.03625671 -0.008479835 -0.0021374822
0.01651 0.048973724 -0.04745054 -0.049192812 -0.09841521 0.09315894 0.024053015 0.023747597
-0.014092541 0.1124802 0.07092914 -0.041002147 -0.02543701 0.14872506 -0.00583081 0.03461637
0.024391195 0.0631858 -0.023634994 0.03050721 -0.04055646 -0.037584573 0.054020043 -0.027134905
-0.026171869 0.0009318955 0.05063244 0.016019037 -0.03901234 -0.010819871 0.042080864 -0.08115938
-0.08913921 -0.017345529 -0.029232955 0.03210993 0.076445565 -0.009909306 -0.0741569 0.029157182
0.043062076 0.028085705 -0.080860056 -0.056845587 0.005961529 -0.039787844 -0.036978066 -0.034035143
0.009958918 -0.0023193718 -0.11774308 0.08655478 0.088245444 -0.010493836 -0.013535331 -0.021828562
0.028757475 -0.0014053528 0.034902357 -0.049162887 0.038905002 -0.0062918616 0.061469875 -0.06159616
0.0017038843 -0.05128488 -0.031347528 -0.051569186 0.022934802 0.049945384 -0.012425248 0.0038511911
-0.06703688 0.06396517 0.016710004 0.039861143 -0.06052621 -0.017716536 -0.04410217 -0.023351904
0.002389484 0.05911491 0.049717385 0.056376155 0.04002376 0.07389877 0.061014425 0.08315251
-0.08136481 0.065885395 -0.022138964 0.046209957 -0.053721316 0.00024283117 -0.14911579 0.088898025
-0.035065968 -0.001406721 -0.0020954404 -0.014781243 0.03220183 0.07323207 -0.038418043 0.06610339
-0.023493653 -0.0065936423 0.08981369 0.059154097 0.0063826297 0.0032133043 -0.07887959 -0.036004927
-0.0045149233 0.044340353 -0.008965232 -0.021460095 -0.06799075 0.012235877 0.040922742 -0.053640757
0.04717086 -0.058376305 0.109456606 0.05123768 0.013380294 0.0256487 0.04905622 -0.017676048
-0.040870074 0.0017769515 -0.045997422 -0.08756694 -0.04767025 -0.12133829 0.0004688719 -0.07582363
-0.101081334 -0.10089806 -0.062243715 0.00609849 0.0018397475 0.0074084033 -0.042728238 0.09990409
-0.03648423 0.12892707 -0.038909137 -0.07288609 0.08763309 0.0055453153 0.062137555 0.023217842
00000000: 5c10 bfbc 827c e83c 7577 2c3d d1c3 293d
00000010: 0f2b 54bc c18d 393d da6e cb3d db93 56bb
00000020: 65ff 1a3d ad0e 003d 2260 ac3d fbc1 ad3d
00000030: 5f68 4a3d d249 f93c d8ba 2dbc 6b0a 4e3d
00000040: 0494 a23d 5928 1abd 0da2 393d 9508 633d
00000050: 7718 01bb 9a74 95bc 907c 963b e5d8 723d
00000060: 5172 383d 1c0c 0abd 9106 3bbd c547 f43c
00000070: 03f3 81bd 6a45 3bbe 68da ff3b a0ce cb3c
00000080: 81e7 6ebd e5ba 923b cc59 c3bc 0ecb fcbc
00000090: 7c38 ffbd a2ff 79bd 1440 053b 34cc a8bb
000000a0: 40ab 1cbc 0ff8 4a3d d86b 6d3c debb 96bd
000000b0: 1208 b2bb 7672 b83d 1de9 953d e8af 043c
000000c0: 2e48 1c3d 8320 b2bc af8a cf3c 7e51 91bd
000000d0: c925 bb3d f728 b03d 2a78 1c3c f1de bb3d
000000e0: dd8f 203d 3969 f0bc e577 38bd 9f15 bb3c
000000f0: 0e46 e03c 80e7 f8bc c2a6 83bd daff 51bd
00000100: 6f77 b2bb 8254 17bd 521f 9abd cd2b 733d
00000110: 5ebe d3bd 227f f9bd ab96 bf3c 2060 abba
00000120: c518 1abd b308 bfbd c05d 39bd 463e 21be
00000130: 11a6 273d 618e 4a3c 6365 c53c 47b6 36bd
00000140: 78d3 cebb a9f5 b9bd ab35 17bd 1e4d 953d
00000150: 51da c6bd 2e19 05be 3050 d0bd f671 613d
00000160: 7195 bfbc 2a8e 48bd 1135 953c e42e a7bc
00000170: 98f9 213d be89 01bd 5819 39bd 1908 2dbd
00000180: 40c9 36bd 0855 3fbd 38c3 a7bd dbff 4cbe
00000190: 7558 9b3d ea81 14bd 02ef 0abc 0015 0cbb
000001a0: fb3f 873c ac98 483d 7f5b 42bd 677e 49bd
000001b0: ea8d c9bd 1dca be3d d40a c53c 528a c23c
000001c0: 67e4 66bc 055c e63d 4c43 913d def1 27bd
000001d0: 4761 d0bc 624b 183e 6110 bfbb e5c9 0d3d
000001e0: 0bd0 c73c 8f67 813d 2d9e c1bc 42ea f93c
000001f0: 881e 26bd 48f2 19bd 1f44 5d3d 054a debc
00000200: 6366 d6bc 734a 743a f663 4f3d 5b3a 833c
00000210: 67cb 1fbd d445 31bc fc5c 2c3d e436 a6bd
00000220: 9e8e b6bd 3618 8ebc f379 efbc b485 033d
00000230: 7e8f 9c3d a45a 22bc 93df 97bd 0bdb ee3c
00000240: dc61 303d fe13 e63c f599 a5bd ebd6 68bd
00000250: ee58 c33b 94f8 22bd 5076 17bd 6f68 0bbd
00000260: bb2a 233c 9a00 18bb 4923 f1bd a243 b13d
00000270: 07ba b43d 57ee 2bbc 4bc3 5dbc d0d1 b2bc
00000280: cc94 eb3c d133 b8ba c6f5 0e3d 065f 49bd
00000290: da5a 1f3d f62b cebb d6c7 7b3d 414c 7cbd
000002a0: df54 df3a 1810 52bd 4466 00bd 363a 53bd
000002b0: c4e1 bb3c 8893 4c3d 4493 4bbc 4464 7c3b
000002c0: a24a 89bd 2c00 833d 6be3 883c 7045 233d
000002d0: 55ea 77bd 4522 91bc 7aa4 34bd 7e4c bfbc
000002e0: e498 1c3b 7a22 723d 75a4 4b3d afea 663d
000002f0: f4ef 233d 3d58 973d 43ea 793d dd4b aa3d
00000300: 98a2 a6bd ecee 863d c65c b5bc a746 3d3d
00000310: e20a 5cbd 7fa0 7e39 cfb1 18be 2b10 b63d
00000320: 55a1 0fbd b961 b8ba a853 09bb 072d 72bc
00000330: 11e6 033d b2fa 953d 3d5c 1dbd 3761 873d
00000340: c375 c0bc 7b0f d8bb 3df0 b73d 914b 723d
00000350: 6125 d13b 4d96 523b 9f8b a1bd e779 13bd
00000360: ecf1 93bb 3b9e 353d e9e2 12bc 15cd afbc
00000370: bc3e 8bbd fd78 483c 9b9e 273d 69b6 5bbd
00000380: 3b36 413d fe1b 6fbd c92a e03d 9ade 513d
00000390: 0539 5b3c 391d d23c 2def 483d 5ccd 90bc
000003a0: 6167 27bd 99e8 e83a cb67 3cbd 4c56 b3bd
000003b0: e141 43bd 3680 f8bd ecd2 f539 6b49 9bbd
000003c0: bb03 cfbd a4a3 cebd 44f3 7ebd d8d5 c73b
000003d0: af23 f13a 31c2 f23b ce03 2fbd 849a cc3d
000003e0: 7d70 15bd 7505 043e 305f 1fbd 4d45 95bd
000003f0: fa78 b33d 7ab5 b53b f383 7e3d 5833 be3c

network.0.bias f4 [126]
0.47998953 0.4841645 0.5111532 0.4792641 0.4613337 0.50792086 0.48313805 0.50242543
0.53264093 0.44700184 0.48349106 0.5528455 0.555413 0.47146082 0.48395213 0.5210328
0.4636013 0.48728696 0.49071848 0.46331272 0.49312383 0.49075776 0.43704197 0.4751836
0.48401704 0.48871374 0.4704191 0.5444105 0.47099862 0.4477295 0.54178786 0.47837642
0.4719797 0.5395422 0.49365947 0.48273283 0.47870275 0.47319254 0.53081334 0.48070705
0.4616112 0.5293547 0.48509094 0.474844 0.47250596 0.48648122 0.5162548 0.4263507
0.47492743 0.47858235 0.48057956 0.46823263 0.5096248 0.4993294 0.4540915 0.5333284
0.53929937 0.48920327 0.48157302 0.46455288 0.48906243 0.447094 0.47665215 0.50141114
0.4992991 0.53941596 0.47651175 0.49664482 0.49249917 0.44634038 0.45906112 0.48839247
0.46084017 0.44073117 0.48016095 0.5381621 0.4955699 0.47788885 0.4810979 0.47224241
0.47171742 0.47846213 0.4948638 0.5096898 0.4972582 0.51639676 0.50495243 0.4570803
0.52598876 0.5363432 0.48537135 0.494463 0.5180606 0.48771638 0.4379467 0.4562649
0.46045834 0.5363338 0.49410862 0.5115298 0.5166077 0.5078509 0.4522636 0.46942517
0.53116965 0.48816857 0.53554374 0.53927386 0.46261343 0.53819346 0.4827495 0.4987279
0.53990364 0.52603436 0.47694728 0.500272 0.5394694 0.50372714 0.4703962 0.48506156
0.46644816 0.47967547 0.4890038 0.5085785 0.49424937 0.5224046
00000000: 30c1 f53e 69e4 f73e f0da 023f 1b62 f53e
00000010: ee33 ec3e 1a07 023f df5d f73e f49e 003f
00000020: 285b 083f 6ddd e43e 248c f73e 4887 0d3f
00000030: 8c2f 0e3f 5063 f13e 93c8 f73e 6862 053f
00000040: 265d ed3e ad7d f93e 743f fb3e 5337 ed3e
00000050: ba7a fc3e 9a44 fb3e f7c3 df3e 444b f33e
00000060: 15d1 f73e b038 fa3e c6da f03e 7d5e 0b3f
00000070: bb26 f13e cd3c e53e 9cb2 0a3f c1ed f43e
00000080: 53a7 f13e 701f 0a3f efc0 fc3e c228 f73e
00000090: 8718 f53e 4b46 f23e 62e3 073f 3c1f f63e
000000a0: 4e58 ec3e ca83 073f d75d f83e c11e f33e
000000b0: 4dec f13e 1114 f93e 4629 043f a44a da3e
000000c0: b029 f33e bf08 f53e 860e f63e 30bc ef3e
000000d0: c576 023f 1aa8 ff3e ae7e e83e 3688 083f
000000e0: 860f 0a3f da78 fa3e bd90 f63e e0d9 ed3e
000000f0: 6466 fa3e 81e9 e43e c00b f43e 7b5c 003f
00000100: 22a4 ff3e 2a17 0a3f 59f9 f33e 3b48 fe3e
00000110: da28 fc3e ba86 e43e 0f0a eb3e 940e fa3e
00000120: 3ef3 eb3e 84a7 e13e a8d7 f53e fec4 093f
00000130: 57bb fd3e d9ad f43e 7752 f63e c2c9 f13e
00000140: f284 f13e fdf8 f43e ca5e fd3e 087b 023f
00000150: a098 fe3e 9432 043f 9044 013f 6e06 ea3e
00000160: 33a7 063f ca4d 093f 9882 f83e 412a fd3e
00000170: 9f9f 043f f6b5 f93e 8d3a e03e 8e9b e93e
00000180: 32c1 eb3e 2c4d 093f cefb fc3e 9ef3 023f
00000190: 6740 043f 8402 023f 188f e73e 7f58 f03e
000001a0: bcfa 073f 3bf1 f93e 6519 093f da0d 0a3f
000001b0: abdb ec3e 0cc7 093f f12a f73e 4359 ff3e
000001c0: 2037 0a3f 30aa 063f 6f32 f43e d311 003f
000001d0: ab1a 0a3f 43f4 003f c5d7 f03e fd59 f83e
000001e0: 4bd2 ee3e 0698 f53e b55e fa3e 3332 023f
000001f0: 410e fd3e 4fbc 053f

network.1.running_mean f4 [126]
0.17794475 0.8579583 0.96091396 0.61780846 0.2591238 0.051408105 -0.07402187 0.637597
0.10497946 0.55881333 1.007588 1.226073 -0.4770375 0.14490761 0.93988913 0.33603054
0.5279644 -0.62074006 0.19610983 0.9529475 0.3565581 0.341482 0.47462898 0.17550997
0.16002743 0.10510551 1.2212441 0.7921308 0.6656816 0.41252205 0.60392725 1.1038065
-0.4444179 0.999979 0.019194186 -0.13200901 -0.24880421 0.2219856 0.5218484 0.08722692
0.45427683 0.0933711 0.11046814 0.5539219 -0.044743806 0.45488608 -0.43802997 0.56386924
1.2797796 -0.26245952 0.07211205 0.07211217 0.8362496 1.0695388 1.3874015 0.5913781
0.3826072 0.7302215 0.61410725 1.2042626 0.4135372 0.9825745 0.6316615 -0.07857946
0.70627457 -0.16370314 -0.015681187 -0.04995123 1.0460197 1.0105609 0.82234895 0.005504983
1.615933 0.46051714 0.033068854 0.54276276 -0.09357742 0.31126517 1.0126969 1.3627459
0.5511992 -0.08073381 0.19528581 1.0817128 0.5976989 0.61548555 0.23773557 1.7455167
-0.22723973 -0.27336368 0.68217 0.37274277 -0.09437579 0.022425694 0.6309969 0.75856924
0.3926415 0.66030014 0.30044046 0.7432921 0.31901857 0.08110992 0.23915377 0.63871235
-0.31631482 0.175853 0.15190478 -0.74028224 0.10651896 0.90085894 -0.025552286 0.9590943
0.6516407 0.9212918 0.36326712 0.012307538 0.5272484 0.31257406 0.92718583 0.21389796
0.99164414 -0.34448403 -0.5030306 -0.6767448 0.50752056 0.5741077
00000000: 2637 363e 28a3 5b3f 75fe 753f b228 1e3f
00000010: e0ab 843e 4e91 523d c798 97bd 8f39 233f
00000020: 79ff d63d 640e 0f3f a5f8 803f f6ef 9c3f
00000030: 423e f4be a962 143e 939c 703f 320c ac3e
00000040: ad28 073f d2e8 1ebf 04d1 483e 5ef4 733f
00000050: c98e b63e bbd6 ae3e 9202 f33e e3b8 333e
00000060: 3bde 233e 8f41 d73d ba51 9c3f 16c9 4a3f
00000070: 1c6a 2a3f 1736 d33e fa9a 1a3f 8849 8d3f
00000080: be8a e3be a0fe 7f3f 203d 9d3c 5f2d 07be
00000090: 88c6 7ebe 3150 633e db97 053f 07a4 b23d
000000a0: f996 e83e 5939 bf3d 1f3d e23d d3cd 0d3f
000000b0: 4845 37bd d4e6 e83e 7745 e0be bc59 103f
000000c0: d1cf a33f 1861 86be 7caf 933d 8caf 933d
000000d0: 7414 563f a6e6 883f 5f96 b13f 8e64 173f
000000e0: 17e5 c33e ccef 3a3f 2236 1d3f 4725 9a3f
000000f0: 26bb d33e 018a 7b3f 91b4 213f 45ee a0bd
00000100: 69ce 343f cca1 27be d575 80bc a999 4cbd
00000110: f9e3 853f 0f5a 813f 7685 523f 2563 b43b
00000120: e4d6 ce3f e7c8 eb3e 3573 073d 80f2 0a3f
00000130: 85a5 bfbd 265e 9f3e 0da0 813f 756e ae3f
00000140: 641b 0d3f c557 a5bd 01f9 473e 9175 8a3f
00000150: cc02 193f 7690 1d3f f470 733e 176d df3f
00000160: 88b1 68be 53f6 8bbe b1a2 2e3f 24d8 be3e
00000170: 1848 c1bd 17b6 b73c 0389 213f 9831 423f
00000180: 4f08 c93e 6e09 293f 55d3 993e 6448 3e3f
00000190: 6756 a33e f51c a63d bae4 743e a782 233f
000001a0: 04f4 a1be cf12 343e ed8c 1b3e 2383 3dbf
000001b0: 9d26 da3d b19e 663f 0753 d1bc 3487 753f
000001c0: edd1 263f c8d9 6b3f 26fe b93e 8ea5 493c
000001d0: c0f9 063f b509 a03e 0d5c 6d3f 1108 5b3e
000001e0: 64dc 7d3f 3660 b0be 9dc6 00bf 263f 2dbf
000001f0: deec 013f b9f8 123f

network.1.running_var f4 [126]
0.008905732 0.004725179 0.002989021 0.0033398366 0.0032028954 0.009147758 0.0039417683 0.004835629
0.003494929 0.0032207207 0.0067705153 0.0028015336 0.0035142903 0.0023097196 0.004459576 0.0044629965
0.0018769422 0.0074849282 0.004078244 0.006028753 0.0030419675 0.010790134 0.0007901759 0.0030289069
0.002638704 0.0020102134 0.006425515 0.0027478465 0.0022649665 0.004199349 0.0037369388 0.0087308725
0.0027869137 0.0015901735 0.012119768 0.0050453166 0.0044980324 0.0043645883 0.003600678 0.002270102
0.005429091 0.0037403535 0.0030414385 0.004116574 0.0019047224 0.0023877358 0.004092021 0.0020708162
0.013364857 0.0025424198 0.002763505 0.0032330956 0.0055065467 0.004934591 0.004482354 0.0061036255
0.002434582 0.0025051355 0.005988875 0.006134546 0.0023255548 0.0038317018 0.004518284 0.0030471499
0.007960287 0.008222775 0.003721346 0.003378425 0.002737011 0.0011752273 0.004943949 0.006133594
0.006788802 0.0037316908 0.0015640641 0.002758203 0.008773505 0.005258798 0.003711908 0.0023932655
0.003849716 0.013507552 0.0067014676 0.004264494 0.0028419208 0.005811888 0.0030769166 0.007127571
0.00358107 0.0065035513 0.008089206 0.007334991 0.004324332 0.0077573685 0.0028555328 0.003160446
0.0024597757 0.0026651793 0.004743195 0.0072412514 0.0029598854 0.0029516611 0.0015835359 0.006482997
0.0037233508 0.0039802906 0.0022836793 0.006230876 0.0059270426 0.0023538892 0.0021047082 0.006077296
0.0015056406 0.003806155 0.006516872 0.0031584261 0.0024210527 0.0013064397 0.0041509112 0.0031570073
0.0023581916 0.0062488806 0.01068741 0.017133472 0.0031092567 0.0029463347
00000000: 59e9 113c add5 9a3b 73e3 433b 29e1 5a3b
00000010: abe7 513b 7ae0 153c f329 813b 3274 9e3b
00000020: 2e0b 653b ba12 533b 33db dd3b ef99 373b
00000030: 0250 663b aa5e 173b a321 923b 543e 923b
00000040: bb03 f63a 2144 f53b caa2 853b d88c c53b
00000050: bf5b 473b 1ac9 303c cf23 4f3a a080 463b
00000060: 1bee 2c3b c9bd 033b 208d d23b 3715 343b
00000070: d56f 143b b19a 893b 6ee7 743b ef0b 0f3c
00000080: a7a4 363b 5e6d d03a fe91 463c 2f53 a53b
00000090: 3b64 933b d204 8f3b 5af9 6b3b fec5 143b
000000a0: 84e6 b13b b820 753b df52 473b 53e4 863b
000000b0: e1a7 f93a 8f7b 1c3b 5c16 863b 88b6 073b
000000c0: 46f8 5a3c ba9e 263b ec1b 353b 58e2 533b
000000d0: 4370 b43b 59b2 a13b b6e0 923b ec00 c83b
000000e0: 828d 1f3b 332d 243b 533e c43b 4d04 c93b
000000f0: 5668 183b 4a1d 7b3b 1d0e 943b b1b2 473b
00000100: dd6b 023c d1b8 063c d3e1 733b 9168 5d3b
00000110: 6d5f 333b 160a 9a3a da00 a23b 51fc c83b
00000120: 9974 de3b 628f 743b 4801 cd3a f8c2 343b
00000130: bfbe 0f3c ff51 ac3b 7b43 733b 55d8 1c3b
00000140: 844b 7c3b c84e 5d3c fc97 db3b 2bbd 8b3b
00000150: 853f 3a3b a671 be3b 18a6 493b 668e e93b
00000160: 63b0 6a3b be1b d53b 9788 043c 5d5a f03b
00000170: 20b3 8d3b 8631 fe3b e423 3b3b 7c1f 4f3b
00000180: 3034 213b 4aaa 2e3b ce6c 9b3b 0548 ed3b
00000190: a3fa 413b a870 413b a68e cf3a 526f d43b
000001a0: 7603 743b 196d 823b c8a9 153b 602c cc3b
000001b0: a337 c23b b543 1a3b 25ef 093b 0e24 c73b
000001c0: ea58 c53a af70 793b 7c8b d53b 99fd 4e3b
000001d0: 86aa 1e3b d83c ab3a 5e04 883b cbe5 4e3b
000001e0: e48b 1a3b 69c3 cc3b 3f1a 2f3c 7f5b 8c3c
000001f0: acc4 4b3b 4b17 413b

network.3.weight f4 [100, 126]
0.059767984 0.07335371 0.0062196883 0.08789108 -0.062002745 -0.00046126152 -0.086425155 0.031345703
-0.0670609 0.07257103 -0.017836409 0.06533811 0.047242824 -0.0976156 -0.04930875 0.004094069
0.051452942 -0.058419753 0.037453894 0.07857281 -0.03969952 0.013862567 0.025274169 -0.0032712172
0.00747966 -0.053433362 -0.054402478 -0.048468303 0.016368477 -0.08491959 0.017277772 0.03894381
0.081586674 0.040880695 0.042968083 0.0037084988 0.06044434 0.044219315 0.060220297 -0.08617172
0.07267064 -0.042412776 0.04953735 -0.013403369 -0.06948132 -0.056982115 0.07590646 0.01025566
0.0031935847 -0.011279177 -0.015687687 0.022743534 -0.044581532 -0.05385554 -0.0021325524 0.030325782
0.041000333 0.051047776 -0.052271474 -0.0142389275 0.0049307616 0.01807859 -0.07251656 -0.04655125
-0.07832337 -0.021105567 0.017936777 0.0006710604 -0.05790575 -0.012671962 0.099438176 0.036006585
0.08928075 0.00034408798 0.0018451128 -0.061802477 -0.14528967 0.008059914 -0.02061647 -0.09151131
0.043484308 0.027637342 -0.07752097 0.09632555 -0.004166423 0.10489868 0.117692664 0.07425382
0.066042334 -0.08961431 -0.01706664 -0.080061726 -0.07248826 0.020005818 -0.09298478 0.080804974
0.022374257 -0.05642448 -0.019925166 0.046336625 -0.040474314 0.087814346 -0.02044018 -0.10364825
-0.0073047495 0.073429674 0.012718517 -0.00031500062 0.07967189 0.110195585 0.06966567 0.058623217
0.04065188 0.023073053 -0.025793273 0.08066051 0.070287935 -0.009310395 0.01841224 0.0055933823
0.031793565 0.038102012 -0.04540855 0.05575031 0.111852415 0.046024933 -0.06729055 -0.05174943
-0.07318205 0.047674004 -0.12560385 -0.05476944 -0.016397007 -0.0040400373 0.03799799 0.090371944
-0.014052357 -0.10116841 -0.03442535 -0.07512814 0.08768362 0.011463417 -0.024264881 0.090237275
0.09379829 0.029916057 -0.018214714 -0.06743852 0.0676242 0.043767154 0.054045737 0.0297893
-0.030443193 0.07571975 -0.09998947 -0.004232108 0.028601466 0.010333625 0.008945399 -0.010934981
-0.031746116 0.07650302 0.10196986 -0.061349675 0.033998065 -0.078723796 0.036965348 0.0133884875
-0.09673826 -0.06794853 0.007468991 0.02151332 0.019894883 0.06453333 0.082634516 -0.022997525
0.006268451 -0.016738996 -0.042030282 -0.076856926 -0.084811576 -0.0062293266 0.035890948 -0.047166977
-0.056134574 0.1252253 0.0625872 -0.050118566 -0.07076862 0.054077733 0.061925672 0.010187516
0.11761154 -0.11300482 -0.014310505 0.036163587 0.064351395 -0.003617683 -0.007123036 -0.016989056
-0.062253658 0.044440914 0.0067728334 0.08061209 0.045910776 0.06830701 -0.04572792 0.0041020443
0.0007024905 0.0713812 0.07985153 0.11382854 0.006456276 0.0036202164 -0.07264106 -0.074640505
0.033071782 0.025412869 -0.027497087 0.03306623 0.028521372 -0.010465534 0.029657185 0.096647754
0.07986678 -0.061228886 0.040685292 0.00670279 -0.084825456 -0.0092044305 -0.08683663 0.037346907
0.0072157066 -0.016918937 0.039497953 -0.015030156 -0.038868103 -0.03718454 -0.016065674 -0.10607345
0.00020140092 -0.07279526 -0.023709472 -0.00015023223 -0.019986467 -0.015747001 0.141238 0.044019323
0.018019086 0.069648065 -0.032594625 0.08132099 -0.09020306 0.0053744726 0.045027718 0.06682697
00000000: 46cf 743d 783a 963d 87ce cb3b 3d00 b43d
00000010: 97f6 7dbd 79d5 f1b9 acff b0bd 5a64 003d
00000020: 3a57 89bd 1fa0 943d a91d 92bc fdcf 853d
00000030: b181 413d b0ea c7bd f9f7 49bd 8a27 863b
00000040: 52c0 523d 8d49 6fbd 4169 193d c8ea a03d
00000050: f79b 22bd d21f 633c c60b cf3c eb61 56bb
00000060: f017 f53b f1dc 5abd 22d5 5ebd b386 46bd
00000070: 2f17 863c 52ea adbd 1d8a 8d3c 8b83 1f3d
00000080: ea16 a73d 8472 273d 4dff 2f3d 490a 733b
00000090: 7c94 773d 501f 353d 8fa9 763d cc7a b0bd
000000a0: 58d4 943d 05b9 2dbd ade7 4a3d ce99 5bbc
000000b0: 394c 8ebd 1466 69bd d974 9b3d 5b07 283c
000000c0: 764b 513b 4ccc 38bc 7783 80bc a650 ba3c
000000d0: 209b 36bd a097 5cbd 4bc2 0bbb c66d f83c
000000e0: f7ef 273d 7917 513d 9d1a 56bd 644a 69bc
000000f0: 3a92 a13b 8d19 943c 9083 94bd 86ac 3ebd
00000100: 0168 a0bd 95e5 acbc 26f0 923c 1aea 2f3a
00000110: 942e 6dbd 109e 4fbc 3ea6 cb3d a47b 133d
00000120: d3d8 b63d b566 b439 b6d7 f13a 9824 7dbd
00000130: d1c6 14be bb0d 043c dfe3 a8bc 486a bbbd
00000140: 9a1c 323d b567 e23c 50c3 9ebd 5446 c53d
00000150: 7d86 88bb 1ed5 d63d da08 f13d 6312 983d
00000160: 3441 873d b587 b7bd 57cf 8bbc 67f7 a3bd
00000170: ba74 94bd 3ee3 a33c ce6e bebd 147d a53d
00000180: 384a b73c 5b1d 67bd 1a3a a3bc 79cb 3d3d
00000190: 65c8 25bd 02d8 b33d 2a72 a7bc 8945 d4bd
000001a0: ae5c efbb 4c62 963d 5461 503c ab26 a5b9
000001b0: 042b a33d 39ae e13d e0ac 8e3d e61e 703d
000001c0: 9682 263d b303 bd3c 6a4c d3bc 5631 a53d
000001d0: 1ff3 8f3d a18a 18bc 44d5 963c b148 b73b
000001e0: f839 023d db10 1c3d 51fe 39bd 705a 643d
000001f0: e112 e53d a484 3c3d a1cf 89bd 36f7 53bd
00000200: 78e0 95bd d145 433d 4c9e 00be ec55 60bd
00000210: 0453 86bc 4a62 84bb c8a3 1b3d ed14 b93d
00000220: db3b 66bc 6231 cfbd 9901 0dbd c8dc 99bd
00000230: 7893 b33d 0ed1 3b3c 25c7 c6bc 52ce b83d
00000240: 5119 c03d 8512 f53c 0637 95bc 351d 8abd
00000250: 8e7e 8a3d 3045 333d 105f 5d3d b108 f43c
00000260: 0164 f9bc f512 9b3d 47c7 ccbd 7fad 8abb
00000270: 9f4d ea3c 5d4e 293c b98f 123c a228 33bc
00000280: 3708 02bd 9ead 9c3d 93d5 d03d cc49 7bbd
00000290: 8e41 0b3d f139 a1bd fa68 173d 635b 5b3c
000002a0: b51e c6bd 9928 8bbd 70be f43b b43c b03c
000002b0: 98fa a23c 0d2a 843d 493c a93d 4e65 bcbc
000002c0: 9467 cd3b 3820 89bc f227 2cbd 2a67 9dbd
000002d0: b1b1 adbd 611f ccbb 6302 133d 2932 41bd
000002e0: 5eed 65bd 103b 003e b82d 803d 2049 4dbd
000002f0: 23ef 90bd 9d80 5d3d c6a5 7d3d 8ae9 263c
00000300: 52de f03d 126f e7bd 9c76 6abc 4520 143d
00000310: aaca 833d a616 6dbb 5b68 e9bb a22c 8bbc
00000320: b1fd 7ebd ad07 363d a5ee dd3b f417 a53d
00000330: f00c 3c3d 8ce4 8b3d 334d 3bbd 716a 863b
00000340: 5727 383a 4e30 923d 3389 a33d f01e e93d
00000350: 2b8f d33b 2741 6d3b d6c4 94bd 1fdd 98bd
00000360: 4776 073d a62e d03c 9241 e1bc 7570 073d
00000370: a7a5 e93c a277 2bbc a0f3 f23c 42ef c53d
00000380: 3291 a33d 24cb 7abd 9fa5 263d 14a3 db3b
00000390: f8b8 adbd 2ece 16bc 67d7 b1bd 12f9 183d
000003a0: bc71 ec3b 9599 8abc 9bc8 213d 0b41 76bc
000003b0: 2934 1fbd d14e 18bd 299c 83bc 093d d9bd
000003c0: 262f 5339 ae15 95bd 5e3a c2bc a887 1db9
000003d0: a9ba a3bc dbff 80bc b2a0 103e 9b4d 343d
000003e0: c39c 933c a5a3 8e3d f181 05bd 9f8b a63d
000003f0: 62bc b8bd 581c b03b fc6e 383d 94dc 883d

network.3.bias f4 [100]
0.4980639 0.4956015 0.50173587 0.49481815 0.4957575 0.50257486 0.5001773 0.4990143
0.5002891 0.49391547 0.5004524 0.49412483 0.50000566 0.49380884 0.49947116 0.5012128
0.50191253 0.5035911 0.5154868 0.49881822 0.494927 0.4985862 0.51547414 0.4962206
0.49811774 0.49846417 0.4986298 0.49922213 0.50380284 0.50004554 0.49434096 0.49445054
0.49185824 0.4961475 0.4998 0.48442292 0.49693766 0.49398088 0.49642417 0.49131975
0.50630707 0.50110537 0.5225738 0.49717093 0.49741286 0.4965404 0.49758562 0.49199346
0.49321097 0.5047113 0.49920338 0.51185393 0.4974296 0.49971762 0.49841964 0.50367635
0.4996776 0.49768087 0.4969012 0.5075013 0.5026781 0.5346373 0.49884537 0.4916764
0.51304585 0.49583194 0.4976668 0.49583268 0.4954431 0.4947831 0.5010476 0.4924943
0.49753776 0.49719682 0.49925545 0.49950427 0.4982795 0.4990701 0.49047288 0.49450982
0.5081764 0.49633637 0.49662477 0.49342215 0.49572295 0.49895853 0.50619286 0.51026136
0.4984343 0.49907824 0.5004469 0.49684092 0.501369 0.500104 0.5015128 0.49745014
0.4974378 0.50858265 0.49648628 0.49615154
00000000: 3b02 ff3e 7bbf fd3e c371 003f ce58 fd3e
00000010: edd3 fd3e bfa8 003f 9f0b 003f cd7e ff3e
00000020: f212 003f 7de2 fc3e a61d 003f eefd fc3e
00000030: 5f00 003f 83d4 fc3e afba ff3e 7b4f 003f
00000040: 577d 003f 59eb 003f f1f6 033f 1a65 ff3e
00000050: 1267 fd3e b146 ff3e 1df6 033f a010 fe3e
00000060: 4a09 ff3e b236 ff3e 684c ff3e 0b9a ff3e
00000070: 39f9 003f fc02 003f 421a fd3e 9f28 fd3e
00000080: d8d4 fb3e 0c07 fe3e c9e5 ff3e 4806 f83e
00000090: 9d6e fe3e 10eb fc3e 4f2b fe3e 438e fb3e
000000a0: 579d 013f 7148 003f 66c7 053f 308d fe3e
000000b0: e6ac fe3e 8b3a fe3e 8bc3 fe3e 91e6 fb3e
000000c0: 2686 fc3e c234 013f 9697 ff3e dc08 033f
000000d0: 18af fe3e fdda ff3e dc30 ff3e eff0 003f
000000e0: bed5 ff3e 07d0 fe3e d669 fe3e 9beb 013f
000000f0: 83af 003f fddd 083f a968 ff3e 02bd fb3e
00000100: f956 033f afdd fd3e 2fce fe3e c8dd fd3e
00000110: b8aa fd3e 3654 fd3e a844 003f 3628 fc3e
00000120: 45bd fe3e 9590 fe3e 699e ff3e 06bf ff3e
00000130: 7e1e ff3e 1e86 ff3e 431f fb3e 6430 fd3e
00000140: d917 023f cd1f fe3e 9a45 fe3e d4a1 fc3e
00000150: 66cf fd3e 7e77 ff3e db95 013f 7da0 023f
00000160: c832 ff3e 2f87 ff3e 4a1d 003f ef61 fe3e
00000170: b859 003f d106 003f 2563 003f c9b1 fe3e
00000180: 2bb0 fe3e 7932 023f 7333 fe3e 9307 fe3e

network.4.running_mean f4 [100]
0.67112356 0.5752121 0.54391575 0.5575523 0.5435905 0.5996138 0.31632704 0.17459032
0.5172073 0.5831034 0.4243314 0.7590954 0.5013983 0.3591323 0.4831077 0.77902025
0.533654 0.5381656 0.6058946 0.5454994 0.37861213 0.10980324 0.6735526 0.5192764
0.46138737 0.19500227 0.5190344 0.38841498 0.68102586 0.27047294 0.4749985 0.43843192
0.65773624 0.5965047 0.7606868 0.56675065 0.50508684 0.50287086 0.57194144 0.49529645
0.7047946 0.6272975 0.67260027 0.52641386 0.09655556 0.57746035 0.31497025 0.31860194
0.8497844 0.50923556 0.46993873 0.7883595 0.63827986 0.6536724 0.6721083 0.51295644
0.6380822 0.5303747 0.33768988 0.73575914 0.6320164 0.7200003 0.4704294 0.4484439
0.58774877 0.32207727 0.2555768 0.33325696 0.5959001 0.45632964 0.5972922 0.3060344
0.25042367 0.31941846 0.34832332 0.54277194 0.56947464 0.5755503 0.79071623 0.32809258
0.61214846 0.7195888 0.28367805 0.59439814 0.3496294 0.761651 0.47102126 0.8185598
0.0384397 0.30855194 0.7545396 0.3836647 0.6808437 0.42430958 0.45364705 0.76767325
0.5138274 0.7220942 0.44011337 0.5719024
00000000: c1ce 2b3f 1a41 133f 103e 0b3f bfbb 0e3f
00000010: bf28 0b3f 4a80 193f 9ef5 a13e cec7 323e
00000020: b367 043f 4446 153f f741 d93e 1354 423f
00000030: a45b 003f 30e0 b73e e459 f73e df6d 473f
00000040: 8c9d 083f 39c5 093f e91b 1b3f d9a5 0b3f
00000050: 73d9 c13e 85e0 e03d f16d 2c3f 4cef 043f
00000060: f73a ec3e adae 473e 70df 043f 54de c63e
00000070: b657 2e3f 6e7b 8a3e 0133 f33e 267a e03e
00000080: 6761 283f 88b4 183f 5fbc 423f 9216 113f
00000090: 5f4d 013f 25bc 003f c16a 123f 7f97 fd3e
000000a0: 6b6d 343f 9296 203f 882f 2c3f 0fc3 063f
000000b0: ecbe c53d 71d4 133f c843 a13e cb1f a33e
000000c0: 788b 593f 435d 023f cf9b f03e eed1 493f
000000d0: 4f66 233f 1357 273f 4a0f 2c3f 1d51 033f
000000e0: 5b59 233f a3c6 073f b0e5 ac3e b65a 3c3f
000000f0: d4cb 213f f151 383f 1fdc f03e 709a e53e
00000100: b476 163f 50e7 a43e f6da 823e a8a0 aa3e
00000110: e98c 183f 0aa4 e93e 24e8 183f 8ab0 9c3e
00000120: 8837 803e d18a a33e 6f57 b23e 1af3 0a3f
00000130: 17c9 113f 4457 133f 616c 4a3f c0fb a73e
00000140: c3b5 1c3f f936 383f 403e 913e 7a2a 183f
00000150: a002 b33e 8ffb 423f b329 f13e 238d 513f
00000160: f272 1d3d 85fa 9d3e 8229 413f b36f c43e
00000170: c64b 2e3f 1b3f d93e 6d44 e83e 3c86 443f
00000180: 318a 033f 2adb 383f 8a56 e13e 3268 123f

network.4.running_var f4 [100]
0.41083214 0.15514058 0.41127977 0.1289198 0.4116774 0.33497763 0.19076589 0.26992545
0.10482848 0.13855357 0.6285416 0.41195628 0.80197954 0.4785095 0.6327223 0.20133322
0.43222678 0.25228196 0.34315047 0.31724223 0.060105413 0.28921908 0.09640406 0.23024713
0.38118 0.3971989 0.5743721 0.4926484 0.2904001 0.24277164 0.18240018 0.5090119
0.27187136 0.43861803 0.1430246 0.049462005 0.22286499 0.31318033 0.30581456 0.14910132
0.37775546 0.10073485 0.054312762 0.35171604 0.17090325 0.28060246 0.19203122 0.15787202
0.16775489 0.32717368 0.20224687 0.29960322 0.23273261 0.18870291 0.21701856 0.2543133
0.34329435 0.38168225 0.45163524 0.33849785 0.4887778 0.096094005 0.2084453 0.049428005
0.17253062 0.26346856 0.4596761 0.2789619 0.32594678 0.06976685 0.24313562 0.081365086
0.2989178 0.3675222 0.13400705 0.08359253 0.43595544 0.3199309 0.25424457 0.08397346
0.46233013 0.47997624 0.5055045 0.08041784 0.18957217 0.451507 0.08519131 0.13421938
0.23751977 0.39018148 0.25061178 0.47739467 0.23421735 0.50656396 0.43265173 0.10516964
0.2328432 0.10782599 0.053757906 0.18438758
00000000: 9758 d23e 2cdd 1e3e 4393 d23e 8d03 043e
00000010: 61c7 d23e 3082 ab3e 2258 433e ab33 8a3e
00000020: 50b0 d63d fde0 0d3e 1ae8 203f efeb d23e
00000030: 884e 4d3f 32ff f43e 17fa 213f 4c2a 4e3e
00000040: d44c dd3e 1a2b 813e 6bb1 af3e 936d a23e
00000050: 1831 763d 8614 943e 7e6f c53d e7c5 6b3e
00000060: 062a c33e a75d cb3e 0d0a 133f 693c fc3e
00000070: 52af 943e 2199 783e 1dc7 3a3e 9b4e 023f
00000080: b932 8b3e 8b92 e03e 0a75 123e ac98 4a3d
00000090: b836 643e 2c59 a03e ba93 9c3e 04ae 183e
000000a0: 2a69 c13e 134e ce3d 0f77 5e3d 2014 b43e
000000b0: 4301 2f3e 20ab 8f3e d5a3 443e 34a9 213e
000000c0: f0c7 2b3e 4f83 a73e ce19 4f3e 9865 993e
000000d0: 7551 6e3e 563b 413e 1d3a 5e3e 5a35 823e
000000e0: 47c4 af3e db6b c33e bc3c e73e 974f ad3e
000000f0: 1541 fa3e efcc c43d af72 553e 0575 4a3d
00000100: deab 303e 5ae5 863e aa5a eb3e 18d4 8e3e
00000110: 7fe2 a63e ece1 8e3d 8bf8 783e bda2 a63d
00000120: c10b 993e df2b bc3e 2539 093e 8f32 ab3d
00000130: 8d35 df3e fccd a33e 582c 823e 47fa ab3d
00000140: 89b6 ec3e 72bf f53e be68 013f 1cb2 a43d
00000150: 351f 423e ed2b e73e c878 ae3d ce70 093e
00000160: 6238 733e dec5 c73e 3050 803e 136d f43e
00000170: acd6 6f3e 2dae 013f 8784 dd3e 2e63 d73d
00000180: 736e 6e3e dfd3 dc3d 4031 5c3d 19d0 3c3e

network.6.weight f4 [100, 100]
-0.040013812 -0.0429255 -0.0028370782 0.059749514 0.03770609 0.1177067 0.07339676 0.033481367
-0.016129628 0.07343244 -0.014941011 0.023256902 0.08449955 -0.09891201 -0.059831515 0.053663317
-0.090010844 -0.08687939 -0.021619163 -0.06306218 -0.04787378 0.048839126 -0.06683086 -0.09487334
-0.035865523 0.04639228 0.036576465 -0.059854638 0.0015160319 -0.07570974 0.077597596 -0.015204943
-0.020334449 -0.12634318 0.0016940134 -0.069079794 0.07048343 0.042756952 0.034208033 -0.027272973
0.09420976 -0.01502316 -0.09463779 0.05731293 -0.05952052 -0.02586418 0.05099334 -0.08004339
-0.0025119511 0.0008223716 -0.016027221 0.012530189 0.069084235 0.08439122 0.0010128145 0.12859485
0.11923059 -0.06437785 0.0798354 -0.11487684 -0.03200768 -0.0413305 0.13773994 -0.011187148
0.06409615 0.04674707 0.026632465 0.07257234 -0.053318147 0.025995167 -0.060995925 -0.05093635
0.034807116 0.055208717 0.02966161 0.04739545 -0.023032883 -0.047794733 0.0134692015 -0.07420384
-0.054379087 -0.119412325 -0.1041227 -0.0017651401 -0.08381493 0.029779967 -0.045753155 0.08393825
-0.014774197 -0.0029028808 0.057734326 -0.04793722 0.09637149 0.10232941 -0.05420038 -0.09878526
0.014184514 0.131645 -0.12762845 0.07401486 -0.01257031 -0.01111938 -0.009077168 0.047257897
-0.07441481 0.047221765 0.018851979 0.078843914 -0.12251765 -0.082652085 0.053245753 0.028613027
0.033834234 -0.008675338 -0.0292618 -0.021770932 -0.07903511 0.07526307 -0.052195586 0.016615571
0.058937874 0.036901794 -0.13898066 -0.025404952 -0.08912928 0.03071413 -0.008029262 -0.042287398
-0.0775848 -0.002925698 -0.012896833 0.017723732 0.018115096 0.020993767 0.06668709 0.05795105
0.0387535 0.03756631 0.047221124 -0.0030869064 0.09285667 -0.10474774 0.16145265 0.11566999
-0.04204478 -0.06484702 0.0649747 -0.018911917 -0.008856221 -0.031762037 0.09676489 -0.01642916
0.024742242 -0.052776873 0.014682016 0.013369334 -0.024821213 0.0305272 -0.039880358 -0.064773776
0.032199666 -0.04570601 -0.023865731 -0.06693313 -0.08162943 -0.063204505 0.015097731 -0.031484626
0.062909596 0.11062042 -0.048946287 -0.040875554 0.08959889 -0.0968954 0.14409955 -0.027419416
0.076324634 -0.07946783 0.0361322 -0.005485749 -0.100851774 0.003745844 0.10875434 0.08288236
0.020190813 0.039267343 -0.0087544955 0.07120691 -0.114581876 -0.080265835 -0.023624472 0.028854612
-0.026632609 -0.09015028 0.021912102 -0.033959806 -0.07536134 0.07530238 -0.03257078 -0.054753743
-0.030624727 0.031244423 -0.09036875 -0.044631638 -0.083222024 0.11218381 -0.041583862 -0.04494848
0.07255778 -0.102805786 0.13148853 -0.047355417 0.09516103 0.08925436 -0.057053756 0.014549684
0.07856761 -0.0697576 -0.0143983 -0.03022029 0.002559491 -0.029250076 -0.0921154 -0.029531725
0.08874485 -0.0021903634 0.040132232 0.036707796 -0.10301347 -0.05416922 0.025521766 0.03458997
-0.03945221 -0.1274764 -0.031027863 -0.0010526301 -0.042640667 0.08803565 0.004841855 -0.020258298
0.008738285 -0.019943658 0.06472154 -0.0023270554 0.043916468 -0.021581015 -0.061208416 -0.10389029
-0.055244833 -0.052054174 -0.005124754 0.0051696072 0.027168777 -0.08664774 0.013571673 0.0054521207
00000000: 86e5 23bd a6d2 2fbd 46ee 39bb e8bb 743d
00000010: b371 1a3d 3610 f13d 0a51 963d c223 093d
00000020: 4822 84bc bf63 963d 24cb 74bc 4285 be3c
00000030: 1a0e ad3d 6192 cabd e411 75bd 11ce 5b3d
00000040: 9b57 b8bd d2ed b1bd ac1a b1bc bf26 81bd
00000050: 4c17 44bd 890b 483d 9ede 88bd f44c c2bd
00000060: bae7 12bd d505 3e3d 34d1 153d 232a 75bd
00000070: 97b5 c63a b50d 9bbd 7deb 9e3d 271e 79bc
00000080: 6e94 a6bc 1b60 01be a809 de3a b579 8dbd
00000090: 9e59 903d ea21 2f3d b91d 0c3d 926b dfbc
000000a0: 0cf1 c03d b323 76bc 75d1 c1bd f6c0 6a3d
000000b0: cacb 73bd 1ee1 d3bc 64de 503d caed a3bd
000000c0: 8c9f 24bb 6d94 573a 854b 83bc 6c4b 4d3c
000000d0: 097c 8d3d 4ed5 ac3d 6ac0 843a 5eae 033e
000000e0: 2b2f f43d 89d8 83bd be80 a33d 8c44 ebbd
000000f0: 7c1a 03bd 2c4a 29bd b30b 0d3e 4d4a 37bc
00000100: d844 833d db79 3f3d 542c da3c cfa0 943d
00000110: 2164 5abd d1f3 d43c ddd6 79bd a2a2 50bd
00000120: e891 0e3d 8922 623d e8fc f23c bb21 423d
00000130: 75af bcbc 69c4 43bd edad 5c3c 2ff8 97bd
00000140: 9bbc 5ebd 738e f4bd 483e d5bd 465c e7ba
00000150: 29a7 abbd 1ef5 f33c a967 3bbd d1e7 ab3d
00000160: 790f 72bc 423e 3ebb d47a 6c3d d259 44bd
00000170: 6a5e c53d 1592 d13d 3801 5ebd ed4f cabd
00000180: 2a66 683c f2cd 063e 08b1 02be 1a95 973d
00000190: b4f3 4dbc 0f2e 36bc 67b8 14bc 7f91 413d
000001a0: cb66 98bd 9c6b 413d 776f 9a3c eb78 a13d
000001b0: 89ea fabd 7f45 a9bd 3818 5a3d de65 ea3c
000001c0: c495 0a3d 0123 0ebc 71b6 efbc f458 b2bc
000001d0: 29dd a1bd 8623 9a3d 0acb 55bd 611d 883c
000001e0: d768 713d 5626 173d f250 0ebe 0c1e d0bc
000001f0: 6989 b6bd 339c fb3c 2a8d 03bc 8d35 2dbd
00000200: c8e4 9ebd 11bd 3fbb 3d4d 53bc 5c31 913c
00000210: 1c66 943c 1ffb ab3c 3e93 883d 155e 6d3d
00000220: fdbb 1e3d 22df 193d f06a 413d b24d 4abb
00000230: a32b be3d fc85 d6bd d853 253e 63e4 ec3d
00000240: 2637 2cbd 84ce 84bd 7511 853d 2aed 9abc
00000250: af19 11bc e918 02bd ac2c c63d 7296 86bc
00000260: 3eb0 ca3c 902c 58bd d78c 703c 0d0b 5b3c
00000270: db55 cbbc 2e14 fa3c 9659 23bd 1da8 84bd
00000280: cce3 033d 3a36 3bbd 1182 c3bc 3d14 89bd
00000290: 552d a7bd 5d71 81bd 795c 773c 06f6 00bd
000002a0: bfd6 803d f58c e23d e77b 48bd 206d 27bd
000002b0: 9f7f b73d 1871 c6bd d58e 133e af9e e0bc
000002c0: 1750 9c3d 08c0 a2bd 5cff 133d ccc1 b3bb
000002d0: 608b cebd d57c 753b 98ba de3d 3abe a93d
000002e0: 3467 a53c cbd6 203d 046f 0fbc eed4 913d
000002f0: e7a9 eabd 6a62 a4bd 1c88 c1bc 8260 ec3c
00000300: a12c dabc b6a0 b8bd 0281 b33c 7019 0bbd
00000310: 0c57 9abd 2238 9a3d f068 05bd 7645 60bd
00000320: b5e0 fabc 4ef4 ff3c 4013 b9bd aacf 36bd
00000330: 4f70 aabd a0c0 e53d d753 2abd e61b 38bd
00000340: 2c99 943d d78b d2bd eea4 063e c1f7 41bd
00000350: c9e3 c23d fdca b63d 33b1 69bd cc61 6e3c
00000360: 0ee8 a03d 13dd 8ebd d9e6 6bbc 8b90 f7bc
00000370: 22bd 273b db9d efbc 00a7 bcbd 84ec f1bc
00000380: dcbf b53d 338c 0fbb b261 243d ea5a 163d
00000390: baf8 d2bd 8be0 5dbd 0613 d13c 36ae 0d3d
000003a0: a498 21bd 2c89 02be 252e febc 68f8 89ba
000003b0: fba7 2ebd 094c b43d 6ca8 9e3b bbf4 a5bc
000003c0: 062b 0f3c e260 a3bc ba8c 843d 8381 18bb
000003d0: c1e1 333d abca b0bc adb5 7abd 6fc4 d4bd
000003e0: 6848 62bd c236 55bd 8ded a7bb cf65 a93b
000003f0: 0e91 de3c 5f74 b1bd b95b 5e3c b4a7 b23b

network.6.bias f4 [100]
0.49371117 0.50307685 0.4994739 0.50478977 0.49562278 0.51333785 0.4938817 0.4998303
0.49971083 0.49217758 0.50045276 0.49655527 0.4983717 0.49463388 0.4967209 0.49736643
0.502767 0.4982688 0.5047674 0.5114195 0.50273395 0.5124996 0.5021627 0.49738577
0.49133873 0.49838075 0.4987879 0.49272266 0.50379574 0.5215413 0.51879245 0.49760175
0.4994478 0.5060739 0.4954433 0.4949192 0.49783686 0.49845538 0.49473438 0.49239355
0.49739692 0.50941086 0.49875227 0.503112 0.49928698 0.5027577 0.509496 0.5061739
0.49983922 0.51045954 0.5008184 0.49712452 0.5039684 0.5016638 0.50013363 0.49887228
0.49799728 0.49771112 0.499356 0.5015678 0.4965609 0.50518477 0.4981393 0.49650586
0.49686962 0.48980835 0.49568933 0.4988585 0.5040636 0.5022685 0.49921244 0.49673933
0.49856192 0.49396834 0.4997391 0.49062008 0.49257794 0.49530265 0.5067788 0.5002128
0.49347317 0.4951913 0.50586194 0.50920475 0.5001346 0.49513334 0.49891204 0.49935502
0.5101251 0.49769208 0.4964144 0.4967302 0.49849924 0.5006781 0.49539688 0.49830452
0.4951088 0.49688762 0.4980828 0.48831728
00000000: b6c7 fc3e a5c9 003f 0bbb ff3e e739 013f
00000010: 45c2 fd3e 1c6a 033f 10de fc3e c2e9 ff3e
00000020: 19da ff3e b3fe fb3e ac1d 003f 7e3c fe3e
00000030: 932a ff3e a740 fd3e 3452 fe3e d0a6 fe3e
00000040: 57b5 003f 171d ff3e 7038 013f 63ec 023f
00000050: 2cb3 003f 2c33 033f bc8d 003f 59a9 fe3e
00000060: c090 fb3e c32b ff3e 2161 ff3e 2546 fc3e
00000070: c2f8 003f bb83 053f 95cf 043f a8c5 fe3e
00000080: 9fb7 ff3e 0f8e 013f bfaa fd3e 0d66 fd3e
00000090: 79e4 fe3e 8b35 ff3e d34d fd3e 021b fc3e
000000a0: cfaa fe3e c068 023f 755c ff3e f3cb 003f
000000b0: 8ba2 ff3e bbb4 003f 546e 023f 9d94 013f
000000c0: edea ff3e 7aad 023f a235 003f 1b87 fe3e
000000d0: 1304 013f 0a6d 003f c208 003f 306c ff3e
000000e0: 80f9 fe3e fed3 fe3e 97ab ff3e bf66 003f
000000f0: 3b3d fe3e ca53 013f 1d0c ff3e 0436 fe3e
00000100: b265 fe3e 29c8 fa3e feca fd3e 626a ff3e
00000110: 500a 013f ab94 003f c698 ff3e 9e54 fe3e
00000120: 8243 ff3e 6be9 fc3e cedd ff3e 8e32 fb3e
00000130: 2d33 fc3e 4f98 fd3e 41bc 013f f20d 003f
00000140: 84a8 fc3e b789 fd3e 2b80 013f 3e5b 023f
00000150: d208 003f 1e82 fd3e 6671 ff3e 76ab ff3e
00000160: 8f97 023f 7fd1 fe3e 072a fe3e 6c53 fe3e
00000170: 4b3b ff3e 712c 003f a9a4 fd3e c521 ff3e
00000180: e77e fd3e 0e68 fe3e b504 ff3e b904 fa3e

network.7.running_mean f4 [100]
0.49493784 0.47534963 0.2915271 0.7527759 0.6642352 0.7051925 0.72863185 0.6555903
0.63768643 0.52978784 0.5221579 0.52224666 0.57352746 0.48767477 0.35331115 0.55724907
0.8415261 0.41830873 0.6205025 0.7980328 0.37663853 0.5203579 0.82976735 0.6713695
0.7538888 0.32649228 0.6600344 0.45067573 0.7389939 0.75844616 0.6983525 0.3696219
0.5983307 0.57007235 0.3153512 0.45354345 0.69750136 0.32554892 0.6209891 0.34196365
0.4743926 0.669357 0.2736816 0.66321105 0.30892068 0.62357295 0.8996107 0.60120785
0.27207693 0.75637406 0.45028678 0.60022026 0.80885375 0.54037166 0.52002835 0.42472178
0.42333564 0.37969175 0.5706537 0.6578487 0.78062904 0.6255343 0.7325067 0.37547204
0.40306222 0.55027467 0.6381263 0.4054869 0.6533755 0.6664461 0.6975793 0.4130595
0.48617482 0.507399 0.26042938 0.3979546 0.5141258 0.71534854 0.6274627 0.26315877
0.5153407 0.59701073 0.6459162 0.5233144 0.6450268 0.5124045 0.38720113 0.31609857
0.7067548 0.33927733 0.36906862 0.44496077 0.5543352 0.09285302 0.43888485 0.52772015
0.3800035 0.49081016 0.36489064 0.72235954
00000000: 7e68 fd3e 0761 f33e 0a43 953e ecb5 403f
00000010: 510b 2a3f 7f87 343f 9e87 3a3f c4d4 273f
00000020: 6b3f 233f 2da0 073f 24ac 053f f5b1 053f
00000030: b2d2 123f 82b0 f93e 33e5 b43e e0a7 0e3f
00000040: 416e 573f 902c d63e 40d9 1e3f e14b 4c3f
00000050: c4d6 c03e 2d36 053f a26b 543f dfde 2b3f
00000060: dbfe 403f ff29 a73e 04f8 283f f8be e63e
00000070: b42e 3d3f 8729 423f 3bc7 323f 153f bd3e
00000080: 332c 193f 43f0 113f b675 a13e d936 e83e
00000090: 738f 323f 59ae a63e 24f9 1e3f dc15 af3e
000000a0: 96e3 f23e fb5a 2b3f ff1f 8c3e 33c8 293f
000000b0: da2a 9e3e 7aa2 1f3f e34c 663f c2e8 193f
000000c0: ab4d 8b3e bba1 413f fd8b e63e 09a8 193f
000000d0: 0a11 4f3f cc55 0a3f 9420 053f 2275 d93e
000000e0: 73bf d83e f566 c23e 5c16 123f c668 283f
000000f0: 4ed7 473f 0423 203f 8f85 3b3f df3d c03e
00000100: 2c5e ce3e cdde 0c3f 3f5c 233f fb9b cf3e
00000110: 9e43 273f 369c 2a3f 8f94 323f 897c d33e
00000120: e8eb f83e e7e4 013f 0057 853e b5c0 cb3e
00000130: c09d 033f 1521 373f 65a1 203f bfbc 863e
00000140: 5eed 033f b2d5 183f c45a 253f eff7 053f
00000150: 7a20 253f f12c 033f 3a3f c63e acd7 a13e
00000160: e2ed 343f c2b5 ad3e 90f6 bc3e e6d1 e33e
00000170: e9e8 0d3f b929 be3d 84b5 e03e ab18 073f
00000180: d28f c23e 784b fb3e f2d2 ba3e 8eec 383f

network.7.running_var f4 [100]
0.1958818 0.13086979 0.45011178 0.21431716 0.11342605 0.19676614 0.37747982 0.3329851
0.2722197 0.32832053 0.28112912 0.52950156 0.100307666 0.12042099 0.4688792 0.28652453
0.42832097 0.09703443 0.47800642 0.24689572 0.31365022 0.19865145 0.17248964 0.13604446
0.22117224 0.4894202 0.1844321 0.24387696 0.3068543 0.2742753 0.21910425 0.6714754
0.32827103 0.18139552 0.05770113 0.24974474 0.3336827 0.38965756 0.60611635 0.0853199
0.11796218 0.1903591 0.16993178 0.32505912 0.5082021 0.52749324 0.35688007 0.5186757
0.29987672 0.10334556 0.24108376 0.19182092 0.39114916 0.41646484 0.19787242 0.28396603
0.107869126 0.48112923 0.23681982 0.2881003 0.38077614 0.13087507 0.17623806 0.1419373
0.1954497 0.08960399 0.21854468 0.251182 0.30681807 0.17642082 0.25954092 0.5970717
0.22752279 0.21506867 0.60326564 0.1917596 0.24756686 0.27022323 0.10743921 0.5136571
0.2486292 0.26304206 0.17778915 0.08212122 0.16876358 0.12871699 0.36234355 0.13169385
0.18747565 0.23186265 0.07655747 0.06076103 0.37287357 0.15208463 0.2927898 0.24405624
0.13079754 0.16879205 0.20454627 0.31150538
00000000: 3d95 483e bb02 063e 0d75 e63e f575 5b3e
00000010: eb4b e83d 107d 493e 0945 c13e 067d aa3e
00000020: 6160 8b3e a119 a83e 28f0 8f3e 6a8d 073f
00000030: 1b6e cd3d 489f f63d ef10 f03e 58b3 923e
00000040: e34c db3e fdb9 c63d 42bd f43e 3bd2 7c3e
00000050: c396 a03e 496b 4b3e 20a1 303e 3d4f 0b3e
00000060: fa7a 623e 4995 fa3e c5db 3c3e e2ba 793e
00000070: 021c 9d3e d06d 8c3e dd5c 603e d0e5 2b3f
00000080: 2413 a83e bfbf 393e 0558 6c3d 16bd 7f3e
00000090: 75d8 aa3e 3281 c73e 712a 1b3f 33bc ae3d
000000a0: 2896 f13d 7fed 423e 9902 2e3e 266e a63e
000000b0: 8819 023f cc09 073f fcb8 b63e eec7 043f
000000c0: 7189 993e d6a6 d33d a9de 763e b46c 443e
000000d0: b444 c83e e13a d53e 119f 4a3e ff63 913e
000000e0: 7dea dc3d 9256 f63e e580 723e e281 933e
000000f0: 17f5 c23e 1d04 063e c077 343e 0358 113e
00000100: f723 483e 4c82 b73d 2dca 5f3e ed9a 803e
00000110: 4217 9d3e a9a7 343e 8ce2 843e b1d9 183f
00000120: bcfb 683e f63a 5c3e 9e6f 1a3f a15c 443e
00000130: 2b82 7d3e b35a 8a3e 1709 dc3d 087f 033f
00000140: a798 7e3e 73ad 863e 5c0e 363e 2c2f a83d
00000150: 5cd0 2c3e 63ce 033e 1885 b93e c1da 063e
00000160: 9ef9 3f3e 676d 6d3e 2aca 9c3d 8fe0 783d
00000170: 49e9 be3e 13bc 1b3e 8be8 953e e1e9 793e
00000180: caef 053e d3d7 2c3e 9474 513e a27d 9f3e

network.9.weight f4 [100, 100]
0.11277082 -0.034810033 0.02851838 -0.054187525 0.08131853 -0.00017016825 -0.033084113 -0.06668378
0.11486367 -0.024068102 -0.06941783 -0.030003991 -0.034612563 0.07857313 0.002166994 0.11923276
0.0035007033 0.005426047 -0.09173621 0.07775336 0.080234356 0.037043303 0.0769712 0.0757873
-0.057377156 -0.09164543 -0.027860144 0.14703545 0.05275304 -0.0015675663 -0.044476837 -0.0015395739
0.0018163444 -0.029344467 0.04300359 -0.05582614 0.019292088 -0.0048804996 0.06523599 -0.021076018
-0.022227932 -0.044926006 -0.093505435 0.0799778 0.013625447 -0.016904557 -0.052115332 -0.015964398
-0.07720947 -0.05251501 0.06544048 -0.013922118 0.0337772 -0.04449531 -0.075030774 -0.073835395
0.029887786 -0.026560973 0.08411014 0.035076346 0.09151992 -0.117988735 -0.041777175 0.10239
0.11559157 -0.010637087 0.032918952 -0.0073881303 -0.0078317495 -0.013310601 0.028993316 0.099257044
-0.034687 0.07173832 0.06143442 -0.085259855 0.05693758 0.045123093 0.008557554 0.00082835683
0.038037598 0.039716788 -0.047563966 0.1231809 0.005805238 -0.11670395 -0.06419201 -0.083007015
-0.123506576 -0.016376125 0.073780455 0.095668435 0.07951536 -0.08563112 -0.074501015 -0.044372603
0.0031922772 0.08905364 -0.05093785 -0.020827131 0.023758562 -0.028165706 0.17770894 -0.033459768
0.06051844 0.06575751 -0.026808906 -0.020137688 0.009956215 0.09332762 -0.109154955 -0.080948144
0.07927331 -0.02831985 0.019006105 -0.056913383 -0.07684098 -0.07933489 0.0568554 -0.02721432
0.024059415 -0.0030419505 -0.06309092 -0.056661546 -0.029903801 0.025614446 -0.04152336 -0.08670356
0.0632138 0.036916845 0.0514667 -0.04875085 0.09550778 -0.044722725 0.02499659 0.051408906
-0.031192053 0.059478886 0.062781185 0.04227498 -0.05675256 -0.106652014 0.15115508 -0.02853954
0.1048222 -0.06745999 0.07790961 0.010066776 0.110595584 0.05081897 0.09596284 0.072507724
0.04338301 -0.017985549 0.15006702 0.036043994 0.05063657 -0.043960076 -0.079914734 -0.08142897
0.030940767 0.101816475 -0.06123634 0.10436103 -0.008712175 0.020499272 -0.0022669255 -0.100439206
-0.02352897 0.075832754 -0.08160511 0.11445077 0.06430456 0.036183685 -0.038967118 -0.029382987
-0.038187604 0.036046308 -0.018540835 -0.04284115 -0.011155598 -0.03950357 0.032823175 0.021381484
0.021271173 0.06249905 -0.007815807 -0.027002791 0.088408306 0.048376605 -0.12944418 -0.1230342
0.022644961 0.13738362 0.08265183 -0.020466058 0.0666341 0.06722206 -0.046023406 0.050785143
-0.08415744 0.061183635 0.121076725 -0.04195467 -0.06485355 0.0339533 -0.039354783 0.07423081
0.1341505 0.047383748 -0.060073562 0.051525995 -0.045206495 -0.039078586 0.09800041 -0.0789466
0.06173876 0.024218228 0.024367258 0.035463285 0.10219598 -0.10351637 0.0035925617 -0.022504175
-0.039741438 -0.07180673 0.0133442655 0.035629872 0.034750104 0.014616904 0.02199398 -0.10816194
-0.037229292 0.03160893 -0.08991687 0.062201932 0.102312855 0.03965692 0.032914314 0.10029057
0.021440698 -0.03812303 -0.02899387 0.11782517 -0.05498033 -0.006834296 0.05660953 0.031063676
0.08175128 -0.011878519 0.059170537 -0.0036731826 0.01164092 0.05151031 -0.047506824 -0.02241923
00000000: 63f4 e63d f794 0ebd 619f e93c bdf3 5dbd
00000010: 548a a63d 316f 32b9 3583 07bd 8191 88bd
00000020: a53d eb3d 782a c5bc ef2a 8ebd eeca f5bc
00000030: e7c5 0dbd f3ea a03d 2004 0e3b 4e30 f43d
00000040: 0e6c 653b fbcc b13b 32e0 bbbd 273d 9f3d
00000050: e951 a43d b8ba 173d 14a3 9d3d 5f36 9b3d
00000060: 4f04 6bbd 99b0 bbbd f53a e4bc 7690 163e
00000070: 9213 583d cc76 cdba 582d 36bd 87cb c9ba
00000080: 6812 ee3a cf63 f0bc 8824 303d f3a9 64bd
00000090: 710a 9e3c 99ec 9fbb 729a 853d 9da7 acbc
000000a0: 5a17 b6bc 5504 38bd c77f bfbd 67cb a33d
000000b0: 443d 5f3c 6d7b 8abc e376 55bd c5c7 82bc
000000c0: 0020 9ebd fb19 57bd a905 863d 9819 64bc
000000d0: f659 0a3d b740 36bd bca9 99bd 0337 97bd
000000e0: 3bd7 f43c 6696 d9bc f041 ac3d 37ac 0f3d
000000f0: cc6e bb3d 14a4 f1bd 8b1e 2bbd d9b1 d13d
00000100: 46bb ec3d 2d47 2ebc 06d6 063d 2118 f2bb
00000110: bd50 00bc b514 5abc 6483 ed3c 4747 cb3d
00000120: f513 0ebd 8aeb 923d a9a2 7b3d b89c aebd
00000130: 6137 693d fed2 383d fc34 0c3c 1626 593a
00000140: 50cd 1b3d 12ae 223d 6fd2 42bd 4546 fc3d
00000150: de39 be3b 7b02 efbd 1a77 83bd 95ff a9bd
00000160: 04f1 fcbd 3927 86bc 351a 973d d0ed c33d
00000170: f3d8 a23d 5e5f afbd fd93 98bd 0cc0 35bd
00000180: 8635 513b c161 b63d 35a4 50bd a99d aabc
00000190: 51a1 c23c c4bb e6bc 55f9 353e 1c0d 09bd
000001a0: 2fe2 773d e0ab 863d 5a9e dbbc cbf7 a4bc
000001b0: 641f 233c 8d22 bf3d a28c dfbd 24c8 a5bd
000001c0: 0c5a a23d 08ff e7bc b1b2 9b3c 021e 69bd
000001d0: ce5e 9dbd 557a a2bd 35e1 683d 91f0 debc
000001e0: 4018 c53c 765b 47bb d035 81bd f015 68bd
000001f0: d1f8 f4bc 63d5 d13c 6614 2abd a391 b1bd
00000200: 3d76 813d 1e36 173d bfce 523d f9ae 47bd
00000210: 9599 c33d 2d2f 37bd a6c5 cc3c 2592 523d
00000220: 7a86 ffbc 22a0 733d 6c93 803d 8828 2d3d
00000230: 5f75 68bd 5f6c dabd 66c8 1a3e c1cb e9bc
00000240: 06ad d63d 7728 8abd 138f 9f3d 1eef 243c
00000250: f07f e23d 8d27 503d 2a88 c43d ee7e 943d
00000260: 62b2 313d 6e56 93bc 2bab 193e dea2 133d
00000270: 4b68 4f3d 7b0f 34bd 56aa a3bd 3bc4 a6bd
00000280: 7e77 fd3c 2885 d03d f5d2 7abd 3cbb d53d
00000290: 83bd 0ebc 17ee a73c b390 14bb 12b3 cdbd
000002a0: d4bf c0bc 344e 9b3d 9420 a7bd 2a65 ea3d
000002b0: 1cb2 833d 5835 143d fc9b 1fbd 97b4 f0bc
000002c0: 9b6a 1cbd 4ba5 133d f3e2 97bc 347a 2fbd
000002d0: f8c5 36bc 7fce 21bd 9871 063d 3928 af3c
000002e0: e240 ae3c 01ff 7f3d df0d 00bc f534 ddbc
000002f0: 6a0f b53d 8c26 463d 048d 04be 5bf9 fbbd
00000300: ed81 b93c 4bae 0c3e 5d45 a93d 6fa8 a7bc
00000310: 7677 883d b8ab 893d 0a83 3cbd 1504 503d
00000320: bc5a acbd b19b 7a3d 13f7 f73d a9d8 2bbd
00000330: f0d1 84bd 9e12 0b3d 7b32 21bd 5306 983d
00000340: c05e 093e 7615 423d b20f 76bd ec0c 533d
00000350: 722a 39bd de10 20bd 70b4 c83d c1ae a1bd
00000360: c8e1 7c3d 4e65 c63c d89d c73c f341 113d
00000370: 204c d13d 6400 d4bd 2f71 6b3b ad5a b8bc
00000380: ebc7 22bd 680f 93bd e8a1 5a3c a1f0 113d
00000390: 2056 0e3d bd7b 6f3c b82c b43c 0284 ddbd
000003a0: be7d 18bd 5e78 013d 5626 b8bd 74c7 7e3d
000003b0: 6789 d13d 4b6f 223d 29d1 063d 2465 cd3d
000003c0: 67a4 af3c e526 1cbd 8d84 edbc 534e f13d
000003d0: 0e33 61bd 3bf2 dfbb 65df 673d 4079 fe3c
000003e0: 376d a73d 1f9e 42bc ce5c 723d c7b9 70bb
000003f0: 8fb9 3e3c 7afc 523d 8496 42bd 88a8 b7bc
