src/runs/ann_left_hand/20241104/20241104-1706/ann_left_hand_3_layers_best.pth (torch, 143302 bytes, 26 tensors)

network.0.weight f4 [63, 126]
00000000: 40d5 643d b158 a0bd 4f80 e6bd 2e03 15be
00000010: d8dc f83d 4852 e13c 257c b4bd 3a9a 84bd
00000020: 18c2 d93d 00e4 d73d 6f12 0a3d 9466 843d
00000030: bfb1 b23a 1941 cd3c 9fd9 76bd a1dc 49bd
00000040: cf73 99bb affb 89bc a677 213d 8983 d33a
00000050: eba6 4f3c deae ae3d 76a8 b6bd ae74 a43d
00000060: 4207 3d3d 4e46 d03c f964 493d f93c 073c
00000070: c870 a7bc 7709 313e 7052 943d 42b6 c73b
00000080: eb76 ad3d 7c34 0fbd 046c 163d 90dd fc3c
00000090: 3e24 08bd 1ed5 8ebb 9d59 bb3d 5782 7a3d
000000a0: 02a5 5ebd 40b4 383b ae2b f23d 60a4 2abb
000000b0: 597d 70bd 7ac9 b5bd 7f01 debd ffd2 54be
000000c0: aeb0 19bd 1836 5bbb 277b 2dbd b870 4cbe
000000d0: b968 abbc a684 993c 96aa e1bc 5545 c4bc
000000e0: 368c dd3c dd19 34bb 4625 8d3c 94eb 0cbe
000000f0: bc6b 46bd 9228 00bd ca8b 12bc 9974 853d
00000100: 0d7e 003e 7a14 3abd 8786 33be a9a9 ebbd
00000110: 8c9b 983d 926d e6bc cd42 a1bd 794b 74bc
00000120: ed5e f7bd cdeb 76bd 6e24 18bd 1a82 c5bc
00000130: 62bc b23c 4bed c43d 102b b1bb 2860 edbb
00000140: 78b3 813d cea5 e83d a5c7 fb3c 5cd4 0f3d
00000150: ba02 d5bc 6ac3 ddbd 079c 4b3d 2b70 cebd
00000160: 6f2a bc3c aa7b 17be 86c6 dcbd f99d e0bc
00000170: f4b5 153d a595 b7bd af8d a7bd ad95 f6bc
00000180: 5e3b cc3c d453 debd ba0a 103e b592 833d
00000190: 658f d33c bd4f 16be 34af 40bd 645a 71be
000001a0: e51d c9bc 2efa f23d c218 b43c 8a8d bfbd
000001b0: 0c0a febd 5d4b 113c a4af 2ebe 7881 c2bd
000001c0: ef93 3e3c c275 983c a5a3 05bd 1122 cebd
000001d0: 416f f3ba a97c 093c b474 33be fffd 1abe
000001e0: 5161 263d 9f3c 12bd beda 18be ba61 03be
000001f0: 1280 3abe ce78 a8bd cf90 b0bb b4de 26bd
00000200: 6b92 c2bd d280 87bd f3b1 09bb c432 cabd
00000210: 45e3 2cbc 5d2e a5bc 6dc7 10bd 7579 32be
00000220: d7cc 073c 1bc5 85bc 318b aabd ed3d 82bc
00000230: 9741 ea3a 78f1 f5bc f9f0 56bd 050b 8dbd
00000240: 4fab e33d 7896 023e 0835 9bbc 09af 24be
00000250: db62 283c e30f cdbd db85 a53b 37e7 ce3c
00000260: 45c7 48bc 8355 a93b 4434 87bd 815f 1dbe
00000270: ffee 84bd 3f96 46bd 2bb7 e4bd 27d4 04be
00000280: b576 693c bb42 663b 415f 79bd b881 bfbd
00000290: 085f 8f3d fe7f e63d d4aa 203d af67 6bbd
000002a0: 93fc fc3b 8db9 c93d 3442 1e3e b036 953d
000002b0: b4f5 b23c 07e2 0cbd 3539 2e3c 8b62 7d3b
000002c0: efb7 1f3c 4296 7b3d 2ade 5dbc 5895 62bd
000002d0: 20ba fcbc b834 f23d 1fff 2c3d 5058 ad3b
000002e0: 479d b9bc bb53 be3d 256d cc3c 94b4 693d
000002f0: c759 a13c 1024 75bc c680 60bd fbbd 38bd
00000300: f9f2 5abc b772 4ebc c99f 8fbb 0de6 7e3c
00000310: 491e 4d3c 10a3 f03c 4f6a 713d a02f 033d
00000320: 396f f6bc 7b41 803c f55d 97bc f326 2e3e
00000330: 8db8 c63d d244 83bc 76a4 f83d 28b3 cf3d
00000340: 82c1 2f3e b550 3f3d 6f7c 1cbe e01b 56bd
00000350: 00bc 3cbd cad7 63bd 288e d3bc 73fa ac3d
00000360: 0b35 063d 358e 7dbd b653 c2bc e462 e53d
00000370: dd59 db3d db07 4cbd 5b94 8dbd fbca 223e
00000380: 4328 a03e 1b93 3abe 9765 edbd d5b0 a23e
00000390: 4611 213e b87a b9bd 6e00 ffbd 43e5 81be
000003a0: 4670 7f3d 6824 023e 75ba 62bc 4919 04bc
000003b0: 6ee8 9d3d 416d ae3c 0298 1cbc b32e 80bc
000003c0: a1b9 023d dbda 84bd 5070 4bba a186 f2bc
000003d0: ff16 153c 3991 65be d479 edbd 4acb 83bd
000003e0: 9081 4fbd bc87 0bbd c8e1 10be 2734 99bd
000003f0: e620 3fbe 1184 613d df7b 083e bb68 f83d
0.055867434 -0.078294165 -0.11254942 -0.14551994 0.121514976 0.027505055 -0.08812741 -0.06474729
0.106327236 0.105415344 0.033708986 0.06464878 0.0013633295 0.025055455 -0.060266133 -0.049282674
-0.004682995 -0.016843645 0.039420746 0.0016137223 0.012674074 0.08529447 -0.0891885 0.080300674
0.0461495 0.025424149 0.04916856 0.008254283 -0.02043952 0.17288767 0.07242286 0.006094725
0.084699474 -0.034962162 0.036724105 0.030867368 -0.03323769 -0.0043589016 0.09147952 0.061159458
-0.054356582 0.002818361 0.118247375 -0.0026037917 -0.05871329 -0.08876319 -0.10840129 -0.20783614
-0.03752201 -0.003344899 -0.042353775 -0.19964874 -0.02092396 0.01874001 -0.027547162 -0.023958841
0.027044397 -0.0027481236 0.017229687 -0.13761741 -0.048442587 -0.03128869 -0.008944461 0.0651638
0.12548085 -0.045429684 -0.17531787 -0.115069695 0.07451543 -0.02812842 -0.07874069 -0.014910572
-0.120786525 -0.06028347 -0.037144117 -0.024109889 0.021818344 0.096155725 -0.005406745 -0.0072441287
0.06333059 0.1135975 0.030734846 0.03511463 -0.026002277 -0.10828288 0.049709346 -0.10079988
0.022969453 -0.14793268 -0.10780053 -0.027419077 0.036550477 -0.08964089 -0.08181321 -0.030100668
0.024930652 -0.10855833 0.14066592 0.064244665 0.025825212 -0.14678855 -0.047042087 -0.23569638
-0.024550388 0.11864124 0.021984462 -0.09353168 -0.1240426 0.008868066 -0.17059189 -0.094973505
0.01163195 0.018610839 -0.032626767 -0.100650914 -0.0018572585 0.008391538 -0.17524987 -0.15135954
0.040620152 -0.035702344 -0.14927194 -0.12830248 -0.18212917 -0.08226167 -0.0053883563 -0.04073973
-0.09500583 -0.066163674 -0.0021010607 -0.09872964 -0.010552232 -0.02016371 -0.035346437 -0.17429145
0.008288584 -0.016329339 -0.0832733 -0.01589867 0.001787233 -0.030022368 -0.052475903 -0.068868674
0.11116659 0.12752712 -0.018946186 -0.16082396 0.010277475 -0.10012796 0.005051357 0.025256736
-0.012254541 0.0051676645 -0.06601766 -0.15368463 -0.064908974 -0.04848313 -0.11167749 -0.12971555
0.014249493 0.003513499 -0.060881857 -0.09350914 0.07000548 0.11254881 0.039225414 -0.057471927
0.007720539 0.09849844 0.15454942 0.072858214 0.021845676 -0.034395244 0.010633756 0.0038663473
0.009748443 0.061422594 -0.013541738 -0.055318207 -0.03085047 0.118264616 0.04223549 0.0052900687
-0.022658003 0.09293314 0.024954388 0.05705698 0.01969613 -0.014962211 -0.054810308 -0.045103054
-0.013363593 -0.012600592 -0.0043830615 0.015557778 0.012519428 0.02937463 0.058939274 0.03202784
-0.030082332 0.015656224 -0.01847742 0.17007045 0.09703169 -0.016024027 0.121407434 0.10141593
0.17163661 0.046707828 -0.15281843 -0.052272677 -0.04607773 -0.055625714 -0.025824621 0.08446207
0.03276543 -0.061903197 -0.023721557 0.112005025 0.107104994 -0.04981218 -0.06913062 0.15897743
0.31280717 -0.18220179 -0.11591642 0.31775537 0.15729246 -0.0905661 -0.12451254 -0.25370225
0.06236293 0.127092 -0.0138384 -0.008062669 0.07710348 0.02129233 -0.009557726 -0.015647268
0.03191531 -0.06487056 -0.00077605713 -0.029605212 0.009099721 -0.2241868 -0.115955025 -0.06435259
-0.05066067 -0.034064993 -0.14148629 -0.074806504 -0.18664894 0.05505759 0.13328503 0.12129351

network.0.bias f4 [63]
00000000: bdc5 f73e 978c b63e 7c94 bd3e 4de4 f63e
00000010: 7278 a83e 04aa fb3e 7b51 063f 5799 ec3e
00000020: 93a0 ff3e 65c7 063f 96c9 fd3e db8b f73e
00000030: 9ced d83e c01a fc3e 3ef8 e23e f520 f33e
00000040: 2de4 ea3e 3c4a 163f 28a5 013f ec7d f73e
00000050: bb6c ef3e aa3c 9d3e 1d5b fe3e eafc 593e
00000060: 1250 ff3e 8221 063f d9b7 563e 7c88 bc3e
00000070: dd0c 023f 04f9 8e3e 8aac e73e eb40 22be
00000080: e781 063f 7f2e dd3e 77a0 e03e f97f f13e
00000090: 9528 133f 915f 003f 5535 e53e 0069 053f
000000a0: 884d bb3e c564 e83e d201 fb3e 4766 073f
000000b0: 65e5 f33e 840f e53e d72e a53e 1cea e33e
000000c0: 5ccc 023f 27fc c03e 1e3a f43e a484 013f
000000d0: 69e4 063f 376d 0a3f 4709 0b3f 1c9c 023f
000000e0: 00b2 e43e 02ed e83e bd15 283f 0418 f93e
000000f0: 537a 363f 16fb 133f 6ce7 c13e
0.4839305 0.35654137 0.37027347 0.48221055 0.32904392 0.4915315 0.5246808 0.4621074
0.49927196 0.52648 0.4956786 0.4834889 0.42368782 0.4923916 0.4433002 0.47486082
0.4587721 0.5870702 0.50642633 0.48338258 0.46762642 0.30710346 0.4967889 0.21287885
0.49865776 0.5239488 0.2096857 0.3682288 0.5080088 0.2792436 0.45248824 -0.15845077
0.52541965 0.43199536 0.43872425 0.47167948 0.574838 0.5014582 0.44767252 0.5211334
0.3658259 0.4538938 0.49024826 0.5289044 0.47635952 0.447384 0.32262298 0.4451455
0.5109308 0.37692377 0.4770059 0.5059302 0.52692276 0.540729 0.5431103 0.51019454
0.44667053 0.45493323 0.6565817 0.48651135 0.712804 0.57805 0.37871873

network.1.running_mean f4 [63]
00000000: 67fd 61bd 7991 0d3e 54ee 063f e126 b73f
00000010: fd54 e03f faf9 05bc 173f 473e d665 b53e
00000020: f59e 0f3d 026e fdbe 3c06 6f3f a955 72bc
00000030: bd50 553f aaf2 f33e 79f3 d03e ca41 38bd
00000040: 65f1 383f 77ea a43f 5fcc 5abf 3011 f6be
00000050: 7d3c 9f3f 5d5b 293f 21ad 33be 881d 603f
00000060: 5beb 9fbc 78b0 72be 3d80 d43e 0c2e f93e
00000070: dec5 4ebf 0334 b23f 01d6 623e ba44 4a3d
00000080: dd07 38bf ede0 3a3f cb17 df3e f535 223f
00000090: cbf4 e2be b58a 083e 053c c03f fd61 cf3f
000000a0: b2e2 6c3f fafb e93f ada9 09bf 9931 ce3e
000000b0: bdc2 933f 04d3 1a3f d42b 223f d70a 563e
000000c0: f6b0 9abf ff27 053f e9ad da3f b31c 15be
000000d0: 4541 41be c23b bd3e b150 86be 3a8e 9bbf
000000e0: 1df1 293f 0591 953f 33e1 ac3f c7f0 8f3f
000000f0: 0df1 ae3f 8481 383e 50c8 833f
-0.055173304 0.13825025 0.5270741 1.430874 1.7525936 -0.008177275 0.1945766 0.35429257
0.035063703 -0.49497992 0.9336889 -0.014790931 0.8332632 0.47646075 0.40810755 -0.044984616
0.7224334 1.2884053 -0.85468096 -0.48059988 1.2440335 0.66155034 -0.17546512 0.8754506
-0.019521406 -0.2370013 0.41504088 0.48667943 -0.8077067 1.3922123 0.22151949 0.04938195
-0.71887 0.7299946 0.4357284 0.6336358 -0.44327387 0.13334163 1.5018317 1.6201779
0.9253341 1.8280022 -0.5377453 0.40272215 1.1543804 0.60478234 0.63348126 0.20902573
-1.2085254 0.52014154 1.7084323 -0.14561729 -0.18872555 0.36959654 -0.26233438 -1.2152779
0.66383535 1.1684881 1.3506225 1.1245354 1.3667313 0.18018156 1.0295506

network.1.running_var f4 [63]
00000000: 795f 9e3b 3928 f93a d108 183b 98fe 703b
00000010: 8c7c a93b afba 4e3b c901 cc3b b524 203b
00000020: 2c04 923a 4009 e63b 541a 9a3b 4729 183b
00000030: caa7 813b 094c 493b f579 243c 00e7 943b
00000040: 42ac c53b d815 003b 80ce 2b3b 5307 123c
00000050: 491c 8f3b 42bd 973b cdb9 9a3b 5c49 8d3b
00000060: a656 713b 2951 733b 3f7f f93a 9c44 b33a
00000070: 7be2 9f3b 1fde af3b 788a 913b fe88 9e39
00000080: 38e5 fd3b ba73 0a3c 0bc6 043b 8ad9 e63b
00000090: 41ee 023b b999 953b a475 613b b538 6f3b
000000a0: 13c2 503b e111 bd3b 739b 5c3b 4a95 843b
000000b0: 68d6 673b db16 1e3b e479 113b 04da 463b
000000c0: a3fd bf3b 1364 3e3b 9461 973b 5d27 133b
000000d0: 9a5c 313b eea0 8b3b 9e43 753b 5da8 243c
000000e0: a0ba 3f3b 5c02 ae3b a228 553b 3a34 a43b
000000f0: a9ff 9a3b 36b1 253b f7fb 803b
0.0048331586 0.001900918 0.0023198614 0.0036772843 0.005172318 0.0031544378 0.0062257987 0.0024435942
0.0011140159 0.0070201457 0.0047028456 0.0023217963 0.0039567696 0.0030715487 0.010038842 0.004544139
0.0060324976 0.001954427 0.0026215613 0.008912879 0.0043673855 0.0046307156 0.004721856 0.0043117236
0.0036825328 0.0037127233 0.0019035115 0.0013677063 0.0048792935 0.005367055 0.0044415556 0.00030238176
0.0077482723 0.008450443 0.0020259644 0.0070449756 0.0019978436 0.0045654443 0.0034402395 0.0036502306
0.0031853958 0.0057699536 0.003366199 0.004046117 0.0035375599 0.002412251 0.0022197897 0.003034235
0.0058590933 0.0029051348 0.0046197865 0.0022453882 0.0027063251 0.0042611277 0.0037424336 0.010049907
0.0029255524 0.00531034 0.003252544 0.0050111087 0.004730184 0.0025282628 0.0039362866

network.3.weight f4 [63, 63]
00000000: fb60 0d3d 04b2 2ebe 7b0e 573e b3c0 83ba
00000010: 67af 2abd dc60 293c 33fa 2bbe a216 253e
00000020: 8b23 9f3d 8b4a d63d f168 60bd af97 403c
00000030: ee32 66be 7ceb ce3d c1b0 ac3d bab2 d8bc
00000040: c90e 63bd ef7b 0c3d 2611 973d f089 103d
00000050: 8d71 12be 48b6 d0bd 45a5 5bbe ef63 3dbd
00000060: 4af7 a6bd 042c ad3d 65b9 0a3d 3a05 d5bc
00000070: b557 a43d a6b8 7cbe ebc8 75be 932f 0e3b
00000080: 7135 f23b 0562 b83a 5dc0 d93d e625 97bd
00000090: 0a17 93bd f739 0abd f578 ed3d 71a4 0f3d
000000a0: 9d91 963d 722f 4d3e dd5b cfbd 946a 9e3c
000000b0: 04a7 093d c46f b4bd 9923 9d3d e586 21bd
000000c0: bda8 96bd 2184 ebbb f567 39bd 4f40 b3bd
000000d0: e0cb b83d 335e 6f3e d40b 95bd c481 b9bd
000000e0: 740c bf3d 6e32 093c 655c eb3d db55 f03c
000000f0: 8b55 b23d ae9a cd3d cdae 9c3d d23f 3a3e
00000100: 34ce acbd 483e 44bd d023 313e 2072 04be
00000110: 4130 3e3d 014a 663e 7770 b3bc 093b d0bd
00000120: 0370 61bd 36e6 de3c 1088 acbd 0a3f 4dbd
00000130: 529e 8dbd 1271 223d 1c46 3a3e 28ca 0dbe
00000140: ce5a 11bd 48e1 7f3d 42a6 a53d 0209 49be
00000150: c8d4 fb3d 3c15 4639 7d9b 6a3d 63f0 2dbe
00000160: a26a 8f3d 609a 95bd 7143 e4bc 6ab9 18bd
00000170: 48ec 063d 8511 02be 6774 76bd b002 ebbc
00000180: 52b2 3bbd 8f17 b13c 8799 4abb 06b4 ffbd
00000190: cc92 bbbd 0014 9bba b41a e53c 3261 e3bd
000001a0: d69c 273e 6b86 233d 77c8 69bc a77a 1fbc
000001b0: 4a82 e6bc 5980 f6bd 1823 4fbe ced7 89ba
000001c0: ae95 393e f084 b33d 832b 8a3c 208c 0c3c
000001d0: e4da aebd f4ef babd e94e 9b3c 9260 4fbd
000001e0: 58ce f7bb d939 b5bd 59e2 bd3d 0732 89bc
000001f0: 53df 46be 0204 f53d fbae 983d c931 553d
00000200: 9034 383d 1895 59be 2356 dbbd a4eb 573e
00000210: b02b b3bc f8f5 56be 21e5 553d 2fea 13bc
00000220: 9154 173d 9b3f 4f3b ea2a fe3d 8040 cbbd
00000230: 329a b5bd f830 afbd a5f1 7abd ab3a 8a3d
00000240: a14f 8ebc ae6d 033e a96e b83d 1ff4 cebd
00000250: 6e81 f03d ed75 dc3b 185c f43c 4471 8f3e
00000260: 66d7 473e 59ca e1bc e491 20bd 2278 123e
00000270: bab7 2dbd 356b 423d e1fa 033e eddb 49bd
00000280: 3482 00bc bc7e bebd 1994 47bd 215e eabd
00000290: 5a5e bbbd 81fb 2f3c 4539 c33d fd6c 08be
000002a0: c192 8d3c ac86 013e e80e e1bd cd7d e6ba
000002b0: 46b5 60bd 03af 163d 79f2 4cbd 8279 d53c
000002c0: dd8f 683b 2516 29bd b339 c63c 07c3 a33c
000002d0: d436 de3d 6ead e73a cbd4 9dbd 0527 bfbd
000002e0: 6387 21be 4b80 8e3d 149e a8bd 0b3f 523d
000002f0: c88b 193d 174f de3d b2a7 45bd 792e 1fbc
00000300: 8f2f 9b3c ba52 09be c060 7fbd a395 c23c
00000310: 89b8 1e3d 1fcc aabb 73cb fb3c 1a7d 20bd
00000320: 80dc 98bc 6e2f 31bd b2bc 153e efce adbc
00000330: 9ca7 9e3d a3c9 b8bd 178e 23bd c331 7fbd
00000340: ef90 c33b 17e9 2d3d 66c5 d9bd f660 2b3d
00000350: f51a 2cbe c860 6bbb 30c6 dbbd 0c00 32bd
00000360: 8f3f 3f3c 35c8 0f3e bfc0 a7be b2d2 93bd
00000370: 2cc9 adbb 53d8 853c 5c74 50be b523 093d
00000380: 0fa8 d73d b87d bf3d c365 323d 2ae1 36bd
00000390: 4259 3ebe bd6f a7bd 5df5 083e 49c0 0f3e
000003a0: fde1 36bd 7aad a03d 11cd 69bd 6524 7abd
000003b0: 319b 7e3d 7656 583e 87f0 f23c 051e f3bd
000003c0: 85b9 50bd 537d 253e 3c6a 9e3c ac56 04be
000003d0: fc67 bbbc 52f4 d73d 04ed e1bc 1d7c e2bd
000003e0: 78d4 4dbe 04e3 ca3d 9083 7c3c a8bc 19be
000003f0: 960a ba3d d0e9 50bd 8f7e 67bd 26bc 103e
0.034516316 -0.17060095 0.21001618 -0.0010051936 -0.041671183 0.0103380345 -0.16794662 0.16121915
0.07770451 0.10463437 -0.05478758 0.011754914 -0.22480366 0.10103509 0.08432151 -0.026452411
-0.055434022 0.03429788 0.07376318 0.035287797 -0.14301129 -0.101910174 -0.21449764 -0.046237882
-0.081526354 0.08455661 0.033868212 -0.026003469 0.08024541 -0.24679813 -0.24002425 0.0021695837
0.0073916246 0.0014067298 0.106323935 -0.073802754 -0.07182129 -0.033746686 0.11595336 0.035068933
0.07351992 0.2003763 -0.101249434 0.01933793 0.033606544 -0.0881038 0.07672805 -0.039435286
-0.07356403 -0.007187382 -0.045265157 -0.087525 0.09023261 0.23375778 -0.07277647 -0.09057954
0.09328547 0.00837384 0.11492232 0.029337814 0.08707722 0.100392684 0.07650528 0.18188408
-0.084377676 -0.04791096 0.17298818 -0.1293416 0.046432737 0.22489168 -0.021904213 -0.1016751
-0.055038463 0.027209383 -0.08424389 -0.050108947 -0.06914963 0.039658614 0.18190807 -0.13846648
-0.03548699 0.062470704 0.08088352 -0.19632342 0.12296444 0.00018890662 0.05727719 -0.16986232
0.070027605 -0.07304835 -0.02786419 -0.0372862 0.03294018 -0.12701996 -0.060169604 -0.028687805
-0.045824356 0.021617679 -0.0030914263 -0.124855086 -0.09158859 -0.0011831522 0.027966835 -0.11102523
0.16368422 0.039923113 -0.014268986 -0.009733832 -0.028138299 -0.12036199 -0.20228231 -0.0010516585
0.18123505 0.0876559 0.016866451 0.00857833 -0.08537844 -0.09127799 0.018958526 -0.050629206
-0.00756244 -0.08848924 0.09271688 -0.016747488 -0.19421129 0.11963655 0.0745525 0.052049432
0.044972003 -0.21248281 -0.10709789 0.21085984 -0.021871418 -0.20992267 0.052220467 -0.009028002
0.036945883 0.0031623605 0.12410529 -0.09924412 -0.08867301 -0.08554262 -0.061265606 0.06749471
-0.017371954 0.12834808 0.09005482 -0.10105156 0.11743437 0.006727925 0.02982907 0.28016102
0.19515762 -0.027562307 -0.039201632 0.1430364 -0.042411543 0.04746552 0.12888671 -0.049282003
-0.007843543 -0.093015164 -0.04872522 -0.11443735 -0.091488555 0.010741116 0.09532408 -0.13322826
0.017281892 0.1264903 -0.10989171 -0.0017585099 -0.054860376 0.036787998 -0.050035927 0.026058916
0.003548614 -0.041280884 0.024197435 0.019990457 0.108503014 0.0017675587 -0.07706603 -0.09333614
-0.15774302 0.06958064 -0.08233276 0.051329654 0.03748682 0.10854929 -0.04825563 -0.00971567
0.018943576 -0.13410464 -0.062348127 0.023752993 0.038750205 -0.0052123214 0.03073666 -0.039181806
-0.01865983 -0.043258123 0.14622763 -0.021216838 0.07746813 -0.09022834 -0.03993043 -0.062303316
0.005968205 0.04245862 -0.10633354 0.041840516 -0.16807158 -0.003591584 -0.10731161 -0.043457076
0.011672868 0.14041217 -0.3276424 -0.07217921 -0.0053035226 0.016338503 -0.20356888 0.03348132
0.105301015 0.09350151 0.04355408 -0.044648327 -0.18588737 -0.08175609 0.13374849 0.14038195
-0.044649113 0.07845588 -0.057080332 -0.061069865 0.06215972 0.21126732 0.029655708 -0.1187096
-0.050958175 0.16161089 0.019337766 -0.12923688 -0.022876732 0.10544647 -0.027578838 -0.11058829
-0.20100582 0.09906581 0.015412226 -0.15013373 0.0908405 -0.05100423 -0.05651718 0.14134273

network.3.bias f4 [63]
00000000: 3b5e 003f fc31 ff3e 2202 003f 9646 fe3e
00000010: 5cc0 ff3e 189e fd3e d3e5 003f d1ee fe3e
00000020: 0eaa ff3e 1bfc ff3e 3aa8 fe3e 6542 ff3e
00000030: 7ca8 003f 55fd ff3e ffb3 fe3e 0161 ff3e
00000040: cee9 ff3e 1d47 ff3e 28d8 fe3e 8c49 0b3f
00000050: 807a ff3e e4d7 ff3e cadc 003f 5966 fe3e
00000060: 022a ff3e 1473 fe3e 551f ff3e 82e5 fe3e
00000070: 8d00 003f 6df6 fb3e 1616 fe3e 9c40 003f
00000080: 0ffb fd3e 9212 ff3e cb3b ff3e 2700 003f
00000090: 4c30 003f b891 ff3e 1f54 ff3e b9bf ff3e
000000a0: a0de ff3e a151 fe3e d240 ff3e 8b8b fe3e
000000b0: e89e ff3e 6e3d fe3e a8e0 ff3e e81d 003f
000000c0: 55dd fe3e e189 ff3e 580d 003f 925b 013f
000000d0: e080 013f d318 003f dc76 023f 5dc8 ff3e
000000e0: efc9 ff3e eeec ff3e d4ed ff3e 5a7e ff3e
000000f0: 7b79 ff3e c609 013f d2fa ff3e
0.50143784 0.49842823 0.50003254 0.49663228 0.49951446 0.49534678 0.50350684 0.49791577
0.4993443 0.4999703 0.49737722 0.49855343 0.50257087 0.49997965 0.497467 0.49878696
0.49983066 0.49858943 0.4977429 0.544091 0.49898148 0.499694 0.503369 0.4968746
0.49836737 0.49697173 0.49828592 0.49784476 0.5000084 0.49211445 0.49626225 0.50098586
0.49605605 0.49818856 0.49850306 0.5000023 0.50073695 0.49915862 0.49868867 0.4995096
0.49974537 0.49671653 0.4985414 0.49715838 0.49925923 0.49656242 0.49976087 0.50045633
0.49778238 0.4990988 0.5002036 0.5053035 0.5058727 0.5003788 0.50962615 0.49957553
0.4995875 0.4998545 0.49986136 0.49901086 0.4989737 0.5040554 0.49996048

network.4.running_mean f4 [63]
00000000: f9f1 023f 0dd5 bc3e 4460 063f b761 b73e
00000010: 2276 0b3f 8730 c13e 9330 003f edbb a93e
00000020: 208e c23e 2758 193f 6ae6 9f3e 4853 e03e
00000030: 19d5 033f bf88 623e dd8d 8d3e 5f32 863e
00000040: f276 063f 0f02 b33e 9c6e eb3e 11de 3b3f
00000050: 4ada ed3e b027 483f e96e fd3e 2b48 b43e
00000060: fb3d b63e e1df ff3e 8705 bd3e 1bdb b43e
00000070: a230 e33e 6592 dd3e 3b29 ff3e 21ba c93e
00000080: e19b 033f b298 a33e 9b33 0e3f 9c89 513f
00000090: 8c54 dc3e f36f d23e d6ea c43e 5518 c43e
000000a0: 279b 193f f53b bc3e 9299 1c3f 17d0 a03e
000000b0: 3dc1 143e cd0f 8a3e 0c6b a53e 5609 093f
000000c0: 4cb0 823e f72b f03e cf27 b33e ad19 c63e
000000d0: 6a63 293f e768 bd3e 6166 f23e dba5 e93e
000000e0: 2049 343e 2814 853e 2ee8 223f f89c 023f
000000f0: 8582 1c3f 6445 3b3f 5db3 d83e
0.5115047 0.36881295 0.5249064 0.35816738 0.5447713 0.37732336 0.5007412 0.33151188
0.37999058 0.59900135 0.3123048 0.4381354 0.51497036 0.22122477 0.27647296 0.26210305
0.52525246 0.34962508 0.45982826 0.7338572 0.46455604 0.7818556 0.4949868 0.3521131
0.35594162 0.49975494 0.3691828 0.35323414 0.4437304 0.43275753 0.49836144 0.39399818
0.5140973 0.31952435 0.55547494 0.818506 0.43033254 0.41101035 0.38460416 0.38299814
0.6000237 0.36764494 0.6117183 0.3140876 0.1452684 0.2696518 0.32308233 0.5352987
0.2552513 0.46908543 0.3499131 0.38691464 0.6616732 0.36994097 0.47343734 0.4563435
0.1760602 0.2599194 0.6363553 0.51020765 0.61136657 0.73152757 0.42324343

network.4.running_var f4 [63]
00000000: 5371 1b3e c1af b23d 456d a03e 05d1 dc3e
00000010: 9bfd e73e c7f6 f83d cee5 2a3e 3112 883e
00000020: 0685 0c3e bef8 1a3e f0a7 be3d 1340 1a3d
00000030: 15b2 f73d 9d91 1e3e c660 903e 2aa0 593e
00000040: cce3 603e 4ca1 c83d 951c 3d3e 7c71 953e
00000050: 7111 3e3e 1ec9 dd3d ceba ab3d 0876 f03d
00000060: 2970 6c3d 5acd 1b3d d31e a73d 6387 623e
00000070: d2ad bc3d adec 903d 1239 8d3d bdb8 a93d
00000080: 1bb9 263e 6960 223e e71f 103e d8d5 603e
00000090: 1fea fa3d 9035 703e ea74 a63e ff03 423d
000000a0: 3348 6b3e f267 bc3d 9cbb 0f3e ed3e 5a3e
000000b0: ad16 b53e 4e30 c53d 745a 9e3e 79fc 3a3e
000000c0: 2d14 dd3d c292 6a3e 5c79 cb3d be02 2a3e
000000d0: 4433 a63e 7071 4e3e 1159 243e 1279 193e
000000e0: 9eae ee3d 874a ea3d 9797 bb3d 6718 6b3e
000000f0: aead 453e 0f92 0c3e 86f4 f13d
0.15179949 0.08724929 0.31333366 0.4312822 0.45310673 0.12156444 0.16689226 0.2657638
0.1372262 0.1513395 0.09309375 0.037658762 0.12094513 0.15485235 0.28198832 0.21252504
0.21961898 0.0979639 0.18467934 0.29188144 0.18561341 0.10829376 0.083852395 0.11741263
0.05772415 0.038037635 0.08160176 0.22121958 0.09212841 0.07076392 0.06895651 0.08287189
0.1628155 0.1585709 0.1407467 0.21956575 0.12251686 0.23457932 0.32511073 0.047367092
0.2297676 0.091995135 0.14036411 0.21313067 0.35368863 0.09628354 0.30928385 0.18260373
0.10794864 0.22907546 0.09935257 0.16602609 0.32460988 0.2016046 0.16049601 0.14987591
0.11654399 0.11439996 0.09159773 0.22958528 0.19304535 0.13727592 0.11814217

network.6.weight f4 [63, 63]
00000000: 7fb0 2c3d 7e98 703d 7a10 09be c8a8 ae3d
00000010: 19d9 84bd f810 c2bc ef38 54bd 6aff 353e
00000020: 9072 3abd fc54 0f3e c350 48bd f63f 053d
00000030: e33c f7bd 84a6 af3e 6359 b7bd c190 10be
00000040: 9943 633c 9c86 dc3d dc53 443d c727 fb3d
00000050: f8b8 673c 4beb 1dbd b4ec e63d 33fc 0d3b
00000060: 675c 5fbd 383c 233d 9d05 53bd 3d38 efbc
00000070: f2b2 a6bc dec7 0e3e 279d 09bc 7f52 603d
00000080: d809 cbbd 660e f53b c75c 15be de28 f2bd
00000090: 2a59 48bc f9b7 19be 3d80 cc3b 6eac 253e
000000a0: eabb 80bd 7b06 d7bd dc6c c7ba 65dc bebc
000000b0: 521d aa3d c7d6 903d c208 b2bd 3ac9 a6bb
000000c0: 0bd9 9cbd 423c 63bd 185f cabd 8764 edbb
000000d0: 7ef0 4e3e a5e3 393e 9557 e33a df08 f03d
000000e0: 569b 18bd 2a10 cb3c 2d17 5fbd 3a52 b8bd
000000f0: 903f a2bd 5f5b 8fba 4aa3 403d ebe5 aebd
00000100: e2ea 3fbe eed1 423d a763 2d3d 877b 89bd
00000110: 3a6c 9abd c1fd ddbd 836f 95bc fe34 5fbd
00000120: cce7 39bd e08d 9abd 9916 593d d4b6 923d
00000130: f33a b0bd c195 87bd 57fe e83d f81b dc3d
00000140: bec2 243e 2d3c a6bc 3d77 09bd 655c ee3b
00000150: dda3 7a3d 8807 15be 2d37 43bd d1d0 073c
00000160: 8b61 ce3d ef30 80bc 3629 973d b419 52bc
00000170: 37f8 4ebe 6624 923d 91b7 853d e931 063e
00000180: 3462 6ebc 8726 183e 3eb3 a1bd 77a3 78be
00000190: 9b99 0c3c 321e 02be cb90 51be 1be3 27bd
000001a0: 1fe2 073e f53c 1dbc 1828 2fbe 111f 0e3d
000001b0: 9793 8bbc b0c3 22be 262a 7abe 80f2 9ebd
000001c0: a00b 9a3c d76a d23d 3145 85bd ef01 5dbe
000001d0: ebf3 ef3c 76dc 38bd 1852 3e3e e2d2 fbbd
000001e0: c996 9cbd 5a65 a93b 50d8 0bbd a472 10be
000001f0: 264b 38bd 41a3 66bd 1c28 5abd b48d 023c
00000200: 55eb d7bc c6aa e2bd 27f7 55be 7e06 70bd
00000210: d0b9 883c 2d90 1bbd d28a acbd 5f5d 23bd
00000220: dca9 863e 0883 96bd 4de2 473d ab9a 6e3d
00000230: c73a 373e 8ff7 f93d c159 853c 8a9a 99bc
00000240: 769a 133e 73ff 6ebd 7e3a 03be 3f62 333c
00000250: bfbf bebc fcf0 4cbd 8af0 1c3b b40e b3bc
00000260: 07ec 863c 1c54 b8bc f081 99bc f781 213e
00000270: 03ce c6bc 77e4 233e e965 c4bc e9ea b2bc
00000280: 4008 4d3d aaef 06be 3fd8 21be 18cd 05bd
00000290: 4149 a13d 0795 8c3d 79f0 213e 1c18 dbbd
000002a0: a9fd 513d 4082 343c ba8f 70bd 4575 0abe
000002b0: 9a33 08be 586e 65bc 6166 a93d dfac 603d
000002c0: d354 86bc f96f d6bd 50a5 b83d 354f c73d
000002d0: 1a2e 55bd 8de9 9fbc 66de 153e a5c5 803c
000002e0: e54f b73d 6889 a3bd f14f e23d bbff ac3c
000002f0: 91e3 b1bd 7c8f 283d 28bd 96bd 5095 673d
00000300: 15f6 3abd 7809 dcbd e8c4 8b3c 5d99 603d
00000310: 5367 443d b38d 15bd ef8f 943d 21ab 263e
00000320: f2ab 02be dfd7 e4bc 85f2 0ebe ef9c c0bb
00000330: fbf3 17be 7dee efbd f035 c23d f4f4 b7bd
00000340: 3694 e23d 9b43 013c bd9c e13d d8b0 473e
00000350: ad04 91bb 0ef0 4fbd bf27 2dbc 28c1 e6bc
00000360: 89ea 663d c5fb 2c3e 8a97 353d 54c3 debd
00000370: 2724 63bd 4d16 a6bd be3d 363e e82c 393d
00000380: 0f97 04be 56eb d23d f252 c43d f77c 403d
00000390: f2a4 053e 54b0 023c 8024 9c3a 00f9 cdbd
000003a0: b3c2 1c3d cef9 423c c6c5 06be ebb4 bb3d
000003b0: 3ad3 45be 64ff 44bd f806 243d 494e c8bc
000003c0: e259 bb3c a270 5a3e 19e6 033e 9b79 833d
000003d0: e99d dc3c 417a 1c3e 0e32 0b3d 30fa a1bd
000003e0: 4392 26ba 280d cbbd 352f 0f3e 8b3c 1fbc
000003f0: 58b4 173e 723c 903d 66f7 14be 2833 d2bc
0.042160507 0.058739178 -0.13385192 0.08528286 -0.064867206 -0.023689732 -0.05181211 0.17773214
-0.04551941 0.13997263 -0.048905145 0.0325317 -0.1207216 0.3430673 -0.08952596 -0.14117719
0.013871097 0.10767862 0.047931537 0.12263446 0.014143221 -0.03855447 0.11275616 0.0021665215
-0.05453148 0.03985235 -0.051519025 -0.029201621 -0.020349 0.13943431 -0.008399284 0.054766174
-0.09913987 0.007478523 -0.14586173 -0.11824201 -0.01222829 -0.15011586 0.006240873 0.16179058
-0.06285842 -0.10499283 -0.0015214938 -0.023298452 0.08306374 0.070722155 -0.08693077 -0.005089906
-0.07658585 -0.05547739 -0.09881419 -0.00724465 0.20208928 0.18153246 0.0017344827 0.11720442
-0.037257515 0.024787981 -0.05446546 -0.090000585 -0.0792228 -0.0010937265 0.047030725 -0.08539947
-0.18741944 0.047563486 0.042331364 -0.06713014 -0.07540174 -0.10839415 -0.01824165 -0.054493897
-0.045387074 -0.07546592 0.053000066 0.07163778 -0.08604994 -0.0662036 0.113766365 0.10747522
0.16089913 -0.020292366 -0.03356098 0.007274198 0.06119143 -0.14553654 -0.04766004 0.008289532
0.100771986 -0.015648333 0.07380907 -0.012823511 -0.20211874 0.07135849 0.06529153 0.13104977
-0.014549781 0.14858447 -0.07895516 -0.24281107 0.008581544 -0.12706831 -0.2046539 -0.04098807
0.13269852 -0.009597053 -0.17105138 0.034697596 -0.01703815 -0.15894961 -0.24430141 -0.07761097
0.018804371 0.10274284 -0.06507338 -0.21582769 0.029291114 -0.045132123 0.18586004 -0.12296082
-0.076459475 0.0051695528 -0.03414184 -0.14106232 -0.044993542 -0.056308035 -0.053260908 0.007968355
-0.026357332 -0.11067729 -0.20895062 -0.05859994 0.016690165 -0.037979294 -0.084249154 -0.039883967
0.26301467 -0.07349211 0.0487998 0.05825297 0.17893516 0.12205421 0.01627815 -0.018750448
0.14414391 -0.058349084 -0.12815282 0.010948717 -0.023284791 -0.050034508 0.0023947083 -0.021857597
0.016469968 -0.022501044 -0.018738717 0.15772234 -0.024268156 0.16005121 -0.023974376 -0.02184053
0.050056696 -0.13177362 -0.15805148 -0.032666296 0.078753 0.06864362 0.1581439 -0.10697958
0.0512673 0.011017382 -0.05873082 -0.13521297 -0.13300934 -0.014003359 0.0827148 0.054852363
-0.01639787 -0.10470576 0.09015906 0.097319044 -0.05204592 -0.019520545 0.1463562 0.015719244
0.089507855 -0.079851925 0.11050404 0.021118036 -0.08685983 0.041152462 -0.073602974 0.05653888
-0.04564484 -0.107439935 0.017061666 0.05483376 0.0479501 -0.036512088 0.07254016 0.16276218
-0.12760904 -0.027934967 -0.13959701 -0.005878083 -0.14839165 -0.1171541 0.09482944 -0.08982268
0.11063425 0.007889654 0.110162236 0.19501054 -0.004425606 -0.050766043 -0.010568558 -0.028168276
0.056376014 0.16892917 0.044333972 -0.108771 -0.0554544 -0.08109722 0.1779699 0.04520884
-0.1294825 0.10298793 0.09586133 0.046994176 0.13051203 0.00797661 0.0011912733 -0.100572586
0.038271617 0.011900378 -0.13161382 0.09165367 -0.19318858 -0.048095122 0.04004571 -0.024451392
0.022870008 0.21332029 0.12880744 0.06419679 0.026930766 0.15281011 0.033983283 -0.079090476
-0.0006354192 -0.09914619 0.13982852 -0.009719024 0.1481489 0.07042779 -0.145475 -0.025659159

network.6.bias f4 [63]
00000000: dc69 023f 689a ff3e b419 fd3e 5a46 023f
00000010: f5d2 ff3e a7c8 ff3e b06d ff3e 38c5 ff3e
00000020: 1a85 fe3e ab38 003f d176 023f 642e ff3e
00000030: ed87 003f 6283 013f 5ff6 fc3e 1a90 033f
00000040: dbf7 ff3e 823d ff3e 20d1 ff3e c252 003f
00000050: 2995 ff3e 87bc ff3e 6d8b fe3e 8898 fe3e
00000060: 5fcc ff3e b7d2 fe3e 61eb 003f bd10 003f
00000070: e1e9 023f e714 003f ee86 ff3e 284d ff3e
00000080: 2061 023f d63a ff3e 14ae ff3e 038e ff3e
00000090: 30bc ff3e 012b ff3e 6fda fe3e b456 003f
000000a0: c81e 003f 2d36 003f ab1c 023f 7469 fe3e
000000b0: 4cd4 ff3e 012a ff3e d178 013f 6022 ff3e
000000c0: e386 003f 01e5 013f e3f6 ff3e 6617 ff3e
000000d0: d1f8 ff3e 8c3a ff3e ce8a ff3e c000 003f
000000e0: ac8f fe3e 0f01 fe3e 4909 003f 3538 003f
000000f0: 8c1a ff3e 285a ff3e 6cd0 fe3e
0.5094278 0.4992249 0.49433672 0.508886 0.49965635 0.49957773 0.49888372 0.49955153
0.49710923 0.5008647 0.5096255 0.4984008 0.50207406 0.505911 0.49406716 0.51391757
0.49993786 0.49851614 0.49964237 0.5012628 0.49918488 0.49948522 0.49715748 0.49725747
0.4996061 0.49770138 0.5035916 0.5002554 0.5113812 0.50031894 0.4990763 0.49863553
0.5092945 0.49849576 0.499375 0.49913034 0.49948263 0.49837497 0.49776027 0.501323
0.5004697 0.50082666 0.50824994 0.4968983 0.49966657 0.49836734 0.50574976 0.49830914
0.5020582 0.5074006 0.49993047 0.4982254 0.4999452 0.49849355 0.49910587 0.50001144
0.49718988 0.49610183 0.5001417 0.50085765 0.4982494 0.4987347 0.49768388

network.7.running_mean f4 [63]
00000000: adc1 073f adca 393e 1277 fe3e e8ad 213f
00000010: 8d54 f93e 09af fb3e 39a7 8e3e afaf b93e
00000020: 749e b83e 543d c83e a86b 063f e208 023f
00000030: 755c 203f e915 e13e 393c 183f eb08 ce3e
00000040: aa01 623e 64f9 f63e 4b89 8f3e 4958 363f
00000050: 8763 d53e 3c9c 0f3f 4987 c93e ad4e ea3e
00000060: 932b b53e c8e3 c23e 92e7 c73e 622d f93e
00000070: 627b fd3e d1d1 143f 5f35 1a3f e9cd 913e
00000080: 4981 0c3f 0afb 2c3f dbcd c53e 1732 c43e
00000090: 007d 063f c027 f33e 332f 063f b178 2b3f
000000a0: c887 be3d 62dc 063f c126 253f 034b c73e
000000b0: ec6e d23e b7ba c03e 5738 ab3e 61ed 013f
000000c0: 7df1 f63e 40e2 5c3f 3249 153f bfb0 a13e
000000d0: 990d d93e 48c4 1a3f 1396 dc3e d956 d93e
000000e0: 7cd6 e53e 07b1 d83e 6d88 2b3f d938 bb3e
000000f0: c335 9b3e 9752 d03e ff18 8d3e
0.530299 0.18143721 0.49700218 0.63155985 0.4869732 0.4915698 0.27861956 0.36266848
0.3605839 0.3910929 0.5250802 0.50794804 0.6264108 0.4396203 0.5946689 0.4024118
0.22070947 0.48237145 0.28034434 0.7122846 0.41677496 0.5609777 0.39361027 0.4576315
0.35384807 0.38064408 0.39043862 0.48667437 0.49508196 0.58132654 0.6023769 0.2847741
0.54884773 0.67570555 0.38633618 0.38319466 0.52534485 0.47491264 0.5241577 0.66981035
0.09303242 0.5268003 0.6451226 0.38924417 0.41100252 0.37642452 0.3344142 0.50752836
0.48231116 0.8628273 0.5831481 0.3158016 0.42393187 0.6045575 0.43083248 0.42449072
0.448902 0.4232256 0.67005044 0.3656681 0.30314454 0.4068801 0.27558133

network.7.running_var f4 [63]
00000000: c910 743d eb2d 663e 8b52 a03e 2aef bf3d
00000010: a9fa a03d f9a5 6f3d 3277 c43d 62e0 ab3d
00000020: 2552 503d 9645 613d 54e6 283f d8a2 4c3e
00000030: 7441 563d e10b 9f3d 420b c13d 5a71 193d
00000040: d288 9c3e 01c1 4e3d 7d1a 783d f38c 8a3e
00000050: 0729 0b3e 61ad 383e d4a4 393e d6dd 253f
00000060: 31a0 773d 6c0e e73e df12 863d 815b 913e
00000070: d0d3 bc3d ec0a 863e 711b c33d 7c13 803d
00000080: 1893 a73e 53bc 033e 8e8d 2c3e 62d6 223e
00000090: a7df 6f3e e3cc 323e b06a 333e 090c ad3d
000000a0: a509 4b3e a28f 1a3d e8c7 323d 5d84 eb3d
000000b0: 9b0f 1d3e 432c 353e 1e0b 1c3e 6b7e 553d
000000c0: 3a35 cf3d 6a93 113e d9fd 883d 95ec e53d
000000d0: eb0d 773e ed4f 993e 7bd6 7f3e ffcf 1a3d
000000e0: 3e2b a83d 7692 293e 0263 0e3e 4c21 363e
000000f0: 5c74 553e afad 0f3e 1671 8c3e
0.05958632 0.22478454 0.31312975 0.09371789 0.0786031 0.058507893 0.09593047 0.08392407
0.05085959 0.054998003 0.6597645 0.19983995 0.052308515 0.077659376 0.094259754 0.037461616
0.30573136 0.05047703 0.060572136 0.2706066 0.1358987 0.18034889 0.18129283 0.6479162
0.060455505 0.4512819 0.06546568 0.28390124 0.092200875 0.26180208 0.095267184 0.06253716
0.3272941 0.12864809 0.16850874 0.15902093 0.2342516 0.1746097 0.17521167 0.08449561
0.19827898 0.037734635 0.043647677 0.11499856 0.15337984 0.17692666 0.15238616 0.052122515
0.10117574 0.1421639 0.066890426 0.11226765 0.24126403 0.2994379 0.24984162 0.037796017
0.08211373 0.16559777 0.13904956 0.17786139 0.20845169 0.14031099 0.27430028

network.9.weight f4 [63, 63]
00000000: 44cc 01bd 79d5 c13d 3510 243e 3e22 e73d
00000010: e372 3a3e e2b4 493d 02c1 24bd ee74 fc3d
00000020: 9296 703c fd20 84be 9236 09bd 42e4 89bc
00000030: 1ebe 71bd 5fa3 9c3c 647a 803e 2255 cabc
00000040: d88e 55bc 4824 00be 3d36 19bd 9e8d 31bd
00000050: 3b2c 2e3d d2ae 20bd 92b2 2e3c 4299 0b3c
00000060: 8a97 d03d 843c d13d af46 4f3d 0a6b dbbd
00000070: df4a 963d 6d92 56bd c0d7 5dbd 9f4f d7bd
00000080: b1b9 093e da2e 7b3e 4508 cb3d 0177 74be
00000090: 9814 113d ffd3 99bc 41c8 c33d 62f7 20be
000000a0: 22d1 5a3d 9edf c63b 4361 6abc 2e1f bcbd
000000b0: 3430 183e cbfb 2ebe 68a6 6fbd f2bc 31bc
000000c0: dbdb 153e 3cc2 53bd bc98 253d d616 623d
000000d0: 1574 b9bd 6e68 913d fa0d d8bd b4fe a43b
000000e0: 6cad b63d a669 43bd 53e6 c73d 244f e23d
000000f0: c92c 8d3d d92b 68bd a0f5 27be 735f b4bd
00000100: bd82 d2bd ed17 c33d 7b41 9fbd d5c1 03be
00000110: 6ce1 593d 04be 1c3e bf80 073e 9cbf 193d
00000120: a53f fcbd 550e 5abc efa2 1a3d 6b72 003d
00000130: 541e 253d fa86 2e3d b09e ccbb 3771 b83c
00000140: fd56 95bd 0410 93bd 4b52 cdbd 6afc ff3d
00000150: d11e af3d 22f3 983d 089c ad3d b40b f2bc
00000160: d3d5 2dbe 2afb 263d 6584 5d3d 7729 863d
00000170: 43f1 c73b 85e2 0fbe 7253 8dbc 2161 18bd
00000180: 9384 6f3d c0c1 f7bd d91a 3dbe 804d f5bd
00000190: 4396 02bd 4220 f0bd 9af1 f03c e4ad a53c
000001a0: df11 d7bd cae3 cdbd 3f69 9e3d 7216 d2bd
000001b0: ad79 55bd 4b69 0abd 9818 8cbd bb94 e63d
000001c0: 677c d1bc 665e 803c 06d6 733d 8bef 7bbe
000001d0: 92ad d5bd 3085 6b3d cd35 363e ef8d c03d
000001e0: 6790 6d3d b4e1 25be bac9 1dbc 8992 06be
000001f0: ab9c 7b3c 4419 4bbe 0d8f c83d ec2e 163e
00000200: 36cf de3d c591 163e 24fa 253e f3cd d73c
00000210: e178 ab3d fdbf 51bc 153b d4bd 612c 173d
00000220: 4b11 c93d 64c6 78bb 926b 39bd d2ab 743d
00000230: 4aa0 613d f5e1 59bd a79d 163e 7427 ee3c
00000240: a0bc 323e d0c8 1ebd 3d46 10bd d327 c5bd
00000250: ee64 e2bd 1291 a4bd 4682 96bd a14b fabd
00000260: f03e bb3a 9a0d 4b3d 82cc 383c f60a fa3b
00000270: 0c68 7d3d 30cd 6e3d 90c2 53bc 76a0 9bbd
00000280: 9aca 663c 2f34 acbd 0350 b0bd 31d2 fa3b
00000290: 526a 01bd b212 aebd b063 353e 47fc 87bd
000002a0: b8b4 453e df04 aebd 5cec 9f3d d8f8 8f3e
000002b0: 47b5 313e f8cf 1a3d 345e 0fbe 8ee1 3a3e
000002c0: 9a88 16be de71 a9bc 2301 89bd 0308 0d3e
000002d0: a75b c03d d51d 9bbd 4736 b73c 3628 693c
000002e0: ccf9 4c3e ac05 febd fed2 30bd daec 9c3c
000002f0: cdbc d03d 9478 943b 5634 fb3d 16a2 f63c
00000300: 61e1 353e 1c3a f43d 0b29 55bd 2150 10be
00000310: 46ce 42bd 60f3 2f3d b845 22be 2c96 b9bd
00000320: dafd efbd 6671 5abd 2c42 373d c30a fabd
00000330: f245 08be 9bde 853c 7d1d cd3c 0831 b93d
00000340: 037e afbd 2c1d a4bd 8ad0 1fbe 3e08 183e
00000350: 6e00 673e ff84 00bc bedc 033d 4ded c8bc
00000360: 77ae 14be 4849 2ebd df20 9b3d 2f2d 16be
00000370: bfb2 2c3c c367 1abe 7fed 863d 572b 42bd
00000380: 5455 4f3e 1f1d 103e 323d bfbd 40aa b23c
00000390: 84ff df3d 5dcc 25be d08f a73d e16e 60be
000003a0: 3a99 13bd 09dd dc3d 3405 49bd ab3f afbc
000003b0: 05ee 7fbd 0952 d3ba b8f4 823c c393 783d
000003c0: 0302 8cbd c083 22be 4826 1ebc 7d17 933d
000003d0: cd2c c338 b47a 03bd d76c 1c3d d444 7c3d
000003e0: 9581 1abd 7fc4 a5bd eca0 2d3e 1954 8cb9
000003f0: 09e1 7cbd ba82 103d f6fd 683e 55e6 79bd
-0.031688944 0.09464545 0.16021807 0.11285828 0.18207888 0.04924477 -0.04022313 0.1232699
0.014684336 -0.25806418 -0.033499308 -0.016832475 -0.0590192 0.01912087 0.25093377 -0.024698798
-0.013034545 -0.1251384 -0.03740524 -0.043347947 0.04252265 -0.03922922 0.010662692 0.008520426
0.10185154 0.102166206 0.05060452 -0.107137755 0.07338499 -0.052385736 -0.054160833 -0.105132334
0.13449742 0.24529591 0.09913687 -0.23873521 0.03542003 -0.018777845 0.0955968 -0.15719369
0.0534221 0.0060691377 -0.014305416 -0.091856346 0.14862138 -0.17088239 -0.058508307 -0.010848271
0.1463465 -0.05169891 0.040428862 0.05519756 -0.09055344 0.070999965 -0.10549541 0.005035246
0.08919796 -0.047708176 0.09760728 0.11050251 0.06893308 -0.05668244 -0.16402292 -0.08807268
-0.102788426 0.09526048 -0.07776161 -0.1286691 0.053193495 0.1530686 0.13232706 0.03753625
-0.12316827 -0.013309081 0.03775304 0.031359117 0.040312126 0.042609192 -0.006244503 0.022514923
-0.07291982 -0.07180789 -0.10025462 0.12499316 0.085508 0.07468249 0.08477026 -0.029546596
-0.16976099 0.040766872 0.05408134 0.065508775 0.0061017587 -0.14051254 -0.017251704 -0.037202004
0.058476042 -0.12097502 -0.18467273 -0.119776726 -0.031881582 -0.11724903 0.02941208 0.02022452
-0.105014555 -0.10053213 0.07734918 -0.10258187 -0.052117992 -0.03379182 -0.068406284 0.11258837
-0.025572015 0.015670013 0.05953028 -0.24603097 -0.104334965 0.057500064 0.17793961 0.09402072
0.05799904 -0.1619938 -0.009630615 -0.13141836 0.015357177 -0.19833857 0.0979291 0.14666337
0.10879366 0.14704044 0.16208702 0.026343321 0.08372665 -0.012802121 -0.103628315 0.036907557
0.098177515 -0.0037960047 -0.045268603 0.059734173 0.055084504 -0.053194005 0.14708577 0.029071547
0.17454767 -0.03876573 -0.035223234 -0.096267365 -0.11054407 -0.080354825 -0.073490664 -0.12221456
0.0014285725 0.04957352 0.011279227 0.007630701 0.061866805 0.05830115 -0.012924805 -0.07598965
0.01408639 -0.08408391 -0.08609011 0.0076544513 -0.031595536 -0.084996596 0.17713809 -0.06639915
0.1930722 -0.08497023 0.07808754 0.2811954 0.17354308 0.03779599 -0.1400078 0.18250105
-0.14700547 -0.020684179 -0.0668967 0.13772587 0.09392481 -0.075740494 0.022364749 0.014230778
0.20017165 -0.124034256 -0.043169968 0.019155908 0.10192261 0.0045309756 0.12265842 0.030106585
0.17761756 0.11925146 -0.052041095 -0.14093067 -0.04756 0.04295671 -0.15846908 -0.09061846
-0.1171834 -0.0533308 0.04474084 -0.12209084 -0.13307932 0.016341498 0.025038475 0.09042555
-0.08568957 -0.080133766 -0.15606895 0.14846894 0.22558758 -0.007844209 0.032192938 -0.024527216
-0.14519678 -0.042550355 0.07574629 -0.14665674 0.010540663 -0.15078644 0.065882675 -0.047404613
0.20247394 0.14073609 -0.09337844 0.021809697 0.109374076 -0.1619124 0.08181727 -0.21917297
-0.0360348 0.107843466 -0.049077228 -0.021392664 -0.062482852 -0.0016122471 0.015985832 0.06068779
-0.06836321 -0.15870571 -0.009652682 0.071822144 9.3066694e-05 -0.03209944 0.038189735 0.061589077
-0.037721235 -0.08094119 0.16955918 -0.00026765538 -0.061738048 0.03528092 0.22753128 -0.061010677

network.9.bias f4 [63]
00000000: 174b fc3e d42c fd3e 8db5 023f 9523 fe3e
00000010: 5cdf fe3e ea58 fd3e 5679 fe3e e358 fe3e
00000020: 5794 003f 8492 ff3e cbf7 fe3e ac86 003f
00000030: 536c fe3e d6cb ff3e 1a48 043f 3798 ff3e
00000040: aadb fe3e 9428 fd3e 6765 ff3e eeba fd3e
00000050: 6d13 ff3e 933f 003f ec22 ff3e 6309 ff3e
00000060: c80d 013f 6126 003f edd8 ff3e ce1b 013f
00000070: 36ce 063f 64ef fd3e 9cf1 ff3e c795 ff3e
00000080: 27db fe3e bc69 003f efb5 003f 2584 003f
00000090: 333b 053f 942a fd3e 0f0c fe3e 72a7 023f
000000a0: 6cc5 fc3e 9f35 003f 341d ff3e 9081 ff3e
000000b0: 5490 fd3e a4e3 003f 9a4d 003f fc09 003f
000000c0: 9475 ff3e 5069 ff3e 0ab9 fe3e 13cf fe3e
000000d0: 91dd fe3e c766 003f 329e 023f 3624 013f
000000e0: 80ac fe3e 40aa ff3e 7b0e ff3e 6dc6 043f
000000f0: 48e3 fe3e 4183 033f 791d fe3e
0.4927604 0.49448264 0.51058275 0.49636522 0.49779785 0.494819 0.49701947 0.4967719
0.5022635 0.4991647 0.49798426 0.5020549 0.4969202 0.49960202 0.5167252 0.49920818
0.49776965 0.4944502 0.4988205 0.4955668 0.49819508 0.50097007 0.4983133 0.4981185
0.50411654 0.5005856 0.4997019 0.5043305 0.526584 0.49596703 0.4998902 0.4991896
0.49776575 0.5016134 0.5027761 0.50201637 0.52043456 0.49446547 0.49618575 0.5103675
0.4936937 0.5008182 0.49826968 0.49903536 0.49524176 0.5034735 0.5011841 0.50015235
0.49894392 0.49885035 0.4975055 0.4976736 0.49778417 0.50156826 0.51022637 0.5044588
0.49740982 0.49934578 0.49815735 0.51865274 0.49782777 0.5137215 0.4963186

network.10.running_mean f4 [63]
00000000: 7971 173f 0b5a 813e 8d9e 3f3f 5cb6 cb3e
00000010: 430c 093f 4cf2 af3e 736a 253f 32a2 a43e
00000020: 6f3c ec3e 5058 ca3e c49f ac3e 60f0 063f
00000030: ec4a 963e ee93 2d3f 9031 253f 6d44 543e
00000040: 4b39 b53e 0122 fd3e c974 3f3e f655 843e
00000050: 304e 063f cead ea3e 9491 103f 7d9d cd3e
00000060: 85be 2b3f eeaf db3e 153e 803e 2585 ae3e
00000070: 4130 573f a61e d33e afef c23d a770 e13e
00000080: 71fe b13e e528 463f b0b9 f13e e69b fc3e
00000090: 5577 0a3e ce9b d33e e018 ca3e 1ba9 453f
000000a0: 0afd 603f 4ad2 493f ef62 d03e 4172 993e
000000b0: 7a04 483f 6c62 043f d4ae 0b3f 8613 363e
000000c0: 5e50 0c3f dbbe 7a3e 84cb cc3e 74ba c53e
000000d0: 79e5 fe3e 78ba cc3e 1365 563f bb6a ff3e
000000e0: bad7 a63e 99ce 943d 2745 0a3f 8bea 3e3f
000000f0: 00ce 963e 10c0 493f 7239 b03e
0.5915752 0.2526401 0.74851304 0.39787567 0.53534335 0.34364545 0.64615554 0.32154995
0.46139857 0.39520502 0.33715641 0.52710533 0.29354036 0.6780385 0.6452875 0.20729227
0.35395274 0.49440005 0.18696894 0.25846833 0.52463055 0.45835727 0.56472135 0.40159217
0.67087585 0.4290766 0.25047365 0.34085956 0.84058005 0.4123432 0.09518372 0.4403126
0.34764436 0.7740615 0.4721198 0.4933769 0.13522084 0.41329807 0.39472103 0.7721116
0.87886107 0.788365 0.4070048 0.2996998 0.7813183 0.5171268 0.5456364 0.17780885
0.5481013 0.24486868 0.3999902 0.38618815 0.4978445 0.39986014 0.83747977 0.49886116
0.3258646 0.07265968 0.5401177 0.74576634 0.2945404 0.7880869 0.34418827

network.10.running_var f4 [63]
00000000: ff16 863e cd02 623e 5a61 653e 5587 ae3e
00000010: 341c 6a3e 3a0a 803d 9149 243e 5b4b 7c3e
00000020: 4903 883d 7f94 123e dab2 8e3e b8c9 c03d
00000030: 2a90 0f3e f633 753d ca82 723e e4fe bb3d
00000040: 6af2 103e cd09 c53d 388e f83d b4eb ee3d
00000050: 202f b43d 8090 163e 86f7 4f3e beee 8e3d
00000060: 2d6e d13d 7477 773d 7f33 9d3e ea19 7c3d
00000070: 8e22 ea3e e012 a83e 647a 9f3e b85f 1c3e
00000080: 42b4 0c3e 787a 3f3e 8885 b53d d600 d93d
00000090: 45a1 083d abd0 343e 5163 593e 1207 d23e
000000a0: 01d7 533e 9a57 6c3e 41cc c23d c747 fd3d
000000b0: 2e9b 9a3d b896 4b3e 0b97 fb3d ddb7 d73d
000000c0: a35a 833e 6e3a e13d 64ad 183e 963f 973e
000000d0: a461 6a3e c9ad 3b3d bb0a 9c3e c357 223e
000000e0: e55e 673d 0b0a 863e c649 f03d bdc7 c03e
000000f0: b8ce 203e 8e85 4e3e b0c4 113e
0.2618942 0.22071381 0.22400418 0.34087625 0.22862321 0.062519506 0.16043688 0.24638121
0.066412516 0.1431446 0.27870828 0.09413475 0.14019838 0.059864007 0.23682705 0.09179476
0.14154974 0.0962101 0.12136501 0.116660506 0.08798051 0.1470356 0.20309266 0.0697913
0.102260925 0.060416654 0.3070335 0.06154815 0.45729488 0.328269 0.31148064 0.15270889
0.13740638 0.18699062 0.0886336 0.105958626 0.033356924 0.17657726 0.21229292 0.4102102
0.20687486 0.23080292 0.095116146 0.12367206 0.075491294 0.19881713 0.122846685 0.10533116
0.25655088 0.10997473 0.14909893 0.295407 0.2288881 0.04582003 0.30476937 0.15853791
0.056486983 0.26179537 0.11732821 0.37652388 0.15703857 0.20168135 0.14235187

network.12.weight f4 [63, 63]
00000000: 523c acbc 8ac3 c43d 2573 283e e9ac cb3d
00000010: c74b d83d ccb1 863b b5e4 cb3d d7f1 e83c
00000020: 14cc 1d3d 63ff 11be a6f4 10bc 4cc6 9dbc
00000030: 6598 93bd a253 79bc 64fc 073d 0c59 16be
00000040: 7eb4 8f3d 8bd6 d53d d061 b93d a050 5abc
00000050: 9bcc f3ba 0185 cfbd 4b4e a03d daff f73d
00000060: 1c95 66bc dfaf e4bc 150d 6bbd db81 653d
00000070: 40ac 5f3e 6d7e 7d3e c7e4 0e3e b229 fdbc
00000080: 430a 973d 1323 35ba accd be3c f088 73bd
00000090: 2355 b43c 7e2a 8bbc 3e24 ecbb 2e2c 1cbd
000000a0: cd73 9ebc f965 133d 77c9 a13d 0556 60be
000000b0: 81f8 233d 499a 973c 70f0 9d3d 3232 e63d
000000c0: 59a8 71be 02a0 e2bd 1153 98bd 612d 053e
000000d0: 6431 53bc 2ff9 c0bd a9ad 39bc df8f dc3d
000000e0: 4aec 7f3d 075f 113e 05be dabc 26df d53d
000000f0: 365b 6c3c 253b 3a3e e5ee 253e fe3f 0ebe
00000100: dca5 c43d 850a 343e d887 e3bb 23e3 5ebb
00000110: b023 32be 5bb3 953d f7f8 263c 1efe 293d
00000120: b5bb 803d 050d 46be 23a4 a4bd 960c 74bd
00000130: fcd5 623d e29c 3b3e 649b 913d 239c 6bbd
00000140: 6502 86bd 7a04 983d f2da f23b 27f0 ae3d
00000150: 8e63 663e 6099 a73d 59a2 90bc 8a0d 80bc
00000160: 1046 743e 8fdb 233e 0c4b 48be 4ed0 db3d
00000170: 806d 1bbb c632 973c e84c 8dbd 1c8f 283d
00000180: b5a0 69bd 2068 d0bc 01d9 9dbd 1c23 c63c
00000190: 37ab fb3d b7d1 a9bd 8221 5abc 14c7 1a3a
000001a0: 71ff 933d a89a 55be d784 08be 33c3 c63d
000001b0: 14f1 40bc de1f 14be ead6 cd3d 9165 fdbd
000001c0: b158 afbd b7d8 94bd b369 11be 69cd 163d
000001d0: 8a1c a63c 48aa 39bb 1986 16bd 4a05 cebd
000001e0: e8dc b2bc 05e2 fa3c 6d62 06bd 0f81 9ebc
000001f0: 106b 823d 9a09 2abe ff37 00bd 8178 173e
00000200: ad9e 8a3d d934 663e 9cc5 ec3d 401a a93b
00000210: 54a4 bfbd ec40 c13d 23be 05bc 845f 95bb
00000220: abaa ec3d 0866 a83c a9c5 43bc 39aa e93b
00000230: 20bd e0bb 48bd 01bd 0e8d 2f3c ed45 723d
00000240: baff 333d c1fd a6bd 174f b83c 4db8 163e
00000250: e0ef babc 4fd8 76bd 4738 023e f53a a0bd
00000260: d31c 3b3e a6b7 c13c 4cb8 1e3e 8d5a 99bd
00000270: 1bae 6e3e 6ed8 1ebd 8b19 78bd 7614 893c
00000280: 7f6d b7bb b055 1e3d e31e b53d e9fd e5bc
00000290: 9fd8 44be 7243 573e c29f 05be e9ad 133e
000002a0: 4a8e 733e d4cf 5abd b164 873c 7966 22bb
000002b0: 83e0 373d a1ef f9bd 9976 ca3d b4bc edbc
000002c0: a67d ff39 7be6 a5bd f9b8 a7bd 138c 00bc
000002d0: 18e0 143e beca cb3d f39a 843d 4c11 053d
000002e0: 9645 cebb 7179 f43d 3d46 933d ed36 e33d
000002f0: 4af2 0bbe b6a1 90bd 79f7 f7bd 6801 3eb8
00000300: 7fc6 f03d 5c5d 7a3d 94e6 3cbe c07e 4dbd
00000310: 4756 323e abe1 6abc 69aa a0bd 4057 19be
00000320: c799 443d f70e 6cbc a00f 903d 9616 87ba
00000330: cced ffba 8925 d13d 30d3 e93d 52b1 87bc
00000340: c985 de3d bb38 3ebe 207c 063d 34bc ea3a
00000350: 375c e3bd 77e2 ed3d 78a2 fa3c 5e31 8f3d
00000360: b6b2 ba3c c73c 0abd 695d dc3d 4dd2 dabd
00000370: 70fa b7bd 81ea adbc e689 d1bd 4b82 163d
00000380: 093e dfbd 7845 493e e275 cabd 5099 adbc
00000390: 8f6b 4bbd 77f6 79bc b624 a83d 0706 6b3d
000003a0: 667e 0dbe e3a3 363c a410 653d 7652 20be
000003b0: 6bc9 d1bd 1657 bd39 0346 9abd d7f0 dbbd
000003c0: 0031 f3bd 1b2f a93d a205 a2bd 9d6f c0bd
000003d0: de40 b33d 51bb 673d ee09 f5bd 7e82 5e3d
000003e0: 06e2 a6bd 261f 8cbd 7f16 ecbc a538 be3d
000003f0: 2338 f9bd 8280 1b3e ec0e fb3d f1f3 6dbb
-0.021024857 0.096076086 0.16450174 0.09945089 0.105613284 0.0041105505 0.09955732 0.02843563
0.038524702 -0.14257579 -0.008847391 -0.019259594 -0.07206801 -0.0152176935 0.033199683 -0.14682406
0.07016848 0.104413114 0.090518594 -0.013324887 -0.0018600406 -0.1013279 0.07827433 0.12109347
-0.014073636 -0.027915893 -0.057385523 0.056032043 0.21843052 0.24755259 0.13954459 -0.030903671
0.07375004 -0.00069098285 0.023291431 -0.059456766 0.022013253 -0.016988035 -0.007206469 -0.03812807
-0.019342327 0.03598592 0.078997545 -0.21907814 0.040031914 0.018506186 0.077118754 0.11240043
-0.23599376 -0.11065675 -0.07437719 0.13005592 -0.012890194 -0.09422528 -0.011332908 0.10769629
0.062481202 0.14196406 -0.026701936 0.10442953 0.014426043 0.18186624 0.16204412 -0.13891599
0.09601948 0.17582138 -0.006943684 -0.0034009896 -0.17396426 0.073096 0.010191194 0.04150211
0.06285802 -0.19340904 -0.08039119 -0.059582315 0.055379853 0.18321565 0.071097165 -0.05752195
-0.065434255 0.07422729 0.007411354 0.08541899 0.22498915 0.08183551 -0.017655538 -0.015631456
0.23854852 0.16001724 -0.19559878 0.1073309 -0.002371639 0.018456828 -0.06899434 0.041152105
-0.057038028 -0.025440276 -0.07707406 0.024186663 0.12288516 -0.08291953 -0.013313653 0.0005904299
0.07226456 -0.20859778 -0.13331924 0.097052 -0.0117762275 -0.14465281 0.10050757 -0.12372888
-0.085618384 -0.072678976 -0.14200477 0.03681699 0.02027728 -0.0028330255 -0.03674898 -0.100596026
-0.021833852 0.030625353 -0.03280871 -0.01934865 0.06368077 -0.16605225 -0.031303402 0.14792062
0.06768546 0.22481097 0.115611285 0.0051606 -0.09357515 0.09436211 -0.008163008 -0.0045585055
0.1155599 0.020556465 -0.011948981 0.007130888 -0.006858483 -0.031674653 0.010714782 0.059148718
0.04394505 -0.081538685 0.02249865 0.14718743 -0.02281946 -0.06026488 0.1271678 -0.07823745
0.18272714 0.02364714 0.15499991 -0.07487974 0.23308603 -0.038780622 -0.060571235 0.01673339
-0.0055977697 0.038655937 0.08843782 -0.028075175 -0.1922326 0.21021822 -0.13049224 0.1442181
0.23784748 -0.053420857 0.016527506 -0.0024780317 0.044891845 -0.12203909 0.09885902 -0.029020645
0.00048731006 -0.08100601 -0.081895776 -0.007845896 0.1453861 0.099507794 0.06474867 0.0324872
-0.0062949164 0.119372256 0.07191131 0.11094461 -0.13666645 -0.07062094 -0.121077485 -4.530084e-05
0.1175661 0.06112419 -0.18447334 -0.050169706 0.17415725 -0.01433603 -0.07845003 -0.1497469
0.047998216 -0.014407865 0.0703423 -0.0010306414 -0.0019525825 0.102122374 0.11417234 -0.016564045
0.10865361 -0.18576328 0.03283322 0.0017908872 -0.11101573 0.1161546 0.03059505 0.06991838
0.022790294 -0.033749368 0.10760004 -0.10684643 -0.08983314 -0.021229984 -0.1023138 0.03674535
-0.10900504 0.19655406 -0.098857656 -0.02119127 -0.049663123 -0.015256516 0.08210127 0.057378795
-0.13817748 0.011147472 0.055924073 -0.15656456 -0.102434956 0.00036113773 -0.07532885 -0.10739296
-0.118745804 0.08260938 -0.079112306 -0.093962885 0.08752607 0.056575123 -0.119647846 0.054323666
-0.08148579 -0.068418786 -0.02881932 0.09288148 -0.1216891 0.1518574 0.122587055 -0.003630873
