src/runs/ann_left_hand/20241104/20241104-1514/ann_left_hand_3_layers_best.pth (torch, 143302 bytes, 26 tensors)

network.0.weight f4 [63, 126]
-0.090253085 0.020820344 -0.06712573 -0.17863949 -0.13486055 -0.029157897 -0.09720386 -0.056280717
0.046272833 0.0278443 -0.043565996 -0.16731215 -0.03368548 -0.011188366 0.060914554 0.024353836
-0.08126421 0.07191795 0.03535407 0.1280652 -0.03870958 0.08298805 0.052212596 0.00993004
-0.09755259 -0.03293415 -0.028808368 0.0003175111 0.022100393 -0.13896115 0.015359817 -0.004510146
-0.014683632 -0.009963356 0.12624677 0.044320773 0.036657114 0.010412971 0.011143033 0.0029165568
0.06519356 0.03776867 0.08611135 0.032048233 0.007229024 0.038715973 -0.055498615 -0.012509638
-0.043674923 -0.08666274 -0.07601612 -0.017509509 -0.019926347 -0.06761182 -0.081427105 0.0043753535
0.046076443 -0.10438913 -0.14487298 -0.048709586 -0.05061284 -0.036787823 -0.054630045 0.1357876
-0.09055272 -0.29733536 -0.19759166 -0.1579873 0.027339697 0.02719977 -0.033056825 -0.038994815
-0.012771185 0.048834726 -0.053842846 -0.091702536 0.01319178 0.10683603 -0.050998 -0.15525587
0.04390354 0.068677574 0.014480533 -0.07853956 -0.06025392 0.046633773 -0.12297768 -0.072734274
-0.017015133 -0.012118138 0.03295712 0.047720462 0.0063574463 0.06403601 -0.010632531 0.035544463
0.06688695 0.07640403 0.009356454 0.0073674405 0.021027388 -0.0038756907 6.4963155e-05 0.060085904
-0.06752526 -0.178046 -0.14354026 0.02259001 -0.084840074 -0.0033871904 -0.030008102 0.001708575
0.04668786 0.012742352 -0.013843295 -0.06689687 0.11668559 0.040123567 -0.01654662 -0.013732607
0.053697735 0.06045843 -0.009035633 0.006920875 0.007839625 0.0048866356 0.03624082 -0.01632989
-0.014009808 -0.0021038463 -0.08379945 -0.09666749 -0.061071996 -0.060250305 -0.059726696 0.026998168
-0.047132645 0.025375335 -0.046107378 -0.10631073 -0.03517933 0.105290525 0.022014463 0.104249775
0.057785604 0.06710183 0.17576833 0.07108058 0.004763188 -0.00060971564 0.019062521 0.08313893
0.05050214 0.07714781 0.088339634 0.10118278 0.032715306 0.025797792 -0.039747715 -0.038761884
0.09953564 0.06076289 -0.061602972 -0.058074255 0.043803256 -0.039896443 -0.070623174 -0.1342992
0.003460263 0.07564122 -0.08947948 -0.23096435 -0.14961073 -0.054913364 0.016174305 -0.017240593
-0.021506988 -0.055120952 0.017106399 -0.041278765 -0.00772974 0.024896001 0.08502788 0.09927931
0.0683857 -0.028318742 0.04849767 0.061128236 0.028297 -0.0839412 -0.087229684 -0.11769355
-0.13231042 -0.03944946 -0.027695423 -0.03566824 0.050229143 0.053632677 -0.07344299 -0.08035548
0.0018118012 0.10673479 0.0010610723 0.09395197 0.028832905 0.045232292 -0.0066386084 -0.08969732
0.04957587 0.023354601 0.013306846 0.11439984 0.084323436 0.16622014 0.15316324 0.06979512
-0.06794416 -0.029102888 -0.040797777 0.049842585 0.11305969 -0.000729779 -0.033849753 0.033816226
0.00089900836 -0.07412252 -0.022453837 -0.037700407 0.10532405 -0.04082488 0.0039993995 0.10694125
-0.016649073 -0.1377811 -0.16521837 -0.03541993 0.0066678133 -0.030970875 -0.049772486 -0.05228734
-0.055917457 -0.04382162 -0.0071505103 -0.03818369 -0.020532466 -0.018103557 -0.059552457 0.029187972
-0.039028157 0.020464417 -0.010146484 0.036777366 -0.21903656 -0.011509056 0.03756781 0.025954051
00000000: 9cd6 b8bd 6d8f aa3c 3779 89bd 45ed 36be
00000010: e218 0abe 8bdc eebc d112 c7bd 9c86 66bd
00000020: 9588 3d3d bb19 e43c 4272 32bd e053 2bbe
00000030: c9f9 09bd 694f 37bc 8a81 793d b281 c73c
00000040: da6d a6bd b849 933d 6ecf 103d 8623 033e
00000050: f08d 1ebd a4f5 a93d e0dc 553d 9bb1 223c
00000060: a7c9 c7bd f6e5 06bd 87ff ebbc 9e77 a639
00000070: e20b b53c d54b 0ebe bea7 7b3c d9c9 93bb
00000080: 9e93 70bc 583d 23bc d546 013e b389 353d
00000090: c525 163d 2a9b 2a3c 4591 363c b423 3f3b
000000a0: 3484 853d 52b3 1a3d 265b b03d 0245 033d
000000b0: 73e1 ec3b a494 1e3d 8452 63bd 3af5 4cbc
000000c0: 7ae4 32bd 3c7c b1bd 57ae 9bbd 1a70 8fbc
000000d0: 943c a3bc 1178 8abd 41c3 a6bd 205f 8f3b
000000e0: a7ba 3c3d f8c9 d5bd 9559 14be b483 47bd
000000f0: 694f 4fbd d4ae 16bd c1c3 5fbd e80b 0b3e
00000100: b473 b9bd 573c 98be 7855 4abe 6cc7 21be
00000110: 80f7 df3c 0dd2 de3c 9866 07bd 07b9 1fbd
00000120: 3b3e 51bc ec06 483d 518a 5cbd 8ace bbbd
00000130: 5622 583c d9cc da3d 47e3 50bd 65fb 1ebe
00000140: 33d4 333d d4a6 8c3d c23f 6d3c 59d9 a0bd
00000150: d0cc 76bd 0e03 3f3d b9db fbbd b5f5 94bd
00000160: 5263 8bbc 288b 46bc 0cfe 063d 8876 433d
00000170: 2052 d03b 5025 833d 1134 2ebc 1297 113d
00000180: 06fc 883d b779 9c3d d04b 193c 926a f13b
00000190: a141 ac3c 4dff 7dbb d43c 8838 a31c 763d
000001a0: af4a 8abd b151 36be 38fc 12be af0e b93c
000001b0: a2c0 adbd a0fb 5dbb 8dd3 f5bc 43f2 df3a
000001c0: c53b 3f3d 4cc5 503c fdce 62bc 3a01 89bd
000001d0: dbf8 ee3d 9c58 243d c78c 87bc bafe 60bc
000001e0: 28f2 5b3d 42a3 773d 310a 14bc 82c8 e23b
000001f0: c571 003c 1220 a03b 4171 143d 43c6 85bc
00000200: 6589 65bc afe0 09bb 0c9f abbd 9bf9 c5bd
00000210: a126 7abd 06c9 76bd fba3 74bd 432b dd3c
00000220: 290e 41bd efdf cf3c 17db 3cbd 71b9 d9bd
00000230: 3318 10bd 8fa2 d73d ad57 b43c e880 d53d
00000240: 99b0 6c3d af6c 893d 9dfc 333e b292 913d
00000250: 8414 9c3b 53d5 1fba 0129 9c3c be44 aa3d
00000260: 55db 4e3d acff 9d3d 69eb b43d eb38 cf3d
00000270: 7c00 063d e455 d33c 80ce 22bd c8c4 1ebd
00000280: 57d9 cb3d 82e2 783d 6653 7cbd 45df 6dbd
00000290: 0b6b 333d 746a 23bd e2a2 90bd bb85 09be
000002a0: 94c5 623b c9e9 9a3d 0541 b7bd eb81 6cbe
000002b0: 8e33 19be d6ec 60bd fa7f 843c 253c 8dbc
000002c0: 6c2f b0bc 82c6 61bd b822 8c3c ec13 29bd
000002d0: c249 fdbb b3f2 cb3c 1923 ae3d f352 cb3d
000002e0: cd0d 8c3d b5fc e7bc 7ea5 463d 9a61 7a3d
000002f0: 1ccf e73c 5de9 abbd 7aa5 b2bd 5109 f1bd
00000300: 627c 07be c295 21bd 83e1 e2bc dc18 12bd
00000310: 13bd 4d3d f0ad 5b3d 4769 96bd 6a91 a4bd
00000320: f679 ed3a c597 da3d ae13 8b3a e469 c03d
00000330: fc32 ec3c 7f45 393d af88 d9bb 3ab3 b7bd
00000340: 1110 4b3d 2652 bf3c f504 5a3c 774a ea3d
00000350: c4b1 ac3d 9d35 2a3e d3d6 1c3e bef0 8e3d
00000360: 4f26 8bbd 2e69 eebc 921b 27bd bd27 4c3d
00000370: d78b e73d a44e 3fba 0aa6 0abd e282 0a3d
00000380: 6eab 6b3a 8ccd 97bd 1cf1 b7bc be6b 1abd
00000390: 23b4 d73d fd37 27bd 650d 833b 0404 db3d
000003a0: a363 88bc 7d16 0dbe 012f 29be 7d14 11bd
000003b0: ac7d da3b a2b6 fdbc 3cde 4bbd 402b 56bd
000003c0: b409 65bd 4d7e 33bd d44e eabb 8066 1cbd
000003d0: b433 a8bc e94d 94bc 47ed 73bd 9d1b ef3c
000003e0: fddb 1fbd fea4 a73c 703d 26bc dda3 163d
000003f0: 1f4b 60be 7b90 3cbc b4e0 193d 979d d43c

network.0.bias f4 [63]
0.53062093 0.42285648 0.55668384 0.29476932 0.48802623 0.19867928 0.51562744 0.537811
0.4381048 0.41612908 0.5468287 0.29625288 0.38177615 0.47980717 0.31737638 0.48866153
0.55495316 0.42280507 0.506849 0.27974626 0.6687247 0.5366277 0.53945833 0.20637152
0.54352635 0.50193083 0.4773569 0.49334928 0.49677676 0.5189427 0.4537232 0.4373898
0.49007943 0.45062655 0.4723399 0.37620705 0.4536705 0.4430569 0.47865686 0.30756718
0.3553596 0.49962386 0.36725503 0.41138998 0.47264197 0.4376596 0.49396572 0.47366866
0.44322744 0.2934876 0.72695667 0.6967431 0.33590582 0.50329936 0.4840352 0.53897274
0.44502068 0.48192754 0.30397743 0.4194176 0.39840856 0.5388931 0.44425407
00000000: c6d6 073f a580 d83e d582 0e3f 01ec 963e
00000010: 93de f93e 9572 4b3e 2900 043f fbad 093f
00000020: 464f e03e df0e d53e f7fc 0b3f 75ae 973e
00000030: 2a78 c33e 49a9 f53e 287f a23e d831 fa3e
00000040: 6911 0e3f e879 d83e dbc0 013f e73a 8f3e
00000050: 8b31 2b3f 6f60 093f f119 0a3f 0e53 533e
00000060: 8b24 0b3f 8a7e 003f 2068 f43e 4798 fc3e
00000070: 8659 fe3e 6ed9 043f 684e e83e 8ef1 df3e
00000080: b1eb fa3e 86b8 e63e 89d6 f13e 369e c03e
00000090: 8047 e83e 5bd8 e23e 8312 f53e 7279 9d3e
000000a0: b2f1 b53e b3ce ff3e da08 bc3e b5a1 d23e
000000b0: 21fe f13e eb14 e03e 13e9 fc3e b384 f23e
000000c0: b5ee e23e 0244 963e d519 3a3f c15d 323f
000000d0: d9fb ab3e 3ad8 003f 76d3 f73e 1efa 093f
000000e0: c0d9 e33e 35bf f63e eea2 9b3e e7bd d63e
000000f0: 35fc cb3e e6f4 093f 4575 e33e

network.1.running_mean f4 [63]
0.32456368 0.9515367 0.4641665 0.79183584 -0.023440488 0.21322043 0.61053646 0.18137845
0.8040534 0.5891896 -0.10112372 0.45731243 0.7966981 0.027705757 0.70133305 -0.03682026
0.4692319 1.3730189 -1.1009821 1.629712 0.24273933 -0.25143945 0.2807926 0.20701797
0.94734395 0.6753554 0.84477216 0.69288933 -0.48747063 -0.86149037 0.17783324 0.28005144
1.2823303 -0.17356873 0.23398177 0.8718577 -0.32405895 -0.03439209 -0.21638334 1.0965706
0.41647127 -0.047255065 0.50704736 0.5273872 -0.48987898 0.101360925 0.42656246 -0.30891818
1.0034269 0.47497427 0.54312783 1.320458 0.37435597 0.16150747 0.6160052 0.7873675
0.4793371 0.4702693 0.23315151 0.059485957 0.22756673 -0.57852054 1.1739757
00000000: 362d a63e e997 733f 3ba7 ed3e c1b5 4a3f
00000010: 4406 c0bc 7556 5a3e 1e4c 1c3f 46bb 393e
00000020: 72d6 4d3f 21d5 163f f419 cfbd db24 ea3e
00000030: 68f4 4b3f 2ff7 e23c 908a 333f d7d0 16bd
00000040: 2a3f f03e 15bf af3f fbec 8cbf 679a d03f
00000050: a990 783e acbc 80be 0cc4 8f3e 85fc 533e
00000060: 2285 723f 17e4 2c3f fd42 583f 3261 313f
00000070: c095 f9be a28a 5cbf eb19 363e e762 8f3e
00000080: 6623 a43f 00bc 31be eb98 6f3e 1132 5f3f
00000090: 0eeb a5be b8de 0cbd 9893 5dbe 6d5c 8c3f
000000a0: b93b d53e 878e 41bd dbcd 013f d902 073f
000000b0: 6bd1 fabe 5196 cf3d 6566 da3e 862a 9ebe
000000c0: 4b70 803f d42f f33e 6d0a 0b3f c504 a93f
000000d0: 96ab bf3e 3762 253e 84b2 1d3f eb90 493f
000000e0: ac6b f53e 23c7 f03e 45bf 6e3e 8ca7 733d
000000f0: 4107 693e ec19 14bf d644 963f

network.1.running_var f4 [63]
0.0037210423 0.0039561586 0.0019932103 0.0030988313 0.0031818303 0.0009572883 0.004075002 0.0030234794
0.0017664607 0.0024586013 0.002036966 0.0012929746 0.0026000727 0.0050019533 0.0031379804 0.003159059
0.001755066 0.0036971825 0.005635965 0.0036880274 0.0009770888 0.0025604328 0.0019859665 0.0016388977
0.0023887758 0.0016857384 0.0022293911 0.0016081173 0.005410556 0.002805216 0.0025191088 0.0024808403
0.0033908763 0.0028414174 0.0037495226 0.0030972222 0.0034409729 0.001646267 0.0021526052 0.0036664796
0.002597323 0.0020701706 0.000709206 0.0036842064 0.0023292988 0.0021376256 0.0024090111 0.0031957459
0.0028993436 0.0021733989 0.0016148272 0.0021390256 0.0011630899 0.0061737467 0.0039215754 0.0047132126
0.0027540533 0.0034856757 0.0017056051 0.0024898048 0.004676912 0.005239499 0.004111943
00000000: bbdc 733b aaa2 813b 85a0 023b c315 4b3b
00000010: 4186 503b 88f2 7a3a 9887 853b 9125 463b
00000020: 9688 e73a 7c20 213b 9e7e 053b 0779 a93a
00000030: fb65 2a3b 6de7 a33b 93a6 4d3b 3708 4f3b
00000040: 3e0a e63a 6e4c 723b e7ad b83b d5b2 713b
00000050: a911 803a efcc 273b fd26 023b 48d0 d63a
00000060: 028d 1c3b fff3 dc3a fa1a 123b 76c7 d23a
00000070: 094b b13b b7d7 373b a217 253b 9895 223b
00000080: 7739 5e3b 1337 3a3b 8dba 753b c4fa 4a3b
00000090: f281 613b 8ec7 d73a b912 0d3b 5249 703b
000000a0: d937 2a3b b3ab 073b 02ea 393a ba72 713b
000000b0: 26a7 183b 6817 0c3b 80e0 1d3b b86f 513b
000000c0: ea02 3e3b 956f 0e3b 9ca8 d33a e52e 0c3b
000000d0: d272 983a 244d ca3b 8f80 803b 4b71 9a3b
000000e0: 597d 343b ef6f 643b 9c8e df3a fe2b 233b
000000f0: c840 993b 1ab0 ab3b 7abd 863b

network.3.weight f4 [63, 63]
0.078419074 -0.20615579 -0.014465332 0.023453623 0.10591991 0.031335905 -0.07655332 0.08553018
-0.05479447 -0.05344527 0.029395942 0.17736909 -0.026905134 -0.29526883 0.0032033327 0.009027366
0.045968734 0.11508958 0.034534287 -0.04041249 -0.16993207 -0.02705926 -0.0564987 0.123878695
0.13239716 0.18368071 -0.06327064 0.03789709 -9.2108254e-05 0.04990314 -0.075640485 0.0420971
0.053114366 -0.069132805 -0.03891266 -0.013927322 0.08928527 0.105538316 0.17059644 -0.05088521
-0.034687787 0.10477387 0.072486825 -0.09917991 -0.10277733 0.06976226 -0.057280585 -0.20099048
-0.0010643664 -0.06619693 -0.0081041055 -0.0022207585 0.0731676 -0.04197614 -0.063707046 -0.11020061
0.021043738 0.099977285 0.12525639 -0.086636394 0.08202564 -0.11326743 -0.065193065 -0.120223634
-0.010884859 -0.0024299717 -0.22167389 -0.08307857 0.0023426479 -0.01679839 0.09247137 -0.041906692
0.18485443 -0.09411526 0.09329739 0.034277536 -0.02059865 -0.04111024 0.016932476 -0.079985954
0.119910605 0.064238556 -0.024826296 -0.13694362 0.0026880228 -0.07088348 -0.012699565 -0.0765922
-0.10803502 0.0028545817 -0.009557207 -0.109490976 0.0036632095 -0.1324168 0.0480842 -0.05068164
0.0028045333 0.15922704 0.002429207 0.003833309 0.013866626 0.040063456 0.074771956 0.05698141
0.04523118 -0.033923235 0.004122572 -0.04672606 -0.0702746 -0.09711651 -0.059236918 0.016962996
0.0893199 0.11983678 -0.08445004 0.022632048 0.15344068 -0.111843646 0.09370574 0.059198007
-0.042035505 -0.11452226 0.09446137 -0.07029668 0.16147806 -0.104538105 -0.07609582 0.06144814
0.027990675 0.10679455 -0.109546445 0.016122276 -0.06678576 -0.10208722 -0.1661166 -0.06602755
-0.12441273 -0.07988111 0.13686861 -0.12979905 0.027434899 -0.18471998 -0.023550363 0.12863772
0.020775605 0.023353638 -0.15702529 0.053077344 0.012530449 -0.051898643 0.112666264 -0.03951247
0.07490872 -0.11114131 0.11087909 0.035045154 -0.1256514 -0.08072599 -0.047370587 -0.089862004
-0.023712438 -0.083909065 0.079863794 -0.02715365 0.0066221817 0.08684546 0.018583812 -0.050221354
-0.02192485 -0.12498187 0.062272336 0.0036680447 0.17999068 -0.06310619 -0.00064287684 -0.04516686
0.076492436 -0.017015526 -0.0944193 0.052736368 0.011955272 -0.12790231 0.074362494 -0.0054615745
-0.079412624 0.013950037 -0.17479621 -0.10068096 0.005795829 -0.153137 0.22352968 -0.09372016
0.0469369 -0.060515046 -0.040853288 0.06409377 -0.16480164 -0.14271365 -0.025116222 -0.04537079
0.018631065 -0.06005604 0.0806297 -0.059978705 -0.114481464 -0.023615772 0.023906808 -0.027303357
-0.1528205 0.12083397 0.010873999 0.07275166 0.14683606 0.03890296 0.013703634 -0.07247789
0.1165659 0.11632931 -0.026186353 -0.012227468 -0.015240793 0.05426028 -0.17037486 0.084421895
0.06773136 -0.0017232575 0.014013449 -0.024431922 0.047890738 0.03581965 0.02367613 0.006606443
0.12655199 0.15405765 -0.029802715 -0.022705633 0.0726504 -0.051461138 0.015000815 0.054258987
-0.20433842 -0.043546785 -0.12765093 0.12522268 -0.08779486 -0.03170562 0.06889916 0.020945787
0.11642936 -0.045063864 -0.10514388 -0.098492384 0.03384392 0.014636459 -0.023179153 0.047868695
00000000: 2e9a a03d 811a 53be 0000 6dbc d021 c03c
00000010: 8aec d83d 145a 003d fdc7 9cbd 722a af3d
00000020: 2b70 60bd 6de9 5abd c2cf f03c 3ea0 353e
00000030: 2868 dcbc 7a2d 97be 01ef 513b 84e7 133c
00000040: b649 3c3d 16b4 eb3d d373 0d3d 9187 25bd
00000050: ac02 2ebe 62ab ddbc 2e6b 67bd 1db4 fd3d
00000060: 1f93 073e cc16 3c3e 0a94 81bd fb39 1b3d
00000070: 3e2a c1b8 3c67 4c3d 66e9 9abd 026e 2c3d
00000080: 738e 593d 8095 8dbd e262 1fbd 6c2f 64bc
00000090: 32db b63d 7924 d83d d5b0 2e3e 036d 50bd
000000a0: c814 0ebd af93 d63d f973 943d d61e cbbd
000000b0: ec7c d2bd 84df 8e3d 0c9f 6abd 73d0 4dbe
000000c0: 3682 8bba 4292 87bd 15c7 04bc 258a 11bb
000000d0: e5d8 953d 2cef 2bbd d778 82bd dbb0 e1bd
000000e0: eb63 ac3c e4c0 cc3d 3643 003e 6c6e b1bd
000000f0: 0ffd a73d c1f8 e7bd f183 85bd cf37 f6bd
00000100: 6856 32bc 2940 1fbb 7bfe 62be 1925 aabd
00000110: 1c87 193b c79c 89bc a161 bd3d 5aa6 2bbd
00000120: 7b4a 3d3e 80bf c0bd b412 bf3d 9a66 0c3d
00000130: 80be a8bc 3663 28bd fab5 8a3c adcf a3bd
00000140: b193 f53d 818f 833d 8460 cbbc f33a 0cbe
00000150: 8a29 303b 5c2b 91bd d611 50bc 5fdc 9cbd
00000160: 7741 ddbd ef13 3b3b d595 1cbc ce3c e0bd
00000170: 7512 703b 4598 07be f0f3 443d 8d97 4fbd
00000180: 43cc 373b 6a0c 233e 5533 1f3b 4138 7b3b
00000190: d830 633c 9419 243d 0a22 993d 5765 693d
000001a0: 5444 393d 17f3 0abd a416 873b d363 3fbd
000001b0: 21ec 8fbd 05e5 c6bd 69a2 72bd fbf5 8a3c
000001c0: 5aed b63d fc6c f53d 24f4 acbd d866 b93c
000001d0: 8e1f 1d3e 480e e5bd cce8 bf3d 9c79 723d
000001e0: 6c2d 2cbd a68a eabd f674 c13d b5f7 8fbd
000001f0: 815a 253e 1318 d6bd 20d8 9bbd 0bb1 7b3d
00000200: b34c e53c 1ab7 da3d e359 e0bd dd12 843c
00000210: f9c6 88bd 1b13 d1bd 781a 2abe 7439 87bd
00000220: 1acc febd b598 a3bd 4927 0c3e 0bea 04be
00000230: 27bf e03c 3c27 3dbe b1ec c0bc 9bb9 033e
00000240: 9a31 aa3c 2150 bf3c 3dcb 20be a167 593d
00000250: 834c 4d3c ac93 54bd 92bd e63d d4d7 21bd
00000260: be69 993d 0e9e e3bd 9414 e33d 828b 0f3d
00000270: c3aa 00be ab53 a5bd a907 42bd 9209 b8bd
00000280: 9640 c2bc 84d8 abbd a18f a33d 5571 debc
00000290: e3fe d83b 08dc b13d 143d 983c e8b4 4dbd
000002a0: be9b b3bc 7ff6 ffbd 4711 7f3d 9463 703b
000002b0: 7a4f 383e d13d 81bd bc86 28ba e300 39bd
000002c0: 11a8 9c3d 2564 8bbc e85e c1bd 1702 583d
000002d0: 0ce0 433c d3f8 02be 5d4b 983d 02f7 b2bb
000002e0: 16a3 a2bd b28e 643c c7fd 32be d231 cebd
000002f0: f0ea bd3b f2cf 1cbe f7e4 643e 5bf0 bfbd
00000300: e840 403d a0de 77bd c755 27bd 9843 833d
00000310: c3c1 28be 8723 12be 89c0 cdbc b9d6 39bd
00000320: 2da0 983c 52fd 75bd 2f21 a53d 3bac 75bd
00000330: 4275 eabd dd75 c1bc 36d8 c33c 4aab dfbc
00000340: fa7c 1cbe cd77 f73d dc28 323c d3fe 943d
00000350: 315c 163e b658 1f3d 3585 603c 4a6f 94bd
00000360: 1aba ee3d 103e ee3d c384 d6bc b855 48bc
00000370: 85b4 79bc 0740 5e3d bf76 2ebe 63e5 ac3d
00000380: bdb6 8a3d edde e1ba aa98 653c 7425 c8bc
00000390: 1429 443d a0b7 123d 72f4 c13c dc7a d83b
000003a0: d896 013e 4ac1 1d3e d324 f4bc 2a01 babc
000003b0: bcc9 943d eac8 52bd fac5 753c ac3e 5e3d
000003c0: 173e 51be 1d5e 32bd edb6 02be 603a 003e
000003d0: cbcd b3bd c1dd 01bd 011b 8d3d 8096 ab3c
000003e0: 8472 ee3d e394 38bd ad55 d7bd 60b6 c9bd
000003f0: ec9f 0a3d c2cd 6f3c 35e2 bdbc f711 443d

network.3.bias f4 [63]
0.48367044 0.4936878 0.49203393 0.49701744 0.4933095 0.51150906 0.49702176 0.49840975
0.4967586 0.49973065 0.5021264 0.5102132 0.50131947 0.5012774 0.49656418 0.498865
0.48086068 0.50111115 0.49666908 0.4980089 0.49717593 0.5022449 0.49876526 0.4982414
0.49783084 0.4989673 0.49800023 0.5037723 0.4596657 0.5019382 0.4962732 0.49427238
0.49424815 0.49862552 0.49918303 0.50066566 0.49664658 0.49832392 0.50106555 0.5040936
0.49768722 0.500389 0.4968125 0.5239134 0.4979007 0.503779 0.49909338 0.49545592
0.49771956 0.49724573 0.5036906 0.50489044 0.4999529 0.49561876 0.5048696 0.49201357
0.50052255 0.5181565 0.4962134 0.5021822 0.50177187 0.5002938 0.5020762
00000000: a7a3 f73e a6c4 fc3e dfeb fb3e 1279 fe3e
00000010: 1093 fc3e 42f2 023f a379 fe3e 902f ff3e
00000020: 2557 fe3e b2dc ff3e 5b8b 003f 559d 023f
00000030: 7956 003f b753 003f a93d fe3e 3c6b ff3e
00000040: 5f33 f63e d248 003f 694b fe3e 06fb fe3e
00000050: d88d fe3e 1f93 003f 295e ff3e 7f19 ff3e
00000060: afe3 fe3e a478 ff3e e3f9 fe3e 39f7 003f
00000070: 4d59 eb3e 067f 003f 8517 fe3e 4511 fd3e
00000080: 180e fd3e d84b ff3e eb94 ff3e a02b 003f
00000090: 7648 fe3e 5024 ff3e d545 003f 470c 013f
000000a0: dcd0 fe3e 7e19 003f 355e fe3e 301f 063f
000000b0: d7ec fe3e a9f7 003f 2b89 ff3e 66ac fd3e
000000c0: 19d5 fe3e fe96 fe3e def1 003f 8040 013f
000000d0: d4f9 ff3e bec1 fd3e 223f 013f 34e9 fb3e
000000e0: 3f22 003f e8a5 043f af0f fe3e 038f 003f
000000f0: 1f74 003f 4113 003f 1188 003f

network.4.running_mean f4 [63]
0.48659703 0.41097042 0.2455402 0.4527921 0.32254416 0.5101498 0.4980874 0.6684332
0.49267748 0.46594733 0.5407555 0.6301023 0.38913855 0.59997016 0.6285588 0.49360284
0.4247814 0.33735526 0.2953608 0.467027 0.32546574 0.47018307 0.33759108 0.43165895
0.58473164 0.23987012 0.44270542 0.40048048 0.4800578 0.5510531 0.51366174 0.40663397
0.45659536 0.554447 0.28283805 0.36273068 0.43371382 0.60523766 0.56404185 0.67369825
0.15524578 0.44367397 0.32025588 0.5336605 0.30211422 0.52535844 0.24959578 0.17455189
0.5046738 0.37346563 0.49579132 0.63607717 0.25566825 0.39012718 0.49367532 0.6120735
0.4577703 0.5589132 0.50679713 0.43226093 0.5132978 0.43782327 0.49400616
00000000: 3f23 f93e b76a d23e e46e 7b3e 5ed4 e73e
00000010: 8224 a53e 2d99 023f 5005 ff3e 701e 2b3f
00000020: 3940 fc3e a690 ee3e f46e 0a3f 624e 213f
00000030: 2b3d c73e a597 193f 3be9 203f 83b9 fc3e
00000040: f37c d93e d4b9 ac3e 8839 973e 2a1e ef3e
00000050: 72a3 a63e d6bb f03e bdd8 ac3e 6702 dd3e
00000060: f9b0 153f 83a0 753e 49aa e23e c70b cd3e
00000070: 23ca f53e d111 0d3f 567f 033f 5432 d03e
00000080: dec6 e93e 3df0 0d3f 26d0 903e d6b7 b93e
00000090: bd0f de3e dbf0 1a3f 0c65 103f 7d77 2c3f
000000a0: c0f8 1e3e 3c29 e33e 94f8 a33e f99d 083f
000000b0: b7ae 9a3e e47d 063f 0996 7f3e bbbd 323e
000000c0: 4d32 013f e336 bf3e 5cd8 fd3e f4d5 223f
000000d0: f3e6 823e c0be c73e 03c3 fc3e d9b0 1c3f
000000e0: de60 ea3e ef14 0f3f 75bd 013f 4e51 dd3e
000000f0: 7c67 033f 5f2a e03e 60ee fc3e

network.4.running_var f4 [63]
0.059012108 0.10600293 0.11368172 0.10743901 0.07075413 0.05478027 0.1852834 0.36686596
0.13426416 0.10624656 0.1320834 0.14982456 0.08295328 0.11464679 0.14951316 0.11678243
0.028271059 0.1951126 0.08103012 0.20053202 0.18611953 0.16061802 0.11317377 0.052661344
0.14930971 0.115347326 0.11308565 0.082852766 0.035575863 0.11707356 0.08987626 0.1267884
0.079104036 0.10547093 0.13321963 0.08171256 0.053832587 0.09830764 0.080115624 0.09820756
0.25102046 0.17380954 0.12538153 0.077954784 0.2001444 0.05160817 0.17955872 0.12859592
0.12778522 0.12718904 0.09384832 0.20128381 0.09991404 0.11255763 0.10520797 0.063508704
0.08405698 0.04899432 0.052921038 0.2184463 0.121609226 0.057192434 0.14093062
00000000: aeb6 713d 1018 d93d f6d1 e83d fc08 dc3d
00000010: 8be7 903d 4761 603d eeba 3d3e dbd5 bb3e
00000020: 8b7c 093e cc97 d93d df40 073e 9c6b 193e
00000030: 69e3 a93d f0cb ea3d fa19 193e a02b ef3d
00000040: b598 e73c 99cb 473e 1ff3 a53d 4458 4d3e
00000050: 1e96 3e3e 0d79 243e a6c7 e73d 6cb3 573d
00000060: a5e4 183e 383b ec3d 7399 e73d b6ae a93d
00000070: ffb7 113d 43c4 ef3d 0b11 b83d d1d4 013e
00000080: 4c01 a23d 2501 d83d ba6a 083e ea58 a73d
00000090: 8f7f 5c3d 8455 c93d a913 a43d 0c21 c93d
000000a0: c185 803e 21fb 313e 0464 003e c2a6 9f3d
000000b0: a7f2 4c3e 1763 533d 3ede 373e a6ae 033e
000000c0: 21da 023e d83d 023e 8c33 c03d 581d 4e3e
000000d0: bb9f cc3d 9d84 e63d 4777 d73d da10 823d
000000e0: 1126 ac3d 45ae 483d bbc3 583d 63b0 5f3e
000000f0: 420e f93d 9d42 6a3d 1e50 103e

network.6.weight f4 [63, 63]
-0.118631504 0.06154972 0.19667068 0.012818411 0.08119252 0.141349 0.07987012 0.038696345
0.039365754 -0.09652021 0.029537939 0.018608555 -0.09687322 -0.026255522 0.0069811875 -0.02252574
-0.007068362 -0.043135572 0.12354378 0.14058812 0.06433112 0.013703425 0.104341626 0.06736406
0.09701851 -0.075031854 0.050664518 -0.12993632 -0.09028472 0.070053406 0.06423995 0.09295602
-0.0079821 0.023688832 0.04767498 0.031637322 0.14305145 -0.2233427 0.019371293 0.05141529
0.13151571 0.122083 -0.17101315 0.07852499 -0.15034755 -0.09513567 0.09473675 -0.1117171
-0.16461366 0.12479419 0.031014936 0.020035168 -0.055568006 0.08343898 -0.032880224 -0.10303875
0.14649177 -0.007416159 0.079641476 0.026833314 0.08428011 0.10890365 -0.05883151 -0.038586505
-0.096425 -0.16494788 -0.14992632 -0.07664685 -0.06684489 0.06415498 0.11457527 0.11094588
0.10553431 0.04751877 0.06621089 -0.12959358 0.049401302 -0.049580216 0.062488753 -0.103897534
-0.08480713 -0.14728464 -0.03126121 0.13131708 0.0829581 -0.04996093 -0.042676736 0.12824844
-0.009997829 0.03539527 -0.026975784 -0.014365114 -0.012736238 0.2221404 -0.09584016 0.09120003
-0.042129077 -0.0044719647 0.072815105 -0.03700882 0.018587185 -0.0066108503 -0.06698121 0.040372122
0.064758666 -0.07539127 0.052331917 0.020765213 0.05020766 -0.05298589 0.029852713 -0.097247876
-0.049849845 -0.04540845 -0.0367784 0.06228631 0.28858528 0.07621719 0.020883504 -0.035891417
-0.023051972 -0.06322858 0.1628342 -0.06409664 0.0141650345 -0.052055854 -0.06983336 -0.011245567
0.22485556 0.03400112 0.0183393 0.02791498 0.01955366 0.08096969 0.03019426 0.07363125
-0.006621615 -0.11214022 0.02231442 0.02900374 -0.048254035 -0.086010315 -0.023291722 -0.11930846
-0.029672002 0.13534202 -0.1589797 9.820319e-05 0.12065087 0.083697 0.06533912 -0.02234507
0.06078032 0.05992262 -0.023095798 0.042942148 0.06192662 0.1556316 -0.07870946 -0.0706332
-0.030038696 0.1534829 -0.011673022 -0.10544749 0.19183415 -0.050549403 0.032105785 -0.049829137
-0.11551098 -0.06809219 -0.13713686 0.07796041 -0.030405246 0.009364668 -0.05513065 -0.017547656
-0.04662781 -0.016542105 0.0668684 0.06421284 -0.098495394 0.011111338 0.08398732 0.040479753
0.06201609 0.0847607 -0.010198513 0.023171954 0.07583742 -0.05321294 -0.027979642 -0.13659853
0.020005452 0.019226689 0.066148184 0.0115383 0.043481015 0.04705933 -0.011679869 0.025708241
-0.08131864 0.14142784 -0.10337203 -0.08737195 -0.08185007 0.0015130186 0.104728416 -0.13149603
-0.043635 0.062123753 -0.055729806 -0.16748244 0.06950706 -0.023563234 0.059767365 0.044078443
-0.026279008 -0.06333383 0.02952257 0.07002373 0.081016056 -0.030781578 0.063176885 0.06644533
0.15202075 0.10719829 -0.07506282 -0.2662076 0.026134966 0.09401353 0.21493167 -0.03550804
-0.09684346 -0.10024504 -0.06861674 0.015518517 0.09002009 0.029363526 0.22035244 0.023305465
-0.038351964 0.1317064 -0.010573253 0.053788517 -0.054745454 0.024000699 0.04810397 0.05793587
0.007970101 0.1979352 -0.03945483 0.005489914 0.0242723 0.049435265 -0.08168027 0.13536435
00000000: 13f5 f2bd 8f1b 7c3d 0a64 493e 5004 523c
00000010: 4448 a63d cbbd 103e f292 a33d 0f80 1e3d
00000020: fc3d 213d 63ac c5bd 8cf9 f13c f870 983c
00000030: 7765 c6bd d215 d7bc 72c2 e43b e787 b8bc
00000040: b89d e7bb edae 30bd 8504 fd3d 55f6 0f3e
00000050: 09c0 833d 5584 603c 10b1 d53d 2bf6 893d
00000060: a4b1 c63d 4daa 99bd 9985 4f3d 070e 05be
00000070: 32e7 b8bd 2978 8f3d 3c90 833d ba5f be3d
00000080: 5bc7 02bc 150f c23c d746 433d 2396 013d
00000090: 147c 123e f3b3 64be 8cb0 9e3c d798 523d
000000a0: 0eac 063e a706 fa3d 121e 2fbe b6d1 a03d
000000b0: b5f4 19be 7dd6 c2bd 5705 c23d efcb e4bd
000000c0: 7c90 28be 1994 ff3d 0913 fe3c cb20 a43c
000000d0: 479b 63bd 0ee2 aa3d 6aad 06bd fb05 d3bd
000000e0: f001 163e 4003 f3bb 121b a33d 8ad1 db3c
000000f0: 0d9b ac3d e008 df3d 4ff9 70bd e20c 1ebd
00000100: 787a c5bd 19e8 28be 4986 19be 06f9 9cbd
00000110: f9e5 88bd b063 833d 70a6 ea3d 9837 e33d
00000120: 5f22 d83d 0ba3 423d 9399 873d 2eb4 04be
00000130: 0559 4a3d a014 4bbd 35f4 7f3d 3bc8 d4bd
00000140: 5caf adbd c9d1 16be c10b 00bd fc77 063e
00000150: f0e5 a93d d5a3 4cbd cdcd 2ebd 8f53 033e
00000160: efcd 23bc a1fa 103d 52fc dcbc a85b 6bbc
00000170: a7ab 50bc c678 633e d947 c4bd 15c7 ba3d
00000180: 8a8f 2cbd 8f89 92bb 1620 953d 8f96 17bd
00000190: 2744 983c d59f d8bb 722d 89bd 3d5d 253d
000001a0: 31a0 843d bd66 9abd fe59 563d cf1b aa3c
000001b0: 8ca6 4d3d bc07 59bd ad8d f43c e529 c7bd
000001c0: 5a2f 4cbd 36fe 39bd f3a4 16bd ee1f 7f3d
000001d0: 73c1 933e c217 9c3d e213 ab3c e102 13bd
000001e0: 7dd7 bcbc fc7d 81bd 02be 263e 1945 83bd
000001f0: 7614 683c 8538 55bd cb04 8fbd 543f 38bc
00000200: 8940 663e c244 0b3d 4d3c 963c f5ad e43c
00000210: ff2e a03c 70d3 a53d f459 f73c fbcb 963d
00000220: 22fa d8bb c6a9 e5bd bbcc b63c 4099 ed3c
00000230: 06a6 45bd 2d26 b0bd 48ce bebc fe57 f4bd
00000240: b312 f3bc 1997 0a3e 93cb 22be 70f2 cd38
00000250: ce17 f73d 5569 ab3d 84d0 853d 020d b7bc
00000260: c9f4 783d 6c71 753d 6633 bdbc 1be4 2f3d
00000270: c4a6 7d3d e45d 1f3e 6d32 a1bd 24a8 90bd
00000280: b613 f6bc 9f2a 1d3e 3440 3fbc dbf4 d7bd
00000290: 2c70 443e e40c 4fbd 5b81 033d a319 4cbd
000002a0: 0591 ecbd eb73 8bbd 9b6d 0cbe b5a9 9f3d
000002b0: 6c14 f9bc 446e 193c add0 61bd 1ac0 8fbc
000002c0: cdfc 3ebd 4f83 87bc 4df2 883d 0582 833d
000002d0: f4b7 c9bd 540c 363c 8b01 ac3d 19ce 253d
000002e0: 9504 7e3d 0597 ad3d aa17 27bc 1cd3 bd3c
000002f0: a650 9b3d d0f5 59bd 9035 e5bc 7ce0 0bbe
00000300: 79e2 a33c 4a81 9d3c b378 873d 230b 3d3c
00000310: 2619 323d 49c1 403d ec5c 3fbc 179a d23c
00000320: 638a a6bd 76d2 103e b7b4 d3bd 11f0 b2bd
00000330: 02a1 a7bd 7b50 c63a da7b d63d e5a6 06be
00000340: 9dba 32bd 7a75 7e3d f044 64bd 8480 2bbe
00000350: b859 8e3d af07 c1bc a0ce 743d 998b 343d
00000360: 1347 d7bc 2bb5 81bd 51d9 f13c 9a68 8f3d
00000370: bfeb a53d a629 fcbc e262 813d 7d14 883d
00000380: 54ab 1b3e c78a db3d 89ba 99bd 5d4c 88be
00000390: ff18 d63c 2a8a c03d 0c17 5c3e e170 11bd
000003a0: dd55 c6bd 464d cdbd ef86 8cbd 6141 7e3c
000003b0: 745c b83d c78b f03c 12a4 613e 1aeb be3c
000003c0: f316 1dbd 0bde 063e 703b 2dbc 5951 5c3d
000003d0: c53c 60bd 1d9d c43c ab08 453d 2a4e 6d3d
000003e0: 0795 023c 86af 4a3e 639b 21bd bde4 b33b
000003f0: b4d6 c63c a27c 4a3d fc47 a7bd f49c 0a3e

network.6.bias f4 [63]
0.5199511 0.5015566 0.5024601 0.49674886 0.5045618 0.49481192 0.4989823 0.49377355
0.49812225 0.5037856 0.4999518 0.50025886 0.5013175 0.4983085 0.5004924 0.49812144
0.49819815 0.4971458 0.49720934 0.49731094 0.49449968 0.5012029 0.5067252 0.5109972
0.5014171 0.49787116 0.49888763 0.49279034 0.49634755 0.4978731 0.50077295 0.5014394
0.51202524 0.497371 0.518694 0.4971234 0.4930642 0.50130546 0.4924056 0.50057197
0.5077177 0.49218583 0.49928573 0.5106021 0.50066286 0.49304056 0.50200975 0.5061865
0.49303368 0.49853316 0.4979438 0.49600983 0.5068336 0.49838397 0.4814308 0.5113566
0.501121 0.49649143 0.49667716 0.4973749 0.52946913 0.49284056 0.50485957
00000000: 841b 053f 0366 003f 3aa1 003f de55 fe3e
00000010: f62a 013f fd57 fd3e 9c7a ff3e e3cf fc3e
00000020: e109 ff3e 18f8 003f aff9 ff3e f710 003f
00000030: 5856 003f 4b22 ff3e 4520 003f c609 ff3e
00000040: d413 ff3e e589 fe3e 3992 fe3e 8a9f fe3e
00000050: 102f fd3e d54e 003f beb8 013f b6d0 023f
00000060: df5c 003f f8e8 fe3e 336e ff3e 044f fc3e
00000070: 4421 fe3e 39e9 fe3e a832 003f 555e 003f
00000080: 1614 033f 69a7 fe3e 21c9 043f f586 fe3e
00000090: e972 fc3e 8e55 003f 961c fc3e 7c25 003f
000000a0: caf9 013f c8ff fb3e 61a2 ff3e d2b6 023f
000000b0: 712b 003f d06f fc3e b683 003f 7095 013f
000000c0: e96e fc3e bd3f ff3e 7df2 fe3e 00f5 fd3e
000000d0: d9bf 013f 2f2c ff3e 197e f63e 44e8 023f
000000e0: 7749 003f 2034 fe3e 784c fe3e eca7 fe3e
000000f0: 4a8b 073f 9955 fc3e 7a3e 013f

network.7.running_mean f4 [63]
0.7296632 0.53414595 0.60847914 0.6162949 0.6735511 0.5787703 0.3954881 0.37034172
0.3592274 0.7200246 0.46813414 0.4627858 0.47249213 0.37107334 0.6204409 0.56000745
0.56579256 0.5545036 0.3840312 0.61116195 0.46458516 0.4801213 0.63375473 0.5028416
0.46890736 0.5092557 0.38104892 0.42745277 0.5072947 0.58397907 0.40732378 0.52223885
0.7054219 0.34973457 0.36619562 0.67597485 0.35986534 0.27321187 0.40363678 0.5438547
0.635447 0.52619964 0.5585522 0.75308186 0.68800217 0.25159103 0.55620205 0.50530654
0.5021547 0.7561836 0.1776979 0.28852698 0.7595355 0.78790873 0.5680567 0.44336984
0.47461176 0.6475109 0.3269551 0.49192837 0.5997547 0.30371594 0.433219
00000000: 35cb 3a3f cabd 083f 4ac5 1b3f 81c5 1d3f
00000010: d86d 2c3f 4a2a 143f 6b7d ca3e 6e9d bd3e
00000020: a7ec b73e 8853 383f 47af ef3e 43f2 ec3e
00000030: 7dea f13e 53fd bd3e 37d5 1e3f a65c 0f3f
00000040: c8d7 103f f3f3 0d3f bd9f c43e 1c75 1c3f
00000050: 1bde ed3e 76d2 f53e c03d 223f 3aba 003f
00000060: a014 f03e 955e 023f d818 c33e 17db da3e
00000070: 11de 013f a77f 153f be8c d03e 72b1 053f
00000080: 8896 343f 6910 b33e fe7d bb3e b00c 2d3f
00000090: 4540 b83e 6de2 8b3e 7ba9 ce3e 103a 0b3f
000000a0: a8ac 223f 05b5 063f 47fd 0e3f f9c9 403f
000000b0: e920 303f 8ad0 803e 4263 0e3f c55b 013f
000000c0: 368d 003f 4095 413f 70f6 353e cfb9 933e
000000d0: eb70 423f 63b4 493f 2a6c 113f 5f01 e33e
000000e0: 5000 f33e 46c3 253f a966 a73e 09de fb3e
000000f0: 8689 193f a880 9b3e e1ce dd3e

network.7.running_var f4 [63]
0.12728825 0.18428805 0.11036053 0.16352722 0.17777607 0.08521177 0.11273589 0.14078942
0.06096675 0.1799971 0.068894625 0.21575327 0.16804886 0.08038271 0.1564903 0.10942565
0.06561356 0.17181244 0.1092005 0.1374869 0.046225462 0.1348587 0.07605198 0.061652288
0.2211428 0.083439805 0.17835532 0.1555032 0.081466325 0.14707732 0.13085616 0.14900623
0.071627475 0.32738778 0.044166375 0.14645885 0.11156736 0.16827661 0.06467917 0.24269523
0.15056257 0.043399278 0.11761591 0.15460972 0.33199126 0.065336086 0.14089574 0.036275804
0.056497708 0.17898078 0.37265152 0.09876455 0.15135638 0.10521246 0.040524993 0.07860761
0.075518444 0.046238597 0.1056668 0.044782296 0.08503144 0.12320046 0.09814102
00000000: da57 023e 02b6 3c3e b404 e23d ae73 273e
00000010: ee0a 363e 8283 ae3d 13e2 e63d 1a2b 103e
00000020: 45b8 793d 2951 383e a018 8d3d 6dee 5c3e
00000030: 0015 2c3e b19f a43d fe3e 203e 8e1a e03d
00000040: 6760 863d 9aef 2f3e 83a4 df3d 5ec9 0c3e
00000050: e956 3d3d 6618 0a3e 24c1 9b3d 1c87 7c3d
00000060: 4273 623e 7de2 aa3d c7a2 363e 3b3c 1f3e
00000070: d1d7 a63d 709b 163e 28ff 053e 1795 183e
00000080: 6db1 923d 5f9f a73e cde7 343d 4ff9 153e
00000090: 6e7d e43d b450 2c3e 8376 843d 1985 783e
000000a0: 132d 1a3e 71c3 313d 9ce0 f03d 0352 1e3e
000000b0: c2fa a93e edce 853d f946 103e f095 143d
000000c0: 246a 673d bd46 373e 2ecc be3e 1245 ca3d
000000d0: 2bfd 1a3e a179 d73d 89fd 253d 07fd a03d
000000e0: 6aa9 9a3d af64 3d3d d667 d83d a46d 373d
000000f0: f724 ae3d 8650 fc3d 29fe c83d

network.9.weight f4 [63, 63]
0.11344164 -0.07661949 0.051145867 -0.10243577 0.09117109 0.01757347 -0.022170115 -0.0008673545
-0.015228006 0.1118953 -0.029633783 0.034764163 0.04691194 0.023060493 0.056846913 0.097797744
-0.08989605 0.16460423 -0.041978043 0.04450137 -0.059259024 -0.07327775 0.13077545 -0.077346675
-0.12495705 -0.15501133 0.103873715 0.054324623 -0.07021532 0.110733464 0.084574185 -0.18729055
0.015387049 0.06485143 0.07803632 -0.018035786 -0.06464041 -0.063564196 -0.12059701 -0.0584176
0.0861043 -0.26494193 0.079800814 0.02050093 0.0616818 -0.13408984 0.032173518 -0.08656518
0.15677781 -0.12703696 0.0006910629 0.038368322 0.13941011 0.010919206 0.014487033 0.09738964
-0.09376728 -0.056982134 -0.08973768 -0.02036572 -0.09064345 0.03611661 -0.02033518 0.015252885
-0.19809453 0.07045759 -0.060147855 -0.00743356 -0.03243136 0.023422183 -0.16082883 -0.08416646
0.13361773 0.0992046 -0.14079142 -0.007820322 -0.08638391 -0.014799671 0.013409728 -0.1412442
-0.015860258 -0.18123694 -0.02619649 -0.031011583 -0.08725564 0.12374546 0.042873316 -0.075377055
-0.14645861 -0.04446605 -0.12565637 -0.09447688 0.043627486 0.055615403 0.014472872 0.15948631
-0.059583865 0.08802862 0.06341991 0.051284228 -0.043776195 0.11917151 0.051404588 -0.023250537
-0.064150676 0.023035388 0.0859136 0.0311417 0.09984495 0.08238871 -0.10720214 -0.06078163
-0.0641489 -0.029385319 0.033422712 0.10665891 0.06175631 -0.018572716 0.03751735 0.036090396
-0.20896327 0.069199294 -0.0032043024 0.19289462 -0.037568804 -0.13894278 0.14943603 -0.0014059022
-0.12038477 -0.079426326 -0.14859277 0.007671061 0.06880323 -0.06974098 -0.026209293 0.094803125
-0.004786351 -0.084623836 0.08438522 0.045109797 -0.033331912 0.11118223 -0.029172488 -0.0003518233
-0.011863968 -0.09546885 -0.031071141 0.084021546 0.17032066 -0.1371325 0.14399885 0.06856424
0.0101835765 0.07375253 -0.091375805 0.0144981565 0.045267373 0.025793647 -0.033155855 -0.08357699
0.064534634 -0.1599347 -0.002816957 -0.119661175 -0.1612988 0.064483985 -0.059234377 -0.012333464
-0.09019951 -0.098675825 -0.07743894 0.06776938 0.043109305 -0.042020578 -0.013953203 0.06640527
-0.019808104 0.20363426 0.11860969 0.12784079 0.15543592 0.030529676 -0.011326119 -0.14784355
0.073399186 0.048771143 -0.042601023 -0.11094995 0.043675732 0.14383326 -0.078746796 0.046190716
0.121399224 0.009044287 0.0125835445 0.022761686 -0.020354133 -0.20900817 -0.081958644 0.051210366
0.03622491 0.10875945 -0.030020928 -0.0080225 -0.083001114 0.12694225 0.11037024 0.029796163
0.04064456 0.028464157 -0.06598874 0.07636633 -0.0104663605 -0.057506297 -0.12465183 -0.12759943
0.027754998 -0.07967775 -0.087031 -0.07407586 -0.061115865 0.08975819 0.11504559 -0.12980513
-0.058945034 0.038878195 -0.26228762 -0.061234016 -0.041648336 -0.10618938 0.07667655 0.015921853
0.03009329 -0.035083227 0.117246926 -0.01645234 0.042059965 0.15625423 -0.036668617 -0.19276142
-0.031793687 -0.08324069 0.07515376 0.21747151 -0.002244601 -0.02988324 -0.051976927 0.021212734
0.015524272 0.015369133 -0.056487575 -0.020307172 0.0048750327 -0.038765028 0.058115914 0.049953673
00000000: 1754 e83d aeea 9cbd 547e 513d d8c9 d1bd
00000010: e9b7 ba3d 3df6 8f3c 1a9e b5bc 2d5f 63ba
00000020: e37e 79bc 5d29 e53d 8cc2 f2bc de64 0e3d
00000030: bc26 403d 5ce9 bc3c 4fd8 683d 2f4a c83d
00000040: 6c1b b8bd 038e 283e 2bf1 2bbd 1247 363d
00000050: 97b9 72bd a512 96bd 00ea 053e ef67 9ebd
00000060: 7be9 ffbd 4abb 1ebe bebb d43d 7f83 5e3d
00000070: 0dcd 8fbd 3ac8 e23d 3b35 ad3d 18c9 3fbe
00000080: f619 7c3c d4d0 843d 82d1 9f3d c9bf 93bc
00000090: 3162 84bd f22d 82bd 91fb f6bd 4b47 6fbd
000000a0: 7457 b03d 78a6 87be 9c6e a33d 91f1 a73c
000000b0: 0ea6 7c3d d94e 09be 61c8 033d 1649 b1bd
000000c0: 5d8a 203e fa15 02be 7228 353a 1a28 1d3d
000000d0: 86c1 0e3e 78e6 323c 055b 6d3c 3874 c73d
000000e0: 0f09 c0bd 1966 69bd 64c8 b7bd 03d6 a6bc
000000f0: 46a3 b9bd 03ef 133d f795 a6bc 3de7 793c
00000100: 4bd9 4abe 124c 903d 995d 76bd 3995 f3bb
00000110: bfd6 04bd e1df bf3c 50b0 24be 775f acbd
00000120: 16d3 083e c82b cb3d a02b 10be cf20 00bc
00000130: 0cea b0bd 527a 72bc 7ab4 5b3c 52a2 10be
00000140: 5fed 81bc 2d96 39be 059a d6bc 010c febc
00000150: 16b3 b2bd 426e fd3d ee9b 2f3d 495f 9abd
00000160: 3ff9 15be 0822 36bd 10ac 00be 187d c1bd
00000170: bcb2 323d facc 633d a01f 6d3c 6150 233e
00000180: 360e 74bd 5948 b43d 4ce2 813d 690f 523d
00000190: ab4e 33bd 3110 f43d 9e8d 523d e977 bebc
000001a0: 6e61 83bd b6b4 bc3c 78f3 af3d e11c ff3c
000001b0: 827b cc3d 69bb a83d cc8c dbbd 29f6 78bd
000001c0: 8060 83bd 7bb9 f0bc 41e6 083d fd6f da3d
000001d0: 2ff4 7c3d cf25 98bc cbab 193d 86d3 133d
000001e0: 78fa 55be 5cb8 8d3d 46ff 51bb 2b86 453e
000001f0: bfe1 19bd 0447 0ebe c205 193e 4046 b8ba
00000200: 4a8c f6bd 45aa a2bd b428 18be 865d fb3b
00000210: b5e8 8c3d 5cd4 8ebd dfb4 d6bc 2428 c23d
00000220: d3d6 9cbb 434f adbd 29d2 ac3d 0dc5 383d
00000230: 0b87 08bd 82b3 e33d 24fb eebc ed74 b8b9
00000240: 1761 42bc 2c85 c3bd e888 febc 7d13 ac3d
00000250: 8a68 2e3e 766c 0cbe 6f74 133e 696b 8c3d
00000260: 04d9 263c 910b 973d 3d23 bbbd ad89 6d3c
00000270: 486a 393d 334d d33c 6fce 07bd 6a2a abbd
00000280: bc2a 843d ecc5 23be b29c 38bb eb10 f5bd
00000290: 832b 25be 2e10 843d bf9f 72bd 4c12 4abc
000002a0: 85ba b8bd 8d16 cabd 4f98 9ebd acca 8a3d
000002b0: 6293 303d c51d 2cbd fa9b 64bc 7cff 873d
000002c0: 9b44 a2bc 8085 503e a3e9 f23d b2e8 023e
000002d0: 982a 1f3e 5f19 fa3c 3091 39bc 4d64 17be
000002e0: 5052 963d 40c4 473d 697e 2ebd ba39 e3bd
000002f0: 53e5 323d 0749 133e 0046 a1bd 7a32 3d3d
00000300: 28a0 f83d 7d2e 143c 362b 4e3c b776 ba3c
00000310: b6bd a6bc 3d06 56be efd9 a7bd f6c1 513d
00000320: 9260 143d 46bd de3d 73ee f5bc ce70 03bc
00000330: 7dfc a9bd 26fd 013e cb09 e23d 1517 f43c
00000340: e97a 263d aa2d e93c 1b25 87bd f365 9c3d
00000350: 197b 2bbc b98b 6bbd 7549 ffbd 6da9 02be
00000360: 735e e33c 172e a3bd 4f3d b2bd 16b5 97bd
00000370: a154 7abd 24d3 b73d 069d eb3d a3eb 04be
00000380: 5970 71bd be3e 1f3d 904a 86be 85d0 7abd
00000390: 7297 2abd d179 d9bd 9808 9d3d 8c6e 823c
000003a0: 3486 f63c 6eb3 0fbd 281f f03d 0fc7 86bc
000003b0: 1247 2c3d 1c01 203e d531 16bd 4063 45be
000003c0: 193a 02bd 187a aabd 37ea 993d dab0 5e3e
000003d0: 281a 13bb b2cd f4bc c2e5 54bd 54c6 ad3c
000003e0: 8459 7e3c d1ce 7b3c 845f 67bd 3a5b a6bc
000003f0: bdbe 9f3b 14c8 1ebd f40a 6e3d 399c 4c3d

network.9.bias f4 [63]
0.49863976 0.510241 0.49907196 0.49431837 0.4987442 0.49743953 0.5128563 0.5024526
0.5013233 0.4949302 0.49416372 0.4930835 0.4937349 0.49644077 0.48659936 0.5078928
0.49700293 0.49808687 0.49989825 0.51920974 0.49854302 0.5029985 0.5020641 0.5017515
0.493239 0.5270241 0.5008919 0.4928212 0.49825037 0.49966538 0.4916838 0.49426875
0.508132 0.4942099 0.5066827 0.4983979 0.49362552 0.4961951 0.51168346 0.5114975
0.4917382 0.49490333 0.48252463 0.4998227 0.5093207 0.486289 0.49426326 0.5000884
0.49895063 0.51415163 0.49955377 0.51599056 0.49566823 0.49951607 0.4959195 0.49314755
0.52451015 0.51627547 0.49778154 0.5130626 0.4932383 0.49503952 0.5421546
00000000: b64d ff3e 279f 023f 5c86 ff3e 4c17 fd3e
00000010: 665b ff3e 65b0 fe3e 8d4a 033f bca0 003f
00000020: b956 003f 7e67 fd3e 0703 fd3e 7175 fc3e
00000030: d2ca fc3e 7c2d fe3e 8d23 f93e 4305 023f
00000040: 2b77 fe3e 3e05 ff3e aaf2 ff3e eeea 043f
00000050: 0841 ff3e 82c4 003f 4687 003f c972 003f
00000060: d289 fc3e 0deb 063f 743a 003f 0f53 fc3e
00000070: ac1a ff3e 24d4 ff3e fbbd fb3e cb10 fd3e
00000080: f014 023f 1409 fd3e f5b5 013f 022e ff3e
00000090: 7cbc fc3e 490d fe3e b0fd 023f 80f1 023f
000000a0: 1cc5 fb3e f863 fd3e 780d f73e c3e8 ff3e
000000b0: d762 023f dffa f83e 1310 fd3e cb05 003f
000000c0: 7576 ff3e 719f 033f 83c5 ff3e f517 043f
000000d0: 3ac8 fd3e 92c0 ff3e 29e9 fd3e d67d fc3e
000000e0: 4c46 063f a12a 043f 39dd fe3e 1258 033f
000000f0: bb89 fc3e d275 fd3e a5ca 0a3f

network.10.running_mean f4 [63]
0.46679702 0.35133007 0.50690424 0.41448712 0.5347805 0.6917041 0.57303584 0.6188916
0.51942605 0.501364 0.5499033 0.5396697 0.6214991 0.5263587 0.46496615 0.55401987
0.41783506 0.48438096 0.6997142 0.5794183 0.5529095 0.33767292 0.56892884 0.2405824
0.41543224 0.5668581 0.42146096 0.597557 0.49679068 0.4360748 0.5724588 0.6229979
0.65590507 0.4269551 0.45752308 0.23089583 0.48659733 0.5818422 0.60848033 0.54720503
0.70510495 0.3489801 0.6330979 0.6505705 0.61801755 0.41001663 0.48869497 0.607909
0.6596539 0.41097853 0.32110497 0.4785293 0.64866066 0.29685855 0.8879555 0.5055145
0.6941292 0.60990095 0.46603224 0.49198878 0.44963792 0.4205455 0.5291958
00000000: 0500 ef3e 89e1 b33e 7ac4 013f a837 d43e
00000010: 60e7 083f 8513 313f 7ab2 123f ae6f 1e3f
00000020: 1bf9 043f 6459 003f 76c6 0c3f cb27 0a3f
00000030: 911a 1f3f 72bf 063f 0b10 ee3e 3fd4 0d3f
00000040: 7aee d53e c800 f83e 7820 333f c254 143f
00000050: 7a8b 0d3f 77e3 ac3e 52a5 113f 3c5b 763e
00000060: 89b3 d43e 9d1d 113f bbc9 d73e 7ff9 183f
00000070: 595b fe3e 3245 df3e a98c 123f ca7c 1f3f
00000080: 65e9 273f dc99 da3e 7740 ea3e f56f 6c3e
00000090: 4923 f93e 9cf3 143f 5ec5 1b3f a115 0c3f
000000a0: c281 343f 85ad b23e b412 223f ca8b 263f
000000b0: 6636 1e3f b3ed d13e 3a36 fa3e ed9f 1b3f
000000c0: 14df 283f c76b d23e df67 a43e cb01 f53e
000000d0: a00e 263f d8fd 973e 0d51 633f 6669 013f
000000e0: 74b2 313f 7822 1c3f c79b ee3e f4e5 fb3e
000000f0: f136 e63e bd51 d73e 6079 073f

network.10.running_var f4 [63]
0.185758 0.18066035 0.08373703 0.11521954 0.11271178 0.14235084 0.18235636 0.28262866
0.13023789 0.2512784 0.06477904 0.21785219 0.24287802 0.1134457 0.107338294 0.15757391
0.07188866 0.19960473 0.102109 0.11646278 0.10349744 0.036025 0.05567017 0.11253798
0.06297323 0.23312742 0.066689745 0.052392304 0.045229156 0.04932949 0.08723262 0.15989204
0.17978528 0.100814685 0.114748396 0.33584195 0.0833068 0.12530428 0.1097555 0.11005549
0.07866966 0.06118295 0.14868373 0.1384947 0.106477596 0.0598569 0.14931823 0.12673336
0.09925784 0.116926685 0.32175905 0.028614387 0.0963756 0.15246862 0.080994025 0.19602486
0.23207325 0.21929552 0.15276706 0.10320361 0.081028245 0.082606524 0.024883144
00000000: 5837 3e3e 07ff 383e 527e ab3d 39f8 eb3d
00000010: 6fd5 e63d 6bc4 113e a0bb 3a3e b4b4 903e
00000020: 155d 053e 90a7 803e e0aa 843d a514 5f3e
00000030: 04b5 783e 3856 e83d 2ed4 db3d 0e5b 213e
00000040: 5d3a 933d 2f65 4c3e 861e d13d 0a84 ee3d
00000050: 77f6 d33d f38e 133d 6706 643d 507a e63d
00000060: 1cf8 803d f4b8 6e3e a294 883d 5099 563d
00000070: 3542 393d b80d 4a3d 04a7 b23d bdba 233e
00000080: a219 383e ee77 ce3d 3501 eb3d 7af3 ab3e
00000090: c19c aa3d c44f 003e 7ec7 e03d c664 e13d
000000a0: 8f1d a13d f99a 7a3d 8c40 183e 8ed1 0d3e
000000b0: ed10 da3d 822c 753d e1e6 183e 64c6 013e
000000c0: b247 cb3d 4277 ef3d 9abd a43e b868 ea3c
000000d0: 9260 c53d bc20 1c3e 32e0 a53d beba 483e
000000e0: 9ca4 6d3e 018f 603e f86e 1c3e 6a5c d33d
000000f0: 23f2 a53d 9c2d a93d bcd7 cb3c

network.12.weight f4 [63, 63]
0.14753948 0.00047436458 0.0077180127 0.04222976 0.025755325 0.0030173003 -0.017863678 0.114604816
0.037233964 -0.05216473 -0.12346872 0.08441364 0.029876476 -0.16480792 0.18959257 0.044617303
-0.063395545 -0.038335722 0.004448461 -0.012657871 0.091962375 0.038395975 0.041096065 -0.062215615
-0.10046467 0.14120531 0.01192539 -0.07166172 0.043742217 0.02332064 0.12323501 0.11459804
0.045698844 0.012880901 0.09290821 0.08238324 -0.015790014 -0.064959235 0.08331211 0.12266141
0.02799164 0.15035541 -0.057828147 -0.04104855 0.04128033 -0.0072078165 -0.16880956 -0.043040726
0.02652052 0.087486655 -0.00990811 -0.043892946 -0.048598077 0.11789916 -0.047790326 0.16694336
0.12850519 -0.08099348 -0.12750272 0.104159415 0.088086806 -0.11579717 -0.0073177433 -0.026938723
-0.086102605 0.01520422 0.040414073 -9.13675e-05 0.06244458 0.027422478 0.0063534863 -0.0010068766
-0.17440619 0.12824793 -0.06352043 0.082635306 -0.019145662 -0.055980906 0.1338438 -0.09432658
-0.10899118 -0.16335495 -0.07858828 0.10894913 -0.22099327 0.05668191 0.057051513 -0.07145138
0.0060382537 0.10703053 -0.09610929 -0.21833503 0.032110292 0.10518741 0.104752816 0.06615541
0.016173767 -0.10890844 -0.106229685 0.18444425 0.05675015 0.07885962 -0.091426924 -0.10200316
-0.024714896 -0.0052038864 -0.10538588 -0.016850568 0.045664564 0.045861613 0.030145463 -0.04752851
0.14318012 -0.10062532 -0.0429939 -0.10688209 0.05184731 0.007593372 -0.089408964 0.01576586
-0.009590101 0.057936646 -0.022876203 -0.03456517 -0.047992352 0.2598169 0.05616358 0.15309007
-0.07674778 0.1316433 0.06567464 -0.06896405 0.11487311 0.05007636 -0.096766196 -0.15157224
0.027997434 -0.13444386 -0.0039310637 0.016174352 -0.019694438 0.12393665 0.09579201 -0.10053052
0.06063353 0.14598748 -0.10145025 -0.05965371 0.06402347 0.14373142 -0.13366514 0.12670988
-0.13051122 -0.1261412 0.033541597 0.018491037 -0.036044594 0.14649424 0.032876562 -0.03731648
0.022364516 0.24593005 -0.077676125 -0.10380218 0.040008005 0.06294859 0.0064451033 0.11424705
0.063751824 -0.09262574 0.0640282 0.0023281006 -0.06287075 0.056964353 0.045832183 0.13697553
0.08889296 0.031555537 -0.09080088 0.009013967 -0.0005639963 0.06402262 -0.08114944 -0.041498724
-0.06860242 -0.01972035 0.023565954 -0.062617324 0.0014028675 0.03702061 -0.0034713838 0.03144494
-0.044297162 0.06354666 0.07975545 -0.03053018 0.013826608 0.03826538 -0.08957699 -0.106922045
-0.0058820955 -0.09125615 0.031932727 0.09885868 0.07618023 -0.08811978 -0.0097630145 -0.068926305
0.08794544 0.03759813 0.030080795 -0.13334297 0.011274618 -0.15109973 0.10352406 0.074090295
0.017223243 0.036942896 0.03343674 0.09470438 0.07866937 0.08811458 -0.069575764 -0.01789147
0.093105696 0.023990925 0.008574546 0.15749976 0.16133013 -0.16149496 0.17641565 -0.14392814
0.028822843 -0.02923058 -0.05012461 -0.1908336 -0.10206222 -0.033648197 0.085019685 0.039425485
-0.09568079 -0.13669024 -0.026121793 0.00066445133 0.16942115 0.051176153 0.118992135 -0.03965595
0.052914858 -0.032463543 -0.0001586795 0.006079605 0.029255332 0.064951606 0.027089054 0.0033497626
00000000: 9714 173e 23b4 f839 62e7 fc3b 1df9 2c3d
00000010: d5fc d23c e6bd 453b d956 92bc eeb5 ea3d
00000020: a482 183d afaa 55bd 2bdd fcbd 0fe1 ac3d
00000030: 83bf f43c 68c3 28be 8e24 423e a2c0 363d
00000040: 86d5 81bd eb05 1dbd 65c4 913b f562 4fbc
00000050: c556 bc3d 1945 1d3d 5954 283d cdd5 7ebd
00000060: 6cc0 cdbd 2098 103e b662 433c 61c3 92bd
00000070: 0a2b 333d ed0a bf3c a362 fc3d 61b2 ea3d
00000080: b62e 3b3d 6a0a 533c a946 be3d 8bb8 a83d
00000090: 0f5a 81bc 5909 85bd 8a9f aa3d e835 fb3d
000000a0: b94e e53c c5f6 193e 35dd 6cbd 8622 28bd
000000b0: 9015 293d 8c2f ecbb 6adc 2cbe 794b 30bd
000000c0: 9041 d93c 342c b33d a055 22bc 17c9 33bd
000000d0: c70e 47bd 1d75 f13d cabf 43bd 33f3 2a3e
000000e0: dd96 033e e9df a5bd 1390 02be 8851 d53d
000000f0: db66 b43d 1127 edbd aec9 efbb 99ae dcbc
00000100: 9056 b0bd 1f1b 793c 3a89 253d 8e9c bfb8
00000110: e3c5 7f3d 1ba5 e03c e830 d03b 2cf9 83ba
00000120: 8997 32be 6d53 033e 0017 82bd b33c a93d
00000130: 5dd7 9cbc 3c4c 65bd 590e 093e 4b2e c1bd
00000140: c536 dfbd 8546 27be e4f2 a0bd b920 df3d
00000150: 0f4c 62be 4a2b 683d d9ae 693d 1a55 92bd
00000160: 8bdc c53b d332 db3d f3d4 c4bd 3893 5fbe
00000170: 1586 033d 7f6c d73d a588 d63d 7d7c 873d
00000180: d97e 843c 630b dfbd f38e d9bd f4de 3c3e
00000190: d872 683d 2781 a13d 0a3e bbbd 08e7 d0bd
000001a0: e576 cabc 5d85 aabb 8dd4 d7bd 340a 8abc
000001b0: c40a 3b3d 63d9 3b3d 9ef3 f63c 41ad 42bd
000001c0: cf9d 123e a614 cebd 5f1a 30bd ffe4 dabd
000001d0: d85d 543d d2d1 f83b 0c1c b7bd 6827 813c
000001e0: cd1f 1dbc fa4e 6d3d e066 bbbc 3594 0dbd
000001f0: a193 44bd b906 853e c80b 663d a5c3 1c3e
00000200: f12d 9dbd 80cd 063e 6d80 863d 063d 8dbd
00000210: 9842 eb3d df1c 4d3d 5b2d c6bd c135 1bbe
00000220: e05a e53c a7ab 09be 27d0 80bb 1380 843c
00000230: 3b56 a1bc 80d2 fd3d 9a2e c43d f2e2 cdbd
00000240: dd5a 783d be7d 153e 26c5 cfbd 7357 74bd
00000250: bd1e 833d 542e 133e 84df 08be 3cc0 013e
00000260: bca4 05be 292b 01be ea62 093d 847a 973c
00000270: 7fa3 13bd 9602 163e 93a9 063d 2ad9 18bd
00000280: ca35 b73c 16d5 7b3e a914 9fbd 3d96 d4bd
00000290: 6fdf 233d 31eb 803d 7231 d33b 5bfa e93d
000002a0: 5190 823d 90b2 bdbd 3821 833d 0c93 183b
000002b0: 61c2 80bd 7453 693d 87ba 3b3d 5043 0c3e
000002c0: 830d b63d 6140 013d d0f5 b9bd 51af 133c
000002d0: 27d9 13ba 4b1e 833d ad31 a6bd 91fa 29bd
000002e0: 6d7f 8cbd 928c a1bc 630d c13c 833d 80bd
000002f0: 6ce0 b73a eca2 173d 2880 63bb 69cc 003d
00000300: f170 35bd c024 823d d356 a33d 6e1a fabc
00000310: ff88 623c 29bc 1c3d 2474 b7bd f2f9 dabd
00000320: 98be c0bb 81e4 babd e4cb 023d 6b76 ca3d
00000330: 6104 9c3d 2578 b4bd 0df5 1fbc 3c29 8dbd
00000340: bd1c b43d 7f00 1a3d 006c f63c 0f8b 08be
00000350: 2db9 383c e3b9 1abe 6c04 d43d a7bc 973d
00000360: c217 8d3c 6f51 173d f7f4 083d 5ff4 c13d
00000370: 681d a13d 6b75 b43d bd7d 8ebd 2291 92bc
00000380: 33ae be3d 9e88 c43c 417c 0c3c 9e47 213e
00000390: ba33 253e ef5e 25be 4ea6 343e e661 13be
000003a0: e21d ec3c f874 efbc 774f 4dbd e269 43be
000003b0: ff05 d1bd b1d2 09bd cd1e ae3d 9e7c 213d
000003c0: 4af4 c3bd 87f8 0bbe 5ffd d5bc 932e 2e3a
000003d0: bd7c 2d3e 169e 513d 26b2 f33d 476e 22bd
000003e0: 40bd 583d 7ef8 04bd 3463 26b9 6c37 c73b
000003f0: e1a8 ef3c 5905 853d dde9 dd3c b187 5b3b
