src/runs/ann_left_hand/20241106/20241106-1651/ann_left_hand_5_layers_best.pth (torch, 321584 bytes, 34 tensors)

network.0.weight f4 [126, 141]
0	0x3d92c5b3	0.071666144
1	0x3c0a65a2	0.008447083
2	0x3d8371b7	0.06418174
3	0xbc9990bc	-0.018745773
4	0x3dbcfe93	0.09228244
5	0x3e1d94ca	0.1538879
6	0x3e120f80	0.14263725
7	0x3d984c25	0.074363984
8	0x3d8ce5d6	0.06879775
9	0x3e0217db	0.12704413
10	0x3d462063	0.04837073
11	0x3de8c8f7	0.11366456
12	0x3d4cb2bd	0.049975146
13	0x3da53534	0.08066788
14	0x3d8ea09b	0.06964227
15	0x3e07f488	0.13276875
16	0x3df90e69	0.12160952
17	0x3e1e7544	0.15474421
18	0x3d1143a8	0.035464913
19	0x3d639ccc	0.055569455
20	0x3de4f255	0.11179034
21	0x3d6e90c5	0.05824353
22	0x3b8b68fe	0.0042544594
23	0xbc47681d	-0.012170819
24	0x3dbc482c	0.09193453
25	0x3dec5e5e	0.115414366
26	0x3c5045ba	0.012711937
27	0xbd08e92c	-0.033425495
28	0x3d8e4500	0.069467545
29	0x3c28ef87	0.010311014
30	0xbd88dcae	-0.06682716
31	0xbcaf1152	-0.021370564
32	0xbc726d5a	-0.014796579
33	0xbb5ffdd5	-0.0034178395
34	0xbb1a1c65	-0.002351546
35	0xbd74597f	-0.059655663
36	0x3ca83bf3	0.020536399
37	0xbc89071d	-0.016727025
38	0xbcb0bc87	-0.021574272
39	0xbd42e0c2	-0.047577627
40	0x3d496625	0.04916968
41	0x3d634c7e	0.05549287
42	0x3b722a5b	0.0036951515
43	0x3dc545c9	0.09632451
44	0xbcf37f15	-0.029723683
45	0x3bae6175	0.0053216764
46	0x3b4fadaf	0.0031689217
47	0x3d08cb34	0.033396915
48	0xbd3e2856	-0.046425186
49	0x3d021eb7	0.031767573
50	0x3c1648fe	0.009172676
51	0xbd15a348	-0.03653267
52	0x3c4fd9ce	0.012686206
53	0x3d8358b1	0.06413401
54	0x3cd175fa	0.02556895
55	0x3bbeae7a	0.005819139
56	0xbb4408fa	-0.0029912577
57	0x3c9fcada	0.019505907
58	0xbc866a2d	-0.01640805
59	0xbdcc8a60	-0.099873304
60	0x3ce2075d	0.027591402
61	0xbd0ebbc6	-0.034847043
62	0x3cf93a7f	0.0304234
63	0x3c935c34	0.017988302
64	0xbd8b2b2a	-0.06795342
65	0xbd15b27c	-0.03654717
66	0x3d041ad5	0.03225215
67	0x3d419616	0.047262274
68	0xbd0d9add	-0.034571517
69	0xbb3d3af7	-0.0028874257
70	0xbd5029e5	-0.050821204
71	0xbdfb387c	-0.12266633
72	0xbd93ad10	-0.072107434
73	0xbd96153d	-0.0732827
74	0xbd9a90f6	-0.0754718
75	0x3d749073	0.05970807
76	0xbdaa6437	-0.08319896
77	0xbe0eef93	-0.13958578
78	0xbd9ca694	-0.0764896
79	0xbaa3ee1e	-0.0012506878
80	0xbe57dd9f	-0.21080635
81	0xbdd07df0	-0.10180271
82	0xbd8f8cfa	-0.07009311
83	0xbd8fda71	-0.07024086
84	0xbd8f11db	-0.069858275
85	0x3d986346	0.0744081
86	0xbcdc1713	-0.026866471
87	0xbcefdac5	-0.029279122
88	0xbd1dcad7	-0.03852352
89	0x3dcba816	0.09944169
90	0xbd7858ea	-0.06063167
91	0x3df2445c	0.11829445
92	0x3e11952b	0.1421706
93	0x3e118bbc	0.1421346
94	0xbcc7af0b	-0.02437546
95	0x3e086642	0.13320258
96	0x3d891e89	0.06695277
97	0x3e20a7ef	0.15689062
98	0x3d8785b9	0.066173024
99	0x3dc4d5a9	0.09611065
100	0x3d288f5d	0.041152347
101	0x3d1121a2	0.035432465
102	0xbc4514b6	-0.012028864
103	0x3d0f579d	0.034995664
104	0x3dcefad5	0.10106436
105	0x3d43823d	0.047731627
106	0x3ae254d6	0.0017267715
107	0xbb362fd5	-0.0027799506
108	0x3d5c48db	0.053780418
109	0xbd89a020	-0.067199945
110	0x3b1aef3a	0.0023641125
111	0xbe330332	-0.17481688
112	0xbd3917a3	-0.045188557
113	0xbdff203c	-0.1245732
114	0xbd1f6a93	-0.038919996
115	0x3d3c826a	0.04602281
116	0x3db19294	0.08670536
117	0xba4dcc99	-0.0007850617
118	0xbc4771fb	-0.012173171
119	0xbbeee1c8	-0.007290099
120	0x3cc60a98	0.024174973
121	0x3a991730	0.0011679884
122	0x3d10a676	0.035315
123	0xbcde33b3	-0.027124261
124	0x3db3c564	0.08777884
125	0xbcfb9a8b	-0.03071334
126	0x3d8fcfa7	0.070220284
127	0x3d4f0daf	0.05055016
128	0x3da7f486	0.08200936
129	0x3cfb852e	0.030703153
130	0xbbcaa5de	-0.0061843237
131	0xbc2f86b3	-0.010713267
132	0x3dda26b7	0.106519155
133	0x3de012db	0.109410964
134	0x3d68491b	0.056710344
135	0xbbc1070f	-0.005890734
136	0xbdfd5332	-0.12369384
137	0xbe01496b	-0.12625663
138	0xbd90e619	-0.07075138
139	0xbdb3a7f2	-0.087722674
140	0xbd9f7903	-0.07786753
141	0xbd2b3a51	-0.04180366
142	0x3d3763c8	0.044772893
143	0x3d987ad1	0.074453
144	0x3d866677	0.06562512
145	0x3cc8805d	0.02447527
146	0xbc583aad	-0.013197583
147	0x3d6bbf67	0.057555582
148	0x3cd745b1	0.026278349
149	0xbd0abad8	-0.033869594
150	0x3ba04d77	0.004892047
151	0x3c278492	0.010224478
152	0x3da46af0	0.08028209
153	0xbc83bf18	-0.016082332
154	0x3cb572b3	0.02214942
155	0x3c25c9cc	0.010118913
156	0x3c8eac0f	0.017416028
157	0x3dc50e26	0.09621839
158	0xbc3b8223	-0.011444601
159	0x3c054ffc	0.008136746
160	0x3c4a9ffb	0.012367244
161	0xbd0fe8af	-0.035134014
162	0xbd5fdc6f	-0.05465358
163	0xbd459302	-0.0482359
164	0x3dee3ed4	0.11633077
165	0x3c8d3022	0.017234866
166	0x3d657b86	0.056026004
167	0xbd851144	-0.06497434
168	0xba362c19	-0.000694932
169	0x3bd489cd	0.0064861537
170	0xbcd82716	-0.026385825
171	0xbd7d235b	-0.061801296
172	0xbd912b33	-0.07088318
173	0x3bec5c22	0.0072131315
174	0x3c9260e8	0.017868474
175	0x3cc8dfe1	0.024520816
176	0xbbaf9846	-0.0053587286
177	0x3d1a1024	0.03761305
178	0x3c4e2ba3	0.012583646
179	0xbd0d9526	-0.034566067
180	0xbdadbba5	-0.08483056
181	0xbd6c78f9	-0.057732556
182	0xbc9dfe34	-0.019286253
183	0xbe010800	-0.12600708
184	0xbd6f3900	-0.05840397
185	0xbdd7b3a7	-0.10532313
186	0x3e3ad616	0.1824573
187	0xbd4cd7b3	-0.050010394
188	0xbd003d5b	-0.031308513
189	0xbd5c0a92	-0.053721018
190	0xbd21dcc7	-0.03951719
191	0xbc0e1e44	-0.008674208
192	0x3c27737d	0.010220406
193	0xbd09ff60	-0.03369081
194	0x3d02bceb	0.031918447
195	0x3d18e55d	0.037328113
196	0xbd1727af	-0.03690308
197	0xbd1ac6e5	-0.037787337
198	0xbca96f76	-0.020683032
199	0xbd210f66	-0.039321326
200	0x3c0f19ab	0.008734147
201	0xbd797f7b	-0.06091259
202	0xbdae1509	-0.08500106
203	0xbdc993b5	-0.09842626
204	0xbd0f235c	-0.03494583
205	0xbd2105c1	-0.039312128
206	0xbdfb558b	-0.122721754
207	0xbd8cc24c	-0.06872997
208	0xbd2a3053	-0.04154999
209	0xbc75240a	-0.014962206
210	0x3d0ebe3c	0.03484939
211	0x3c837e09	0.01605131
212	0xbcae12a3	-0.021249121
213	0x3d55ef64	0.052230254
214	0xbc6c1d98	-0.014411353
215	0xbd585ddf	-0.052823897
216	0x3c64c323	0.01396254
217	0x3d0968d7	0.03354725
218	0xbd4875b5	-0.04894038
219	0x3bcfd293	0.006342241
220	0xbb9afeea	-0.004730095
221	0xbd984f43	-0.07436993
222	0xbb90e1ed	-0.0044214637
223	0xbc8f18ca	-0.017467875
224	0xbdaffb43	-0.08592846
225	0x3a01f7a2	0.00049578596
226	0x3cd0b1fe	0.025475498
227	0x3e09aa91	0.13443972
228	0xbd13a543	-0.036046278
229	0xbce4ea19	-0.027943658
230	0xbdc7c2d1	-0.09753955
231	0x3d757669	0.059927378
232	0x3cccb328	0.024987772
233	0x3c11bd85	0.008895283
234	0x3e00c17f	0.12573813
235	0x3dbfd04b	0.093659006
236	0x3d409b9d	0.047023404
237	0x3cc58a77	0.024113877
238	0x3d073488	0.033009082
239	0x3a8c54c1	0.0010706411
240	0xbd7435a3	-0.059621464
241	0x3b9ee45b	0.0048489994
242	0x3d6ec9fe	0.058298104
243	0x3d387363	0.045031916
244	0xbdc0b156	-0.09408824
245	0xbda223f8	-0.07917017
246	0x3d4779d5	0.048700172
247	0x3ccb668c	0.024829172
248	0x3d870c58	0.06594151
249	0x3cc04ee0	0.02347511
250	0x3a6ca37c	0.00090270466
251	0x3dc23a2b	0.09483751
252	0xbde97dd8	-0.11400956
253	0x3d153543	0.036427747
254	0x3c826e50	0.015921742
255	0x3c7bfe3d	0.015380439

network.0.bias f4 [126]
0	0x3efb64b8	0.4910028
1	0x3f186863	0.5953428
2	0x3efba8ea	0.4915231
3	0x3ed2cb54	0.41170752
4	0x3f0cc5c6	0.5498928
5	0x3ee5b9cc	0.44868314
6	0x3f1f75e8	0.62289286
7	0x3f318101	0.6933747
8	0x3ef11f9f	0.47094437
9	0x3f0e037e	0.5547408
10	0x3f07bf2e	0.5302609
11	0x3f1bb13b	0.6081731
12	0x3f148cae	0.5802716
13	0x3f0d2b33	0.5514404
14	0x3ef92e0f	0.48667952
15	0x3f00a23e	0.5024756
16	0x3ee2226d	0.4416689
17	0x3ef44cf6	0.47714967
18	0x3f1495e5	0.5804122
19	0x3ecd8824	0.4014293
20	0x3f157513	0.58381766
21	0x3f092985	0.5357898
22	0x3f03158b	0.51204747
23	0x3f1b0701	0.6055756
24	0x3ee9da02	0.4567414
25	0x3f2d0137	0.6757998
26	0x3f1689ff	0.58804315
27	0x3efa36de	0.48869985
28	0x3f028522	0.50984395
29	0x3f1cb7b9	0.6121784
30	0x3f3037c9	0.6883512
31	0x3f07b8b7	0.5301623
32	0x3eef1905	0.46698776
33	0x3f17a7a9	0.59240204
34	0x3ee761d1	0.45191815
35	0x3ea938dc	0.33051193
36	0x3eeaed23	0.45884046
37	0x3eeb9b33	0.46016845
38	0x3ee66359	0.4499767
39	0x3f0b1873	0.5433418
40	0x3eff1886	0.49823397
41	0x3f0ee419	0.558168
42	0x3f281708	0.6566014
43	0x3f20d002	0.62817395
44	0x3f176e7a	0.5915295
45	0x3ef4697f	0.47736737
46	0x3f14378e	0.5789727
47	0x3f0358e2	0.513075
48	0x3ed868d5	0.4226748
49	0x3ed86f25	0.42272297
50	0x3eae5084	0.34045804
51	0x3f0316ca	0.5120665
52	0x3f117a7c	0.5682752
53	0x3f078046	0.52930105
54	0x3f09eb00	0.53874207
55	0x3f3e92db	0.74442834
56	0x3ee88852	0.45416504
57	0x3f107457	0.5642752
58	0x3ed68674	0.41899455
59	0x3f0a51b9	0.5403095
60	0x3effc493	0.49954662
61	0x3ee86aa3	0.45393857
62	0x3f19e84f	0.601201
63	0x3ec901dd	0.39259234
64	0x3ed2faad	0.41206875
65	0x3ee9ce3e	0.45665163
66	0x3f219fd3	0.631345
67	0x3eefee0d	0.46861306
68	0x3f0d7cce	0.5526856
69	0x3f113098	0.56714773
70	0x3ebda0d5	0.37036768
71	0x3f14c946	0.5811962
72	0x3f05cec9	0.52268654
73	0x3eae445c	0.3403653
74	0x3f181953	0.5941364
75	0x3f266626	0.64999616
76	0x3f1f12e3	0.62138194
77	0x3f0a421a	0.5400711
78	0x3ef8f56f	0.4862475
79	0x3f17f1f0	0.5935354
80	0x3f08d9cc	0.5345733
81	0x3f081ecc	0.5317199
82	0x3ee41c84	0.44553006
83	0x3e87de26	0.26536673
84	0x3ed70927	0.4199917
85	0x3f0b2a86	0.5436176
86	0x3f13a52f	0.57673925
87	0x3f0921f3	0.5356743
88	0x3f21162d	0.6292446
89	0x3f09b881	0.53797156
90	0x3f1eae7e	0.61985004
91	0x3f00c839	0.50305516
92	0x3f0456c6	0.51694906
93	0x3ef6f64c	0.48234785
94	0x3f180779	0.593864
95	0x3ed29223	0.41127118
96	0x3f06348f	0.5242395
97	0x3f049eed	0.51805
98	0x3f10b5c9	0.5652738
99	0x3efb6643	0.49101457
100	0x3efebf79	0.49755457
101	0x3ef3d722	0.4762507
102	0x3f24e085	0.6440509
103	0x3eedb60f	0.46427962
104	0x3f15b473	0.5847847
105	0x3efd7666	0.49504393
106	0x3eea369f	0.45744798
107	0x3f06e45c	0.526922
108	0x3f154503	0.5830843
109	0x3ef6c212	0.4819494
110	0x3ee514b2	0.44742352
111	0x3f038e43	0.5138895
112	0x3f012811	0.5045176
113	0x3ef85287	0.48500463
114	0x3f0ddd74	0.55416036
115	0x3ed1f724	0.41008866
116	0x3f0f3010	0.5593271
117	0x3f075880	0.52869415
118	0x3f1148b5	0.5675157
119	0x3f13cebd	0.5773733
120	0x3f02ebbc	0.5114095
121	0x3f1ef659	0.62094647
122	0x3f0ada02	0.54238904
123	0x3f1ff51d	0.6248339
124	0x3f00d8f6	0.50331056
125	0x3ece1361	0.4024916

network.1.running_mean f4 [126]
0	0x3f80d7f8	1.0065908
1	0x3f3d3ac3	0.7391779
2	0x3f5dc9ef	0.8663625
3	0x3e4cecf2	0.20012262
4	0x3f8984be	1.0743635
5	0x3d750bfd	0.059825886
6	0x3ee9fc5f	0.45700356
7	0x3f1d6690	0.6148462
8	0x3e02f3ac	0.12788266
9	0x3ec93a5f	0.39302346
10	0x3cca256c	0.024676047
11	0xbd61db64	-0.055140868
12	0x3dc71b88	0.09722048
13	0xbf38a181	-0.72121435
14	0x3e26dd8e	0.16295454
15	0xbe2a760e	-0.16646597
16	0x3d29c883	0.04145099
17	0xbf02bde2	-0.5107099
18	0xbf488680	-0.7833023
19	0x3f7f10a9	0.99634796
20	0x3ee079e3	0.43842992
21	0x3ef6a694	0.48173964
22	0x3ee1b1de	0.44081014
23	0x3edf65b4	0.4363228
24	0x3de441b9	0.11145348
25	0xbee320ba	-0.44360906
26	0x3fb1fb07	1.3904732
27	0x3e9f2476	0.31082505
28	0x3fb69331	1.4263669
29	0x3f2907c2	0.6602746
30	0xbf5da368	-0.86577463
31	0x3f7542d2	0.95805085
32	0x3d8c33b3	0.06845798
33	0xbebcc2ea	-0.36867458
34	0xbf2597d9	-0.64684826
35	0x3e727485	0.23677261
36	0xbe148833	-0.14505081
37	0x3f753551	0.9578448
38	0x3f33f0c4	0.70289254
39	0x3fadc871	1.3576795
40	0x3f569083	0.8381426
41	0x3f9b2003	1.2119144
42	0xbf41f2bc	-0.7576101
43	0x3f40948e	0.75226676
44	0x3f40dc9b	0.7533662
45	0x3f924876	1.1428363
46	0x402e164d	2.7201111
47	0x3e1e7316	0.1547359
48	0x3f0eccdf	0.5578136
49	0x3fa334fa	1.2750542
50	0x3effaafa	0.49935132
51	0xbd9b88fa	-0.075944856
52	0x3f5434d8	0.82893133
53	0x3f9bea3e	1.218086
54	0x3f085229	0.53250366
55	0x3f4a04de	0.78913677
56	0xbf9db3be	-1.2320478
57	0x3f8e29bb	1.1106485
58	0x3e1fad55	0.15593465
59	0x3ea44c6d	0.32089558
60	0xbe93ec14	-0.2889105
61	0x3f92f956	1.1482341
62	0x3e363287	0.17792712
63	0x3eac7a13	0.33686885
64	0x3fc1fb96	1.5154903
65	0x3eb2c3b0	0.34914923
66	0x3ee6a5cf	0.45048377
67	0x3f501de3	0.81295604
68	0xbe05cf50	-0.13067365
69	0x3f118ddd	0.5685709
70	0x3f3889fd	0.72085553
71	0xbe8584cb	-0.26077875
72	0x3eac87ce	0.3369736
73	0x3fde95c2	1.7389452
74	0x3c18e6c3	0.009332362
75	0x3e168f95	0.1470321
76	0x3f4ebe91	0.8075953
77	0x3fb6292f	1.4231318
78	0x3e801221	0.2501383
79	0x3eb7442c	0.357942
80	0x3f5312ad	0.8245037
81	0x3ff526a7	1.9152421
82	0x3d1932a0	0.037401795
83	0x3fb07a38	1.3787298
84	0x3f9658b3	1.1745819
85	0xbeb1167b	-0.34587464
86	0xbeca67dd	-0.39532366
87	0x3dcf79cf	0.10130655
88	0xbfab2212	-1.3369772
89	0x3f86a865	1.052014
90	0x3fd074f2	1.6285689
91	0xbedcf2ce	-0.43153995
92	0x3df557ce	0.11979638
93	0x3ec4a5ea	0.38407832
94	0xbe71e83e	-0.2362375
95	0x3f4398cc	0.76405025
96	0x3f6f4389	0.93462425
97	0x3f00dd73	0.50337905
98	0xbf8642a5	-1.0489088
99	0x3e27391b	0.16330378
100	0x3f8f34c2	1.1187975
101	0x3f5465cb	0.82967824
102	0xbf371a92	-0.7152492
103	0x3e2dd9cc	0.16977614
104	0x3f67f5c3	0.9060938
105	0x3ea25ec4	0.31712925
106	0x3f54eed4	0.8317692
107	0x3e55cff6	0.20880112
108	0x3ebb71d4	0.3661028
109	0xbed664c2	-0.41873747
110	0x3feb3ed8	1.8378553
111	0x3e6150fa	0.22003546
112	0xbe939b99	-0.2882965
113	0xbf9f8352	-1.2461951
114	0x3f8a1316	1.0787075
115	0x4008c2d0	2.1368904
116	0xbfcb5b7b	-1.5887293
117	0xbd8ab605	-0.06772999
118	0x3ff24eef	1.8930339
119	0x3f4a69a5	0.7906745
120	0x3e17f67e	0.14840123
121	0x3f7062fc	0.9390104
122	0x3d35dbd2	0.04439909
123	0x3f3228c9	0.69593483
124	0x3f5b6b84	0.8571093
125	0x3e91e328	0.2849362

network.1.running_var f4 [126]
0	0x3c4c630a	0.012474785
1	0x3ae01ca3	0.0017098378
2	0x3bce30ce	0.006292439
3	0x3bd2d042	0.0064335177
4	0x3c19612b	0.009361546
5	0x3b5e3267	0.0033904554
6	0x3b8b5aff	0.004252791
7	0x3b6a7e12	0.003578071
8	0x3c0a791b	0.008451725
9	0x3b51715f	0.0031958444
10	0x3b6fb683	0.0036577291
11	0x3bb60e06	0.005555871
12	0x3b9c9966	0.0047790287
13	0x3c3c9cdc	0.011512008
14	0x3bf235d6	0.0073916717
15	0x3bbb9c3a	0.0057254108
16	0x3c12cfbb	0.00896066
17	0x3c1aa4d0	0.009438708
18	0x3c3d7058	0.011562429
19	0x3b80bda7	0.0039288583
20	0x39dc846c	0.00042060332
21	0x3bcd984e	0.0062742596
22	0x3ae3198b	0.0017326338
23	0x3bf36a02	0.0074284086
24	0x3c4b5cc2	0.012412252
25	0x3bb8b99d	0.005637361
26	0x3c2a7ce4	0.010405753
27	0x3ac4bfc4	0.0015010764
28	0x3bc6f876	0.0060720993
29	0x3be6819d	0.007034494
30	0x3b91259d	0.0044295327
31	0x3b8986bf	0.004196971
32	0x3b950ec3	0.004548879
33	0x3b659ca0	0.0035035983
34	0x3bb15579	0.0054118005
35	0x3ba5cd58	0.0050598793
36	0x3c11f58b	0.00890864
37	0x3c9be789	0.019031303
38	0x3bb4ebd8	0.005521279
39	0x3bcda53d	0.0062758015
40	0x3b35ea3e	0.0027758027
41	0x3c382478	0.011239164
42	0x3c17d589	0.009267219
43	0x3b23eae0	0.0025011823
44	0x3bb70072	0.00558477
45	0x3c787a87	0.015165932
46	0x3c1fa538	0.009743981
47	0x3bc83a51	0.0061104675
48	0x3b8e1101	0.004335523
49	0x3be618bf	0.007021993
50	0x3b896035	0.004192377
51	0x3af778e5	0.0018880634
52	0x3b0c0e66	0.0021370887
53	0x3c2a038a	0.01037682
54	0x3bc560c8	0.0060235
55	0x3b23de39	0.0025004281
56	0x3bcfb6e3	0.0063389405
57	0x3c2e149d	0.010625032
58	0x3bf45320	0.0074561983
59	0x3b6bc88a	0.0035977685
60	0x3c845076	0.016151648
61	0x3bcb78d8	0.006209474
62	0x3a430095	0.00074387464
63	0x3b617f7b	0.003440826
64	0x3b808d59	0.0039231
65	0x3bdbf4ba	0.0067125233
66	0x3bfbb754	0.0076817665
67	0x3b40013c	0.002929761
68	0x3c1725dc	0.009225335
69	0x3a3a09e4	0.0007096811
70	0x3b1a0b34	0.0023505213
71	0x3b5c950c	0.0033658175
72	0x3c107704	0.008817438
73	0x3c0adc1f	0.0084753325
74	0x3b583b84	0.0032994458
75	0x3a35d743	0.00069366785
76	0x3be78958	0.007065933
77	0x3bb23334	0.005438233
78	0x3acb8c5d	0.0015529502
79	0x3bd9331c	0.006628407
80	0x3be62f04	0.0070246477
81	0x3c3f6c59	0.011683547
82	0x3b8f1cc0	0.004367441
83	0x3b096f96	0.0020971051
84	0x3b9a1fcc	0.0047034975
85	0x3b638804	0.0034718523
86	0x3bb58ca2	0.0055404464
87	0x3be23c0c	0.006904131
88	0x3c5a5739	0.01332646
89	0x3b8c3f7d	0.0042800293
90	0x3bf8f023	0.007596986
91	0x3bdafd40	0.006683022
92	0x3c36c602	0.011155607
93	0x3c81fc60	0.015867412
94	0x3bb35e94	0.005473921
95	0x3bc771a5	0.0060865455
96	0x3bc2ccb0	0.005944811
97	0x3c1531d9	0.009106123
98	0x3ce3bda5	0.02780039
99	0x3a22aec0	0.00062058493
100	0x3bade1c0	0.0053064525
101	0x3c21fbab	0.0098866625
102	0x3c907254	0.01763264
103	0x3bb455e2	0.005503402
104	0x3c24dd86	0.010062581
105	0x3c06c413	0.008225459
106	0x3c827250	0.01592365
107	0x3b6265dc	0.0034545576
108	0x3aca7e4a	0.0015449014
109	0x3bdddb34	0.006770516
110	0x3c828222	0.015931193
111	0x3bcbe229	0.0062220288
112	0x3b963403	0.004583837
113	0x3c93501a	0.017982531
114	0x3bacacc7	0.00526962
115	0x3c1e9570	0.009679183
116	0x3c792dc0	0.015208662
117	0x3becc9dd	0.0072262124
118	0x3babf6f5	0.0052479454
119	0x3bb8365d	0.005621715
120	0x3c08efed	0.008357984
121	0x3c0e616f	0.008690222
122	0x3ae560fc	0.0017500217
123	0x3b887d10	0.0041652992
124	0x3c166593	0.009179491
125	0x3b5d4e79	0.0033768697

network.3.weight f4 [100, 126]
0	0xbda28498	-0.079354465
1	0xbdb862f9	-0.090032525
2	0x3d8ca1e4	0.06866816
3	0x3da6e055	0.08148257
4	0x3c8a2a19	0.016865777
5	0xbc223694	-0.009900708
6	0xbcaa6a88	-0.020802751
7	0x3cb3538c	0.021890424
8	0xbdf99cf6	-0.12188141
9	0xbc700352	-0.014649229
10	0x3dd2ad49	0.10286958
11	0xbd988a44	-0.07448247
12	0xbb362723	-0.0027794323
13	0xbd615a66	-0.05501785
14	0x3d3e7bcc	0.04650478
15	0x3d01d3aa	0.031696
16	0x3db6892e	0.08912884
17	0xbd519437	-0.05116674
18	0x3da379d4	0.07982221
19	0xbd8a6b0b	-0.06758698
20	0x3e4fda5c	0.20298141
21	0xbe452dd0	-0.19255757
22	0xbb8faaff	-0.004384398
23	0xbd8a65b3	-0.06757679
24	0xbd8a3884	-0.06749061
25	0xbc785262	-0.01515636
26	0xbd9b58a9	-0.0758527
27	0x3daef5e5	0.085429944
28	0xbcaf3433	-0.021387195
29	0x3d7a28ba	0.061073996
30	0x3d30095f	0.042977687
31	0xbdeb3da5	-0.11486367
32	0x3c87577a	0.016521204
33	0x3d956156	0.07293956
34	0xbc4a81df	-0.012360065
35	0xbd051cbc	-0.032498106
36	0x3b9c905b	0.0047779507
37	0xbd0b5f28	-0.034026295
38	0x3e0cf685	0.13765915
39	0xbd72f59e	-0.05931627
40	0x3ccb817e	0.02484202
41	0xbcaeba5e	-0.021329101
42	0xbd98492c	-0.074358314
43	0x3d92361c	0.07139227
44	0xbd9755d3	-0.073894165
45	0xbe031ccb	-0.12803952
46	0x3c34f5a9	0.011044898
47	0x3c746cc2	0.014918508
48	0x3cdc35df	0.026881156
49	0xbd6e79c3	-0.05822159
50	0xbda15e12	-0.078792706
51	0xbd03a66e	-0.03214114
52	0xbc08d825	-0.008352314
53	0xb9073ae4	-0.00012896542
54	0x3e2d4256	0.16919836
55	0x3d9cadb9	0.076503225
56	0x3c36bd7c	0.011153575
57	0xbde9a91a	-0.11409207
58	0x3a04e49e	0.0005069467
59	0xbdfbdfbf	-0.122985356
60	0x3d8a1aa4	0.067433625
61	0xbc188ef5	-0.009311427
62	0x3d8847be	0.06654309
63	0xbbf0c494	-0.0073476527
64	0xbe8a337c	-0.26992404
65	0xb93945a3	-0.00017668917
66	0xbe074cae	-0.13212845
67	0x3d80d18e	0.062899694
68	0x3c2a78d6	0.010404786
69	0xbd9d2959	-0.07673902
70	0x3b73cfed	0.003720279
71	0xbb7607b6	-0.0037541217
72	0x3d0215bc	0.03175901
73	0x3a4a4673	0.0007716186
74	0xbc53b4ef	-0.012921556
75	0xbe180225	-0.14844568
76	0x3ce893ed	0.028390849
77	0x3d83370b	0.06406983
78	0xbc701f65	-0.014655923
79	0xbd7fb7cf	-0.062431153
80	0x3bb4c462	0.0055165747
81	0xbcb3e9be	-0.021962043
82	0x3b41e1a2	0.002958395
83	0xbdb674a5	-0.08908967
84	0xbd109e42	-0.035307176
85	0xbcebe923	-0.028797692
86	0x3dba961c	0.09110662
87	0xbd866a79	-0.06563277
88	0x3dae5491	0.085122235
89	0x3c517de5	0.012786363
90	0x3d212ad2	0.039347477
91	0x3d37a670	0.04483646
92	0x3df59d3f	0.11992883
93	0xbd070fbb	-0.032973986
94	0xbc7bb13b	-0.015362079
95	0x3c765706	0.015035396
96	0x3e05c906	0.13064966
97	0xbc1476c3	-0.009061518
98	0x3e3894d9	0.18025531
99	0x3d61e899	0.055153463
100	0xbd3d2caf	-0.04618519
101	0x3dfe8e26	0.124294564
102	0xbcf75328	-0.03019102
103	0xbc8a5527	-0.016886307
104	0x3cb9ee89	0.02269675
105	0xbba7cf3a	-0.005121139
106	0x3cf9041f	0.030397473
107	0x3c76496d	0.0150321545
108	0x3dc2786e	0.094956264
109	0x3dc53cda	0.09630747
110	0x3da79e64	0.081845075
111	0x3d063e8a	0.032774486
112	0x3cc92370	0.02455303
113	0x3dc8f5fd	0.098125435
114	0x3e00ba9f	0.1257119
115	0x3b2c8afb	0.0026327956
116	0x3d6da8e9	0.058022413
117	0xbdb40b39	-0.08791203
118	0x3d0e2fca	0.034713544
119	0xbc7d4621	-0.015458615
120	0x3d9e5a8c	0.07732114
121	0xbd2e134b	-0.042498868
122	0xbe14fef8	-0.14550388
123	0x3d39dd33	0.045376968
124	0xbd0c1a6a	-0.034204878
125	0xbd793582	-0.060842045
126	0x3c9643ce	0.018342879
127	0xbd44b88f	-0.04802757
128	0x3d8c6fa1	0.06857229
129	0xbd84977a	-0.06474204
130	0xbce948fa	-0.02847718
131	0xbe6e15ab	-0.23250453
132	0xbd461b60	-0.04836595
133	0x3ceb4a7e	0.028722044
134	0x3dedc0fc	0.116090745
135	0x3ba0d227	0.0049078646
136	0xbda612cf	-0.08109056
137	0xbc9d155a	-0.01917522
138	0xbd5f0716	-0.054450117
139	0x3c8ac581	0.01693988
140	0xbd9716ff	-0.07377433
141	0x3d829063	0.06375196
142	0x3e20c56d	0.15700312
143	0xbe25a1c9	-0.16174997
144	0x3c946f9b	0.018119624
145	0x3cd619b6	0.026135307
146	0xbd533295	-0.05156191
147	0xbcaa103c	-0.020759694
148	0xbdd6dfcd	-0.10491905
149	0x3d05ef27	0.032698777
150	0xbde79c77	-0.1130914
151	0x3d8cace6	0.06868915
152	0x3d164282	0.03668452
153	0xbd1e0c23	-0.038585793
154	0x3cf3d205	0.029763231
155	0x3d5b372a	0.053519405
156	0x3d7bd233	0.06147976
157	0xbd7926af	-0.060827907
158	0x3d2cb82b	0.042167824
159	0x3b944913	0.0045253127
160	0xbce3cbfa	-0.027807225
161	0xbd8ffee6	-0.0703104
162	0x3e5fd4db	0.21858542
163	0xbd13df71	-0.036101762
164	0xbdbf0066	-0.09326248
165	0xbda9e9a8	-0.082965195
166	0x3cff1596	0.031138223
167	0x3dc6beb6	0.09704344
168	0xbc95d3aa	-0.018289406
169	0x3dcecc79	0.10097594
170	0xbcf980ab	-0.030456861
171	0xbdff49c7	-0.12465244
172	0xbd9d0be1	-0.07668281
173	0x3ceea2c0	0.02913034
174	0xbbae691a	-0.0053225877
175	0x3d1f1bcb	0.038844865
176	0xbde1d5af	-0.11027085
177	0x3b509fe6	0.0031833588
178	0xbc732b35	-0.014841844
179	0xbdc9e635	-0.09858362
180	0xbd8c708e	-0.068574056
181	0x3bc803e0	0.0061039776
182	0x3d0e1057	0.03468355
183	0x3c82107e	0.015877005
184	0x3d603b69	0.054744158
185	0x3d49caa3	0.049265515
186	0x3b349581	0.0027554932
187	0xbdd4fa8b	-0.1039935
188	0x3e08ae5e	0.13347766
189	0x39e3fe9e	0.0004348652
190	0x3dc7f62d	0.09763751
191	0xbb99ce93	-0.004693815
192	0xbd332db4	-0.043744758
193	0xbdfd9687	-0.123822264
194	0xbd2acbaa	-0.041698135
195	0xbd196fae	-0.03746002
196	0xbd4ff520	-0.05077088
197	0xbd703384	-0.05864288
198	0xbc5ac9db	-0.01335379
199	0xbe01d7e2	-0.12680009
200	0x3dbc76b1	0.09202326
201	0x3ddd2b2e	0.107992515
202	0x3db7ed79	0.08980841
203	0x3c893bd9	0.01675217
204	0xbde06a1e	-0.1095774
205	0xbd38285d	-0.04496037
206	0x3d0e54e0	0.03474891
207	0xbe1a8d0c	-0.15092868
208	0x3d45805a	0.04821811
209	0xbdd9b713	-0.10630622
210	0xbd0373ce	-0.03209286
211	0x3dae7fe2	0.085204855
212	0x3d6f181c	0.058372602
213	0xbc86ebf7	-0.016469939
214	0x3e1543d7	0.1457666
215	0x3db5aaa0	0.08870435
216	0xbdd85cb7	-0.10564559
217	0xbda7c592	-0.081919804
218	0xbc74a6aa	-0.014932314
219	0xbd94aabb	-0.07259127
220	0xbce6988c	-0.028148912
221	0xbdcc3e61	-0.09972835
222	0x3cb2b45c	0.021814518
223	0xbd8ad71f	-0.06779312
224	0xbbc4707c	-0.0059948545
225	0x3ccdac43	0.025106555
226	0xbd6a84ca	-0.057255544
227	0x3c59d8c9	0.0132963145
228	0xbc352512	-0.0110562015
229	0x3bf99d85	0.0076176547
230	0xbd48029b	-0.04883061
231	0xbc953c3c	-0.018217199
232	0xbdcfd0e9	-0.10147268
233	0xbc2df8ae	-0.010618372
234	0x3db4e3ac	0.088324875
235	0xbd226d54	-0.039655045
236	0xbdc49379	-0.09598441
237	0x3d88cfdb	0.0668027
238	0x3c0813d1	0.008305506
239	0xbdd85568	-0.10563165
240	0xbcb5fe48	-0.022215977
241	0xbb149066	-0.0022669076
242	0x3da3657b	0.0797834
243	0x3d44a4e0	0.0480088
244	0x3baa2ad7	0.005193095
245	0xbd8f217f	-0.06988811
246	0xbb07eec8	-0.002074169
247	0xbddc4359	-0.10755033
248	0xbdb85547	-0.0900064
249	0x3d85b39c	0.065283984
250	0x3dc8895d	0.09791825
251	0x3de45641	0.11149264
252	0x3c838734	0.01605568
253	0xbbc48f4f	-0.005998529
254	0xbda44780	-0.0802145
255	0x3d819ad2	0.06328358

network.3.bias f4 [100]
0	0x3ef9741a	0.4872139
1	0x3efda993	0.49543437
2	0x3efcc751	0.49370816
3	0x3f0193d6	0.50616205
4	0x3efeb839	0.49749926
5	0x3f005baa	0.5013987
6	0x3efcfd20	0.4941187
7	0x3efd4f12	0.49474388
8	0x3f03493e	0.51283634
9	0x3f073feb	0.52831906
10	0x3f023123	0.50856227
11	0x3f03551a	0.5130173
12	0x3efcdc6a	0.49386913
13	0x3efc451b	0.49271473
14	0x3f034602	0.512787
15	0x3efee48b	0.4978374
16	0x3efbb588	0.49161935
17	0x3efa884a	0.48932105
18	0x3f027019	0.509523
19	0x3ef8c4d8	0.4858768
20	0x3efc6c3a	0.4930132
21	0x3f0060d2	0.50147736
22	0x3efcf043	0.49402055
23	0x3efdcbc7	0.49569532
24	0x3f02534f	0.5090837
25	0x3f03041a	0.51178133
26	0x3efcda21	0.4938517
27	0x3f01381a	0.5047623
28	0x3f01ae62	0.5065671
29	0x3effb317	0.49941322
30	0x3ef79109	0.4835284
31	0x3efd9bee	0.49533027
32	0x3efe8718	0.49712443
33	0x3eff30e1	0.4984198
34	0x3f000422	0.50006306
35	0x3efeb544	0.4974767
36	0x3f0058ee	0.50135696
37	0x3f11a3c9	0.5689054
38	0x3efb2368	0.4905045
39	0x3f00f290	0.5037012
40	0x3f0531df	0.5202922
41	0x3efe4328	0.4966061
42	0x3f01080b	0.504029
43	0x3efc8e4a	0.49327308
44	0x3efe20c9	0.49634388
45	0x3efea334	0.4973389
46	0x3efd41a5	0.49464145
47	0x3f004212	0.50100815
48	0x3efea051	0.49731687
49	0x3f00a852	0.50256836
50	0x3efcb62e	0.49357742
51	0x3efc96e6	0.49333876
52	0x3eff8f60	0.49914074
53	0x3efe9e7c	0.4973029
54	0x3f03072c	0.5118282
55	0x3efb7b75	0.49117628
56	0x3f0dde65	0.5541747
57	0x3efe68d8	0.49689364
58	0x3efbc79f	0.49175736
59	0x3f009581	0.50228125
60	0x3eff0904	0.49811566
61	0x3f006577	0.50154823
62	0x3efa2fba	0.48864537
63	0x3f008686	0.50205266
64	0x3f0179e2	0.50576603
65	0x3ef5aa9a	0.4798172
66	0x3efc876f	0.49322078
67	0x3f001188	0.5002675
68	0x3efc6b3f	0.49300572
69	0x3f0a5f92	0.5405208
70	0x3efe3c94	0.49655592
71	0x3ef7267b	0.48271546
72	0x3efce7d5	0.49395624
73	0x3f022048	0.5083051
74	0x3f052888	0.5201497
75	0x3efe9dae	0.49729675
76	0x3f0251eb	0.50906247
77	0x3f0bd663	0.54624003
78	0x3f0b7070	0.5446844
79	0x3eff9267	0.49916384
80	0x3f07f926	0.53114545
81	0x3efd179c	0.49432075
82	0x3f00324f	0.50076765
83	0x3efee008	0.49780297
84	0x3f003042	0.50073636
85	0x3efef474	0.49795878
86	0x3efbbfee	0.49169868
87	0x3ef9dcc4	0.48801243
88	0x3f033361	0.51250273
89	0x3f00f11e	0.50367916
90	0x3f006e0a	0.50167906
91	0x3efe9c8d	0.49728814
92	0x3efdb254	0.49550116
93	0x3effaa3c	0.49934566
94	0x3efcee66	0.49400634
95	0x3efd8227	0.4951336
96	0x3f15e29a	0.5854889
97	0x3f014977	0.50502723
98	0x3efe3fbd	0.49658003
99	0x3f01ae98	0.50657034

network.4.running_mean f4 [100]
0	0x3f0156a0	0.50522804
1	0x3e823957	0.25434372
2	0x3f07e6cc	0.53086543
3	0x3ebe8b70	0.37215757
4	0x3f0e28c3	0.5553095
5	0x3f12cd89	0.5734487
6	0x3ebc27d7	0.36749145
7	0x3f1a475a	0.60265124
8	0x3f5c3261	0.8601437
9	0x3f0f00b6	0.5586046
10	0x3f206964	0.62660813
11	0x3f2839c7	0.6571316
12	0x3efb5dee	0.490951
13	0x3ec70530	0.38871145
14	0x3eb90ddd	0.3614339
15	0x3f0028ee	0.50062454
16	0x3ee3fd0f	0.44529006
17	0x3eb46d45	0.35239616
18	0x3f1a6c39	0.60321385
19	0x3e641a28	0.22275603
20	0x3ea1fbdf	0.31637475
21	0x3f1692c1	0.5881768
22	0x3ea86c6a	0.32895213
23	0x3ec54b3f	0.3853397
24	0x3edccb28	0.43123746
25	0x3f4be538	0.79646635
26	0x3e6787f2	0.22610453
27	0x3f6b88f6	0.9200586
28	0x3f377ae5	0.716719
29	0x3f596013	0.8491222
30	0x3ed241e7	0.41065904
31	0x3e6081d0	0.2192452
32	0x3f14adc9	0.58077675
33	0x3ea84d19	0.3287132
34	0xbdd60cda	-0.1045167
35	0x3de0882e	0.10963474
36	0x3ee77417	0.45205757
37	0x3f810da9	1.0082294
38	0x3ebad6b6	0.36491936
39	0x3e9c490e	0.30524486
40	0x3f2a8b61	0.66618925
41	0x3f21f1cd	0.63259584
42	0x3ee13987	0.43989202
43	0x3be4ddc7	0.0069844457
44	0x3ed13828	0.40863156
45	0x3e4bcb36	0.19901738
46	0x3ea81fcb	0.32836756
47	0x3f36e17b	0.71437806
48	0x3f6d1f2c	0.9262569
49	0x3eda187e	0.4259681
50	0x3f28712e	0.657977
51	0x3f2941f8	0.66116285
52	0x3f10b337	0.5652346
53	0x3e550d97	0.20805965
54	0x3f390e6a	0.7228762
55	0xbb1f85bf	-0.0024341193
56	0x3f6a7a6b	0.91593045
57	0x3e2fd688	0.17171681
58	0x3e6abe2d	0.22924109
59	0x3ea19d58	0.31565356
60	0x3ea4b3e5	0.321685
61	0x3f12de2a	0.57370245
62	0x3ee3f106	0.44519824
63	0x3f65ef0a	0.8981787
64	0x3f4a1202	0.7893373
65	0x3e4db126	0.20087108
66	0x3f0c2f10	0.5475931
67	0x3f2d6f23	0.67747706
68	0x3eb04cc8	0.3443358
69	0x3f58d036	0.84692705
70	0x3ec225fd	0.37919608
71	0x3ed7314d	0.420298
72	0x3f1b9716	0.60777414
73	0x3f642cce	0.89130867
74	0x3f2551a8	0.6457772
75	0x3f127af8	0.57218885
76	0x3f2ab74f	0.66685957
77	0x3f08d87d	0.53455335
78	0x3f16fc6f	0.58978933
79	0x3eb64925	0.3560268
80	0x3f58505f	0.84497637
81	0x3f1c5d1c	0.61079574
82	0x3f00057a	0.50008357
83	0x3f0bf921	0.54677016
84	0xbd853d5f	-0.06505846
85	0x3c97da28	0.018536642
86	0x3e852957	0.26008102
87	0x3f29b14f	0.66286176
88	0x3f606761	0.87657744
89	0x3ea9ca26	0.3316204
90	0x3efbfc45	0.49215904
91	0x3e9dcb49	0.30819157
92	0x3f25cc00	0.64764404
93	0xbb38cbed	-0.002819772
94	0x3ed2680a	0.41095
95	0x3f149d8f	0.58052915
96	0x3f1901a7	0.59768146
97	0x3ec23495	0.37930742
98	0x3edae042	0.4274922
99	0x3eeecc86	0.46640414

network.4.running_var f4 [100]
0	0x3e2e9c51	0.17051817
1	0x3e88fcc8	0.26755357
2	0x3eb3de4a	0.3513053
3	0x3e685637	0.22689138
4	0x3e0dbb19	0.13840903
5	0x3e8ec2b1	0.27882913
6	0x3de01f6b	0.109434925
7	0x3f0cc389	0.5498586
8	0x3f1ee235	0.62063915
9	0x3dd42201	0.10358048
10	0x3e3ac344	0.1823855
11	0x3ddbc0af	0.10730111
12	0x3f46decf	0.7768373
13	0x3eb268fe	0.34845728
14	0x3f12afd5	0.5729955
15	0x3ec23b6c	0.3793596
16	0x3f0859f4	0.5326226
17	0x3e4bceb4	0.1990307
18	0x3df4c78d	0.11952124
19	0x3e0142fb	0.12623207
20	0x3f125a99	0.5716949
21	0x3e9e0a0f	0.3086705
22	0x3e5416d3	0.20711832
23	0x3e8bfb12	0.2733999
24	0x3dc44a17	0.09584444
25	0x3f120bc3	0.57049197
26	0x3f33ab97	0.701837
27	0x3f7dca1d	0.99136525
28	0x3e5c1cee	0.21495411
29	0x3f3d7fd9	0.74023205
30	0x3ec026bd	0.37529555
31	0x3e063827	0.13107358
32	0x3f2afa0e	0.66787803
33	0x3efccd62	0.49375445
34	0x3ed5a400	0.41726685
35	0x3e5ace19	0.21367683
36	0x3f287018	0.6579604
37	0x3ee2f2c1	0.44325832
38	0x3e9527f9	0.2913206
39	0x3e77f62c	0.24215001
40	0x3e3a3544	0.18184382
41	0x3f823c55	1.0174662
42	0x3e90d2c6	0.28285807
43	0x3e8b375a	0.27190667
44	0x3e726e27	0.23674832
45	0x3e9dc4f3	0.30814323
46	0x3ea34a61	0.31892684
47	0x3f1ea0c5	0.61964065
48	0x3f31892e	0.69349945
49	0x3e5a68a6	0.21328983
50	0x3ecf02a2	0.40431696
51	0x3e794110	0.24341226
52	0x3edac8c1	0.42731288
53	0x3f06b7ba	0.52624094
54	0x3ee02bbd	0.4378337
55	0x3f061d01	0.52388006
56	0x3eb34e4f	0.35020682
57	0x3e8f5015	0.27990785
58	0x3e3e314a	0.1857349
59	0x3f05c0bf	0.5224723
60	0x3e84968a	0.25896102
61	0x3dc5ac71	0.09652031
62	0x3e8f70f6	0.2801587
63	0x3ecd07f2	0.40045124
64	0x3f004694	0.50107694
65	0x3ec2ed84	0.38071835
66	0x3f707bef	0.9393911
67	0x3f2f3992	0.6844722
68	0x3efa058a	0.4883235
69	0x3e9269e7	0.28596422
70	0x3f1a35c4	0.6023829
71	0x3eaca92a	0.33722812
72	0x3e916309	0.2839587
73	0x3e59030d	0.2119257
74	0x3e361873	0.17782764
75	0x3f2d658f	0.6773309
76	0x3e646a3c	0.2230615
77	0x3db1c9de	0.08681081
78	0x3e0e8066	0.13916168
79	0x3e7963f8	0.24354541
80	0x3e87a9f7	0.2649686
81	0x3ee32e67	0.4437134
82	0x3f06a99b	0.5260255
83	0x3f139851	0.5765429
84	0x3efacc8b	0.4898418
85	0x3ee248ef	0.4419627
86	0x3e685357	0.22688042
87	0x3ef643c7	0.48098585
88	0x3ea6c98f	0.32575652
89	0x3f2950ca	0.661389
90	0x3e37b840	0.1794138
91	0x3eed5567	0.4635422
92	0x3eae2e70	0.34019804
93	0x3f0da155	0.553243
94	0x3dc7e112	0.09759726
95	0x3ef477ce	0.47747654
96	0x3dc1f746	0.09470992
97	0x3de4a094	0.1116344
98	0x3f3a1adf	0.7269725
99	0x3da598c2	0.08085777

network.6.weight f4 [100, 100]
0	0x3bcc9d97	0.006244372
1	0xbddf435d	-0.109015204
2	0x3c7b6805	0.015344624
3	0x3cf538e9	0.029934363
4	0xbdb0d16f	-0.08633696
5	0x3cff6857	0.031177683
6	0x3daf6305	0.08563808
7	0x3dda40cc	0.1065689
8	0x3d5878c7	0.052849557
9	0x3b3ae37b	0.0028516937
10	0xbb8c3a23	-0.0042793914
11	0xbdcf5cbd	-0.1012511
12	0xbe694e91	-0.22783877
13	0x3d2603e8	0.04053107
14	0xbdd94680	-0.1060915
15	0x3de80ead	0.11330924
16	0xbda8b8c0	-0.08238363
17	0xbca4d992	-0.020123277
18	0x3a68b8a7	0.0008877613
19	0xbc91c10c	-0.017792247
20	0xbd3ed608	-0.046590835
21	0x3d046aff	0.032328602
22	0xbd8ac687	-0.06776147
23	0xbdcffe68	-0.10155946
24	0x3d3e6efe	0.04649257
25	0x3e0094f6	0.12556824
26	0xbcd33961	-0.025784196
27	0xbc4863e0	-0.012230843
28	0xbd5b5822	-0.053550847
29	0xbd07f251	-0.033190075
30	0xbda1fdba	-0.079097226
31	0xbe015f26	-0.12633952
32	0xbc6b29bd	-0.014353213
33	0xbbc1344f	-0.0058961282
34	0x3cf54d5f	0.02994412
35	0x3ca21b4e	0.01978841
36	0xbd5029b0	-0.050821006
37	0xbe1d3738	-0.15353096
38	0x3da05303	0.07828333
39	0x3cd307f9	0.025760638
40	0x3e0978f3	0.13425045
41	0x3e1bd5a9	0.15218224
42	0x3d978a5f	0.07399439
43	0x3dc5b5c4	0.0965381
44	0x3d40c2e9	0.04706088
45	0x3e047de4	0.12938648
46	0x3b2ea094	0.0026646005
47	0xbe02d3a3	-0.12776046
48	0xbbd90921	-0.0066234027
49	0x3d9b0633	0.07569542
50	0xbd837462	-0.06418683
51	0xbcead26e	-0.028664794
52	0xbd626a94	-0.055277422
53	0xbd12fe05	-0.035886783
54	0xbd86f97a	-0.06590553
55	0xbe1e460a	-0.15456405
56	0xbd7911f2	-0.06080813
57	0xbd9ea7db	-0.0774686
58	0x38d60308	0.0001020488
59	0xbda81bc2	-0.082084194
60	0x3ca7c5b0	0.020480007
61	0xbdc14487	-0.09436899
62	0xbcb57f69	-0.02215548
63	0x3e044744	0.1291781
64	0xbc9a8318	-0.018861338
65	0xbd2b776b	-0.041861933
66	0x3d81fb25	0.0634673
67	0xbd7333ed	-0.059375692
68	0x3dacb161	0.0843227
69	0x3df3574c	0.11881885
70	0xbde18d70	-0.11013305
71	0xbd4b2728	-0.04959789
72	0xbd03147d	-0.03200196
73	0xbc3f2d4c	-0.011668514
74	0xbdddfd64	-0.10839346
75	0xbd36c7dc	-0.044624195
76	0x3d008597	0.0313774
77	0x3bdbf844	0.006712945
78	0x3b1b06a9	0.0023655093
79	0x3c64e02b	0.013969461
80	0xbd17820c	-0.036989257
81	0x3dc3291e	0.09529327
82	0xbd54b4b7	-0.051930156
83	0x3dfe06f5	0.12403671
84	0xbc8fb79f	-0.017543612
85	0xbdc7a19d	-0.09747622
86	0x3c90e368	0.01768656
87	0xbd2bbe1d	-0.041929353
88	0xbdb90a7f	-0.09035205
89	0x3d2c79bd	0.042108286
90	0x3d750ff5	0.05982967
91	0xbc11234f	-0.008858516
92	0xbdaf5b7d	-0.08562372
93	0xbd4489b5	-0.04798289
94	0x3d070fb6	0.032973967
95	0xbd6fbfca	-0.058532514
96	0x3db0e5eb	0.08637603
97	0x3e0e2382	0.13880733
98	0xbc2e6600	-0.010644436
99	0x3cbafee2	0.022826616
100	0xbd6f23c2	-0.05838371
101	0x3d45f79a	0.048331834
102	0x3d5afcda	0.053463794
103	0xbd61f6b0	-0.0551669
104	0xbdab5b4c	-0.08367023
105	0xbcf9daef	-0.030499903
106	0x3e1fce74	0.156061
107	0xbe517e8d	-0.20458432
108	0x3d3f5dfa	0.046720482
109	0x3daa7640	0.08323336
110	0x3dd3b0e9	0.10336477
111	0xbd9a0858	-0.07521123
112	0x3de3e14d	0.11126957
113	0xbceb14c0	-0.028696418
114	0x3d566d3c	0.052350268
115	0x3cd1d5cc	0.025614642
116	0x3da3add7	0.07992142
117	0x3e138f13	0.14410047
118	0x3e01c907	0.12674342
119	0x3ce3a39c	0.027787976
120	0xbd589f4e	-0.0528863
121	0x3c94503c	0.018104665
122	0x3cf23ca5	0.029569933
123	0xbd46ea6a	-0.0485634
124	0x3d91230b	0.07086762
125	0x3df1d208	0.118076384
126	0x3d711f28	0.058867604
127	0x3dd86b69	0.10567362
128	0xbd06066c	-0.032720968
129	0x3d346841	0.044044737
130	0x3dcf7c96	0.10131185
131	0x3dd97d33	0.10619583
132	0xbc8b1b3f	-0.016980765
133	0x3e19e1b6	0.15027508
134	0x3e04f313	0.1298335
135	0xbd98a37e	-0.07453059
136	0xbdba59c2	-0.09099151
137	0x3dc17d26	0.09447698
138	0xbd4d4c31	-0.05012149
139	0x3cabaec4	0.020957358
140	0x3d81661f	0.06318306
141	0x3c69899c	0.014254
142	0xbdf4de30	-0.119564414
143	0x3db0fd3e	0.08642052
144	0xbd826dd3	-0.063686036
145	0x3ce46398	0.027879521
146	0xbd37b622	-0.04485143
147	0xbdb5de03	-0.08880236
148	0x3ce9c33d	0.02853548
149	0x3ccf3a46	0.025296342
150	0x3d864093	0.06555285
151	0xbc4bc7a0	-0.012437731
152	0xbdbbc75a	-0.09168883
153	0xbd90af2c	-0.070646614
154	0xbcb43e5e	-0.022002395
155	0xbdd3d68b	-0.10343655
156	0x3e070e41	0.13189031
157	0xbb94af36	-0.0045374883
158	0x3c1f8d8a	0.009738335
159	0x3d99b529	0.07505257
160	0x3d1692ae	0.03676098
161	0x3cc72f55	0.024314562
162	0xbdb97596	-0.09055631
163	0x3d917813	0.071029805
164	0xbc2587f2	-0.010103213
165	0x3d651617	0.05592927
166	0xbd87ad47	-0.06624847
167	0x3cba12e1	0.02271408
168	0xbd1c38dd	-0.038140167
169	0xbd54f3b4	-0.051990226
170	0x3d0a6dba	0.03379605
171	0xbe0ec03b	-0.13940518
172	0x3c9a9580	0.018870115
173	0x3da71a1e	0.08159278
174	0x3de6f387	0.11276918
175	0x3e01d9bb	0.12680714
176	0xbdbbd918	-0.09172267
177	0xb9f3f6aa	-0.0004653235
178	0x3d993990	0.07481682
179	0xbd50ad9b	-0.050946813
180	0xbdcc67ca	-0.09980734
181	0x3e022099	0.12707748
182	0x3c56f021	0.013118775
183	0x3e026202	0.127327
184	0xbdb3ba4e	-0.08775769
185	0x3d921132	0.07132186
186	0xbd623e7c	-0.05523537
187	0xbd120ff4	-0.035659745
188	0xbd0dd3a7	-0.034625676
189	0xbd1febc8	-0.039043218
190	0x3b903915	0.004401336
191	0x3d59e0bb	0.053192835
192	0xbbd15fc4	-0.00638959
193	0x3d3aec0b	0.045635264
194	0x3dd54ebb	0.10415407
195	0xbd4b3cb5	-0.04961844
196	0x3d573b23	0.05254663
197	0x3d90c80c	0.07069406
198	0xbdb06868	-0.08613664
199	0xbe201f73	-0.15636997
200	0x3d33943b	0.043842535
201	0x3dd7afdd	0.1053159
202	0x3d146c25	0.036235947
203	0xbd87ed4f	-0.0663706
204	0x3ce92b20	0.028462946
205	0xbd889666	-0.06669311
206	0xbc02bc65	-0.007979487
207	0xbd52a90f	-0.051430758
208	0x3db755cb	0.089519106
209	0xbd8c6b00	-0.06856346
210	0x3c79e1ec	0.015251618
211	0xbd645a8d	-0.05575042
212	0x3e047e21	0.1293874
213	0x3d073912	0.03301341
214	0xbda37884	-0.07981971
215	0x3e063c21	0.13108875
216	0x3e198216	0.1499103
217	0xbd9df6a1	-0.07713056
218	0x3cba5cf4	0.022749402
219	0xbb899afe	-0.0041993847
220	0xbd11bd09	-0.03558067
221	0xbc8297ec	-0.015941583
222	0x3d401d08	0.046902686
223	0x3da7a564	0.08185843
224	0x3bf1811b	0.007370127
225	0xbdbe3ede	-0.09289335
226	0x3cdfe987	0.027333034
227	0xbd7d51b5	-0.0618455
228	0xbc396b9d	-0.011317161
229	0x3de07329	0.10959465
230	0x3df69a46	0.12041144
231	0x3da585ce	0.08082162
232	0xbcb76885	-0.022388706
233	0x3e06fd9b	0.1318268
234	0x3def439a	0.11682816
235	0x3d8025ba	0.06257196
236	0x3dafbc37	0.08580821
237	0xbc15b1b4	-0.009136606
238	0xbd80ace1	-0.06282974
239	0x3d490b71	0.049083177
240	0xbd8d44ca	-0.06897886
241	0xbc6dd276	-0.01451551
242	0x3de215c5	0.110393085
243	0x3914b4bd	0.0001418171
244	0xbd58887d	-0.05286454
245	0xbd814593	-0.06312098
246	0xbbdcee6f	-0.0067422907
247	0xbdd37f3b	-0.10327002
248	0x3d40c3c8	0.04706171
249	0x3cf901bd	0.030396337
250	0xbd240813	-0.040046763
251	0x3dc2a85b	0.095047675
252	0x3b953ef0	0.004554622
253	0x3c1a7c74	0.009429086
254	0x3aa5d5f9	0.001265227
255	0xbccad494	-0.024759568

network.6.bias f4 [100]
0	0x3f00d0b5	0.5031846
1	0x3f03cf9e	0.51488674
2	0x3effd0a8	0.4996388
3	0x3f03e186	0.51515996
4	0x3efc0658	0.4922359
5	0x3f00dfda	0.5034157
6	0x3f00ea80	0.5035782
7	0x3f0152c4	0.50516915
8	0x3f0066cf	0.50156873
9	0x3efcb790	0.49358797
10	0x3f025692	0.50913346
11	0x3eff8b19	0.4991081
12	0x3efee664	0.4978515
13	0x3efce3e7	0.49392626
14	0x3eff35de	0.49845785
15	0x3f00d601	0.50326544
16	0x3f09888a	0.5372397
17	0x3efccf8e	0.49377102
18	0x3f022d30	0.508502
19	0x3efcb878	0.49359488
20	0x3f080da5	0.5314582
21	0x3ef9d258	0.48793292
22	0x3efb88c7	0.4912779
23	0x3f04d521	0.5188771
24	0x3f01af5f	0.5065822
25	0x3f044671	0.51669985
26	0x3efc3fee	0.49267524
27	0x3f015e2f	0.5053434
28	0x3f00eb77	0.5035929
29	0x3efacca7	0.48984262
30	0x3f002cac	0.50068164
31	0x3f01f5ea	0.5076586
32	0x3efd8d94	0.49522078
33	0x3eff7d30	0.49900198
34	0x3ef8dbc7	0.48605177
35	0x3f003f60	0.500967
36	0x3eff89b6	0.49909753
37	0x3f003d48	0.5009351
38	0x3f011d7a	0.504356
39	0x3eff1874	0.49823344
40	0x3f098c43	0.5372965
41	0x3f00c8d7	0.5030646
42	0x3efeac00	0.497406
43	0x3efb976d	0.49138966
44	0x3efb66a8	0.49101758
45	0x3efb8a1e	0.49128813
46	0x3eff4ec0	0.4986477
47	0x3efe4ca2	0.4966784
48	0x3f0004dc	0.50007415
49	0x3effcdb9	0.4996164
50	0x3f1e9fe7	0.6196274
51	0x3f02154d	0.5081375
52	0x3f02410d	0.5088051
53	0x3efa49b7	0.48884365
54	0x3efdb61a	0.49552995
55	0x3efbe876	0.4920079
56	0x3f001bcf	0.5004243
57	0x3f031481	0.5120316
58	0x3efe18bc	0.49628246
59	0x3f02dba9	0.51116425
60	0x3f039a61	0.5140744
61	0x3efda5bb	0.49540505
62	0x3efa2bf2	0.48861653
63	0x3ef9f010	0.48815966
64	0x3efdef14	0.49596465
65	0x3f036a71	0.5133429
66	0x3f0066a4	0.5015662
67	0x3eff6ef3	0.49889335
68	0x3f1055b2	0.5638076
69	0x3f0a92f9	0.5413051
70	0x3f026c20	0.50946236
71	0x3f01e9fb	0.5074765
72	0x3f021f65	0.50829154
73	0x3f0397b9	0.51403385
74	0x3efd3594	0.4945494
75	0x3eff3bcf	0.49850318
76	0x3efa0c31	0.48837426
77	0x3f00f71d	0.50377065
78	0x3efdfe99	0.49608305
79	0x3f07f240	0.5310402
80	0x3f00a8f0	0.5025778
81	0x3f022879	0.50843006
82	0x3efbbae9	0.4916604
83	0x3efc101f	0.4923105
84	0x3f0baf02	0.54563916
85	0x3effba08	0.49946618
86	0x3f05ef60	0.5231838
87	0x3efdeb64	0.4959365
88	0x3efe7b4f	0.49703452
89	0x3f0d2261	0.55130583
90	0x3ef53c8c	0.47897756
91	0x3eff7f90	0.4990201
92	0x3f26ff15	0.65232974
93	0x3f0256c9	0.50913674
94	0x3efd48b8	0.49469543
95	0x3efd3299	0.49452665
96	0x3efcfa11	0.49409536
97	0x3efe52a6	0.4967243
98	0x3efe07da	0.49615365
99	0x3f05dd3b	0.52290696

network.7.running_mean f4 [100]
0	0x3ebf9cac	0.3742422
1	0x3f3a9d0f	0.728959
2	0x3f4efbd6	0.8085302
3	0x3f160a11	0.5860911
4	0x3f03eeb0	0.51536083
5	0x3e261888	0.16220295
6	0x3f453f71	0.7704993
7	0x3f00c141	0.5029488
8	0x3f365dd7	0.7123694
9	0x3e83f3a8	0.25771832
10	0x3f128662	0.572363
11	0x3eaad9ae	0.333692
12	0x3f0090d6	0.50221
13	0x3ec5900e	0.38586468
14	0x3efba1f5	0.49147
15	0x3f0c150a	0.54719603
16	0x3f24a2b1	0.6431075
17	0x3f20f79c	0.6287782
18	0x3edcafd3	0.43102893
19	0x3f35093b	0.7071721
20	0x3f5c3aaf	0.86027044
21	0x3f351976	0.70741975
22	0x3e9dd76a	0.3082841
23	0x3f7987e1	0.9747296
24	0x3eb3ca65	0.35115352
25	0x3f070bb4	0.5275223
26	0x3ecf8829	0.4053357
27	0x3f057a24	0.52139497
28	0x3f20d177	0.6281962
29	0x3f21384b	0.6297652
30	0x3f1033c6	0.56329
31	0x3f3b4f2f	0.731677
32	0x3f043048	0.5163617
33	0x3f04f1dd	0.51931554
34	0x3ed14a36	0.4087693
35	0x3f07da08	0.53067064
36	0x3f4489c0	0.7677269
37	0x3f10b653	0.56528205
38	0x3f1a6c0c	0.60321116
39	0x3ef70cec	0.48252046
40	0x3ef9f5c5	0.4882032
41	0x3f2673a6	0.65020216
42	0x3e40179e	0.18759009
43	0x3f1270d2	0.572034
44	0x3ec2797d	0.37983313
45	0x3f0fe66c	0.5621097
46	0x3e1feb4a	0.156171
47	0x3ecd0beb	0.40048155
48	0x3e3ea49e	0.18617484
49	0x3f29032b	0.6602046
50	0x3f26b8ad	0.6512554
51	0x3f46291a	0.77406466
52	0x3f41bc69	0.75678116
53	0x3e6fd12b	0.23419635
54	0x3ead9de0	0.33909512
55	0x3f06d642	0.5267068
56	0x3ea82155	0.3283793
57	0x3f318e12	0.6935741
58	0x3f2e5da4	0.68111634
59	0x3e91aff9	0.2845457
60	0x3f0b2751	0.5435687
61	0x3f10a637	0.56503624
62	0x3f19680a	0.59924376
63	0x3eecbbd7	0.4623706
64	0x3eea6094	0.45776808
65	0x3f4e34df	0.80549425
66	0x3ef1d225	0.4723064
67	0x3e9f3410	0.31094408
68	0x3f6b11c6	0.91823995
69	0x3f4e2c81	0.8053666
70	0x3f3f9258	0.7483268
71	0x3f66eb84	0.9020312
72	0x3f563533	0.83674926
73	0x3e90943c	0.28238094
74	0x3f2c2cc7	0.67255825
75	0x3edc488b	0.43024096
76	0x3e914095	0.28369585
77	0x3f18fd92	0.5976192
78	0x3f07a4a5	0.529856
79	0x3f02246e	0.5083684
80	0x3e359824	0.17733818
81	0x3eb194ec	0.3468393
82	0x3e9ec31e	0.31008238
83	0x3e47aabd	0.19498725
84	0x3f822260	1.016674
85	0x3e87a199	0.26490477
86	0x3f00e68f	0.50351804
87	0x3e0dc64e	0.13845178
88	0x3e8c258a	0.2737239
89	0x3ed86aa7	0.4226887
90	0x3eea5542	0.45768172
91	0x3e98935d	0.2979993
92	0x3f42d374	0.761039
93	0x3f1d0c18	0.6134658
94	0x3f1c8b61	0.61150175
95	0x3ebf4608	0.37358117
96	0x3eba6d58	0.36411548
97	0x3f1166f2	0.5679771
98	0x3ebd4f70	0.36974669
99	0x3edbf1ac	0.42957819

network.7.running_var f4 [100]
0	0x3f0933b8	0.5359454
1	0x3f0e5ac4	0.5560725
2	0x3ef4e1b8	0.4782846
3	0x3ec26dfd	0.3797454
4	0x3e047b47	0.12937652
5	0x3e1a025f	0.15039967
6	0x3ed51271	0.41615632
7	0x3e9f8643	0.3115712
8	0x3f208e68	0.62717295
9	0x3ea1b0cf	0.31580207
10	0x3e02f5d9	0.12789096
11	0x3ecf9033	0.40539703
12	0x3e1c5598	0.15267026
13	0x3e08dc6a	0.13365331
14	0x3e894c1e	0.26815885
15	0x3e4d40f7	0.20044313
16	0x3e4ec39d	0.20191808
17	0x3eed7085	0.46374908
18	0x3dd2c535	0.102915205
19	0x3f05e839	0.5230747
20	0x3e5e9e6c	0.2174012
21	0x3e4b5878	0.19857967
22	0x3e75c1a2	0.23999646
23	0x3ef3f1bb	0.47645363
24	0x3e142fa7	0.14471303
25	0x3e75755b	0.23970549
26	0x3e5bd057	0.21466194
27	0x3e302d29	0.17204727
28	0x3ea8e1e3	0.32984838
29	0x3ea92697	0.33037254
30	0x3eb0594e	0.34443134
31	0x3e019ad1	0.12656714
32	0x3f074253	0.5283558
33	0x3eb5bb62	0.35494524
34	0x3e45848a	0.19288841
35	0x3e687bc1	0.22703458
36	0x3eb7dd99	0.35911253
37	0x3e1e9ebe	0.15490243
38	0x3e1e20c8	0.15442193
39	0x3eb579ce	0.35444492
40	0x3dcf8c81	0.10134221
41	0x3e4eb4a2	0.20186093
42	0x3e6b97ed	0.23007174
43	0x3e74e7c0	0.2391653
44	0x3e9a432e	0.3012938
45	0x3e671a92	0.2256873
46	0x3e779e75	0.2418154
47	0x3e8be2a5	0.27321354
48	0x3ea91892	0.33026558
49	0x3edae4c8	0.4275267
50	0x3daad186	0.08340745
51	0x3eddfb32	0.4335571
52	0x3e1f20fa	0.15539923
53	0x3e9fa3a5	0.31179538
54	0x3e5fc337	0.21851812
55	0x3f076ba1	0.52898604
56	0x3f0b077e	0.5430831
57	0x3e024d76	0.12724862
58	0x3ea66736	0.3250062
59	0x3deadf8d	0.1146842
60	0x3de1d418	0.11026782
61	0x3e0b4950	0.13602185
62	0x3e6e68bc	0.2328214
63	0x3f480453	0.781316
64	0x3ea90686	0.3301279
65	0x3e8b009c	0.27148902
66	0x3e4792ef	0.19489644
67	0x3ea6074c	0.32427442
68	0x3ecd9a0a	0.40156585
69	0x3f12e45b	0.5737969
70	0x3e107290	0.14106202
71	0x3e727873	0.2367876
72	0x3e4a311c	0.19745296
73	0x3de3c2e7	0.11121159
74	0x3eca3026	0.3948986
75	0x3f0c5234	0.5481293
76	0x3eaa7165	0.33289638
77	0x3ebd9388	0.3702662
78	0x3ee715ad	0.45133725
79	0x3da33ae1	0.07970215
80	0x3f10122e	0.5627774
81	0x3e6aeb6f	0.22941373
82	0x3f049b47	0.51799434
83	0x3e3f0152	0.18652847
84	0x3e3570a2	0.17718747
85	0x3e907afe	0.28218836
86	0x3e6a8412	0.22901943
87	0x3e9747fd	0.2954711
88	0x3edd411d	0.4321374
89	0x3e546a61	0.20743705
90	0x3e82d272	0.25551182
91	0x3e4e981c	0.20175213
92	0x3dc5787c	0.09642121
93	0x3ec3230c	0.38112676
94	0x3e678c45	0.22612102
95	0x3e8be73a	0.2732485
96	0x3e6c6d9c	0.23088688
97	0x3eabdf17	0.33568642
98	0x3efd23ff	0.49441525
99	0x3dbb0910	0.09132588
