hand_landmarks/neural_networks/weights/best_model.pth (torch, 194594 bytes, 12 tensors)

fc1.weight f4 [100, 126]
0.036466297 -0.09368231 0.00917861 0.0038618622 -0.09478136 0.031102804 -0.05711375 -0.06972038
0.030805402 -0.040642988 -0.0054599564 -0.08962183 -0.0069888276 0.0077869575 0.044402733 -0.075254254
-0.104126304 -0.015102033 0.03213069 0.017791156 -0.10892971 0.027885817 -0.016530981 -0.06354578
-0.10754476 -0.08446242 -0.088002585 -0.07788105 0.061540887 0.020439502 -0.05876455 -0.037588906
-0.058686968 0.036407124 -0.059284385 -0.0022509107 0.038220048 -0.04413858 -0.11354162 -0.051762182
0.036328427 0.05478577 -0.09230277 -0.083516546 -0.023668822 -0.09390899 -0.101759486 -0.047632616
-0.040379755 -0.031687867 0.054388363 0.021404956 -0.07561048 0.057182677 -0.07626236 -0.04375418
-0.06047211 0.0124193495 -0.021683332 0.035644513 -0.03984167 -4.6745437e-05 -0.02477351 -0.02000508
0.00745942 -0.09392249 -0.09472752 -0.08232504 -0.01010754 0.043168567 -0.08916619 0.023478024
0.016845563 -0.021963485 0.043951258 0.037360832 -0.009466333 -0.109904565 -0.020216543 -0.0186534
0.036678307 0.010361138 0.05819872 0.03554248 0.013012966 0.06672079 0.0011850264 0.033897884
0.02365885 0.056085084 -0.06823573 -0.09667256 -0.06191269 -0.024530433 -0.034057043 -0.068129286
0.07194989 0.025955407 0.024519566 0.01600466 -0.06940644 0.026984256 -0.052695077 -0.048687756
0.02679433 -0.10177967 -0.05926706 -0.062511824 -0.10621558 -0.07255754 -0.0049872133 -0.025984537
0.048730854 -0.022954825 0.037221707 -0.07170502 0.05262138 -0.007145008 -0.09003667 0.007822865
0.029110026 -0.037956584 -0.09620695 0.053001303 -0.06293186 -0.06403848 0.065579005 0.06650208
0.0443667 -0.08746598 -0.01753769 0.0836519 -0.026119675 0.0012972765 0.06509603 0.014708445
0.019611416 0.030034455 0.060708035 -0.0767892 0.05076694 -0.03965442 -0.008031445 -0.07924648
0.070056595 0.0672434 -0.0536516 -0.031053456 0.043975458 0.07666624 0.06347412 -0.02426024
0.01571722 0.030841628 -0.011514775 -0.043960832 -0.045810033 0.0070357127 -0.055502094 -0.081196874
-0.0010061607 0.06155037 -0.019589942 -0.054940816 -0.057861764 0.06497489 -0.06861893 -0.01337299
-0.02912466 0.026438074 0.035962768 0.0027112456 -0.042667538 -0.059435427 0.07341246 -0.06748212
-0.0837564 -0.028869206 -0.07220618 0.040400222 0.06494765 0.0063114176 0.049880955 -0.04646693
0.08062238 -0.033272516 -0.020040466 -0.047769517 0.054943524 0.07435996 -0.053849846 -0.052740224
0.08868802 0.024496589 0.05461734 0.046906557 0.071663775 -0.022798343 -0.010964978 0.05642526
0.064489745 -0.07790938 0.0883556 0.0032535668 -0.05626462 -0.08449881 0.040204994 -0.048303716
0.07404553 0.04114768 -0.008083344 -0.044968925 -0.072427 -0.015658723 -0.0655337 -0.07048372
0.053504333 0.022023985 -0.025255144 -0.06296828 -0.0869651 -0.07877942 -0.07475441 0.023944156
-0.075158946 0.008647958 -0.01038708 0.075493194 -0.072597995 0.029107042 -0.0367653 -0.024439113
0.046691693 -0.0553086 -0.037242245 0.06626848 0.080447264 0.0020453923 -0.02824117 -0.030622443
-0.082295656 -0.01024955 -0.023563005 0.051699303 0.06720061 0.007372728 0.046174712 -0.08190579
-0.074988335 -0.036088083 0.08694118 -0.066008046 0.022384927 -0.11438242 -0.020820942 0.012991011
00000000: af5d 153d 83dc bfbd e161 163c 4c17 7d3b
00000010: bb1c c2bd 4fcb fe3c 1cf0 69bd 8fc9 8ebd
00000020: 9c5b fc3c 4379 26bd 6fe9 b2bb a68b b7bd
00000030: 8902 e5bb bc29 ff3b a4df 353d e71e 9abd
00000040: 2c40 d5bd 846e 77bc 789b 033d c2be 913c
00000050: 8a16 dfbd cc70 e43c fb6b 87bc 4a24 82bd
00000060: 6d40 dcbd a2fa acbd b33a b4bd 1a80 9fbd
00000070: 4c12 7c3d be70 a73c 19b3 70bd d3f6 19bd
00000080: bf61 70bd a31f 153d 2fd4 72bd 0484 13bb
00000090: a08c 1c3d a8ca 34bd 8288 e8bd 9504 54bd
000000a0: 1ecd 143d 0b67 603d 3c09 bdbd b90a abbd
000000b0: 1ee5 c1bc 5b53 c0bd 4767 d0bd 6b1a 43bd
000000c0: 3e65 25bd 23cb 01bd 55c6 5e3d 7259 af3c
000000d0: abd9 9abd 6238 6a3d 712f 9cbd 9537 33bd
000000e0: 9ab1 77bd 877a 4b3c 3ea1 b1bc fbff 113d
000000f0: 0531 23bd 8810 44b8 d1f1 cabc b2e1 a3bc
00000100: 266e f43b 6f5a c0bd 8100 c2bd 089a a8bd
00000110: 189a 25bc 86d1 303d c39c b6bd fc54 c03c
00000120: b5ff 893c c4ec b3bc 3c06 343d ac07 193d
00000130: ae18 1bbc a515 e1bd 2a9d a5bc 04cf 98bc
00000140: fe3b 163d c3c1 293c c861 6e3d fe94 113d
00000150: 5634 553c e9a4 883d e352 9b3a 82d8 0a3d
00000160: 34d0 c13c 79b9 653d 2dbf 8bbd 43fc c5bd
00000170: 2998 7dbd 0cf4 c8bc 667f 0bbd 5e87 8bbd
00000180: 775a 933d 6fa0 d43c 42dd c83c 341c 833c
00000190: f724 8ebd 160e dd3c cbd6 57bd d06c 47bd
000001a0: c87f db3c dc71 d0bd 04c2 72bd 3306 80bd
000001b0: 8e87 d9bd 0c99 94bd c76b a3bb 86dd d4bc
000001c0: 019a 473d c20b bcbc ca75 183d 15da 92bd
000001d0: 8489 573d ac20 eabb 2565 b8bd 792b 003c
000001e0: 2678 ee3c 5d78 1bbd 2608 c5bd e517 593d
000001f0: 6be2 80bd 9b26 83bd 494e 863d 3e32 883d
00000200: dbb9 353d 5d21 b3bd 34ab 8fbc b051 ab3d
00000210: eef8 d5bc 6009 aa3a 1151 853d b1fb 703c
00000220: 1fa8 a03c d10a f63c fda8 783d a843 9dbd
00000230: fff0 4f3d ac6c 22bd 5296 03bc fa4b a2bd
00000240: d579 8f3d e8b6 893d c8c1 5bbd d163 febc
00000250: 9c1f 343d 3103 9d3d b8fe 813d 69bd c6bc
00000260: 66c1 803c 95a7 fc3c 78a8 3cbc 4610 34bd
00000270: 4da3 3bbd d68b e63b 2a56 63bd 8c4a a6bd
00000280: 27e1 83ba 3e1c 7c3d 167b a0bc 9f09 61bd
00000290: 7500 6dbd 8e11 853d 1588 8cbd 631a 5bbc
000002a0: d796 eebc a994 d83c b24d 133d 27af 313b
000002b0: 28c4 2ebd 9072 73bd 4659 963d 1134 8abd
000002c0: 7a88 abbd 1d7f ecbc d5e0 93bd b47a 253d
000002d0: 4603 853d 02d0 ce3b f94f 4c3d 1c54 3ebd
000002e0: 591d a53d c348 08bd e72b a4bc f8a9 43bd
000002f0: 760c 613d 094a 983d a891 5cbd 2206 58bd
00000300: 11a2 b53d 12ad c83c 6fb6 5f3d 1721 403d
00000310: 75c4 923d 97c3 babc 73a6 33bc 2c1e 673d
00000320: 3313 843d f48e 9fbd c8f3 b43d cb39 553b
00000330: bb75 66bd b60d adbd fead 243d 1eda 45bd
00000340: 2fa5 973d 788a 283d 0170 04bc 5631 38bd
00000350: 9b54 94bd b946 80bc 8836 86bd c559 90bd
00000360: 5c27 5b3d a56b b43c e0e3 cebc 83f5 80bd
00000370: c21a b2bd 1b57 a1bd d718 99bd 8926 c43c
00000380: efec 99bd 2ab0 0d3c 922e 2abc 2d9c 9a3d
00000390: 42ae 94bd e471 ee3c 3697 16bd 8934 c8bc
000003a0: ca3f 3f3d 458b 62bd 538b 18bd c5b7 873d
000003b0: 89c1 a43d fd0b 063b 075a e7bc ebdb fabc
000003c0: a08a a8bd bbed 27bc 3407 c1bc a6c2 533d
000003d0: 79a0 893d ed96 f13b b221 3d3d 39be a7bd
000003e0: 7c93 99bd 19d1 13bd 380e b23d 3a2f 87bd
000003f0: 9860 b73c 5541 eabd ae90 aabc 40d8 543c

fc1.bias f4 [100]
0.0404209 -0.06867001 -0.044305954 -0.023761556 -0.1291666 0.062097814 0.00019958182 0.012463418
0.025017256 -0.0075338045 -0.059751183 -0.14323458 -0.116558306 0.03844464 -0.046005324 -0.018977167
0.015474287 0.04381752 0.014064459 0.079082824 0.00077964755 -0.066307485 -0.003695701 -0.04172
0.027265213 0.065060735 -0.12642118 -0.13810994 -0.014583639 -0.04232242 0.031827807 -0.03994945
-0.008784541 -0.03893892 -0.0807685 0.053570423 0.03719155 -0.0068734153 -0.09618853 -0.034469858
-0.09849582 -0.065251864 -0.005524682 0.0037687726 -0.043332614 -0.01401651 -0.03728294 -0.1453592
-0.021036344 -0.05669393 -0.0863171 -0.030146506 -0.0519481 -0.08469848 0.018305369 0.05781134
-0.081209525 -0.079159394 -0.004438996 -0.052677464 -0.042046856 -0.08593214 -0.07270057 -0.0013154215
0.0019193877 -0.04874201 -0.023501068 0.05179436 -0.13707228 -0.014403703 -0.061238617 -0.11734501
-0.046253964 -0.0058722273 0.022395568 -0.05587447 -0.007403357 0.07386746 -0.08660544 0.069892935
-0.005111583 -0.019691175 -0.029888367 0.18622047 -0.07074712 -0.14607997 -0.119144954 -0.066418834
-0.052189488 -0.012943495 0.03067124 -0.041706163 -0.056105234 -0.021743309 -0.03658697 0.024894714
-0.12285031 0.03395209 -0.055661246 -0.052214757
00000000: 6390 253d dda2 8cbd 297a 35bd 98a7 c2bc
00000010: 4044 04be 475a 7e3d d646 5139 5d33 4c3c
00000020: fdf0 cc3c 22de f6bb a8bd 74bd 16ac 12be
00000030: 1fb6 eebd 2078 1d3d 1470 3cbd 0176 9bbc
00000040: dd87 7d3c 007a 333d 9e6e 663c 2df6 a13d
00000050: 4361 4c3a 38cc 87bd 9333 72bb 97e2 2abd
00000060: 4c5b df3c 903e 853d 8e74 01be b16c 0dbe
00000070: 37f0 6ebc 465a 2dbd e05d 023d 09a2 23bd
00000080: 09ed 0fbc 6b7e 1fbd f569 a5bd a96c 5b3d
00000090: 2b56 183d 633a e1bb 7efe c4bd 4430 0dbd
000000a0: 2db8 c9bd c5a2 85bd 6408 b5bb 83fd 763b
000000b0: 8a7d 31bd 81a5 65bc ffb5 18bd 0bd9 14be
000000c0: 6954 acbc e537 68bd 05c7 b0bd cef5 f6bc
000000d0: 88c7 54bd 6676 adbd 24f5 953c 95cb 6c3d
000000e0: 2e51 a6bd 521e a2bd ff74 91bb 53c4 57bd
000000f0: 5339 2cbd 31fd afbd 09e4 94bd 396a acba
00000100: f793 fb3a b4a5 47bd 5085 c0bc 5326 543d
00000110: ad5c 0cbe 82fd 6bbc 58d5 7abd 9552 f0bd
00000120: cc74 3dbd d06b c0bb e976 b73c a1dc 64bd
00000130: dc97 f2bb d347 973d 315e b1bd 0724 8f3d
00000140: 117f a7bb 634f a1bc 73d8 f4bc 94b0 3e3e
00000150: dee3 90bd fd95 15be 4502 f4bd 9906 88bd
00000160: a5c4 55bd f410 54bc 4142 fb3c 15d4 2abd
00000170: 9ace 65bd 061f b2bc 38dc 15bd 00f0 cb3c
00000180: f198 fbbd 5911 0b3d 0cfd 63bd 24df 55bd

fc2.weight f4 [100, 100]
0.0003948 -0.09542847 -0.04233497 0.057710595 -0.0069608698 -0.017500868 -0.041297723 -0.07324528
0.07893046 -0.06991317 -0.010360996 0.1323589 -0.014003766 -0.03133862 0.03156415 0.050937306
0.0845937 -0.04462833 -0.09477987 -0.014905358 -0.0005714903 0.101566456 0.027844833 0.054628093
0.04295994 0.044804767 0.050476074 -0.035088122 -0.041823007 0.05079769 0.16084428 0.0055229957
-0.036481537 -0.095240496 -0.07752123 -0.11238173 -0.09006016 -0.0044316715 0.024246097 0.040881492
0.10376257 -0.061523993 0.08473075 -0.019419337 -0.06999451 -0.017734125 -0.005911979 -0.04241655
0.030416723 0.08921425 0.03675147 -0.06626385 0.07514891 -0.01996027 -0.028983949 0.03314068
0.09986216 0.08376143 -0.083624415 0.07848892 0.09702813 0.012140337 0.026758492 -0.07183112
0.07476972 -0.017276887 0.08660116 0.046123132 -0.01376325 -0.08857408 0.031182816 0.006497036
0.05755703 -0.0691219 0.06679678 -0.0274446 0.03930929 0.038570717 0.05112297 -0.0018991118
0.011174413 0.06139091 0.0058235275 -0.16083457 -0.030612782 0.08013061 0.02371472 -0.03287821
0.010235083 -0.051792003 0.12634602 0.050925724 -0.10534951 -0.050415445 -0.12786227 0.023965962
-0.004354918 -0.10392591 0.0633749 0.011925186 0.018479194 -0.079864144 0.06218473 0.019438114
0.1351949 -0.012036671 -0.034698773 0.08218951 0.038196027 0.06917003 -0.071615756 0.115900986
-0.04663583 0.032365408 0.011984559 0.033347484 -0.047224734 -0.051168498 -0.079172865 -0.061952066
-0.06817395 0.07864508 0.032102317 0.07838657 0.073311746 -0.034898464 -0.033455886 -0.034498982
0.07523155 0.025346339 0.13988407 -0.06646117 0.0941489 0.089543976 0.06838548 -0.047280703
-0.10679048 -0.1235433 0.04214948 -0.056922127 0.14921494 0.008969479 0.020208292 0.006282903
-0.05550878 -0.071397424 0.025950525 -0.00061689614 0.101508126 -0.031752456 0.068227425 -0.045962628
0.06633077 0.014330265 -0.033083044 0.068241455 0.09604902 -0.0658226 -0.1802595 0.011326932
0.0971829 -0.029969452 -0.03465226 0.03932647 -0.00070005655 0.029707909 -0.0026628969 -0.033860352
-0.08657032 -0.0032553123 0.060001455 -0.037490726 -0.12798363 0.050449457 0.0985145 0.0015000997
0.031772472 -0.10703443 -0.04305258 -0.025178486 -0.0909084 0.050062567 0.04308649 -0.1336398
0.11402091 0.101997785 0.026442576 0.09179819 -0.066806994 -0.0013213054 0.06875673 -0.109544486
-0.09820471 -0.039126314 0.034129385 -0.024613861 0.07703026 -0.108661674 -0.016094565 0.14711305
-0.076898865 0.006190002 0.051288772 0.09008064 -0.03866161 -0.040619418 -0.061579335 0.018884715
-0.04906986 -0.07653592 -0.030713612 -0.07756467 -0.016789423 -0.020505778 -0.0038024744 0.027971376
-0.07407381 -0.13717389 0.06730161 0.008315806 0.053470112 -0.07139928 -0.03411248 -0.12202364
0.013154328 -0.12463685 0.026796712 -0.006911409 0.07004263 -0.032483187 -0.045344736 -0.0045046094
-0.06590458 0.0756553 0.09623388 -0.11917087 -0.064234614 -0.021865211 0.00012471677 -0.020940198
-0.04270568 -0.029855318 -0.04464474 -0.039498616 0.03229625 -0.037088934 -0.04113841 -0.017533695
0.01434654 0.020899141 -0.06754532 0.009624349 -0.008663642 -0.14038156 -0.020042466 -0.023280596
00000000: 29fd ce39 0070 c3bd 6f67 2dbd f261 6c3d
00000010: 0218 e4bb fb5d 8fbc cd27 29bd 9f01 96bd
00000020: 4ba6 a13d a32e 8fbd 2bc1 29bc 1789 073e
00000030: 0d70 65bc ed5c 00bd 6949 013d a3a3 503d
00000040: 763f ad3d 32cc 36bd f31b c2bd 9a35 74bc
00000050: 11d0 15ba 1302 d03d d91a e43c b5c1 5f3d
00000060: c3f6 2f3d 3485 373d 00c0 4e3d 90b8 0fbd
00000070: 9a4e 2bbd 3d11 503d 5db4 243e 3ffa b43b
00000080: aa6d 15bd 730d c3bd 73c3 9ebd 6428 e6bd
00000090: 7671 b8bd 8e37 91bb c09f c63c 5a73 273d
000000a0: 7881 d43d 9500 7cbd 5187 ad3d 4d15 9fbc
000000b0: 4859 8fbd 2847 91bc 46b9 c1bb fabc 2dbd
000000c0: 7e2c f93c f6b5 b63d b688 163d 57b5 87bd
000000d0: ace7 993d b883 a3bc bf6f edbc 86be 073d
000000e0: 8884 cc3d 1d8b ab3d 4743 abbd cdbe a03d
000000f0: afb6 c63d 44e8 463c a034 db3c 321c 93bd
00000100: de20 993d 4288 8dbc f35b b13d 9ceb 3c3d
00000110: 417f 61bc 5466 b5bd 1b73 ff3c 17e5 d43b
00000120: ecc0 6b3d c88f 8dbd c0cc 883d 7fd3 e0bc
00000130: c702 213d 54fc 1d3d 5266 513d 9eeb f8ba
00000140: e314 373c 0975 7b3d 4ad3 be3b d1b1 24be
00000150: a8c7 fabc 841b a43d 5f45 c23c 4dab 06bd
00000160: 0db1 273c da23 54bd da60 013e 7e97 503d
00000170: 7cc1 d7bd 6d80 4ebd 54ee 02be 4454 c43c
00000180: b3b3 8ebb 1cd7 d4bd b3ca 813d db61 433c
00000190: ae61 973c d08f a3bd 6ab5 7e3d ae3c 9f3c
000001a0: 8870 0a3e 7535 45bc 4d20 0ebd f952 a83d
000001b0: 7073 1c3d 04a9 8d3d 48ab 92bd 7f5d ed3d
000001c0: 3605 3fbd 9791 043d e25a 443c 5f97 083d
000001d0: b96e 41bd 0f96 51bd 6225 a2bd 73c1 7dbd
000001e0: c99e 8bbd ac10 a13d b87d 033d 2389 a03d
000001f0: 7824 963d b1f1 0ebd 0a09 09bd ce4e 0dbd
00000200: 0013 9a3d 20a3 cf3c c53d 0f3e cb1c 88bd
00000210: 23d1 c03d d562 b73d b00d 8c3d 69a9 41bd
00000220: f8b4 dabd 4504 fdbd efa4 2c3d 2d27 69bd
00000230: cdcb 183e b9f4 123c dc8b a53c cfe0 cd3b
00000240: 2d5d 63bd d038 92bd 3296 d43c 33b7 21ba
00000250: 7ee3 cf3d dd0e 02bd d2ba 8b3d 4f43 3cbd
00000260: 6dd8 873d 7dc9 6a3c 1682 07bd 2dc2 8b3d
00000270: 59b5 c43d 00ce 86bd f295 38be 9994 393c
00000280: d407 c73d 7f82 f5bc 87ef 0dbd cb14 213d
00000290: 0084 37ba 005e f33c ff83 2ebb 27b1 0abd
000002a0: c84b b1bd 1457 55bb 16c4 753d e08f 19bd
000002b0: 240e 03be 17a4 4e3d f8c1 c93d fe9e c43a
000002c0: da23 023d de34 dbbd e757 30bd 1d43 cebc
000002d0: 2f2e babd 680e 4d3d 767b 303d dfd8 08be
000002e0: cb83 e93d 37e4 d03d 1a9e d83c b000 bc3d
000002f0: 1bd2 88bd a72f adba 54d0 8c3d dc58 e0bd
00000300: 8d1f c9bd ea42 20bd 41cb 0b3d 02a3 c9bc
00000310: 0ac2 9d3d 038a debd c0d8 83bc cea4 163e
00000320: 277d 9dbd 80d5 ca3b 2d14 523d 337c b83d
00000330: a35b 1ebd 8c60 26bd 9d3a 7cbd 1eb4 9a3c
00000340: 7afd 48bd ddbe 9cbd 1d9b fbbc 3ada 9ebd
00000350: f989 89bc bcfb a7bc ef32 79bb 3a24 e53c
00000360: 02b4 97bd 5077 0cbe 6dd5 893d 053f 083c
00000370: 7a03 5b3d c939 92bd 87b9 0bbd 88e7 f9bd
00000380: 4085 573c 9b41 ffbd c784 db3c 1a79 e2bb
00000390: 8372 8f3d 170d 05bd 67bb 39bd 679b 93bb
000003a0: fbf8 86bd 2af1 9a3d 4516 c53d db0f f4bd
000003b0: 708d 83bd ac1e b3bc 67c6 0239 c78a abbc
000003c0: 27ec 2ebd 2493 f4bc 67dd 36bd 4dc9 21bd
000003d0: 1349 043d 91ea 17bd c080 28bd d3a2 8fbc
000003e0: c00d 6b3c ad34 ab3c 3355 8abd 72af 1d3c
000003f0: f3f1 0dbc 2fc0 0fbe 1930 a4bc f3b6 bebc

fc2.bias f4 [100]
-0.025478251 -0.0072710025 -0.02655929 -0.18094487 -0.114487596 -0.06284835 -0.13435584 -0.054088954
-0.12689012 -0.071288615 -0.010145782 -0.09788196 -0.13044412 -0.021612868 -0.1816364 -0.27138615
-0.15667655 -0.15402324 -0.040701125 -0.15165645 -0.60593337 -0.06905817 -0.067950405 -0.10715448
-0.102447584 -0.10796682 -0.05433133 -0.0346687 -0.09110254 -0.07516131 -0.0033638608 -0.0901522
-0.12602615 -0.018871339 -0.29737568 -1.0916129 -0.06475779 -0.085873604 -0.27039728 -1.4680028
-0.021388426 -0.070872225 -0.066171065 -0.01009557 -0.007279844 -0.059848584 -0.1976324 -0.044650745
-0.011496266 -0.07282215 -0.06980131 -0.0008095232 -0.092161946 -0.090097494 -0.08611862 -0.04173208
-0.18652134 -0.10987547 -0.2617753 -0.072527744 -0.023654127 -0.11819405 -0.15152699 -0.10220779
-0.24374802 -0.12018238 -0.14765088 -0.0053016273 -0.08798892 -0.04682631 -0.030829346 -0.07500278
-0.10758572 -0.17620131 -0.15728569 -0.0022881527 -0.10074147 -0.058135815 -0.25665134 -0.0010999163
-0.050218854 -0.13421279 -0.21128817 -0.18885276 -0.0024417804 -0.08790994 -0.012607065 -0.28007656
-0.38290542 -0.12078227 -0.010047989 -0.03968148 -0.039437667 -0.27028957 -0.081377804 -0.09407818
-0.08150076 -0.14757857 -0.02104617 -0.0021328244
00000000: c4b7 d0bc 9741 eebb de92 d9bc 9d49 39be
00000010: 7978 eabd a3b6 80bd 9494 09be 618c 5dbd
00000020: 7cef 01be c4ff 91bd 7e3a 26bc 5676 c8bd
00000030: 2593 05be 780d b1bc e4fe 39be 20f3 8abe
00000040: d16f 20be 45b8 1dbe 39b6 26bd d44b 1bbe
00000050: 731e 1bbf 5f6e 8dbd 9529 8bbd cf73 dbbd
00000060: 0ad0 d1bd b51d ddbd 878a 5ebd c400 0ebd
00000070: f893 babd 2cee 99bd 3874 5cbb b7a1 b8bd
00000080: 000d 01be 1198 9abc a041 98be f9b9 8bbf
00000090: bb9f 84bd 80de afbd 8371 8abe 84e7 bbbf
000000a0: c836 afbc 7525 91bd b284 87bd e467 25bc
000000b0: c28b eebb ca23 75bd 2660 4abe b3e3 36bd
000000c0: d65a 3cbc c823 95bd fdf3 8ebd 2f36 54ba
000000d0: 67bf bcbd 0985 b8bd f65e b0bd 42ef 2abd
000000e0: 73ff 3ebe 6406 e1bd 6a07 86be 6d89 94bd
000000f0: 4dc6 c1bc b90f f2bd e429 1bbe 5152 d1bd
00000100: 1599 79be 2e22 f6bd cb31 17be 46b9 adbb
00000110: 8933 b4bd f2cc 3fbd d38d fcbc 0f9b 99bd
00000120: e755 dcbd 1e6e 34be 800f 21be d5f4 15bb
00000130: 8b51 cebd d21f 6ebd ce67 83be 112b 90ba
00000140: 49b2 4dbd 146f 09be ed5b 58be 9e62 41be
00000150: 4706 20bb 200a b4bd dd8d 4ebc 3266 8fbe
00000160: 2e0c c4be b25c f7bd 52a0 24bc 0c89 22bd
00000170: 6489 21bd 6563 8abe 68a9 a6bd 10ac c0bd
00000180: dfe9 a6bd d61e 17be 0469 acbc dbc6 0bbb

fc3.weight f4 [100, 100]
0.019514823 -0.051439404 0.08620852 0.079788566 -0.023827601 0.06259447 0.08698535 -0.03533833
-0.07611083 -0.07046747 -0.086727045 0.027684165 0.0033556463 -0.031623017 0.015418542 0.09341698
-0.04625907 0.052704073 -0.019886363 0.090059154 0.021506071 -0.086339675 0.098329924 0.0380216
-0.06372044 -0.022803068 -0.09855526 0.07059997 0.046242286 -0.093239605 0.07127642 -0.09595479
0.04643154 0.010661865 -0.09806253 -0.056366574 0.05756029 0.07966044 -0.040881623 -0.014059496
0.013923335 -0.027030779 0.09024779 -0.06799853 -0.035628285 -0.058848202 -0.07438394 -0.09817822
-0.09309906 -0.09648233 -0.065326095 0.078257225 0.075208165 -0.0043803933 0.08177965 -0.07334155
-0.024822164 -0.07245729 0.038624432 -0.061852455 -0.071735375 0.025511337 -0.014785814 -0.05560708
-0.018793141 -0.0018454433 0.09459487 0.033982623 -0.04429827 -0.04522252 -0.0057492377 0.05475072
0.06328187 0.066854015 0.098451994 0.097366594 -0.0764875 0.020813465 -0.0393832 -0.030330336
-0.013245809 -0.059368756 -0.059082177 -0.062494397 -0.030451203 -0.033820238 0.066031754 0.052871358
0.09979995 -0.093609355 0.0634157 0.08529961 0.035365857 -0.07752579 -0.066798866 0.006396866
0.06587899 0.0046734335 0.08813625 0.024744188 -0.1369857 -0.03328248 -0.08349385 0.072840445
-0.07602102 -0.0715819 0.057929885 -0.08432251 -0.079067074 -0.13695237 -0.036730584 0.01715659
0.05137062 -0.029220017 -0.03381552 -0.07466912 -0.03964875 -0.14760357 -0.055898692 -0.09852702
-0.09731426 0.03261268 0.026856065 -0.12509283 -0.16034633 -0.09365901 0.023912372 0.039815374
-0.14740859 -0.051630925 -0.011037539 -0.0964566 -0.0061640274 0.060059022 0.05549636 -0.35300985
0.029813264 -0.042369187 -0.024435222 -0.18818088 0.08754846 0.044686127 -0.1467094 -0.09014492
-0.09695259 -0.07575249 -0.047725715 0.05059401 -0.069104284 -0.14041877 -0.12557454 0.012374238
-0.0136136655 -0.098919265 0.0017991145 -0.14714348 -0.099664554 -0.14894603 -0.04956696 -0.08764399
0.004285778 0.037284974 -0.067692965 0.08816991 -0.13036229 0.0177678 -0.0047053336 -0.10786227
-0.13889219 -0.03723521 -0.073543586 -0.081453905 -0.05601921 0.011806035 0.046679474 -0.08087344
-0.06355484 -0.025045479 -0.002799237 -0.088586874 -0.2986564 -0.08317797 -0.059796132 0.088555716
-0.073537625 -0.008742345 -0.07918564 0.027162349 -0.12027648 0.08189609 -0.11113885 0.028907264
0.005786583 -0.0019093872 -0.020633746 -0.11434441 -0.15826608 -0.06670103 -0.016342772 -0.071064234
0.08620321 0.0702608 -0.0037386417 0.060340818 0.056523766 -0.02590183 0.04744581 0.017944766
-0.075483434 -0.05595026 0.012565506 -0.074153125 0.13393939 0.04298388 -0.081691906 -0.025749637
0.08630003 0.06590302 -0.002527392 -0.10184827 0.035822596 -0.08495678 0.08307558 -0.039264727
-0.037163954 -0.05064353 0.07607988 0.00437634 -0.0471604 0.012272465 -0.0010529606 -0.067101136
0.09824395 -0.02766214 -0.018566906 -0.1300586 0.057156205 0.029970558 -0.0073263766 -0.12227924
0.08319493 -0.08937881 0.043896567 -0.048274722 -0.057682484 0.038604118 0.14215152 0.073169686
-0.013028777 -0.0818798 0.0014716507 0.044806644 -0.0883738 -0.067972 -0.015598572 -0.05808555
00000000: 8ddd 9f3c 20b2 52bd 188e b03d 3068 a33d
00000010: 1a32 c3bc 8831 803d 6025 b23d edbe 10bd
00000020: ffdf 9bbd 4051 90bd f39d b1bd e7c9 e23c
00000030: 67ea 5b3b 2387 01bd 0d9e 7c3c 6751 bf3d
00000040: 277a 3dbd 3ae0 573d bae8 a2bc ef70 b83d
00000050: 802d b03c dbd2 b0bd 3361 c93d 8abc 1b3d
00000060: dd7f 82bd 80cd babc 57d7 c9bd b896 903d
00000070: 8d68 3d3d 68f4 bebd 5ff9 913d f283 c4bd
00000080: 002f 3e3d 1aaf 2e3c 02d5 c8bd a3e0 66bd
00000090: 57c4 6b3d 0325 a33d 7d73 27bd cd59 66bc
000000a0: b31e 643c a76f ddbc d5d3 b83d d042 8bbd
000000b0: f7ee 11bd d00a 71bd 9b56 98bd aa11 c9bd
000000c0: b8aa bebd 8798 c5bd b0c9 85bd 5345 a03d
000000d0: bd06 9a3d 6789 8fbb 177c a73d 1834 96bd
000000e0: da57 cbbc 7d64 94bd a734 1e3d 0059 7dbd
000000f0: ffe9 92bd 27fd d03c 3340 72bc 40c4 63bd
00000100: 13f4 99bc cde2 f1ba f5ba c13d 5d31 0b3d
00000110: 1a72 35bd 403b 39bd 1a64 bcbb 4a42 603d
00000120: ed99 813d c2ea 883d 33a1 c93d 2368 c73d
00000130: 7aa5 9cbd 0081 aa3c 4750 21bd 5377 f8bc
00000140: f304 59bc a72c 73bd 2700 72bd 20fa 7fbd
00000150: cd74 f9bc 1787 0abd a83b 873d a38f 583d
00000160: eb63 cc3d 43b6 bfbd 17e0 813d 90b1 ae3d
00000170: cadb 103d d7c5 9ebd d8cd 88bd cd9c d13b
00000180: 90eb 863d 9a23 993b c780 b43d 53b4 ca3c
00000190: fb45 0cbe 3653 08bd d3fe aabd 5f2d 953d
000001a0: e9b0 9bbd 8899 92bd e347 6d3d 48b1 acbd
000001b0: ebed a1bd 3e3d 0cbe cf72 16bd fa8b 8c3c
000001c0: 006a 523d d15e efbc 2582 0abd 20ec 98bd
000001d0: ba66 22bd 6425 17be 07f6 64bd 89c8 c9bd
000001e0: b34c c7bd e094 053d 4001 dc3c 5618 00be
000001f0: d431 24be 4cd0 bfbd e1e3 c33c 7215 233d
00000200: 47f2 16be f37a 53bd cbd6 34bc 0a8b c5bd
00000210: 9cfb c9bb 7300 763d 2750 633d b5bd b4be
00000220: f23a f43c 508b 2dbd 602c c8bc 7db2 40be
00000230: 9b4c b33d cd08 373d fd3a 16be e69d b8bd
00000240: 148f c6bd 1f24 9bbd 0a7c 43bd aa3b 4f3d
00000250: 8c86 8dbd f0c9 0fbe 9d96 00be 51bd 4a3c
00000260: da0b 5fbc 2f96 cabd 44d0 eb3a c8ac 16be
00000270: ee1c ccbd 4f85 18be ba06 4bbd b17e b3bd
00000280: b66f 8c3b 21b8 183d 9ca2 8abd 6d92 b43d
00000290: b17d 05be c78d 913c 332f 9abb e5e6 dcbd
000002a0: c139 0ebe f383 18bd 059e 96bd 4ed1 a6bd
000002b0: 6674 65bd 1a6e 413c fa32 3f3d f9a0 a5bd
000002c0: 0a29 82bd 2d2c cdbc 6773 37bb 096d b5bd
000002d0: 7ee9 98be 3659 aabd caec 74bd b35c b53d
000002e0: e59a 96bd 0d3c 0fbc 152c a2bd 9383 de3c
000002f0: 8453 f6bd 23b9 a73d c49c e3bd edce ec3c
00000300: 609d bd3b 6744 faba 1a08 a9bc 672d eabd
00000310: 8110 22be 8d9a 88bd 47e1 85bc 208a 91bd
00000320: 4f8b b03d e5e4 8f3d 0004 75bb ef27 773d
00000330: 7785 673d 1330 d4bc 8a56 423d e700 933c
00000340: 0f97 9abd 1a2c 65bd 8ddf 4d3c 98dd 97bd
00000350: 6827 093e dd0f 303d 164e a7bd e7f0 d2bc
00000360: 12be b03d 2af8 863d 9aa2 25bb d395 d0bd
00000370: b7ba 123d d2fd adbd 8823 aa3d 0dd4 20bd
00000380: 3b39 18bd 976f 4fbd c5cf 9b3d 6767 8f3b
00000390: 432b 41bd 7312 493c 7f03 8aba 526c 89bd
000003a0: 2034 c93d b69b e2bc a019 98bc 152e 05be
000003b0: a01c 6a3d d184 f53c 1a12 f0bb 8a6d fabd
000003c0: 1a62 aa3d 3d0c b7bd e3cc 333d b7bb 45bd
000003d0: 7844 6cbd 5a1f 1e3d 2b90 113e fdd9 953d
000003e0: a776 55bc 99b0 a7bd 67e4 c03a 2c87 373d
000003f0: 53fd b4bd e734 8bbd 2791 7fbc 1deb 6dbd

fc3.bias f4 [100]
-0.09290429 -0.024206452 -0.065820895 -0.060362324 -0.004507885 -0.7095804 -0.23141591 -0.04254961
-0.027266856 -0.018294793 -0.025132304 -0.002674464 -0.0045598787 -0.24351867 -0.83621126 -0.017160684
-0.097071536 -0.33441144 -0.08135094 -0.14495148 -0.09108855 -0.0080417935 -0.25330755 0.64757407
-0.29914215 -0.17321156 -0.3703347 -0.25724825 -0.06428465 -0.24305162 -0.026007386 -0.36324084
-0.090966254 -0.046722278 -0.27760577 -0.2437527 -0.1286153 -0.48275402 0.8338774 -0.2979279
-0.06732 -0.11387168 -0.3473599 -0.11393042 -0.094636805 -0.023265636 -0.35509387 -0.0045089577
-0.01093092 -0.004750949 -0.19820127 -0.4380111 -0.06110729 0.8155355 -0.13923036 -0.03414852
-0.08203768 -0.13978273 -0.008625106 -0.094839275 -0.048482146 -0.035880037 -0.022020342 -0.028567389
-0.116819866 -0.29510903 -0.25823626 -0.053436875 -0.22093335 -0.07024812 -0.28455848 -1.5590167
-0.25180858 -0.39535594 -0.113490306 -0.07108808 -0.08629051 -0.12053043 -0.08107598 -0.044141944
-0.011261638 -0.59091395 -0.15823911 -0.047575627 -0.059026 -0.3328446 -0.099890485 -0.5162539
-0.08397405 -0.003863473 -0.010299049 -0.013035732 -0.33507955 -0.0073719905 -0.57440245 1.1134884
-0.0470024 -0.026203115 -0.0354103 -0.34755486
00000000: 9b44 bebd 9c4c c6bc 1bcd 86bd 7c3e 77bd
00000010: e1b6 93bb 10a7 35bf 4bf8 6cbe 8048 2ebd
00000020: be5e dfbc f6de 95bc 43e2 cdbc 0f46 2fbb
00000030: 096b 95bb f55c 79be f111 56bf 9094 8cbc
00000040: 71cd c6bd fa37 abbe 529b a6bd 296e 14be
00000050: a28c babd bac1 03bc 87b1 81be 6ac7 253f
00000060: 2929 99be 5f5e 31be 839c bdbe 0bb6 83be
00000070: aca7 83bd 86e2 78be 710d d5bc b4fa b9be
00000080: 844c babd dc5f 3fbd 5822 8ebe 4f9a 79be
00000090: bbb3 03be 892b f7be fd78 553f 018a 98be
000000a0: 11df 89bd 8e35 e9bd 28d9 b1be 5a54 e9bd
000000b0: f1d0 c1bd 9397 bebc ddce b5be e1bf 93bb
000000c0: 9a17 33bc d9ad 9bbb 46f5 4abe fe42 e0be
000000d0: a34b 7abd efc6 503f 6792 0ebe 52df 0bbd
000000e0: 5f03 a8bd 3423 0fbe 5150 0dbc 183b c2bd
000000f0: 3795 46bd f2f6 12bd 0164 b4bc 2806 eabc
00000100: 413f efbd 8818 97be 8b37 84be a0e0 5abd
00000110: 5a3c 62be 3fde 8fbd a6b1 91be dc8d c7bf
00000120: 0eed 80be 186c cabe 9b6d e8bd a196 91bd
00000130: 14b9 b0bd a8d8 f6bd 2a0b a6bd 2fce 34bd
00000140: bc82 38bc 2346 17bf 6f09 22be a9de 42bd
00000150: 3fc5 71bd 9b6a aabe 6293 ccbd 3729 04bf
00000160: 96fa abbd 5232 7dbb 58bd 28bc d393 55bc
00000170: 8c8f abbe bd90 f1bb 0a0c 13bf ca86 8e3f
00000180: 9785 40bd eaa7 d6bc 640a 11bd b6f2 b1be

fc4.weight f4 [64, 100]
0.025960803 -0.09163829 0.069269076 -0.06832633 0.04190513 0.041450586 0.043663777 -0.07790022
0.080869295 -0.045630958 -0.086047925 -0.0710574 -0.069607735 -0.036967862 -0.25261799 0.056575086
0.031094706 -0.046105053 -0.061871182 0.078339 -0.038917817 0.0040807608 -0.020173145 -0.071248606
-0.008523417 -0.122577205 0.09434354 0.0030289174 0.013854957 0.03303809 0.06592021 -0.03975897
0.05849109 -0.06503751 -0.061922323 0.008809256 0.08402368 -0.02115177 -0.06592975 0.025076533
0.051749658 -0.025348354 -0.040460624 0.058446825 -0.02467817 -0.05647404 -0.043374516 -0.06068149
-0.030273914 -0.03794506 0.08805241 0.026350785 -0.047965884 0.015696479 0.06927239 0.016604567
-0.044260968 -0.09543592 0.08257105 -0.08831733 -0.06345933 -0.03264153 -0.017613161 -0.023503518
-0.021714771 -0.042293288 0.050903212 -0.06828284 -0.086726725 0.062584095 -0.011133039 -0.19056791
0.03962008 0.024440562 0.026389206 0.034932863 -0.041133083 0.077032305 -0.052032318 -0.07935953
-0.041173767 0.06305484 -0.09317197 0.03506738 0.068416335 0.0909343 0.003891504 0.016139472
-0.05876101 0.025324667 -0.08181182 0.039691627 0.06420082 -0.09127303 -0.31575736 -0.0146240955
0.07917931 -0.0061207893 0.020726753 0.021313882 -0.08697132 0.07711204 -0.041216608 0.102398336
0.00021189389 -0.33228877 -0.020850798 0.0103858495 -0.018997353 -0.01889463 0.0466319 -0.04364331
-0.02536107 -0.09078381 -0.2407847 -0.06834124 0.055051718 -0.07412523 -0.032697666 0.13181631
-0.05586199 0.024406277 0.115854226 -0.4864573 -0.3249587 -0.027273536 -0.07103156 -0.17227247
-0.0630761 0.15060827 0.049285877 0.5334979 0.05640263 -0.012574673 -0.17425035 -0.050434306
-0.07211385 0.09534431 -0.24980588 -0.0937867 0.034680903 0.017472364 0.05454805 0.13883327
0.13879846 0.04641659 0.08863902 -0.0634681 0.0013272418 0.025040263 -0.321589 0.3895065
0.1558853 -0.036856435 -0.0075285076 0.04582977 0.07701697 -0.0581619 -0.0834897 0.0141903255
-0.1198983 -0.09521582 0.049391378 0.08515305 0.13627525 -0.38574162 -0.07907286 -0.09816682
0.029843349 0.009736745 0.26301116 -0.45784366 -0.23920435 -0.24828255 0.09496271 0.029240925
-0.021501515 0.09409186 -0.41002685 -0.018361475 0.1280054 0.3720928 0.08841094 -0.024172807
0.07103111 -1.6083946e-05 0.043662813 -0.15975627 -0.06515001 0.1374298 -0.03615712 -0.005858567
-0.34750757 0.04016296 -0.23466684 -1.7580855 0.0064614126 -0.042803686 -0.030029938 -0.1672984
-0.01200161 -0.043455016 0.013032794 -0.024640953 -0.03126244 0.035525203 -0.023549462 0.088067725
0.014049522 0.03009919 0.103110686 -0.014197309 0.09083023 -0.032533705 -0.20454058 0.00888554
0.036145784 0.03537617 0.0035306455 -0.031045033 0.047644448 -0.03951651 -0.08458914 0.088941
-0.04667286 -0.0146220615 -0.020090986 -0.098447934 0.17550355 0.030225981 0.14749815 0.048930585
-0.08547229 -0.09684185 -0.019952202 0.09715217 0.074926324 0.056822855 0.0054394687 0.15836646
0.16923356 0.081045985 -0.08180811 0.047226872 -0.05258106 -0.14238088 0.02868548 -0.020782588
0.1018232 0.15743461 0.38315564 0.050171293 -0.08345802 -0.09018225 0.091702364 0.043949373
00000000: c0ab d43c dbac bbbd f2dc 8d3d adee 8bbd
00000010: b7a4 2b3d 17c8 293d cad8 323d 278a 9fbd
00000020: cd9e a53d 87e7 3abd e539 b0bd 8b86 91bd
00000030: 808e 8ebd 9d6b 17bd 2557 81be 47bb 673d
00000040: 53ba fe3c a7d8 3cbd a36c 7dbd 3370 a03d
00000050: 4a68 1fbd e7b7 853b 2742 a5bc caea 91bd
00000060: cda5 0bbc c209 fbbd 3037 c13d cd80 463b
00000070: e7ff 623c f352 073d 2d01 873d 4dda 22bd
00000080: 5a94 6f3d 6332 85bd 43a2 7dbd b354 103c
00000090: 9b14 ac3d 7a46 adbc 2d06 87bd 4d6d cd3c
000000a0: 73f7 533d 5aa7 cfbc 0aba 25bd f065 6f3d
000000b0: e029 cabc 5351 67bd 7aa9 31bd 278d 78bd
000000c0: 0001 f8bc 476c 1bbd d254 b43d 9add d73c
000000d0: e077 44bd e795 803c afde 8d3d 4d06 883c
000000e0: fd4a 35bd e873 c3bd 031b a93d b7df b4bd
000000f0: f7f6 81bd 20b3 05bd 7a49 90bc 738a c0bc
00000100: 2de3 b1bc ba3b 2dbd e37f 503d e0d7 8bbd
00000110: c89d b1bd 172c 803d 5a67 36bc 3c24 43be
00000120: aa48 223d 9337 c83c 2d2e d83c c315 0f3d
00000130: 2a7b 28bd 1dc3 9d3d d71f 55bd 4087 a2bd
00000140: d3a5 28bd e522 813d f2d0 bebd d0a2 0f3d
00000150: dd1d 8c3d c33b ba3d 9a08 7f3b ed36 843c
00000160: 63af 70bd ad75 cf3c f58c a7bd b093 223d
00000170: b87b 833d 5bed babd f3aa a1be e799 6fbc
00000180: c328 a23d e790 c8bb 27cb a93c 739a ae3c
00000190: 051e b2bd ebec 9d3d bfd2 28bd 38b6 d13d
000001a0: d52f 5e39 c121 aabe 4bcf aabc 6929 2a3c
000001b0: 56a0 9bbc e9c8 9abc 1701 3f3d 54c3 32bd
000001c0: 05c2 cfbc ddec b9bd 4490 76be 7ef6 8bbd
000001d0: e97d 613d f8ce 97bd fded 05bd dbfa 063e
000001e0: 8bcf 64bd acef c73c fb44 ed3d ee10 f9be
000001f0: fd60 a6be c06c dfbc ff78 91bd 3268 30be
00000200: 0b2e 81bd 0e39 1a3e fddf 493d 5293 083f
00000210: 7206 673d 0006 4ebc af6e 32be 3494 4ebd
00000220: 6db0 93bd e143 c33d 1dcd 7fbe 3e13 c0bd
00000230: 900d 0e3d 3422 8f3c c76d 5f3d 4f2a 0e3e
00000240: 2f21 0e3e 531f 3e3d 6088 b53d 90fb 81bd
00000250: d8f6 ad3a 3d21 cd3c 50a7 a4be 656d c73e
00000260: 65a0 1f3e c6f6 16bd b3b1 f6bb ffb7 3b3d
00000270: 13bb 9d3d 2c3b 6ebd a6fc aabd 8a7e 683c
00000280: 3d8d f5bd 8300 c3bd 9d4e 4a3d b964 ae3d
00000290: bd8b 0b3e ed7f c5be f4f0 a1bd b00b c9bd
000002a0: 0a7a f43c de86 1f3c 66a9 863e 7c6a eabe
000002b0: fcf1 74be c83d 7ebe cf7b c23d aa8a ef3c
000002c0: f223 b0bc 3cb3 c03d 0aef d1be ce6a 96bc
000002d0: d913 033e f382 be3e cb10 b53d 0d06 c6bc
000002e0: c278 913d 03ec 86b7 c7d7 323d 2697 23be
000002f0: 5e6d 85bd 66ba 0c3e 7d19 14bd 39f9 bfbb
00000300: 83ec b1be ea81 243d 814c 70be f208 e1bf
00000310: 42ba d33b eb52 2fbd 5801 f6bc 4650 2bbe
00000320: 67a2 44bc e3fd 31bd 8087 553c d3db c9bc
00000330: 0b0d 00bd e082 113d cdea c0bc da5c b43d
00000340: f72f 663c 9492 f63c b22b d33d d49b 68bc
00000350: 3305 ba3d 1042 05bd 1673 51be a894 113c
00000360: 9a0d 143d 9ae6 103d 6762 673b 2752 febc
00000370: d326 433d 10dc 21bd 123d adbd b326 b63d
00000380: 0a2c 3fbd 5f91 6fbc da95 a4bc 129f c9bd
00000390: 34b7 333e 7a9c f73c c109 173e 706b 483d
000003a0: 190c afbd 0555 c6bd cd72 a3bc b8f7 c63d
000003b0: f972 993d 15bf 683d 923d b23b d12a 223e
000003c0: 904b 2d3e 70fb a53d 038b a7bd f770 413d
000003d0: 3d5f 57bd 4bcc 11be d0fd ea3c 3f40 aabc
000003e0: af88 d03d 8a36 213e fa2c c43e 6a80 4d3d
000003f0: 0aec aabd 79b1 b8bd 73ce bb3d 4204 343d

fc4.bias f4 [64]
-0.29583204 0.7236583 -0.19164695 -0.096932456 -0.24059275 -0.13312681 -0.11539698 -0.12258115
-0.2734233 -0.15136623 -0.089801185 -0.23292871 -0.2444997 -0.0923969 0.13728257 -0.020093238
-0.17191344 0.068755925 -0.08331573 -0.4101795 -0.039834246 -0.093992524 -0.070877954 -0.23255865
-0.10650849 -0.10345234 -0.06362437 -0.08505443 -0.3345675 -0.1381805 -0.34580803 -0.11430675
-0.06887081 -0.26267198 -0.16538297 -0.15105516 -0.23147218 -0.09409132 -0.16594507 -0.3529469
-0.22925763 -0.13299337 -0.032045793 -0.057900634 -0.17840299 -0.08668327 0.7067462 -0.07830317
-0.2571366 -0.07894319 -0.37294218 -0.20574099 -0.1799323 -0.12276545 -0.44034657 -0.15335971
-0.027477693 -0.27231938 -0.026310947 -0.11521552 -0.07721874 -0.42110658 -0.09301411 -0.081602715
00000000: 4c77 97be ac41 393f 193f 44be 8684 c6bd
00000010: f25d 76be 6552 08be 4055 ecbd d30b fbbd
00000020: 24fe 8bbe c0ff 1abe afe9 b7bd dd84 6ebe
00000030: 215e 7abe 963a bdbd cd93 0c3e 939a a4bc
00000040: 140a 30be e8cf 8c3d 70a1 aabd 0c03 d2be
00000050: 3c29 23bd 277f c0bd 7628 91bd db23 6ebe
00000060: 2021 dabd d2de d3bd 7e4d 82bd 0431 aebd
00000070: 6e4c abbe 307f 0dbe c00d b1be a819 eabd
00000080: 240c 8dbd f17c 86be 275a 29be 34ae 1abe
00000090: 0b07 6dbe f3b2 c0bd 81ed 29be 75b5 b4be
000000a0: 83c2 6abe 6a2f 08be 7342 03bd 3729 6dbd
000000b0: 46af 36be 0087 b1bd 52ed 343f 6a5d a0bd
000000c0: 69a7 83be f8ac a1bd 47f2 bebe c4ad 52be
000000d0: 2c40 38be 746c fbbd 1b75 e1be 540a 1dbe
000000e0: e618 e1bc 726d 8bbe 0e8a d7bc 1df6 ebbd
000000f0: dc24 9ebd 489b d7be 2f7e bebd 531f a7bd

fc5.weight f4 [64, 64]
-0.041527417 -0.33651012 0.009520221 -0.03192807 -0.12444982 -0.1253978 0.012226751 0.07514796
-0.35270452 -0.09457861 -0.095483944 -0.12761222 -0.12690663 -0.013764344 -0.07481412 0.053516723
-0.028466435 -0.4869584 0.110492945 -0.011063991 0.05516415 0.15716264 0.07082465 -0.28204882
0.11140614 -0.01047106 0.094996095 0.029856654 0.09721506 0.06545765 0.0952174 0.049506493
-0.016607134 0.15275967 -0.2851693 -0.25297028 -0.13103047 0.048951123 -0.25468096 0.08277778
0.12512979 -0.09972326 -0.045562517 0.07292816 0.118876785 -0.05147161 0.00927331 -0.14730848
-0.10546747 0.04568926 -0.07615018 0.049642213 -0.00046364396 0.053749617 -0.10965816 0.026046501
-0.05778608 -0.14535244 -0.026463768 -0.07156618 0.19433416 0.3590573 -0.016106274 0.13075528
0.104349285 -0.12702894 -0.082421646 0.036776572 -0.010102696 -0.041605353 0.10278022 0.025991697
-0.029125363 -0.15106411 0.07932344 -0.02894099 0.071857214 -0.0439318 -0.1756178 -0.008888066
-0.37486246 0.038209494 0.024515003 -0.11568791 0.051273018 -0.01974295 -0.0048117936 0.04178974
0.028825745 -0.019010186 -0.06506528 -0.10660683 0.05388078 -0.16628459 -0.04020582 0.0630076
0.01344502 -0.024121001 -0.009912324 -0.006814456 0.023162901 0.012927771 -0.09822555 0.0991348
-0.11195013 0.06730126 0.110075995 -0.08617029 -0.15751104 0.09037754 -0.040438987 -0.031500697
-0.06476752 0.38646233 -0.0569634 0.017743751 0.056151077 0.10700078 -0.055718936 -0.013957784
0.03147167 0.03935039 -0.060388625 0.006451952 -0.094774574 0.041532084 -0.09245485 0.0067724288
0.10041472 -0.48708728 -0.08796868 -0.10236058 -0.39924863 0.061705023 -0.07000232 0.001419425
-0.11562304 -0.3431199 0.016910374 -0.46905887 -0.36462975 -0.06437507 -0.5131682 0.11537656
-0.04422635 0.026711425 -0.05483751 0.04313849 0.016719744 0.11700018 0.10768132 -0.094771475
-0.09997895 -0.056738093 -0.016282752 -0.12976135 -0.026041329 -0.34204414 0.07080284 -0.11178154
-0.06266326 -0.08744322 -0.11608361 -0.293967 -0.023644418 0.046792313 0.041902572 0.056793764
0.08714369 0.0836731 -0.076306924 0.054970175 -0.02780117 -0.12194954 -0.061534464 -0.008379534
-0.42051136 0.11816089 0.10970336 -0.06958921 0.036853537 0.04514055 0.013246924 0.04751216
-0.49520034 0.010666415 0.03345099 0.1038965 0.07278572 -0.10831545 -0.11857076 0.011664093
0.041095212 0.017258424 0.051617175 -0.09246844 -0.10875741 0.020421803 0.010451049 -0.11346666
-0.056586996 -0.112463035 -0.012188613 -0.13389932 -0.12613235 -0.13016063 -0.16932598 0.0023816824
-0.109273225 -0.08586854 -0.07510953 0.029381678 -0.01327115 -0.015347943 0.010133833 -0.056925163
0.056689534 0.04417047 0.014308918 0.011526319 0.07188305 -0.042200744 -0.067489415 0.025022343
-0.060160346 0.08357689 -0.03557618 -0.17103605 -0.16591007 0.08752307 -0.08833085 -0.004182577
0.011885172 -0.16249369 -0.04392671 -0.0034462512 0.00517167 -0.01928464 -0.062255997 0.10382794
-0.034430526 0.122652024 0.084728226 -0.005571451 0.10442197 -0.015003204 0.059506238 -0.09413096
-0.041615725 -0.016025841 0.02301491 -0.0636089 -0.0017981038 0.12230702 0.05414699 0.06744577
00000000: a718 2abd 0e4b acbe b3fa 1b3c 02c7 02bd
00000010: 8cdf febd 4868 00be b652 483c 2ce7 993d
00000020: b095 b4be 6eb2 c1bd 168d c3bd c7ac 02be
00000030: d0f3 01be d883 61bc 2538 99bd 5a34 5b3d
00000040: 7132 e9bc 9d52 f9be 204a e23d be45 35bc
00000050: cef3 613d 3eef 203e 840c 913d b468 90be
00000060: e728 e43d cf8e 2bbc 508d c23d f195 f43c
00000070: b018 c73d a90e 863d 5701 c33d 52c7 4a3d
00000080: af0b 88bc 086d 1c3e b601 92be 5285 81be
00000090: da2c 06be f980 483d 8b65 82be 6687 a93d
000000a0: 0622 003e b53b ccbd c39f 3abd 5c5b 953d
000000b0: ac75 f33d e5d3 52bd 15ef 173c 09d8 16be
000000c0: 54ff d7bd a924 3b3d a0f4 9bbd a255 4b3d
000000d0: 3d15 f3b9 8f28 5c3d 7594 e0bd 795f d53c
000000e0: 19b1 6cbd 45d7 14be 8bca d8bc 4a91 92bd
000000f0: 89ff 463e 5cd6 b73e 4ef1 83bc b6e4 053e
00000100: 14b5 d53d e013 02be aecc a8bd 08a3 163d
00000110: c785 25bc 606a 2abd 707e d23d 8aec d43c
00000120: 5098 eebc 8db0 1abe 5474 a23d a815 edbc
00000130: e029 933d d5f1 33bd 27d5 33be 409f 11bc
00000140: f9ed bfbe 8f81 1c3d b0d3 c83c c8ed ecbd
00000150: a803 523d f8bb a1bc 40ac 9dbb b82b 2b3d
00000160: f823 ec3c 40bb 9bbc f240 85bd af54 dabd
00000170: 18b2 5c3d 8246 2abe dcae 24bd 210a 813d
00000180: 8048 5c3c 6899 c5bc 4d67 22bc cd4b dfbb
00000190: 20c0 bd3c 00cf 533c 7a2a c9bd 3007 cb3d
000001a0: 1c46 e5bd 3ed5 893d 866f e13d 0d7a b0bd
000001b0: 934a 21be dc17 b93d 5aa3 25bd e006 01bd
000001c0: d5a4 84bd 64de c53e 7452 69bd 585b 913c
000001d0: acfe 653d 3a23 db3d 8a39 64bd 30af 64bc
000001e0: 70e8 003d e02d 213d 105a 77bd e56a d33b
000001f0: 2c19 c2bd 8c1d 2a3d f858 bdbd 40eb dd3b
00000200: 3ca6 cd3d 8163 f9be ec28 b4bd 6ca2 d1bd
00000210: 516a ccbe 68be 7c3d 605d 8fbd 000c ba3a
00000220: c6cb ecbd 69ad afbe a087 8a3c 7c28 f0be
00000230: c0b0 babe 14d7 83bd fe5e 03bf 8c4a ec3d
00000240: b026 35bd ebd1 da3c 4c9d 60bd fcb1 303d
00000250: d8f7 883c ca9d ef3d 0688 dc3d 8c17 c2bd
00000260: c4c1 ccbd 3466 68bd 6863 85bc 29e0 04be
00000270: a054 d5bc 6920 afbe 1401 913d b8ed e4bd
00000280: 9855 80bd 6e15 b3bd 3ebd edbd d882 96be
00000290: f0b1 c1bc 4ca9 3f3d 08a2 2b3d 94a0 683d
000002a0: 6478 b23d cd5c ab3d ce46 9cbd 6828 613d
000002b0: 47bf e3bc aec0 f9bd 900b 7cbd 504a 09bc
000002c0: 444d d7be 56fe f13d 28ac e03d ca84 8ebd
000002d0: bcf3 163d 4ce5 383d a009 593c 1c9c 423d
000002e0: e68a fdbe 30c2 2e3c e803 093d b0c7 d43d
000002f0: ae10 953d 7ed4 ddbd 3ad5 f2bd c01a 3f3c
00000300: 7453 283d 8a61 8d3c 886c 533d 1860 bdbd
00000310: 34bc debd a04b a73c e03a 2b3c 3561 e8bd
00000320: c4c7 67bd 0553 e6bd c0b2 47bc e71c 09be
00000330: d728 01be d448 05be ca63 2dbe 0016 1c3b
00000340: a4ca dfbd d8db afbd 06d3 99bd d8b1 f03c
00000350: 3d6f 59bc f075 7bbc 6008 263c 5c2a 69bd
00000360: 4933 683d 18ec 343d f46f 6a3c e3d8 3c3c
00000370: 6c37 933d b0da 2cbd e437 8abd a8fb cc3c
00000380: b26a 76bd 5c2a ab3d 54b8 11bd 1324 2fbe
00000390: 54e4 29be 4c3f b33d cee6 b4bd 000e 89bb
000003a0: 06ba 423c bf64 26be 7eec 33bd 80da 61bb
000003b0: 1d77 a93b d2fa 9dbc 2500 7fbd bea3 d43d
000003c0: 0607 0dbd fc30 fb3d fe85 ad3d b890 b6bb
000003d0: 30db d53d 00d0 75bc d0bc 733d bcc7 c0bd
000003e0: 4075 2abd a048 83bc c489 bc3c 6245 82bd
000003f0: 5aae ebba 1a7c fa3d 3cc9 5d3d 0221 8a3d

fc5.bias f4 [64]
-0.013507413 -0.23555078 -0.26833844 -0.044689186 -0.2654578 -0.1530121 -0.4971944 -0.078866564
-0.32173973 -0.16758682 -0.0071409578 0.060938496 -0.0039431313 -0.11242043 0.06535931 -0.059644356
-0.13485582 -0.120881855 -0.44874206 -0.15928903 -0.17436805 -0.107082225 -0.14894858 -0.09457961
-0.23243548 -0.17518383 -0.22856745 -0.09365448 -0.17440936 -0.07272387 -0.32436687 -0.3485786
-0.050601266 -0.074081354 -0.04989919 -0.06057536 -0.029400192 -0.11227506 -0.09044926 -0.01411829
-0.08831056 -0.10494924 -0.11268856 -0.17520179 -0.057361767 -0.57416284 -0.04272648 -0.28277194
-0.09041312 -0.026533144 -0.124721125 -0.24616893 -0.40119448 -0.04259624 -0.025846438 -0.015233835
-0.03597931 0.05430449 -0.22076869 -0.115902856 -0.15154155 -0.36659288 -0.10177333 -0.104767054
00000000: 324e 5dbc 3934 71be a863 89be 020c 37bd
00000010: 16ea 87be 34af 1cbe 4490 febe cb84 a1bd
00000020: 12bb a4be e19b 2bbe b2fe e9bb a59a 793d
00000030: 6235 81bb af3c e6bd 1adb 853d a44d 74bd
00000040: a517 0abe e890 f7bd 85c1 e5be aa1c 23be
00000050: 8a8d 32be ed4d dbbd fa85 18be f4b2 c1bd
00000060: 9103 6ebe 6463 33be 960d 6abe eccd bfbd
00000070: 5e98 32be 41f0 94bd 6a13 a6be e578 b2be
00000080: 4643 4fbd f7b7 97bd 1863 4cbd de1d 78bd
00000090: acd8 f0bc 77f0 e5bd 763d b9bd 6650 67bc
000000a0: 2bdc b4bd a1ef d6bd 42c9 e6bd 1968 33be
000000b0: 2cf4 6abd 56fc 12bf f601 2fbd 7cc7 90be
000000c0: 842a b9bd 095c d9bc ca6d ffbd b513 7cbe
000000d0: 5d69 cdbe 6579 2ebd e9bb d3bc 5697 79bc
000000e0: 0a5f 13bd 636e 5e3d 3011 62be 7a5e edbd
000000f0: b52d 1bbe 10b2 bbbe 896e d0bd 1c90 d6bd

fc6.weight f4 [63, 64]
-0.015395261 0.11988934 0.31762654 0.04536339 0.0001806825 0.15747935 -0.014626242 8.313226e-05
-0.08178345 0.18484367 -0.0041782884 -1.0908183e-15 -0.013295176 -0.0018161087 -7.3123465e-16 -0.091018856
0.059099775 0.046504177 0.00082755875 0.05075187 -0.06199247 -0.06644578 0.058452934 0.0152595
-0.15665384 0.14587723 -0.312131 0.020630546 0.17718555 0.05742038 0.10769499 0.05111509
-0.0116847055 0.052559156 -2.8106175e-15 -1.0947693e-15 -0.008827604 -0.026078451 -0.023938973 0.07168375
0.12836446 -0.026331844 0.14703657 -0.01870777 -0.009749062 -1.6121011e-15 -0.035215225 -0.09573599
0.019056901 0.053375006 -0.013321757 0.0154019995 0.25338542 -0.017449934 0.04180395 0.052263454
-0.071931146 -7.098348e-16 0.016971132 0.17014268 -0.045066226 -0.025025481 0.08909913 0.14753449
0.031824995 -0.0459884 -0.08480739 -0.12305152 0.005675802 0.0667254 -0.27747428 -0.0008883944
0.1701537 -0.02640541 0.017438266 0.0007571403 -0.05781042 0.026753241 -0.006444841 -0.04119894
0.04476012 0.03909938 0.10452751 0.00475543 0.020089332 -0.0026601278 0.029685576 0.11445918
0.16871318 0.0813117 -0.41229904 -0.17878757 0.0570004 0.04728223 -0.05106558 -0.1258303
-0.0843536 -0.063844785 0.011260325 -0.00014124735 -0.1159447 -0.06587643 0.0148413805 0.11637232
-0.010324552 0.025486693 0.0634391 0.08985987 0.08163338 -0.00025243277 -0.031094056 0.15221146
-0.055587158 0.1453806 0.07877909 -0.105570264 -0.07473272 0.0009005634 -0.037598822 0.01579029
0.11086605 0.003723179 -0.043677438 -0.051366273 -0.06439621 0.04623261 0.16032538 -0.011421354
0.007460785 0.058900695 -0.22208285 0.15089662 0.0024225242 0.035063226 0.13100843 -0.0036476916
-0.07756399 -0.07816645 0.0096726995 -2.748579e-08 -0.0888654 -0.16269124 5.3840072e-08 -0.0997787
-0.0327154 0.22785583 -0.20597203 0.09411935 0.012124317 0.12232841 0.012643639 0.021430198
-0.016169911 -0.013885602 -0.3138519 0.1255298 0.0044408403 0.17483325 0.01493828 0.06799849
-0.11480037 -0.026703566 7.894096e-07 9.08529e-08 0.04493506 0.06626798 -0.0016401922 0.012309732
0.032261312 0.007908861 -0.17218977 0.048443884 0.051141758 3.3983164e-07 -0.13291685 -0.010399623
0.038594723 -0.07337999 0.036734655 -0.20954087 -0.29581505 0.0070059234 0.1333014 0.009230067
-0.00047517466 5.0046374e-08 0.00968124 -0.12260246 -0.007072284 0.16601224 -0.031694703 0.026585724
-0.24273269 -0.09824711 -0.41365466 0.04130496 0.2716105 0.032513093 -0.090529375 -0.14425863
0.23634337 -0.065925024 0.001674895 0.18434812 -0.07871957 0.08056756 -0.33924147 -0.111492336
0.061970983 -0.14642568 -0.076153785 0.046521258 0.013335691 0.058393966 -0.096456304 0.010491238
0.50677204 -0.030956736 -0.33524063 0.0944875 -0.029181072 -0.0068991547 0.11272499 0.028874613
0.20635177 -0.12796977 0.010283554 0.3209979 0.020764422 0.07711089 -0.04434393 -0.0010905012
-0.09225723 -0.13726248 0.12167372 0.097341135 0.10558984 -0.21537147 -0.113062866 -0.07798054
0.05103004 -0.006020583 0.043434754 -0.23233302 -0.25552276 -0.0035432405 0.028325543 0.1296578
0.10081833 -0.101769954 0.10490822 0.08436329 0.05152829 0.11469606 -0.0953173 0.08566712
00000000: 683c 7cbc 8b88 f53d f29f a23e f6ce 393d
00000010: 9775 3d39 4442 213e e8a2 6fbc 4b57 ae38
00000020: 157e a7bd a947 3d3e 06ea 88bb 1834 9da6
00000030: 03d4 59bc 7f0a eeba 98c3 52a6 1868 babd
00000040: 9b12 723d 2a7b 3e3d 87f0 583a 31e1 4f3d
00000050: d1eb 7dbd ba14 88bd 586c 6f3d fb02 7a3c
00000060: dd69 20be d760 153e a2cf 9fbe 6401 a93c
00000070: 2170 353e a231 6b3d 318f dc3d 0e5e 513d
00000080: 3571 3fbc 4548 573d be86 4aa7 dcc5 9da6
00000090: a8a1 10bc 7aa2 d5bc aa1b c4bc eece 923d
000000a0: f971 033e e1b5 d7bc c190 163e 0a41 99bc
000000b0: 88ba 1fbc 0854 e8a6 d73d 10bd 3b11 c4bd
000000c0: 381d 9c3c c09f 5a3d 8043 5abc ab58 7c3c
000000d0: bcbb 813e 2af3 8ebc 9e3a 2b3d 3412 563d
000000e0: a350 93bd 9098 4ca6 0b07 8b3c e239 2e3e
000000f0: 5d97 38bd 3d02 cdbc 9b79 b63d 4813 173e
00000100: ed5a 023d 555e 3cbd 7faf adbd 6f02 fcbd
00000110: 14fc b93b 54a7 883d 1c11 8ebe 24e3 68ba
00000120: c63c 2e3e 2950 d8bc b2da 8e3c d37a 463a
00000130: 9eca 6cbd 9d29 db3c 3f2f d3bb 38c0 28bd
00000140: 6356 373d ac26 203d 8512 d63d 70d3 9b3b
00000150: 6292 a43c 8a55 2ebb 2a2f f33c 9369 ea3d
00000160: 26c3 2c3e c086 a63d dc18 d3be 1714 37be
00000170: 4079 693d 03ab 413d 242a 51bd a8d9 00be
00000180: 95c1 acbd 0ec1 82bd 3a7d 383c cc1b 14b9
00000190: 6a74 edbd 39ea 86bd 4329 733c 9c54 ee3d
000001a0: 4f28 29bc 78c9 d03c 5cec 813d 7408 b83d
000001b0: 672f a73d f458 84b9 f6b8 febc 52dd 1b3e
000001c0: 5caf 63bd a7de 143e ee56 a13d 3935 d8bd
000001d0: 780d 99bd c913 6c3a 3901 1abd a35a 813c
000001e0: bd0d e33d 9400 743b 1de7 32bd 7165 52bd
000001f0: 29e2 83bd 685e 3d3d 562c 243e a120 3bbc
00000200: 9a79 f43b db41 713d b069 63be a584 1a3e
00000210: 36c3 1e3b 759e 0f3d 1327 063e 1c0e 6fbb
00000220: dfd9 9ebd bb15 a0bd 3e7a 1e3c e419 ecb2
00000230: 10ff b5bd 8898 26be c93d 6733 c658 ccbd
00000240: 9500 06bd 0a53 693e 55ea 52be a5c1 c03d
00000250: 12a5 463c 5187 fa3d 4427 4f3c 628e af3c
00000260: c376 84bc 7080 63bc 32b1 a0be e28a 003e
00000270: 7884 913b 7d07 333e b0bf 743c cb42 8b3d
00000280: 751c ebbd 70c1 dabc d1e7 5335 e91a c333
00000290: d30d 383d 82b7 873d b8fb d6ba c2ae 493c
000002a0: 7024 043d 2b94 013c 8452 30be 186d 463d
000002b0: 057a 513d 1b72 b634 5b1b 08be 2e63 2abc
000002c0: 8015 1e3d 4048 96bd 1477 163d e291 56be
000002d0: 1275 97be f291 e53b 2a80 083e b539 173c
000002e0: dd20 f9b9 92f2 5633 109e 1e3c 0017 fbbd
000002f0: 9ebe e7bb 1dff 293e 4ed2 01bd 4eca d93c
00000300: eb8e 78be c835 c9bd 8bca d3be 642f 293d
00000310: 8810 8b3e 732c 053d 7767 b9bd 89b8 13be
00000320: ff03 723e b303 87bd 2688 db3a c1c5 3c3e
00000330: ba37 a1bd 9b00 a53d 0fb1 adbe 1856 e4bd
00000340: 49d5 7d3d 9df0 15be 84f6 9bbd 138d 3e3d
00000350: f17d 5a3c 832e 6f3d e28a c5bd 71e3 2b3c
00000360: d0bb 013f fb98 fdbc a9a4 abbe aa82 c13d
00000370: 250d efbc 4e12 e2bb 5cdc e63d 748a ec3c
00000380: e14d 533e 820a 03be 5a7c 283c d659 a43e
00000390: 261a aa3c 50ec 9d3d fba1 35bd 26ef 8eba
000003a0: 5cf1 bcbd 898e 0cbe 1230 f93d ca5a c73d
000003b0: 7c3f d83d 578a 5cbe 818d e7bd 43b4 9fbd
000003c0: e004 513d 5048 c5bb a4e8 313d b5e8 6dbe
000003d0: e1d3 82be b635 68bb f80a e83c 04c5 043e
000003e0: d779 ce3d c46c d0bd 1fda d63d a9c6 ac3d
000003f0: 540f 533d c5e5 ea3d b735 c3bd 3e72 af3d

fc6.bias f4 [63]
1.04151965e-16 0.00026637642 -3.6821913e-08 0.5603012 0.40488482 0.66582024 0.6236833 0.49441308
0.7449408 0.63897336 0.4854221 0.7528488 0.63393664 0.4557844 0.70739335 0.0005470086
0.44390705 0.6518146 0.5321989 0.5405195 0.6197855 0.58205587 0.5114491 0.60471666
0.5879807 0.44905955 0.60816467 7.945333e-13 0.4702568 1.3300035e-08 0.54714495 0.5518386
0.42815438 0.60669696 0.48182032 0.43786088 0.60580105 0.40958545 0.4447025 0.6007649
0.5106779 0.40300274 0.5841625 0.6201484 0.3325892 0.62318164 0.53225964 0.37600422
0.61779267 0.44684234 0.39734444 0.58899385 0.53111833 0.36966792 0.6184618 0.6156619
0.37394696 0.62106293 0.5385319 0.35866526 0.6401186 0.45804107 0.37099245
00000000: 7828 f024 70a8 8b39 1f26 1eb3 e66f 0f3f
00000010: 104d cf3e 3273 2a3f b5a9 1f3f b623 fd3e
00000020: 71b4 3e3f c293 233f 3f89 f83e b3ba 403f
00000030: ac49 223f 935c e93e bb17 353f 2065 0f3a
00000040: c947 e33e 52dd 263f 303e 083f 7c5f 0a3f
00000050: 43aa 1e3f 9d01 153f 54ee 023f b6ce 1a3f
00000060: e785 163f 22eb e53e aeb0 1b3f 28a4 5f2b
00000070: 80c5 f03e 2c7e 6432 b111 0c3f 4b45 0d3f
00000080: 0d37 db3e 7e50 1b3f 27b1 f63e 4d2f e03e
00000090: c715 1b3f 2fb5 d13e 0cb0 e33e bacb 193f
000000a0: c9bb 023f 6056 ce3e ac8b 153f 0cc2 1e3f
000000b0: 2249 aa3e d588 1f3f 2b42 083f a083 c03e
000000c0: a927 1e3f 85c8 e43e bb70 cb3e 4dc8 163f
000000d0: 5ff7 073f 1d45 bd3e 8353 1e3f 059c 1d3f
000000e0: fa75 bf3e fbfd 1e3f 3add 093f f9a2 b73e
000000f0: d0de 233f 5c84 ea3e b9f2 bd3e
