hand_landmarks/neural_networks/weights/best_model.pth (torch, 112804 bytes, 8 tensors)

fc1.weight f4 [100, 126]
0	0x3b7254aa	0.0036976733
1	0xbc6dd947	-0.014517135
2	0xbc8ba044	-0.017044194
3	0xbdc6dafd	-0.097097374
4	0xbd499197	-0.04921111
5	0xbce22c86	-0.027609121
6	0xbda50680	-0.080578804
7	0xbd2aca83	-0.041697036
8	0xbdbd6b0a	-0.09248932
9	0xbd92291f	-0.071367495
10	0xbd7f17c0	-0.06227851
11	0x3bd1aee2	0.0063990215
12	0xbc9c0733	-0.019046402
13	0xbd5db3db	-0.0541266
14	0xbda8da4c	-0.08244762
15	0xbd458afc	-0.04822825
16	0xbdbfe8da	-0.09370585
17	0xbd808dec	-0.062770694
18	0xbdb816e7	-0.08988743
19	0xbda901dd	-0.082523085
20	0xbd12194c	-0.035668656
21	0xbd6c824e	-0.057741456
22	0x3d704402	0.058658607
23	0xbc0ef9f4	-0.008726586
24	0xbd528a89	-0.05140165
25	0x3d05df50	0.03268367
26	0x3cb7d0be	0.022438403
27	0x3d5ebd53	0.054379772
28	0xbc877525	-0.016535351
29	0xbd0da197	-0.034577932
30	0xb9ae8fa5	-0.0003329489
31	0xbd82eba7	-0.06392603
32	0xbd4d8a9a	-0.05018101
33	0x3d461237	0.048357215
34	0xbbf81f60	-0.0075720996
35	0x3c901a15	0.017590562
36	0xbdc56fa6	-0.09640436
37	0xbd3dbc55	-0.046322186
38	0x3cf29fe2	0.029617254
39	0xbcc07881	-0.02349496
40	0xbdaee0fe	-0.085390076
41	0xbc9104f3	-0.017702555
42	0xbc9a5359	-0.018838571
43	0xbcfddab3	-0.030988073
44	0xbd8d15f4	-0.06888953
45	0xbd6a9af8	-0.057276696
46	0x3d6184be	0.055058233
47	0xbd24e0f5	-0.0402536
48	0x3c2be0d5	0.010490616
49	0x3d84ba85	0.06480888
50	0xbd5110ef	-0.05104154
51	0xbdb4fd8b	-0.08837422
52	0xbc2d3c68	-0.010573484
53	0x3d6cbe8f	0.05779892
54	0x3c41f8da	0.011839116
55	0x3d83b1bc	0.064303845
56	0x3b9a72ae	0.004713378
57	0x3d178316	0.036990248
58	0xbd5b4c8f	-0.05353981
59	0x3d460172	0.048341222
60	0x3d6dccbc	0.058056578
61	0xbd90a8e4	-0.07063463
62	0xbd7c0990	-0.061532557
63	0x3d5e6eb0	0.05430478
64	0xbd9575db	-0.0729787
65	0xbc5d4103	-0.0135042695
66	0x3d843fea	0.06457503
67	0xbcd94094	-0.026520051
68	0x3d83a53b	0.064279996
69	0xbc2db998	-0.010603331
70	0xbdbfcbc4	-0.09365037
71	0xbd2e3092	-0.04252679
72	0xbd22ebbe	-0.039775603
73	0xbb0d6f34	-0.0021581175
74	0x3d400fab	0.046889942
75	0xbd80f584	-0.062968284
76	0x3d1eefee	0.038803034
77	0xba9f6442	-0.0012160616
78	0x3d7173f4	0.058948472
79	0xbd10b694	-0.03533037
80	0x3d5d1c56	0.0539821
81	0xbca25d34	-0.019819833
82	0xbc24bb9a	-0.010054493
83	0x3d852d56	0.06502788
84	0xbd559b44	-0.052150026
85	0xbd6e9a26	-0.058252476
86	0x3d77d660	0.06050718
87	0x3c9e0d93	0.019293582
88	0xbcd4702b	-0.025932392
89	0xbd5c3926	-0.05376544
90	0xbd02f29e	-0.03196966
91	0xbdc58feb	-0.09646591
92	0xbd65bee0	-0.056090236
93	0xbd4205db	-0.047368865
94	0xbd8eefe3	-0.069793485
95	0x3d35ef32	0.044417568
96	0x3d34df9d	0.044158567
97	0xbd697afb	-0.05700205
98	0x3c0c8835	0.008577396
99	0xbcc136ef	-0.023585765
100	0xbbb82904	-0.005620124
101	0x3d63fe68	0.055662543
102	0x3b356e0c	0.0027684001
103	0xbd85e508	-0.06537825
104	0xbdba0315	-0.09082619
105	0xbcb271e8	-0.02178283
106	0x3b922fd5	0.0044612684
107	0x3d75bb4e	0.05999308
108	0x3a08a399	0.0005212366
109	0xbcf0dc13	-0.029401815
110	0xbd4606bf	-0.048346277
111	0x3d5ca91e	0.05387222
112	0xbd37e532	-0.044896312
113	0x3d713ae2	0.058894046
114	0xbd44c0ad	-0.048035312
115	0xbdaf3a3e	-0.08556031
116	0x3d8c10e1	0.06839157
117	0x3ba5a9fa	0.005055663
118	0xbd8fd7ce	-0.07023583
119	0x3d516d98	0.051129907
120	0x3c82efdc	0.015983514
121	0xbd41321f	-0.04716694
122	0x3d55b697	0.052176084
123	0xbc9e79fa	-0.019345272
124	0xbd17f93b	-0.03710292
125	0xbd8a85d6	-0.067638084
126	0x3d5b8c6d	0.053600717
127	0xbd0d8d07	-0.034558322
128	0x3c93a796	0.018024247
129	0xbcc72c0b	-0.024312994
130	0xbd82eb82	-0.06392576
131	0xbdbadc73	-0.091240786
132	0xbd9bd091	-0.0760814
133	0x3ced77a2	0.02898771
134	0x3d079e31	0.033109847
135	0xbde5b5d0	-0.112163186
136	0x3d6ce0c9	0.05783156
137	0xbd9bdeaf	-0.07610833
138	0xbd48634a	-0.048922814
139	0xbdbe87fe	-0.09303282
140	0x3d9384f6	0.07203095
141	0xbbb0fa38	-0.005400922
142	0xbc2352a9	-0.009968438
143	0xbba3c23a	-0.004997519
144	0xbdb2d996	-0.087329075
145	0xbd8fcb7b	-0.07021233
146	0x3b9c7b62	0.0047754506
147	0x3d6569b1	0.056009
148	0xbdbc9275	-0.09207622
149	0xbb6fd4c4	-0.0036595324
150	0x3af309cd	0.001854235
151	0x3cd6b8c5	0.026211152
152	0x3d46f20e	0.048570685
153	0xbd00f8e4	-0.03148736
154	0xbad0933d	-0.0015913021
155	0x3d979724	0.07401875
156	0xbdb24b68	-0.08705789
157	0xbdcc7576	-0.099833414
158	0x3d8f5f08	0.07000548
159	0xbba30dde	-0.0049760183
160	0xbd59bf1c	-0.05316077
161	0xbc11eee4	-0.008907054
162	0xbdd81f7f	-0.105528824
163	0x3d97c1b8	0.07409996
164	0x3d939e40	0.07207918
165	0xbd805893	-0.06266894
166	0xbd8417e0	-0.06449866
167	0xbc3ae0b1	-0.01140611
168	0xbd260d9f	-0.040540334
169	0x3c918438	0.017763242
170	0xbd0d0b9c	-0.0344349
171	0x3d41b6c0	0.047293425
172	0x3d917302	0.07102014
173	0xbdc90958	-0.09816235
174	0x3cf0cceb	0.029394588
175	0x3cc91214	0.024544753
176	0x3d9717cf	0.07377588
177	0xbb572946	-0.0032830997
178	0x3d718a6f	0.05896991
179	0xbd915c06	-0.0709763
180	0x3bfd8c57	0.007737677
181	0xbd951e9f	-0.07281231
182	0x3d3ac333	0.045596313
183	0x3c3c40e1	0.011490078
184	0xbcb6dfae	-0.022323456
185	0xbd14814d	-0.036256123
186	0x3a0132b0	0.00049285125
187	0xbdd030e8	-0.10165578
188	0x3c9a1a36	0.018811326
189	0xbdaac262	-0.08337857
190	0xbd15208e	-0.036408
191	0xbcb4766c	-0.022029124
192	0xbd9411a3	-0.072299264
193	0x3c1d96d4	0.00961848
194	0xbd56d844	-0.05245234
195	0x3c92ec45	0.017934928
196	0xbdc0bf55	-0.09411494
197	0x3d5ab92b	0.053399246
198	0xbd9c2926	-0.07625036
199	0xbd5986b4	-0.05310698
200	0xbdc02df4	-0.09383765
201	0xbce5d9aa	-0.028057892
202	0x3d8811c1	0.06644011
203	0x3cfebf93	0.03109721
204	0x3c6dc3a5	0.014511977
205	0xbc4c9527	-0.012486733
206	0xbbe44221	-0.006965891
207	0xbca58fc5	-0.020210156
208	0xbda79e10	-0.08184445
209	0x3d01d57e	0.031697743
210	0xbc00922e	-0.007847352
211	0xbc7926f4	-0.015207041
212	0x3d63420b	0.055482905
213	0x3ca2bea8	0.019866303
214	0xbd5d7882	-0.054070003
215	0xbd9086ad	-0.07056937
216	0x3cd315b2	0.025767181
217	0xbc3e8db7	-0.011630467
218	0xbcbd8d44	-0.02313865
219	0xbd7e3df2	-0.062070794
220	0x3b606115	0.0034237553
221	0x3d910bbc	0.07082316
222	0xbc10e4fc	-0.008843657
223	0xbd1a35f7	-0.03764912
224	0xbdbce689	-0.092236586
225	0xbc95bc9f	-0.018278418
226	0xbce0fe4b	-0.027465006
227	0x3d781b3d	0.06057285
228	0x3d24e34a	0.040255822
229	0xbdb86631	-0.090038665
230	0x3d8b6f9f	0.068083994
231	0xbc720219	-0.014771008
232	0x3b5fa542	0.00341256
233	0x3d9040d3	0.07043614
234	0xbd2b2989	-0.041787658
235	0xbd966ee6	-0.07345371
236	0xbd635f7d	-0.055510987
237	0xbb55b778	-0.0032610577
238	0xbd7cfa73	-0.061762284
239	0xbd914253	-0.070927285
240	0xbde031bd	-0.10946987
241	0x3d455ff3	0.048187207
242	0xbd6d515b	-0.057938915
243	0xbc4835cc	-0.012219857
244	0xbdbe6702	-0.09296991
245	0xbdb7e2e4	-0.08978823
246	0x3d2db25b	0.04240642
247	0x3d801ac4	0.06255105
248	0xbd145d2b	-0.036221664
249	0xbdf61cf3	-0.120172404
250	0x3d4aa5d7	0.049474563
251	0xbd25352e	-0.04033392
252	0x402f620d	2.7403595
253	0xbf450ed1	-0.76975733
254	0xbf555a3d	-0.8334082
255	0x3deebfde	0.116576895

fc1.bias f4 [100]
0	0x3da099f9	0.07841868
1	0x3ceb0ac5	0.028691659
2	0x3e10a7fd	0.14126582
3	0xbf1355ff	-0.57553095
4	0xbde75e8c	-0.1129733
5	0x3e35872f	0.1772735
6	0xbdfb1d4b	-0.122614466
7	0xbd9bf29e	-0.07614635
8	0xbdbf05d1	-0.09327281
9	0x3d753c5d	0.05987202
10	0x3c5336ff	0.01289153
11	0x3cc10fb6	0.023567062
12	0xbdf68cd4	-0.120385796
13	0xbcb85688	-0.022502199
14	0xbd965fb2	-0.07342471
15	0xbe2c27d0	-0.16812062
16	0xbd95a624	-0.073070794
17	0xbd5b5a78	-0.053553075
18	0xbe042bbe	-0.12907311
19	0x3d0288ba	0.031868674
20	0xbe041d0b	-0.12901704
21	0x3e15c291	0.14625002
22	0xbd313bff	-0.043270107
23	0xbdb3b69f	-0.087750666
24	0xbd9a71b9	-0.07541222
25	0xbdb1ccaa	-0.08681615
26	0xbce4edea	-0.027945478
27	0xbdd4534b	-0.103674494
28	0xbd9843cc	-0.07434806
29	0x3ca120e5	0.019669006
30	0x3e930fbe	0.28722948
31	0xbd9ceaf2	-0.07662
32	0xbecff7ef	-0.40618846
33	0xbd8c4734	-0.068495184
34	0xbcf409be	-0.029789802
35	0xbcbd85dd	-0.02313512
36	0xbdf315d9	-0.118694015
37	0x3c78dde8	0.015189625
38	0xbd031fb8	-0.03201267
39	0xbd91aca4	-0.07113007
40	0xbd8af16d	-0.067843296
41	0x3d412972	0.047158666
42	0x3d86556f	0.06559264
43	0x3cdb982f	0.026805965
44	0xbcc7a1b0	-0.02436909
45	0xbec5ae9a	-0.38609773
46	0x3d0d7617	0.034536447
47	0xbe20dd1d	-0.15709348
48	0xbd46c1cd	-0.048524667
49	0xbe6a04db	-0.22853415
50	0xbc339736	-0.010961344
51	0xbe085774	-0.1331461
52	0xbd3b62e2	-0.0457486
53	0xbeb3010e	-0.34961742
54	0xbcc5e6f0	-0.024157971
55	0xbd1ef8ce	-0.038811497
56	0xbe132b23	-0.14371924
57	0xbdaf1af6	-0.08550064
58	0xbc78bbcc	-0.015181493
59	0xbd70f752	-0.058829613
60	0x3db2a845	0.08723501
61	0xbb37e233	-0.002805841
62	0xbd1640fe	-0.036683075
63	0x3eb4b1fe	0.35292047
64	0x3be2d71b	0.006922615
65	0xbdb3d58e	-0.08780967
66	0xbd2de462	-0.04245413
67	0x3c76bc9f	0.015059619
68	0xbc241324	-0.010014329
69	0xbd4253c7	-0.047443178
70	0xbe06e86f	-0.13174604
71	0xbd8d8c72	-0.069115534
72	0xbe69a165	-0.22815473
73	0xbdcda77b	-0.1004171
74	0xbc5781e5	-0.013153528
75	0xbcec9b16	-0.028882544
76	0x3b0081d8	0.0019608643
77	0xbe249cb9	-0.1607541
78	0xbd03932e	-0.032122783
79	0xbec3eb30	-0.3826537
80	0xbd755ec8	-0.059904844
81	0xbe1bd754	-0.1521886
82	0x3d531875	0.051536996
83	0xbd93a68f	-0.07209503
84	0x3daa2dd2	0.08309521
85	0xbda5bfb6	-0.080932066
86	0xbd811cbd	-0.063043095
87	0xbd13b36e	-0.03605979
88	0xbda5644a	-0.08075769
89	0x3cca7faa	0.024719078
90	0xbca2f413	-0.019891774
91	0x3caf78a2	0.021419827
92	0x3d0eef10	0.034895957
93	0xbbb2ff75	-0.0054625818
94	0xbb15d221	-0.0022860842
95	0xbdd69bcd	-0.104789354
96	0xbdde9825	-0.10868863
97	0xbda7aa4b	-0.08186778
98	0xbe4aaca0	-0.19792414
99	0xbd03b7d7	-0.032157745

fc2.weight f4 [64, 100]
0	0xbd2217f3	-0.03957362
1	0x3d53242f	0.05154818
2	0xc0deef7e	-6.966735
3	0xbe015ac2	-0.12632278
4	0xbc85c6b7	-0.016330106
5	0xbfb28503	-1.3946842
6	0x3d8d79fa	0.06908031
7	0x3dacdfab	0.08441099
8	0xbd5d771a	-0.054068662
9	0xbf226b80	-0.6344528
10	0xbd60d187	-0.05488732
11	0x3b3cfecd	0.0028838397
12	0xbe8f575d	-0.2799634
13	0xbdae795d	-0.08519242
14	0x3dddf486	0.10837655
15	0x3cb2629b	0.021775534
16	0x3d7c518b	0.061601203
17	0x3d5d15e7	0.053975966
18	0xbb4fcf67	-0.0031709315
19	0x3cdcb4db	0.026941707
20	0xbc92bb3d	-0.017911548
21	0xbee68905	-0.45026413
22	0x3c8469c9	0.016163724
23	0x3d458c30	0.048229396
24	0x3dad47c4	0.08460954
25	0xbcf15078	-0.029457316
26	0x3dde9638	0.10868496
27	0x3cb4f220	0.02208811
28	0x3d1c6cdb	0.03818975
29	0x3deab8f1	0.11461056
30	0xbfdd992a	-1.7312367
31	0x3d9703e4	0.07373789
32	0x3d689bb0	0.0567891
33	0x3dc15535	0.0944008
34	0xbd9dffd7	-0.07714813
35	0xbd04ef83	-0.03245498
36	0x3b32becd	0.002727437
37	0xbd0a2263	-0.0337242
38	0xbd711566	-0.058858298
39	0xbdb7a323	-0.08966663
40	0x3c68bb48	0.014204808
41	0x3d573320	0.05253899
42	0x3cf559a0	0.029949963
43	0x3d43effa	0.04783628
44	0x3d73641a	0.059421636
45	0xbf3170ba	-0.6931263
46	0x3e1f37d5	0.15548642
47	0x3e10e8b0	0.14151263
48	0x3ab373ff	0.0013691186
49	0xbe888c2b	-0.2666944
50	0xbdb72cb8	-0.08944076
51	0xbee20359	-0.4414318
52	0xbd535210	-0.051591933
53	0xbda9f984	-0.082995445
54	0x3c41f99d	0.011839298
55	0x3d40d154	0.04707463
56	0xbc95a8da	-0.018268991
57	0x3b699f9a	0.0035648108
58	0x3da7e3b5	0.081977285
59	0x3dd373bf	0.10324811
60	0x3e85cc24	0.2613231
61	0x3d28b407	0.041187312
62	0x3dac13fe	0.08402251
63	0xc0eaa015	-7.3320413
64	0xbc810ae7	-0.015752269
65	0xbd8286b7	-0.06373351
66	0xbc2ca44d	-0.010537219
67	0x3d4fdb20	0.050746083
68	0xbcc6c9b6	-0.024266105
69	0xbc60d25a	-0.013722027
70	0xbbf7fd4d	-0.0075680376
71	0xbd3bdc17	-0.04586419
72	0xbf26a0d7	-0.6508917
73	0x3dca6d67	0.09884148
74	0x3cd04a1a	0.02542596
75	0xbd0a2940	-0.033730745
76	0xbcc4e366	-0.024034213
77	0x3d0912e5	0.033465285
78	0x3d7ba5c3	0.06143738
79	0x3d3fa196	0.04678496
80	0xbd79c376	-0.06097742
81	0xbed22558	-0.41044116
82	0xbc993473	-0.018701768
83	0x3e7b9516	0.2456859
84	0xbb9bd742	-0.0047558853
85	0x3cbea813	0.023273503
86	0xbd7f8837	-0.062385764
87	0xbfdf65d2	-1.7452948
88	0xbcac38d3	-0.02102319
89	0xbd5cf63d	-0.05394577
90	0xbd2f75e0	-0.042837024
91	0xbd01c5f9	-0.031682942
92	0xbd0445a7	-0.03229299
93	0xbb560f67	-0.003266299
94	0xbdb346a8	-0.08753711
95	0x3b5529b8	0.0032526087
96	0x3dba5bf9	0.09099574
97	0x3d737636	0.059438907
98	0xbf4225e8	-0.7583909
99	0x3dbece27	0.09316664
100	0x3d9aca75	0.07558147
101	0x3d9782ab	0.0739797
102	0xbd240931	-0.040047828
103	0xbe3182d0	-0.17335057
104	0xbd98073d	-0.074232556
105	0xbd59faa3	-0.05321754
106	0x3d8334c7	0.06406551
107	0x3b85ddcd	0.0040852786
108	0x3d2a2297	0.041536894
109	0xbd4a2cfa	-0.0493593
110	0xbcecedcd	-0.028921986
111	0x3d03564a	0.032064714
112	0xbec7bb9a	-0.39010316
113	0x3d7b1263	0.06129683
114	0x3dc6094d	0.09669743
115	0xbd89d495	-0.0673
116	0xbaf8bf33	-0.001897788
117	0x3bc7a0e7	0.006092179
118	0xbd920a0b	-0.07130822
119	0x3d0cc5a3	0.03436817
120	0x3d799d9d	0.060941327
121	0x3d8ca035	0.068664946
122	0xbd18a307	-0.03726485
123	0xbcff212d	-0.03114375
124	0x3b80af9a	0.0039271833
125	0x3dba34a3	0.09092071
126	0x3d9d6c45	0.076866664
127	0xbdafff4b	-0.08593615
128	0xbd7fa953	-0.06241734
129	0xbda756aa	-0.08170827
130	0xbd29722a	-0.04136864
131	0x3d90b980	0.07066631
132	0xbedc8544	-0.43070424
133	0xbbd8b24d	-0.006613052
134	0xbd90cb5b	-0.07070037
135	0x3d5cb8ea	0.053887285
136	0xbda78e53	-0.08181443
137	0xbd68928d	-0.056780387
138	0x3d87ae83	0.06625082
139	0xbdbb565f	-0.09147333
140	0x3d9f05bf	0.07764768
141	0x3ad91ecd	0.0016564965
142	0x3dcae378	0.099066675
143	0x3c7f8a00	0.015596867
144	0xbd8ce088	-0.068787634
145	0xbf23eb6c	-0.640311
146	0x3c507cc0	0.012725055
147	0xbd935355	-0.07193629
148	0x3d0c3cca	0.03423766
149	0xbecdc31e	-0.40187925
150	0xbcff0547	-0.031130446
151	0xbebfe9c4	-0.37483037
152	0xbd1a9ae7	-0.037745383
153	0xbcb44b79	-0.022008644
154	0x3d05a443	0.032627355
155	0xbdb2c48b	-0.08728894
156	0x3dc5c8ab	0.09657415
157	0xbd8d939f	-0.06912922
158	0xbd7aab43	-0.061198484
159	0x3da63d35	0.08117143
160	0xbf1683ea	-0.58795035
161	0x3cbe15ba	0.02320372
162	0xbd42bd07	-0.04754355
163	0xbe994ac9	-0.2993987
164	0xbc826f87	-0.015922321
165	0x3d290db0	0.04127282
166	0xbd13be60	-0.036070228
167	0xbbb10800	-0.005402565
168	0x3cd4ec27	0.025991512
169	0xbd883dbd	-0.06652401
170	0xbcc23f2d	-0.023711765
171	0x3c05d2a7	0.008167899
172	0xbcc967b3	-0.02458558
173	0xbd188300	-0.037234306
174	0xbcacaa9a	-0.021077443
175	0xbd98eb37	-0.07466739
176	0xbc0cd7b3	-0.008596349
177	0xbefefdc4	-0.49802983
178	0xbd7d4fa3	-0.061843526
179	0xbbfb5933	-0.0076705455
180	0xbdac0a65	-0.0840042
181	0xbefb2ee1	-0.49059203
182	0x3c26d167	0.010181761
183	0xbd9225ef	-0.071361415
184	0x3cf4db4d	0.029889727
185	0xbd8abef5	-0.067747034
186	0xbd3cc29a	-0.046084024
187	0xbdbc9aca	-0.09209211
188	0x3cad9773	0.02119038
189	0x3c48d3da	0.012257541
190	0xbd91bb3b	-0.071157895
191	0xbd34205a	-0.043976165
192	0xbdc8049d	-0.09766505
193	0x3d1460b3	0.036225032
194	0x3da27bca	0.07933767
195	0x3b8fc200	0.0043871403
196	0xbc1c2dda	-0.009532416
197	0x3d71c567	0.05902615
198	0xbe8b98a3	-0.2726489
199	0xbd3b7bfa	-0.04577253
200	0xbd9e8b13	-0.0774137
201	0x3cc3632d	0.023851002
202	0xbeb2c50e	-0.34915966
203	0xbdca0c83	-0.09865668
204	0x3db8f087	0.09030252
205	0xbd9002d3	-0.07031789
206	0x3db465df	0.08808493
207	0x3d2be027	0.041961815
208	0xbda4a84f	-0.08039915
209	0xbd9e7587	-0.0773726
210	0x3c47111a	0.012150073
211	0xbc2eb10d	-0.010662329
212	0xbc494500	-0.012284517
213	0x3cc33fe7	0.023834182
214	0x3d90188f	0.07035934
215	0xbd814195	-0.06311337
216	0x3c1b0773	0.009462225
217	0xbd83df3d	-0.06439064
218	0xbc69220d	-0.01422931
219	0x3d356a50	0.04429084
220	0xbd9ef322	-0.07761218
221	0x3d2d14c0	0.042256117
222	0x3dad411a	0.08459683
223	0x3c7fe9cd	0.015619707
224	0xbd4da3fd	-0.05020522
225	0xbdc22b0b	-0.09480866
226	0xbdb51357	-0.088415794
227	0xbcd9b2ad	-0.026574457
228	0x3d5547d7	0.052070465
229	0xbcedef5a	-0.029044796
230	0xbd97aec7	-0.07406383
231	0x3d77cded	0.06049912
232	0xbe1b1031	-0.15142895
233	0x3d77aa77	0.060465302
234	0x3ce30d13	0.027716195
235	0xbd188643	-0.037237417
236	0xbd68c16d	-0.05682509
237	0xbd5b2443	-0.05350138
238	0x3d8fd078	0.07022184
239	0xbd75f96d	-0.060052324
240	0x3da5eeeb	0.081022106
241	0x3ce69cb3	0.028150892
242	0x3d1179da	0.035516597
243	0xbd57459d	-0.052556623
244	0xbd4ff950	-0.050774872
245	0xbeb84f60	-0.35998058
246	0xbdaa17b5	-0.08305303
247	0xbc8ec333	-0.017427063
248	0xbd6fffe3	-0.058593642
249	0xbd2aaf40	-0.041671038
250	0x3d9ea00b	0.077453695
251	0xbe4f938b	-0.20271127
252	0xbda7d952	-0.081957474
253	0xbe986815	-0.29766908
254	0x3dabf9d8	0.08397263
255	0x3da5ca75	0.08095256

fc2.bias f4 [64]
0	0x3f8c74a9	1.0973102
1	0xbeeafe07	-0.45896932
2	0xbebc939f	-0.36831376
3	0xbe3fc426	-0.18727168
4	0xbe8f6802	-0.2800904
5	0xbeada7e9	-0.33917168
6	0xc00b8869	-2.1802008
7	0xbe907dd7	-0.28221008
8	0xbd1ba099	-0.037994955
9	0xbe1330d4	-0.14374095
10	0xbf21bd48	-0.63179445
11	0xbf283960	-0.6571255
12	0xbecaa451	-0.39578488
13	0x3f33c330	0.7021971
14	0x3d523887	0.05132344
15	0xbea9964d	-0.33122483
16	0x3e5482c8	0.20753014
17	0xc0333e7d	-2.800689
18	0xbee9b39b	-0.4564484
19	0xbecd158e	-0.40055507
20	0xbd8832af	-0.06650292
21	0xc0030a7e	-2.0475154
22	0x3edde748	0.43340516
23	0xbf297bb5	-0.66204387
24	0xbeef75c2	-0.4676953
25	0xbedb4cb4	-0.42831957
26	0x3f98eb88	1.1946878
27	0xbee0cb52	-0.4390512
28	0xbf03e6c9	-0.51524025
29	0xbeb84b9c	-0.35995185
30	0xbec8267e	-0.39091867
31	0xbfd3ddf7	-1.6552113
32	0xbdefe976	-0.11714451
33	0xbdd0ad41	-0.101892956
34	0xbdea1a69	-0.114308186
35	0xbe0820cd	-0.13293763
36	0x3f862273	1.0479263
37	0xbfa6db00	-1.3035583
38	0x3f1a5f91	0.6030207
39	0xbe9a8c77	-0.3018529
40	0xbea30489	-0.31839398
41	0x3f71ef29	0.94505554
42	0xbf7311c7	-0.94949
43	0xbecbf5b9	-0.3983591
44	0xbec4adcf	-0.38413855
45	0xbe9b680c	-0.3035282
46	0xbe4b9fa1	-0.19885112
47	0xbeff28ec	-0.49835908
48	0x3e124699	0.14284743
49	0x3e0023bc	0.12513632
50	0xbe5c8fd0	-0.21539235
51	0xbe055e0f	-0.13024162
52	0xbea9c4dd	-0.33158007
53	0xbf5788f9	-0.8419338
54	0xbf3665da	-0.71249163
55	0xbe8ec400	-0.2788391
56	0xbeeed1a0	-0.46644306
57	0x3eb01cee	0.34397072
58	0xbfc29f20	-1.5204811
59	0xbeca2a3e	-0.39485353
60	0xbee6784b	-0.4501365
61	0xbcc6cdb4	-0.024268009
62	0x3f3fc7f4	0.7491448
63	0x3efbd258	0.49183917

fc3.weight f4 [64, 64]
0	0xbf43005e	-0.76172435
1	0xbd24c4cb	-0.04022674
2	0xbe46ab92	-0.19401386
3	0xbfd31149	-1.648965
4	0xbe9d9e16	-0.30784672
5	0xbd27e784	-0.040992275
6	0xbe2c0d7b	-0.16802017
7	0xbdcbd4f3	-0.09952726
8	0x3e1271b1	0.14301182
9	0x3dfdfd82	0.124018684
10	0xbe4bb5ef	-0.19893621
11	0xbe9790a8	-0.2960255
12	0x3ef35769	0.47527626
13	0x3e8fdaef	0.2809672
14	0xc0202b61	-2.5026476
15	0x3db179d8	0.08665818
16	0xbed4ef85	-0.4158899
17	0xbf279539	-0.6546207
18	0x3deea80d	0.11653147
19	0x3d1a056f	0.037602838
20	0xbd9094cf	-0.07059633
21	0xbea5c9d8	-0.32380557
22	0x3ddf606a	0.109070614
23	0xbd78d941	-0.060754064
24	0x3ba73b35	0.0051034936
25	0xbea7e444	-0.3279134
26	0xbf689f39	-0.90867954
27	0x3e55f598	0.20894468
28	0x3e588870	0.21145797
29	0x3e3a56ff	0.18197249
30	0xbd3b5527	-0.045735504
31	0xbea083c9	-0.31350544
32	0xbd96a674	-0.07355967
33	0xbfba2b07	-1.4544381
34	0x3e37c1ad	0.17944975
35	0xbd75b878	-0.059990376
36	0xc014f2ba	-2.3273149
37	0xbef9586e	-0.4870028
38	0x3ea8622d	0.32887402
39	0xbef2ac77	-0.47397205
40	0xbd8dad43	-0.06917813
41	0xc09e7d58	-4.9528008
42	0xbe3847be	-0.17996117
43	0x3d86c3e7	0.06580334
44	0xbef0b748	-0.47014832
45	0x3eac1210	0.3360753
46	0x3c14a688	0.009072907
47	0x3e52fa78	0.20603359
48	0xbbc5ae5c	-0.006032748
49	0xbe4ceab0	-0.20011401
50	0x3d0b0a24	0.033945218
51	0xbe047264	-0.12934262
52	0xbd80504b	-0.06265315
53	0xbeb63617	-0.35588142
54	0xc0a5bbd5	-5.1791787
55	0xbe9cf211	-0.30653432
56	0xbe04cf6d	-0.12969752
57	0xc035d4aa	-2.841105
58	0xbfbf00ec	-1.4922156
59	0x3d0e987b	0.034813385
60	0xbd104f11	-0.035231654
61	0xbcb4ea5f	-0.022084413
62	0xbf09e789	-0.5386892
63	0xbfb0c73b	-1.38108
64	0xbd1b7242	-0.03795076
65	0xbdf7d0b6	-0.12100355
66	0x3da60aa6	0.081075
67	0xbd829e12	-0.06377806
68	0x3d16afbc	0.036788687
69	0xbd31798a	-0.0433288
70	0xbe94f36b	-0.29091963
71	0x3d6e8cd4	0.058239773
72	0x3d7f6f10	0.062361777
73	0x3cba41c0	0.02273643
74	0xbd3adfa0	-0.04562342
75	0x3daed5f8	0.08536905
76	0xbd5dddfc	-0.05416678
77	0x3d32d7f7	0.04366299
78	0xbe321adf	-0.17393063
79	0xbd9b5ff2	-0.075866595
80	0xbdbdda13	-0.0927011
81	0xbe7ecda8	-0.24883139
82	0xbd641a7c	-0.05568932
83	0xbda01255	-0.078159966
84	0x3d84035c	0.06445953
85	0xbde9bddc	-0.11413166
86	0xbd9c4b00	-0.076314926
87	0xbd4f287e	-0.050575726
88	0xbd00f888	-0.031487018
89	0xbdcd2ece	-0.10018693
90	0xbd0d22f5	-0.034457166
91	0x3da23794	0.07920757
92	0x3dca629c	0.098820895
93	0x3df403aa	0.11914761
94	0x3d25c288	0.040468723
95	0xbd0d357c	-0.034474835
96	0xbd3216fd	-0.043478955
97	0xbd6c76bc	-0.05773042
98	0x3cd4be08	0.02596952
99	0x3d399bb4	0.045314506
100	0xbb09258c	-0.002092692
101	0xbc955aa8	-0.018231705
102	0xbde3e472	-0.11127557
103	0xbe0d0496	-0.1377128
104	0x3d5ed1cc	0.054399297
105	0xbdd7d1fc	-0.10538098
106	0xbde09511	-0.10965932
107	0xbc4ac3eb	-0.012375812
108	0x3dcb904a	0.0993963
109	0xbde8c1ca	-0.11365087
110	0x3dfc92fe	0.12332724
111	0xbd8c0974	-0.068377405
112	0xbec1e5b8	-0.37870574
113	0xbc1dd36b	-0.0096329255
114	0xbd67823c	-0.056520686
115	0x3d3b38c5	0.045708437
116	0x3dc68270	0.09692848
117	0xbda51d64	-0.080622464
118	0xbeb2ab9c	-0.34896553
119	0x3c92b148	0.0179068
120	0xbc72c940	-0.01481849
121	0xbd4d1203	-0.050066005
122	0xbe9eead5	-0.31038538
123	0x3d83fe82	0.06445028
124	0xbd8d6cac	-0.06905493
125	0xbc7ae930	-0.015314385
126	0xbd35bac5	-0.04436757
127	0xbe0f1d37	-0.13975988
128	0x3b66fdb8	0.0035246443
129	0x3d9dd8ae	0.07707344
130	0x3d19dd9c	0.03756486
131	0xbe5809df	-0.21097516
132	0xbb70b1c0	-0.003672704
133	0x3de6f28c	0.11276731
134	0xbe2094ff	-0.15681837
135	0xbcade978	-0.02122949
136	0xbc3f15f0	-0.011662945
137	0xbdb20c72	-0.0869378
138	0xbebc885f	-0.36822793
139	0xbc885b30	-0.016645044
140	0x3ddf757c	0.1091108
141	0xbd34cecc	-0.04414253
142	0xbdb3b0b0	-0.08773935
143	0x3b92c540	0.0044790804
144	0xbe0bd7d8	-0.13656557
145	0x3c88bea0	0.01669246
146	0x3c8626c8	0.016375914
147	0x3d981660	0.07426143
148	0xbdac330c	-0.08408174
149	0x3d971688	0.07377344
150	0xbdfa68f8	-0.122270525
151	0xbc0e4960	-0.008684486
152	0xbc806418	-0.015672728
153	0xbcc7a4a0	-0.024370492
154	0xbd0ebe75	-0.034849603
155	0x3c2781f0	0.010223851
156	0xbddfb498	-0.109231174
157	0x3db3bb44	0.087759525
158	0xbb7f3bc0	-0.0038945526
159	0xbe0f1966	-0.13974532
160	0x3ca62b08	0.02028419
161	0x3d22c92c	0.039742634
162	0xbdbf9038	-0.093536794
163	0xbdd0d3fc	-0.10196683
164	0x3dee2bb6	0.11629431
165	0xbd2e06c1	-0.04248691
166	0xbe05f74c	-0.13082618
167	0xbd783a5e	-0.06060254
168	0x3bd1f400	0.006407261
169	0xbdfeccfd	-0.12441442
170	0x3d4d9fc3	0.05020119
171	0xbd48d094	-0.04902704
172	0xbd2d79cc	-0.042352483
173	0x3cb0ff18	0.021606013
174	0xbcf31630	-0.029673666
175	0x3dc5dd7c	0.096613854
176	0xbdbb2342	-0.09137584
177	0xbe59b0f5	-0.2125891
178	0xbd20d10c	-0.039261863
179	0xbd990448	-0.0747152
180	0xbc4bcbf0	-0.012438759
181	0xbdd5e9a6	-0.104449555
182	0xbed4a78c	-0.41534078
183	0xbe448483	-0.19191174
184	0xbde476b6	-0.11155455
185	0xbe4422ff	-0.19153975
186	0xbdd9b96a	-0.10631068
187	0x3d036948	0.032082826
188	0xba990080	-0.0011673123
189	0x3d297a08	0.041376144
190	0xbe42cb32	-0.19022825
191	0xbe6c080d	-0.23049946
192	0xbdd64612	-0.104625836
193	0xbdefd2b8	-0.11710113
194	0x3df61ecc	0.12017593
195	0xbec6ec71	-0.38852265
196	0xbc0a3989	-0.008436569
197	0xbec56b87	-0.385586
198	0xbdc9a819	-0.09846515
199	0xbde6d0e7	-0.11270314
200	0x3bc14578	0.005898174
201	0xbd9fca42	-0.078022495
202	0xbf073a93	-0.5282375
203	0xbd2b55de	-0.041829936
204	0xbd8c6c9c	-0.06856653
205	0xbe6f99e0	-0.23398542
206	0xbe371e9d	-0.17882772
207	0xbda8a81b	-0.082351886
208	0xbd8d3809	-0.068954535
209	0xbf2c15a3	-0.67220515
210	0xbc2b54ba	-0.010457212
211	0xbd5b76ac	-0.05357997
212	0x3ca535c8	0.020167246
213	0xbe63c620	-0.22243547
214	0xbf229836	-0.63513505
215	0xbdcfe29e	-0.10150646
216	0xbcb19451	-0.021677168
217	0x3d444e36	0.04792615
218	0xbf321962	-0.6956998
219	0xbe106c89	-0.14103903
220	0x3cc5098d	0.024052406
221	0x3c42abdd	0.011881796
222	0xbd99d0c6	-0.075105235
223	0xbd94a238	-0.07257503
224	0xbe03c985	-0.12869842
225	0x3d1ebdef	0.038755354
226	0xbd1c6b34	-0.038188174
227	0xbe38fcb8	-0.18065155
228	0xbe44fe64	-0.19237667
229	0xbee09870	-0.438663
230	0xbf229246	-0.63504446
231	0xbd8b605f	-0.06805491
232	0xbbeae0f9	-0.007167932
233	0xbe03b441	-0.1286173
234	0x3dd4b818	0.103866756
235	0xbe26a0ac	-0.16272229
236	0xbe2d8554	-0.16945392
237	0xbe216aba	-0.15763369
238	0xbcaefff0	-0.021362275
239	0x3d3879b4	0.04503794
240	0xbf39d268	-0.7258668
241	0xbdfa696b	-0.12227138
242	0xbcc2eff0	-0.023796052
243	0xbe2d30eb	-0.16913192
244	0xbde71917	-0.112840824
245	0xbbd099ae	-0.0063659763
246	0xbe977776	-0.2958333
247	0xbf3bc11c	-0.73341537
248	0xbdeefbee	-0.116691455
249	0xbf114c0d	-0.5675667
250	0xbf13a743	-0.57677096
251	0xbdb04495	-0.08606831
252	0xbb16d400	-0.0023014545
253	0x3b1dd02a	0.0024080374
254	0xbeb63b25	-0.35592
255	0xbe321554	-0.17390949

fc3.bias f4 [64]
0	0x3e1cadfb	0.15300743
1	0xbecec008	-0.40380883
2	0xbef9b4c9	-0.4877074
3	0xbf00dbf4	-0.5033562
4	0x3e5b7894	0.21432716
5	0xbefc7c78	-0.49313712
6	0x3e9d0ca0	0.30673695
7	0xbec39318	-0.3819816
8	0xbe8ce235	-0.27516332
9	0x3e9e730e	0.30947155
10	0x3e1c79cb	0.15280835
11	0xbf000f22	-0.5002309
12	0xbebc4d53	-0.36777744
13	0xbe643e40	-0.22289371
14	0xbedd80c2	-0.43262297
15	0xbea7adde	-0.32749838
16	0xbe85bf30	-0.26122427
17	0xbf3b6ffa	-0.7321774
18	0xbec6c625	-0.38823047
19	0xbebb273b	-0.36553368
20	0x3eb8ca94	0.36092055
21	0xbe94a39e	-0.2903108
22	0xbf80ece9	-1.0072299
23	0xbf0150ff	-0.50514215
24	0x3e8c4ae2	0.2740088
25	0xbd57322e	-0.05253809
26	0xbf7fefd5	-0.9997533
27	0xbf2e03bb	-0.6797444
28	0xbe981275	-0.29701582
29	0xbf1169fb	-0.5680234
30	0xbeb6cdbb	-0.35703835
31	0xbeefd419	-0.46841505
32	0xbed4a3e7	-0.41531298
33	0xbf1192e5	-0.5686477
34	0xbea800a5	-0.32812992
35	0x3dacea9e	0.08443187
36	0xbebadca7	-0.3649647
37	0xbefd0cfd	-0.49423972
38	0x3ea64ed8	0.32482028
39	0x3daceee5	0.08444003
40	0x3e845d01	0.25852206
41	0x3e862497	0.2619979
42	0x3dea6ee3	0.11446931
43	0xbe286e06	-0.1644822
44	0xbebcc77d	-0.36870947
45	0xbea143bd	-0.31496993
46	0xbeb14e20	-0.34629917
47	0x3ecca25b	0.39967617
48	0xbe1f8e90	-0.15581727
49	0xbe107039	-0.1410531
50	0x3e732cf3	0.23747616
51	0xbeb9c69d	-0.36284342
52	0xbeb4cba1	-0.35311607
53	0xbead84bd	-0.33890334
54	0xbf3a6077	-0.72803444
55	0xbf83abce	-1.0286806
56	0x3e2d821f	0.16944169
57	0xbed6cd38	-0.41953444
58	0xbf551dc7	-0.8324856
59	0x3ec83315	0.39101472
60	0x3e2b563a	0.16732112
61	0xbe7e2b46	-0.24821195
62	0xbf331abe	-0.6996268
63	0x3f302c72	0.6881782

fc4.weight f4 [63, 64]
0	0x36a97a00	5.050795e-06
1	0x3d7b8c76	0.06141325
2	0xbe80f3d0	-0.25186014
3	0x3c165425	0.009175335
4	0x38117c1e	3.4686287e-05
5	0xbdcab92a	-0.098985985
6	0x37426a94	1.1588116e-05
7	0xbd43f1a9	-0.047837887
8	0xbe92b497	-0.28653404
9	0xb58efeef	-1.065402e-06
10	0x37951235	1.7770662e-05
11	0xbd08a7bb	-0.033363085
12	0xbddeea0b	-0.10884484
13	0xbacc72eb	-0.0015598213
14	0x3e39d99b	0.18149416
15	0x3dface26	0.12246351
16	0xbd405d70	-0.04696411
17	0xbdf81623	-0.12113597
18	0xbd52856c	-0.051396772
19	0xbe46bb2d	-0.1940734
20	0x36d64a30	6.3863336e-06
21	0x3e8aa61d	0.2707986
22	0x3e4a2a51	0.19742705
23	0xbcf7cf63	-0.030250257
24	0x36b6e5ad	5.4507605e-06
25	0x36a79c9f	4.995221e-06
26	0xbd0f4c87	-0.03498509
27	0x3d6f07f2	0.058357187
28	0x37c322ae	2.326196e-05
29	0xbd7e0cf1	-0.06202406
30	0x3e0e29ea	0.13883176
31	0x3d20ec77	0.03928801
32	0xbd09ed38	-0.033673495
33	0xbdd5d95f	-0.10441851
34	0xbe6f5e1e	-0.23375747
35	0x36b1f01f	5.302965e-06
36	0xbcff9332	-0.031198118
37	0x3db4d643	0.0882993
38	0xb6f98731	-7.4365166e-06
39	0xb791c945	-1.737907e-05
40	0x384e1d49	4.91415e-05
41	0x37a73897	1.9934303e-05
42	0xb63b5559	-2.791485e-06
43	0x3da45ada	0.08025141
44	0x3e499653	0.1968625
45	0xbe530136	-0.2060593
46	0xbc1fccd7	-0.0097534275
47	0x34f07424	4.4787987e-07
48	0xbd7ce197	-0.061738577
49	0x3dd50930	0.10402143
50	0xb6ea7ab7	-6.9880293e-06
51	0x387d5009	6.039444e-05
52	0xbe6f9cb9	-0.23399629
53	0x3bc089a0	0.005875781
54	0x3e0f6e1b	0.14006846
55	0x3a73b3db	0.0009296515
56	0xb6597495	-3.240338e-06
57	0xbe14d385	-0.14533813
58	0x3e1be549	0.15224184
59	0xb73701c1	-1.0908058e-05
60	0x373c8539	1.12366915e-05
61	0x3bb89eb1	0.005634152
62	0x3e289e14	0.16466552
63	0xb73fed2e	-1.143971e-05
64	0x3b3ebbb8	0.0029103588
65	0x3dff68fa	0.124711946
66	0xbe2942dd	-0.16529413
67	0xbd35f43a	-0.044422366
68	0x3aa23f89	0.0012378554
69	0xbc91da0f	-0.017804174
70	0x3c2a8308	0.010407217
71	0xbe5c37aa	-0.21505609
72	0xbe92522c	-0.28578317
73	0xbb60e360	-0.0034315214
74	0x39514d44	0.00019960577
75	0x3e1cd422	0.15315297
76	0xbe9c55c5	-0.30534187
77	0xbdbf333a	-0.093359426
78	0x3e07c876	0.13260064
79	0x3da1cd8f	0.07900535
80	0xbc18e10d	-0.009331
81	0x3e365d4a	0.17809024
82	0x3d367da3	0.04455341
83	0xbda956e1	-0.08268524
84	0xbbb44aa3	-0.0055020615
85	0xbe8cffbc	-0.2753886
86	0xbdecbbae	-0.115592346
87	0x3d302601	0.043004993
88	0xba9e7da5	-0.0012091888
89	0x3a60f020	0.0008580703
90	0x3de27ef5	0.110593714
91	0x3d5115fd	0.05104636
92	0xbc41d8d0	-0.011831477
93	0xbd0a95ca	-0.033834256
94	0xbd542cf9	-0.0518007
95	0xbde686b7	-0.112561636
96	0x3d0cd619	0.034383867
97	0x3dc2a434	0.095039755
98	0xbe72a781	-0.2369671
99	0xbb7ddf6e	-0.003873791
100	0xbd548276	-0.05188223
101	0x3c98fc38	0.018674955
102	0xb97974e7	-0.0002379004
103	0xb9c15064	-0.00036871724
104	0xbb9e64b9	-0.0048337844
105	0x3bce2317	0.006290804
106	0xbb3d2ab4	-0.0028864564
107	0x3e40fe74	0.18847066
108	0x3df56072	0.11981286
109	0xbe54a7e2	-0.20767167
110	0x3c662c6e	0.014048679
111	0x3ad055e4	0.0015894738
112	0xbd74f63e	-0.059805147
113	0x3d09b54a	0.033620156
114	0xbb5b3306	-0.003344716
115	0xb9a8a619	-0.0003216721
116	0xbe987472	-0.2977634
117	0xbe32a8c7	-0.17447196
118	0xbbd4caf3	-0.00649392
119	0x39c95fdf	0.00038409137
120	0x3b3700b9	0.0027924015
121	0xbe8425be	-0.25810045
122	0x3ca669c9	0.020314114
123	0xbb29d7bf	-0.0025915948
124	0xb9b75f50	-0.00034975493
125	0xbd41e194	-0.04733427
126	0xbc05b3c2	-0.008160533
127	0x3ac28741	0.0014841334
128	0x3ae40b9b	0.0017398478
129	0x3d1a1b29	0.03762356
130	0x3de531f7	0.11191171
131	0x3c8e0818	0.017337844
132	0x3b15eecb	0.0022877927
133	0x3c21bb9a	0.009871388
134	0xbaea8a90	-0.0017894078
135	0x3dac9837	0.0842747
136	0x3e91c474	0.28470194
137	0xbb3cdc48	-0.0028817821
138	0x3af87533	0.0018955827
139	0x3d514a2f	0.051096138
140	0xbe751f4c	-0.2393772
141	0x3d46d565	0.048543353
142	0x3d052ee8	0.032515436
143	0x3ca54fe5	0.020179698
144	0xbdd06397	-0.10175245
145	0x3e5e979d	0.21737523
146	0xbbc7d14e	-0.006097949
147	0xbc7dc381	-0.015488506
148	0xba554d36	-0.00081368105
149	0x3e91b17e	0.28455728
150	0xbe55429c	-0.2082619
151	0x3c72d577	0.014821402
152	0xbae8cfde	-0.0017762145
153	0x39f3da49	0.00046511207
154	0xbcfb0614	-0.030642547
155	0xbd383722	-0.044974454
156	0xbc1e8179	-0.009674423
157	0xbd83c946	-0.06434874
158	0xbdf96764	-0.12177923
159	0x3dc36ae6	0.09541874
160	0xbd4b064d	-0.049566556
161	0x3e0bb16f	0.13641904
162	0xbe8608cf	-0.26178595
163	0x3aa90e91	0.0012898018
164	0xbd94f628	-0.07273513
165	0xbe6955eb	-0.22786681
166	0xba059166	-0.00050952134
167	0xbaa01c8d	-0.001221554
168	0xba0196b6	-0.0004943417
169	0x3b352bda	0.0027644546
170	0xba836281	-0.0010023863
171	0x3c5b11e3	0.013370964
172	0x3e8971e0	0.26844692
173	0xbe42596e	-0.18979427
174	0xbc8a06ae	-0.016848888
175	0xb8d82657	-0.00010306824
176	0xbce562c7	-0.028001202
177	0x3bb7e461	0.0056119417
178	0x3b08463d	0.0020793818
179	0x3c708f4f	0.014682605
180	0x3e9aa929	0.30207184
181	0xbc87ea8d	-0.016591335
182	0xbd413e6e	-0.04717868
183	0xbc0b90f1	-0.008518443
184	0x3b14a642	0.0022682105
185	0xbe4e893e	-0.20169541
186	0x3ca74c0c	0.020422004
187	0x3ace0242	0.0015717226
188	0xb9456118	-0.00018823554
189	0xbe0b17ba	-0.1358327
190	0xbe8ad95c	-0.27118957
191	0x39ef009e	0.00045586092
192	0xbe95d348	-0.29262757
193	0x3db84e6a	0.08999331
194	0xbea6bc68	-0.32565618
195	0x3eb92f93	0.3616911
196	0xbec3b86c	-0.3822664
197	0x3eb32aa7	0.3499348
198	0xbe217970	-0.15768981
199	0x3dc7293e	0.09724663
200	0xbf09133c	-0.53544974
201	0x3e3f50e1	0.18683197
202	0xbdec2b8d	-0.11531744
203	0xbe6f7e06	-0.23387918
204	0xbeea37f0	-0.45745802
205	0xbd8c8ce9	-0.06862814
206	0xbe5837d4	-0.21115047
207	0xbd955a03	-0.07292559
208	0x3d2b5c5d	0.04183613
209	0x3e310a0f	0.17288993
210	0xbe8dc7b3	-0.2769142
211	0xbda6146f	-0.08109366
212	0xbeb5afe7	-0.35485765
213	0x3e1e90a4	0.15484864
214	0x3caa431f	0.020783959
215	0xbe08d121	-0.13361026
216	0x3e42225e	0.18958423
217	0xbe536ec8	-0.20647728
218	0xbdf1da1e	-0.11809181
219	0xbe5cd942	-0.21567252
220	0xbe8f9106	-0.28040332
221	0xbee417da	-0.44549447
222	0x3e91faa3	0.28511533
223	0xbea12360	-0.314723
224	0xbe35e8a8	-0.17764533
225	0xbe1ecc17	-0.15507542
226	0xbe4ae67c	-0.19814485
227	0xbd202f09	-0.039107356
228	0x3ee97f67	0.45605013
229	0xbe3000b7	-0.17187773
230	0xbe113a58	-0.14182413
231	0x3d2eeb9c	0.042705163
232	0xbd6e7140	-0.058213472
233	0x3de70f9d	0.11282275
234	0x3cfde308	0.030992046
235	0xbd0673ef	-0.032825407
236	0xbe56bca9	-0.20970406
237	0xbe5bc3dc	-0.21461433
238	0x3cb1b407	0.021692289
239	0x3e25a363	0.16175608
240	0x3e2838c0	0.16427898
241	0x3d95ccb5	0.073144354
242	0x3ef28d81	0.47373584
243	0xbdc30d26	-0.09523992
244	0x3e11cb02	0.14237598
245	0x3e7461ce	0.23865435
246	0x3e2a30bc	0.16620153
247	0xbd29c37d	-0.041446198
248	0xbe28ca00	-0.16483307
249	0x3e37a6f8	0.17934787
250	0xbec5a535	-0.38602605
251	0x3d52bd21	0.0514499
252	0x3d123d04	0.03570272
253	0x3d3ee59a	0.046605684
254	0xbe745b18	-0.23862875
255	0xbd91900d	-0.07107554

fc4.bias f4 [63]
0	0xb681f88f	-3.8734356e-06
1	0xba7a7357	-0.000955393
2	0x39dcb386	0.00042095425
3	0x3f0d8831	0.55285937
4	0x3f0638e4	0.5243056
5	0x3e99f9c8	0.3007338
6	0x3f1aed0a	0.6051794
7	0x3ef1e1b7	0.4724252
8	0x3ed14356	0.40871686
9	0x3f2919e2	0.6605512
10	0x3ed3c61b	0.4136208
11	0x3ef8c9bd	0.48591414
12	0x3f2c26d1	0.6724673
13	0x3ec79859	0.3898342
14	0x3ee693c4	0.4503461
15	0x382894ac	4.0192783e-05
16	0x3ec1fd14	0.37888396
17	0x3ebba910	0.36652422
18	0x3e4ca591	0.19985034
19	0x3f0760a1	0.5288182
20	0x3f0bf636	0.54672563
21	0x3e8342dc	0.25636947
22	0x3f0dcd71	0.55391604
23	0x3f1d297e	0.6139144
24	0x3e931d79	0.28733423
25	0x3f071c75	0.52777797
26	0x3f218331	0.6309081
27	0xb9f0fd8e	-0.0004596528
28	0x3ed53f73	0.4164997
29	0x39b2111f	0.00033963562
30	0x3e32140c	0.1739046
31	0x3f123cbc	0.57123923
32	0x3ee9eb60	0.4568739
33	0x3e73ae3f	0.23796938
34	0x3f0e7468	0.5564637
35	0x3efa49fe	0.48884577
36	0x3e8dd955	0.27704874
37	0x3f088aa8	0.5333657
38	0x3f07f1cd	0.53103334
39	0x3edbe4fb	0.42948136
40	0x3ed47645	0.41496482
41	0x3f31bfa1	0.6943303
42	0x3e48f148	0.19623291
43	0x3f1ef19a	0.62087405
44	0x3edf425a	0.4360531
45	0x3e82afbc	0.255247
46	0x3f16d1af	0.589137
47	0x3f05f306	0.5232395
48	0x3e96c2ad	0.294454
49	0x3f0d92dd	0.5530222
50	0x3f06247f	0.5239944
51	0x3ec3a10d	0.3820881
52	0x3ed2ad71	0.4114795
53	0x3f34272f	0.7037229
54	0x3e98c6de	0.29839224
55	0x3f104874	0.56360555
56	0x3eeb0cbd	0.45908156
57	0x3e8531a1	0.26014426
58	0x3f04e2cf	0.5190858
59	0x3eecbc91	0.46237615
60	0x3e7a985d	0.24472184
61	0x3ef11edd	0.4709386
62	0x3ef45f58	0.47728992
