hand_landmarks/neural_networks/mlp_v3_weights/2024_06_18/best_model.pth (torch, 22114 bytes, 14 tensors)

fc1.weight f4 [64, 24]
0	0xbee8bf68	-0.4545853
1	0x3e8aa60e	0.27079815
2	0x3e04a216	0.12952456
3	0x3f223277	0.63358253
4	0xbcef8084	-0.029236086
5	0xbedcf289	-0.4315379
6	0xbf42e2ae	-0.76127136
7	0xbdfce8af	-0.123490684
8	0x3f09e755	0.5386861
9	0x3eb19249	0.3468192
10	0x3c800fc6	0.015632521
11	0xbe6e1961	-0.23251869
12	0xbd3ec631	-0.04657573
13	0x3ea02ab3	0.31282577
14	0x3eaf969e	0.342946
15	0xbf82aa03	-1.0208133
16	0x3e98cf5e	0.2984571
17	0xc06cc4e3	-3.699517
18	0x3ea9019d	0.33009043
19	0xbeeaea9e	-0.45882124
20	0x405db6d5	3.4642842
21	0xbd870fc6	-0.065948054
22	0xbd1534b4	-0.036427215
23	0x3d5b7a0c	0.05358319
24	0xbf8e12f6	-1.1099536
25	0x3e438900	0.1909523
26	0x40226374	2.5373201
27	0xbfa6a22e	-1.3018243
28	0xbe4ded0f	-0.20109962
29	0x3fb66a4e	1.4251192
30	0x3ff74c50	1.9320164
31	0xbdfa4707	-0.12220579
32	0xbfeaefb4	-1.8354402
33	0x3c14f696	0.009091994
34	0x3dbef07d	0.09323213
35	0x3ca88866	0.020572852
36	0xbe9508f5	-0.29108396
37	0x3ecf3f54	0.40478003
38	0xc02e3387	-2.721895
39	0x3ded83a4	0.11597374
40	0xbe0765d2	-0.13222435
41	0x3e7cd79e	0.24691626
42	0xbf0fa0bc	-0.56104636
43	0xbeec7e41	-0.46190074
44	0x3f54f45e	0.83185375
45	0xbe2d51a6	-0.16925678
46	0x3ef215fb	0.47282395
47	0x3e06016f	0.13086484
48	0x3f115ced	0.5678242
49	0xbdc1ccbc	-0.09462878
50	0xbfca6afe	-1.5813901
51	0x3f54e6ac	0.8316448
52	0x3d6176f9	0.0550451
53	0xbf505bb1	-0.8138991
54	0xbf6412bf	-0.89091104
55	0x3e3985a4	0.18117386
56	0x3f3e7de8	0.7441087
57	0xbe231bdb	-0.15928595
58	0xbdbb1c6c	-0.091362804
59	0x3d9aff1e	0.07568191
60	0xbfad8f50	-1.355936
61	0x3f08fe11	0.53512675
62	0x406d38a3	3.7065818
63	0xbd41eddb	-0.047345977
64	0x3eebea1f	0.46077058
65	0xc008d251	-2.1378367
66	0x3f0e2afe	0.5553435
67	0xbe8178f0	-0.2528758
68	0x3f4b08ae	0.7931012
69	0x3e524231	0.20533063
70	0xbe9ba7a8	-0.3040135
71	0xbe1abc32	-0.15110853
72	0x3fa9fa42	1.3279498
73	0x3f087e9a	0.5331818
74	0xc06cfe69	-3.703028
75	0xbf0b6d11	-0.544633
76	0x3d007190	0.0313583
77	0xbf201d7d	-0.62544996
78	0x3f5d9804	0.8656008
79	0xbdb0abc8	-0.08626515
80	0x3e8d8cf9	0.27646616
81	0xbef8229c	-0.48463905
82	0xbe33dad1	-0.1756394
83	0x3f622a7e	0.8834609
84	0xbfbb557f	-1.4635466
85	0x3f86317b	1.048385
86	0x3e63cddd	0.222465
87	0x3f181dd4	0.59420514
88	0x3c9dd47e	0.019266363
89	0x3f017573	0.5056984
90	0xbf1f4126	-0.62208784
91	0xbe1dce2a	-0.15410677
92	0xbfee3174	-1.8608842
93	0x3d06023f	0.032716986
94	0x3f1b055f	0.6055507
95	0x3e954b30	0.29158926
96	0xbf2c317a	-0.67262995
97	0x3e2ec40d	0.17066975
98	0xbcf7e26d	-0.030259335
99	0xbe563a59	-0.20920695
100	0x3d2936af	0.041311916
101	0xbe4dab1f	-0.20084809
102	0x3f219965	0.63124686
103	0xbec1bf5b	-0.37841305
104	0xbdfb9bf1	-0.12285603
105	0x3e8d6c30	0.27621603
106	0x3c8c6c06	0.017141353
107	0xbddb4bbf	-0.10707807
108	0x3f14baa2	0.5809728
109	0xbe3bb7ed	-0.18331881
110	0xbff5db06	-1.9207466
111	0xbf5a2ec9	-0.8522764
112	0xbf07fccd	-0.5312012
113	0x4022b5b2	2.5423398
114	0xbff0a29a	-1.8799622
115	0x3f4e54fa	0.80598414
116	0xbd76648e	-0.06015449
117	0xbf033da3	-0.51265925
118	0xbead7b7a	-0.33883268
119	0xbdd3120a	-0.10306175
120	0xbfba3d83	-1.4550022
121	0x3dd9b969	0.10631067
122	0x3fa26086	1.2685707
123	0x3e7c30ac	0.24627942
124	0xbe166faa	-0.14691034
125	0xbd844339	-0.06458134
126	0xbf341ac2	-0.7035333
127	0x3d957bf0	0.0729903
128	0x3ebba2fe	0.3664779
129	0x3f680379	0.906303
130	0x3d0e58c8	0.034752637
131	0xbf1f7607	-0.6228947
132	0xbfa17bc4	-1.2615895
133	0xbf21ed5f	-0.63252825
134	0xc0127239	-2.2882216
135	0x3f093feb	0.53613156
136	0xbc9e6d20	-0.019339144
137	0x3fec5846	1.8464439
138	0xbed4c411	-0.41555837
139	0x3e18e237	0.14930044
140	0xbf3dc939	-0.74135166
141	0x3e8f1f04	0.2795335
142	0x3e167095	0.14691384
143	0x3d923064	0.07138136
144	0xbfe55218	-1.7915678
145	0xbe66d31e	-0.22541472
146	0x405eec6a	3.4831796
147	0x3f804dc6	1.0023735
148	0x3e080922	0.13284734
149	0xbf7da2de	-0.9907664
150	0x3e836ae8	0.256675
151	0x3cfe45df	0.031039177
152	0xbeb6c779	-0.3569906
153	0xbf340a06	-0.70327795
154	0xbc1bf6ad	-0.009519261
155	0x3f53b073	0.82691115
156	0xbeb4a241	-0.3528004
157	0xbfa37f00	-1.2773132
158	0xbf6a3019	-0.9147964
159	0xbdf6e129	-0.12054665
160	0xbf113ae6	-0.56730497
161	0xbf20890f	-0.62709135
162	0xbe169005	-0.14703377
163	0x3f7d1ab0	0.98868847
164	0x3fa00fba	1.2504799
165	0x3ea0e6e8	0.31426167
166	0x3bf91550	0.0076014176
167	0xbce2a446	-0.027666222
168	0x402fad96	2.7449698
169	0xc0040038	-2.0625134
170	0xc08d5ef1	-4.4178395
171	0xbe447739	-0.19186105
172	0x3f6570d8	0.8962531
173	0x3f60e14d	0.8784378
174	0xbfcc5b38	-1.5965338
175	0x3ea6219d	0.3244752
176	0x3f18d277	0.59696144
177	0x3f596a28	0.84927607
178	0xbe992d50	-0.29917383
179	0xbe187cc0	-0.14891338
180	0x3f4cacec	0.7995136
181	0xbf088265	-0.53323966
182	0x3e8445f2	0.25834614
183	0x3f894f21	1.0727273
184	0x3f21beae	0.6318158
185	0xbfac42a2	-1.3457835
186	0x3f703c10	0.9384165
187	0xbecda3a4	-0.4016391
188	0x3ec9a89e	0.39386457
189	0xbf849945	-1.0359274
190	0x3ef5fda4	0.48045075
191	0x3c1af53f	0.009457885
192	0xbf909f7e	-1.1298673
193	0xbdf70a96	-0.12062566
194	0x40ba5c97	5.8238025
195	0x3ed37172	0.4129749
196	0xbe5d445d	-0.2160811
197	0xbe171d48	-0.14757264
198	0x3f1e4bb9	0.61834294
199	0x3ebe1c46	0.37130946
200	0x3ca767e6	0.020435285
201	0xbf8f10ae	-1.1176965
202	0x3d0e1d1d	0.034695733
203	0xbf4403a2	-0.76568043
204	0xbfdfcdac	-1.7484641
205	0x3f60c5e6	0.8780197
206	0xbfc55193	-1.541552
207	0xbf8565dd	-1.0421711
208	0xbd58a7b2	-0.0528943
209	0x3f101425	0.5628074
210	0xbecc6783	-0.39922723
211	0xbededb3f	-0.43526646
212	0x3e9aa02f	0.30200335
213	0x3f9d3e82	1.2284701
214	0xbe62638d	-0.22108288
215	0x3e9b42e9	0.30324486
216	0xc049d2b6	-3.1534858
217	0xbe28173a	-0.1641511
218	0x4085dd00	4.1832275
219	0x3e276637	0.16347586
220	0x3f721414	0.94561887
221	0x3ee1996b	0.4406236
222	0x40143810	2.3159218
223	0xbfa26f7a	-1.269027
224	0xbff42de2	-1.9076502
225	0xbf75280a	-0.9576422
226	0x3dbe9c7d	0.093071915
227	0x3f9a8b59	1.2073776
228	0x3dcf124a	0.1011091
229	0x3e9d2470	0.30691862
230	0xbfb1d968	-1.3894472
231	0x3f29d472	0.6633979
232	0xbcd74c9f	-0.026281653
233	0xbee9f9d5	-0.4569842
234	0x3f11eedf	0.57005113
235	0xbebe5ef3	-0.37181816
236	0x3efea5ba	0.49735814
237	0xbf5cfd45	-0.8632396
238	0xbd7dd8dd	-0.061974395
239	0xbe0b1f7c	-0.13586229
240	0xbd21df50	-0.039519608
241	0xbe836899	-0.2566574
242	0xbfc26580	-1.5187225
243	0xbf286e41	-0.65793234
244	0x3ed3e481	0.41385272
245	0xbf06f299	-0.52713925
246	0x3f0d2506	0.5513462
247	0xbec532ad	-0.38515225
248	0x3f1b6f4f	0.6071672
249	0xbdc8a500	-0.09797096
250	0xbd83d520	-0.06437135
251	0x3f02e28b	0.5112693
252	0xbf01e09d	-0.5073336
253	0x40033699	2.0502074
254	0x3fa498ea	1.2859166
255	0xbe29057f	-0.16506003

fc1.bias f4 [64]
0	0xbda6b9c3	-0.081409
1	0x3ef36d2a	0.47544223
2	0xbae95c31	-0.0017803964
3	0xbe2292b4	-0.15876275
4	0xbd96cf1b	-0.07363721
5	0x3e9db285	0.30800262
6	0x3f065cf4	0.52485585
7	0xbf82f4ca	-1.0230954
8	0xbc876947	-0.016529692
9	0xbe75c9bb	-0.24002735
10	0xbe900c9c	-0.2813462
11	0xbf1179c3	-0.5682642
12	0xbd7f0255	-0.062258083
13	0x3e4e2363	0.20130686
14	0x3ef93549	0.48673466
15	0x3ddc7987	0.10765367
16	0xbe06bb84	-0.13157469
17	0xbd21df38	-0.03951952
18	0xbd83b5fe	-0.06431197
19	0xbde6a1e6	-0.112613484
20	0xbf22b751	-0.6356097
21	0xbeee2fab	-0.46520743
22	0xbea0af42	-0.3138371
23	0x3f04c99c	0.5187013
24	0xbedfec29	-0.43734863
25	0xbec24c01	-0.3794861
26	0x3f8f0892	1.117449
27	0x3f79da53	0.9759876
28	0x3d653548	0.055959016
29	0x3dfc8ac2	0.123311535
30	0x3d0f0412	0.03491599
31	0x3c095242	0.008381428
32	0xbf41b927	-0.75673145
33	0xbe84d5d7	-0.25944397
34	0x3e1ebf1f	0.15502594
35	0xbd51d6f1	-0.051230375
36	0x3e5df7f4	0.21676618
37	0xbe50c286	-0.20386705
38	0xbe0d11c9	-0.13776316
39	0xbf1f322f	-0.6218595
40	0xbe85e069	-0.26147774
41	0x3e9925ad	0.29911557
42	0xc032b059	-2.7920134
43	0x3f7755d5	0.96615344
44	0x3f387078	0.72046614
45	0xbebcb44d	-0.3685631
46	0xbe8233f6	-0.25430268
47	0x3dddb223	0.108249925
48	0x3e42f15d	0.19037385
49	0x3e771723	0.2412992
50	0x3cf294f7	0.029612048
51	0xbf185eec	-0.5951984
52	0x3f146e9e	0.5798129
53	0x3e869924	0.26288712
54	0xbdbc3c50	-0.09191191
55	0xbdb634eb	-0.08896812
56	0xbe9d6f3e	-0.30748934
57	0xbf3b595c	-0.73183227
58	0xbd438fe1	-0.047744635
59	0xbea66a52	-0.3250299
60	0x3e31c784	0.17361265
61	0x3ead8481	0.33890155
62	0x3ec9dace	0.39424747
63	0x3d7b899c	0.06141053

bn1.weight f4 [64]
0	0x403e936d	2.9777482
1	0x3f94d12d	1.1626335
2	0x401bffda	2.437491
3	0x3fa4c50a	1.2872632
4	0x3fc942f3	1.5723556
5	0x3ff6621c	1.9248691
6	0x3fba3594	1.4547601
7	0x400d9bb1	2.2126276
8	0x3fc732d7	1.556239
9	0x3faf316b	1.3686956
10	0x3fbf3651	1.4938451
11	0x3fb11980	1.3835907
12	0x3fb5d560	1.4205742
13	0x3fbd5b26	1.4793441
14	0x4006bd89	2.1053183
15	0x40146ff6	2.3193336
16	0x3fd62d4a	1.6732571
17	0x3fab671a	1.3390839
18	0x4020df6a	2.513636
19	0x3fb2b7b6	1.3962314
20	0x3fa18e02	1.2621462
21	0x3fb00ece	1.3754518
22	0x3ff5efad	1.9213768
23	0x3f4cff15	0.80076724
24	0x40302e15	2.7528126
25	0x3fc23715	1.517306
26	0x3fae0c86	1.3597572
27	0x3fa0890d	1.2541825
28	0x3fb9c656	1.4513652
29	0x3ff203f0	1.8907452
30	0x4005ba35	2.0894902
31	0x3fa071f3	1.2534775
32	0x401452cb	2.3175533
33	0x3fdad179	1.7095176
34	0x3fc255ac	1.5182395
35	0x40096209	2.1466086
36	0x3feacea5	1.8344313
37	0x3facb515	1.3492762
38	0x3fb708ed	1.4299599
39	0x402d8d32	2.7117429
40	0x3f9e8fff	1.2387694
41	0x3fb32f0e	1.3998735
42	0x40234ced	2.5515702
43	0x3f62fc94	0.88666654
44	0x3fcd0c15	1.6019312
45	0x4007b848	2.1206226
46	0x3f9d2d6b	1.2279485
47	0x4002287f	2.0337217
48	0x3fc44958	1.5334883
49	0x3f9a4c02	1.2054446
50	0x3fa838df	1.3142356
51	0x3fcff71a	1.6247284
52	0x3f4b3961	0.7938443
53	0x3fad38de	1.353298
54	0x40242c43	2.5652015
55	0x3fac0dd8	1.3441725
56	0x3ff6c1ae	1.9277856
57	0x3fb88d38	1.4418097
58	0x3fdf9202	1.7466433
59	0x3fd534e6	1.6656768
60	0x4020dac7	2.513353
61	0x3fbccb41	1.4749528
62	0x3fbf4542	1.4943011
63	0x3fc401d3	1.5313057

bn1.bias f4 [64]
0	0xbf05d173	-0.5227272
1	0x3ee05eb2	0.43822247
2	0xbe9ca863	-0.3059722
3	0x3e4e8c5f	0.20170735
4	0x3ca5b324	0.020227022
5	0xbab30bc3	-0.0013660121
6	0xbde215bc	-0.11039302
7	0xbfb82ef9	-1.4389335
8	0xbe72e644	-0.23720652
9	0xbf31a02f	-0.69385046
10	0xbe0f3ba1	-0.1398759
11	0x3dcfec9e	0.10152553
12	0xbe9245f6	-0.28569
13	0xbe941353	-0.28920993
14	0xbf90fee8	-1.1327791
15	0xbedd1bff	-0.43185422
16	0x3c865b4c	0.016400956
17	0xbfc687df	-1.5510215
18	0xbd7366b7	-0.05942413
19	0x3ec051a7	0.37562296
20	0x3eaedd44	0.34153187
21	0x3d45434f	0.048159894
22	0xbeff20f2	-0.49829823
23	0x3e916650	0.2839837
24	0x3db05eab	0.086118065
25	0x3e0caada	0.1373705
26	0x3e730479	0.23732175
27	0xbf031d6a	-0.5121676
28	0xbf0ca6d0	-0.54942036
29	0xbe3785f2	-0.1792219
30	0xbe691d05	-0.22764976
31	0x3ad8bfd4	0.0016536661
32	0xbf24a6d8	-0.64317083
33	0x3e8ca68d	0.27470818
34	0xbdbdfae5	-0.0927637
35	0xbe54565a	-0.20736066
36	0xbe08dac2	-0.133647
37	0xbee55a23	-0.4479533
38	0xbe4cb490	-0.19990754
39	0xbef10edf	-0.47081658
40	0xbd84cfac	-0.06484923
41	0x3d21a32c	0.039462253
42	0xbeee9552	-0.46598297
43	0xbeaa4de0	-0.3326254
44	0xbe3dd155	-0.18536885
45	0xbee17f5f	-0.4404249
46	0xbd4fdeb8	-0.05074951
47	0xbeb62b03	-0.3557969
48	0xbf692fab	-0.9108836
49	0xbf2580e1	-0.6464978
50	0x3e4beef4	0.19915372
51	0xbf2ef7c5	-0.68346816
52	0x3db10a36	0.08644526
53	0x3db5872a	0.08863671
54	0xbe47410e	-0.1945841
55	0xbea5f567	-0.3241379
56	0xbee23344	-0.44179738
57	0xbd51a1ee	-0.05117982
58	0xbf04a625	-0.51816016
59	0xbe99a0a1	-0.30005363
60	0xbf178de3	-0.59200877
61	0xbe49aef4	-0.19695646
62	0xbd10dd3c	-0.035367236
63	0xbeb926b0	-0.3616233

bn1.running_mean f4 [64]
0	0xbd8163fd	-0.063178994
1	0x3defdc36	0.11711924
2	0x3f693d68	0.91109324
3	0x3f01c2b4	0.5068772
4	0x3eef07a5	0.4668552
5	0xbe5ff7b9	-0.21871842
6	0xbe2f2f7e	-0.1710796
7	0xbff9d580	-1.951828
8	0x3e4e5a37	0.20151602
9	0xbfc5d9ac	-1.5457053
10	0x3f51cadf	0.8195018
11	0x3efd67fd	0.494934
12	0x3f23783c	0.6385534
13	0x3be498e0	0.006976232
14	0x3f922a86	1.1419227
15	0x3c0e620b	0.008690367
16	0x3e682212	0.22669247
17	0x3fe28b36	1.7698734
18	0x3e289705	0.1646386
19	0xbe56b795	-0.20968468
20	0x3d43c3c2	0.04779411
21	0x3efc267b	0.49248108
22	0x3ea1801e	0.31543058
23	0xbfdcfa8f	-1.7263964
24	0x3f4814bc	0.7815664
25	0x3e697d47	0.22801696
26	0xbf344678	-0.70420027
27	0x404f7cf2	3.242001
28	0xbd441bc8	-0.047878057
29	0xbe5dc2dc	-0.21656364
30	0x3b874d48	0.0041290857
31	0x3dfe15a8	0.12406474
32	0x3e003a94	0.12522346
33	0xbed80464	-0.4219085
34	0x3bfc81c2	0.007705898
35	0x3e01d77d	0.12679859
36	0xbefda668	-0.4954102
37	0x3e0100e6	0.12597999
38	0xbc953fb3	-0.01821885
39	0x3bc85f9a	0.006114912
40	0x3c880e69	0.016608434
41	0xbe78bc11	-0.24290492
42	0xc052e40f	-3.2951696
43	0xbebc9543	-0.36832628
44	0xbec0d28d	-0.37660637
45	0x3f2c7334	0.67363286
46	0x3ed7e854	0.4216944
47	0xbd85b565	-0.06528739
48	0xbfdf333d	-1.7437512
49	0x3f0915d9	0.5354896
50	0x3c8025f9	0.015643107
51	0x3f06e24e	0.52689064
52	0xbf451237	-0.7698092
53	0x3d33d54a	0.04390458
54	0x3ef8319e	0.48475355
55	0x3f943ec2	1.1581652
56	0x3d51f07c	0.051254734
57	0x3dd5a1cd	0.10431252
58	0xbac05cdd	-0.0014676113
59	0x3c552c0b	0.013010989
60	0xbf1089ab	-0.56460065
61	0xbdc00c9e	-0.093774065
62	0xbef598f9	-0.4796827
63	0x3ef4b248	0.47792268

bn1.running_var f4 [64]
0	0x3bdbf41d	0.00671245
1	0x3b4f608e	0.0031643244
2	0x3c859369	0.016305642
3	0x3c4e9994	0.012609858
4	0x3cafaf26	0.021445822
5	0x3bb881d1	0.0056307097
6	0x3b3d33a8	0.00288699
7	0x3c5805db	0.01318499
8	0x3c8994ae	0.016794529
9	0x3ba00db9	0.0048844484
10	0x3c110134	0.0088503845
11	0x3b536192	0.0032254201
12	0x3c464207	0.012100703
13	0x3a58b172	0.00082661875
14	0x3c6a189f	0.014288097
15	0x3ba4ea98	0.0050328486
16	0x3bb109d1	0.0054027815
17	0x3bd063dc	0.0063595604
18	0x3b9c05f7	0.0047614533
19	0x3c07cd1f	0.008288651
20	0x3b58969a	0.003304875
21	0x3bdc8023	0.0067291423
22	0x3c11746e	0.008877857
23	0x3c85a937	0.01631604
24	0x3cbb6ff1	0.022880526
25	0x3b1a0e80	0.0023507178
26	0x3bb60bc6	0.0055556027
27	0x3c4e50cf	0.012592508
28	0x3c0a829d	0.008453992
29	0x3c5b27c5	0.013376181
30	0x3b4693f6	0.0030300594
31	0x3b090ce5	0.0020912227
32	0x3c2ed177	0.0106700575
33	0x3ba20aca	0.004945134
34	0x3b2ccd8d	0.0026367635
35	0x3c0d3108	0.008617647
36	0x3cdf2a92	0.027241979
37	0x3cb313cb	0.021860024
38	0x3a73d333	0.00093011855
39	0x3c00ddba	0.007865364
40	0x3b8d428e	0.0043109125
41	0x3c1b0766	0.009462213
42	0x3ca0cbeb	0.019628486
43	0x3b284216	0.0025674156
44	0x3bd8e4ae	0.0066190576
45	0x3c56b040	0.013103545
46	0x3c0150b6	0.007892778
47	0x3b029c8c	0.0019929735
48	0x3c952fca	0.018211264
49	0x3c05cc73	0.00816642
50	0x3c26a0fd	0.010170219
51	0x3c0dfce9	0.0086662555
52	0x3b41598b	0.0029502835
53	0x3bfeed3c	0.0077797454
54	0x3c473900	0.012159586
55	0x3c27a0f2	0.010231243
56	0x3c170839	0.009218269
57	0x3b0ccb1f	0.0021483374
58	0x3aa8f99f	0.0012891776
59	0x3b215de0	0.0024622604
60	0x3cb2db15	0.021832982
61	0x3b5cdbc4	0.0033700326
62	0x3c020a78	0.007937066
63	0x3cb5173e	0.02210581

fc2.weight f4 [32, 64]
0	0x3feda1af	1.8564967
1	0x3ec6fd6d	0.38865224
2	0x3fa4725f	1.2847403
3	0x3dbfa5d3	0.093578
4	0x3f4d1119	0.80104214
5	0x3edca5f3	0.4309536
6	0xbf8d0ae9	-1.1018955
7	0xbead7334	-0.33876956
8	0xbe28aede	-0.16472957
9	0xbeb667e6	-0.35626143
10	0xbf7f5ef9	-0.9975429
11	0xbedfb7ac	-0.43694818
12	0xbf89d4d4	-1.0768075
13	0x3ed8669b	0.42265782
14	0xc0096e90	-2.1473732
15	0xbf50eeeb	-0.8161456
16	0x3f1cbb0c	0.6122291
17	0x3f7b3816	0.98132455
18	0xc016bdfb	-2.3553455
19	0xbf534596	-0.82528055
20	0xbf6fdb19	-0.9369369
21	0x3f112701	0.5670014
22	0xbfa26eea	-1.2690098
23	0xbf339674	-0.7015145
24	0x3ecaf66f	0.3964114
25	0xbfae2cbe	-1.3607404
26	0x3dd7443e	0.10511063
27	0x3f32aab3	0.69791716
28	0xbf015bff	-0.50531
29	0xbf8edf8e	-1.1161973
30	0x3fb822c4	1.438561
31	0x3f6472f3	0.892379
32	0x3fdd20f3	1.727568
33	0xbfba9b55	-1.4578654
34	0x3f699a6e	0.91251266
35	0x3f85cee8	1.0453768
36	0x3f874334	1.0567384
37	0xbdda47a5	-0.10658196
38	0xbe1ba5b4	-0.1519993
39	0xbfd3ee08	-1.6557016
40	0xbe625b58	-0.22105157
41	0x3ee805a3	0.453168
42	0x3f0d6d90	0.55245304
43	0x3f7aca40	0.9796486
44	0xbde4bae1	-0.11168457
45	0x3f6971e0	0.91189384
46	0x3d8de0d8	0.06927651
47	0xbf1fa371	-0.62358767
48	0xbfb9762d	-1.4489189
49	0xbeecb08d	-0.46228448
50	0x3f906fc7	1.1284112
51	0x3f351481	0.7073441
52	0x3f50963e	0.8147925
53	0x3ee063ef	0.43826243
54	0xbf918299	-1.136798
55	0xbd86e55d	-0.06586716
56	0x3dabe336	0.083929464
57	0x3f748920	0.95521736
58	0xbf680345	-0.9062999
59	0xbeb392c7	-0.3507292
60	0xbe9fef5a	-0.31237298
61	0xbf91bcc6	-1.1385734
62	0x3e74da2c	0.23911351
63	0x3d857810	0.06517041
64	0xbeb28398	-0.34866023
65	0xbf1261c5	-0.57180434
66	0xbff5bf79	-1.9199058
67	0xbf84a5c0	-1.0363083
68	0xbf6828fa	-0.90687525
69	0xbf59d442	-0.85089505
70	0x3f01f578	0.5076518
71	0xbde0865f	-0.10963129
72	0x3d8eb817	0.06968706
73	0x3e1f9512	0.1558421
74	0x3fdb918e	1.7153795
75	0xbd4382cd	-0.047732163
76	0x3d79ae41	0.060957197
77	0xbf62e7f8	-0.88635206
78	0xbf0984da	-0.5371834
79	0xbf321312	-0.6956035
80	0x3f342e67	0.70383304
81	0xbed6d851	-0.4196191
82	0x3fb7db5f	1.4363822
83	0xbd1651ef	-0.03669923
84	0xbed35635	-0.41276708
85	0xbf3ab347	-0.72929806
86	0x3f4a97f4	0.7913811
87	0x3e07ebe2	0.13273576
88	0xbf009d1f	-0.5023975
89	0x3ff21a63	1.8914303
90	0x3ed67d95	0.41892686
91	0x3db0b37d	0.08627985
92	0x3ead50d4	0.3385073
93	0xbe5cd2e1	-0.21564819
94	0xbfcc737a	-1.5972741
95	0xbe6cdc20	-0.23130846
96	0xbef32530	-0.4748931
97	0x3f34b713	0.7059185
98	0x3f0bd460	0.54620934
99	0xbebad640	-0.36491585
100	0xbf66c900	-0.9015045
101	0xbed6a23c	-0.4192065
102	0xbdc09e1d	-0.09405158
103	0x3f7aa9d8	0.9791541
104	0x3d3d9965	0.046288867
105	0x3e8bb44a	0.27285987
106	0xc011b981	-2.2769473
107	0xbf8104c2	-1.0079577
108	0x3e67dba3	0.22642379
109	0xbfa37371	-1.2769605
110	0x3eef6f33	0.46764526
111	0x4019c870	2.4028587
112	0x3f3a07e1	0.7266827
113	0xbe77993d	-0.2417955
114	0xbf1577f2	-0.5838615
115	0xbe9fec5e	-0.3123502
116	0xbe2ad36f	-0.16682218
117	0x3ea9c9cb	0.33161768
118	0x3f8ec9c6	1.1155326
119	0xbefd3ee5	-0.49462047
120	0x3f3eadb8	0.74483824
121	0xbfff6f08	-1.9955759
122	0x3fadb191	1.3569814
123	0xbfa26da8	-1.2689714
124	0xbdfd58cb	-0.123704515
125	0xbe9a3a87	-0.30122778
126	0x3cdf69fc	0.027272217
127	0x3f2af9d0	0.66787434
128	0xbc33cc66	-0.010974025
129	0xbf1acf98	-0.6047301
130	0xbf33c99c	-0.70229506
131	0x3ee62ac5	0.44954506
132	0x3f571408	0.8401494
133	0x3ef2882f	0.47369525
134	0xbf93c064	-1.1543088
135	0x3e2f8ae4	0.17142826
136	0x3d82be32	0.06383933
137	0xbe5bd715	-0.21468766
138	0xbe8fbe37	-0.2807481
139	0x3e5d750c	0.21626681
140	0xbfac3510	-1.3453693
141	0xbdd4c7e2	-0.10389687
142	0xc01eb01d	-2.479499
143	0x3eb37366	0.3504898
144	0xbd71c963	-0.059029948
145	0x3f29f5f6	0.6639093
146	0xbc9267d3	-0.017871773
147	0xbf2ba1cf	-0.67043775
148	0xbf8fc141	-1.1230851
149	0x3edfd813	0.4371954
150	0xc00c6aec	-2.194026
151	0xbf2c2b82	-0.6725389
152	0x3f18b520	0.59651375
153	0xbf52f7e4	-0.824095
154	0x3f0ccd0e	0.5500039
155	0x3ed548a4	0.41656983
156	0xbe8245a1	-0.25443748
157	0xbf69271f	-0.9107532
158	0x40004c87	2.0046709
159	0x3e25f536	0.16206822
160	0x3feb8ce7	1.8402375
161	0xc0290603	-2.640992
162	0x3f0fb98a	0.56142485
163	0x3ead613e	0.33863252
164	0x3f4507cb	0.76965016
165	0x3f038062	0.5136777
166	0x3f2655d7	0.6497473
167	0xbf801e85	-1.0009314
168	0x3e92b435	0.28653112
169	0x3f45bd56	0.7724203
170	0x3eda80cb	0.42676386
171	0x3e473d55	0.1945699
172	0xbe23cfe0	-0.15997267
173	0xbc8d59cc	-0.017254733
174	0x3e8f5dcf	0.28001258
175	0xbf1b75de	-0.60726726
176	0xbfad86ee	-1.3556802
177	0xbe81da9d	-0.253621
178	0x3eb8b1a6	0.36073035
179	0x402c4e77	2.692289
180	0x3f20c5b1	0.62801653
181	0xbe4667c1	-0.19375516
182	0xbfd6b2cf	-1.6773318
183	0x3e621750	0.22079206
184	0xbe96d6cd	-0.29460755
185	0x3f1d8565	0.6153167
186	0xbf3dd0c9	-0.74146706
187	0xbf526ba2	-0.82195485
188	0xbf9d6de6	-1.2299163
189	0xbd0e9c8e	-0.03481727
190	0x3f26b32a	0.6511713
191	0xbf302e14	-0.6882031
192	0x404e587c	3.2241507
193	0x3ebc82e4	0.36818612
194	0xbf7cdcad	-0.98774225
195	0xbf2089df	-0.62710375
196	0xbf9011b0	-1.1255398
197	0xbf8ef790	-1.11693
198	0x3e8e7516	0.27823704
199	0xbfe7759e	-1.8082769
200	0x3e1e770e	0.15475103
201	0x3f5d7db1	0.86519915
202	0x3ecb841c	0.3974923
203	0xbf9cf53d	-1.2262341
204	0x3f8669f2	1.0501082
205	0xbf810290	-1.0078907
206	0xbec0f2c3	-0.37685212
207	0xc0302b93	-2.7526596
208	0x3f49fc65	0.7890075
209	0x3f27e7f3	0.655883
210	0xbeaa5eee	-0.3327555
211	0x3f3f8634	0.7481415
212	0xbe81c489	-0.25345257
213	0xbf4dcca0	-0.8039036
214	0xbd5cbb2f	-0.05388945
215	0xbeb68652	-0.35649353
216	0x3e6dd1a5	0.23224504
217	0xbecd7cf4	-0.40134394
218	0xbce6aeff	-0.028159617
219	0xbf31d9e2	-0.6947309
220	0xbe60ccfd	-0.21953197
221	0xbcb7faa4	-0.022458382
222	0x3e7d207b	0.24719422
223	0x3eca8c4a	0.39560157
224	0xbf8ab104	-1.0835271
225	0x3ed1b6e1	0.40959838
226	0xbe08470e	-0.13308355
227	0x3d82b772	0.06382646
228	0xbe3d1061	-0.1846328
229	0xbf40b6a4	-0.7527869
230	0xbf2943fe	-0.6611937
231	0x3fcab396	1.5836055
232	0xbdf6862f	-0.12037312
233	0x3e19dc11	0.15025355
234	0xbf167648	-0.5877423
235	0xbece615f	-0.40308663
236	0x3ee18c3d	0.44052306
237	0xbfc82e07	-1.5639046
238	0x3ec11453	0.3771082
239	0x3ee9ce2f	0.45665118
240	0xbf1780ed	-0.591811
241	0xbff18afd	-1.8870541
242	0xbf16b2f6	-0.5886682
243	0xbf274aec	-0.65348697
244	0xbdd1fe36	-0.10253565
245	0x3f8b0e15	1.0863672
246	0x3d071b4e	0.032985024
247	0x3ed0dbda	0.40792733
248	0xbf27b777	-0.6551432
249	0xbefe2bdf	-0.49642846
250	0xbf4aeec4	-0.7927058
251	0xbeb9ab3a	-0.36263448
252	0xbef6b43c	-0.48184383
253	0xbe4dbe87	-0.20092212
254	0x3f835fd5	1.0263621
255	0x3f67fa20	0.90616035

fc2.bias f4 [32]
0	0xbdde5f4c	-0.1085802
1	0x3be41fe7	0.006961811
2	0xbd11975e	-0.035544746
3	0xbcfb2097	-0.030655188
4	0xbcf54654	-0.029940762
5	0xbd3a3987	-0.04546502
6	0xbd6f48ed	-0.058419157
7	0x3d08cb51	0.033397023
8	0xb953c744	-0.0002019676
9	0xbd6eaec3	-0.058272135
10	0xbd848fd6	-0.06472747
11	0xbbb30803	-0.0054636016
12	0xbbb4c971	-0.0055171777
13	0xbe0826d8	-0.13296068
14	0x3d69baab	0.057062786
15	0xbe0513cb	-0.12995832
16	0x3dc7ac47	0.09749656
17	0x3b3bf5de	0.0028680484
18	0xbd25c7e3	-0.04047383
19	0xbd87bb36	-0.066275045
20	0x3dcd6ed9	0.10030908
21	0x3dd07895	0.10179249
22	0xbd5a941a	-0.053363897
23	0x3c280595	0.010255237
24	0xbdaa9895	-0.08329884
25	0xbd811f78	-0.0630483
26	0xbd63f9be	-0.055658095
27	0xbdda2935	-0.10652391
28	0xbd2461bf	-0.04013228
29	0xbdef0edc	-0.11672756
30	0x3ddd2b10	0.10799229
31	0x3ded3fa2	0.115844026

bn2.weight f4 [32]
0	0x3f16eaaf	0.5895185
1	0x3f20706d	0.6267155
2	0x3f3d7d15	0.74018985
3	0x3fe6f628	1.8043871
4	0x3f9bdc7c	1.2176661
5	0x3fa56ea6	1.2924392
6	0x3efd34b7	0.4945428
7	0x3f325b35	0.6967042
8	0x3ed88ca3	0.42294797
9	0x3f43de6e	0.76511276
10	0x3e3ad42c	0.18245
11	0x3ed0b490	0.40762758
12	0x3f81c273	1.0137466
13	0x3f34e867	0.7066712
14	0x3f9bd631	1.2174741
15	0x3f1294e2	0.5725843
16	0x3f6a3080	0.91480255
17	0x3f0a90de	0.541273
18	0x3f331ab6	0.6996263
19	0x3e94767b	0.28996643
20	0x3f7042e5	0.9385207
21	0x3f6d02ff	0.92582697
22	0x3f20bfbe	0.62792575
23	0x3f558728	0.8340936
24	0x3f5e7334	0.86894536
25	0x3f3754a5	0.7161353
26	0x3fbbc630	1.4669857
27	0x3f67291e	0.90297115
28	0x3f876373	1.0577224
29	0x3fa98b81	1.3245698
30	0x3e54453b	0.20729534
31	0x3f439571	0.76399904

bn2.bias f4 [32]
0	0xbd2cde8f	-0.042204436
1	0xbd8b2b6b	-0.06795391
2	0xbda48b55	-0.08034388
3	0xbee01b93	-0.43771037
4	0xbe58b6c4	-0.2116347
5	0xbe404f9a	-0.18780366
6	0xbd9e4fa0	-0.07730031
7	0xbdca3a4c	-0.098744005
8	0xbd2503a9	-0.040286694
9	0xbe0173cc	-0.12641829
10	0xbc47f28e	-0.012203826
11	0xbd1897d6	-0.037254177
12	0xbdfe48cd	-0.124162294
13	0xbd6421c2	-0.055696256
14	0xbe948ffa	-0.29016095
15	0xbda057ca	-0.078292444
16	0xbdf9d7d6	-0.121993706
17	0xbd40eb51	-0.047099415
18	0xbd9b12e0	-0.075719595
19	0xbca7ed1f	-0.02049881
20	0xbdfb46a2	-0.122693315
21	0xbe1843b4	-0.14869577
22	0xbe7c0576	-0.24611458
23	0xbde347ba	-0.11097665
24	0xbdd7328e	-0.105076894
25	0xbdcb6857	-0.099320106
26	0xbe8578f0	-0.2606883
27	0xbe098b83	-0.13432126
28	0xbe10226e	-0.14075634
29	0xbe8695d6	-0.2628619
30	0xbb22c360	-0.002483569
31	0xbdf26a2f	-0.11836659

bn2.running_mean f4 [32]
0	0xbfdcb8c5	-1.7243887
1	0xbf85da3d	-1.0457226
2	0xc0059962	-2.0874867
3	0xbfdc6329	-1.7217761
4	0xbf99c4d1	-1.2013189
5	0xbff1de64	-1.8895993
6	0xbfcf77f5	-1.6208483
7	0xbf2817c3	-0.6566126
8	0x3efd9475	0.49527326
9	0x3f104e7b	0.5636975
10	0xbf3cdb1a	-0.7377182
11	0xbe4c19db	-0.19931738
12	0xbf9e006f	-1.2343882
13	0xbf94d2e7	-1.1626862
14	0xbeaec377	-0.34133503
15	0xbf8e8081	-1.1132966
16	0xbf5209b4	-0.82046056
17	0xbfbfc4c1	-1.498192
18	0xbf320d92	-0.69551957
19	0xbfd6da92	-1.6785452
20	0xbf077821	-0.5291768
21	0xbfc79d57	-1.5594891
22	0xbd5e876c	-0.054328367
23	0xbf8a3ed5	-1.0800425
24	0xc006550c	-2.0989408
25	0xbff263bf	-1.893669
26	0xbfc65096	-1.5493343
27	0xbf20a16f	-0.6274633
28	0xbf2690f8	-0.65064955
29	0xbf831bc2	-1.0242846
30	0xbf3dc544	-0.7412913
31	0xbf35adcf	-0.70968336

bn2.running_var f4 [32]
0	0x425c0236	55.00216
1	0x42631aee	56.7763
2	0x4272c868	60.69571
3	0x428a86cf	69.2633
4	0x421ec09b	39.68809
5	0x428e3613	71.10561
6	0x4196c3fb	18.845694
7	0x41e78f8f	28.945097
8	0x41887485	17.056894
9	0x41803f22	16.030827
10	0x40b86989	5.7628827
11	0x41a04f34	20.038673
12	0x422eb00b	43.671917
13	0x4224bebe	41.18627
14	0x421ab95f	38.681026
15	0x41b0499a	22.035938
16	0x42061db0	33.52899
17	0x41edd75f	29.730162
18	0x422bc91b	42.946392
19	0x417055ce	15.020948
20	0x42490f41	50.264896
21	0x421fff14	39.9991
22	0x413f06a2	11.939119
23	0x41b393b7	22.447126
24	0x42493f03	50.311535
25	0x41ad4072	21.656467
26	0x426c8aba	59.135475
27	0x4246a0a6	49.656883
28	0x42838b6d	65.772316
29	0x427e3abb	63.557354
30	0x4106078e	8.376844
31	0x4222f85e	40.742546

fc3.weight f4 [3, 32]
0	0xbe1143a2	-0.14185956
1	0x3d8a1520	0.067423105
2	0xbe2fb1e8	-0.1715771
3	0xbea8fe10	-0.33006334
4	0xbe43eff1	-0.19134499
5	0x3d25f8ba	0.040520407
6	0xbd7090c3	-0.058731806
7	0xbd2680f4	-0.040650323
8	0x3e547152	0.20746353
9	0x3c93933c	0.018014543
10	0xbd764592	-0.06012494
11	0x3da224fe	0.07917212
12	0x3e2e3e4a	0.17015949
13	0x3e3b3241	0.18280889
14	0x3e58945c	0.21150345
15	0x3d1e82d3	0.038698982
16	0x3e681ae2	0.22666505
17	0x3b8d2f81	0.0043086414
18	0xbc621860	-0.013799757
19	0xbd9d4d3e	-0.076807484
20	0x3cea97df	0.02863687
21	0xbe5cf810	-0.21579003
22	0xbd9221cc	-0.071353525
23	0x3e2f1f78	0.17101848
24	0xbe26bdb4	-0.16283303
25	0xbd98fea6	-0.07470445
26	0x3e7ef78f	0.24899124
27	0xbd5ca261	-0.053865794
28	0x3d409826	0.0470201
29	0xbd79972b	-0.06093518
30	0x3da88e7e	0.08230303
31	0xbca7d88a	-0.020488996
32	0x3df5715c	0.11984512
33	0x3c881ea8	0.01661618
34	0x3e001648	0.125085
35	0xb99e53e8	-0.00030198623
36	0x3d2df2ae	0.042467766
37	0xbb3aa2d8	-0.002847841
38	0xbe072113	-0.1319621
39	0x3d38034e	0.044925027
40	0x3c24339f	0.010022073
41	0xbc89cb8b	-0.01682069
42	0xbe1e1d75	-0.15440924
43	0x3d37850a	0.04480461
44	0xbd842d94	-0.06454006
45	0x3d7ef642	0.06224657
46	0x3bf0ec38	0.007352378
47	0x3e2f424f	0.17115138
48	0xbc9fec67	-0.019521905
49	0x3e38bbac	0.18040341
50	0x3ce9f92d	0.0285612
51	0x3e21349d	0.15742727
52	0xbe0f26e9	-0.13979687
53	0x3d5eb801	0.0543747
54	0xbde25ac5	-0.11052469
55	0x3d3a7184	0.045518413
56	0xbdf87598	-0.12131804
57	0x3b98bb50	0.0046610013
58	0xbd05757f	-0.032582756
59	0xbe2283ec	-0.15870637
60	0xbccce5a5	-0.025011847
61	0xbcca8712	-0.02472261
62	0x3e2022a0	0.15638208
63	0x3e4fd4a0	0.20295954
64	0xbdaf4066	-0.08557205
65	0x3e74da35	0.23911364
66	0xbd10dbef	-0.035365995
67	0x3e225fbb	0.15856831
68	0x3daf89d0	0.085712075
69	0xbe4c911b	-0.19977228
70	0xbdd47201	-0.10373307
71	0xbe3b90a2	-0.18316892
72	0x3c620991	0.013796226
73	0x3e27c35a	0.16383114
74	0xbce720c5	-0.028213868
75	0xbe100ee1	-0.14068176
76	0x3d8ae3af	0.067817084
77	0xbcebd8d4	-0.028789915
78	0xbd6ab8ea	-0.057305254
79	0x3de03855	0.109482445
80	0x3d0af5bd	0.03392576
81	0xbcce0e86	-0.02515341
82	0x3e5af679	0.21383084
83	0x3d9274b4	0.071511656
84	0x3e28d789	0.1648847
85	0xbc8ad506	-0.01694728
86	0x3cbc8293	0.023011481
87	0xbd59cf20	-0.053176045
88	0x3cb293cc	0.02179899
89	0xbe10fcb5	-0.141589
90	0xbd5f6f83	-0.054549705
91	0x3d05f72b	0.03270642
92	0xbe42478a	-0.18972602
93	0x3e85ac39	0.26107958
94	0x3bec120b	0.0072042993
95	0xbc83d057	-0.016090555

fc3.bias f4 [3]
0	0x3efe3c3b	0.49655327
1	0x3f0fbb82	0.5614549
2	0x3eec659d	0.46171275
