src/runs/ann_left_hand/20241107/20241107-1810/ann_left_hand_5_layers_best.pth (torch, 314736 bytes, 34 tensors)

network.0.weight f4 [126, 150]
00000000: f6c6 d03c a535 643d 8bec 983d fe83 04bd
00000010: fdff 823b 251d 88bd d07d 0b3d 8075 33bd
00000020: 80cc 293c e04b 553d cd3e 083d e0a9 043d
00000030: c882 0e3d bc8d a33a e6a1 b9bc a1a1 cb3d
00000040: d348 4e3d 12ff b33c 2638 93bc 86de 0cbd
00000050: 767a 11bd a72c 53bd 3851 cb3b 14d3 22bd
00000060: e982 07bd fe73 113d e2f5 c0bd d1a6 9cba
00000070: 3d9a b439 fe65 f33c 4eb2 493d 7185 3fbc
00000080: 08b9 b83c 50ce 803d 7e23 47bd 949a e03a
00000090: 91ba 923d a94d 323d 16f1 22bd 487f d03b
000000a0: 678e bebc 1a07 00bc 52ed 8dbd 197c 11bc
000000b0: a8f1 56bd e6c8 223d b30d 4e3c 2182 033e
000000c0: 93c1 68be 1cff c13d a310 e5bb 77db ff3b
000000d0: 48cb 613d 920f 093d faec 003d 3883 a63b
000000e0: 3253 f5bb 0959 cdbc 1747 81bd 7702 61b7
000000f0: 3883 0ebd 0b0a d3bd bc29 c7bd abb0 f93c
00000100: 625b a1bc d64b 9bbd fb81 aabd 8af8 96bc
00000110: b82e 2ebc 3c7e 2bbd ca1b 9dbc 31b9 e5bc
00000120: 077e ffbb 8b03 793b 1777 af3c 444c 0ebd
00000130: a57a 6c3c 8639 223d 74f5 16bb 1ab9 3dbd
00000140: 42e8 eb3c bc11 5cbd 3246 3ebd 6ba3 e1bd
00000150: ae67 723d 572e b3bd decb 10bd 04ff 1d3c
00000160: 7921 043d ace8 e4bc ef4b 833c ad8a 703b
00000170: 3ac1 d9bc 550f 3bbd 0182 d53c dfaf 7cbd
00000180: 68e3 453c f11f 163d 66b6 f63c 9eac 3a3e
00000190: 9323 603c 3aca 61bd 8a24 e13c f138 663b
000001a0: 973c 32bc 3b49 b6bd cf02 4f3d 539d d53c
000001b0: 347b a73d 183b 89bd a5b8 393b 8351 d53d
000001c0: 6a64 133e ff1b f93b f273 a53c e4c3 f23d
000001d0: d52b 183d d724 893c 273d ffbc 508a b1bc
000001e0: 0763 343d b212 313c 7f31 c1bc 9dd6 26bb
000001f0: 0863 9abc 53ec dbbb 93d1 fcbc 878c 1abd
00000200: f52c 363c 2303 77bd e873 09bd 70a0 faba
00000210: e426 f9bc e808 693c 7317 a93c 7b13 853d
00000220: c215 f63a 7687 55bd e6d2 1bbd 6ff3 52bd
00000230: e19c 14bd 36ca 07bd e1f2 58bc eade 61bd
00000240: 4518 8fbc c59d 7ebd 55d4 c63d 7486 26bd
00000250: 0177 903d 71b2 a53d 8fd6 52ba 9e1f 8cbd
00000260: 6474 a2bd f31a a43c aef4 d9bd d152 c2bb
00000270: c2ee a6bd dccf 853b 516c f23c 2fcb a73d
00000280: 5259 a0bd 83d3 c3bd 4a6c 25bd db18 61bc
00000290: 24af a43d 0bad 0cbd 1e0d a8bc 6777 cd3d
000002a0: 7a1c b83d 2830 5c3d e1c7 c7bb d3aa 0dbd
000002b0: 6e88 483c c1a2 2abd 4a1e 03bd 5987 81bc
000002c0: e68d 82bc bed5 643c 2d57 c0bc cc01 92bd
000002d0: 84c4 643d 5624 28bd ee5e 643c 8fc4 66bd
000002e0: 5cb5 a3bd 048c 153d 3fcf a33d 896d c43d
000002f0: 3ed5 cd3d c643 973d eb59 303d 473f cfbb
00000300: 4631 6d3d 1eec 8f3d 2842 cc3d 1976 2e3c
00000310: 7bdf 9fbc 571f 84bd 53f1 22be 09bc 053e
00000320: e225 e4bc a037 20bd f387 823c f5b3 043c
00000330: f11f 77bc 3e8a 9b3c 478f 5b3d 513a 3d3d
00000340: 023d ec3c 4d90 4dbd 0305 593d 2593 a8bc
00000350: b948 e8bc fd03 c63c 790f 9c3d 7296 503d
00000360: 430e 9e3d 97a1 82bd 94c4 2e3c 3eb3 543d
00000370: 893f 0b3d 3641 06bd 94ee ccbc 4da2 07bd
00000380: bba1 10bd b5ac ffbc 310c 8c3d d271 ae3d
00000390: 6ba7 423d 4435 61bc 3d4c d73c d1ee 693d
000003a0: b637 e03d a07b 1ebd 16ec d83c d3aa 463d
000003b0: b6d0 0c3d 9e17 5b3d 5563 923d 283d 0fbd
000003c0: 8b01 433c 0930 853c 1036 3b3b 11dc 8cbd
000003d0: 0106 963d 47e6 973b 0d69 b93c 0c22 8b3d
000003e0: 2b5e f73d fcf2 acbd 08e3 493b 9341 9e3d
000003f0: 909e a23d a047 3e3d a0e9 96bc ab76 733c
0.025485497 0.055715222 0.07466992 -0.03235244 0.0039978013 -0.06646184 0.03405553 -0.04381323
0.010363698 0.052074313 0.033263016 0.032388568 0.03479269 0.0012478153 -0.022660207 0.09942938
0.05036242 0.021972213 -0.01797111 -0.034391902 -0.03551718 -0.051556256 0.0062047504 -0.03975208
-0.03308383 0.03551101 -0.094218984 -0.0011951571 0.00034447192 0.02971172 0.04924231 -0.01168953
0.022549167 0.06289351 -0.048617832 0.0017135912 0.07164491 0.043531094 -0.0397807 0.0063628294
-0.023261262 -0.007814193 -0.06930031 -0.008879685 -0.052476555 0.039742373 0.012576508 0.12842609
-0.22730093 0.094724864 -0.0069905086 0.0078081447 0.055125505 0.033462115 0.031476 0.0050815605
-0.0074867243 -0.02506687 -0.063123874 -1.3411619e-05 -0.03479311 -0.1030465 -0.09724757 0.03047975
-0.019696895 -0.07582824 -0.08325573 -0.01842906 -0.010631256 -0.041868433 -0.01917829 -0.028042408
-0.007797006 0.0037996497 0.021419091 -0.0347407 0.014433538 0.03960564 -0.0023034485 -0.046319105
0.028797273 -0.05372785 -0.046453662 -0.11017498 0.059180908 -0.08749073 -0.035350673 0.00964332
0.032258485 -0.027942978 0.016027419 0.003670375 -0.026581395 -0.04566892 0.026062967 -0.06169116
0.012078144 0.036651555 0.030116271 0.1822991 0.013680357 -0.0551245 0.027483243 0.0035129155
-0.010878704 -0.08900686 0.050539788 0.026075995 0.08177796 -0.06700724 0.0028338816 0.10415938
0.14393774 0.0076022143 0.020196889 0.118537694 0.037151176 0.0167412 -0.03115709 -0.021672398
0.044039752 0.01080768 -0.023583172 -0.002545751 -0.01884605 -0.0067115217 -0.030861652 -0.037731674
0.011119117 -0.060305726 -0.033557802 -0.00191213 -0.030414052 0.014223315 0.020641064 0.06497856
0.0018774795 -0.05213114 -0.038042925 -0.051501688 -0.036282424 -0.033151828 -0.013241501 -0.055144228
-0.017467627 -0.06216218 0.09708468 -0.04065557 0.07053948 0.080906756 -0.0008042836 -0.06841968
-0.07932356 0.020032382 -0.10642372 -0.0059302826 -0.08151008 0.0040836167 0.029592665 0.08193051
-0.078295365 -0.09561827 -0.040386476 -0.013738836 0.08041218 -0.034344714 -0.020514067 0.1003254
0.089898065 0.053756863 -0.0060968255 -0.03458674 0.012239559 -0.04165912 -0.032011308 -0.01581161
-0.015936803 0.013966976 -0.023479069 -0.07129249 0.055851474 -0.041050278 0.013938649 -0.056339797
-0.07993576 0.036510482 0.079985134 0.09591205 0.10050438 0.07385974 0.043054502 -0.006324682
0.05790832 0.07027458 0.09973556 0.010648274 -0.019515743 -0.0645129 -0.1591237 0.13060011
-0.027850095 -0.039115548 0.015933966 0.008099546 -0.015083299 0.018986817 0.053603437 0.046198193
0.028837685 -0.050186444 0.052983295 -0.020577976 -0.02835499 0.024171824 0.07620139 0.050924726
0.07717564 -0.06378477 0.010666985 0.05192875 0.03399614 -0.032777034 -0.025016107 -0.033113766
-0.03531049 -0.031210283 0.06838263 0.08517803 0.047522943 -0.01374561 0.02628147 0.05711252
0.10948126 -0.038692117 0.026479762 0.048502754 0.03437873 0.05348932 0.07147852 -0.034970433
0.011902223 0.016258257 0.002856616 -0.06877912 0.07325364 0.0046356055 0.0226331 0.06793603
0.12078508 -0.08444783 0.0030805487 0.07727351 0.079404 0.046455026 -0.018421948 0.014859836

network.0.bias f4 [126]
00000000: bf3b eb3e 436e 013f 3456 e63e ce94 023f
00000010: 7bf1 d83e f57b 093f 6476 ef3e c0c3 f63e
00000020: 0a0c 053f 1cac 073f a8a4 f83e fe4c ee3e
00000030: ffa3 063f 01af f83e 5b9f e63e dab6 003f
00000040: 8f0a 043f 3911 0c3f 1455 093f 8e2b e53e
00000050: f601 f23e 2745 f63e 4e23 063f e56c 0b3f
00000060: 4d18 013f 9f96 043f 18e9 003f 095b f13e
00000070: f99c 043f 8abf f43e dfac fe3e 5886 033f
00000080: 3dac df3e 7156 093f a02c 053f d5df 043f
00000090: 3e82 0b3f b57a f43e 219d fe3e e92b f33e
000000a0: 18bd 003f 1611 053f f01b 023f fdfa fc3e
000000b0: 4e73 f23e 20a4 043f 2715 fb3e 8bc6 f53e
000000c0: 1d88 f23e bb49 f43e 786c fd3e d6a7 eb3e
000000d0: 2891 de3e 1a41 fc3e 86a7 fc3e 5c43 ba3e
000000e0: 6ae8 fc3e 98d6 053f 47f7 e73e 3560 e23e
000000f0: 63df 003f 7f59 ef3e 4702 f83e 96b1 fa3e
00000100: 8daf f63e 5470 043f 0656 f23e 946b e83e
00000110: 5824 033f 671f f13e 0c23 033f 1c04 e93e
00000120: af5e 043f 2701 003f bf4f d23e 8589 f83e
00000130: 738f 0b3f f74a fd3e c1f7 023f 89f0 f03e
00000140: 7348 fe3e f696 003f cd7d fc3e fbd7 023f
00000150: 4ea0 f33e e235 013f 50c3 083f 015f e43e
00000160: b04c 053f 7017 cd3e a2e7 f43e 01c6 073f
00000170: b31d fb3e 5e56 003f 2a6b fb3e a489 e13e
00000180: cf46 fe3e 1bad df3e 0f53 063f 6c31 f53e
00000190: 6c90 e33e d170 f33e 9680 013f 3d44 fe3e
000001a0: c26f fd3e 8483 023f 8c36 ff3e 0651 0b3f
000001b0: dd53 bf3e bb6f fb3e 9624 fd3e 4e00 0a3f
000001c0: 36be 013f 8a53 0b3f c6ec f73e c915 f53e
000001d0: cbdb 013f a58f f83e d034 023f 54dc 043f
000001e0: 81cf 043f 424c fa3e 17f1 f13e d13b 053f
000001f0: c9f3 023f 69e3 013f
0.4594402 0.5055887 0.44987643 0.5100831 0.42371735 0.5370477 0.46770012 0.4819622
0.51971495 0.52996993 0.48563123 0.46543115 0.5259399 0.48571017 0.45043454 0.5027901
0.5157861 0.5471378 0.53645444 0.44759792 0.4726712 0.48099634 0.5239762 0.54463035
0.50427705 0.5179233 0.5035567 0.47139767 0.5180202 0.47802383 0.49741265 0.5137687
0.43686095 0.53647524 0.5202122 0.5190404 0.5449561 0.47749868 0.49729255 0.47494438
0.50288534 0.51979196 0.5082388 0.4941024 0.47353595 0.51812935 0.49039575 0.4800304
0.4736947 0.47712502 0.49496818 0.46026486 0.4347012 0.4926842 0.4934656 0.36379516
0.49396068 0.5228057 0.45305845 0.44214025 0.5034086 0.46747968 0.48439237 0.48963612
0.4818081 0.517339 0.47331256 0.45394576 0.5122733 0.4709427 0.5122535 0.45510948
0.51706976 0.5000176 0.41076466 0.4854242 0.5451576 0.49471256 0.5115929 0.47058514
0.4966465 0.5023035 0.49314728 0.5111081 0.4758324 0.50472844 0.53423023 0.44603732
0.5207014 0.40056944 0.47832972 0.53036505 0.49046096 0.50131786 0.49105197 0.44050324
0.49663398 0.43686756 0.5247049 0.47889268 0.44446123 0.4754701 0.5058683 0.49661437
0.49499327 0.50981927 0.49846303 0.54420507 0.3736867 0.4910868 0.49441975 0.53906715
0.50680864 0.54424345 0.4842283 0.47868183 0.50726 0.48547092 0.50861835 0.51898694
0.51879126 0.48886305 0.4725425 0.520444 0.51153237 0.50737625

network.1.running_mean f4 [126]
00000000: d07f 4e3f 9d82 583f 97fb 573f 90b4 ab3e
00000010: ec3e 193f f52a 883e 2afb 2e3f 2e51 8d3e
00000020: 1c1b 033f 55d5 8dbe 3331 ef3e b55e 4a3f
00000030: 00da 64bf b0a0 2c3e 0140 a43f a14e 27bd
00000040: 5528 773f 4098 633c acef 7cbe 39bd a93f
00000050: 258a 983f 9cff 69bf aa00 2b3e 9115 50bf
00000060: 77e0 bfbe 7c72 f9be d29a ba3e 8b44 263f
00000070: 535c 1b3f 9a0a a33e 40b7 6bbe 8531 ee3e
00000080: eafd bd3e cdce f83e 55f8 d23f eefb eb3d
00000090: 2cad 943e e3f4 7cbe 3d87 363f 04a7 883f
000000a0: 1b4d ea3f c82d 8a3e 3515 9bbe 4a9c b73e
000000b0: a6ff 8d3f 7359 7c3f b569 15be bd58 7d3e
000000c0: c623 fc3e 9fef 473d 21bd 613e 7503 f63d
000000d0: 9f0b 953e 26bf 583e 838e e7bd f103 003f
000000e0: 06cf 103f 407b 063f 500a 1f3f 74d4 b13f
000000f0: d5b7 b33c 7994 ad3f 6971 0b3f c388 a03c
00000100: 78fc 07bd b837 da3e ec7a db3d 235b ea3e
00000110: a097 383f 8d27 553f 96e9 e43d c388 8a3e
00000120: 546f a43d d7ea 15be 5a2a ea3e ce4f bd3e
00000130: 13fb b13f 23f4 a5be f528 1b3e 6927 c53f
00000140: 4450 6bbf 44c6 163f 6951 383f 46ab 25be
00000150: 246c 263f 3dfc 873d 888e 28bf ffd4 a13e
00000160: 1538 64be bcc6 563f 54cc a93d f448 d23f
00000170: e603 a23e 2461 763f 986a 943f 7ed0 433f
00000180: f849 a33e 2a1d af3f 7aa8 373f 9924 e23e
00000190: b19c 253d a2d5 e03e 074c bbbe d319 c3bd
000001a0: 8c0b 033f 9c61 313d aacb 0d3f 9672 833d
000001b0: ee43 923f e015 8a3f b430 8e3e c986 54be
000001c0: d86d 71bf 7565 7ebe 2687 1a3f 691e 673d
000001d0: b2ac 78be 20fc 973f b115 c0be a524 afbe
000001e0: e3ee 943e ae3a 873f f188 5fbe 3bba 9c3f
000001f0: c9a2 c4be 3e35 e13d
0.80663776 0.845743 0.8436827 0.33536196 0.59861636 0.26595274 0.68351996 0.27600998
0.5121324 -0.27701822 0.46717224 0.7905076 -0.8939514 0.16858172 1.2832032 -0.04084647
0.96545917 0.01389128 -0.24700803 1.3260871 1.1917158 -0.91405654 0.16699472 -0.8128291
-0.3747594 -0.48720157 0.36446244 0.6494834 0.6068775 0.31844026 -0.23019123 0.46522155
0.37107784 0.48595276 1.6482035 0.11522661 0.2903837 -0.24702792 0.7130011 1.0675969
1.8304781 0.26988053 -0.30289617 0.35861427 1.1093643 0.9857399 -0.14591105 0.24740882
0.49246043 0.048812505 0.22044803 0.12012378 0.2911043 0.21166667 -0.11306479 0.50006014
0.5656589 0.52531815 0.6212511 1.389296 0.021938244 1.3560935 0.54469925 0.019596463
-0.033199757 0.42620635 0.10716805 0.45772657 0.7210636 0.83263475 0.111773655 0.27057466
0.08029047 -0.14640366 0.45735437 0.3697495 1.3904747 -0.32412824 0.15152343 1.5402652
-0.9191935 0.5889628 0.7199922 -0.16178617 0.6500876 0.066399075 -0.65842485 0.31607816
-0.22287019 0.83896995 0.082909256 1.6428514 0.316436 0.96241975 1.159503 0.7649001
0.3189237 1.3680775 0.7174145 0.44168547 0.040432636 0.4391299 -0.36581442 -0.0952641
0.51189494 0.04330598 0.5538889 0.0641834 1.142698 1.0787926 0.27771533 -0.20754541
-0.94308233 -0.2484339 0.6036247 0.056425486 -0.24284628 1.1873817 -0.3751655 -0.34207645
0.29088506 1.0564783 -0.21829583 1.2244333 -0.38405445 0.10996483

network.1.running_var f4 [126]
00000000: e623 723b e120 4b3b 3838 003c 7fab 2b3b
00000010: a86f 163b c1cc cf3b 6b4e 093b e258 b63b
00000020: 3235 693b 5cc8 983c 6113 d63a dbae 2e3b
00000030: 6e25 043c 6940 d03a e716 073c 02dc 353c
00000040: 2a44 6b3c 7153 843b 67ed cd3b 65d5 0d3c
00000050: 9b62 1c3c af94 3d3c 5b69 833c 609e c83b
00000060: 38d1 2f3c 7045 673c 8ff2 b43b 697d 9b3c
00000070: d9f6 733b 4f31 853b 39aa b53b 832c 5c3a
00000080: a038 8939 0b16 283c 020f 553c a882 f73b
00000090: 40f5 a83b 7a4d ee3b af83 c33b 7ce6 173c
000000a0: b0b4 033c 14d9 543c 6f43 1c3c 941f 983b
000000b0: 4674 393c 5220 e13b 705b 793a 526f 053b
000000c0: 4887 af3b f666 c13b 3b3a 913b 2490 8f3b
000000d0: 7338 2c3b 673b fc3b 6cce f03b e223 373a
000000e0: e328 f43b d76c 953b 61e9 8b3b cca0 bc3b
000000f0: 7609 da3b b4ea 1c3c 26dd 6d3c 360c bf3b
00000100: 27d6 0c3b e2f6 d83b 93f0 cc3b e425 b43b
00000110: 7f4f 003c 4948 943b 8283 653b 30b0 3d3b
00000120: 4f68 e63b 369d 083c b5f2 073b f41a 3b3c
00000130: d25e 303c 7d28 943b f013 823b b005 5d3b
00000140: d7b6 143c cbdc 973b 5291 e43b d75f f23b
00000150: 0a18 893c 4195 ab3c 2244 f13b b305 873b
00000160: 05b8 a13b 68f0 5c3b 71b5 223c 1796 963b
00000170: 167e ff3b b987 e63b 236d 443c 3c20 943b
00000180: d5df 243c 4f6f ae3b 732d 5d3b 1a70 003c
00000190: 3f9e 1d3a ed41 5e3b 142c a43b 0bf6 573c
000001a0: a2a0 f73b 58df d93b 18f5 6e3b 28a6 603b
000001b0: 450b 1d3b 7bfa 953b 283e 9a3b e4ea 0c3c
000001c0: e484 9d3c 324d 273b 5dd6 193b 8260 f93b
000001d0: 5e1c 0a3c e636 443c 73ad 0d3c 05ed 9e3b
000001e0: 1c39 133c e962 b13b d8be f43b ef2f 233b
000001f0: 83cc c73b 139a 983b
0.0036947667 0.003099494 0.007825904 0.002619475 0.0022954736 0.0063415472 0.0020951282 0.005564795
0.0035584685 0.018650226 0.001633268 0.0026654515 0.008065565 0.0015888336 0.008245206 0.011099817
0.014359513 0.0040382673 0.006284404 0.008656834 0.009544994 0.011571093 0.016041448 0.0061223954
0.010731034 0.014115676 0.0055220793 0.018980699 0.003722599 0.004064716 0.0055439738 0.0008398967
0.00026172865 0.010259162 0.013004066 0.0075534172 0.005156189 0.0072724195 0.0059666256 0.00927126
0.008038685 0.012991209 0.009537562 0.0046424363 0.011319226 0.006870308 0.00095122214 0.0020360542
0.005356703 0.0059021665 0.0044319904 0.0043811966 0.0026278764 0.007697511 0.007348826 0.0006986243
0.007451163 0.004560094 0.0042697643 0.005756473 0.00665396 0.009577442 0.014518058 0.005830313
0.002148995 0.0066212276 0.0062542646 0.005497681 0.007831453 0.0045252186 0.0035021012 0.0028944127
0.0070314775 0.008338263 0.002074403 0.01142 0.010764794 0.004521428 0.003969662 0.0033725314
0.009076796 0.004634475 0.0069753313 0.007396679 0.016735096 0.020945193 0.0073628584 0.0041205524
0.004935267 0.003371263 0.009930954 0.004595529 0.007797013 0.0070352224 0.011988911 0.004520444
0.010063131 0.0053233276 0.0033749014 0.007839227 0.0006012655 0.0033913807 0.0050101373 0.01318122
0.0075569907 0.006648939 0.0036462005 0.0034278724 0.0023963016 0.0045769787 0.0047071166 0.008600924
0.019228406 0.002552819 0.0023473718 0.0076103816 0.008429615 0.011975979 0.008647311 0.0048500323
0.008985784 0.0054134023 0.0074690394 0.0024900397 0.0060973777 0.004657039

network.3.weight f4 [100, 126]
00000000: fece 5f3d d6eb 9abc 7dec 42bb 2fe8 e33d
00000010: 5813 4fbd 53e5 ac3c e63c 5c3d 6f45 22bc
00000020: 24a5 a73d 67cb c03d 75c2 2a3d b22e a8bd
00000030: 0240 53bd 10a0 0b3d 3fba 853d aeb2 7a3d
00000040: 6adb 0fbc 9d9d 103d 177d 863d 88a5 99bd
00000050: 502d 883d bc0e 12bd aa73 283e 1d3c c6bd
00000060: 624c 2bbd e9ef ccbc bbe7 ce3c 1cd6 6c3d
00000070: f245 67bc 6722 f13c 4bef 373d ffdd bfbb
00000080: c5b5 d2bd 9312 09bc 520b 943c 9939 4cba
00000090: f8cd ddbd dda5 92bd 6a96 213d 56ce 263e
000000a0: 3260 51bd 92c4 013e b1e8 a1b9 a83c 50bd
000000b0: 51e6 57bd 20da e73d 4e92 d93d 9f38 9c3d
000000c0: da47 f2bc 53cf 283c 3ef1 b2bc 8b10 e8bd
000000d0: 70cc b6bd c460 ea3c 1acc 29bd 9b6b 1e3c
000000e0: 5b83 373b efcf 103c c4dd 7fbd ddc8 dd3c
000000f0: d747 90bd 1466 c8bc d893 ba3c 4acd ae3d
00000100: 9111 22bd e6ea 80bd a94d 67bd 3118 003d
00000110: ea8f 933d 9a86 c5bd 1f46 553d 3883 af3c
00000120: ed95 f93d 3120 033e 4b88 1fbb 6969 2e3d
00000130: 6890 e83d 0ffd 3f3d 27b1 6a3d 969b f1bc
00000140: 11b8 6fbd aa8b 36bd 0e50 b43c 335e e1bc
00000150: 4a81 fd3c c95e 7ebd 6d5c bd3d 3987 bebd
00000160: eb79 813c 5c1b d23b 0388 bf3a caae 84bd
00000170: 5a9a 253d f6de c43d baa0 a63c 36ac 263d
00000180: baba 023d 2fcb c4bd fb55 0fbb edd1 6b3d
00000190: fde3 2a3d 7a83 27bc c8e9 703d c769 153e
000001a0: f13c 7d3d 6be5 3c3d b456 90bd 29d0 b63c
000001b0: b5c7 95bc 1b75 8f3c aef1 473e 781d 553d
000001c0: d3e4 fd3c 87b3 17bd 830d 153e 1979 adbd
000001d0: e694 68bd 2722 a13d a272 383d ebf7 fcba
000001e0: ed97 00be 63c4 bdbd 99af 02bd 0408 99bd
000001f0: 62f4 89bd 5bfc 963d dbfb dfbc a3f6 b03d
00000200: e2e4 9bbd 9e66 afbc 25fa b73b 4099 b5bd
00000210: 12f0 0c3c c4d2 b7bd 68bb e3bd 8141 81bd
00000220: 893f 05bd 3032 c2bb bfc8 c3bb 4fbd 313d
00000230: 4cae d2bc c98d 00bc 9bf4 60bd 6857 8dbd
00000240: 0237 7fbd ec43 493d 5706 9fbc d9cd c0bd
00000250: 2fde 86bd 9433 b63c 45ed 66bd 9d4b 4a3d
00000260: a32d d0bd 6646 76bd 6120 963c f49e d3bc
00000270: 809c a83d f932 81bd 6995 533d 1b78 ddbd
00000280: cdf5 ac3c c38e f43c 61f6 c3bd 7725 b4ba
00000290: 89b7 113d 3223 1dbd 9ff5 2dbe 4960 bb3d
000002a0: 1aa5 8e3c f3cb d03d 3623 743d d4f4 863d
000002b0: 575b b63d 122c b23c d863 a63c 6806 a53c
000002c0: e69a 4bbd 2d6c 95bc 139d e4bc 4d85 683d
000002d0: cc9e 7b3d 7992 4cbb 8876 afbd 1cec 13be
000002e0: cf94 3e3c 382d 5a3d 365f c53c 4e55 ca3d
000002f0: b4e8 b8bc bdd9 b33c 67cb 9dbd da1d d5bd
00000300: 041b 88bd 643d 893d e302 29be 7f0a 90bd
00000310: 211f d0bd 3e3f 073d 2982 45bd 601d 80bd
00000320: 8785 3dbd 218f a6bd e634 c6bb 47f1 043d
00000330: b420 1dbd 9b3a dc3b 80d3 4f3c 734c 0c3c
00000340: 74c9 7abd 129b d5bc 8caf cb3c d405 d83d
00000350: 2e4c 60bc f543 953d 49f8 8bbd 5869 7f3c
00000360: 2dbc 723d 4496 9abd 6886 c03c fb2d cdbd
00000370: 4e63 ddbd f517 0cbd 9e5c 97bd e233 babc
00000380: 79a7 e13b a012 9ebc 4db1 a9bd 544c f9ba
00000390: 6c6f 5fbd 5907 a1bc 4fcb 52be 66b1 1e3d
000003a0: b816 f5bd ce24 6c3d 07f6 a7bd 84b9 3c3d
000003b0: 89b4 183b cddd 56bd 8718 80bc 8035 573d
000003c0: 2fd5 6fbd a5d4 613d 9d8d 38bd 1ba6 c1bd
000003d0: 151b f1bb 6224 67bd 8135 953c 2965 bfbd
000003e0: 24d2 ac3d f9a8 943d f0ab 84bd fe8f c1bc
000003f0: 96b4 90bd be0b 98bb add5 b73d 0315 203d
0.054640763 -0.018911283 -0.0029743009 0.1112827 -0.050555557 0.021105444 0.053769015 -0.00990425
0.08185795 0.09413796 0.041689355 -0.082120314 -0.051574714 0.034088194 0.06529664 0.06120556
-0.00878034 0.03530656 0.06566828 -0.07502276 0.06649268 -0.035658583 0.16450372 -0.096794344
-0.04182089 -0.025016742 0.025256982 0.057821378 -0.014115797 0.02943535 0.044905942 -0.0058553214
-0.10288576 -0.008366245 0.018071804 -0.0007790565 -0.10830301 -0.07160542 0.039450087 0.16289648
-0.05111713 0.12672642 -0.00030881682 -0.050839096 -0.05270988 0.11320901 0.106236085 0.07627987
-0.029575277 0.010303336 -0.021843549 -0.1133128 -0.08925712 0.028610595 -0.041454412 0.00966921
0.0028001878 0.008838638 -0.06246735 0.027073318 -0.07044952 -0.024462737 0.022775576 0.085352495
-0.039567534 -0.06294803 -0.056470547 0.03127307 0.07205184 -0.09644814 0.052068826 0.021424875
0.12186799 0.12805249 -0.0024342712 0.042580996 0.11355668 0.046872195 0.057297852 -0.029493134
-0.05852515 -0.044566788 0.02201083 -0.027510738 0.030945439 -0.062102113 0.092461444 -0.093031354
0.015805205 0.006411953 0.0014612678 -0.06478651 0.040430404 0.09612839 0.020340312 0.040691577
0.031916358 -0.09609067 -0.0021871317 0.057573248 0.041721333 -0.010224218 0.0588167 0.14591132
0.061825696 0.046117228 -0.07047787 0.022316055 -0.018283704 0.017511895 0.19525787 0.052030057
0.030992901 -0.037036445 0.14555936 -0.08470363 -0.056782626 0.07867842 0.045031197 -0.001929996
-0.12557955 -0.092659734 -0.031905744 -0.07472232 -0.067360654 0.07372352 -0.027341774 0.08640792
-0.07612015 -0.021411236 0.0056145363 -0.08867121 0.008602159 -0.08975747 -0.11119729 -0.06311322
-0.032531295 -0.005926393 -0.0059748585 0.04339343 -0.025717877 -0.007846304 -0.054920774 -0.06901437
-0.06230832 0.04913704 -0.019412203 -0.09414262 -0.06585347 0.022241391 -0.05637862 0.049388517
-0.101649545 -0.06012573 0.018325986 -0.02583263 0.08232975 -0.063085504 0.05165616 -0.10813924
0.0211133 0.02985323 -0.095684774 -0.0013744076 0.035575423 -0.038363643 -0.16988228 0.09149224
0.017412711 0.1019515 0.059603892 0.06589666 0.089041404 0.02174953 0.020311281 0.020144656
-0.04970827 -0.018240059 -0.02790693 0.05676775 0.061430737 -0.0031215234 -0.0856753 -0.14445537
0.011632158 0.05326578 0.024093252 0.09879552 -0.022571899 0.021954412 -0.077048115 -0.10406084
-0.06645778 0.067011625 -0.16505007 -0.07033252 -0.10162187 0.033019297 -0.048219834 -0.06255603
-0.04626992 -0.081327684 -0.0060487865 0.032456663 -0.038361266 0.0067208535 0.012684703 0.008563149
-0.061227277 -0.02607492 0.02486398 0.105479866 -0.013690038 0.072883524 -0.06834466 0.015589081
0.05926149 -0.07548192 0.02350159 -0.10018536 -0.108099565 -0.034202535 -0.07390712 -0.022729818
0.0068864194 -0.01929599 -0.082857706 -0.001901994 -0.05454962 -0.019656824 -0.20585369 0.0387434
-0.11967224 0.057652287 -0.08201223 0.04607536 0.0023300967 -0.05245762 -0.015636696 0.052541256
-0.058552917 0.055134434 -0.045056928 -0.0945551 -0.0073579648 -0.05643118 0.01821399 -0.09345467
0.08438519 0.072587915 -0.06478107 -0.023628231 -0.07065694 -0.0046400717 0.08976302 0.03908254

network.3.bias f4 [100]
00000000: bd56 003f 1fa7 ff3e 649d 003f 41a1 ff3e
00000010: 50c4 ff3e 8a91 013f 8a18 ff3e 402a ff3e
00000020: 5783 003f 8728 003f e0c1 ff3e 9df3 fe3e
00000030: 27ba fe3e d2f9 ff3e 1014 ff3e c821 ff3e
00000040: f44a fd3e a2e4 fe3e 0fd6 fe3e 114a 003f
00000050: 4205 003f afad ff3e b91e ff3e 8186 fc3e
00000060: 48f4 fe3e 1e56 fe3e 5c69 ff3e 2e8a ff3e
00000070: 0e0c 003f 36ed fe3e dc3b 003f f58c fe3e
00000080: 2944 ff3e ccdf fd3e b519 003f 96c5 fd3e
00000090: 7898 fe3e ec0a 003f 3bf3 ff3e 74f1 fe3e
000000a0: 0bda ff3e 9a63 ff3e 992f ff3e 0923 ff3e
000000b0: 5749 ff3e b3a4 ff3e 700f 003f 1740 ff3e
000000c0: b05f ff3e ad6f ff3e dbec ff3e b4ff fe3e
000000d0: 7446 ff3e 7eda fe3e 09a1 ff3e 923d ff3e
000000e0: f59b 003f 0f54 023f ccc9 ff3e 287b fe3e
000000f0: 334e 003f 4966 ff3e ae17 003f 1192 013f
00000100: 161f fd3e ed5c 003f e889 003f 7c9a ff3e
00000110: 0962 ff3e 59f1 fe3e 711a ff3e d736 ff3e
00000120: 7d40 003f 9112 003f dc95 013f b8bb fe3e
00000130: f2a6 ff3e 998d fe3e e370 ff3e a351 013f
00000140: 246a 003f ec17 003f 8e18 003f 6c9f fe3e
00000150: e727 ff3e 22d9 ff3e 6e9f fc3e fd0c 003f
00000160: 3931 023f ad3a 003f a805 003f 4cf8 fe3e
00000170: 7faa ff3e e80b 003f 173d ff3e 1f4f ff3e
00000180: be35 013f 2fbc 003f ebdc fb3e 3514 ff3e
0.5013235 0.4993219 0.5024016 0.49927714 0.49954462 0.506127 0.4982341 0.49836922
0.5020041 0.5006184 0.49952602 0.49795237 0.49751398 0.49995285 0.49819994 0.4983046
0.49471247 0.49783808 0.4977269 0.50113016 0.5000802 0.49937198 0.49828127 0.49321368
0.49795747 0.49675077 0.4988507 0.4991011 0.50018394 0.49790353 0.5009134 0.49716917
0.4985669 0.49584806 0.50039226 0.4956481 0.497257 0.50016665 0.49990258 0.4979359
0.4997104 0.49880677 0.49841002 0.49831417 0.4986064 0.49930343 0.50023556 0.49853584
0.4987769 0.4988989 0.49985394 0.4980446 0.4985844 0.4977607 0.49927548 0.49851662
0.5023797 0.50909513 0.49958646 0.49703336 0.5011932 0.49882725 0.5003613 0.50613505
0.4943778 0.50141793 0.5021043 0.4992255 0.49879482 0.4979351 0.4982486 0.49846527
0.500984 0.5002833 0.5061929 0.49752593 0.49932057 0.49717405 0.49890813 0.5051519
0.5016196 0.500365 0.5003747 0.49731004 0.4983513 0.49970347 0.49340385 0.5001982
0.5085636 0.5008953 0.5000863 0.4979881 0.49934766 0.5001817 0.49851295 0.49865052
0.5047263 0.50287145 0.49191985 0.49820104

network.4.running_mean f4 [100]
00000000: 6798 433f 7191 0c3d d5cc 203f 62a8 2c3f
00000010: 82f4 223f eca8 2b3f b930 be3d f33a a23e
00000020: ad18 0f3f eeb9 233f 62a9 b83e d51a 043f
00000030: 7af8 263e e0fe 533f 0467 ff3e f0b5 e33e
00000040: 29cd 193f 34f5 de3e 43a8 793e 82b3 dd3e
00000050: 61bf 8f3e 2521 e53d adc8 b43e 9221 053f
00000060: 88fb 2e3f ac05 933e 4389 1c3f ce72 103f
00000070: 7d3f 273f 0755 f43e 563c ef3e 928d a83d
00000080: c653 363f 7893 ed3e 14de a33e 55d3 393f
00000090: 6133 ae3e 6638 f33e 67a4 223f 5600 ae3e
000000a0: 22e4 0f3f 097c df3d df4d f43e 66e3 183f
000000b0: a22b b83e 1044 ba3e 6c51 3a3f 49df 013f
000000c0: a1c5 803e 3ec0 3a3f b941 e43e 9610 493f
000000d0: dbc7 213f 3da2 373f cf4a 153e 72ec 563e
000000e0: 33b2 2e3f 8593 333f 3f55 e33e 91ff 5d3e
000000f0: 5752 053f 7093 133f f338 833d 2273 2b3f
00000100: fcf4 913d a053 e33e 56dd 1e3f d5e8 9c3e
00000110: 1cd9 503e 4c90 0d3f 3c4f 0d3e 61ce 273f
00000120: 4875 da3e bd88 c93e 0366 3e3f 1b1a 513f
00000130: 84b6 6c3f 2569 4f3e dbf7 903e 1eac 2a3f
00000140: f2c9 143f 4dd2 afbb 2ac3 c63d 692c 8a3e
00000150: 26e5 033f 15ca c33e 14c6 323f 89cf 593e
00000160: 7a35 3a3f d95e 2b3f 9f1d 543f 4126 6f3e
00000170: 56ba 0b3f 2645 263f 6ae6 303f bbfb 313f
00000180: df78 393f 191c 663f 71d3 f73e 242f 0c3f
0.7640442 0.03431839 0.6281255 0.6744443 0.6365434 0.6705463 0.09286637 0.316856
0.5589703 0.6395558 0.3606673 0.5160344 0.16305724 0.82810783 0.49883282 0.44474745
0.60078675 0.4354645 0.24380593 0.43301016 0.28075698 0.111879624 0.35309353 0.5200435
0.68352556 0.28715265 0.61146945 0.5642518 0.6533125 0.4772112 0.4672572 0.082301274
0.7122158 0.46401572 0.3200537 0.7258809 0.34023574 0.47503966 0.6353211 0.3398463
0.5620748 0.1091233 0.4771566 0.5972198 0.3597079 0.36380053 0.7278049 0.5073133
0.2515078 0.7294959 0.44581392 0.78540933 0.6319558 0.7173193 0.14579318 0.20988634
0.6824066 0.7014697 0.44400975 0.21679522 0.52078766 0.57646847 0.064073466 0.66972554
0.07126805 0.44399738 0.6205648 0.30646387 0.2039532 0.55298305 0.13799757 0.65549284
0.42667603 0.39362136 0.7437441 0.8168046 0.92465997 0.20254953 0.283141 0.6666888
0.58120644 -0.005365646 0.09705193 0.26987007 0.5152153 0.38240114 0.69833493 0.21270575
0.7273785 0.669416 0.828577 0.23354436 0.545812 0.6494926 0.69101584 0.69524735
0.7245006 0.89886624 0.48403504 0.5475943

network.4.running_var f4 [100]
00000000: 45bd 593f c872 473f b40c 003f e2e8 4c3f
00000010: 828f 433f 2536 153f 559f 313f 2afb 4e3f
00000020: eb97 623f ed83 fb3e 473e 8c3f f23a 883f
00000030: ce13 db3e 1f42 8e3f 2fa1 9b3e 3b2c 0f3e
00000040: a69d 623f e187 fa3e 4c2c cf3e 1c36 133e
00000050: ee7e 763f 6bf2 213e 77f8 8f3f d41a b53e
00000060: 5e87 233e 387a 483e 3d21 fb3e 8f0e 923e
00000070: 1762 9f3e 5c1a cd3e d494 8a3e c1f7 893f
00000080: e3cb 183f 3488 153e d2e9 0d3f badd 163f
00000090: aade d83e 1ee4 d73d 6f22 a73e 72f5 b83e
000000a0: 4281 2d3e 5d43 b03e 190c a23d e186 133f
000000b0: 0570 973f d753 7f3f 0523 433f 30fe 0a3e
000000c0: dcd2 a33f f0c8 8e3e 0448 653e 0c2e df3e
000000d0: 19e9 3e3f 27b2 193f 79f0 173f 3fb8 073f
000000e0: 7d24 bd3e f792 803e 3ff2 2d3e c2bf a83d
000000f0: d687 633f 47f0 7b3e 0c53 923e 3490 3f3f
00000100: f4f8 bb3e cb47 9e3e 5898 0a3f 7ed7 6b3f
00000110: 0e2b c23e 3450 1a3f a09b 883e 165a c93d
00000120: 6bea 533e 1459 1a3e 11a3 683e 145b 643e
00000130: c8bd 853f 866a b23e 2c34 913f 7700 183f
00000140: 5d14 3a3f c5a0 173e 451d 143f 6a5c f13e
00000150: 4cb2 483e f797 4f3f 57fc 8f3e 8514 aa3f
00000160: 1859 ed3e 979b c83e 173a ff3e f031 3d3e
00000170: 18c1 7c3e 97c9 b93e d996 243f 8906 e33e
00000180: a269 f33e 5f20 833f 44c2 b03d 8be0 fb3e
0.8505443 0.7790952 0.50019383 0.8004285 0.7639085 0.58285743 0.69383746 0.80851996
0.8851306 0.4912409 1.0956506 1.0642989 0.42788547 1.1113929 0.3039641 0.13981716
0.885218 0.48931792 0.40463483 0.1437611 0.9628743 0.15815131 1.12477 0.3537203
0.15969607 0.19577873 0.49048796 0.28526732 0.31129524 0.40059173 0.27066672 1.0778733
0.59686106 0.14602739 0.55434906 0.5893208 0.4235738 0.10541557 0.32643458 0.3612476
0.16943839 0.34426394 0.07912464 0.57627684 1.1831061 0.99737304 0.7622531 0.13573527
1.2798724 0.27887678 0.22390753 0.43589818 0.7457443 0.60037464 0.5935131 0.5301551
0.369419 0.25112125 0.16986941 0.082397 0.88879144 0.24603377 0.28578985 0.7482941
0.36713374 0.3091415 0.5413871 0.9212569 0.37923473 0.6027863 0.26681232 0.09831636
0.20694892 0.15073043 0.22718455 0.22300369 1.0448542 0.34846896 1.1344047 0.5937571
0.7268732 0.14807422 0.5785716 0.4714082 0.19599265 0.81091255 0.28122208 1.3287512
0.46357036 0.39181206 0.49849007 0.18476081 0.24683034 0.36286613 0.64292675 0.44340923
0.4754153 1.0244254 0.08630803 0.4919475

network.6.weight f4 [100, 100]
00000000: 3336 e1bd bbf3 c43d e057 e13c 3223 493d
00000010: 753d d7bd 6b05 9fbc 573e 443c 75c2 65bd
00000020: 266b cdbd c198 713d 5b9e e2bc 604f a6bd
00000030: d213 833d 736d d43b 91cc cdbb f37c 8439
00000040: 568f b4bd 81b8 a4bd 933e e6bd 73a6 983c
00000050: bce0 f4bd 72a3 b5b9 8562 a4bd 24bd d03d
00000060: d9af dc3d c49b adbd d891 793d 4ed8 4e3d
00000070: 577a d03c 0100 863d 88b6 473d 57f2 19bc
00000080: abbf bf3d 4c0a 0bbe 85d1 51bc 02de 9fbd
00000090: 5bb9 96bd 6b55 7fbc dad3 373d 6e9f 033b
000000a0: 05e8 4a3d 1309 87bd da7c cf3c 4c34 703b
000000b0: 479d 77bd a636 4b3d 7278 c23c 4c60 f4bc
000000c0: 81a5 1e3e f751 b43d 94db ebbb b7b6 ab3d
000000d0: 9350 26bd 264d 113d 795d 2d3d 8cdc 073e
000000e0: 907d 403d 7ee9 0fbe a160 9ebc 789a dbbd
000000f0: d30c debd 0381 a93d e5ac 42bd 5d54 c83d
00000100: 7c92 4cbc ce07 343d ed01 9e3d 5cbf 443c
00000110: 17af be3d 9135 043e 7c39 1ebe 1782 10bd
00000120: 7873 83bd 2a24 90bd 7bd4 64bd 8b61 35bd
00000130: 366a 17bc dbae 5bbd 8d16 b5bd 6bb0 80bd
00000140: f909 c63d 443e 033d 7152 7d3d 2b8b fc3c
00000150: f8f6 f7bb 4c94 ebbd 7be7 823a 5226 f13c
00000160: 7e45 753b bebd 623d c8a6 1dbd 7996 9d3d
00000170: cc4a 77bd f9e1 2a3c 0aa0 ac3c 3e29 003e
00000180: b667 9a3c 5a00 3e39 b2a0 8ebd 0341 eabd
00000190: d774 173a 76ae 13bc 1320 d23d 1d41 f6bd
000001a0: 04f4 8bbd 1e02 1bbc 9db1 7c3d 70aa 993d
000001b0: dd8f c13d 0e2a d43d 1bb2 ba3d 40cc a83d
000001c0: b50c 0ebd 2818 b0bc 6e69 abbd ce0f 793c
000001d0: 6d79 93bd ed94 69bd dce7 9ebd 4946 a33c
000001e0: 23f7 d7bd 5425 fd3d 833d 07be 237a a0bc
000001f0: f88f 80bc c237 7cbd c366 d2bb 0e84 24be
00000200: f4a6 47bc 341c 723c 5e90 1b3d 4000 54ba
00000210: 421c a5bd b9f8 49bd 0e65 1d3c dbea 053e
00000220: 7a43 0e3d 7e79 42bd 9bb9 09be fbc0 4c3b
00000230: 9e81 fe3c be24 033e 6a72 e83b 85e9 14bd
00000240: 290b bcbc 4189 803c 211d 2e3d 731f cbbc
00000250: 0d91 5a3d d1ed 6ebc 4338 213d 9fa5 95bd
00000260: 3634 ddbd 58a8 6a3d 172b c23c 3d75 8a3d
00000270: 6a46 4c3d b1e5 533c 655c 4fbd 5ad0 06bd
00000280: d1e9 b6bd 6210 81bd 20c1 213c 07fa ad3d
00000290: a70c 25bd 2950 07be 2473 543d 2bcc a3bd
000002a0: 6cb9 923d 1666 823d 68ab f73c aed9 0a3e
000002b0: 2030 4f3c 02e5 b23c b4b6 cc3d f69e a23d
000002c0: 667f a13c 72ec b1bd 1b72 ab3d 303d 893d
000002d0: 9598 d7bd 2ea5 f23c 00ee 1e3d d396 613d
000002e0: 6b2c 593d 89ed 64bd 724a 41bd 518e 34bd
000002f0: 5f0e ba3c c3f4 0c3d 7587 a4bd d9ef 35bd
00000300: beae 543b 5fa4 a0bc bc8d 44bd 1825 bfbc
00000310: b3e4 0a3d a348 a6bd 3cf9 b3bc af5d b3bd
00000320: 65e9 3a3d 4676 c03d 053b 9cbd e776 673c
00000330: 9da4 80bc 0b16 0fbc 7202 a2bd 2cf5 c6bc
00000340: 8966 51bd 8a07 c03d e0ac 013d c70c 8a3d
00000350: 66c5 e03c 75e8 173d 151e 0b3d cf80 1e3d
00000360: 276f ec3c b7f2 883d db0c cb3d 8dd2 dd3d
00000370: c480 fb3d dd87 65bd 9736 5f3d 09f3 daba
00000380: f6a4 2cbd 82f9 523d b34d 103c edfa 91bb
00000390: 5c3f 3d3d 11d2 acbd 5eee 603d 7352 ab3d
000003a0: 3171 a2bd 11ff e23b 919d 3c3c 1519 25be
000003b0: bee2 acbd fdfb 4fbd 1d01 7d3d 8ec5 0abd
000003c0: 85cf 863c 3a27 a2bd 4c72 aabd 9e12 483d
000003d0: 7349 153e 9184 b3bd 95ec 983d 6306 263c
000003e0: ab38 673d bae3 ce3a b332 08bd 6dc4 f9bd
000003f0: a26f 23bd b3db e53c 5a53 90bc b9cd 1dbd
-0.10996666 0.096168004 0.027507722 0.04910583 -0.10509769 -0.019411763 0.011977754 -0.05609365
-0.100302026 0.058983568 -0.0276634 -0.08120608 0.06400265 0.006482774 -0.0062804897 0.00025270096
-0.08816402 -0.08043004 -0.11242404 0.018634057 -0.11956927 -0.00034644787 -0.080266036 0.10192326
0.10775728 -0.084769756 0.060930103 0.050499253 0.025448961 0.065429695 0.04875806 -0.009396157
0.0936273 -0.13578147 -0.012806301 -0.078060165 -0.073595725 -0.01558433 0.04487977 0.0020084041
0.049537677 -0.06593528 0.025328089 0.0036652265 -0.060452726 0.049612664 0.023739073 -0.029831074
0.15492822 0.08804696 -0.0071978066 0.083844595 -0.040604185 0.035473965 0.04232547 0.13267726
0.046994746 -0.14053914 -0.019333186 -0.10722822 -0.1084229 0.0827656 -0.047528166 0.09781716
-0.0124860965 0.043952756 0.07715211 0.012008514 0.093107395 0.12911059 -0.15451616 -0.035280313
-0.06418508 -0.07038148 -0.0558667 -0.044282477 -0.009241631 -0.053633552 -0.08842192 -0.06283649
0.09669871 0.032041803 0.0618462 0.03082808 -0.0075672828 -0.11502895 0.00099872 0.029437218
0.0037425454 0.055356734 -0.038489133 0.07694716 -0.060374066 0.010429853 0.021072406 0.12515733
0.018848281 0.00018119943 -0.06964244 -0.11438181 0.00057776034 -0.009013763 0.10260024 -0.12024138
-0.06833652 -0.009460954 0.061692823 0.075032115 0.09451268 0.10359584 0.09116002 0.082420826
-0.034680087 -0.021495894 -0.083697185 0.015201522 -0.072008945 -0.057026792 -0.077590674 0.019930976
-0.105451845 0.123606354 -0.13207059 -0.01958949 -0.01569365 -0.061576612 -0.0064209416 -0.16066
-0.012185801 0.014777232 0.037979476 -0.00080871955 -0.080620304 -0.049309466 0.009606613 0.13077872
0.03473232 -0.047479145 -0.13449709 0.0031242955 0.031067666 0.12806985 0.0070937173 -0.036355514
-0.02295454 0.015690448 0.04250825 -0.02479527 0.053360987 -0.014583067 0.039360296 -0.0730698
-0.10800974 0.05728945 0.023702187 0.06760643 0.04987184 0.012933181 -0.050625224 -0.032913543
-0.08931316 -0.06301953 0.009872705 0.084949546 -0.04029527 -0.13214172 0.05186762 -0.07997926
0.07164273 0.063671276 0.0302331 0.135596 0.012645751 0.021837715 0.09995785 0.07940476
0.019714069 -0.086876765 0.08371373 0.06701124 -0.105271496 0.02961978 0.038801193 0.055075478
0.053020876 -0.055890594 -0.047190137 -0.044081036 0.02271193 0.03441311 -0.08033649 -0.04441819
0.0032452787 -0.019609628 -0.04798673 -0.023333117 0.03390951 -0.08119323 -0.02196943 -0.08758103
0.04563274 0.09397559 -0.076284446 0.01412747 -0.015703494 -0.008733283 -0.07910623 -0.024286829
-0.051123176 0.09376438 0.031659007 0.06740718 0.027437877 0.037086923 0.033964235 0.03869706
0.028861595 0.06686919 0.09914561 0.10831175 0.122804195 -0.056037772 0.05449542 -0.001670451
-0.042149507 0.05150748 0.008807587 -0.0044549615 0.046203002 -0.084385045 0.054914825 0.08365335
-0.07931746 0.006927379 0.011512176 -0.1612285 -0.08441685 -0.050777424 0.06176864 -0.03387981
0.016456375 -0.07917638 -0.08322582 0.04884588 0.145788 -0.087655194 0.074669994 0.010133359
0.056450527 0.001578442 -0.033251476 -0.12195668 -0.039901383 0.028058862 -0.01761787 -0.03852627

network.6.bias f4 [100]
00000000: 1e12 003f 6932 ff3e 8c05 ff3e 84ac 023f
00000010: adba fe3e b139 fe3e b021 003f a4ca 003f
00000020: 8038 fd3e 97b0 ff3e 6eb0 ff3e b5a7 013f
00000030: a1ba ff3e 59ee ff3e 0ce5 013f aeea ff3e
00000040: 0f84 003f ab4c 003f 35a9 ff3e d518 003f
00000050: 85a6 0a3f 0519 003f 18e6 fd3e 636a ff3e
00000060: c7e7 003f 1912 003f 4ee9 fe3e 9618 fe3e
00000070: bd05 003f f328 fe3e d88f fe3e 2525 fd3e
00000080: a1f5 fd3e f671 ff3e 8d9d ff3e 0fc6 013f
00000090: 9bde fe3e a7e5 043f 4e9b 003f f8c6 fd3e
000000a0: e010 013f e1e3 ff3e 8221 003f f440 003f
000000b0: 12f8 fd3e b689 003f 4c9c 003f 6003 013f
000000c0: 7cf9 ff3e 147a ff3e 6b28 ff3e 108d ff3e
000000d0: efce fd3e c574 ff3e 184c 043f 2958 ff3e
000000e0: 53fa ff3e 2451 003f d603 003f e740 ff3e
000000f0: 9d60 fe3e 8bcf fd3e 1d77 fe3e eb53 fe3e
00000100: c411 ff3e ac82 003f 4b35 ff3e 5dfb fe3e
00000110: 80f2 003f 308c 003f 8979 fe3e abce ff3e
00000120: 9417 003f 50a0 003f a469 003f 7fe1 fe3e
00000130: 8a96 ff3e f7cb ff3e 39a6 ff3e 747b fe3e
00000140: 4ac7 ff3e ca94 003f a744 fc3e 6f38 fe3e
00000150: 9940 fd3e d551 ff3e 4913 003f e1f7 fe3e
00000160: 1e22 003f 8d6c 003f 8041 ff3e b80a 013f
00000170: 81ed fe3e e258 ff3e 613c fd3e 238e 003f
00000180: e644 fc3e e31c ff3e f7d0 ff3e fa9a ff3e
0.50027645 0.49843147 0.4980892 0.5104449 0.49751797 0.4965339 0.50051403 0.50309205
0.4945717 0.49939415 0.49939293 0.50646526 0.49947074 0.49986532 0.5074012 0.49983734
0.50201505 0.50116986 0.49933782 0.5003789 0.5416034 0.50038177 0.4958961 0.49885854
0.50353664 0.50027615 0.49787372 0.49628133 0.50008756 0.49640617 0.4971912 0.49442402
0.49601462 0.49891633 0.4992489 0.5069284 0.4977921 0.5191292 0.50236976 0.49565864
0.50416374 0.49978545 0.5005113 0.5009911 0.49603325 0.5021013 0.5023849 0.50395775
0.4999503 0.49897826 0.49835524 0.4991231 0.4957194 0.49893776 0.5167861 0.49871948
0.4999567 0.5012381 0.50005853 0.49854204 0.49683085 0.49572405 0.4970025 0.496734
0.49818242 0.5019939 0.49845347 0.4980115 0.50370026 0.5021391 0.497021 0.49962363
0.5003598 0.5024462 0.50161195 0.49781415 0.4991954 0.499603 0.49931505 0.49703562
0.49956733 0.50227034 0.49271128 0.4965243 0.49463347 0.4986712 0.50029427 0.49798492
0.5005206 0.50165635 0.4985466 0.5040698 0.49790576 0.498725 0.49460128 0.50216883
0.49271315 0.49826726 0.49964115 0.49922925

network.7.running_mean f4 [100]
00000000: 9d37 e33e 7ff1 dd3e dd06 143f 4432 8d3f
00000010: e578 8d3e 4db4 d43e e760 0c3e ef58 9a3f
00000020: 6696 d83e 2523 983e 7873 c03e ff19 e53e
00000030: c19d 1f3f bef8 0e3f e5ae 823f 9400 733e
00000040: cab3 0a3f 7a0b b83e ce20 043f ac39 253f
00000050: 6aed 6d3f ff30 543f f2cd 9e3e 5c74 723e
00000060: 80fa 473f 841b cd3e 6823 393f 40f6 ed3e
00000070: a65c 933e 88f5 e83e d3f5 ab3e 7bc3 f33e
00000080: f12d 1d3f 4616 f93d 3886 253f 4298 de3e
00000090: 3a65 cb3e 7c6c 5c3f 4e15 e13e 8d78 cc3e
000000a0: 99d7 0d3f edbb 2b3f 77f6 0d3f 52f1 0b3f
000000b0: fd63 fb3e f359 b53e ad44 3b3f 954b 403f
000000c0: d5bf 633f 545f d33d 2c1f 003f 9ecb 813e
000000d0: fe34 243f 0eeb d13e 14c7 443f 7523 6a3e
000000e0: 2b97 2d3f 3500 253f 9e85 cb3e ceb0 e63e
000000f0: 438b ab3e 1fea e13e 0da5 fd3e 60f2 a23e
00000100: d093 9d3e 9f35 e43e 9d63 ce3e d61b f53e
00000110: 220c 243f 02af 4d3f fbd4 503e ac9d 563e
00000120: 6fc8 1d3f 83a1 163f 7bed 253f 35d9 213f
00000130: 91a5 093f df53 333f 428e ec3e 79c0 c53e
00000140: 748e 37be aa05 1f3f 02cf 1e3f 74d1 393f
00000150: adec 063f a519 993e 72fb 383f 83cb 353f
00000160: 7abb 2b3f 4f4b 163f 1a49 273f ec81 023f
00000170: 18a4 0c3f 43bc e23e 5f23 df3e 33f9 533f
00000180: e011 043f c310 a83e 934f 9d3e e42e d53e
0.44378367 0.4334831 0.5782297 1.1030965 0.27631298 0.4154381 0.1370884 1.205839
0.42302245 0.29714313 0.37588096 0.44746396 0.6235009 0.558483 1.0209624 0.2373069
0.54180586 0.35946256 0.51612556 0.64541125 0.9294039 0.8288726 0.310165 0.236772
0.7811661 0.40060055 0.7231965 0.46476936 0.28781623 0.45499825 0.33585986 0.47610077
0.61398226 0.121624514 0.64657927 0.43475538 0.39725667 0.86103034 0.43961567 0.39935723
0.554071 0.67083627 0.554542 0.546651 0.49099723 0.35420188 0.73151666 0.7511533
0.8896459 0.10320917 0.50047565 0.2535066 0.6414336 0.40999645 0.7686627 0.22865088
0.6780879 0.6445344 0.3975038 0.45056766 0.33504686 0.44123933 0.49539986 0.31825542
0.30776834 0.4457216 0.40310374 0.478728 0.64081013 0.80345166 0.20393746 0.20958585
0.6163396 0.588402 0.6481549 0.63222057 0.5376826 0.7004985 0.46202284 0.38623407
-0.17925435 0.6211802 0.6203462 0.72585225 0.5270489 0.29902378 0.72258675 0.7101366
0.6708294 0.5870866 0.6534592 0.50979495 0.5493789 0.44284257 0.43581674 0.8280212
0.51589775 0.32825288 0.30724773 0.41637337

network.7.running_var f4 [100]
00000000: 0d69 0b3f 5224 1c3f 395e 183f 2cf5 963e
00000010: 1bce 5b3f b657 343e b9be 183e 8e79 9e3e
00000020: 75b1 cd3d e39e 2b3f 8399 063f 1bb8 893d
00000030: 9cd7 e73e ee7e 7b3f e53f cf3e 74cc c93e
00000040: 801b 053f bd1d 373f ff13 003e 66cf 1a3e
00000050: 85e7 053f e23c d73e dc91 0b3e a066 353f
00000060: 6967 113f e4c6 da3e cf3c 2e3f 6c97 c93e
00000070: d5e2 e03e e156 f73d 2c41 fd3e 9e6b 9e3e
00000080: 01c2 b93e 4f56 683e c08d 4f3f 3415 8f3d
00000090: d93f 433e 78ee 103f 8f05 063e 8cc9 803e
000000a0: 4a84 833e 23b0 9a3e 53e8 2e3f 0196 4d3f
000000b0: 562c a53e 8b5c 4d3f 9b38 a03e e556 bb3e
000000c0: 7c6e 943e d32c 403f a98c 373e 1e16 ef3e
000000d0: 97cd 933e 3f50 243f 9f7e 943e 347c 1f3f
000000e0: 79c3 b33e c09d 223f 5777 153f fa93 703f
000000f0: deda 113e 24d4 023f 62c5 7e3e 178d 143f
00000100: f3ba 9f3e fe6d 113f 2733 263e 162d 303e
00000110: a7bd ca3e da11 943e 0776 593f a5dc 463f
00000120: a863 e03e 09a8 683f c7a5 bb3e 240c 1a3e
00000130: efd0 2e3f b6fa dd3e bbdd 423f 0150 c93d
00000140: 102a 0f3f 906b 2e3f 0e46 ea3d eedc b63d
00000150: 0b96 a13e 1f49 823f 81d7 373f 2f71 e93e
00000160: 5c2b 363f a35b 113f 3204 843e 232d bd3e
00000170: b589 8e3e 5eed 743f a5e6 3b3e b9f4 073f
00000180: e387 ea3d 803f 763e c786 9a3e 4474 9b3d
0.5445717 0.6099292 0.5951877 0.29483926 0.85861367 0.17611584 0.14916505 0.30952114
0.10043613 0.67039317 0.5257799 0.067245685 0.45281684 0.98240554 0.40478435 0.39413798
0.51995087 0.7152975 0.12507628 0.15118179 0.52306396 0.42038637 0.1362986 0.7085972
0.56798416 0.42729867 0.68061537 0.39373338 0.4392306 0.12077118 0.49463785 0.3094148
0.36280826 0.22689174 0.8107567 0.06986466 0.19067325 0.56613874 0.13088058 0.25153768
0.25686866 0.30212507 0.6832325 0.8030701 0.32260388 0.80219334 0.31293187 0.36589733
0.28990543 0.75068396 0.17924751 0.46696562 0.2886779 0.64184946 0.29002854 0.62298894
0.3511007 0.6352196 0.58385223 0.93975794 0.14243647 0.5110495 0.24879983 0.58027786
0.31197318 0.5680846 0.1623045 0.17204699 0.39597818 0.2891987 0.8494572 0.77680427
0.43826032 0.908814 0.36649916 0.15043694 0.6828756 0.4335534 0.76119584 0.09829713
0.5592356 0.6813288 0.11439143 0.08928858 0.31559786 1.0178565 0.7181321 0.45594165
0.7115991 0.5678045 0.2578445 0.369485 0.27839437 0.95674694 0.18349703 0.5310779
0.114516996 0.24047661 0.30180952 0.07590535

network.9.weight f4 [100, 100]
00000000: be00 37bd 01bd 3c3d 1c1b 96bd d95e 32bd
00000010: 756b ad3d 783b 173d a8f4 44bd 922b a43d
00000020: 03e5 b5bd 3882 babd 7ce4 f53c 632d a73d
00000030: d3b5 813d 9b97 c5bd b99e 253c 307c d53d
00000040: 4eeb 943d 3730 943d 31b8 22bd 29a5 5e3d
00000050: f773 b03d be04 bcbd c8eb 513c 7744 39bd
00000060: f886 db3d e53f 7abc bfce 733d 4878 52bd
00000070: 3f04 1c3d 539c 813b 4690 43ba a460 b03c
00000080: 3135 873d 70f0 b73d a930 e3bd a5d7 d13d
00000090: baba c4bd 7590 4bbd 8fd6 e839 e1a5 253d
000000a0: 7401 aabc 6c60 43bd cd46 d8bd 416b b4bd
000000b0: a855 21bd 7d92 b8bd 9fe4 cd3c ddb4 9abc
000000c0: b0ea 84bd 1f25 0e3e 1ced 51bd 56bd ac3c
000000d0: 1ddb 87bb df38 c5bd 7f0a 333d 4e0f e63d
000000e0: 1b29 553d 5f02 a63d 316a 01bc 2b12 323c
000000f0: 4fbc a8bc ca28 f5bd 923e 133d a6de 9b3d
00000100: 910e a2bd 4079 9fbd c148 cfbd 4b35 33be
00000110: f14b cebc e476 d33d b243 91bd 9196 a73d
00000120: c127 8bbd 6b2d 9abd d684 5f3d 603f 5f3d
00000130: 28c6 5dbd cb18 e6bd a923 c53d 79c3 1d3d
00000140: 2f4c 443d 0406 1dbb b120 6dbd 9a40 16bd
00000150: 301f 9dbd 263e b13d 0fc4 5a3d bb2f 8c3d
00000160: 4d38 3f3d 72e2 10bc aa5d bb3c 514a 083d
00000170: ec45 033b 7e57 7ebc f049 353d 049e c03c
00000180: 2770 9abc c32e dbbc f458 993c 0bf7 e33d
00000190: 1d54 703d 6826 69bd ff07 d93a 06d4 debd
000001a0: c103 90bc 74cb 64bd de58 aa3c 6581 f5bb
000001b0: fe91 0e3d 13e8 84bc 773b 4e3d 5ab8 ffbd
000001c0: 69ca 123c 9fc5 08bd 7fc1 85bd 0f5a b23d
000001d0: faf6 ca3b 1672 9cbd 12bd dabd 39c1 66bd
000001e0: 4884 67bd 6c73 593b ed28 08bd f7aa 19be
000001f0: 1247 03bd e83e 5b3d 135c a6bc 5e9b 56bd
00000200: 5e2d f5bd 0036 123e 6edf a9bd 5260 36bc
00000210: 159a 9c3d b1ae 8fbd cc97 e73d f6ee bfbd
00000220: 0b90 4e3d 9081 ab3d 9f57 f6bc da4d 243d
00000230: 497b f63d 2b9b cbbc 2351 c6bd 7bdc 1e3e
00000240: 110f 453d a077 9fbd 7bfe cb3c af64 8fbd
00000250: e4fa 7c3c 6e95 e43d 14b9 e2bc bf14 05bc
00000260: edf1 9c3d 0724 c3bd e060 553d 2b3b d93d
00000270: 5342 d6bd 8e09 1f3d 6af1 4d3b d56b 8c3c
00000280: 128a a93d 5756 8bbd 5bb0 81bd 1dd9 51bd
00000290: bfc4 8bbd 66e1 d6bb 9ee1 54bc b675 67bd
000002a0: befe a3bd b3b8 ca3d 831f 11bd 904c 853d
000002b0: d8f5 4b3d 96dc 9dbd 0645 e4bc b197 f6bd
000002c0: c804 7abd 2c97 ecbd 207e 273c a97d f33c
000002d0: 8f40 583d fa44 2e3d e04b 513d be2d 7d3d
000002e0: 371e a43d 6941 953d ca72 133d 6b9c e0bc
000002f0: 0f28 9d3d 77af b93d 8372 51bd 5452 db3b
00000300: 7a2d b8bd 6d5f 203d 098d ae3a de39 9c3d
00000310: 1362 06be a95b 263d 89f5 87bc 29f9 bc3c
00000320: 17e8 94bd ca9c 3abd 4d1f 21bd 557d 573c
00000330: fcde adbb cada bbbd 6e63 04bd 7b09 26bd
00000340: 5e28 c9bd 3137 b5bb 7839 413d b3fa b3bc
00000350: b7db f83d 6305 9b3c 752c 99bc 1368 563c
00000360: 5a16 c23b 5844 3a3d f554 5a3d 725b b7bd
00000370: 5edb 6bbd a453 a0bc 9b62 aabd af34 85bd
00000380: 8002 9cbd 40ec 9dbd ddf8 42bd 9912 95ba
00000390: 4c7f b03b 2a75 443d 9984 a3bc f83b ac3d
000003a0: b0fb 8abd 4aad 98bd 474a 973c 907b b93c
000003b0: 69a4 76bd afbe cbbd db3a ad3b 6e61 283d
000003c0: 8e7b 47be 6a6b b73b 6bb7 5fbb d7b8 edbd
000003d0: 47ee b53c bc89 003c 99f8 f3bd 14bb a6bd
000003e0: 9348 50be 24ca f5bc b33f 29bd af60 4c3d
000003f0: e6e3 e5bc e187 d53c 5e61 39bd b710 ebbd
-0.044678442 0.046078686 -0.073293895 -0.043547485 0.084677614 0.03692195 -0.048084885 0.08016123
-0.08881571 -0.091068685 0.030016176 0.08162954 0.06333508 -0.09648057 0.010108643 0.104240775
0.07271443 0.07235759 -0.03972644 0.054356728 0.086158685 -0.09180592 0.012812562 -0.04523131
0.107191026 -0.015274023 0.05952334 -0.05138424 0.038089987 0.003955403 -0.0007460158 0.021530457
0.06601942 0.08981407 -0.110932656 0.10246209 -0.09605928 -0.04969831 0.00044410347 0.040441398
-0.020752646 -0.047699377 -0.10560379 -0.088095196 -0.03938833 -0.090123154 0.02513343 -0.01888507
-0.064900756 0.13881348 -0.051251516 0.021086376 -0.0041459934 -0.09629988 0.04371118 0.11233388
0.052041154 0.08105921 -0.007898853 0.010868589 -0.020597605 -0.119706705 0.035948344 0.07610826
-0.079129346 -0.077867985 -0.101212986 -0.17500798 -0.025182696 0.10325411 -0.0709299 0.08183015
-0.06794692 -0.07528194 0.05457004 0.0545038 -0.054144055 -0.11235198 0.09625942 0.038516495
0.047924217 -0.0023959884 -0.057892505 -0.036682703 -0.07671964 0.08654432 0.053409632 0.06845041
0.046684552 -0.008843051 0.022871811 0.033274 0.002003069 -0.015523789 0.044259965 0.023512848
-0.018852307 -0.026755696 0.018719174 0.11131104 0.058673967 -0.056921393 0.0016558169 -0.10880284
-0.017579915 -0.05585809 0.020794328 -0.0074922317 0.034807198 -0.016223943 0.05034968 -0.12486334
0.008959391 -0.03339159 -0.06531047 0.087085836 0.0061939927 -0.07638948 -0.106805936 -0.056336615
-0.056522638 0.003318037 -0.033242155 -0.15006624 -0.0320502 0.05352679 -0.020307576 -0.052394263
-0.11971544 0.14278412 -0.08294569 -0.011131363 0.07646576 -0.070157416 0.1130825 -0.0937175
0.05043034 0.083743215 -0.030071078 0.040113308 0.120352335 -0.024854263 -0.09683444 0.15513794
0.04811007 -0.077864885 0.02490162 -0.07001626 0.015440676 0.11161314 -0.027676143 -0.008122622
0.07663331 -0.09528356 0.05209434 0.106069885 -0.10461869 0.03882747 0.0031424412 0.017141262
0.08278288 -0.068035774 -0.06332465 -0.051232446 -0.06824636 -0.0065576313 -0.012993244 -0.056508742
-0.080075726 0.0989851 -0.035430443 0.06508744 0.049795 -0.07708089 -0.027864944 -0.120406516
-0.061039716 -0.11552271 0.010222942 0.029723005 0.052795943 0.04254625 0.05109775 0.0618112
0.080135755 0.072878666 0.035998143 -0.027418336 0.07673656 0.090666704 -0.051134598 0.006693164
-0.08993049 0.039153505 0.0013317178 0.07628225 -0.1312335 0.040614758 -0.016596572 0.023068028
-0.0727083 -0.045559682 -0.03933649 0.01315244 -0.005306123 -0.0917259 -0.032321386 -0.040536385
-0.098221526 -0.005530261 0.047173947 -0.021970129 0.12151282 0.018923467 -0.018697957 0.013086337
0.0059230747 0.045475334 0.053303678 -0.08952989 -0.05758225 -0.019571133 -0.08319589 -0.06504189
-0.07617664 -0.07711077 -0.047600616 -0.001137334 0.0053862687 0.0479633 -0.019960688 0.08409876
-0.06786287 -0.07454927 0.018468035 0.022641927 -0.060215387 -0.099484794 0.005286557 0.04110854
-0.19480726 0.0055975216 -0.0034136425 -0.11607521 0.022208346 0.007845338 -0.119126506 -0.08141151
-0.20340185 -0.030003615 -0.041320514 0.049896892 -0.028062772 0.026065769 -0.045258872 -0.114777975
