src/runs/ann_left_hand/20241106/20241106-1528/ann_left_hand_5_layers_best.pth (torch, 321584 bytes, 34 tensors)

network.0.weight f4 [126, 141]
0.03659427 -0.01765181 0.017512493 -0.00030334617 0.025404384 0.018640345 0.059378184 -0.032227337
-0.056324042 -0.032376934 -0.031724792 -0.0041624038 0.020368023 -0.035496294 -0.019346425 -0.044168692
-0.037578996 0.019759636 0.011866359 0.061792217 -0.029670026 -0.017253414 -0.01578178 -0.02537635
0.022636238 -0.0073697846 0.014489621 0.0005553297 -0.025164874 0.008975704 -0.0338828 0.03801014
-0.06441094 0.02547935 -0.006987601 0.03178257 -0.012671848 -0.0044522113 0.019374464 -0.0067506963
0.076525606 0.005275645 -0.07204614 0.07817158 0.04485714 -0.024440886 0.0010357334 -0.052674092
0.026920998 -0.055355676 -0.0032454848 0.009309835 0.050158612 -0.032312084 -0.010632248 0.013520051
0.0024532105 0.030491214 -0.034789048 -0.007032837 0.0073393146 -0.005088521 -0.0014122432 0.019746521
-0.044415466 0.053078245 -0.061314713 -0.0224514 0.01750171 -0.02798238 -0.040933125 0.031454064
0.00048802127 0.010028291 0.0009031774 -0.018775124 -0.008027941 0.047936935 0.0142158205 0.018830968
-0.010608591 0.0052241846 -0.059927136 -0.008291043 -0.008269643 -0.034564037 0.007881564 -0.03499669
-0.028807089 0.091905475 -0.041999117 0.037004255 -0.054606214 0.011697437 -0.011703701 -0.0063000363
-0.022587115 0.03893849 -0.023177607 -0.07711004 -0.06468659 -0.019217841 -0.007229806 -0.06270266
-0.009224118 0.00840981 -0.024767332 0.031964585 0.0297993 0.059120502 0.032690644 -0.04418074
0.062019806 0.008564501 -0.009294122 -0.07727058 -0.12105001 -0.011705188 0.02419474 -0.0042032823
-0.05134103 -0.022656677 0.0004270572 0.010649763 -0.0663855 -0.006969239 -0.010682029 -0.018596927
0.014957017 0.013412845 0.025928557 0.026388071 -0.061765388 0.02350559 0.0014960038 -0.0019038797
-0.2284976 0.2629312 -0.04044193 -0.0041695833 -0.041230727 0.114020474 0.052102316 -0.016801987
0.08902096 0.10326285 0.15948568 0.14683568 0.045875065 0.10324705 0.06901979 0.09113238
0.038365018 0.07783481 0.19482097 0.050796334 0.04624704 0.12579364 0.025168052 0.09852584
0.14500558 0.06055136 -0.037628427 -0.039074164 0.007576661 -0.008478738 0.009445803 -0.17433275
-0.059699904 -0.043717723 -0.028358081 -0.011025671 -0.05589615 0.07311804 -0.026669933 -0.074451506
0.07628069 0.026129514 0.004946432 -0.06892293 0.069026545 -0.02983441 0.030256793 0.026677521
0.008008036 0.010190107 -0.0040417234 -0.01054522 -0.17010926 -0.02895134 0.029209165 0.011951203
-0.0045737834 -0.043631375 -0.060859393 -0.012034283 -0.0601041 -0.19605945 -0.112290606 -0.046013925
-0.049427044 -0.18929064 -0.13822551 -0.026665408 -0.026459862 -0.16134764 -0.10847689 0.033078484
0.0126876775 0.047845434 -0.06391239 -0.039469052 0.01754505 0.026448889 0.105192244 0.08265033
0.07088393 -0.017472293 -0.00031410897 -0.007705252 -0.03738093 0.08446094 0.104456745 0.05739956
0.008134346 0.1396139 0.1319811 -0.04646742 -0.038825467 0.05579412 -0.071621954 0.14376593
-0.08558766 -0.11048641 0.03612859 -0.012546153 -0.119017564 -0.0006577883 -0.06430496 -0.044951655
-0.15536492 -0.07468839 -0.051440064 -0.06282414 -0.022235088 -0.08408491 0.024291972 -0.016322467
0.028861038 -0.02252494 0.059775643 0.022961415 -0.059630018 0.038187232 0.105445124 -0.03085632
00000000: e0e3 153d 879a 90bc 5c76 8f3c 6f0a 9fb9
00000010: db1c d03c a3b3 983c 8a36 733d d000 04bd
00000020: 0ab4 66bd ad9d 04bd dbf1 01bd c664 88bb
00000030: d7da a63c 9064 11bd 657c 9ebc 3bea 34bd
00000040: 6fec 19bd f6de a13c 1e6b 423c d619 7d3d
00000050: 8e0e f3bc 0857 8dbc cb48 81bc 10e2 cfbc
00000060: a26f b93c 3c7e f1bb e065 6d3c 8c93 113a
00000070: 9126 cebc d50e 133c b1c8 0abd 85b0 1b3d
00000080: e2e9 83bd 12ba d03c 3ff8 e4bb 712e 023d
00000090: 959d 4fbc dbe3 91bb 32b7 9e3c f234 ddbb
000000a0: 75b9 9c3d 51df ac3b ed8c 93bd 6c18 a03d
000000b0: 1fbc 373d 4138 c8bc 72c1 873a cac0 57bd
000000c0: 6d89 dc3c a2bc 62bd 33b2 54bb 4788 183c
000000d0: 1e73 4d3d ad59 04bd e132 2ebc 3483 5d3c
000000e0: 0bc6 203b b6c8 f93c f67e 0ebd b673 e6bb
000000f0: a27e f03b 9cbd a6bb 051b b9ba 75c3 a13c
00000100: feec 35bd 9368 593d 2325 7bbd 00ec b7bc
00000110: bf5f 8f3c 4e3b e5bc 7ea9 27bd fad5 003d
00000120: 1bdd ff39 b34d 243c 36c3 6c3a 4ace 99bc
00000130: a087 03bc 8559 443d 79e9 683c 6743 9a3c
00000140: a8cf 2dbc a32f ab3b 2876 75bd 28d7 07bc
00000150: 667d 07bc 0593 0dbd ad21 013c b058 0fbd
00000160: d8fc ebbc f038 bc3d 4407 2cbd c691 173d
00000170: c4aa 5fbd 9ba6 3f3c e1c0 3fbc 8970 cebb
00000180: 9d08 b9bc f77d 1f3d f7de bdbc deeb 9dbd
00000190: 677a 84bd bc6e 9dbc 02e8 ecbb 416a 80bd
000001a0: c120 17bc 4dc9 093c dce4 cabc 4ced 023d
000001b0: a91d f43c 5728 723d a0e6 053d ddf6 34bd
000001c0: 7b08 7e3d 1f52 0c3c 6046 18bc 0a40 9ebd
000001d0: 11e9 f7bd 1ec7 3fbc 0c34 c63c b0bb 89bb
000001e0: f94a 52bd 7f9a b9bc a6e6 df39 587c 2e3c
000001f0: 1ff5 87bd 375e e4bb ad03 2fbc 9558 98bc
00000200: 470e 753c 8dc1 5b3c 2068 d43c cc2b d83c
00000210: b4fd 7cbd cc8e c03c 8f15 c43a 9a8b f9ba
00000220: 46fb 69be eb9e 863e 70a6 25bd 00a1 88bb
00000230: 8de1 28bd 9183 e93d 3d69 553d 52a4 89bc
00000240: 9f50 b63d 797b d33d 3750 233e 185c 163e
00000250: 7ee7 3b3d 3073 d33d 3f5a 8d3d 9da3 ba3d
00000260: a324 1d3d db67 9f3d 267f 473e d10f 503d
00000270: 896d 3d3d 0cd0 003e 3b2d ce3c eac7 c93d
00000280: 587c 143e b404 783d 4420 1abd 3b0c 20bd
00000290: a445 f83b 68ea 0abc 92c2 1a3c 4984 32be
000002a0: e387 74bd 5b11 33bd 354f e8bc 04a5 34bc
000002b0: 5df3 64bd e9be 953d e77a dabc 087a 98bd
000002c0: 0d39 9c3d 900d d63c ae15 a23b 7727 8dbd
000002d0: ca5d 8d3d 4b67 f4bc 18dd f73c d18a da3c
000002e0: 2334 033c 68f4 263c 6f70 84bb dcc5 2cbc
000002f0: 1f31 2ebe 5c2b edbc 0f48 ef3c fbce 433c
00000300: addf 95bb d0b6 32bd b347 79bd 712b 45bc
00000310: b72f 76bd cfc3 48be 9ef8 e5bd 1979 3cbd
00000320: 0374 4abd 68d5 41be fd8a 0dbe 6a71 dabc
00000330: 5ac2 d8bc 5138 25be 2229 debd 4e7d 073d
00000340: fadf 4f3c 93f9 433d 80e4 82bd 4daa 21bd
00000350: a3ba 8f3c 57ab d83c 086f d73d 9444 a93d
00000360: 982b 913d 0e22 8fbc feae a4b9 577c fcbb
00000370: bf1c 19bd dbf9 ac3d 6bed d53d cd1b 6b3d
00000380: ec45 053c f2f6 0e3e 0e26 073e 9f54 3ebd
00000390: 7407 1fbd 6088 643d 88ae 92bd 6037 133e
000003a0: 9548 afbd b346 e2bd 93fb 133d 618e 4dbc
000003b0: 7bbf f3bd 6d6f 2cba 52b2 83bd 3a1f 38bd
000003c0: fb17 1fbe 3af6 98bd d1b2 52bd f1a9 80bd
000003d0: 5c26 b6bc b634 acbd f5ff c63c b2b6 85bc
000003e0: fc6d ec3c 3986 b8bc 4ed7 743d 9419 bc3c
000003f0: 9b3e 74bd 376a 1c3d 9df3 d73d 65c6 fcbc

network.0.bias f4 [126]
0.6523605 0.44813234 0.48518568 0.4431626 0.6856327 0.5375114 0.48004058 0.5546179
0.54708755 0.53491503 0.46923688 0.5500292 0.4544802 0.4663581 0.43848795 0.45565495
0.37049764 0.5727882 0.58996916 0.5199222 0.5966663 0.50763595 0.4435226 0.55159914
0.6014276 0.468038 0.609445 0.45925957 0.5300176 0.6337195 0.42638472 0.56326544
0.51517844 0.52658725 0.4910485 0.48584506 0.4368661 0.4858127 0.40095153 0.4932812
0.5902119 0.53650147 0.5200071 0.5675652 0.61381656 0.45946243 0.6353173 0.53679734
0.4876624 0.44678032 0.34553656 0.4819945 0.5220104 0.47895414 0.38824016 0.5899889
0.5122866 0.53591824 0.48753253 0.59956557 0.6351257 0.4846561 0.5772447 0.5024866
0.37694052 0.5934867 0.50384027 0.5094819 0.4888274 0.45569652 0.49820572 0.4979433
0.5509856 0.38956916 0.5445799 0.5896989 0.6297917 0.46460068 0.49713486 0.48326054
0.5436101 0.59068686 0.49527973 0.48618677 0.3460815 0.5042543 0.46856263 0.4601401
0.46989754 0.58160627 0.51774186 0.478037 0.48592812 0.43668488 0.5266364 0.49112862
0.54042506 0.45311946 0.53702635 0.47720507 0.57228297 0.46533665 0.4965382 0.514429
0.5118194 0.54779136 0.5331448 0.4963776 0.5318027 0.5514834 0.55204904 0.54173946
0.44373918 0.44633433 0.5374374 0.52950174 0.4581064 0.45979825 0.48012298 0.47327426
0.5503843 0.4687321 0.58619547 0.5324345 0.49368477 0.40800497
00000000: 1901 273f 9a71 e53e 426a f83e 35e6 e23e
00000010: a085 2f3f 599a 093f e1c7 f53e 70fb 0d3f
00000020: ee0d 0c3f 31f0 083f d13f f03e b7ce 0c3f
00000030: a1b1 e83e 7dc6 ee3e 7e81 e03e 9b4b e93e
00000040: deb1 bd3e 3fa2 123f 3808 173f 9f19 053f
00000050: 1fbf 183f 6ef4 013f 6515 e33e 9a35 0d3f
00000060: 29f7 193f ada2 ef3e 9604 1c3f 1224 eb3e
00000070: 3caf 073f 713b 223f 194f da3e 2a32 103f
00000080: bce2 033f 6cce 063f b66a fb3e afc0 f83e
00000090: eaac df3e 71bc f83e 8549 cd3e 5a8f fc3e
000000a0: 2118 173f 2958 093f 2f1f 053f f44b 113f
000000b0: 1523 1d3f a93e eb3e 28a4 223f 8d6b 093f
000000c0: e3ae f93e 64c0 e43e 2bea b03e fcc7 f63e
000000d0: 79a2 053f 7a39 f53e 6ac7 c63e 8309 173f
000000e0: 3725 033f f031 093f dd9d f93e 217d 193f
000000f0: 9997 223f d824 f83e 4fc6 133f f6a2 003f
00000100: 59fe c03e bfee 173f adfb 003f 686d 023f
00000110: 9647 fa3e 0e51 e93e d214 ff3e 6df2 fe3e
00000120: 640d 0d3f 9c75 c73e 9769 0b3f 82f6 163f
00000130: 073a 213f 24e0 ed3e 7688 fe3e ed6d f73e
00000140: 082a 0b3f 4137 173f 4e95 fd3e 79ed f83e
00000150: 9831 b13e cf16 013f 71e7 ef3e 7c97 eb3e
00000160: 6996 f03e 26e4 143f bb8a 043f 44c1 f43e
00000170: 92cb f83e 2995 df3e a5d1 063f 3675 fb3e
00000180: 4c59 0a3f 46ff e73e 8f7a 093f 3954 f43e
00000190: 2381 123f 9b40 ee3e 413a fe3e 9eb1 033f
000001a0: 9906 033f 0e3c 0c3f 2d7c 083f 3425 fe3e
000001b0: 3924 083f 042e 0d3f 1653 0d3f 70af 0a3f
000001c0: c831 e33e ef85 e43e 7f95 093f 6d8d 073f
000001d0: ec8c ea3e ad6a eb3e aed2 f53e 0151 f23e
000001e0: fce5 0c3f a7fd ef3e e810 163f a14d 083f
000001f0: 40c4 fc3e 07e6 d03e

network.1.running_mean f4 [126]
0.5195319 0.36822656 0.4901823 0.39875677 0.7173149 1.2271581 -0.02745867 0.88852626
0.72750777 -1.3305622 0.3423834 -0.50094557 0.470065 0.2915027 1.005981 -0.033833366
0.7683066 0.20111652 0.5660382 0.26301697 0.57509995 0.75699776 0.6936106 0.76938206
0.73438156 0.061244253 -0.95013154 -1.946621 0.47835827 0.56595784 0.547725 1.2661438
0.98197746 1.9491187 -0.8640342 0.9146428 0.21450593 0.97281486 -0.47000888 0.00793903
0.27663872 -0.6346283 -0.21860258 0.42865983 0.990652 0.08913423 0.77446836 -0.45798093
1.1236761 1.5272048 1.2939993 1.5800343 -0.67970544 -0.63460505 0.6168502 0.37552488
-0.15155354 -0.33947238 1.0605221 0.8696527 1.4554074 0.5308837 1.1626141 1.0510161
1.2409208 0.5785226 1.150356 0.644779 1.0239004 0.24332723 -0.48486868 -0.27786854
0.099942304 0.71568096 0.8545543 0.8656267 1.3972136 0.4144724 0.24009779 -0.40951362
-0.60670394 0.23260786 -0.44034243 1.6018919 1.3352019 1.5936174 -0.5437553 1.3764647
-0.17495337 0.5381555 0.45317587 0.07450276 0.59051085 0.78994024 0.8114539 1.3223
0.8113211 -0.4942881 0.57299614 0.25793022 0.5936648 1.438902 0.52357167 0.16099577
0.45227638 0.57877296 -0.97523355 -0.035349865 -0.5750887 1.6733071 0.36783302 0.4606189
0.4657277 -0.062146127 0.09573433 0.005767709 0.5730381 0.54229116 0.017317059 -0.31279954
1.236398 1.183508 0.77493984 -1.0215856 -0.19520076 0.1321688
00000000: 0b00 053f 3188 bc3e 2df9 fa3e d929 cc3e
00000010: f3a1 373f 8413 9d3f 01f1 e0bc 7576 633f
00000020: f33d 3a3f dd4f aabf e14c af3e f83d 00bf
00000030: 5cac f03e d83f 953e fcc3 803f db94 0abd
00000040: beaf 443f 7df1 4d3e e1e7 103f 29aa 863e
00000050: c039 133f 9bca 413f 7790 313f 39f6 443f
00000060: 6e00 3c3f 41db 7a3d d23b 73bf e02a f9bf
00000070: 60eb f43e 9de2 103f b537 0c3f 0011 a23f
00000080: e062 7b3f b97c f93f 5831 5dbf 0826 6a3f
00000090: 71a7 5b3e 650a 793f 01a5 f0be b512 023c
000000a0: 97a3 8d3e 0077 22bf 5bd9 5fbe 4d79 db3e
000000b0: 5f9b 7d3f 028c b63d 8f43 463f 7a7c eabe
000000c0: 9ed4 8f3f 727b c33f c5a1 a53f 903e ca3f
000000d0: 2d01 2ebf 7a75 22bf e5e9 1d3f cc44 c03e
000000e0: da30 1bbe 53cf adbe 30bf 873f 8fa1 5e3f
000000f0: ca4a ba3f ffe7 073f 8ad0 943f b287 863f
00000100: 7ed6 9e3f 0f1a 143f de3e 933f 3d10 253f
00000110: 2b0f 833f c62a 793e b540 f8be c944 8ebe
00000120: 8dae cc3d de36 373f 12c4 5a3f b699 5d3f
00000130: e5d7 b23f ba35 d43e 32dc 753e c5ab d1be
00000140: f350 1bbf c130 6e3e 9074 e1be cb0a cd3f
00000150: e5e7 aa3f a8fb cb3f 8c33 0bbf ff2f b03f
00000160: fa26 33be 8fc4 093f ab06 e83e e794 983d
00000170: b82b 173f 8639 4a3f 71bb 4f3f 2041 a93f
00000180: bdb2 4f3f 5413 fdbe e0af 123f 6e0f 843e
00000190: 6bfa 173f f12d b83f cb08 063f 13dc 243e
000001a0: c590 e73e 772a 143f e8a8 79bf 05cb 10bd
000001b0: 0339 13bf ed2e d63f 9c54 bc3e 3ed6 eb3e
000001c0: dc73 ee3e f08c 7ebd 5c10 c43d 0dff bc3b
000001d0: a0b2 123f 98d3 0a3f 81dc 8d3c 4327 a0be
000001e0: 4a42 9e3f 317d 973f 7562 463f 51c3 82bf
000001f0: b5e2 47be 4257 073e

network.1.running_var f4 [126]
0.0004649261 0.009154699 0.0057778847 0.007067681 0.0040112855 0.018277008 0.0036187826 0.005673058
0.0061719455 0.011184846 0.0010716832 0.012368429 0.0076879333 0.012380996 0.009240639 0.0008629901
0.006531053 0.006448339 0.0006560923 0.0040150783 0.0011738985 0.0043115974 0.010379943 0.004730057
0.002388059 0.0059711277 0.011843656 0.016834365 0.0029124997 0.0010519526 0.0038281502 0.010867897
0.004653746 0.005158107 0.011982926 0.007390121 0.0055100042 0.004496761 0.0034372245 0.0050221984
0.0011653691 0.008207798 0.008794333 0.00084358326 0.0046048267 0.009599829 0.0049254335 0.0052026357
0.0049809082 0.006839289 0.0047740773 0.0037777855 0.00714766 0.003364017 0.003201048 0.0037850665
0.0044813654 0.0065161325 0.004370952 0.0049491273 0.007255191 0.0034487282 0.0040043183 0.0053992835
0.0028809959 0.0015845268 0.007388648 0.0042252573 0.011356608 0.007963074 0.004398694 0.005357852
0.0025311839 0.0013848153 0.004805343 0.004190931 0.0029131642 0.0068759318 0.0015643598 0.0031912725
0.0077513624 0.0033541224 0.013518943 0.008554539 0.005030989 0.010456248 0.0063933223 0.0062882863
0.008670725 0.00068644865 0.006490345 0.006580522 0.002753224 0.0029284463 0.0056572827 0.0061006485
0.005037199 0.0040444774 0.0022069158 0.009978219 0.0021681874 0.010900974 0.017387113 0.0025713013
0.0022468385 0.0072856694 0.014278954 0.008785106 0.007453687 0.009789133 0.0052568107 0.00044835437
0.0032759265 0.002965491 0.0051362296 0.010131099 0.0033068592 0.015897946 0.0057349526 0.006299956
0.006755153 0.012731153 0.008503347 0.012703226 0.01038429 0.0014578071
00000000: 53c1 f339 97fd 153c 6954 bd3b 0198 e73b
00000010: 1a71 833b aab9 953c 1929 6d3b 0fe5 b93b
00000020: 083e ca3b a540 373c b977 8c3a f4a4 4a3c
00000030: 0feb fb3b a9d9 4a3c 0d66 173c 493a 623a
00000040: 7202 d63b 974c d33b 9cfd 2b3a eb90 833b
00000050: 7fdd 993a 4d48 8d3b a310 2a3c 98fe 9a3b
00000060: fb80 1c3b 73a9 c33b e50b 423c 39e8 893c
00000070: a3df 3e3b ace1 893a b4e1 7a3b 440f 323c
00000080: 737e 983b 5605 a93b 0954 443c d428 f23b
00000090: 448d b43b 9159 933b 0f43 613b 4191 a43b
000000a0: 4cbf 983a 007a 063c 1b16 103c ea23 5d3a
000000b0: 16e4 963b 9a48 1d3c 8865 a13b df7a aa3b
000000c0: e336 a33b 1d1c e03b dd6f 9c3b b994 773b
000000d0: eb36 ea3b d776 5c3b acc8 513b e10e 783b
000000e0: 6bd8 923b 4885 d53b 343a 8f3b 4a2c a23b
000000f0: f4bc ed3b 0f04 623b a836 833b 79ec b03b
00000100: 17cf 3c3b e6af cf3a 791c f23b 0774 8a3b
00000110: 1111 3a3c 8e77 023c eb22 903b ec90 af3b
00000120: 38e2 253b b182 b53a 2476 9d3b 1454 893b
00000130: c9ea 3e3b 7f4f e13b 340b cd3a ab24 513b
00000140: 24ff fd3b d6d0 5b3b 8f7e 5d3c 5628 0c3c
00000150: ffda a43b af50 2b3c 137f d13b f80d ce3b
00000160: a80f 0e3c caf2 333a f6ac d43b 6ba1 d73b
00000170: 6f6f 343b 2deb 3f3b ba60 b93b f3e7 c73b
00000180: 160f a53b 8987 843b e7a1 103b af7b 233c
00000190: 2618 0e3b 009a 323c 6b6f 8e3c 4783 283b
000001a0: b23f 133b a0bc ee3b 46f2 693c 68ef 0f3c
000001b0: 0f3e f43b 9a62 203c 5341 ac3b 1b11 eb39
000001c0: edb0 563b af58 423b d14d a83b e9fc 253c
000001d0: e4b7 583b 693c 823c 45ec bb3b dc6f ce3b
000001e0: 555a dd3b 5396 503c 9f51 0b3c 3121 503c
000001f0: de22 2a3c e413 bf3a

network.3.weight f4 [100, 126]
0.115667805 0.010404226 -0.0015390097 0.011518947 0.037674744 0.0008054233 0.069297485 -0.08686606
0.0047646062 -0.0175531 -0.048710234 0.052853424 0.10448919 0.13539815 -0.040707022 -0.10198699
-0.017043432 -0.07645407 0.12044949 0.13174585 -0.07107845 0.095403515 0.098785646 0.09176691
-0.05170288 -0.062644854 -0.09498563 0.04670974 0.016767517 -0.014158002 0.055858497 -0.10347206
0.038152635 -0.0023235013 0.056305435 0.041765504 -0.056310132 -0.10378637 0.099709876 -0.013875047
-0.03874837 0.07192957 0.048799265 0.032691427 0.07813061 -0.1662282 0.16240308 -0.046140816
-0.007886915 -0.032467883 -0.008432843 -0.05306186 -0.012374085 -0.050006464 -0.06493287 0.061083507
0.037068423 -0.014435337 0.037610892 -0.02683127 0.092935875 0.0018839737 0.0322825 0.002215865
-0.074225076 -0.097125895 0.1627356 0.061193157 0.17682807 0.0487113 0.09100233 -0.05922645
-0.039123774 -0.08445217 -0.008890592 0.052372877 0.1900349 0.054468498 -0.1117131 0.051219884
-0.06061788 -0.004554993 -0.05721731 -0.03902043 -0.039839316 0.089295745 -0.10955334 -0.016366756
0.01586197 -0.006787381 -0.06202254 0.052012574 0.016870828 -0.04270188 -0.051094092 -0.03274792
-0.05413914 0.015776 0.0153119955 -0.020062855 0.18392205 -0.022064988 -0.013447156 0.027433235
0.02118422 -0.040884174 -0.0734918 -0.050406747 0.118981645 0.0035142123 -0.091776796 -0.027176179
0.041706227 -0.038665053 -0.07146079 0.0055035036 -0.038747445 0.09267104 -0.03466892 0.058217186
0.092007846 -0.0055846227 -0.0020812918 -0.083297394 -0.10325527 -0.057132572 -0.05003117 0.07591
-0.05492513 -0.12210599 -0.0055067167 0.0783112 0.07502268 -0.070565954 -0.05174267 0.005078139
-0.054436244 -0.018989189 0.09784223 0.011272852 -0.0762331 -0.06807174 -0.05354341 0.15383427
0.036063228 -0.022272624 -0.076662034 -0.16956872 -0.15076123 0.04670693 0.10581099 0.0420821
0.009764303 -0.020392848 0.029265229 -0.06262553 -0.07506086 0.14199221 -0.08592713 0.039689302
0.02872619 0.06605953 0.13063502 0.04677329 -0.057503622 -0.10476329 -0.061777577 -0.073985286
-0.12052104 -0.02951199 0.02771739 0.01336236 0.031834822 -0.028149031 -0.011196845 0.026084825
0.07751735 0.08353951 -0.00736394 0.0061192424 0.05384875 -0.0612875 -0.067007355 -0.005493605
0.13408402 -0.0069491826 0.08587839 0.040915933 0.065192826 -0.038910322 -0.030313008 -0.010188688
0.0447509 0.06766025 -0.04059817 0.062085595 0.003339133 -0.06698238 0.07337535 -0.0789999
-0.07522855 0.00018833992 0.093916744 -0.06942957 0.076877296 0.046075802 -0.054476514 -0.06871055
0.005101762 0.08696586 -0.06480677 -0.07095724 -0.042197276 0.045311343 -0.09312907 0.05185205
0.0041205217 0.13000742 -0.011137069 0.050045848 0.07133475 0.055968277 -0.027818209 0.04088387
0.05980382 0.0740628 0.03440078 -0.024883147 -0.003204593 0.020064987 -0.03499199 0.018429331
-0.04860102 -0.10711344 -0.0044094515 0.009019768 -0.030904187 0.05372273 -0.028622292 -0.015619885
-0.12124572 -0.123964064 0.12037448 -0.15451491 0.058902305 0.032983728 0.027525181 -0.048060827
0.026544424 -0.047789328 -0.05769994 -0.031222947 -0.050682716 0.06745059 -0.0041394294 0.0642236
00000000: 3ee3 ec3d 7d76 2a3c 99b8 c9ba f7b9 3c3c
00000010: d550 1a3d 0b23 533a d7eb 8d3d d5e6 b1bd
00000020: 6a20 9c3b 85cb 8fbc 6284 47bd d57c 583d
00000030: 6efe d53d d0a5 0a3e 68bc 26bd 8ede d0bd
00000040: ab9e 8bbc f493 9cbd 39ae f63d 62e8 063e
00000050: 9491 91bd eb62 c33d 2150 ca3d 4af0 bb3d
00000060: 66c6 53bd f24b 80bd d387 c2bd b652 3f3d
00000070: 085c 893c f7f6 67bc e1cb 643d 29e9 d3bd
00000080: f045 1c3d e245 18bb 87a0 663d 4e12 2b3d
00000090: 74a5 66bd f38d d4bd b134 cc3d 2a54 63bc
000000a0: 9cb6 1ebd cf4f 933d bde1 473d 72e7 053d
000000b0: f102 a03d ba37 2abe fe4c 263e 27fe 3cbd
000000c0: 1e38 01bc 0bfd 04bd e829 0abc 6557 59bd
000000d0: adbc 4abc 94d3 4cbd 86fb 84bd b332 7a3d
000000e0: 0fd5 173d 3182 6cbc e10d 1a3d 40cd dbbc
000000f0: 2a55 be3d abef f63a a83a 043d 0c38 113b
00000100: 5103 98bd f1e9 c6bd 29a4 263e ada5 7a3d
00000110: 6b12 353e 8085 473d 6e5f ba3d 6f97 72bd
00000120: 4040 20bd 42f5 acbd d8a9 11bc f184 563d
00000130: 8298 423e 5c1a 5f3d d6c9 e4bd f1cb 513d
00000140: 744a 78bd 0d42 95bb b35c 6abd e3d3 1fbd
00000150: 8d2e 23bd b0e0 b63d 805d e0bd 9313 86bc
00000160: f6f0 813c ae68 debb 590b 7ebd 230b 553d
00000170: b134 8a3c 2be8 2ebd 0a48 51bd af22 06bd
00000180: 01c1 5dbd ac3c 813c 2adf 7a3c db5a a4bc
00000190: 1056 3c3e a2c1 b4bc 7651 5cbc aabb e03c
000001a0: 888a ad3c 2a76 27bd de82 96bd 4e77 4ebd
000001b0: a6ac f33d b34e 663b 79f5 bbbd 94a0 debc
000001c0: 26d4 2a3d 3f5f 1ebd 095a 92bd bc56 b43b
000001d0: a4b5 1ebd 50ca bd3d ff00 0ebd 2575 6e3d
000001e0: 9c6e bc3d 36ff b6bb 4866 08bb d397 aabd
000001f0: 8077 d3bd d803 6abd 7ced 4cbd b476 9b3d
00000200: 2cf9 60bd b512 fabd b071 b4bb 9f61 a03d
00000210: 7ea5 993d e284 90bd 1ff0 53bd 8466 a63b
00000220: 8af8 5ebd 378f 9bbc 8261 c83d c5b1 383c
00000230: 1920 9cbd 3269 8bbd 5650 5bbd bb86 1d3e
00000240: 09b7 133d 1475 b6bc fc00 9dbd 6ca3 2dbe
00000250: 2761 1abe c44f 3f3d 6fb3 d83d 485e 2c3d
00000260: 75fa 1f3c e70e a7bc a2bd ef3c d041 80bd
00000270: 82b9 99bd 6866 113e 90fa afbd 4091 223d
00000280: 3053 eb3c 384a 873d 30c5 053e 5995 3f3d
00000290: eb88 6bbd 238e d6bd 7c0a 7dbd 9985 97bd
000002a0: bcd3 f6bd 21c3 f1bc 940f e33c cded 5a3c
000002b0: 3b65 023d cc98 e6bc f972 37bc d8af d53c
000002c0: 6bc1 9e3d c316 ab3d 354d f1bb ed83 c83b
000002d0: 8290 5c3d 9a08 7bbd 273b 89bd b303 b4bb
000002e0: 524d 093e f8b5 e3bb 02e1 af3d 7797 273d
000002f0: d183 853d 6e60 1fbd fc52 f8bc 74ee 26bc
00000300: b84c 373d 7591 8a3d 444a 26bd 774d 7e3d
00000310: 5bd5 5a3b 0f2e 89bd d145 963d b3ca a1bd
00000320: 6d11 9abd 1d7d 4539 6c57 c03d 1731 8ebd
00000330: d871 9d3d fbb9 3c3d c422 5fbd 1eb8 8cbd
00000340: ae2c a73b 281b b23d 69b9 84bd 0852 91bd
00000350: 0dd7 2cbd 6398 393d 74ba bebd d162 543d
00000360: 7105 873b aa20 053e 4178 36bc e0fc 4c3d
00000370: f417 923d fe3e 653d 03e3 e3bc d875 273d
00000380: daf4 743d 3dae 973d d5e7 0c3d bed7 cbbc
00000390: 2604 52bb 545f a43c c353 0fbd 1cf9 963c
000003a0: dd11 47bd 4b5e dbbd 297d 90bb a6c7 133c
000003b0: c72a fdbc 5e0c 5c3d 4c79 eabc 8cea 7fbc
000003c0: ad4f f8bd dfe0 fdbd e586 f63d 2839 1ebe
000003d0: 8b43 713d f219 073d 7d7c e13c 6edb 44bd
000003e0: b173 d93c bebe 43bd c656 6cbd 44c7 ffbc
000003f0: ae98 4fbd 8923 8a3d 0da4 87bb aa87 833d

network.3.bias f4 [100]
0.5042869 0.49601093 0.5075375 0.5025239 0.49786118 0.4999617 0.4928458 0.51505476
0.5286098 0.50154704 0.49387386 0.49852428 0.49244398 0.49870148 0.5000969 0.52273357
0.49894926 0.4903275 0.496306 0.49735638 0.5881373 0.4972572 0.5022892 0.5519129
0.49858573 0.5103154 0.5012446 0.51901364 0.5040766 0.49637994 0.49870443 0.4985411
0.50052845 0.5012386 0.48916456 0.5009746 0.5080021 0.5105412 0.50662726 0.49529937
0.5031298 0.51632327 0.49647206 0.50002646 0.49914068 0.49782485 0.50528175 0.49687487
0.5063224 0.494544 0.48702693 0.4998204 0.48714918 0.5152873 0.5028524 0.5290893
0.5092068 0.4964354 0.49529353 0.50462294 0.49622002 0.5029691 0.49599844 0.50791967
0.49509254 0.50191486 0.5041092 0.49305037 0.5103163 0.48940638 0.49593875 0.48283097
0.50860304 0.49570847 0.49014685 0.5032435 0.5050596 0.5061601 0.5102731 0.5071189
0.49876314 0.50148785 0.50351304 0.5138908 0.5092745 0.5022746 0.49736595 0.49324837
0.50102335 0.49160156 0.5045955 0.48970738 0.49669725 0.49518853 0.49326837 0.49822074
0.501814 0.49877056 0.49869326 0.49582264
00000000: f218 013f 25f5 fd3e faed 013f 68a5 003f
00000010: a9e7 fe3e fbfa ff3e 4956 fc3e a1da 033f
00000020: f952 073f 6365 003f 09dd fc3e 933e ff3e
00000030: 9e21 fc3e cd55 ff3e 5a06 003f ded1 053f
00000040: 4776 ff3e 350c fb3e d21b fe3e 7fa5 fe3e
00000050: 2b90 163f 7f98 fe3e 0696 003f 2a4a 0d3f
00000060: a146 ff3e 08a4 023f 9151 003f 14de 043f
00000070: 2a0b 013f 8325 fe3e 3056 ff3e c740 ff3e
00000080: a222 003f 2c51 003f c773 fa3e df3f 003f
00000090: 6d0c 023f d4b2 023f 53b2 013f e197 fd3e
000000a0: 1dcd 003f c32d 043f 9631 fe3e bc01 003f
000000b0: 5e8f ff3e e6e2 fe3e 255a 013f 6266 fe3e
000000c0: 589e 013f df34 fd3e 985b f93e 76e8 ff3e
000000d0: 9e6b f93e dee9 033f efba 003f 6572 073f
000000e0: 605b 023f c82c fe3e 1d97 fd3e f82e 013f
000000f0: 8d10 fe3e 95c2 003f 82f3 fd3e 0607 023f
00000100: c57c fd3e 7e7d 003f 4d0d 013f 1971 fc3e
00000110: 17a4 023f 7993 fa3e afeb fd3e 9f35 f73e
00000120: cf33 023f 80cd fd3e 87f4 fa3e 91d4 003f
00000130: 964b 013f b593 013f 42a1 023f 8bd2 013f
00000140: e25d ff3e 8261 003f 3be6 003f 598e 033f
00000150: d05f 023f 1195 003f c0a6 fe3e 0d8b fc3e
00000160: 1143 003f 33b3 fb3e 2c2d 013f edba fa3e
00000170: 1a4f fe3e 5a89 fd3e ac8d fc3e ca16 ff3e
00000180: e276 003f db5e ff3e b954 ff3e 77dc fd3e

network.4.running_mean f4 [100]
0.6019845 0.46851268 0.8565551 0.8872836 0.53302705 0.2611417 0.4381214 0.63056874
0.71587193 0.5454894 0.541417 0.4510847 0.2461108 -0.13598785 0.5912015 0.7614447
0.39593336 0.32399598 0.16348895 0.6108741 0.6307538 0.31853223 0.552836 0.5688931
0.46605 0.9166932 0.57367057 0.69287086 0.83601767 0.500554 0.6942851 0.5256811
0.5996613 0.2075496 0.4749681 0.4453805 0.9715888 0.89658886 0.46742985 0.2192657
0.4842173 0.64653033 0.38143298 0.47775337 0.46806124 0.55060446 0.71279156 -0.021861667
0.6347132 -0.030172007 0.5146583 0.82372105 0.063907675 0.42408058 0.486642 0.72650313
0.6911147 0.5257941 0.045037296 0.6485744 0.6681662 0.11081799 0.6675958 0.6470372
0.6205603 0.67877936 0.31101567 0.26611647 0.8344361 0.61065286 0.2750209 0.4810821
0.81307507 0.56216204 0.46057642 0.45440117 0.2659932 0.6828589 0.5583502 0.34880203
0.5946682 0.53389823 0.6262625 0.79849625 1.0641018 0.46561435 0.24670756 0.4656813
0.49947262 0.2946263 0.87287015 0.36685088 0.7996215 0.35573763 0.73318577 0.79725426
0.15833534 0.43896094 0.38288733 0.74193096
00000000: a81b 1a3f e5e0 ef3e 3247 5b3f 0525 633f
00000010: 7674 083f 5db4 853e 7351 e03e f46c 213f
00000020: 6243 373f 31a5 0b3f 4e9a 0a3f 93f4 e63e
00000030: 7804 7c3e 6640 0bbe fb58 173f 0aee 423f
00000040: c7b7 ca3e cde2 a53e a669 273e 3f62 1c3f
00000050: 1579 213f a816 a33e a986 0d3f faa2 113f
00000060: 1b9e ee3e 68ac 6a3f 13dc 123f fc5f 313f
00000070: 4105 563f 4f24 003f abbc 313f 0993 063f
00000080: 6783 193f e287 543e 052f f33e ea08 e43e
00000090: 0bba 783f d986 653f f752 ef3e 3087 603e
000000a0: 54eb f73e 0383 253f 2f4b c33e 179c f43e
000000b0: b9a5 ef3e 6af4 0c3f 8279 363f 3d17 b3bc
000000c0: 907c 223f 492b f7bc a5c0 033f 62df 523f
000000d0: 07e2 823d 1721 d93e 2429 f93e 1cfc 393f
000000e0: e5ec 303f 719a 063f 0779 383d f908 263f
000000f0: f10c 2b3f 8bf4 e23d 8fe7 2a3f 3ba4 253f
00000100: 0add 1e3f 7cc4 2d3f 723d 9f3e 6b40 883e
00000110: 9b9d 553f bf53 1c3f 8acf 8c3e 6550 f63e
00000120: b025 503f dae9 0f3f acd0 eb3e 45a7 e83e
00000130: 4330 883e d7cf 2e3f 0af0 0e3f 2e96 b23e
00000140: 2d3c 183f 8ead 083f bd52 203f 406a 4c3f
00000150: 7d34 883f 0165 ee3e e8a0 7c3e c86d ee3e
00000160: e0ba ff3e 42d9 963e 6b74 5f3f e1d3 bb3e
00000170: ffb3 4c3f 3e23 b63e 10b2 3b3f db18 4c3f
00000180: a922 223e 7dbf e03e cf09 c43e 30ef 3d3f

network.4.running_var f4 [100]
0.21336912 0.4884774 0.3269487 0.96590084 0.55174774 0.35538033 0.11419575 0.30938274
0.12179093 0.33719382 0.06687515 0.22835179 0.3544111 0.80025095 0.5001503 0.13469385
0.3463801 0.22669709 0.26714584 0.27913868 0.058764666 0.38917872 0.3874711 0.24347362
0.2450275 0.19255519 0.17448059 0.26742357 0.395324 0.29193982 0.3324716 0.39241797
0.34550688 0.344701 0.29270914 0.19112986 0.5330405 0.44425878 0.08314201 0.3277848
0.40834355 0.16540043 0.20159963 0.40791458 0.10950308 0.6499816 0.42430526 0.4549941
0.5571766 0.40625983 0.161103 0.57196814 0.5575567 0.102965064 0.1542385 0.27363822
0.28457314 0.09673212 0.26658064 0.60450196 0.8833871 0.48977897 0.30256468 0.22897111
0.5209373 0.15982144 0.07942281 0.1539186 0.43342847 0.14331648 0.29475707 0.38792843
0.19538182 0.30514455 0.32537612 0.17541046 0.11329288 0.6720055 0.12794982 0.10377394
0.5342456 0.44756567 0.3693892 0.22256157 0.78946304 0.22172852 0.39056614 0.18338484
0.15595232 0.17375356 0.27722374 0.2390583 0.80501777 0.25686547 0.7282295 0.37703523
0.26039386 0.13344404 0.6571607 0.3140849
00000000: 6f7d 5a3e b619 fa3e d265 a73e 4745 773f
00000010: 573f 0d3f 69f4 b53e 76df e93d 6a67 9e3e
00000020: 866d f93d aba4 ac3e d7f5 883d 0dd5 693e
00000030: 5f75 b53e 3fdd 4c3f da09 003f 2fed 093e
00000040: bc58 b13e 4823 683e 57c7 883e 44eb 8e3e
00000050: 38b3 703d 6f42 c73e 9d62 c63e 2651 793e
00000060: 7de8 7a3e 302d 453e 0aab 323e beeb 883e
00000070: e867 ca3e 2379 953e b839 aa3e 02eb c83e
00000080: 47e6 b03e a67c b03e f9dd 953e 8cb7 433e
00000090: 5875 083f e375 e33e 5c46 aa3d 69d3 a73e
000000a0: 6812 d13e bb5e 293e 2270 4e3e 2eda d03e
000000b0: 2743 e03d 3265 263f 8a3e d93e fdf4 e83e
000000c0: 20a3 0e3f 4a01 d03e 2ff8 243e 816c 123f
000000d0: 09bc 0e3f 59df d23d b3f0 1d3e 4f1a 8c3e
000000e0: 92b3 913e 7d1b c63d 427d 883e a4c0 1a3f
000000f0: a825 623f 4fc4 fa3e c2e9 9a3e 6777 6a3e
00000100: 265c 053f 3ba8 233e 6da8 a23d d69c 1d3e
00000110: 56ea dd3e 8ec1 123e 66ea 963e 8e9e c63e
00000120: 2c12 483e e83b 9c3e b397 a63e cd9e 333e
00000130: 1906 e83d 8d08 2c3f 4705 033e 6e87 d43d
00000140: 52c4 083f 5427 e53e 9520 bd3e 2ee7 633e
00000150: 401a 4a3f cd0c 633e 49f8 c73e 3cc9 3b3e
00000160: f7b1 1f3e 74ec 313e 45f0 8d3e b3cb 743e
00000170: a515 4e3f df83 833e 406d 3a3f c30a c13e
00000180: 5852 853e 8ea5 083e af3b 283f bccf a03e

network.6.weight f4 [100, 100]
0.058452222 0.015092674 -0.091281034 0.046886466 0.08862379 0.020454496 0.0035713366 0.050613265
-0.062928215 0.09740935 -0.073935956 -0.019461729 -0.12959549 0.02921351 -0.027864335 0.11037368
-0.01778513 -0.05102936 0.093358114 0.036711603 -0.08799831 -0.011838737 -0.025340164 0.121246874
0.06401336 0.12796459 0.11422436 0.07985222 0.099723674 -0.11052557 -0.009466461 0.044913623
-0.080177255 0.09816958 -0.06606475 0.08467687 0.018823616 0.0846962 0.08193827 -0.09428322
-0.13424668 0.057401128 0.0847389 0.035986114 -0.026373267 0.10204264 0.11177467 0.18040629
0.12809744 -0.011942832 0.010739894 -0.016161848 0.07757815 0.005515565 0.040755983 0.08141676
0.070799425 -0.0011332893 0.059683997 -0.06223659 0.037286073 0.088888735 0.122172296 0.043802124
-0.046900418 0.10024436 0.077132925 -0.016903752 0.07837979 0.006368178 0.035286777 -0.038639676
0.11346604 -0.022384934 0.01945953 0.18017246 0.048587028 -0.021696487 -0.07835062 -0.0012372553
0.008703373 -0.030341635 0.0025201493 0.05153615 0.11548476 0.03106079 -0.03937315 0.0053163506
0.040246177 -0.10919089 0.09617542 -0.029076789 0.089478955 0.06387788 -0.0012576956 0.0006694034
-0.040291425 -0.05364461 0.08467505 0.08679036 0.017489476 0.036358837 -0.0820354 -0.049446825
-0.091711566 -0.078330554 -0.07135201 -0.1424194 -0.0890489 -0.09313598 -0.068893194 -0.011043416
-0.03742233 -0.13864826 0.05719823 -0.06934804 0.023660148 -0.14262474 -0.083926626 -0.042087723
-0.120388635 -0.026081229 -0.002348806 -0.08225932 0.00869538 -0.015268015 -0.07816865 -0.1605671
-0.038582604 0.0026134804 0.09355052 -0.047663137 -0.005060688 -0.0781013 -0.1167556 0.0317596
-0.032246027 -0.00027165946 0.010321413 -0.07552046 -0.00369474 -0.09770956 -0.061782375 0.04267997
0.043960243 -0.008942267 0.05266869 -0.055777982 -0.049849108 -0.18104632 -0.018060453 0.026464557
-0.026606655 -0.021305114 -0.036052335 -0.057008266 -0.015554434 -0.20126031 0.059185706 0.016725522
0.14459617 -0.032843992 -0.03886906 -0.070624314 -0.044953946 0.08670938 0.21305704 0.002755383
-0.013346343 0.004030851 0.0063267467 -0.07650134 -0.035825655 0.016722882 -0.032773767 -0.05642386
-0.0831082 -0.029745877 0.031986866 -0.026187427 0.016786205 -0.05837249 0.009556288 -0.00959697
0.009591595 0.061607923 -0.0777179 0.1267566 0.14224121 0.032719895 0.017089799 -0.021223621
0.047186065 -0.15934992 0.0035148736 0.04503281 -0.030614192 -0.016833683 -0.023812626 -0.033233277
-0.020210683 0.063902445 0.0075995065 0.09912742 0.03562733 -0.13963296 -0.061861794 0.094277725
0.040659174 0.008694962 0.05798396 0.06570252 0.14043625 0.08681543 -0.019938158 0.036925334
0.0385983 -0.09134933 -0.120893106 0.049927402 -0.092685714 -0.076548725 -0.08527245 -0.031353183
-0.010736172 -0.059969842 -0.08493828 0.080041654 -0.047837716 -0.023171049 -0.004831427 -0.07162536
0.03996137 -0.10080771 -0.05948346 -0.093184076 0.083906576 -0.053675998 0.10641908 -0.010346237
-0.14315046 0.058805726 0.0036436163 -0.011122674 -0.0466599 0.03781231 -0.12067808 -0.004576473
0.19755949 -0.077488594 -0.020383384 -0.013008631 -0.12606251 -0.06974052 0.05033293 -0.13782988
00000000: 996b 6f3d 4347 773c 8df1 babd 060c 403d
00000010: 6480 b53d 3090 a73c 160d 6a3b db4f 4f3d
00000020: 82e0 80bd 8e7e c73d bc6b 97bd 346e 9fbc
00000030: aeb4 04be 2c51 ef3c bf43 e4bc 990b e23d
00000040: 1fb2 91bc 2a04 51bd 8a32 bf3d e85e 163d
00000050: 7538 b4bd 43f7 41bc 2d96 cfbc 4850 f83d
00000060: 7019 833d 2609 033e 76ee e93d 9089 a33d
00000070: ed3b cc3d 3b5b e2bd 3719 1bbc 59f7 373d
00000080: f933 a4bd 220d c93d f54c 87bd 116b ad3d
00000090: fc33 9a3c 3475 ad3d 40cf a73d 9017 c1bd
000000a0: f677 09be 721d 6b3d 978b ad3d 2d66 133d
000000b0: c00c d8bc bbfb d03d 1eea e43d 6dbc 383e
000000c0: fa2b 033e deab 43bc 61f6 2f3c da65 84bc
000000d0: 4be1 9e3d eabb b43b bfef 263d d5bd a63d
000000e0: 4aff 903d e18a 94ba 3577 743d cbeb 7ebd
000000f0: 48b9 183d 4c0b b63d 7835 fa3d db69 333d
00000100: a71a 40bd ea4c cd3d def7 9d3d bd79 8abc
00000110: 9585 a03d 26ac d03b de88 103d a344 1ebd
00000120: e260 e83d 9c60 b7bc 9869 9f3c 217f 383e
00000130: 3103 473d d5bc b1bc 4a76 a0bd 662b a2ba
00000140: 9898 0e3c 058f f8bc 1729 253b 9217 533d
00000150: 4683 ec3d 3373 fe3c bd45 21bd c834 ae3b
00000160: 2dd9 243d 799f dfbd 9ef7 c43d 7232 eebc
00000170: be40 b73d 68d2 823d 43d9 a4ba e77a 2f3a
00000180: 9f08 25bd 73ba 5bbd 1d6a ad3d 25bf b13d
00000190: 1746 8f3c 01ed 143d 2d02 a8bd c188 4abd
000001a0: 46d3 bbbd c56b a0bd 0121 92bd 64d6 11be
000001b0: 455f b6bd 14be bebd e017 8dbd 72ef 34bc
000001c0: 2848 19bd cff9 0dbe b148 6a3d 5806 8ebd
000001d0: edd2 c13c 380c 12be b9e1 abbd 2d64 2cbd
000001e0: 518e f6bd 4da8 d5bc 6dee 19bb 9377 a8bd
000001f0: 1177 0e3c b226 7abc e316 a0bd b46b 24be
00000200: cb08 1ebd ed46 2b3b 6a97 bf3d 6c3a 43bd
00000210: 21d4 a5bb 93f3 9fbd 8f1d efbd 5b16 023d
00000220: 6914 04bd 846d 8eb9 251b 293c 79aa 9abd
00000230: 7323 72bb f31b c8bd 840f 7dbd 31d1 2e3d
00000240: a80f 343d 9682 12bc 20bb 573d 7477 64bd
00000250: 942e 4cbd 3564 39be 84f3 93bc 33cc d83c
00000260: 33f6 d9bc 1088 aebc 9dab 13bd 8081 69bd
00000270: 06d8 7ebc 2f17 4ebe b66c 723d f603 893c
00000280: 0511 143e 6c87 06bd 2a35 1fbd 7ba3 90bd
00000290: a121 38bd b094 b13d a02b 5a3e a893 343b
000002a0: 9faa 5abc 3b15 843b 9950 cf3b bcac 9cbd
000002b0: ecbd 12bd 6dfe 883c c93d 06bd b51c 67bd
000002c0: a234 aabd a0ad f3bc a904 033d 0487 d6bc
000002d0: 3983 893c fe17 6fbd fa91 1c3c 9c3c 1dbc
000002e0: 1126 1d3c 9758 7c3d 902a 9fbd 7bcc 013e
000002f0: aea7 113e 4c05 063d e8ff 8b3c 29dd adbc
00000300: 2d46 413d a02c 23be cb59 663b 5374 383d
00000310: 9dca fabc cbe6 89bc b212 c3bc 9e1f 08bd
00000320: e090 a5bc 49df 823d 4805 f93b 5103 cb3d
00000330: f7ed 113d f1fb 0ebe cb62 7dbd ae14 c13d
00000340: 3c8a 263d 5075 0e3c 9780 6d3d 0b8f 863d
00000350: 85ce 0f3e 4acc b13d 5955 a3bc 053f 173d
00000360: 4019 1e3d 5c15 bbbd ce96 f7bd ad80 4c3d
00000370: 02d2 bdbd 94c5 9cbd 52a3 aebd 326c 00bd
00000380: c5e6 2fbc f0a2 75bd 1ff4 adbd e1ec a33d
00000390: 7bf1 43bd 36d1 bdbc f250 9ebb 51b0 92bd
000003a0: 89ae 233d 4674 cebd eea4 73bd 4bd7 bebd
000003b0: 36d7 ab3d 5ddb 5bbd 3ff2 d93d 4383 29bc
000003c0: 0996 12be 46de 703d bdc9 6e3b e03b 36bc
000003d0: 741e 3fbd 15e1 1a3d 1226 f7bd 3df6 95bb
000003e0: 094d 4a3e 57b2 9ebd 0efb a6bc 2722 55bc
000003f0: 8816 01be 1ed4 8ebd e729 4e3d 4723 0dbe

network.6.bias f4 [100]
0.55445564 0.49982664 0.49763364 0.49904367 0.49477422 0.5158688 0.5195476 0.5347924
0.5218927 0.49675912 0.50049734 0.5081901 0.50976676 0.4981896 0.5244872 0.49418467
0.4988936 0.499862 0.51607317 0.5111149 0.49927732 0.50423086 0.4969846 0.49823183
0.49426937 0.50636476 0.5229532 0.50583524 0.5196345 0.4870999 0.5009339 0.48269075
0.5071019 0.4967497 0.5199939 0.48759785 0.49276787 0.5253356 0.4951409 0.4938862
0.5049083 0.50507516 0.49871424 0.5034378 0.49206755 0.5003284 0.49446294 0.501988
0.5007861 0.5089767 0.49403036 0.5053875 0.49157572 0.5103861 0.49773815 0.5024064
0.49632794 0.53654903 0.4935378 0.49692994 0.5157093 0.4839787 0.49954614 0.49863097
0.51007605 0.48828903 0.49564797 0.5110431 0.54085237 0.49957785 0.5182253 0.48967984
0.503174 0.4967872 0.50271654 0.49978256 0.5227413 0.5010132 0.49575672 0.50001943
0.49262953 0.5067828 0.48951218 0.5063565 0.5527494 0.50055504 0.50549334 0.49614245
0.49435014 0.49366468 0.52867186 0.54837173 0.49939588 0.5039795 0.519283 0.55814016
0.50372714 0.5098942 0.52083385 0.50040066
00000000: cef0 0d3f 47e9 ff3e d6c9 fe3e a782 ff3e
00000010: 0c53 fd3e fa0f 043f 1201 053f 28e8 083f
00000020: c39a 053f 3657 fe3e 9820 003f bf18 023f
00000030: 1380 023f b512 ff3e cb44 063f c605 fd3e
00000040: fb6e ff3e e9ed ff3e 5f1d 043f 6dd8 023f
00000050: 47a1 ff3e 4615 013f c474 fe3e 3e18 ff3e
00000060: e010 fd3e 1fa1 013f 43e0 053f 6b7e 013f
00000070: c406 053f 2865 f93e 343d 003f 3e23 f73e
00000080: 6ed1 013f fa55 fe3e 521e 053f 6da6 f93e
00000090: 124c fc3e 657c 063f 1c83 fd3e a7de fc3e
000000a0: ac41 013f 9b4c 013f 7957 ff3e 4de1 003f
000000b0: 47f0 fb3e 8615 003f 3f2a fd3e 4982 003f
000000c0: 8533 003f 4c4c 023f 8cf1 fc3e 1361 013f
000000d0: d0af fb3e aaa8 023f 89d7 fe3e b59d 003f
000000e0: b21e fe3e 475b 093f fdb0 fc3e 9a6d fe3e
000000f0: 8605 043f 0ecc f73e 83c4 ff3e 8f4c ff3e
00000100: 5894 023f 0501 fa3e 92c5 fd3e b8d3 023f
00000110: 4d75 0a3f abc8 ff3e 6aaa 043f 51b7 fa3e
00000120: 03d0 003f e45a fe3e 08b2 003f 80e3 ff3e
00000130: 60d2 053f 6742 003f d3d3 fd3e 4601 003f
00000140: f039 fc3e 85bc 013f 57a1 fa3e 94a0 013f
00000150: fc80 0d3f 6024 003f 0368 013f 6206 fe3e
00000160: 761b fd3e 9ec1 fc3e 0a57 073f 1762 0c3f
00000170: d1b0 ff3e cd04 013f bbef 043f 46e2 0e3f
00000180: 43f4 003f 6d88 023f 5e55 053f 421a 003f

network.7.running_mean f4 [100]
1.0540245 0.019439125 0.2972297 0.38248903 0.76275927 0.3797965 0.5544132 0.5192857
0.45106393 0.524427 0.6009005 0.48950693 0.34190091 0.24612038 0.41864166 0.30718425
0.44559678 0.40973732 0.8850258 0.88899714 0.33522537 0.55761117 0.36248025 0.5590176
0.38782957 0.6124381 0.605653 0.7904703 0.80662477 0.5343763 0.52493465 0.3770808
0.6396419 0.45326194 0.697821 0.46053094 0.45490432 0.6069523 0.2988445 0.4380885
0.5619698 0.5775829 0.48202989 0.8299275 0.35394564 0.5989303 0.21858582 0.7056559
0.50663483 0.5508965 0.22093613 0.7593714 0.49834505 0.5086524 0.33007166 0.65444404
0.3510698 0.499284 0.23369138 0.6102934 0.21058847 0.4994164 0.7696225 0.63411003
0.5178303 0.42602134 0.21367724 0.6230917 0.5858225 0.3255011 0.45196405 0.59504163
0.59196794 0.61954194 0.62784934 0.29585013 0.84653306 0.13026637 0.38725266 0.16110337
0.5411543 0.7510637 0.50316143 0.33920535 0.6187492 0.5158704 0.36041585 0.27190456
0.33521098 0.25841853 0.96828586 0.7301869 0.11480967 0.67026746 0.6792325 0.8493083
0.46562433 0.81694084 0.6524167 0.73436314
00000000: 46ea 863f cd3e 9f3c 7e2e 983e 9ad5 c33e
00000010: 3144 433f b074 c23e 06ee 0d3f e8ef 043f
00000020: daf1 e63e d940 063f 9dd4 193f a7a0 fa3e
00000030: a30d af3e fb06 7c3e 3358 d63e 4147 9d3e
00000040: 4325 e43e 17c9 d13e 0d91 623f 5195 633f
00000050: a9a2 ab3e 9bbf 0e3f 0397 b93e c71b 0f3f
00000060: 9991 c63e bec8 1c3f 130c 1b3f 435c 4a3f
00000070: f67e 4e3f e3cc 083f 1e62 063f bc10 c13e
00000080: 92bf 233f f311 e83e 66a4 323f b6ca eb3e
00000090: 38e9 e83e 3a61 1b3f 2502 993e 234d e03e
000000a0: 41dd 0f3f 79dc 133f 9fcc f63e 2176 543f
000000b0: 5d38 b53e 7f53 193f f6d4 5f3e dda5 343f
000000c0: d2b2 013f 8e07 0d3f 153d 623e 2a66 423f
000000d0: 1527 ff3e 0b37 023f 27ff a83e a589 273f
000000e0: 6cbf b33e 27a2 ff3e cb4c 6f3e 303c 1c3f
000000f0: 81a4 573e 82b3 ff3e fb05 453f 0955 223f
00000100: 8790 043f 781f da3e 35ce 5a3e f082 1f3f
00000110: 77f8 153f 15a8 a63e d567 e73e a654 183f
00000120: 368b 173f 4d9a 1e3f bcba 203f ab79 973e
00000130: 64b6 583f 8c64 053e fb45 c63e 48f8 243e
00000140: 1789 0a3f b645 403f 30cf 003f 53ac ad3e
00000150: 5966 1e3f 1510 043f 6d88 b83e 1337 8b3e
00000160: c6a0 ab3e 6f4f 843e 95e1 773f 87ed 3a3f
00000170: 5521 eb3d a696 2b3f 2ee2 2d3f 456c 593f
00000180: 5066 ee3e 0923 513f c804 273f 39ff 3b3f

network.7.running_var f4 [100]
0.7064248 0.1685638 0.4886658 0.34508026 0.53504586 0.08861505 0.09595404 0.12845829
0.07921734 0.4332607 0.20837112 0.22947896 0.1343474 0.13300383 0.14903606 0.4874695
0.144691 0.5605118 0.17478772 0.16780883 0.37741715 0.22945736 0.15611333 0.20508158
0.39989904 0.38583553 0.1265691 0.40922767 0.38529482 0.12611763 0.18808617 0.37332553
0.32437313 0.26758716 0.16362984 0.71683866 0.31121325 0.17031775 0.6456506 0.5118456
0.36760944 0.16248383 0.21111815 0.3414486 0.24283355 0.38923782 0.15280832 0.26578656
0.12843326 0.33589628 0.61307245 0.3036066 0.33582422 0.34677106 0.14506683 0.18974812
0.1121533 0.08584474 0.51129645 0.48445097 0.1259743 0.37117705 0.41282785 0.34937763
0.13069363 0.56793576 0.061653268 0.14401785 0.09138441 0.18021065 0.083022185 0.26916972
0.16362165 0.50287974 0.10611003 0.18994305 0.39198336 0.257367 0.65791273 0.3019758
0.36986443 0.20189252 0.18267554 0.18082215 0.06753418 0.1630869 0.25875986 0.123163626
0.31356794 0.27087486 0.2721527 0.423256 0.4517106 0.54962724 0.29397714 0.22501028
0.38940233 0.24972701 0.09993058 0.5240228
00000000: 41d8 343f fd9b 2c3e 6732 fa3e 5cae b03e
00000010: c4f8 083f cf7b b53d 8d83 c43d 928a 033e
00000020: b33c a23d 59d4 dd3e 3d5f 553e 88fc 6a3e
00000030: 5d92 093e 2832 083e e99c 183e 9a95 f93e
00000040: e129 143e b47d 0f3f 8dfb 323e 14d6 2b3e
00000050: d23c c13e dff6 6a3e 2cdc 1f3e e800 523e
00000060: 91bf cc3e 3c8c c53e 559b 013e 4a86 d13e
00000070: 5d45 c53e fb24 013e a999 403e 8624 bf3e
00000080: 3c14 a63e 2f01 893e 958e 273e bd82 373f
00000090: 5857 9f3e c767 2e3e 5c49 253f 5008 033f
000000a0: 4e37 bc3e 2962 263e 5b2f 583e 5ad2 ae3e
000000b0: 5ca9 783e 2e4a c73e c979 1c3e 2d15 883e
000000c0: 0284 033e 99fa ab3e 51f2 1c3f 5372 9b3e
000000d0: 27f1 ab3e fa8b b13e 668c 143e 554d 423e
000000e0: a1b0 e53d 5ecf af3d 53e4 023f f509 f83e
000000f0: 68ff 003e eb0a be3e 2c5e d33e a0e1 b23e
00000100: 8dd4 053e 3d64 113f 2388 7c3d 6a79 133e
00000110: c027 bb3d 2489 383e 8907 aa3d 9dd0 893e
00000120: 6f8c 273e babc 003f 3750 d93d 6e80 423e
00000130: 0bb2 c83e 9cc5 833e f86c 283f 929c 9a3e
00000140: df5e bd3e eabc 4e3e 4c0f 3b3e 7129 393e
00000150: 5c4f 8a3d 4100 273e 2c7c 843e 363d fc3d
00000160: fa8b a03e 1cb0 8a3e 9957 8b3e 03b5 d83e
00000170: 9d46 e73e 5fb4 0c3f 2c84 963e 1869 663e
00000180: be5f c73e 70b8 7f3e 67a8 cc3d 5c26 063f

network.9.weight f4 [100, 100]
-0.017228475 -0.15292268 -0.010147963 -0.06673772 0.07126554 -0.12723483 0.024132261 -0.058407225
0.002703185 -0.076917455 -0.09180097 0.005762468 -0.13388492 -0.051828627 0.022605358 -0.08713102
0.026390892 -0.10381976 0.043367557 0.052625485 -0.031350553 0.12971291 0.011224419 -0.11261462
-0.08162506 -0.048587456 -0.027415246 0.12732062 0.025900071 -0.04615814 -0.01196858 0.0101665575
-0.016265336 0.01714838 0.04955792 -0.06648911 0.014841938 0.021254469 0.031112209 -0.06116173
-0.012656317 0.052171603 -0.09454847 0.06933621 -0.01817656 -0.058178622 -0.02844023 0.0528612
-0.021434005 0.025883565 0.03627708 0.031833995 0.0716808 -0.020968717 0.020512143 -0.03661635
-0.0050723515 -0.18117838 0.026786992 -0.06968586 -0.031703107 0.15383005 0.064192526 0.02967828
-0.08341943 -0.09111337 0.03133751 0.00028973696 0.11960601 0.00062683685 -0.04629453 -0.060899377
0.04333676 0.06441358 -0.076630026 0.078100674 0.04128324 -0.0018052546 0.0031059764 0.09166778
0.011907924 -0.1263044 0.1059998 0.060497697 0.14761132 0.02580596 0.06429928 -0.22893232
-0.08512527 0.0073645124 0.056550883 -0.033999994 -0.042456392 0.11222356 -0.041688733 -0.064721406
0.11763576 0.12309889 -0.0087242555 -0.06255553 0.10013461 -0.042300526 -0.03925057 -0.05225804
0.109755576 -0.10698059 0.162693 -0.16646925 -0.103425734 -0.004543448 -0.027310902 0.08246755
-0.071657 -0.075862296 -0.10964994 0.103393115 -0.08258434 -0.021188784 -0.031057194 0.040571917
0.043393463 -0.048300516 -0.055190038 -0.051124528 -0.04128697 -0.021288348 0.08476862 -0.04517067
0.083159275 -0.13424224 -0.03276151 0.070198335 -0.08395192 0.11983083 -0.08500512 -0.022182815
-0.022829192 0.08419047 -0.017325921 0.050069187 -0.12831627 -0.0022043586 -0.114297494 -0.046979442
0.14659503 0.13907322 -0.049298856 0.027596489 0.06542974 -0.09160297 0.07165093 -0.075243495
-0.0014518432 -0.059430245 0.025376232 -0.026473302 0.09504229 0.052775815 -0.075311445 -0.00026546884
0.002489583 0.042642824 0.10779637 0.086189404 0.053763807 0.034760304 -0.005854723 0.108294055
-0.082464725 0.05055118 0.12713094 0.034941558 0.05513306 -0.13133782 0.003708569 0.06507256
-0.07303171 0.03761932 -0.111765705 0.061326288 0.06410485 0.0025802925 -0.021166384 0.17880495
0.16177727 -0.05052406 0.14968655 -0.07720104 0.09315169 0.059238642 -0.016320199 0.040887903
-0.012989836 -0.047854107 0.024819728 0.020450374 0.067955054 0.0059235035 0.12643622 0.028386673
-0.089093424 0.044655886 0.06255723 0.058468763 -0.09569299 -0.06359604 0.06861455 0.057950456
0.05194123 -0.055873077 -0.0044133672 0.054547485 -0.025663871 0.095422134 -0.10298054 0.020272342
0.039572194 0.12545747 -0.041906733 0.018578703 0.11825913 0.05662437 -0.1575161 -0.11762888
-0.056478404 -0.086324655 0.1569916 0.07530369 0.00029567472 0.029890802 0.015038712 -0.10611263
-0.045107137 0.06862324 -0.0651005 0.064086504 0.02878135 0.118424736 0.018086186 -0.095555514
0.019307377 0.010187301 0.058527213 -0.040107165 0.10218501 -0.05666167 0.038860895 -0.03141154
0.07675675 0.050002374 -0.028304096 -0.13533957 -0.019873707 0.034172617 0.123962544 0.03110524
00000000: bb22 8dbc c397 1cbe a443 26bc c9ad 88bd
00000010: abf3 913d d949 02be 05b1 c53c 6a3c 6fbd
00000020: eb27 313b e686 9dbd 2602 bcbd 16d3 bc3b
00000030: 2119 09be 414a 54bd df2e b93c c071 b2bd
00000040: b631 d83c 749f d4bd 2ea2 313d d28d 573d
00000050: 7069 00bd 76d3 043e a0e6 373c 7ea2 e6bd
00000060: 0a2b a7bd a403 47bd f095 e0bc 5660 023e
00000070: 632c d43c 5110 3dbd dd17 44bc a291 263c
00000080: e23e 85bc c27a 8c3c 3ffd 4a3d 712b 88bd
00000090: 9a2b 733c da1d ae3c 08df fe3c b984 7abd
000000a0: 715c 4fbc e4b1 553d a1a2 c1bd 2500 8e3d
000000b0: 02e7 94bc b54c 6ebd 7cfb e8bc fc84 583d
000000c0: 5e96 afbc c509 d43c 4797 143d 5d64 023d
000000d0: 62cd 923d 96c6 abbc 1509 a83c 07fb 15bd
000000e0: f835 a6bb d386 39be 6570 db3c 76b7 8ebd
000000f0: 1edb 01bd a085 1d3e 5f77 833d dd1f f33c
00000100: ced7 aabd a699 babd c35b 003d d6e7 9739
00000110: fff3 f43d 4f52 243a 559f 3dbd a071 79bd
00000120: e381 313d 44eb 833d 34f0 9cbd 3ff3 9f3d
00000130: 9d18 293d 4b9e ecba a38d 4b3b 51bc bb3d
00000140: 7419 433c f155 01be 6c16 d93d 6fcc 773d
00000150: 6c27 173e 0567 d33c 57af 833d 3c6d 6abe
00000160: 2856 aebd 0252 f13b e6a1 673d 9443 0bbd
00000170: c1e6 2dbd 77d5 e53d cec1 2abd a88c 84bd
00000180: 04eb f03d 451b fc3d 2ef0 0ebc 1d1d 80bd
00000190: 6013 cd3d 5143 2dbd 35c5 20bd 870c 56bd
000001a0: 88c7 e03d a418 dbbd fe98 263e ea76 2abe
000001b0: dfd0 d3bd 34e1 94bb 1dbb dfbc bfe4 a83d
000001c0: e8c0 92bd b15d 9bbd 2690 e0bd c5bf d33d
000001d0: fa21 a9bd 1a94 adbc a86b febc bd2e 263d
000001e0: 58bd 313d c3d6 45bd f30e 62bd f467 51bd
000001f0: 871c 29bd e764 aebc 2c9b ad3d e104 39bd
00000200: 694f aa3d cc76 09be ef30 06bd 25c4 8f3d
00000210: fcee abbd de69 f53d 2a17 aebd bcb8 b5bc
00000220: 4904 bbbc 0e6c ac3d 17ef 8dbc 5915 4d3d
00000230: 5765 03be 0077 10bb ce14 eabd 846d 40bd
00000240: 021d 163e 3669 0e3e 99ed 49bd 0812 e23c
00000250: 0700 863d 579a bbbd b9bd 923d 4319 9abd
00000260: c64b beba 216d 73bd d1e1 cf3c 8ade d8bc
00000270: 88a5 c23d 742b 583d e33c 9abd a02e 8bb9
00000280: 4628 233b 3eaa 2e3d 58c4 dc3d 1284 b03d
00000290: 7037 5c3d d260 0e3d fad8 bfbb 46c9 dd3d
000002a0: 44e3 a8bd c10e 4f3d 9d2e 023e e11e 0f3d
000002b0: 34d3 613d 6c7d 06be 770b 733b c344 853d
000002c0: a691 95bd b716 1a3d 6be5 e4bd 4631 7b3d
000002d0: 6749 833d 201a 293b 2065 adbc a518 373e
000002e0: f1a8 253e 51f2 4ebd 6e47 193e 941b 9ebd
000002f0: 50c6 be3d 38a4 723d f0b1 85bc 137a 273d
00000300: 52d3 54bc ab02 44bd be52 cb3c 8b87 a73c
00000310: 052c 8b3d f319 c23b 7f78 013e 2b8b e83c
00000320: 9d76 b6bd 17e9 363d 011e 803d f17c 6f3d
00000330: b0fa c3bd a43e 82bd c985 8c3d 755d 6d3d
00000340: 54c0 543d 2bdb 64bd 029e 90bb 2f6d 5f3d
00000350: 0a3d d2bc ae6c c33d 76e7 d2bd 2f12 a63c
00000360: 7416 223d ec77 003e 65a6 2bbd 5d32 983c
00000370: d831 f23d f5ee 673d e74b 21be 69e7 f0bd
00000380: e655 67bd fbca b0bd 68c2 203e d238 9a3d
00000390: ca04 9b39 8edd f43c ee64 763c 9451 d9bd
000003a0: 43c2 38bd 578a 8c3d 6953 85bd c93f 833d
000003b0: dec6 eb3c ab88 f23d 7b29 943c 9cb2 c3bd
000003c0: 812a 9e3c a3e8 263c 3bba 6f3d 6947 24bd
000003d0: 6046 d13d 1116 68bd 9a2c 1f3d 63a9 00bd
000003e0: a532 9d3d 4acf 4c3d fedd e7bc 7596 0abe
000003f0: 2fce a2bc 96f8 0b3d 13e0 fd3d 6bd0 fe3c
