src/runs/ann_left_hand/20241106/20241106-1028/ann_left_hand_3_layers_best.pth (torch, 147078 bytes, 26 tensors)

network.0.weight f4 [63, 141]
000000 d3 31 f1 bd 4e 8e 14 3d 42 51 74 3c db 7a b7 3d
       -0.11777081 0.036268525 0.0149119515 0.0895898
000010 ce 54 15 bb d7 0a a6 3d 03 bb c9 3d 8b 6d 5f 3c
       -0.0022786143 0.08107536 0.09850123 0.013636957
000020 3f b3 83 3d 22 87 70 bd e4 84 d2 3c 90 b0 84 bd
       0.06430673 -0.058722623 0.025698133 -0.06478989
000030 56 54 d5 3c 9f 22 02 3d 3f 55 c5 3c d7 29 32 bd
       0.026041191 0.0317713 0.0240885 -0.043496933
000040 eb f3 5f bd 21 5e 01 3d 65 c6 8a 3d f0 c4 c4 3c
       -0.054675978 0.03158391 0.06776122 0.024019688
000050 d0 d1 63 bd 47 b2 df bd e5 41 e5 bb 7f 2d 28 3d
       -0.055620015 -0.109226756 -0.0069963806 0.041059013
000060 71 b8 5a 3d 62 a1 54 3c e6 22 5a 3c c7 8d 40 3c
       0.053398553 0.01297793 0.0133139845 0.011752552
000070 10 23 3c bd 0c a5 0b 3d e3 ab 56 3d 93 2c ab bc
       -0.045931876 0.034092948 0.052410018 -0.020895278
000080 d4 3d 12 3c a7 31 89 3c 41 1d b6 3b dc ca 93 3d
       0.008925874 0.016747309 0.0055576866 0.07216427
000090 68 7d 2d 3d cf dd 34 bc e9 13 94 bc a9 26 c9 3c
       0.042355925 -0.011039211 -0.0180759 0.024554567
0000a0 98 4d 3d bc 0b 23 9b 3c ea 86 13 be a6 28 68 3e
       -0.011554144 0.018937608 -0.14406934 0.22671756
0000b0 83 8b a8 bd fb a5 d1 3d c2 55 a2 3d 78 01 fa bb
       -0.08229735 0.102367364 0.07926513 -0.0076295696
0000c0 d1 0a 33 3d cc 89 3b bd e3 c0 66 bd 2b 05 1d bc
       0.043711487 -0.04578571 -0.056336295 -0.009583752
0000d0 6b 38 e2 3c ca 7b 3c bc ba 34 0c 3d 9d c6 17 bd
       0.027614793 -0.011504123 0.03422997 -0.037054647
0000e0 a0 65 98 3c 14 fd 37 bc 0d 42 f3 3c d0 e5 26 bd
       0.018603146 -0.011229772 0.029694581 -0.04074651
0000f0 43 5e 09 bd 45 98 61 bd 34 3d 6c 3c 76 1e 8f bc
       -0.03353716 -0.055076856 0.014418889 -0.01747058
000100 17 38 0c bd 53 c8 19 bd b3 2b 41 bd 43 97 a9 bc
       -0.03423318 -0.03754456 -0.047160815 -0.02070201
000110 20 ec 82 bc 2f b4 cf bd 14 0a 89 be 00 5c a9 be
       -0.015981734 -0.10141789 -0.26765501 -0.33078003
000120 59 98 80 be 83 f7 30 be bf fd 99 bc 79 9b 72 bd
       -0.25116232 -0.17281918 -0.018797753 -0.0592303
000130 11 51 c9 bc 32 f5 9f bd e8 ea 84 bc 7e 89 c6 bc
       -0.024574788 -0.07810439 -0.016225293 -0.024235483
000140 f1 02 62 bd d1 0e 88 bd c4 cf 7a 3c 03 39 88 3c
       -0.055178586 -0.06643451 0.015308324 0.016628748
000150 5d 9b 61 3d bb c9 c6 3d 37 86 5d bc bc 16 1d 3d
       0.055079807 0.09706446 -0.013520769 0.03835176
000160 b2 09 9a 3d 48 9b 99 bd 04 21 34 3e 68 ec bd 3c
       0.075213805 -0.07500321 0.1759072 0.023184016
000170 66 ac bd bc 97 51 77 3d fd 74 51 be 40 a1 83 bd
       -0.023153495 0.060380545 -0.20454784 -0.0642724
000180 69 99 7a bc 25 11 e1 3d bf 3c 0c 3e 8f b6 05 3d
       -0.015295365 0.10989598 0.13695048 0.032644805
000190 b8 39 b5 bb 0d c2 2c bd 5a 64 92 bc 48 9a 68 3b
       -0.0055305623 -0.04217725 -0.017870117 0.003549235
0001a0 22 c5 6b bc c4 27 3b bb 92 20 26 bc ef c5 df bb
       -0.014390262 -0.0028557638 -0.010139601 -0.0068290154
0001b0 5a 2e ef bc 8a de 49 3d 49 77 4b bc 42 a0 e9 3b
       -0.029196907 0.049284495 -0.0124185765 0.0071297
0001c0 14 14 32 3d e3 d4 0b 3d 9a 56 52 bd fb 3c 3b 3e
       0.04347618 0.03413857 -0.05135212 0.18284981
0001d0 77 45 a6 3d d6 47 51 bd 68 bb 30 bd 4a c5 28 3c
       0.08118718 -0.0510939 -0.043147475 0.010300944
0001e0 10 14 40 3c 71 b1 3e bd 06 e6 26 bd 13 d4 09 bd
       0.011723533 -0.04655594 -0.04074671 -0.033649515
0001f0 47 73 44 3d a8 13 77 3c 75 1f 6c bc 54 42 6a bc
       0.0479615 0.01508037 -0.014411797 -0.01429804
000200 4b 6b ba 38 11 81 30 bc ca 29 65 3c 90 b7 d2 bc
       8.889156e-05 -0.010772959 0.013987014 -0.025722295
000210 32 94 2c bc 12 86 80 3d ca 35 18 bb 36 e7 47 bd
       -0.010533379 0.06275572 -0.002322542 -0.048804484
000220 25 7d 23 3c 74 54 0b be 75 0c a5 3d 14 1e 0f 3d
       0.009978567 -0.13606435 0.080590166 0.034940794
000230 a9 75 24 3b 36 e8 95 bd 4a 53 9f bd e2 10 9f bd
       0.0025094545 -0.07319681 -0.07779558 -0.07766892
000240 b8 29 8e bd b2 10 ab 3d a9 22 05 bd 88 f6 74 bd
       -0.06941551 0.08352794 -0.032503758 -0.059805423
000250 53 c6 8b 3d 82 13 18 3e 98 52 75 3d ed b4 7f bb
       0.06824937 0.14851192 0.05989322 -0.0039017752
000260 5c b1 90 3d 1d ab e4 3c 98 a6 8a bd a3 cb fc 3d
       0.070650786 0.027913624 -0.067700565 0.12343528
000270 1b 5a f4 3d 44 3f 2c 3e 41 d3 95 3d 96 81 a1 3d
       0.11931249 0.16821009 0.07315684 0.07886045
000280 91 f1 37 3d dd d2 50 3e d6 9d 40 3c 22 9c fb 3d
       0.04490811 0.20392938 0.011756381 0.12285639
000290 d5 7f 1c 3e 87 96 a3 3d cc 3d 04 3d 0d 50 4e 3a
       0.15283139 0.07987695 0.032285497 0.0007870205
0002a0 81 ba 36 3d 4b b9 4c bd d7 17 fa bd 79 30 04 3d
       0.044611458 -0.049981397 -0.12211578 0.03227279
0002b0 32 bd a7 bc e6 5d 87 bd 35 48 34 be 00 9b 31 3c
       -0.020475958 -0.066097066 -0.1760567 0.010840178
0002c0 13 06 3e bd 05 11 13 be 2e b9 7d be df 50 aa bd
       -0.04639251 -0.14361961 -0.24777672 -0.08316206
0002d0 c1 bb 7c bd c7 9c 25 be 01 ef 86 be d4 68 7e 3d
       -0.061702494 -0.16173087 -0.2635422 0.06211169
0002e0 35 9d 9f bc 73 c3 c1 3d 45 e8 3b be 0d 3d 98 bd
       -0.019484142 0.09461107 -0.18350323 -0.074335195
0002f0 73 d3 27 3e fb 52 b1 3d 9d 8c 2c 3c 90 0a 94 3d
       0.16389255 0.086584054 0.010531572 0.07228577
000300 30 23 1b bc 5a e5 33 3d cb 00 c8 bb a1 19 8a bd
       -0.009468839 0.0439199 -0.00610361 -0.067431696
000310 d6 e9 4a bd 3f f3 f8 3c a7 2c 82 bc b2 05 98 bc
       -0.04953941 0.030389426 -0.015890433 -0.018557403
000320 83 1a 11 bd 9d 47 84 3c 3d 71 9b bc 21 96 1a bd
       -0.035425674 0.01614743 -0.018974895 -0.03774083
000330 20 d9 a2 bd 07 31 60 bb 39 8e 9e 3c 0e cf 7c bd
       -0.079515696 -0.003420891 0.019354926 -0.0617209
000340 6e c0 91 bd 45 7a aa bd 94 6d bc bd 48 06 2c bd
       -0.07116781 -0.08324102 -0.09200588 -0.041998178
000350 b7 c7 91 bd 0f 5f 73 bb d9 6b f9 3c 61 dc 9b 3c
       -0.07118171 -0.0037135517 0.030446934 0.019025983
000360 26 a8 56 3d 76 9a b5 bc 35 5a 9f 3d ea ea 43 3d
       0.052406453 -0.02216838 0.077808775 0.047831453
000370 40 7e 09 3e 37 07 d6 3d 7f 4f d4 3c b1 b8 bc 3d
       0.13427067 0.10450595 0.025916813 0.092149146
000380 66 4c c5 3d 99 2f 80 3e 1e b4 0f 3d ad 56 9e 3c
       0.096337125 0.25036314 0.035083883 0.01932844
000390 58 32 c6 3d 57 26 41 3d aa ec ed bd e4 c2 42 bd
       0.09677571 0.047155704 -0.11617406 -0.047549143
0003a0 88 b5 80 3d 89 c7 f0 bd 5c aa 2b bd f2 b4 00 be
       0.06284624 -0.11756808 -0.041910514 -0.12569025
0003b0 b3 72 f8 3d 4c 4b 90 3e 00 9f fd 3d 92 e0 41 3c
       0.12131252 0.28182447 0.123838425 0.011833327
0003c0 48 b6 90 3d 67 22 c1 3c 5f 47 4b 3d 8b cf ac 3c
       0.070660174 0.023575975 0.04962861 0.021095058
0003d0 d5 58 d7 bb 14 7a a3 bb c9 b3 95 bd 40 3b a1 bd
       -0.006571869 -0.004988918 -0.07309682 -0.07872629
0003e0 50 25 27 ba bd 48 20 bd 93 14 0c be 4c 15 21 be
       -0.00063761044 -0.03913187 -0.13679723 -0.1573078
0003f0 6a 1b 1c be aa 09 cb bd b6 33 c1 bd fc 48 48 3c
       -0.15244833 -0.09913953 -0.09433691 0.012224432

network.0.bias f4 [63]
000000 cd 0a 06 3f cf ab c3 3e fd 90 f1 3e fe 87 c0 3e
       0.5236023 0.38217017 0.4718093 0.37603754
000010 b4 09 af 3e 8c f4 e2 3e 69 2e 79 3e 24 4c c3 3e
       0.3418709 0.443272 0.2433411 0.38144028
000020 44 8c e6 3e dd 60 90 3e 59 f3 23 3f 64 20 0d 3f
       0.4502889 0.281989 0.64043194 0.5512755
000030 6f 9d 28 3f 9b 38 db 3e 6e 10 9c 3e 43 19 d0 3e
       0.65865225 0.42816624 0.30481285 0.40644273
000040 02 a2 c9 3e d2 f8 29 3f ce 3c 22 3f ff a7 28 3f
       0.39381415 0.66395295 0.6337403 0.6588134
000050 46 a9 45 3f 03 ad 1c 3f 33 68 02 3f f1 d5 15 3f
       0.77211416 0.61201495 0.50940245 0.58529574
000060 58 e4 e7 3e d4 37 01 3f 0b cf b7 3e e6 23 5f 3e
       0.452914 0.5047581 0.3590015 0.21791038
000070 74 0f f5 3e c3 dd 73 3f 38 2d df 3e e0 56 fb 3e
       0.47863352 0.95260257 0.43589187 0.49089718
000080 5f 17 8d 3e eb 9d 0c 3f 9b 5b 19 3f 13 97 cb 3e
       0.27556893 0.54928464 0.59905404 0.39763698
000090 af aa 05 3e 41 fb df 3e 70 bd 1f 3f d6 d9 fa 3e
       0.13053392 0.4374638 0.62398434 0.4899432
0000a0 a1 9b 0f 3f 63 b3 04 3f 9a 58 44 3f 4e 35 09 3f
       0.56096846 0.5183622 0.76697695 0.5359696
0000b0 c3 c3 f0 3e 7d 07 bf 3e 5b c3 31 3f 05 79 09 3f
       0.47024354 0.373104 0.69438714 0.53700286
0000c0 64 b5 07 3f 11 d3 02 3f 3a ee 0d 3f 81 12 fd 3e
       0.53011155 0.5110331 0.5544163 0.4942818
0000d0 d8 f6 cf 3e 55 f3 03 3f 64 2c fe 3e 70 23 0b 3f
       0.40618014 0.5154317 0.49643242 0.5435095
0000e0 b1 ce 86 3e b8 79 c7 3e e8 20 cd 3e 79 0d f9 3e
       0.26329568 0.38960052 0.40064168 0.4864309
0000f0 df 03 19 3f 2a e8 0f 3f 0f b8 9d 3e
       0.5977153 0.5621363 0.30804488

network.1.running_mean f4 [63]
000000 6d 0c e3 3e 91 51 3b be d5 8c 06 3e 9a e6 0f 3f
       0.44345418 -0.18292834 0.1313966 0.56211245
000010 6d 9c f7 3e 61 90 a5 3e 17 30 6c 3d 66 b7 7f 3f
       0.4836153 0.32336715 0.05766305 0.9988922
000020 06 39 e5 3f 19 1f 13 40 75 90 12 bf 5b b9 87 3f
       1.7908027 2.298773 -0.57251674 1.0603441
000030 80 e5 20 3f 3f e2 27 3f eb 31 6c 3f 66 76 e5 3f
       0.6285019 0.655796 0.9226367 1.7926757
000040 3d d5 8c 3e b4 85 26 3f 9c c5 dd 3e a6 f2 8a be
       0.27506438 0.65047765 0.43314826 -0.2713825
000050 d7 d3 1b 3f c7 23 38 3f 6e 6d 28 3f 80 b3 0a c0
       0.60870117 0.7192959 0.65791976 -2.1672058
000060 09 11 c9 be 29 f3 ed 3d 13 db ac 3f e7 7d a1 3d
       -0.3927081 0.11618645 1.3504356 0.07885342
000070 b2 fb c8 3e 43 11 3b 3f e3 c2 8b bf e1 f7 a8 3f
       0.39254528 0.73073214 -1.091885 1.3200647
000080 1f 02 db 3f 8c 13 80 bf f8 75 ab 3e d0 06 da be
       1.7110022 -1.0005965 0.3348844 -0.42583323
000090 54 c4 96 3f 8a 69 3c 3e 9d c5 75 bf e0 c2 28 3f
       1.1778665 0.18399635 -0.9600466 0.65922356
0000a0 02 87 aa 3f c1 e9 86 3f 69 36 ba bf ad a6 68 be
       1.3322451 1.0540086 -1.4547855 -0.22719832
0000b0 ce e7 03 bf d2 74 90 3e 4f 42 1d 3f 22 b2 d4 3d
       -0.5152558 0.28214127 0.61429304 0.10385539
0000c0 16 16 23 3d 80 b7 26 3f 58 24 cc 3e 5f fb 38 3f
       0.039815985 0.6512375 0.39871478 0.7225856
0000d0 ff 1c f9 3e 75 81 01 3f f0 c9 0e 3f b6 a1 27 be
       0.48654935 0.5058816 0.5577688 -0.16370282
0000e0 50 19 7a 3f 71 b2 08 bd 25 79 38 3f b2 f6 1b 3f
       0.97694874 -0.0333733 0.7205985 0.609233
0000f0 b3 74 01 3f cd 6a 87 3e 23 5f 96 3e
       0.50568694 0.2644867 0.2936946

network.1.running_var f4 [63]
000000 52 29 63 3b cb 0d 1c 3c b7 9b 0f 3b 52 c2 4a 3c
       0.003466208 0.009524773 0.0021912882 0.012375431
000010 bb 7e a7 3b fd bd 42 3c f1 32 4e 3b 4e 39 9a 3b
       0.005111543 0.011886117 0.003146347 0.0047065383
000020 dc 2a 3a 3c 17 05 7e 3c 63 3f 5e 3c be 4d 83 3b
       0.0113627575 0.015504143 0.013564917 0.0040070703
000030 98 9e 94 3b 18 00 3d 3b 3f dd 1f 3c eb 6e cf 3b
       0.0045355074 0.0028839167 0.009757339 0.006330361
000040 17 d5 f4 3b 52 e9 ad 3b 7b 99 a9 3b fe f8 b2 3b
       0.0074716914 0.005307355 0.005175767 0.005461811
000050 48 7f b3 3a 7a 04 05 3c 32 be 80 3b 55 ae 84 3c
       0.0013694549 0.008118743 0.003928923 0.01619641
000060 95 8b 71 3b 11 6b b5 3c 0a 95 33 3c fb 9f ac 3b
       0.003685688 0.02214578 0.010960827 0.0052680946
000070 15 e1 8d 3b e0 59 80 3b 4f 4f 71 3c 99 81 04 3c
       0.0043298104 0.003916964 0.014728381 0.008087539
000080 fc 32 14 3c cd f6 34 3c 74 5a 40 3c ea 25 23 3b
       0.009045359 0.01104517 0.011740316 0.0024894425
000090 cb 31 b7 3b 39 e0 b4 3b 43 8d 6a 3c 07 a0 9b 3b
       0.0055906526 0.0055198935 0.014315906 0.0047493014
0000a0 5d 38 8a 3b eb 3b 54 3b 22 5a 68 3c c2 1c 5b 3c
       0.004218145 0.0032384347 0.014181646 0.013373556
0000b0 bc 4c 0f 3c 19 4f 11 3c 13 60 d6 3b 31 c4 b4 3b
       0.008746322 0.008868956 0.0065422147 0.005516552
0000c0 07 b3 31 3c 9c b3 9a 3b ad 69 42 3b a5 6f 3b 3c
       0.010845906 0.004721118 0.0029665038 0.011440192
0000d0 e2 b2 a7 3b c0 b0 1a 3c 79 4c 78 3b 9d 5a af 3b
       0.00511776 0.009441555 0.0037887378 0.005351378
0000e0 79 a6 dd 3b ac b0 fd 3a 48 96 68 3c 72 bf 5f 3c
       0.00676423 0.001935502 0.014195986 0.013656484
0000f0 97 f3 8a 3b cb 70 2d 3b 02 e1 31 3b
       0.004240464 0.0026464935 0.0027142172

network.3.weight f4 [63, 63]
000000 5b 94 7c bd fc 19 7e bd 24 61 c3 3d 87 84 2f 3d
       -0.06166492 -0.0620365 0.095400125 0.042850997
000010 dc 81 ad 3d 45 43 01 3e 30 40 91 3d 72 0a 0a be
       0.08472034 0.12623318 0.07092321 -0.13480547
000020 da 40 12 3b 41 81 01 3e 42 f5 a0 3d 30 bc 86 3d
       0.0022316487 0.12646963 0.07859279 0.06578863
000030 96 47 16 3d 24 4e 13 be ad 02 69 3d 74 f4 7f bc
       0.036689363 -0.14385277 0.056887317 -0.015622247
000040 57 0a a4 bd 24 c2 b3 3d ba 69 f5 bd 29 42 8c 3b
       -0.08009785 0.08777264 -0.11983056 0.004280348
000050 20 dc 19 3e 86 ee bb 3d 0b 6c c6 3c 75 bf af bd
       0.15025377 0.09176354 0.02422144 -0.085814394
000060 f7 7d b1 3d 66 7f d2 bd 07 eb 85 bd e3 41 14 3d
       0.08666604 -0.102782056 -0.065389685 0.036195647
000070 05 84 96 bb 84 7b 20 be 40 76 29 3d 0c 84 66 3d
       -0.0045933747 -0.15672117 0.041372538 0.056278273
000080 ab 17 b5 b9 82 ca 62 bd a9 ac a7 3d 8c bc 16 3e
       -0.00034540644 -0.055368908 0.08187229 0.14720362
000090 fd 6b 5d 3d bf ca b5 3d 02 3e 0b 3e 2e ef 48 3c
       0.054058064 0.088765614 0.13597873 0.012264056
0000a0 72 a5 5c 3e 00 0a 94 bc 93 28 a3 bd d5 07 9a 3d
       0.21547487 -0.018071175 -0.07966723 0.07521025
0000b0 33 58 85 bd 43 dd a4 3c db 6d 8b 3d 4c 12 36 bd
       -0.06510963 0.020125037 0.06808063 -0.044451043
0000c0 83 4a 51 bd c7 bf c6 ba b2 e1 ea 3d de 68 56 bd
       -0.05109645 -0.0015163355 0.11468829 -0.052346103
0000d0 44 30 71 bd 0f a3 c7 bd 26 f2 4f 3e e7 91 e5 3d
       -0.05888392 -0.09747898 0.20307216 0.11209469
0000e0 a6 63 05 be 99 6c 6d 3e 0a ca 2b 3e 6e 16 e6 bd
       -0.13026294 0.23185958 0.1677629 -0.11234747
0000f0 26 f6 2d 3d a6 84 b1 3d f3 32 9b bc 36 d8 c7 bd
       0.042471074 0.08667879 -0.018945193 -0.09758036
000100 f4 2a ba 3d e1 3f e0 3d c7 e9 38 bc 50 aa fe 3c
       0.09090224 0.10949684 -0.011286206 0.03108707
000110 bd 65 94 3d bc 1a 69 be 6a dc d0 bd 24 c6 48 3c
       0.072459675 -0.22764105 -0.10198291 0.012254272
000120 3c f0 86 3d 41 bc 58 3d 90 57 47 3d 85 f4 38 3c
       0.0658879 0.052913908 0.04866749 0.011288767
000130 00 b3 00 3d 93 c3 82 bd c0 22 60 bb 73 ed 8c 3c
       0.031420708 -0.06384959 -0.00342004 0.017203068
000140 41 19 e9 3d 6e 41 41 3d 83 ca 4c bd 3f f5 e3 3c
       0.1138177 0.04718154 -0.049997818 0.027826903
000150 ce 48 e4 3c d5 01 8c bb 8a 0f a8 bd 1f 8c 69 bd
       0.027866747 -0.0042726793 -0.08206089 -0.057018396
000160 f3 8f 29 3e df 99 ab bd 2b 5b 2b bd 7e 67 57 be
       0.16558819 -0.08378958 -0.04183499 -0.21035573
000170 03 c4 86 bd cc f4 b2 bd 1b 74 f6 3d 00 f9 11 3d
       -0.06580355 -0.087380975 0.12033864 0.035637856
000180 29 04 93 3d 58 8a b1 3d e2 81 e6 3c 82 ad 16 3e
       0.07178528 0.08668965 0.028138105 0.14714625
000190 01 5d 27 3d ce 38 22 bd 6f d5 df bc f1 cc 61 3d
       0.04086018 -0.039604954 -0.027323453 0.055127088
0001a0 7f bd fc bc 92 57 86 bd db 33 6d be 65 2a f5 3d
       -0.030852078 -0.065596715 -0.23164313 0.11970977
0001b0 fc 40 e6 bd 0f b9 5b 3b a4 62 6c bd 92 dc 9c 3d
       -0.112428635 0.0033527052 -0.05771126 0.07659258
0001c0 90 a5 8c 3c d0 38 45 3d df 5f b8 bd f5 a9 57 3e
       0.01716879 0.048149884 -0.09002661 0.21060927
0001d0 26 01 f2 3d 9a b3 01 be b2 35 a5 bd bf 07 9a bc
       0.11816625 -0.12666169 -0.08066882 -0.018802522
0001e0 83 f6 2f bd 8e 25 21 3b de a4 6b 3c c9 dd 83 3c
       -0.0429597 0.0024589035 0.014382569 0.016096966
0001f0 1c c8 73 3e f4 22 59 bd b0 f4 b7 3d 1d 42 17 bd
       0.23806804 -0.05301185 0.08982217 -0.036928285
000200 44 c2 20 3d 06 a6 14 be cb ba 32 bd d7 19 84 bb
       0.039247766 -0.14516458 -0.04363517 -0.0040314007
000210 16 d3 63 bd 8b 21 c6 3d 02 e0 ab 3c d3 7b 81 bd
       -0.05562123 0.096743666 0.020980839 -0.06322446
000220 ea 21 4b be 94 59 0e be 39 1f 73 3c a1 6a b7 3d
       -0.19837156 -0.13901359 0.014838987 0.08955885
000230 c3 db ea 3d 29 7d 05 be 33 f6 13 3d 5b 47 5b 3d
       0.114676975 -0.13036026 0.036123466 0.053534847
000240 b3 ed 03 3e ee 81 20 bc c6 8f ca bd ce eb 98 bd
       0.12883644 -0.009796603 -0.09890704 -0.07466851
000250 f1 76 d7 3d 0a be bf 3d 25 a3 a2 bd c4 31 a2 3c
       0.10520733 0.09362419 -0.079412736 0.01979912
000260 21 06 21 3d 0c ec 23 3e ba 05 3d be db 1a e0 3d
       0.039312486 0.16008013 -0.18459216 0.10942622
000270 41 11 a5 3d 00 36 28 be e9 d9 9c bc 61 96 cd bc
       0.080599315 -0.1642685 -0.019146876 -0.02509612
000280 e0 1a 04 be 19 d2 17 3d 9b 15 fd bd 67 ca b6 bd
       -0.12900877 0.0370656 -0.123576365 -0.08925324
000290 5a 5e 50 be d3 1f 8d 3b b2 90 38 3e 7a dd d8 3a
       -0.20348492 0.0043067723 0.18023947 0.0016545497
0002a0 6e 3d 88 3c 93 11 7e 3d f4 d5 44 3c a0 08 a2 bd
       0.016630854 0.06202848 0.012013901 -0.07911801
0002b0 51 ce 4f 3e 77 a8 25 bd 29 4b de 3d 8e 1b 04 3d
       0.20293547 -0.040443864 0.108541794 0.03225284
0002c0 86 5e b9 bc 8f 03 c2 3d 0c 1e 5d bc 58 3b 1f be
       -0.02262808 0.09473335 -0.013495933 -0.15549982
0002d0 68 b8 2e bd 82 96 8e bc 71 0f 0e 3e bc 01 11 be
       -0.042656332 -0.017405752 0.13873078 -0.14160818
0002e0 34 fe b9 3d 51 3e 65 bc 7a a1 f1 3d 6a 6c a4 3d
       0.090816885 -0.013991908 0.11798377 0.08028491
0002f0 d1 83 e3 3c 13 b0 5b be 70 2a 13 be 5e 79 da bd
       0.027772816 -0.21453886 -0.14371657 -0.1066768
000300 fc 0f d7 3c 64 81 1b 3d 29 63 4a bd 43 35 ff 3d
       0.02625274 0.037965193 -0.049410973 0.12461331
000310 bf 13 8e bd 95 49 f7 3b 7c b8 42 be d0 7b 7e bd
       -0.0693736 0.0075466135 -0.19015688 -0.062129796
000320 73 c8 ef 3d 9e aa 06 3e 68 4e a1 bd 95 99 20 3e
       0.117081545 0.13151023 -0.07876283 0.15683587
000330 ba 16 50 3d 64 0d 1a bc b4 fe 79 bd 36 75 46 bd
       0.050802924 -0.009402607 -0.06103392 -0.048451625
000340 2c 8f bb 3d 58 b2 ac 3d 71 d0 de 3d ed 5d f9 bd
       0.09158167 0.08432454 0.10879601 -0.12176118
000350 3a 2e 05 3e 32 74 49 3d 47 69 1a be e9 7d 3c 3d
       0.13005915 0.049183078 -0.15079223 0.046018515
000360 02 c1 54 3d 00 0d 7c 3d e9 f2 a4 bd eb bc b6 3d
       0.05194188 0.061535835 -0.08054144 0.08922752
000370 59 e5 0c be 99 2c b1 3d 48 d8 93 bd d1 be 9a bc
       -0.13759364 0.086510845 -0.07218987 -0.018889816
000380 ba 3c 31 3d f7 11 72 bd 7d 2c b3 3d c4 b5 36 3d
       0.043270804 -0.059099164 0.0874872 0.04460694
000390 81 33 2f ba 08 91 83 be 20 b9 cb bc da 89 11 bd
       -0.0006683395 -0.25696588 -0.024868548 -0.035531856
0003a0 46 d1 fd 3d 0f c6 ec 3c 37 e8 af bd ad 1c cd bc
       0.12393431 0.028903035 -0.08589213 -0.025038088
0003b0 d5 e7 e2 bd 1e b9 c1 3d 6c db 0d bc 5d cf f4 bd
       -0.11079375 0.094591364 -0.008658271 -0.11953614
0003c0 b9 dd 90 bd 66 a0 8f bd 03 df 0b 3c 72 ba 18 3e
       -0.0707354 -0.070130154 0.008537057 0.14914873
0003d0 e5 42 c3 3d b9 0f d1 bd 8c 63 f0 3d 6a ad f6 3a
       0.095342435 -0.10208077 0.11737737 0.0018819992
0003e0 ce c5 1c be 1e f2 ca bc e0 62 44 bc fb a2 17 3b
       -0.15309832 -0.024773654 -0.011986464 0.0023137915
0003f0 fc 7a 74 3c ae fe a4 bc 39 ad d2 3d 4f 6e 41 3d
       0.0149219 -0.020140972 0.10286946 0.04722434

network.3.bias f4 [63]
000000 c5 e7 0d 3f c2 6c 02 3f 3c ac 02 3f 12 95 01 3f
       0.5543178 0.509472 0.5104406 0.5061809
000010 53 d2 02 3f fb f4 00 3f 61 14 05 3f 3e 10 fb 3e
       0.5110218 0.5037381 0.5198422 0.4903583
000020 09 1f 00 3f 53 12 f8 3e 15 28 0a 3f 8f b3 fa 3e
       0.50047356 0.4845148 0.5396741 0.48965117
000030 b9 57 fa 3e 72 de fd 3e 96 13 2f 3f 9c ba f4 3e
       0.48895052 0.49583775 0.6838926 0.47798622
000040 32 6a 07 3f 79 73 fa 3e 64 67 f9 3e b7 1b 00 3f
       0.52896416 0.48916224 0.48711693 0.5004229
000050 d0 58 fb 3e d0 26 ff 3e c3 15 fa 3e 1f 32 f8 3e
       0.49091196 0.498343 0.48844728 0.4847574
000060 0c 7c 01 3f 8e 58 0e 3f f2 c5 fa 3e a1 a1 fd 3e
       0.50579906 0.55603874 0.48979145 0.49537376
000070 04 1b ff 3e 51 0f 03 3f 0f 31 04 3f 10 12 fa 3e
       0.498253 0.51195246 0.5163736 0.48841906
000080 2f e2 f3 3e 4c 4a 13 3f f3 3e ed 3e 2a 74 fc 3e
       0.47633502 0.57535243 0.4633709 0.49307376
000090 bc c9 fc 3e e4 ee fd 3e b8 71 02 3f 03 a0 fc 3e
       0.4937266 0.49596322 0.5095477 0.4934083
0000a0 fa 7d f9 3e e7 4b fb 3e 96 8f 05 3f 5a 3f 00 3f
       0.48728925 0.49081346 0.5217222 0.50096667
0000b0 b8 51 01 3f 22 e3 fd 3e e1 d8 04 3f 02 7b fa 3e
       0.5051532 0.4958735 0.5189343 0.48921973
0000c0 e4 9f 04 3f db 40 06 3f ca 11 fb 3e 9b 46 fd 3e
       0.51806474 0.5244271 0.4903701 0.4946793
0000d0 80 c0 f6 3e b2 37 fa 3e 90 45 f8 3e 64 19 04 3f
       0.4819374 0.48870617 0.48490572 0.51601243
0000e0 4f 94 fa 3e 88 81 fb 3e 79 6f fc 3e a6 ba f9 3e
       0.48941275 0.49122262 0.49303797 0.48775214
0000f0 0e 0f ff 3e ca 93 05 3f d5 b0 00 3f
       0.49816173 0.52178633 0.50269824

network.4.running_mean f4 [63]
000000 b7 34 56 3f 39 3c 10 3f 99 5a fc 3e 0e 2c cc 3e
       0.83674186 0.5634189 0.4928787 0.3987736
000010 f2 7c 12 3f 60 63 e8 3e 87 3c 0f 3f 5f e9 83 3d
       0.572219 0.45388317 0.5595173 0.064409964
000020 87 d0 0f 3e 20 14 15 3f 28 0b 41 3f b0 b6 be 3e
       0.1404439 0.58233833 0.7540765 0.37248755
000030 ac ae e4 3e 57 cd 90 3e 7e 8c 5b 3f 40 be 26 3f
       0.44664514 0.28281662 0.8576125 0.6513405
000040 2e 14 29 3f 40 78 e4 3e 6d 02 c9 3e fa 71 33 3f
       0.66046417 0.44622993 0.39259663 0.7009579
000050 30 71 0b 3f c1 0b 0d 3f 41 9e 42 3f d5 59 cd 3e
       0.54469585 0.5509606 0.76022726 0.401076
000060 09 40 27 3f d6 aa 2f 3f be cc 8b 3e 0f a9 fb 3e
       0.65332085 0.6862005 0.27304643 0.4915242
000070 f2 a3 e5 3e e1 72 3f 3f 9e 6d 44 3f ce 9b cc 3e
       0.44851643 0.74784666 0.7672976 0.3996262
000080 10 6a cd 3e 54 77 19 3f e6 b0 06 3f 3e 26 8b 3e
       0.40119982 0.59947705 0.52613676 0.27177614
000090 66 e7 16 3f a6 21 df 3e 7f 6b 33 3f 2e 1b 42 3f
       0.58946836 0.4358036 0.700859 0.7582272
0000a0 76 fa a6 3e 2a 78 4c 3e 4e af 1c 3f 65 80 8d 3e
       0.32612962 0.19967714 0.61204994 0.2763702
0000b0 d4 e3 cb 3e 07 1e 40 3e af 16 06 3f d0 99 0d 3f
       0.39822257 0.18761455 0.5237836 0.55312824
0000c0 41 71 42 3f 32 a9 04 3f 64 8a f6 3e 7f 48 42 3e
       0.7595406 0.5182067 0.4815246 0.18972968
0000d0 89 e6 87 3e 98 75 09 3f 67 26 ab 3e 7d f7 25 3f
       0.26543072 0.5369506 0.33427736 0.6483076
0000e0 2c 88 10 3f a8 f1 02 3f f8 33 18 3e 73 eb f0 3e
       0.5645778 0.5114999 0.14863575 0.47054633
0000f0 f2 cc a0 3e 1b b0 0f 3f 7d d5 32 3f
       0.3140636 0.5612809 0.6985701

network.4.running_var f4 [63]
000000 87 b8 58 3e e0 09 06 3e ed 0f 49 3e fc bc 5e 3e
       0.21164142 0.13089705 0.19634981 0.2175178
000010 bb 35 ea 3e 8c 39 28 3e 9f 03 c8 3d 98 88 55 3e
       0.45744118 0.16428202 0.09766316 0.20852888
000020 69 8b 27 3e c6 ed 02 3e 54 ff 14 3e 9f 32 82 3e
       0.16361775 0.12786016 0.14550525 0.25429246
000030 0c ec 89 3e 3f f1 3f 3e a3 65 5c 3e e1 51 97 3e
       0.26937902 0.18744372 0.21523146 0.29554656
000040 84 79 da 3d c2 c5 46 3e 27 04 a3 3d b5 ad 7b 3e
       0.106677085 0.19411376 0.07959776 0.24577983
000050 b7 26 1c 3e 08 21 cf 3d 27 60 1c 3e fe 1f 94 3e
       0.15249144 0.10113722 0.15271054 0.28930658
000060 3e 7d 70 3e d8 b9 2e 3e da 76 64 3e 46 43 79 3d
       0.23485276 0.17063081 0.22310963 0.060855173
000070 fa ad 81 3e 3d fa 2f 3e 77 da ad 3e 65 9f 7e 3d
       0.25328046 0.17185302 0.33955738 0.06216373
000080 78 1e 57 3d 61 7d 7d 3d d4 1b a6 3d 40 8c 0e 3e
       0.05251929 0.06188715 0.081107765 0.13920689
000090 47 0a d9 3d cf 10 4b 3d 01 a7 7d 3e b9 8e d9 3e
       0.105976634 0.049576577 0.24770738 0.424917
0000a0 ae c4 fd 3d 01 73 5a 3e 72 7b 04 3e 20 07 aa 3e
       0.12391029 0.21332933 0.12937716 0.3320856
0000b0 c3 e1 f3 3d 37 f9 6d 3d a5 f6 82 3d 62 fe 5c 3e
       0.11908295 0.058098998 0.063947 0.21581414
0000c0 27 b3 8b 3e 43 1c 98 3d 7c aa 3a 3e d8 08 3d 3e
       0.2728512 0.074272655 0.18229097 0.18460405
0000d0 3e 3e a4 3e 4e 69 3f 3e d2 be 97 3e ae 6c 01 3e
       0.32078737 0.18692514 0.29637772 0.12639114
0000e0 44 18 70 3e 88 10 71 3d e7 49 d9 3e 86 4d 72 3e
       0.23446757 0.058853656 0.42439196 0.23662385
0000f0 6a 19 86 3e ca c5 37 3e f8 69 e7 3d
       0.26191264 0.17946544 0.11299509

network.6.weight f4 [63, 63]
000000 79 32 81 3d 74 c2 c4 bd bc 05 85 bd 89 8e 24 bd
       0.06308455 -0.096074015 -0.06495234 -0.040174995
000010 e1 c8 ad 3d 07 1a ac bd 47 63 41 be f4 1c 09 3e
       0.0848558 -0.08403402 -0.18885528 0.13389951
000020 17 e2 e3 3d e2 92 82 3d 7b cc 1a 3e b8 55 b5 bd
       0.111271076 0.06375672 0.15117066 -0.0885424
000030 46 c1 d7 3d e9 83 2d 3e 20 f8 1e 3d a4 31 ee bb
       0.10534911 0.16944851 0.03881085 -0.007269101
000040 56 ae 9f bd 03 d3 24 bb 6d 76 0c bd e4 25 1e 3e
       -0.07796924 -0.0025150187 -0.034292627 0.15444142
000050 5b 88 3b bd 99 c5 46 3c 95 05 ad bd f9 5e 0f 3c
       -0.045784336 0.012132072 -0.0844833 0.008750671
000060 32 3d 07 3e e6 cf 11 3c e9 c1 bd 3d 47 cf ef bd
       0.13206938 0.0088996645 0.09265501 -0.11709457
000070 df 46 2d 3e 01 01 c0 3c 5f a0 83 bd 95 a0 88 ba
       0.16921566 0.023437979 -0.06427073 -0.0010423834
000080 4e 25 06 be d1 a1 64 bd ca 8e b9 bd 34 14 c0 bd
       -0.13100168 -0.055818383 -0.09060438 -0.093788534
000090 2f 59 ae 3d a1 f8 5a bd 82 9f db 3d ba 21 ef 3c
       0.08513104 -0.053459767 0.10723783 0.029190887
0000a0 9f c4 d0 bd 9c 0e e1 3c 18 f4 29 3d f4 52 9f bd
       -0.101937525 0.027472787 0.04149255 -0.07779494
0000b0 be 4a ed 3d 60 2f 1c 3d 6d 37 11 be 6f 39 5e 3c
       0.115865216 0.038131118 -0.141813 0.013563498
0000c0 3a c0 71 3d d4 c2 f2 3d d7 d8 0f be 50 43 82 bd
       0.059021212 0.11853567 -0.14047562 -0.06360495
0000d0 b6 88 fe 3c 45 a3 74 be 47 e6 72 3b d6 dd c9 3d
       0.031071048 -0.23890407 0.0037063526 0.09856765
0000e0 b5 dd 8b 3d 8f f3 76 3d 00 4c b3 3d 46 1c 60 3d
       0.06829397 0.06029087 0.0875473 0.054714464
0000f0 c1 08 0f be 37 de 52 3c 68 07 20 bb ff bf 22 3e
       -0.13968183 0.012870363 -0.0024418477 0.15893553
000100 63 d1 86 bd 61 78 c9 3d 32 36 ef 3d 55 e2 8d 3c
       -0.06582906 0.098374136 0.11680259 0.017319838
000110 62 94 8f bd 83 9b 36 3e 06 ea ce 3c 3f 11 12 3e
       -0.07010724 0.1783276 0.025258075 0.14264391
000120 07 52 b0 bd 98 d9 51 3e 0e e6 9f 3d 62 e7 b6 3d
       -0.086093955 0.20493162 0.07807551 0.089308515
000130 f6 9d af bd f2 10 e4 3d 28 b3 34 bd be ab 37 3c
       -0.085750505 0.111360446 -0.04411617 0.01121038
000140 50 29 e8 3d 5c 90 f6 3d bf e7 95 3b 1e 22 a6 3d
       0.11336005 0.12039253 0.0045747454 0.08111976
000150 f0 7e d2 ba 35 e5 41 be ca 16 0b 3d 85 cb 38 bd
       -0.0016059559 -0.18935092 0.03395728 -0.045115966
000160 0b d9 0c 3d 78 37 4c bc 6b 65 c7 3d 8e 6d 03 3c
       0.034386676 -0.012464397 0.09736141 0.008021725
000170 65 fb 18 3e c6 82 12 bd 27 1a 2d 3e d4 f0 ff 3c
       0.1493965 -0.035769247 0.16904508 0.031242765
000180 33 40 28 3e f3 03 f1 bc b2 dd 24 3e e5 aa 0a be
       0.1643074 -0.029420828 0.16100195 -0.13541754
000190 9d f9 2e 3e c3 47 05 bd 35 a0 85 3d 7d bf 95 bd
       0.17087407 -0.03253914 0.06524698 -0.07311914
0001a0 b4 81 99 3c 5f cc ca 3d c2 df 1d be 49 18 24 3d
       0.018738605 0.09902262 -0.15417388 0.040062223
0001b0 68 02 a4 bd 2e cc 95 bd b3 b4 18 be ce 48 5e 3c
       -0.080082715 -0.07314335 -0.14912681 0.013567163
0001c0 a0 8e 2f 3c cd 23 3c 3d a5 7f b6 bd 9a b7 2a be
       0.010715157 0.04593258 -0.08911065 -0.16671601
0001d0 3f 0e 9e 3b 2d 74 94 3c 2e bf 42 bd fe ce b0 bd
       0.0048234756 0.018121803 -0.047545604 -0.086332306
0001e0 58 1d 6f bd f1 b9 69 bd 49 91 e1 bd 53 7c a0 bc
       -0.058377594 -0.057062093 -0.11014039 -0.019590532
0001f0 d9 9a e0 3d d8 92 fe b9 d7 cd 6d 3e e1 26 28 be
       0.10967035 -0.00048556062 0.23223053 -0.16421081
000200 67 c7 7f 3d 7b fc e6 3d 4a cd 27 3e 63 75 b9 3d
       0.062446024 0.112786256 0.16386905 0.09055593
000210 00 c2 5c bc b6 c7 84 3e 10 a7 67 3e 8b f2 1c 3e
       -0.013473988 0.25933617 0.22622323 0.15326898
000220 9c b8 86 3d 0c 3e e9 bc 44 de d7 bc 99 f5 f1 3d
       0.0657818 -0.028471969 -0.026351102 0.11814422
000230 f2 bf fe 3d f3 c0 8a bd 21 27 9c bd ce 1d f6 3d
       0.124389544 -0.067750834 -0.07624651 0.120174035
000240 3a 3e 80 3d 10 ac e5 bb e1 5e b7 3d c8 10 09 3c
       0.06261869 -0.007009037 0.089536436 0.008365817
000250 98 27 de ba 92 47 7f bc 91 6d e0 bd 77 9d cf 3a
       -0.0016949056 -0.015581029 -0.10958398 0.0015839775
000260 7c 6b 56 3e 5d 07 5a bd ae e0 b8 bd 5e f9 f4 3d
       0.2093944 -0.05322968 -0.09027229 0.119616255
000270 40 8d c7 bd 76 a2 9a bc 69 ba 96 3d 37 b2 33 bd
       -0.09743738 -0.018876296 0.07359774 -0.04387113
000280 b6 35 27 bd cc cd e5 3d d4 cf 98 bd 5a d3 07 bd
       -0.040822707 0.11220893 -0.07461515 -0.033160545
000290 4f 4e b0 3d 08 77 09 3d 78 97 c0 3c e4 d0 ba 3c
       0.08608686 0.033560783 0.023509726 0.022804685
0002a0 b8 fb 92 bd 89 0d 75 3e 36 3c 09 3e b4 9c 7e bd
       -0.07176918 0.23930945 0.13401875 -0.062161162
0002b0 61 64 7c bd b0 9b 6e bb aa d7 80 3d 90 7e 10 3e
       -0.061619166 -0.0036408715 0.06291135 0.1411078
0002c0 8b c2 cc bd f3 75 93 3c e6 a1 ad bd ea 28 50 3d
       -0.099980436 0.018000579 -0.08478145 0.05082027
0002d0 a7 03 9c 3d 2d 37 cf 3d 8a 6d 98 3c 3d f7 4f 3d
       0.07617884 0.10117946 0.01860692 0.050772894
0002e0 2b 8d 57 3d b5 c2 63 bd c8 10 c5 bd 56 39 9d bc
       0.052624863 -0.05560561 -0.096223414 -0.019192379
0002f0 2b b1 3d 3d 5e 71 d1 bd 6f 9b a6 3d 36 d2 bb bd
       0.04631154 -0.10226701 0.08135115 -0.09170954
000300 a7 7f d3 3d 39 cd c6 bc 76 ae 3c bb 86 f4 5c bd
       0.10327082 -0.02426778 -0.002879051 -0.053944133
000310 2f 26 22 be 2c 87 8a 38 40 62 5b bd cb cb 3c bd
       -0.15834878 6.6055305e-05 -0.053560495 -0.04609279
000320 79 06 48 be 88 95 d9 3d 22 72 73 3c dc a3 ae bd
       -0.19533719 0.10624224 0.014858754 -0.085273474
000330 80 bf 56 be 73 39 f1 3d 14 db 16 be 17 da b7 3d
       -0.20971489 0.11778536 -0.14732009 0.08977144
000340 9f 5f b9 3d 1a 35 05 be 12 d2 03 3e 62 c0 c5 bd
       0.090514414 -0.13008538 0.12873104 -0.09655835
000350 35 18 f8 3c fc f8 46 3d be 92 17 bd dd 20 0e be
       0.03028498 0.048577294 -0.03700518 -0.13879724
000360 56 60 15 be 6a 4b 06 bd 69 38 ef bd b6 18 94 3d
       -0.1458753 -0.032786764 -0.11680681 0.07231276
000370 65 58 e6 bd e9 37 6e bc 62 97 7d 3e 70 c1 92 3d
       -0.11247329 -0.014539697 0.24764779 0.071658015
000380 5e 93 26 3d 74 62 d1 3b 84 68 85 3d e2 19 ad bc
       0.040667884 0.0063899104 0.065140754 -0.021130506
000390 08 5d 7c 3d a3 41 a9 3c 5b 15 e3 3d 2b e9 0d be
       0.06161216 0.02066118 0.110880576 -0.13858478
0003a0 09 01 f9 bd f7 5b aa 3d 13 69 51 bd ae 14 c4 bc
       -0.121584006 0.08318322 -0.051125597 -0.023935642
0003b0 d3 ae 27 bd df 34 3c 3d fd aa a4 bd 46 f1 33 3d
       -0.04093821 0.04594886 -0.08040426 0.04393127
0003c0 bd e6 66 be 1f 41 b7 bd 6a 76 05 3e c8 11 64 bd
       -0.22548957 -0.08947968 0.13033453 -0.05568102
0003d0 c4 6d c1 bd e0 d5 8c bd 39 ef e8 3d dd a7 94 3d
       -0.09444764 -0.06876731 0.11373753 0.0725858
0003e0 13 75 6d bd bb 39 4a 3d 05 36 bf 3d 60 00 11 bd
       -0.05797298 0.049371462 0.09336475 -0.03540075
0003f0 67 76 11 bc 68 db c3 3d 27 a3 c5 3d 4c 74 f6 bd
       -0.008878327 0.09563333 0.096502595 -0.120339006

network.6.bias f4 [63]
000000 ec b1 f9 3e cf 60 01 3f 45 04 39 3f a0 c5 fe 3e
       0.48768556 0.50538343 0.7227214 0.4976015
000010 8a fc ff 3e 61 32 f9 3e b5 67 f5 3e 1f 95 f8 3e
       0.4999736 0.4867125 0.47930685 0.4855127
000020 d0 ec fd 3e 4e 48 fb 3e 4c f5 e2 3e c2 5d f3 3e
       0.49594736 0.49078602 0.44327772 0.4753247
000030 a7 c6 05 3f d7 93 fb 3e 74 c0 00 3f 5f f6 fc 3e
       0.52256244 0.4913623 0.5029366 0.49406716
000040 e6 75 f6 3e 9d bd 00 3f 0c 54 fa 3e 6f 47 02 3f
       0.48136824 0.50289327 0.48892248 0.5089025
000050 f2 90 f5 3e a6 39 00 3f f3 c9 04 3f b2 fa 2e 3f
       0.47962147 0.50087965 0.5187065 0.6835128
000060 6d 9a 13 3f 3a dd 00 3f ea 17 01 3f 16 03 fb 3e
       0.5765751 0.50337565 0.50427115 0.49025792
000070 a7 2a fc 3e c2 1f 00 3f fc 6b 11 3f 79 3e ff 3e
       0.4925129 0.5004846 0.56805396 0.4985235
000080 04 25 03 3f 33 ca f8 3e 36 6c 05 3f 1b d3 0d 3f
       0.51228356 0.48591766 0.5211824 0.55400246
000090 0a b9 f6 3e a9 06 06 3f 1b a5 07 3f bc be 0a 3f
       0.4818805 0.5235391 0.52986306 0.5419729
0000a0 cc 86 01 3f d8 7f f5 3e b5 10 02 3f 08 3a 08 3f
       0.5059631 0.479491 0.5080674 0.5321355
0000b0 e2 e3 fb 3e 63 2c 0a 3f 06 47 04 3f ea 02 fb 3e
       0.49197298 0.5397398 0.51670873 0.4902566
0000c0 2d 29 05 3f 6b c1 fb 3e 81 0b f7 3e d8 38 ff 3e
       0.52015954 0.49171004 0.48250964 0.49848056
0000d0 0a 0a 20 3f 9b 99 0a 3f a9 3d 15 3f 1d b9 f5 3e
       0.6251532 0.54140633 0.5829721 0.47992793
0000e0 8b 3e 00 3f b2 c8 03 3f 8a 91 07 3f 32 ee f7 3e
       0.50095433 0.5147811 0.5295645 0.48423916
0000f0 3b d5 f7 3e 07 c2 08 3f f6 86 fb 3e
       0.4840487 0.5342106 0.49126405

network.7.running_mean f4 [63]
000000 fb d2 08 3f 49 89 30 3f 0c ff 8e 3f 06 47 9b 3e
       0.5344693 0.6895948 1.1171584 0.30327624
000010 7a ad ef 3e 17 b6 86 3e 5f 50 cb 3e 5e a9 b1 3e
       0.4681204 0.263108 0.39709756 0.3469953
000020 d1 05 16 3f 2e a1 0f 3f e3 fa 03 3f 5d 63 08 3f
       0.58602625 0.56105316 0.515547 0.53276616
000030 e2 50 1a 3f db 3a fb 3e e0 82 fa 3e 10 cf e9 3e
       0.6027967 0.4906834 0.48927975 0.4566579
000040 86 3c 02 3f 7b eb f2 3e 9c 57 d0 3e 91 27 f9 3e
       0.508736 0.47445282 0.4069184 0.48663
000050 9f ce 10 3f df c7 48 3d 0c 9c 35 3f 5c eb 7d 3f
       0.5656528 0.049018737 0.70941234 0.99187255
000060 fe 06 51 3f 4e 58 28 3f 09 a7 02 3f d1 35 d3 3e
       0.81651294 0.6575974 0.51036125 0.41251996
000070 d6 d2 f1 3e 37 7e d7 3e cf e9 37 3f bb ae 55 3e
       0.47231168 0.42088482 0.7184114 0.20867436
000080 7f fd fb 3e 67 77 dc 3e e2 62 f4 3e db 3a 3c 3f
       0.4921684 0.43059847 0.47731692 0.73527306
000090 ba 08 f1 3e 5d 77 19 3f a3 44 24 3f 23 52 40 3f
       0.4707697 0.5994776 0.6416723 0.7512533
0000a0 4d 10 15 3f 4a d4 20 3f 84 7a 27 3f c9 c8 53 3f
       0.58228 0.6282393 0.6542132 0.8272825
0000b0 df 10 0a 3f 5d 57 2f 3f 12 f7 3b 3f dd 30 6d 3e
       0.53931993 0.6849268 0.73423874 0.23163171
0000c0 9d 5f 17 3f 49 4c ac 3e 95 5c 2f 3f c6 a8 0e 3f
       0.5913027 0.3365195 0.68500644 0.5572628
0000d0 6d eb 00 3f 9e b0 05 3f 15 ff 2d 3f f6 ef e7 3e
       0.5035923 0.5222262 0.6796735 0.45300263
0000e0 cd 70 d5 3e cc c0 dc 3e 58 11 ee 3e d1 3d ef 3e
       0.41687623 0.43115842 0.46497607 0.4672685
0000f0 51 59 02 3f 60 78 05 3f 45 cd 5a 3e
       0.50917536 0.521368 0.21367367

network.7.running_var f4 [63]
000000 b3 10 4b 3e 99 19 93 3e 0e 99 f1 3d b3 cb 40 3e
       0.19830589 0.28730467 0.11796771 0.18827705
000010 b4 9f 3b 3e ab a8 70 3e f8 52 db 3d 9a ea 54 3e
       0.1832264 0.23501842 0.107091844 0.20792618
000020 38 3a 4b 3e b5 b8 53 3e 3a eb 49 3e d8 56 58 3e
       0.19846427 0.20675929 0.19718638 0.21126878
000030 f3 d1 03 3e f4 bb 87 3d c2 6b d4 3d ff 9c cc 3d
       0.12873058 0.06627646 0.10372116 0.09990882
000040 54 b2 d0 3d ed 86 6e 3e 01 dc 5b 3e e4 30 c1 3d
       0.101902634 0.23293658 0.21470644 0.09433153
000050 40 15 a9 3e 67 25 38 3f eb f9 16 3e 33 ef bb 3d
       0.33024025 0.7193207 0.14743774 0.09176483
000060 8f 58 8c 3d 2a 0e bd 3d 80 c9 81 3d fc 6b 6d 3e
       0.06852829 0.09231217 0.06337261 0.23185724
000070 17 e3 58 3e 06 dd 58 3e 6a c9 2f 3d c8 d0 af 3e
       0.21180378 0.21178064 0.042916693 0.34338975
000080 89 45 a2 3e ba 34 2a 3e f8 6e bc 3d 21 52 27 3e
       0.31693676 0.16621676 0.09200853 0.16339923
000090 82 e4 7d 3d 01 5b 58 3e d3 59 a2 3d 05 15 95 3d
       0.0619855 0.21128465 0.07927289 0.072794
0000a0 a2 c3 89 3d 7d 01 02 3e b3 22 48 3e b3 d3 d1 3d
       0.06726767 0.1269588 0.19544487 0.102454565
0000b0 45 c1 e1 3d b8 d2 1d 3d 03 a1 f3 3d e2 1d a9 3d
       0.11023191 0.038531035 0.11895945 0.08257653
0000c0 22 db ea 3d c2 5b 1d 3e c4 23 5d 3e bb 3b 0c 3e
       0.114675775 0.15367034 0.21595675 0.1369466
0000d0 74 c4 5b 3d 4b 67 14 3e 81 63 f8 3d 4c ac f9 3d
       0.05365415 0.14492528 0.12128354 0.12191066
0000e0 13 59 84 3d 9c b5 ed 3d 85 fa e0 3d 05 ed 96 3e
       0.06462302 0.11606905 0.10985283 0.29477707
0000f0 9a d7 79 3e b0 fa 9f 3d 76 d4 17 3e
       0.24398652 0.07811487 0.14827141

network.9.weight f4 [63, 63]
000000 96 ae 1a bd 2e 8c ea 3d 97 ba ac 3d c5 4b 12 3e
       -0.037764154 0.114525184 0.08434027 0.14286716
000010 87 e2 8f 3d e3 00 c7 bd 3e 2c 32 bd 53 3d 01 3e
       0.070256285 -0.09716966 -0.043499224 0.1262105
000020 b7 16 e1 bc 43 ad 8f bd b1 d0 a7 bd 7a e8 b5 3c
       -0.027476652 -0.07015469 -0.081941016 0.02220558
000030 bc 72 68 3d 61 f9 60 bd 88 5a b0 bb d0 0f 49 be
       0.056750044 -0.054925326 -0.005381886 -0.19634938
000040 98 cb f6 bd c3 cc 2a 3e 9f b5 36 3c 6a a5 b1 3c
       -0.12050551 0.16679673 0.0111517 0.02168532
000050 b2 35 c5 bd 88 05 0c bb dc 0a 99 3d dc ce 21 3c
       -0.09629382 -0.0021365602 0.074727744 0.009875979
000060 84 dd 85 bd ba 8d 99 3c 1e bd bf bd d6 f3 a5 3d
       -0.065363914 0.018744338 -0.09362243 0.08103149
000070 22 8a 99 bc 19 cf 28 be cc 30 00 3e e1 5c e9 3d
       -0.018742625 -0.16485251 0.12518615 0.11394668
000080 b3 04 90 bd 1c d5 82 3a 4b 46 e8 3d f5 5c 3f 3e
       -0.07032146 0.0009981724 0.11341532 0.18687804
000090 cb 8e 6a 3e 1d 45 81 bd 90 a8 66 3d ca ec 78 bd
       0.22906034 -0.063120104 0.056313097 -0.060772695
0000a0 fa cf ef 3d 63 25 c5 bb f1 8e f2 3a da 30 99 3d
       0.1170959 -0.0060164197 0.0018505735 0.07480021
0000b0 89 48 d9 3c 90 4a 57 3d 19 f1 f9 3c 1e 85 b4 3d
       0.026523845 0.052561343 0.030510472 0.088144526
0000c0 80 ec 6c 3c ec 3a 26 be db 8a 33 3e 2c 3e f2 3d
       0.014460683 -0.16233414 0.17533438 0.118282646
0000d0 89 3a 2b 3d 08 f6 02 3e 6a 07 94 bd c8 74 15 bd
       0.04180387 0.12789166 -0.072279766 -0.036488324
0000e0 89 45 23 3c 9d 91 8a bd b1 a1 df bc de 32 61 be
       0.009965309 -0.06766055 -0.02729878 -0.2199206
0000f0 5f 3d 91 bc a4 ae a0 bd a7 79 61 bd 6a 85 3e bd
       -0.01772946 -0.0784581 -0.055047657 -0.046513952
000100 e4 3e d7 3d 78 b7 02 3e 51 8a b6 3d da c1 fa 3b
       0.10510042 0.127653 0.089131005 0.0076525034
000110 75 5a 0d 3d 92 7b c2 bd 6c 85 1b bd 80 44 9d bb
       0.034510095 -0.094962254 -0.037969038 -0.0047994256
000120 cb ac df 3d 1c b9 ee bd ed 0c 3a bd fd 6a 83 3d
       0.109216295 -0.116564006 -0.045422483 0.06416891
000130 b9 75 3a bd bd 3f 97 bc 34 1b 28 be 49 18 c2 3d
       -0.045522425 -0.01846301 -0.16416627 0.09477288
000140 79 50 ec bc f5 8a ad bd 24 b5 02 be 06 24 d0 3b
       -0.028846966 -0.084737696 -0.12764412 0.0063519506
000150 3c 68 81 3e 83 8d 92 3d 3a 3e d8 3b ac 84 e0 3c
       0.25274837 0.071558975 0.006599215 0.027407013
000160 68 96 aa 3c b8 15 fa bd 7b ae 99 bc e8 69 71 bd
       0.020823672 -0.12211174 -0.018759957 -0.05893889
000170 56 d6 95 3d 79 b1 a5 bd f4 d3 e6 bc 48 83 3e bd
       0.07316272 -0.08090491 -0.028177239 -0.04651192
000180 36 fe b7 bc de 08 2d bd 3d a6 32 bd cf 3e 8b 3c
       -0.022460084 -0.042244785 -0.04361557 0.016997723
000190 d0 ef ff bc 3f 4d 27 3e 0f 0b cd bd 3c 77 46 bd
       -0.031242281 0.16338061 -0.10011875 -0.048453555
0001a0 1b 8c d4 bd 4a a7 a8 bc 23 ae 7c bd 47 f5 72 3c
       -0.103782855 -0.020587582 -0.061689507 0.0148289865
0001b0 0c 9f 1e 3e 10 a7 05 3e fd 4c 44 3d f2 d0 27 3e
       0.15490359 0.1305201 0.047924984 0.163883
0001c0 00 f7 ce bd 0a a8 02 be ab 2b 24 3d 6d ad a0 bd
       -0.10105705 -0.12759414 0.040080708 -0.07845578
0001d0 a6 1e 1c bb 36 10 f5 3d 58 e0 1d be 2f 8e 50 3e
       -0.0023821979 0.119659826 -0.15417612 0.20366739
0001e0 08 fe 57 3e 00 7f 3d 3e c3 a4 63 3d ee ff 9b bb
       0.21092999 0.18505478 0.05557705 -0.004760734
0001f0 d5 a7 31 3c 5f 29 e3 3b a0 e1 40 bd d0 94 f7 bd
       0.010843237 0.006932422 -0.047090173 -0.120889306
000200 ac 8d b8 bd fc 5b 28 3c ad 2b a4 bd 64 b6 2a be
       -0.09011397 0.010275837 -0.08016143 -0.16671139
000210 b6 84 05 be 1d 5d c8 bc 31 26 0c 3e 84 84 9f 3d
       -0.13038906 -0.024458462 0.13686444 0.07788947
000220 39 c8 93 bc f0 cd 6d be 5c 9f 29 be e6 9f 2d 3e
       -0.01803981 -0.2322309 -0.16564697 0.16955528
000230 8e 8a 04 bd 43 a3 05 3d 8f 43 df bd 5f eb b9 bc
       -0.0323587 0.0326264 -0.10901558 -0.022695241
000240 42 e4 50 3d 59 fa 01 3d ff 29 8b 3c ec 38 9f 3d
       0.050998934 0.03173289 0.016987799 0.07774529
000250 1f 8a 6f bd b3 16 41 3d 5b 2a b1 3d a6 44 fe bd
       -0.058481332 0.04714079 0.08650657 -0.124154374
000260 fe 06 e5 3d fc 62 dd 3d ab 74 21 be 76 b8 5d bc
       0.11182974 0.108098954 -0.15767162 -0.013532748
000270 49 a2 85 3d 95 7e c7 3c 17 04 b4 3d f9 be f5 3d
       0.06525094 0.024352351 0.087898426 0.11999316
000280 1e 7f 85 3d ab 83 1f 3d 22 9a f1 3d 6d 58 d3 3d
       0.06518386 0.038943928 0.117969766 0.103196
000290 f5 3d 9d bd a3 b6 9e bd a9 a2 dc bc 3c 42 96 bd
       -0.07677833 -0.07749679 -0.026933031 -0.07336852
0002a0 51 ff 01 3d d0 ae 18 3e 03 23 c6 bd 11 3e d4 3d
       0.03173763 0.14910436 -0.09674647 0.10363401
0002b0 ba 3b 96 3c 6b 1d 47 be a3 68 51 3c df a6 58 3c
       0.018339027 -0.19444816 0.012781295 0.013223379
0002c0 f8 f9 1c bd 2d ae ba bc 6d 19 89 3d 8a bd 04 3e
       -0.038324326 -0.022788132 0.06694303 0.12962928
0002d0 eb 67 38 bd 00 09 c8 bc bf 2f db 3c b5 ab f7 3b
       -0.04502098 -0.024418354 0.026756166 0.007558311
0002e0 a3 dc 13 bd e8 c2 5f bd f6 e3 75 3c b8 c8 fe 3d
       -0.036099087 -0.054629236 0.015007963 0.12440628
0002f0 bd 21 58 bd 7e 39 c4 bc da c0 70 be 6b 58 0e 3c
       -0.05276655 -0.023953196 -0.23511067 0.008688073
000300 3e 0f 7c bd d3 c7 a5 bd c6 54 84 bd 24 be a4 3d
       -0.061537974 -0.08094754 -0.06461482 0.08044079
000310 d0 df 21 3e 62 89 df bd a4 1d ca 3d 51 56 32 bd
       0.15808034 -0.109148756 0.09868935 -0.04353935
000320 b2 c2 01 bd 75 c3 70 bd 0d fa 18 3e 1e a4 a1 3d
       -0.031679817 -0.058780152 0.14939137 0.07892631
000330 9b 99 74 bd 4a 3d d7 3d 66 69 03 be fa bb d6 bd
       -0.059716802 0.10509737 -0.12833175 -0.104850724
000340 ff 45 fb 3c 12 d3 40 3d 9c 74 0d be 11 fb 9f bd
       0.030673025 0.047076292 -0.13814014 -0.07811559
000350 1f 1a 2b 3d 2b 69 c2 3c 85 1d d0 3d 37 21 fd 3d
       0.041772958 0.023731789 0.101618804 0.12359851
000360 0f d4 1c 3d ee ad 23 3e fc 99 12 3e 47 24 44 bd
       0.038288172 0.15984318 0.14316553 -0.04788616
000370 48 9d 46 3e cf 2b 89 bc 25 bb 19 be 92 f5 8b bc
       0.19395936 -0.016744522 -0.15012796 -0.01708487
000380 fb 93 40 be 47 3a 8a 3d 64 d6 55 be 96 b9 01 3e
       -0.1880645 0.06749397 -0.20882565 0.12668452
000390 36 99 41 bd 09 44 cf bd b0 a5 73 3c 44 7a 24 3d
       -0.047265254 -0.101203986 0.014871046 0.040155664
0003a0 48 0e b0 bd 94 c5 a6 3c 89 5a 15 3e a5 57 eb ba
       -0.08596474 0.020357884 0.14585318 -0.0017955197
0003b0 a1 f1 af bd ca 23 f8 bc 3e 68 bf 3c d3 54 43 3e
       -0.08591009 -0.030290503 0.023365136 0.19075327
0003c0 fb ba a1 bd fc c7 f0 3d 93 72 ad 3d 25 16 8b bc
       -0.07896992 0.11756894 0.08469119 -0.016978333
0003d0 2e 40 84 bb 4e b5 62 3d c8 b2 6d 3d 66 d1 e8 bc
       -0.004035971 0.055348687 0.058031827 -0.028420161
0003e0 1e d7 ca 3d 8a 97 20 bc e5 82 95 bc a7 3d 32 be
       0.099043116 -0.009801755 -0.018250892 -0.17406331
0003f0 fd 6c 4f 3d c1 8b de 3b e1 64 a0 3d 59 f1 bf 3c
       0.05064105 0.0067915623 0.07831741 0.023430513

network.9.bias f4 [63]
000000 9d da 02 3f 01 2f 11 3f 0c 92 f6 3e c6 de fc 3e
       0.5111483 0.5671235 0.481583 0.49388713
000010 37 fd e9 3e 92 89 fb 3e 2d 6d f4 3e 1e 9d fa 3e
       0.45701 0.49128395 0.47739545 0.48947996
000020 72 86 1b 3f 06 58 f6 3e 2d 4d 02 3f bb 44 04 3f
       0.6075202 0.48114032 0.5089901 0.51667374
000030 fc 18 f8 3e 58 ca fc 3e ca 1a f8 3e db e0 02 3f
       0.48456562 0.49373126 0.48457938 0.5112435
000040 b9 f8 fa 3e 87 c9 f2 3e 81 ae 0a 3f c5 a8 fd 3e
       0.49017885 0.47419378 0.5417252 0.49542823
000050 24 89 f7 3e 5b 16 f6 3e 94 6e dc 3e 49 9c fb 3e
       0.48346817 0.4806393 0.43053114 0.49142674
000060 21 71 fa 3e 6b 0e fa 3e 62 da f7 3e a0 69 28 3f
       0.48914436 0.48839125 0.484088 0.6578617
000070 a0 c5 0b 3f 72 69 e0 3e d3 40 03 3f 69 a1 fc 3e
       0.54598427 0.43830448 0.5127079 0.49341896
000080 c9 e8 01 3f ba d0 01 3f 76 56 01 3f e1 d5 f0 3e
       0.50745827 0.50709116 0.50522554 0.47038177
000090 21 f9 0d 3f 0b 33 fa 3e c1 92 f5 3e 7a 47 ea 3e
       0.55458266 0.48867068 0.47963527 0.45757657
0000a0 b7 a0 00 3f 60 5f e9 3e 61 26 31 3f 3a 67 03 3f
       0.5024523 0.45580578 0.69199187 0.51329386
0000b0 cb ef f9 3e 99 57 06 3f 0a fb fb 3e 0e 23 03 3f
       0.4881576 0.52477413 0.49214965 0.51225364
0000c0 a2 68 f7 3e 5b 36 f2 3e 4a 5f ff 3e 53 8b f7 3e
       0.48322016 0.47307095 0.49877387 0.48348483
0000d0 79 06 29 3f 6f 5b f2 3e a5 cd 08 3f d8 96 20 3f
       0.660255 0.47335383 0.5343879 0.6273017
0000e0 b9 68 0e 3f 93 ed fe 3e 99 b2 f6 3e 57 8e ff 3e
       0.55628544 0.4979063 0.48183134 0.49913284
0000f0 9e 73 ff 3e ae bd 01 3f 75 5b e6 3e
       0.49892896 0.50680053 0.4499165

network.10.running_mean f4 [63]
000000 65 39 1f 3f 5f 60 1f 3f d0 16 ed 3e c8 a0 01 3f
       0.6219695 0.62256426 0.46306467 0.5063596
000010 7b 6f 13 3f 07 df d2 3e a3 09 0b 3f 88 ea 14 3f
       0.5759198 0.4118578 0.5431158 0.58170366
000020 10 ad 30 3f a3 10 ad 3e 68 2d 05 3f e1 29 62 3f
       0.6901407 0.33801755 0.5202241 0.8834515
000030 aa 44 00 3f 97 82 37 3f ed e2 20 3f 6d e4 0d 3f
       0.50104773 0.7168364 0.6284626 0.55426675
000040 82 68 4c 3e 9f 7e 09 3f 6f 32 b2 3e 33 82 18 3f
       0.19961742 0.53708833 0.34804103 0.5957367
000050 d0 60 cc 3e d0 42 07 3f 39 ac 32 3f c3 f5 08 3f
       0.39917612 0.5283632 0.6979404 0.535
000060 82 f8 22 3f 4e 21 0b 3f 0c 2d 0a 3f eb 95 44 3f
       0.6366044 0.54347694 0.53974986 0.76791257
000070 42 b0 1e 3f 00 82 09 3f 2f d3 cf 3e a0 e7 ff 3e
       0.619877 0.5371399 0.40590808 0.49981403
000080 4c b6 00 3f d0 d0 90 3e 50 3b 18 3f 59 91 d3 3e
       0.5027816 0.2828431 0.59465504 0.4132183
000090 e8 44 1a 3f 9c 67 10 3f b0 21 d1 3e be b0 08 3f
       0.6026139 0.56408095 0.40846014 0.5339469
0000a0 07 09 11 3f 4d fd 0e 3f 6b 8a 5d 3f 3d ba 0d 3f
       0.566544 0.55855256 0.86539334 0.553623
0000b0 d7 b1 e2 3e 1e 0e f7 3e 29 c6 f6 3e 6d c9 f7 3e
       0.44276306 0.48252958 0.4819806 0.48395863
0000c0 7f 81 02 3f 2d a8 08 3f 9d e2 ea 3e 27 f8 c1 3e
       0.50978845 0.53381616 0.45876017 0.37884638
0000d0 15 2e 2c 3f 10 80 ed 3e 96 78 07 3f 07 37 3f 3f
       0.67257816 0.46386766 0.52918375 0.7469334
0000e0 f1 e8 1e 3f a3 f1 03 3f 98 8d ea 3e e0 cd f2 3e
       0.6207419 0.51540583 0.45811152 0.47422695
0000f0 6a e3 13 3f 20 c2 05 3f f1 9d bd 3e
       0.5776888 0.52249336 0.37034562

network.10.running_var f4 [63]
000000 4e 71 fb 3d 2c 37 4b 3e 75 82 1b 3e b3 d0 96 3e
       0.122774705 0.19845265 0.15186484 0.294561
000010 28 ca 1a 3e 79 44 1e 3e 57 0a 9d 3e 9b 72 b5 3e
       0.15116179 0.15455808 0.3067195 0.35439
000020 3c 37 62 3e 9f 12 c0 3e 67 e9 33 3e 1e 28 87 3e
       0.22091383 0.37514207 0.17569505 0.26397794
000030 e8 fb 6a 3e 9d 68 2f 3e cf c7 6d 3e c5 8a aa 3d
       0.22947657 0.1712975 0.23220752 0.083272494
000040 71 93 39 3f f3 a6 a5 3e 84 10 21 3d 21 51 13 3e
       0.724906 0.32353935 0.03932239 0.14386417
000050 bb af 34 3e 24 a1 3b 3e 68 40 bc 3d 87 66 44 3e
       0.17645161 0.18323189 0.09191972 0.19179736
000060 4e 3d f8 3d 27 d5 8d 3e 7c 35 96 3e 51 df 2c 3e
       0.12121068 0.27701685 0.2933768 0.16882063
000070 1e 77 3b 3e 03 c7 96 3e 11 38 ce 3d c5 0c 4d 3e
       0.18307158 0.2944871 0.100692876 0.20024402
000080 d2 9a 9a 3d b1 28 1a 3e 37 0e ff 3d 0a b0 12 3e
       0.07549061 0.15054585 0.12453883 0.14324966
000090 84 4f 21 3e ae b7 fd 3d 99 12 31 3e 43 11 13 3e
       0.15752989 0.1238855 0.1729225 0.14362054
0000a0 d0 da a4 3d b0 42 94 3d 31 dd 75 3e f4 6c 9b 3d
       0.08049548 0.07239282 0.24010159 0.075891405
0000b0 6e 5f 31 3e 54 15 14 3e 16 db 39 3e 98 e9 99 3d
       0.1732156 0.14461261 0.18149981 0.075152576
0000c0 90 6a 2e 3e 85 85 7e 3d eb bc 25 3e 9b 84 98 3e
       0.17032838 0.062139053 0.16185348 0.2978867
0000d0 43 c0 6f 3e 08 6b f0 3d 15 14 2a 3e a0 66 98 3e
       0.23413186 0.117391646 0.16609223 0.29765797
0000e0 b4 7d 8f 3d 7d 11 0c 3e 5e c3 ea 3d 14 8f c7 3d
       0.07006398 0.13678546 0.114630446 0.09744087
0000f0 a8 d3 bd 3d aa ca 4f 3d 63 b7 c8 3d
       0.09268886 0.050730385 0.09800603
