src/runs/ann_left_hand/20241108/20241108-1450/ann_left_hand_5_layers_best.pth (torch, 302640 bytes, 34 tensors)

network.0.weight f4 [126, 126]
0	0xbd968235	-0.07349054
1	0xbc02abdd	-0.007975546
2	0xbb0cf965	-0.0021510955
3	0x3ccfe861	0.025379362
4	0xbd6934b1	-0.056935016
5	0x3d48a1fe	0.048982613
6	0xbc37bd70	-0.011214599
7	0xbd421d16	-0.04739102
8	0x3d920294	0.07129398
9	0x3b836728	0.0040101
10	0xbce4f9b3	-0.027951097
11	0xbcd8c1e6	-0.026459645
12	0x3d2e3da4	0.042539254
13	0xbe0cdcb8	-0.13756073
14	0x3bf09842	0.0073423693
15	0x3c375d1d	0.0111916335
16	0xbcb9f717	-0.02270083
17	0x3d24ed74	0.040265515
18	0xbcfee77c	-0.03111624
19	0xbdf0cfe8	-0.11758405
20	0xbd4224a1	-0.047398213
21	0x3dba85cd	0.09107552
22	0x3d9d73dc	0.07688114
23	0xbc4049ec	-0.011736374
24	0x3d8bf3f9	0.068336435
25	0x3d40fc0a	0.047115363
26	0xbd6c5c68	-0.057705313
27	0xbd15c191	-0.036561552
28	0x3c362959	0.0111182565
29	0xbdcb4911	-0.09926046
30	0xbd105855	-0.03524049
31	0x3c15e039	0.009147697
32	0xbd429ece	-0.04751473
33	0xbbf7d61c	-0.0075633656
34	0xbc70caea	-0.014696816
35	0x3dc97253	0.09836259
36	0x3ba9e156	0.005184333
37	0x3d99582c	0.074875206
38	0xbd032b17	-0.032023516
39	0x3cd800d3	0.02636758
40	0xbd6e7c8a	-0.05822424
41	0x3ddad493	0.106850766
42	0xbb83db8a	-0.004023974
43	0x3ce15503	0.027506357
44	0x3bc10a00	0.0058910847
45	0xbc36d81f	-0.011159926
46	0x3c932440	0.017961621
47	0x3d270bac	0.040782616
48	0x3d41c292	0.047304697
49	0xbd8bc163	-0.06823995
50	0x3cc25615	0.023722688
51	0x3dd29191	0.10281671
52	0x3b7c4555	0.0038493474
53	0x3b1993c6	0.0023434027
54	0x3c675c48	0.014121123
55	0x3d3f589c	0.046715364
56	0xbb2ced8e	-0.002638671
57	0xbd09b273	-0.033617448
58	0x3d16afe7	0.036788847
59	0x3d401df2	0.046903558
60	0x3d6bd0f0	0.057572305
61	0x3d883f89	0.06652743
62	0xbcca075d	-0.024661714
63	0xb82ff40a	-4.195053e-05
64	0xbd06d3e5	-0.032916922
65	0xbb139ef8	-0.0022525173
66	0x3d40a724	0.047034398
67	0xbc0bd9bb	-0.008535798
68	0x3dc91c7a	0.098198846
69	0x3da4d4c7	0.080483966
70	0xbc97509a	-0.018471051
71	0x3d26d44a	0.0407298
72	0x3e058ede	0.13042781
73	0x3d89bcac	0.067254394
74	0x3d895ddb	0.06707355
75	0xbc61eae1	-0.01378891
76	0x3c19ec39	0.009394699
77	0x3e114b76	0.14188942
78	0x3d8ac783	0.06776335
79	0x3d83a4be	0.064279065
80	0x3c4cec02	0.0125074405
81	0x3d3421e9	0.04397765
82	0x3dca5ff6	0.09881584
83	0xbd7a021a	-0.06103716
84	0x3e16781b	0.14694254
85	0x3dc1ee99	0.09469337
86	0xbd4f8301	-0.050662044
87	0x3cded846	0.027202737
88	0xbba1ab08	-0.0049337186
89	0x3e0885ca	0.13332286
90	0x3c1def0b	0.009639512
91	0xbd515399	-0.051105116
92	0xbd546b66	-0.051860236
93	0x3d341d47	0.043973234
94	0x3de5b57d	0.11216257
95	0x3db3a70d	0.08772097
96	0x3cb8343d	0.022485847
97	0x3d159268	0.036516577
98	0xbd604554	-0.054753616
99	0x3cdfeee9	0.0273356
100	0xbd8cdb69	-0.06877787
101	0x3dc4bdf2	0.09606542
102	0xbb41e5b4	-0.0029586377
103	0xbd69622c	-0.05697839
104	0x3c7169ea	0.014734725
105	0x3d6ff1cc	0.058580205
106	0xbcbd433d	-0.02310335
107	0xbc0cc1dd	-0.0085911425
108	0xbda3effa	-0.08004756
109	0x3b903a54	0.0044014845
110	0xbd543213	-0.051805567
111	0xbd9771a0	-0.07394719
112	0x3d4aeea1	0.04954398
113	0xbdc0ae4a	-0.09408243
114	0x3d1cc4ef	0.038273748
115	0xbd827e10	-0.06371701
116	0xbca66d36	-0.020315748
117	0x3d8b495f	0.06801104
118	0x3da6067c	0.081067055
119	0xbca84531	-0.020540806
120	0xbd37ef71	-0.044906083
121	0x3d1d51d2	0.038408108
122	0x3c1563e5	0.009118055
123	0x3c3cc79b	0.011522199
124	0xbd2e8bd8	-0.042613834
125	0x3d199e70	0.037504613
126	0x3c844a92	0.01614884
127	0xbdb0e0b1	-0.086366065
128	0xbdb3e1fc	-0.087833375
129	0x3dd13b3e	0.10216378
130	0x3c983c15	0.018583337
131	0xbd816713	-0.06318488
132	0x3d137383	0.035998832
133	0x3be1a1f7	0.006885763
134	0x3df564e9	0.11982138
135	0x3d100260	0.035158515
136	0x3d0a13e4	0.033710375
137	0x3d500930	0.050790012
138	0x3dbd6593	0.09247889
139	0x3d473a07	0.048639324
140	0xbcc86e3b	-0.024466624
141	0xbcfdf0c1	-0.03099859
142	0x3d894391	0.067023404
143	0x3c83be01	0.016081812
144	0x3aaa7680	0.0013005286
145	0x3c93c793	0.0180395
146	0x3d197502	0.037465103
147	0xbe1157ff	-0.14193724
148	0x3c998b92	0.01874331
149	0x3dcfe4f0	0.10151088
150	0x3d3b0d23	0.045666825
151	0x3d6610d0	0.056168377
152	0xbdb1b7ef	-0.08677661
153	0xbcc43503	-0.02395106
154	0x3d1ddc12	0.038539954
155	0x3d10d366	0.035357855
156	0xbd33a5ba	-0.04385922
157	0xbd82cc4a	-0.06386621
158	0x3b7bcfc0	0.003842339
159	0x3d8ad9fb	0.06779858
160	0xbdfeedf5	-0.124477305
161	0x3d4d6047	0.050140645
162	0x3d957772	0.07298173
163	0x3d5ec871	0.054390375
164	0xbd916f38	-0.071012914
165	0x3d318a71	0.04334492
166	0x3cba0fc6	0.0227126
167	0xbcecbdaa	-0.028899033
168	0xbd9a6f5c	-0.07540771
169	0xbd5dc2b0	-0.054140747
170	0x3c1947b3	0.009355473
171	0xbcf6a15c	-0.030106239
172	0x3cd36d84	0.025809057
173	0x3d2d1034	0.04225178
174	0xbd253433	-0.040332984
175	0x3bf12709	0.0073593897
176	0x3c815082	0.01578546
177	0x3cb0325a	0.021508384
178	0x3c785933	0.0151579855
179	0xbc627c41	-0.01382357
180	0xbd706bd8	-0.058696598
181	0xbd268ba9	-0.040660534
182	0xbd05a2b7	-0.03262588
183	0xbca631e5	-0.020287463
184	0x3a478467	0.0007610977
185	0x3d50a754	0.050940827
186	0x3db965f6	0.09052651
187	0xbbe103a9	-0.0068668914
188	0xbd274b98	-0.040843576
189	0x3d545524	0.05183901
190	0x3d932a21	0.0718577
191	0x3cc397d9	0.023876118
192	0xbd9c207b	-0.07623383
193	0xbe08bceb	-0.13353316
194	0xbcd366ad	-0.025805796
195	0xbd840793	-0.06446757
196	0xbd85442d	-0.06507144
197	0xbd44fcfe	-0.048092835
198	0xbcb55985	-0.022137413
199	0x3d268d47	0.040662076
200	0xbcae91ae	-0.0213097
201	0x3d493889	0.04912618
202	0xbd9c79fe	-0.07640456
203	0xbb63fb10	-0.0034787096
204	0x3d081b88	0.03322938
205	0x3ce0d149	0.027443545
206	0xbdaadc92	-0.08342852
207	0x3d3db1d0	0.046312153
208	0x3ce5d126	0.028053831
209	0xbcdd312a	-0.027000982
210	0xbe272d1e	-0.16325805
211	0xbd6a9f7b	-0.057281
212	0x3e060504	0.13087851
213	0x3dda4487	0.10657602
214	0x3e587795	0.21139367
215	0xbc3c07b5	-0.011476447
216	0x3c10d5f0	0.008840069
217	0x3d30c361	0.043155078
218	0x3da6b89f	0.081406824
219	0xbc491ef5	-0.012275447
220	0xbc2eda51	-0.010672168
221	0xbd43f7a8	-0.047843605
222	0x3dcddea1	0.10052229
223	0xbd850c95	-0.064965405
224	0xbcd09c32	-0.025465105
225	0xbd10c725	-0.03534617
226	0x3d4874aa	0.048939385
227	0xbd89a29b	-0.06720468
228	0xbd31d0b1	-0.043411914
229	0xbcf3f67f	-0.029780624
230	0x3bf0b40c	0.007345682
231	0xbe1bc8e7	-0.15213357
232	0x3d2f9c4f	0.042873677
233	0x3d4be72d	0.049781013
234	0x3cffdcfa	0.0312333
235	0x3dcc790a	0.09984024
236	0xbd0e60ea	-0.034760393
237	0xbcac147b	-0.02100586
238	0xbcbab4b9	-0.022791253
239	0x3c1c5ab3	0.009543109
240	0x3d183c96	0.037167154
241	0x3a1abf3c	0.000590313
242	0xbcafd059	-0.021461653
243	0x3d3fd255	0.046831448
244	0xbdced469	-0.10099108
245	0xbbcdb366	-0.0062774895
246	0xbd7cc62f	-0.06171244
247	0x3cfb0395	0.030641356
248	0xbd956d70	-0.07296264
249	0xbd125693	-0.035727095
250	0xbdef29ca	-0.116778925
251	0xbd20105f	-0.039078113
252	0x3e4a879b	0.19778292
253	0x3c7e297b	0.015512819
254	0xbd9326f3	-0.07185163
255	0xbda776bb	-0.08176943

network.0.bias f4 [126]
0	0x3ee9adf2	0.45640522
1	0x3ef89226	0.48549002
2	0x3eedae44	0.46422017
3	0x3f04b449	0.51837593
4	0x3ef483c6	0.47756785
5	0x3f09e86c	0.5387027
6	0x3ef7c274	0.48390543
7	0x3eeb991c	0.4601525
8	0x3efe96c3	0.49724397
9	0x3f0291bd	0.5100363
10	0x3f038d30	0.5138731
11	0x3f02efa1	0.51146895
12	0x3f030522	0.5117971
13	0x3efa2de5	0.4886314
14	0x3f06ecbc	0.5270498
15	0x3f031bf2	0.51214516
16	0x3f05a4d7	0.5220465
17	0x3eeb6a31	0.45979455
18	0x3f089723	0.53355616
19	0x3f1b4987	0.6065907
20	0x3f0804b3	0.5313217
21	0x3f0155f1	0.5052176
22	0x3f009fc3	0.5024378
23	0x3ef6d764	0.48211205
24	0x3f0688d7	0.5255255
25	0x3f0070f7	0.5017237
26	0x3f06228e	0.52396476
27	0x3ee053e4	0.43814003
28	0x3efce95a	0.49396783
29	0x3ee789fd	0.45222464
30	0x3edb0ad7	0.42781708
31	0x3f018351	0.50591
32	0x3efa4f32	0.48888546
33	0x3efa8b6c	0.48934495
34	0x3f08c303	0.53422564
35	0x3ef742a0	0.48293018
36	0x3f060db9	0.5236469
37	0x3f03f593	0.5154659
38	0x3f040e29	0.51584107
39	0x3ef540b2	0.4790092
40	0x3ef7b886	0.48382968
41	0x3ef0ece1	0.47055724
42	0x3eff2091	0.49829534
43	0x3f00a934	0.50258183
44	0x3ef676c1	0.48137477
45	0x3eeff07d	0.46863165
46	0x3efe4790	0.49663973
47	0x3f019ccc	0.5062988
48	0x3ef5ba63	0.47993764
49	0x3f078bdd	0.5294779
50	0x3f116ab3	0.56803435
51	0x3ef93d42	0.48679549
52	0x3f00bbbf	0.5028648
53	0x3f03a65d	0.51425725
54	0x3ef2b879	0.47406366
55	0x3eeef1ee	0.46668953
56	0x3efe2c02	0.4964295
57	0x3eed6660	0.46367168
58	0x3ef223a4	0.47292817
59	0x3ee87533	0.45401916
60	0x3efa17e4	0.48846352
61	0x3f00bc8b	0.50287694
62	0x3f05dd5d	0.522909
63	0x3f008b18	0.5021224
64	0x3eeb01c3	0.45899782
65	0x3efe075c	0.4961499
66	0x3ee56fe1	0.4481192
67	0x3f00a091	0.50245005
68	0x3f044339	0.51665074
69	0x3f0426e1	0.51621825
70	0x3eff5b8f	0.4987454
71	0x3ef4dff1	0.47827104
72	0x3f182168	0.59425974
73	0x3ef46161	0.47730544
74	0x3f0db965	0.55361015
75	0x3ef01c66	0.46896666
76	0x3ee9d83f	0.45672795
77	0x3ef02bc6	0.46908396
78	0x3f06f083	0.5271074
79	0x3ee410f4	0.44544184
80	0x3ef91ab1	0.48653176
81	0x3f03d24d	0.5149277
82	0x3f066de3	0.52511424
83	0x3eec42a9	0.46144608
84	0x3f01b418	0.50665426
85	0x3ee70252	0.45118958
86	0x3f013431	0.5047026
87	0x3ef56b66	0.479335
88	0x3ef96ad0	0.48714304
89	0x3ef7e597	0.4841735
90	0x3f0aea0f	0.54263395
91	0x3f00ee7d	0.50363904
92	0x3efec5a3	0.4976016
93	0x3f09742e	0.536929
94	0x3ef5a63d	0.47978392
95	0x3eefdbfc	0.46847522
96	0x3f0e8dce	0.55685127
97	0x3f0499ef	0.51797384
98	0x3ef76d24	0.48325455
99	0x3efa40a5	0.48877445
100	0x3f0264ea	0.5093523
101	0x3f0028d6	0.5006231
102	0x3efe05e5	0.49613872
103	0x3eea5aaf	0.4577231
104	0x3f037f22	0.51365864
105	0x3eff62e4	0.49880135
106	0x3ee79636	0.4523179
107	0x3ef02d31	0.46909478
108	0x3f088113	0.5332195
109	0x3ef879bd	0.4853038
110	0x3f0c5878	0.5482249
111	0x3f00b04d	0.50269014
112	0x3ef583df	0.47952172
113	0x3f01f5b5	0.50765544
114	0x3effb25d	0.49940768
115	0x3efe71c7	0.4969618
116	0x3ef90191	0.48634008
117	0x3f045196	0.5168699
118	0x3f0da51a	0.5533005
119	0x3f0c9529	0.549151
120	0x3f0066a6	0.5015663
121	0x3f00bb5e	0.502859
122	0x3edc8c1e	0.4307565
123	0x3f00d586	0.5032581
124	0x3efdead8	0.49593234
125	0x3ee19897	0.4406173

network.1.running_mean f4 [126]
0	0x3f968dbb	1.1762003
1	0x3f202161	0.6255093
2	0x3ec88b8b	0.39168963
3	0x3f863779	1.0485679
4	0x3ea68ac9	0.3252776
5	0x3f84de56	1.0380352
6	0x3f8518d9	1.0398208
7	0xbf9374cd	-1.152002
8	0xbf510b4f	-0.8165788
9	0x3e91401f	0.28369233
10	0x3e791fef	0.24328588
11	0x3f4f8bc3	0.81072634
12	0x3f1a12c9	0.60184914
13	0x3eeb08f6	0.45905274
14	0x3e2df723	0.16988806
15	0x3f6c1b9c	0.9222963
16	0xbe8c58c3	-0.2741147
17	0xbea1297e	-0.3147697
18	0x3f10141e	0.56280696
19	0x3f52997b	0.8226544
20	0x3f2bd9b5	0.6712907
21	0xbf49bd33	-0.7880432
22	0x3f59bfb8	0.85058165
23	0x3f766521	0.9624806
24	0x3eb94324	0.36184037
25	0x3f3ce51a	0.7378708
26	0x3f445625	0.76693946
27	0xbf8cf0ba	-1.1010964
28	0x3fd68593	1.6759514
29	0x3f7a214f	0.97707075
30	0x3f391ef9	0.72312886
31	0x3bd71958	0.0065643005
32	0xbe389330	-0.18024898
33	0x3f443a15	0.76651126
34	0x3f551223	0.832308
35	0xbeb3a13d	-0.35083953
36	0xbe81bda0	-0.25339985
37	0xbdbbde16	-0.09173219
38	0x3f48d6b1	0.78452593
39	0x3f19229a	0.5981842
40	0x3fca1c19	1.5789825
41	0x3f1b8d14	0.60762143
42	0xbe87a591	-0.26493505
43	0xbe70f9f7	-0.23532854
44	0x3c5cba9a	0.013472224
45	0x3ef9a8f3	0.4876171
46	0x3f3cead5	0.73795825
47	0x3f85a77c	1.0441737
48	0x3e510aa5	0.20414217
49	0x3f732307	0.9497532
50	0xbe6ac335	-0.22926028
51	0xbe610182	-0.21973231
52	0x3fc462a2	1.53426
53	0xbdf02e01	-0.117275245
54	0x3f81f80a	1.015382
55	0xbf1029c8	-0.56313753
56	0x3f6ea7d0	0.9322481
57	0x3f08b0a1	0.53394514
58	0xbed20cff	-0.4102554
59	0x3ee373fd	0.4442443
60	0x3e5d50c4	0.21612841
61	0x3c81585a	0.0157892
62	0x3e86c7b8	0.26324248
63	0x3f2ad45f	0.667303
64	0x3f958cbe	1.1683576
65	0x3f812848	1.0090418
66	0x3f41aec1	0.7565728
67	0x3f257ce7	0.6464371
68	0xbecbb273	-0.39784583
69	0x3f5b5630	0.85678387
70	0x3e78a8c6	0.24283132
71	0x3f081a6b	0.5316531
72	0x3fa9c4a4	1.3263135
73	0xbc1aab75	-0.009440293
74	0x3f06d942	0.5267526
75	0xbeb59e00	-0.35472107
76	0x3f8ae287	1.0850381
77	0x3eeae6b9	0.45879152
78	0x3f23b6f4	0.6395104
79	0x3fa99600	1.3248901
80	0x3f41e3b4	0.7573807
81	0x3f88328b	1.0640424
82	0xbdda77e8	-0.106674016
83	0xbf4f0352	-0.8086444
84	0x3e42c622	0.19020894
85	0xbe8073e1	-0.2508841
86	0x3e1e2817	0.1544498
87	0x3fb6e331	1.4288083
88	0xbf8b2a99	-1.0872375
89	0x3f0b5eaf	0.5444135
90	0x3f291a47	0.6605572
91	0x3ecb4722	0.39702708
92	0xba9e0142	-0.0012054818
93	0x3f67c361	0.905325
94	0xbf4a2c6c	-0.7897403
95	0x3f2326c3	0.6373102
96	0xbf0dc53f	-0.553791
97	0x3f720b1d	0.9454821
98	0xbe9ae3c5	-0.302519
99	0x3f261cbf	0.64887613
100	0xbeb677f8	-0.35638404
101	0x3e8b63d7	0.2722461
102	0xbede11d2	-0.4337297
103	0xbedd3870	-0.4320712
104	0x3e955ade	0.2917089
105	0xbb841a1f	-0.004031434
106	0x3f66f9a8	0.90224695
107	0x3f0bb2b5	0.5456956
108	0x3f6f4d6c	0.9347751
109	0xbe1ffafa	-0.15623084
110	0xbdd82983	-0.10554793
111	0x3e47f2fa	0.19526282
112	0xbf0db960	-0.55360985
113	0x3f1fa811	0.62365824
114	0x3f33fb8a	0.70305693
115	0x3dcd9cd3	0.100396775
116	0x3f2d792e	0.6776303
117	0x3de5cb3e	0.11220406
118	0xbe767555	-0.24068196
119	0x3f1683ca	0.58794844
120	0x3f334c49	0.70038277
121	0x3d03efb0	0.032211006
122	0x3f461a78	0.7738414
123	0x3f771195	0.96511203
124	0x3fea9b4e	1.8328645
125	0x3f6502fb	0.8945767

network.1.running_var f4 [126]
0	0x3b457bf8	0.0030133706
1	0x3a5211f1	0.0008013538
2	0x3abe477d	0.0014517155
3	0x3b3bedee	0.0028675753
4	0x3b172940	0.0023065358
5	0x3b9ade9b	0.0047262437
6	0x3b526993	0.0032106384
7	0x3bf1501e	0.007364287
8	0x3bba9f03	0.005695225
9	0x3ba430e6	0.005010712
10	0x3b45e51b	0.0030196372
11	0x3b4002ad	0.002929847
12	0x3b14052d	0.0022586093
13	0x3b1d2bc0	0.0023982376
14	0x3b2d92d2	0.0026485217
15	0x3b14f806	0.0022730841
16	0x3b17c51e	0.0023158262
17	0x3b924473	0.004463726
18	0x3abeda97	0.0014560994
19	0x3b0f57c1	0.0021872374
20	0x3a5271eb	0.00080278394
21	0x3c224764	0.009904716
22	0x3b9c0be1	0.0047621583
23	0x3b1b9ccd	0.0023744584
24	0x3b4a9113	0.0030909225
25	0x3adde5e7	0.0016929478
26	0x3b62528c	0.0034534065
27	0x3babe85b	0.005246205
28	0x3b791cc3	0.0038011528
29	0x3aeeb255	0.0018211106
30	0x3add3a0e	0.0016878264
31	0x3ad174f8	0.0015980294
32	0x3b49aadb	0.0030772004
33	0x3b7c80a7	0.0038528831
34	0x3aa5eef2	0.0012659712
35	0x3ba12872	0.0049181515
36	0x3aface00	0.0019134879
37	0x3a9dca7c	0.0012038494
38	0x3ac42386	0.00149642
39	0x3b4ffc38	0.0031736027
40	0x3b5c6f74	0.0033635767
41	0x3b3824e7	0.0028098167
42	0x3b7eeaa0	0.0038897172
43	0x3b483733	0.003055048
44	0x3b1b5a1a	0.0023704828
45	0x3afb69dd	0.001918133
46	0x3ad17d84	0.0015982841
47	0x3adaf384	0.0016704653
48	0x3bc370aa	0.0059643583
49	0x3b97677d	0.004620491
50	0x3aa97343	0.0012928027
51	0x3bf5a7ba	0.007496801
52	0x3c2cd0f3	0.010547864
53	0x3a8b9aa0	0.001065094
54	0x3ac010e6	0.0014653474
55	0x3c09aea8	0.008403458
56	0x3bb941bc	0.005653588
57	0x3bc22c84	0.005925717
58	0x3b2b7384	0.0026161382
59	0x3b9e2bab	0.004826983
60	0x3afc64f1	0.0019256157
61	0x3a34a395	0.00068908307
62	0x3b4b68c3	0.0031037785
63	0x3aec9f96	0.0018052931
64	0x3b2f50b1	0.0026750977
65	0x3b9df648	0.004820619
66	0x3b415c0b	0.0029504325
67	0x3ad4481a	0.0016195804
68	0x3b9324c5	0.0044904673
69	0x3accc7c7	0.0015623503
70	0x3b17cc11	0.0023162405
71	0x3ac83ffd	0.0015277859
72	0x3b211d20	0.002458401
73	0x3acec77b	0.0015776003
74	0x3b11d855	0.0022254188
75	0x3b8d3b54	0.004310051
76	0x3b4cd54a	0.003125506
77	0x3b725df1	0.0036982263
78	0x3b11de76	0.0022257841
79	0x3bb72e4a	0.005590235
80	0x3b2a751f	0.002600975
81	0x3b92c9f5	0.0044796416
82	0x3b2c6bfb	0.0026309479
83	0x3ba7b071	0.005117469
84	0x3b06a4ad	0.0020544932
85	0x3b76d8fd	0.0037665956
86	0x3b2cff60	0.0026397333
87	0x3ba3b88a	0.004996364
88	0x3bd599cb	0.0065185777
89	0x3adfa3a6	0.0017062321
90	0x3b7aebf5	0.0038287614
91	0x3b107fb9	0.0022048785
92	0x3b6bdfc0	0.003599152
93	0x3c021488	0.007939465
94	0x3bcb6699	0.006207299
95	0x3b1877b9	0.002326472
96	0x3bb6a1ae	0.005573473
97	0x3abe8c96	0.0014537747
98	0x3b56adaf	0.0032757332
99	0x3abc4094	0.0014362507
100	0x3bc48274	0.0059969965
101	0x3ab18dec	0.0013546324
102	0x3b3507ed	0.0027623132
103	0x3b51fd42	0.0032041823
104	0x3a9c9577	0.00119464
105	0x3b5bde59	0.0033549278
106	0x3a49d7e2	0.00076997105
107	0x3b9fe16d	0.004879168
108	0x3b6189bb	0.003441437
109	0x3b10b07b	0.0022077847
110	0x3a83b777	0.0010049184
111	0x3b531ade	0.003221206
112	0x3bc165c6	0.005902025
113	0x3b56eac9	0.0032793751
114	0x3bda4e8d	0.006662196
115	0x3b44e653	0.003004451
116	0x3b725428	0.003697643
117	0x3a32192f	0.0006793914
118	0x3a30cec3	0.0006744677
119	0x3a82179c	0.0009925249
120	0x3b206347	0.0024473236
121	0x3b66fc8b	0.0035245742
122	0x3afcf562	0.0019299204
123	0x3aec29cb	0.0018017826
124	0x3b8997c6	0.004199001
125	0x3b1d0851	0.0023961256

network.3.weight f4 [100, 126]
0	0x3d311de4	0.043241397
1	0x3d8f94c5	0.070107974
2	0xbd888253	-0.06665482
3	0xbc9d2184	-0.01918102
4	0xbd97685e	-0.07392953
5	0xbdc412ea	-0.0957392
6	0xbdc643d3	-0.09680905
7	0xbc9cbd45	-0.01913322
8	0x3d36b329	0.044604454
9	0x3ce2c9bc	0.027684085
10	0x3d936fa0	0.07199025
11	0x3dc67c0c	0.09691629
12	0x3d00441a	0.031314947
13	0x3e0463a0	0.12928629
14	0x3cc8bce6	0.024504136
15	0x3da6ae90	0.08138764
16	0x3d8054d9	0.062661834
17	0xbc8380ae	-0.01605257
18	0xbb878dac	-0.0041367617
19	0xbda5b084	-0.08090308
20	0xbb78e105	-0.003797592
21	0x3d5e9398	0.054339975
22	0x3bea8dc9	0.0071580154
23	0x3c3c255d	0.0114835175
24	0x3dcffefa	0.10156055
25	0xbd8d3d54	-0.06896463
26	0x3e002cf2	0.12517145
27	0xbd660be7	-0.056163695
28	0xbd18214b	-0.037141126
29	0x3d6a2216	0.057161413
30	0x3deea8d9	0.11653299
31	0x3d62a71e	0.055335157
32	0xbdddbdc5	-0.10827211
33	0xbc647053	-0.013942796
34	0x3d535a74	0.051599935
35	0x3d6daba5	0.05802502
36	0x3c96ac4f	0.01839271
37	0x3c8ce37c	0.017198317
38	0x3ca3f85b	0.020015886
39	0xbce42b33	-0.02785263
40	0x3d51d9a0	0.051232934
41	0x3b93f320	0.0045150667
42	0xbc61d377	-0.013783327
43	0x3d1608f8	0.036629647
44	0xbcb325be	-0.021868583
45	0x3d70e9ae	0.058816604
46	0xbc38f32d	-0.011288446
47	0x3d6d8518	0.057988256
48	0xbdd93c3e	-0.106071934
49	0x3d10c39a	0.03534279
50	0x3d0e6c24	0.0347711
51	0x3dd2f4ad	0.103005745
52	0xbd206731	-0.03916091
53	0x3dc94407	0.09827428
54	0xba1b768e	-0.0005930447
55	0xbcd3279b	-0.025775721
56	0xbd94c4ef	-0.072641246
57	0x3d123ab3	0.03570051
58	0xbc486388	-0.012230761
59	0xbe038b3c	-0.12846082
60	0x3c25a98b	0.010111223
61	0x3d0296ab	0.03188197
62	0x3dbb2e6f	0.09139716
63	0x3ce5d524	0.028055735
64	0x3a84ac68	0.0010122182
65	0xbd5071bc	-0.050889716
66	0xbc1fdf6f	-0.009757861
67	0x3c3cd902	0.011526348
68	0x3d50e6f0	0.05100149
69	0xbd3d9eee	-0.046294145
70	0x3d8d790f	0.06907856
71	0xbba4442c	-0.0050130095
72	0xbd89464e	-0.06702863
73	0xbcb22245	-0.021744857
74	0xbd8a3fd4	-0.067504555
75	0xbdae8692	-0.08521761
76	0x3c56787c	0.013090249
77	0x3d05b361	0.032641772
78	0x3cfdb16c	0.03096839
79	0x3dc27b28	0.094961464
80	0xbd162158	-0.036652893
81	0xbd98c38f	-0.07459175
82	0x3cc90c2c	0.024541937
83	0x3d5fe035	0.05465718
84	0xbc61d528	-0.013783731
85	0x3ccf0231	0.0252696
86	0xbd5e6407	-0.054294612
87	0x3d5e65b1	0.0542962
88	0xbd88e2c2	-0.066838756
89	0x3d8b0f45	0.06790022
90	0x3d8a9879	0.06767363
91	0x3dab3728	0.083601296
92	0xb9546672	-0.0002025606
93	0xbdb6b698	-0.08921546
94	0x3d48c854	0.049019173
95	0x3e0ce4e1	0.13759185
96	0xbcc83346	-0.024438512
97	0x3d1c7ec7	0.03820684
98	0x3d2cc158	0.042176574
99	0xbd9387f3	-0.07203665
100	0xbd7044df	-0.05865943
101	0x3bb6ef63	0.0055827363
102	0xbdd1412d	-0.102175094
103	0x3d647684	0.055777088
104	0x3bebf769	0.0072011244
105	0x3d18d070	0.037308156
106	0x3c49732f	0.012295528
107	0xbda0f1bf	-0.078586094
108	0xbd2f2bf1	-0.042766515
109	0x3c68ae59	0.014201724
110	0x3cee685a	0.029102493
111	0xbd8541fb	-0.065067254
112	0xbdcbc7a1	-0.099501856
113	0x3e25f343	0.16206078
114	0x3d32ca13	0.043649744
115	0x3df05384	0.11734679
116	0x3c3a081a	0.011354471
117	0xbc9adbc7	-0.018903626
118	0x3d881886	0.066453025
119	0xbd96fbb9	-0.07372231
120	0xbd98bd49	-0.07457978
121	0xbe0ac6ef	-0.1355245
122	0xbcd37f54	-0.02581755
123	0xbd3f2b2c	-0.04667203
124	0xbc9ed955	-0.019390741
125	0xbc98b94d	-0.018643046
126	0x3d8fd693	0.07023349
127	0xbd899cb4	-0.06719342
128	0xbe151522	-0.14558843
129	0x3b695db3	0.0035608828
130	0x3d63a7e9	0.055580053
131	0x3db5fdd0	0.088863015
132	0xbc280344	-0.010254685
133	0x3d520c89	0.051281486
134	0xbd83e886	-0.06440835
135	0x3d3e5b06	0.046473525
136	0xbc6e04c6	-0.014527505
137	0xbcf4a3e0	-0.029863298
138	0x3df8efc9	0.121551104
139	0xbc9e53fe	-0.01932716
140	0xbdd91c6e	-0.10601126
141	0x3d2fde35	0.042936523
142	0xbd413081	-0.047165398
143	0xbd11002f	-0.035400566
144	0xbd17d7d2	-0.037071057
145	0xbcd3bc69	-0.025846677
146	0xbd565a9c	-0.052332506
147	0x3a81a719	0.0009891718
148	0xbd3bcc22	-0.045848973
149	0x3cf47c6f	0.02984449
150	0x3e0c9f14	0.13732558
151	0xbca6f129	-0.020378666
152	0xbc1548f1	-0.009111629
153	0xbdc2ca6b	-0.095112644
154	0x3cde19e8	0.027111962
155	0x3da345cc	0.07972297
156	0x3a3bde18	0.00071665784
157	0xbdfe6552	-0.12421669
158	0xbbce61d0	-0.0062982813
159	0xbd63cd31	-0.055615608
160	0xbd6e8988	-0.05823663
161	0x3d8c903f	0.0686345
162	0xbd88f72a	-0.06687768
163	0x3d8c560e	0.06852351
164	0x3d2e4be3	0.04255284
165	0xbe16bbaf	-0.14720033
166	0x3cd21504	0.025644787
167	0xbd73ff8a	-0.059569873
168	0xbe051e6d	-0.12999888
169	0xbd843b44	-0.064566165
170	0xbd82a085	-0.06378273
171	0x3c05f97c	0.0081771575
172	0xbd031a8a	-0.03200773
173	0xbd538b6b	-0.05164663
174	0xbbabe2fb	-0.005245564
175	0xbd140194	-0.036134318
176	0xbc929872	-0.017894957
177	0xbd166c8f	-0.036724623
178	0x3df0579c	0.1173546
179	0xbc99b611	-0.018763574
180	0xbc59fe85	-0.013305311
181	0xbd334c36	-0.043773852
182	0x3d0759ea	0.033044733
183	0x3d3aad87	0.045575645
184	0xbcc5df86	-0.024154436
185	0xbda071d9	-0.07834215
186	0xbcfd6f6f	-0.030936925
187	0xbd344df5	-0.044019658
188	0xbd407836	-0.046989642
189	0x3d17f8bc	0.037102446
190	0xbbf78795	-0.0075540044
191	0xbd16deff	-0.03683376
192	0x3d1d99a8	0.038476616
193	0x3cadbf85	0.021209488
194	0xb9b25857	-0.00034016624
195	0xbd83f850	-0.06443846
196	0x3c6f2050	0.014595106
197	0xbbfc2c39	-0.0076957014
198	0x3d86d8bf	0.0658431
199	0xba983351	-0.0011611973
200	0xbdedcc42	-0.11611225
201	0xbdd11e48	-0.10210854
202	0x3d0d20db	0.03445516
203	0xbd2979f9	-0.041376088
204	0x3dcf7ef5	0.10131637
205	0xbd4e31ae	-0.050340347
206	0x3a644cea	0.0008708971
207	0xbd2db35f	-0.04240739
208	0xbd7c824d	-0.061647702
209	0xbe28d0db	-0.16485922
210	0xbd228522	-0.039677747
211	0x3c929156	0.017891567
212	0x3d846621	0.06464792
213	0x3d686ce0	0.056744456
214	0xbd775813	-0.06038673
215	0xbc637483	-0.013882759
216	0x3cadc1e0	0.02121061
217	0x3da4226e	0.080143794
218	0xbc410688	-0.011781342
219	0x3d2ff35e	0.042956702
220	0xbca9cc78	-0.020727381
221	0xbb2049c6	-0.0024458035
222	0x3d121702	0.035666473
223	0xbccc3fa7	-0.024932696
224	0x3cde8cca	0.027166743
225	0x3be71f6c	0.0070533063
226	0x3ce43147	0.027855529
227	0xbda56e07	-0.08077627
228	0xbd4665cf	-0.048436936
229	0xbba0f1ac	-0.004911622
230	0xbac85214	-0.001528325
231	0x3cd9f524	0.02660615
232	0x3ca4eb7b	0.020131817
233	0xbe1d6284	-0.15369612
234	0xbde6f450	-0.11277068
235	0xbdbdfb75	-0.09276477
236	0xbd32d764	-0.043662444
237	0x3d64ccac	0.055859253
238	0xbc78cb12	-0.0151851345
239	0x3d93a0b4	0.07208386
240	0xb921ce4b	-0.00015431007
241	0xbda6915c	-0.08133194
242	0xbd85da93	-0.0653583
243	0xbdef8a72	-0.11696328
244	0x3c863e5f	0.016387163
245	0xbe01ce0f	-0.12676261
246	0xbc01464d	-0.007890296
247	0xbdc30994	-0.09523311
248	0x3d996646	0.0749021
249	0xbce03cc7	-0.02737273
250	0xbb798691	-0.0038074593
251	0x3db247a6	0.08705072
252	0x3cf762c7	0.030198468
253	0xbd82369a	-0.06358071
254	0xbd8b5b2a	-0.068044975
255	0xbd860def	-0.06545626

network.3.bias f4 [100]
0	0x3efbd79e	0.4918794
1	0x3efe1ce4	0.49631417
2	0x3efd8da7	0.49522135
3	0x3efe0963	0.49616536
4	0x3eff84ad	0.4990591
5	0x3f000465	0.50006706
6	0x3efef779	0.49798182
7	0x3eff4d65	0.49863735
8	0x3f00f269	0.5036989
9	0x3efdce99	0.49571684
10	0x3f01599e	0.5052737
11	0x3eff0322	0.49807078
12	0x3f00482b	0.5011012
13	0x3efe6c01	0.49691775
14	0x3efc688e	0.4929852
15	0x3f03cfcb	0.5148894
16	0x3efee42e	0.49783462
17	0x3efc6c89	0.49301556
18	0x3f003096	0.50074136
19	0x3f00327c	0.50077033
20	0x3efe5d19	0.49680403
21	0x3f008567	0.50203556
22	0x3eff833c	0.4990481
23	0x3eff8620	0.49907017
24	0x3f003036	0.50073564
25	0x3f017339	0.5056644
26	0x3effcd48	0.49961305
27	0x3eff3cb2	0.49850994
28	0x3f0057bd	0.5013388
29	0x3f01a8c0	0.5064812
30	0x3effac4f	0.4993615
31	0x3f00185c	0.5003717
32	0x3eff1737	0.498224
33	0x3f0004af	0.50007147
34	0x3effe26c	0.49977434
35	0x3eff2bff	0.49838254
36	0x3efecc79	0.49765375
37	0x3f007b69	0.5018831
38	0x3effb2c5	0.49941078
39	0x3f004e41	0.50119406
40	0x3f00b563	0.50276774
41	0x3efdf151	0.49598172
42	0x3eff302e	0.49841446
43	0x3efff50a	0.49991637
44	0x3f00c37d	0.5029829
45	0x3eff7a39	0.49897936
46	0x3efeaa71	0.4973941
47	0x3f0013ed	0.50030404
48	0x3effb45e	0.49942297
49	0x3eff9967	0.49921724
50	0x3f0146e0	0.5049877
51	0x3effd202	0.4996491
52	0x3efd7939	0.49506548
53	0x3f00c639	0.50302464
54	0x3eff132d	0.49819317
55	0x3efd5804	0.49481213
56	0x3eff79c9	0.49897602
57	0x3eff77c1	0.49896052
58	0x3f003fae	0.5009717
59	0x3f00a86b	0.50256985
60	0x3f006c1a	0.5016495
61	0x3f005165	0.501242
62	0x3efeb304	0.49745953
63	0x3f058246	0.52151906
64	0x3f0412a5	0.5159095
65	0x3f016c53	0.50555915
66	0x3f00394b	0.5008742
67	0x3efe6651	0.49687436
68	0x3efe9733	0.4972473
69	0x3eff6553	0.49881992
70	0x3f001e51	0.5004626
71	0x3eff70b0	0.4989066
72	0x3efeb568	0.49747777
73	0x3f005d73	0.5014259
74	0x3efe64fc	0.4968642
75	0x3f012ff2	0.50463784
76	0x3f00250b	0.50056523
77	0x3f00a0af	0.50245184
78	0x3f00570c	0.50132823
79	0x3f001edc	0.5004709
80	0x3f010deb	0.5041186
81	0x3f0124c4	0.50446725
82	0x3f004ed0	0.5012026
83	0x3f019f7c	0.5063398
84	0x3f00018e	0.5000237
85	0x3f000685	0.5000995
86	0x3eff0765	0.4981033
87	0x3f001912	0.50038254
88	0x3efd6ef4	0.49498713
89	0x3effd14b	0.49964365
90	0x3eff7800	0.4989624
91	0x3f014b96	0.5050596
92	0x3f000cec	0.5001972
93	0x3f0109cf	0.5040559
94	0x3efed7e5	0.4977409
95	0x3effebb6	0.4998452
96	0x3efe20e8	0.4963448
97	0x3f0014e3	0.5003187
98	0x3f00815f	0.50197405
99	0x3f007d52	0.50191224

network.4.running_mean f4 [100]
0	0x3f17d862	0.5931455
1	0x3e18a752	0.14907578
2	0x3ee584b1	0.44827798
3	0x3e004e93	0.12529974
4	0x3eb92008	0.3615725
5	0x3f05d003	0.52270526
6	0x3ece5d25	0.4030544
7	0x3ed3e18e	0.41383022
8	0x3eca69cc	0.39533842
9	0x3ea73e21	0.32664588
10	0x3f2da177	0.678245
11	0x3ee73a2c	0.4516157
12	0x3f4c8444	0.7988932
13	0x3ebc8fb7	0.36828396
14	0x3e4e1b75	0.20127662
15	0x3eff2e80	0.49840164
16	0x3eb4c17d	0.3530387
17	0x3ed96bb9	0.42464998
18	0x3e9b69f6	0.3035428
19	0x3e9f99ee	0.31172127
20	0x3dd43999	0.103625484
21	0x3f3f306b	0.74683255
22	0x3eb3a825	0.35089222
23	0x3eecd47e	0.4625587
24	0x3e8cdce1	0.27512267
25	0x3f0a8bc9	0.54119545
26	0x3ee7b7db	0.45257458
27	0x3d168314	0.0367461
28	0x3f3f39db	0.74697655
29	0x3f327088	0.6970296
30	0x3eea7250	0.4579034
31	0x3ea28601	0.31742862
32	0x3ed6c728	0.4194882
33	0x3e6f3de4	0.23363453
34	0x3ef55514	0.47916472
35	0x3df0d382	0.11759092
36	0x3e7948b0	0.24344134
37	0x3ea05236	0.31312722
38	0x3e3af07a	0.18255797
39	0x3eedaaa5	0.46419254
40	0x3f01cad3	0.5070011
41	0x3d5b80d1	0.053589646
42	0x3ee08147	0.4384863
43	0x3e3ccb00	0.18436813
44	0x3f27a694	0.65488553
45	0x3eac033e	0.33596224
46	0x3f04c5d9	0.5186439
47	0x3f032a9a	0.5123688
48	0x3e59ce7c	0.21270174
49	0x3f245b0b	0.6420142
50	0x3f578169	0.8418184
51	0x3ee3dc0d	0.44503823
52	0x3ea0cc01	0.31405643
53	0x3f07d0da	0.5305306
54	0x3e8555c2	0.2604199
55	0x3ee6cca7	0.45078012
56	0x3ee722b8	0.45143676
57	0x3e382ee6	0.1798664
58	0x3ef70e2d	0.48253003
59	0x3e44b5ca	0.19209972
60	0x3eb4a26a	0.35280162
61	0x3e886463	0.2663909
62	0x3f047755	0.51744586
63	0x3eb91de0	0.36155605
64	0x3efe2a0a	0.49641448
65	0x3eee8c97	0.46591637
66	0x3e7ae90d	0.24502964
67	0x3e9bbf05	0.30419174
68	0x3ec25776	0.37957352
69	0x3ea11505	0.3146135
70	0x3f358c89	0.70917565
71	0x3ec85d24	0.3913356
72	0x3f24778b	0.6424491
73	0x3f668810	0.90051365
74	0x3ee33d7d	0.4438285
75	0x3ec0f9b6	0.37690514
76	0x3ed29472	0.4112888
77	0x3f27bad7	0.6551947
78	0x3ea1030a	0.3144763
79	0x3f5fd859	0.87439495
80	0x3f060ce3	0.52363414
81	0x3f78ff4c	0.9726455
82	0x3edbec34	0.42953646
83	0x3ec1fa53	0.37886295
84	0x3c9b23db	0.018937996
85	0x3e99efc5	0.30065742
86	0x3dcb7d97	0.09936064
87	0x3f77c55f	0.9678554
88	0x3e59ab86	0.21256837
89	0x3e75f085	0.24017532
90	0x3e709543	0.23494439
91	0x3f0d1a81	0.55118567
92	0x3ef8642b	0.48513922
93	0x3f2a140c	0.6643684
94	0x3e1b729c	0.15180439
95	0x3ec8a085	0.39184967
96	0x3e9e36a6	0.30901068
97	0x3f328810	0.69738865
98	0x3ef7663c	0.48320186
99	0x3eb34679	0.35014704

network.4.running_var f4 [100]
0	0x3e892ddb	0.26792797
1	0x3efd8818	0.49517894
2	0x3dd40513	0.1035253
3	0x3e6c9eb6	0.23107418
4	0x3e01fe24	0.12694603
5	0x3e1b972f	0.1519439
6	0x3dbfc8e1	0.093644865
7	0x3eb83acd	0.3598236
8	0x3f6b1976	0.91835725
9	0x3efa493d	0.48884
10	0x3f2cadac	0.674525
11	0x3ecd5d9e	0.40110487
12	0x3f3365d6	0.70077264
13	0x3e8da7b6	0.27667016
14	0x3e067869	0.1313187
15	0x3d270969	0.04078046
16	0x3f1a7ef3	0.6034996
17	0x3f375e5d	0.7162836
18	0x3e07a3fa	0.13246146
19	0x3e0ec8a7	0.1394373
20	0x3e00aeec	0.12566727
21	0x3ebd924f	0.37025687
22	0x3ebb0ea4	0.36534607
23	0x3f0253c5	0.5090907
24	0x3e184534	0.14870149
25	0x3ee9b4d8	0.45645785
26	0x3e9c2bf3	0.3050228
27	0x3eee74a6	0.4657337
28	0x3ee24ff4	0.44201624
29	0x3e2e6e77	0.17034326
30	0x3ea01eb8	0.31273437
31	0x3eaebfc5	0.34130684
32	0x3ee8d4f2	0.45474964
33	0x3e3d3019	0.18475379
34	0x3ea85503	0.3287736
35	0x3ed6108b	0.41809496
36	0x3e9668f6	0.29376954
37	0x3e767460	0.24067831
38	0x3df03e1b	0.11730596
39	0x3e3c70f0	0.18402457
40	0x3f000c4b	0.5001876
41	0x3f02e3a7	0.5112862
42	0x3eddf5ec	0.43351686
43	0x3e92c6a3	0.28667173
44	0x3e580ba3	0.21098189
45	0x3ecfc9f9	0.4058378
46	0x3e2491d8	0.1607126
47	0x3e265c32	0.16246107
48	0x3e89e946	0.26935786
49	0x3f30e024	0.6909201
50	0x3e5fd89a	0.2185997
51	0x3e86ff4b	0.26366648
52	0x3e23e2ad	0.16004439
53	0x3ea93872	0.33050877
54	0x3dfba512	0.12287344
55	0x3e40585b	0.18783705
56	0x3f0150be	0.5051383
57	0x3e4aeffd	0.19818111
58	0x3e45630e	0.19276068
59	0x3eaa31fb	0.33241257
60	0x3d409ffa	0.047027566
61	0x3e20eb84	0.15714842
62	0x3ef344a8	0.47513318
63	0x3d6976dc	0.05699812
64	0x3eb491ca	0.35267478
65	0x3f34b483	0.7058794
66	0x3dc441aa	0.09582837
67	0x3eac0144	0.33594716
68	0x3e7aab87	0.24479495
69	0x3ecb0778	0.39654136
70	0x3f1b0963	0.605612
71	0x3e83c52f	0.25736377
72	0x3ebe60f3	0.3718334
73	0x3e9c3759	0.30510977
74	0x3e9cd6ca	0.3063262
75	0x3d53a63f	0.051672217
76	0x3f8889c4	1.0667043
77	0x3f171592	0.5901729
78	0x3eb5d6b3	0.35515365
79	0x3eb62c28	0.35580564
80	0x3e596dc5	0.2123328
81	0x3f266fef	0.6501455
82	0x3f5e28c7	0.8678097
83	0x3e5ee7c2	0.21768096
84	0x3f2abbd1	0.66692835
85	0x3dafad7d	0.08578012
86	0x3e2bc539	0.16774453
87	0x3f118235	0.56839305
88	0x3eb79e10	0.3586278
89	0x3e5b7a3e	0.2143335
90	0x3f24f30e	0.6443337
91	0x3e97718e	0.29578823
92	0x3ed6c47e	0.41946787
93	0x3e89b10a	0.26892883
94	0x3e2d2874	0.16909963
95	0x3d9348ac	0.071915954
96	0x3ee8d2ed	0.45473424
97	0x3f31979b	0.69371957
98	0x3f009fed	0.5024403
99	0x3d9ddd8d	0.07708273

network.6.weight f4 [100, 100]
0	0xbd204d74	-0.039136365
1	0xbd8d9fd8	-0.069152534
2	0x3d723e0c	0.059141204
3	0xbd92cc65	-0.071678914
4	0xbdd20514	-0.10254875
5	0xbe067e98	-0.13134229
6	0x3c82a191	0.015946181
7	0x394a5b59	0.00019298251
8	0xbd979016	-0.07400529
9	0x3c9e5982	0.01932979
10	0xbd12b7be	-0.03581976
11	0x3d180197	0.03711089
12	0xbcbb4732	-0.022861097
13	0xbd2307dd	-0.03980242
14	0xbcdc425f	-0.026887117
15	0x3cfebe9a	0.031096745
16	0x3c0f23bd	0.008736548
17	0x3d0ce65d	0.03439938
18	0xbd6ae77d	-0.05734967
19	0x3da9e99f	0.08296513
20	0xbcb549c6	-0.022129904
21	0xbdfb7df4	-0.12279883
22	0xbccc599d	-0.024945075
23	0xbe0db14f	-0.13837169
24	0x3dab9776	0.08378498
25	0xbd563c12	-0.05230338
26	0x3ac0fbcd	0.001472348
27	0x3ae0b53d	0.0017143857
28	0x3d8b8a27	0.0681346
29	0xbdc4839c	-0.09595415
30	0x3d0cf4ce	0.03441315
31	0x3c019777	0.007909647
32	0xbde97177	-0.11398595
33	0xbd131994	-0.035913065
34	0x3d14ea7c	0.036356434
35	0x3cd1fe1e	0.025633868
36	0xbcf18b20	-0.029485285
37	0xbdd4b407	-0.103859
38	0x3dbf2340	0.09332895
39	0xbcd069ae	-0.025441017
40	0x3bb2a5d4	0.005451897
41	0x3ddde16c	0.108340114
42	0xbd17334b	-0.03691415
43	0xbd3f6c57	-0.04673418
44	0x3d8ce0e6	0.068788335
45	0x3c6f84c4	0.014619056
46	0xbc310e08	-0.010806568
47	0x3db13614	0.08652893
48	0x3d46fa57	0.048578586
49	0xbad359e7	-0.0016124815
50	0x3dc91703	0.09818842
51	0xbd44d6d4	-0.04805644
52	0x3e07cab3	0.13260917
53	0xbd916637	-0.07099574
54	0xbd855475	-0.065102495
55	0x3dad1483	0.08451178
56	0x3d4102c8	0.047121793
57	0xbd24e4f1	-0.040257398
58	0xbe0ee1c4	-0.1395331
59	0xbdd822d9	-0.10553522
60	0x3b56b70a	0.0032762908
61	0xbd94e9fd	-0.07271192
62	0xbda42278	-0.08014387
63	0xbd0a9bcc	-0.033839986
64	0xbc0109b9	-0.007875853
65	0xbb484a49	-0.0030561856
66	0x3cbc226e	0.022965636
67	0x3d8241b9	0.06360192
68	0x3d1bf05c	0.03807102
69	0x3d90cd2c	0.070703834
70	0xbdae9bb6	-0.08525793
71	0xbe005c48	-0.12535203
72	0xbd3b1026	-0.045669697
73	0x3bef474b	0.0073022
74	0x3df3ac8b	0.11898144
75	0x3d239a00	0.039941788
76	0x3dcac9ae	0.099017486
77	0xbd0845d9	-0.033269737
78	0x3cc36951	0.02385393
79	0xbce8ccb7	-0.028417928
80	0xbcd82aaa	-0.026387531
81	0xbd959241	-0.07303286
82	0xbdb625bd	-0.08893917
83	0xbd816289	-0.06317622
84	0x3daae55b	0.08344527
85	0xbdcc4a38	-0.099750936
86	0xbcb09df9	-0.021559702
87	0x3c4455cc	0.011983346
88	0xbd89df4b	-0.06732043
89	0xbd95a33d	-0.07306526
90	0x3d582930	0.052773654
91	0xbda88a61	-0.08229519
92	0x3d90fe98	0.0707981
93	0xbd28e97d	-0.041238297
94	0xbd5467df	-0.05185687
95	0x3b98f0bd	0.00466737
96	0x3da712ed	0.08157907
97	0xbd9d216a	-0.07672389
98	0x3cf2d9fd	0.02964496
99	0xbca1155c	-0.019663505
100	0x3bef5db8	0.0073048733
101	0x3dd1ad04	0.10238078
102	0xbbb71a21	-0.0055878316
103	0x3d635249	0.055498395
104	0x3d560d00	0.05225849
105	0x3d99ebf3	0.07515707
106	0x3dc53253	0.09628739
107	0xbd34e7b1	-0.04416627
108	0x3def1c6f	0.11675345
109	0x3c1e9201	0.009678365
110	0x3c8b6571	0.017016144
111	0x3bef903c	0.0073108952
112	0xbd4ecfac	-0.05049102
113	0x3c86df92	0.016464029
114	0xbda13d50	-0.078730226
115	0xbd28e923	-0.04123796
116	0xbd6125b3	-0.054967593
117	0x3dcf6519	0.10126705
118	0xbd1c05ba	-0.0380914
119	0x3cb53822	0.022121493
120	0x3d62d04f	0.05537444
121	0x3d3b4a28	0.045725018
122	0x3cff3d51	0.031157168
123	0xbe0db8cd	-0.13840027
124	0x3cfda7e9	0.030963855
125	0x3d09b763	0.033622157
126	0x3d200155	0.03906377
127	0xbcd1779a	-0.025569726
128	0x3d22aabd	0.03971361
129	0xbd8005fe	-0.06251143
130	0x3da12e4b	0.07870158
131	0x3da79600	0.08182907
132	0x3d80594b	0.06267031
133	0xbb37c5ec	-0.0028041555
134	0x3d3dbdc8	0.046323568
135	0xbdb6fc5c	-0.089348525
136	0xbd56f98d	-0.052484084
137	0x3d337a21	0.043817643
138	0xbc47c063	-0.012191865
139	0x3b5c5bfd	0.0033624165
140	0x3d338a70	0.043833196
141	0xbe0bedba	-0.13664904
142	0xbd94bd58	-0.07262677
143	0xbdc0cd55	-0.09414164
144	0x3d7d91f7	0.06190678
145	0x3daf365e	0.085552916
146	0x3d7e9bbf	0.06216025
147	0x3d4f22d7	0.050570335
148	0xbdae8258	-0.08520955
149	0xbd39feab	-0.045408886
150	0x3ca88c8d	0.020574832
151	0x3d92245c	0.07135841
152	0x3dc7a75f	0.097487204
153	0xbd96f00a	-0.073700026
154	0xbda2417d	-0.07922647
155	0xbde694ce	-0.11258851
156	0xbd908007	-0.07055669
157	0xbd859ec3	-0.06524422
158	0x3dc4a81e	0.09602378
159	0x3df85545	0.12125639
160	0xbc823fcd	-0.015899563
161	0xbd25562f	-0.040365394
162	0x3b2d6098	0.002645528
163	0x3d3f903c	0.046768412
164	0x3d0a6283	0.033785354
165	0x3d3ae987	0.045632865
166	0xbdac23b1	-0.08405245
167	0xbd17d11b	-0.037064653
168	0xbdb4d9b3	-0.08830585
169	0x3d6d0772	0.05786843
170	0x3d0bce67	0.034132387
171	0xbdbf192b	-0.09330972
172	0x3d3651c4	0.04451157
173	0xbdb2ceeb	-0.08730873
174	0xbdbfe511	-0.09369863
175	0xbca930ef	-0.020653216
176	0x3d8b4e7d	0.0680208
177	0xbda608d3	-0.08107152
178	0x3db4e74a	0.088331774
179	0xbcb70036	-0.022338968
180	0xbccf4222	-0.02530009
181	0xbdb2051c	-0.08692381
182	0x3c62a87b	0.013834114
183	0x3cde94b8	0.027170524
184	0xbd8c37a3	-0.06846549
185	0xbb365003	-0.0027818687
186	0xbd54052d	-0.05176275
187	0x3d8e9197	0.06961363
188	0xbdee04dd	-0.11622021
189	0xbe1b6ac6	-0.1517745
190	0x3cdcbdd3	0.026945984
191	0xbdb701c4	-0.08935884
192	0x3d87c71e	0.066297755
193	0x3d15858f	0.036504325
194	0xbb8591cb	-0.0040762178
195	0x3d3f3a39	0.046686385
196	0xbc892297	-0.016740127
197	0x3d4e5315	0.050372202
198	0x3d148316	0.036257826
199	0x3de2a5ac	0.11066756
200	0xbdd564f0	-0.10419643
201	0x3d18ca83	0.037302505
202	0x3d8e46ca	0.06947096
203	0xbc9106c6	-0.017703425
204	0xbc3d2cf7	-0.011546365
205	0x3cd57541	0.026056888
206	0xbddaf6de	-0.106916174
207	0xbde046ca	-0.10951002
208	0xbd2cb32a	-0.04216305
209	0xbdd12928	-0.10212928
210	0x3d30a864	0.04312934
211	0xbbd4085a	-0.006470722
212	0x3e03fff1	0.12890603
213	0xbde73926	-0.11290197
214	0xbd505cab	-0.050869625
215	0x3d99baa0	0.07506299
216	0xbdafec6c	-0.08590016
217	0x3d92eb34	0.07173768
218	0xbe084ecc	-0.13311309
219	0xbd3791ef	-0.044816907
220	0x3d740e32	0.05958385
221	0xbd2c6f6e	-0.042098455
222	0x3da740c0	0.08166647
223	0x3d269d15	0.04067715
224	0x3c24b9e3	0.0100540845
225	0xbc9fd789	-0.019511955
226	0xbcc991ce	-0.024605658
227	0xbd0f3a3f	-0.034967657
228	0xbdafe8c3	-0.08589318
229	0xbda26b8b	-0.079306684
230	0x3d147cee	0.036251955
231	0xbd8caf81	-0.06869412
232	0xbdb50a79	-0.08839888
233	0xbba7625d	-0.0051081614
234	0xbd6844f6	-0.05670639
235	0xbc4fd24e	-0.012684418
236	0x3d8aecab	0.06783422
237	0xbc6a90ec	-0.014316779
238	0x3e0cf07e	0.13763615
239	0x3d18c0b9	0.03729317
240	0x3d06923b	0.0328543
241	0x3de7f7ed	0.11326585
242	0x3df864e2	0.12128617
243	0xbb232c1b	-0.0024898115
244	0xbd337364	-0.043811217
245	0x3c600259	0.013672435
246	0xbe1771a8	-0.1478945
247	0x3c17dae7	0.009268499
248	0xbd68776b	-0.05675451
249	0x3d5e3800	0.054252625
250	0xbd459060	-0.04823339
251	0x3a510fed	0.00079750904
252	0xbdd5e04b	-0.10443171
253	0x3e005eec	0.1253621
254	0x3d4aa754	0.049475983
255	0x3c244f85	0.010028725

network.6.bias f4 [100]
0	0x3efe7184	0.4969598
1	0x3f002d3c	0.5006902
2	0x3eff417a	0.49854642
3	0x3f00aea6	0.5026649
4	0x3effafe0	0.4993887
5	0x3f001d6e	0.50044906
6	0x3eff3e03	0.49852
7	0x3f0016c1	0.5003472
8	0x3efd6ce0	0.49497128
9	0x3f019705	0.5062106
10	0x3efe9e61	0.4973021
11	0x3f00ac53	0.50262946
12	0x3eff28f2	0.49835926
13	0x3f0234f9	0.5086208
14	0x3effe331	0.4997802
15	0x3effde6f	0.4997439
16	0x3f01742c	0.5056789
17	0x3eff7f27	0.49901697
18	0x3efedb3d	0.4977664
19	0x3efdcbde	0.495696
20	0x3eff2caf	0.49838778
21	0x3effacf6	0.49936646
22	0x3f00e685	0.50351745
23	0x3f0c2fff	0.54760736
24	0x3f015c21	0.505312
25	0x3efe9451	0.4972253
26	0x3eff8d6a	0.49912578
27	0x3efe67fb	0.49688706
28	0x3eff6951	0.49885038
29	0x3f0003e0	0.5000591
30	0x3efe59f5	0.49678007
31	0x3f015cfe	0.5053252
32	0x3f0140c4	0.5048945
33	0x3f00d8ef	0.50331014
34	0x3f00657f	0.5015487
35	0x3f002d99	0.50069577
36	0x3f089fa1	0.53368574
37	0x3f0117f6	0.50427186
38	0x3eff62da	0.49880105
39	0x3f0dddea	0.5541674
40	0x3f00d723	0.5032827
41	0x3efe98ae	0.4972586
42	0x3f029fd1	0.5102511
43	0x3f00bdae	0.5028943
44	0x3effa8a7	0.4993336
45	0x3f00f1ce	0.50368965
46	0x3efc7277	0.4930608
47	0x3efdf00b	0.495972
48	0x3efff1ea	0.49989253
49	0x3eff9d30	0.49924612
50	0x3eff2cba	0.4983881
51	0x3f01d7e4	0.5072005
52	0x3efd9830	0.49530172
53	0x3f00d8c0	0.50330734
54	0x3eff52ad	0.49867764
55	0x3f00d563	0.503256
56	0x3effe519	0.49979475
57	0x3eff911a	0.4991539
58	0x3f054951	0.52064997
59	0x3eff095c	0.49811828
60	0x3f00181e	0.500368
61	0x3f00d7f7	0.50329536
62	0x3f00a594	0.5025265
63	0x3effe345	0.4997808
64	0x3efd36d1	0.49455884
65	0x3f007f4c	0.5019424
66	0x3f00ce86	0.5031513
67	0x3f0045d9	0.5010658
68	0x3f00256e	0.50057113
69	0x3eff2fe7	0.49841234
70	0x3eff32b1	0.49843362
71	0x3f00dd18	0.5033736
72	0x3f02aa0a	0.5104071
73	0x3f0020a6	0.5004982
74	0x3f003f3b	0.5009648
75	0x3efec866	0.49762267
76	0x3f018621	0.5059529
77	0x3f0088a7	0.50208515
78	0x3efe65b8	0.4968698
79	0x3eff549c	0.4986924
80	0x3eff54fc	0.49869525
81	0x3effe657	0.49980423
82	0x3efe90e4	0.49719918
83	0x3f007f9f	0.50194734
84	0x3effe949	0.4998267
85	0x3eff4d58	0.49863696
86	0x3eff6a64	0.49885857
87	0x3eff6090	0.4987836
88	0x3f0022a5	0.50052863
89	0x3f006996	0.5016111
90	0x3eff029d	0.4980668
91	0x3f001e06	0.5004581
92	0x3f0030b5	0.5007432
93	0x3efe81d9	0.4970844
94	0x3efdc383	0.49563226
95	0x3effaec5	0.49938026
96	0x3f003c2b	0.5009181
97	0x3efed477	0.49771473
98	0x3f049da8	0.51803064
99	0x3effbe36	0.49949807

network.7.running_mean f4 [100]
0	0x3e89f152	0.26941925
1	0x3f07a6af	0.52988714
2	0x3eb185b0	0.34672308
3	0x3f1f81d4	0.62307477
4	0x3e9c2f84	0.30505002
5	0x3e7a5c29	0.24449219
6	0x3ef816d3	0.48454913
7	0x3f373cd9	0.7157722
8	0x3f02f21b	0.51150674
9	0x3eee0c68	0.4649384
10	0x3ee6562e	0.44987625
11	0x3f2afc94	0.66791654
12	0x3ef7f987	0.48432562
13	0x3f2870f1	0.65797335
14	0x3f2fed0a	0.6872107
15	0x3f234f59	0.6379295
16	0x3f31e7b3	0.6949417
17	0x3e92f8f9	0.28705576
18	0x3f05e10d	0.52296525
19	0x3ee2ffc5	0.44335762
20	0x3f14d438	0.5813632
21	0x3f14438a	0.57915556
22	0x3ec0edda	0.37681466
23	0x3f5fc604	0.8741152
24	0x3f138df4	0.5763848
25	0x3f004966	0.50112
26	0x3f215d93	0.6303341
27	0x3f199f3e	0.6000861
28	0x3ebb1642	0.3654042
29	0x3ebc7dd7	0.36814758
30	0x3eb42a95	0.35188738
31	0x3f324b68	0.6964631
32	0x3f213cd6	0.62983453
33	0x3f4bb878	0.7957835
34	0x3ec6d070	0.388309
35	0x3f3576ac	0.70884204
36	0x3f4f32a5	0.8093665
37	0x3f49386c	0.7860172
38	0x3ef6ecf8	0.48227668
39	0x3f5575ec	0.8338306
40	0x3f2de4dc	0.67927337
41	0x3f181e78	0.5942149
42	0x3f36b670	0.7137213
43	0x3f15b089	0.58472496
44	0x3ebc2fa3	0.36755094
45	0x3f132a8a	0.57486784
46	0x3f089837	0.5335726
47	0x3edb00d4	0.4277407
48	0x3eefad51	0.46811917
49	0x3ef9cb63	0.48787984
50	0x3f05b265	0.52225333
51	0x3f5dc662	0.86630833
52	0x3f0e832f	0.5566892
53	0x3ea34e99	0.31895903
54	0x3f02ff64	0.51170945
55	0x3f19b02d	0.6003445
56	0x3e8921d5	0.26783624
57	0x3f0ef5a1	0.5584355
58	0x3f3f69d3	0.7477085
59	0x3f0fd93d	0.56190854
60	0x3e9be438	0.30447555
61	0x3e806b42	0.2508183
62	0x3f52d0fc	0.82350135
63	0x3e82a0f9	0.25513437
64	0x3eed4a9d	0.46345988
65	0x3ed03405	0.40664688
66	0x3ee873ac	0.4540075
67	0x3eef0840	0.46685982
68	0x3ebb22b5	0.36549917
69	0x3ea9bca3	0.3315173
70	0x3ecf10fc	0.40442646
71	0x3f4673a6	0.77520216
72	0x3f491ecc	0.7856262
73	0x3f29f45b	0.6638848
74	0x3f0dc7f0	0.55383205
75	0x3f5a3ffa	0.8525387
76	0x3f07c48a	0.5303427
77	0x3eba171b	0.36345753
78	0x3eec9ecf	0.4621491
79	0x3e9097fc	0.28240955
80	0x3e1f717e	0.15570638
81	0x3ee6e940	0.4509983
82	0x3f10e9f9	0.56607014
83	0x3f218514	0.63093686
84	0x3f373dd7	0.71578735
85	0x3f2fe1f2	0.6870414
86	0x3f22182e	0.63318145
87	0x3eb15a07	0.34638998
88	0x3eb66c44	0.35629475
89	0x3e67dfe1	0.22643997
90	0x3f0f474c	0.55968165
91	0x3ee39251	0.44447568
92	0x3ee0f363	0.4393569
93	0x3ea0fda4	0.31443512
94	0x3ef8b878	0.48578238
95	0x3e9000b0	0.28125525
96	0x3f2c085e	0.6720027
97	0x3e9d8989	0.30768993
98	0x3f0662e6	0.5249466
99	0x3e658f61	0.22417976

network.7.running_var f4 [100]
0	0x3e516342	0.2044802
1	0x3df038d2	0.117295876
2	0x3e6c72cc	0.23090667
3	0x3ec526a9	0.38506058
4	0x3dffed45	0.124964274
5	0x3dae1796	0.085005924
6	0x3e81ec52	0.2537561
7	0x3e139bcc	0.144149
8	0x3e0da221	0.13831379
9	0x3de60c48	0.11232811
10	0x3dcecb6d	0.10097394
11	0x3e1c3d34	0.15257722
12	0x3dd19786	0.10233979
13	0x3f12118e	0.57058036
14	0x3e744b30	0.23856807
15	0x3e7f6346	0.24940214
16	0x3e3f6bb4	0.18693429
17	0x3da580fc	0.080812424
18	0x3e5bf5e0	0.21480513
19	0x3d74896c	0.05970137
20	0x3e13526b	0.14386909
21	0x3e0c3e0f	0.13695548
22	0x3ecfcdab	0.405866
23	0x3ffc1c17	1.9696072
24	0x3e374b93	0.17899923
25	0x3e22dc65	0.15904386
26	0x3eb6f342	0.35732466
27	0x3e1c9cf4	0.15294248
28	0x3dcdd8b6	0.100511
29	0x3dc8e357	0.09808987
30	0x3eb5b1c8	0.354872
31	0x3f22930e	0.6350564
32	0x3f1d304f	0.6140184
33	0x3e0cd033	0.13751297
34	0x3e679cc8	0.22618401
35	0x3e5ec963	0.2175651
36	0x3fdeb389	1.739854
37	0x3e1894de	0.14900538
38	0x3e0a5221	0.13507892
39	0x4000a319	2.0099547
40	0x3e204128	0.15649855
41	0x3e87f011	0.26550344
42	0x3d1d3c21	0.03838742
43	0x3dc89f83	0.097960494
44	0x3e9afec9	0.3027251
45	0x3e52a6a9	0.20571388
46	0x3d3b4b76	0.045726262
47	0x3e2a6355	0.16639455
48	0x3deb0d4c	0.114771456
49	0x3e8637a6	0.2621433
50	0x3de2afa5	0.11068658
51	0x3f2a0299	0.66410214
52	0x3dadb8d7	0.08482521
53	0x3dd50520	0.10401368
54	0x3e35a505	0.17738731
55	0x3e966778	0.29375815
56	0x3ee5e6d8	0.44902682
57	0x3e4d7d08	0.20067227
58	0x3d622257	0.05520853
59	0x3dfbfd3d	0.12304161
60	0x3f0412c4	0.51591134
61	0x3d443403	0.047901165
62	0x3f421682	0.75815594
63	0x3dbee040	0.09320116
64	0x3de3d413	0.11124434
65	0x3dc77171	0.09738434
66	0x3db36f8d	0.08761511
67	0x3dfccfca	0.1234432
68	0x3d9006f3	0.070325755
69	0x3e9b9611	0.3038793
70	0x3d9044fe	0.07044409
71	0x3df8a1c2	0.12140228
72	0x3f4bc770	0.7960119
73	0x3e0726e7	0.13198434
74	0x3df805c9	0.121104784
75	0x3e043bd7	0.12913452
76	0x3e58f3b9	0.21186723
77	0x3da1c6f2	0.07899274
78	0x3e1144f5	0.14186461
79	0x3ebb6ea4	0.3660785
80	0x3e6a0d16	0.22856554
81	0x3e156d89	0.14592566
82	0x3e0a622d	0.13514014
83	0x3e7c7bcc	0.246566
84	0x3ef1edeb	0.4725183
85	0x3e803170	0.25037718
86	0x3e7f94e6	0.24959144
87	0x3e8a9e8e	0.27074093
88	0x3da0008b	0.078126036
89	0x3ecf8226	0.40528983
90	0x3e97d8c5	0.2965757
91	0x3db4108f	0.08792221
92	0x3d6fa506	0.058506988
93	0x3eaac546	0.33353633
94	0x3e15954f	0.14607738
95	0x3e6b6322	0.22987035
96	0x3ec5ea4f	0.38655326
97	0x3e74d7c9	0.2391044
98	0x3d62b722	0.05535043
99	0x3e081374	0.13288671
