hand_landmarks/test/best_model.pth (torch, 112804 bytes, 8 tensors)

fc1.weight f4 [100, 126]
000000 b5 6b 08 bc 86 8e 47 bd e7 fa ce bc 07 f6 9d bd
       -0.008326461 -0.048719905 -0.025266124 -0.077129416
000010 ad e4 d4 bd ed 5a 6c 3b 43 e2 a8 3c 35 d4 96 bd
       -0.10395179 0.0036064938 0.020615702 -0.07364694
000020 f1 97 3f bd 2b 98 d0 3c 17 80 b5 bd ec 21 88 bd
       -0.046775762 0.025463184 -0.08862322 -0.06647095
000030 4e ee 07 bd b1 75 df bd 4f 9c ee 3c dd ac 04 3d
       -0.03318625 -0.1091112 0.029127268 0.032391418
000040 f6 42 88 bd 43 31 05 bd da c2 13 bd 58 b8 a6 3b
       -0.06653397 -0.032517683 -0.036074497 0.0050878935
000050 a3 af fe 3c 21 5a a8 bc f7 bd 6a bd 70 16 28 bc
       0.03108961 -0.02055079 -0.05731007 -0.010259256
000060 c0 0e 5b 3c 4a 35 06 3c 5e 2b 8e 3c 1b 5b 00 3d
       0.013370216 0.008191416 0.017354663 0.031336885
000070 e6 c6 58 bd 54 43 94 bd 8f 85 5b 3d 98 09 90 bd
       -0.05292406 -0.07239404 0.05359417 -0.0703308
000080 2e 66 71 3d 7e f9 c0 bc ce 97 b8 bd f3 1f d0 bd
       0.058935337 -0.023556467 -0.090133294 -0.10162344
000090 26 c9 95 bd ec d6 d0 bd 1b a8 35 3d 27 b9 4b bc
       -0.07313757 -0.10197243 0.04434977 -0.0124342805
0000a0 89 ed a9 bc 75 b6 27 bd d5 5f 1b bd 57 4a fc 3c
       -0.020743148 -0.04094549 -0.03793319 0.030797167
0000b0 7e b5 b9 3c 46 7e d7 bd c9 cf 74 3d e4 68 1b bd
       0.02266955 -0.105221316 0.059768472 -0.03794183
0000c0 90 85 e3 bc 9b 7d c1 bd ef 7b c8 3c 01 58 57 bd
       -0.027773649 -0.094477855 0.024473159 -0.05257416
0000d0 6c b1 1e 3d 6e 8b ab bd 7c 30 fd bb 37 31 9b bc
       0.03874342 -0.083762035 -0.007726727 -0.018944366
0000e0 2c 26 1b bc 06 5c c2 bd 5f d8 82 bd 79 f3 80 3c
       -0.00946955 -0.09490208 -0.06388926 0.015741097
0000f0 7f 13 6c bc cc cb d7 3b 47 66 02 3d 7a 15 81 bc
       -0.014408945 0.006585574 0.03183582 -0.015757311
000100 de 2a 8b bd a3 20 33 bd 9e 01 80 3d 75 1b a9 bd
       -0.06795286 -0.043732297 0.062503085 -0.0825719
000110 d0 1b 07 3d 93 f4 c9 bc d1 28 9e bd 6a 93 6a bd
       0.03298551 -0.024652755 -0.07722629 -0.05726949
000120 ea 8a 23 ba ed 95 3a 3c 6e 11 94 3c 17 07 86 bd
       -0.00062386564 0.011388284 0.018074717 -0.06544321
000130 e2 1b 3e 3c 52 3a 9a bd 9e 26 be bd 5e 3b 38 bd
       0.0116033275 -0.07530655 -0.092847094 -0.044978492
000140 ab 63 56 bd 41 2c 68 bd d7 96 7d bd ee 57 c6 3c
       -0.052341145 -0.05668283 -0.06191143 0.02421185
000150 9d 75 8b bd 98 f3 99 3c 07 ec 88 3d 52 a2 b8 bd
       -0.06809542 0.018792912 0.06685644 -0.09015335
000160 c8 46 75 3d 7e 15 a0 bc 78 0e 76 3d 3f 25 a1 bd
       0.059881955 -0.019541498 0.060072392 -0.07868432
000170 46 71 c4 bc de 0b 62 bd 97 32 80 3d 43 16 1e bc
       -0.023979794 -0.0551871 0.06259649 -0.009648862
000180 3b cb af 3b 2d 7d 61 bc d0 d0 54 bd 13 67 56 3d
       0.005364803 -0.013762754 -0.05195695 0.052344393
000190 e3 53 cb bd 72 2e 4f bd c8 c7 9b 3d a7 02 d9 bd
       -0.099281095 -0.050581403 0.076064646 -0.10596209
0001a0 3c 73 04 bd 31 cf 80 3b 10 9b d0 bb a8 cb 39 bd
       -0.03233646 0.003930949 -0.006366141 -0.045360237
0001b0 20 d1 43 3d 12 4f 5a bd 52 23 3a 3d f1 52 26 3d
       0.04780686 -0.053298064 0.04544384 0.040606443
0001c0 20 bb ac bd 1c 0d 81 3d 08 db 02 3d 45 88 80 bd
       -0.08434129 0.063013285 0.031947166 -0.06275991
0001d0 52 03 6b bd 0a b6 2a 3d 69 eb 6b 3d ee 43 37 3c
       -0.057376213 0.041677512 0.05759755 0.011185629
0001e0 6f 66 c3 ba c1 e3 28 39 21 5b 0e bd fc 80 e7 3d
       -0.0014907847 0.00016106573 -0.034754876 0.11303899
0001f0 16 53 a8 bd e7 5a 80 bc 65 bf c9 bd cd 2b 99 bd
       -0.082189724 -0.015668346 -0.09850959 -0.074790575
000200 72 81 08 bd e4 a5 24 3d 98 c3 e8 3b 58 cc 30 bd
       -0.033326574 0.040197268 0.0071033947 -0.043163627
000210 6d 2a c6 3c 24 c2 bf 3c 03 55 85 3d ec 56 83 bd
       0.024190152 0.023408003 0.06510355 -0.064130634
000220 60 e6 98 bd 3d e0 4f bd f7 8c 4f bd 22 52 96 bd
       -0.074658155 -0.05075096 -0.050671544 -0.07339884
000230 45 62 68 bc 18 46 94 bd a2 54 8f 3d 4e b2 5e bc
       -0.0141835855 -0.07239932 0.06998564 -0.013592316
000240 5d 01 cc bb da 0e 30 3d 6e 50 98 3d dd 9a de bc
       -0.0062257485 0.042982914 0.07437216 -0.027173454
000250 98 fd 8a bc 91 2b 3e b8 8f 75 a6 bd e0 60 9a 3d
       -0.016966626 -4.5340104e-05 -0.08127891 0.07538009
000260 08 0e 59 3d 57 25 62 3d af c6 eb 3c 8a 81 01 3d
       0.052991897 0.05521139 0.028781263 0.03161768
000270 e6 ab 58 bb 64 e1 00 3d d2 b9 91 ba fe db d1 bd
       -0.0033061444 0.03146495 -0.0011118001 -0.10247038
000280 54 dd 46 3d f5 04 1b bc d1 50 c4 bd eb 2e db bc
       0.04855092 -0.009461631 -0.09585727 -0.02675577
000290 92 6c 9e bd 10 66 86 bc 04 a7 fa b8 e7 ca 84 3d
       -0.07735552 -0.016406089 -0.00011952038 0.06484013
0002a0 50 43 78 bd 91 09 9e bd 34 3c a4 bc 98 ba bc bd
       -0.06061107 -0.077166684 -0.020048238 -0.092152774
0002b0 f3 f3 d6 bc de 2d b5 bd e4 da 74 3d 8c 85 a7 bd
       -0.02623937 -0.08846639 0.059779063 -0.08179769
0002c0 06 23 b2 bd 1f f7 c1 bd be 82 b7 bc 9d 19 36 3b
       -0.086980864 -0.09470963 -0.02240121 0.0027786263
0002d0 05 d5 4c 3d d8 2b 63 ba 3e 2d a8 bd d9 2f 1b 3c
       0.05000784 -0.0008665896 -0.08211754 0.009471857
0002e0 ef 32 d0 3c 47 23 b4 b8 46 a4 25 3d 02 f7 7a bb
       0.025414912 -8.58964e-05 0.040439866 -0.00382942
0002f0 35 55 b6 bd 13 9a c3 3c e9 43 41 bd 3d 14 a9 3c
       -0.08902971 0.02387718 -0.047183905 0.020639533
000300 99 59 7c 3c 17 37 ad bc 44 99 32 bd 20 70 4a bd
       0.015402221 -0.021144433 -0.043603197 -0.049423337
000310 c3 8b 03 bd ea ee 39 3d 86 6c a0 3d 4b 63 06 39
       -0.03211571 0.04539386 0.07833199 0.00012816225
000320 8d f7 87 bd 4a 54 8f 3d b2 5a 0b 3c 82 7e 58 3d
       -0.066390134 0.06998499 0.00850551 0.052855022
000330 5c 5c e5 bc 42 dd 08 bd 6a 4b 33 bd 6d bb de bd
       -0.027998142 -0.033414133 -0.043773092 -0.108755924
000340 8d 0f 81 3d dd 07 92 3d 2e 33 ec ba b1 52 2b 3c
       0.06301794 0.07130406 -0.0018020624 0.010456727
000350 86 22 a1 3d 3b fb 8e 3d c7 c9 36 3c 8b a8 1d 3d
       0.07867913 0.06981512 0.011156506 0.038490813
000360 a0 21 e5 3b 71 b9 20 3c 94 35 0e bd 35 19 eb 3c
       0.006992534 0.009809838 -0.034719065 0.028698543
000370 ed 3d 68 bd 6d d0 f1 bc 97 5e c2 bd 83 2c 83 3d
       -0.056699682 -0.02951833 -0.09490698 0.06404974
000380 ce 90 8c 3d 6f df 09 bd 4c 8e e5 3c c8 f1 81 bc
       0.06863557 -0.03366035 0.028021954 -0.01586236
000390 ad 0c 35 3d 21 c2 73 bd 52 56 b6 bd 8a 70 a9 bc
       0.04420154 -0.059511308 -0.08903183 -0.020683546
0003a0 69 18 6d 3d fd 37 55 bc 0e cd df 3c 88 dd 7b bd
       0.057884607 -0.013013837 0.027319457 -0.061490566
0003b0 8f 44 a4 bd f8 e7 40 3d 23 15 7f bd b7 f1 18 bb
       -0.08020889 0.047096223 -0.062276017 -0.0023337433
0003c0 56 f7 af bd 70 fe 9f 3d 29 8c 40 3d 2e 65 73 bd
       -0.085920975 0.07812202 0.047008667 -0.059422664
0003d0 25 bd 6d bd e4 91 a3 bd 0e e3 bf bc 50 48 02 bd
       -0.05804171 -0.07986811 -0.023423698 -0.031807244
0003e0 e7 ed 71 3d 22 eb 68 bc cb db ad bd 09 cd a4 3d
       0.059064772 -0.014216216 -0.08489188 0.0804692
0003f0 73 82 52 3c 64 56 58 3d a7 91 85 bd 04 bb bb bd
       0.012848484 0.052816764 -0.065219216 -0.0916653

fc1.bias f4 [100]
000000 16 64 1e 3c 08 48 90 bb 98 e5 b6 bd 6e 4b c8 bd
       0.009667417 -0.004403118 -0.0893051 -0.09780012
000010 00 46 32 b9 06 cb 9e 3c e8 36 c0 bc 82 8b e3 bd
       -0.0001700148 0.019383918 -0.023463681 -0.111105934
000020 c2 e6 c7 bd 2f 93 f6 bd 2a 8f 0a be 38 9a 9a bc
       -0.097608104 -0.12039792 -0.13531175 -0.018872365
000030 51 48 21 bc 00 76 87 3c 0a ba 03 bd 84 28 97 bd
       -0.009843902 0.016535759 -0.032159843 -0.073807746
000040 67 2b a6 bd ea e6 df 3c 72 27 47 bd 46 77 4e 3d
       -0.08113747 0.027331788 -0.048621602 0.050406717
000050 1c 22 81 3d a8 9f 36 bb 9a 68 fe bd ea 0e ff bd
       0.06305334 -0.0027866159 -0.12422295 -0.124540165
000060 d5 fb 0e bc 27 1f 0d bd 06 b9 90 3d 27 83 0e bd
       -0.008727034 -0.034453537 0.070665404 -0.034793045
000070 91 11 c4 bd f6 bd 11 bd 51 7f 6e 3d 3a 51 56 bd
       -0.09573663 -0.03558155 0.058226887 -0.052323557
000080 29 d7 01 be 42 28 9a 3d 00 07 25 3d 0d f1 c2 bd
       -0.12679733 0.0752721 0.04028988 -0.09518633
000090 8f d3 90 bd a2 0d 66 bd 3b af 8e 3c fd 0b 01 be
       -0.070716016 -0.056165345 0.01741754 -0.1260223
0000a0 01 c6 95 bd ce 00 12 3c 37 12 84 3d 80 82 29 bd
       -0.07313157 0.008911325 0.06448787 -0.04138422
0000b0 89 c8 13 bd e4 d8 96 bd 88 15 f2 ba de dc 9a 3c
       -0.036079917 -0.07365587 -0.0018469552 0.018904146
0000c0 d3 10 bf bd 23 bd 05 bd d8 74 29 bc ed bb 0b bd
       -0.09329381 -0.032651078 -0.010342799 -0.034114767
0000d0 03 32 ff bd 86 06 2a 3d 89 80 81 3c fd 81 91 bd
       -0.12460711 0.041510127 0.01580836 -0.071048714
0000e0 99 ff 21 3d d8 06 48 3d 4e c0 44 bd 92 6e 47 bd
       0.039550398 0.04883465 -0.04803496 -0.048689432
0000f0 63 95 cd bd b6 e8 e6 3b 73 a0 42 bd c6 e7 63 3d
       -0.10038259 0.0070467843 -0.047516298 0.05564096
000100 92 7d 46 bd e1 fb de bc d2 f0 7d bd 20 e4 af bc
       -0.048459597 -0.027219715 -0.061997242 -0.021471083
000110 5f 7a c7 bd bb 22 b9 bb 5e 6d 04 be 8e 8b b4 bd
       -0.09740137 -0.005649892 -0.12932345 -0.088156804
000120 24 a2 07 be 75 47 83 bd e9 6a 91 bd b1 aa 5d 3b
       -0.13245445 -0.06410114 -0.071004696 0.0033823664
000130 6e 7a 95 bd d3 b2 f3 bd 92 39 d8 bd 5d e2 ef bd
       -0.07298742 -0.118993424 -0.10557856 -0.11713097
000140 94 e8 57 bd e2 5b 5e bd 9c de b8 bc 88 5f 85 bd
       -0.05271204 -0.054286845 -0.022567086 -0.06512362
000150 a9 5a bb bd a9 82 ba bd 35 f1 81 bd a4 2b 57 38
       -0.091481514 -0.09106953 -0.06344835 5.1300638e-05
000160 5a 6e b8 bd ac 59 c3 bc da c8 b0 3c 8a 7e ae bd
       -0.09005423 -0.02384647 0.021580148 -0.08520229
000170 0f 26 e5 bd 76 a3 5f bd 57 49 8e 3d eb b5 f9 bc
       -0.111889 -0.054599248 0.06947582 -0.030482253
000180 d7 0b 78 bd ec 3b 9d bc 2f c8 6a bc 37 65 c9 bd
       -0.060558166 -0.019193612 -0.014329954 -0.09833758

fc2.weight f4 [64, 100]
000000 c1 c8 fb bd eb 4a dc bd 66 69 cc bd f2 7d 7c 3c
       -0.1229415 -0.10756477 -0.09981041 0.015410887
000010 1e 0d 5f bd ff e5 68 3c d4 69 f7 3c 28 69 f1 3d
       -0.05445587 0.014214992 0.03020183 0.11787635
000020 ad 17 04 be e1 86 b3 3d c7 93 fb 3d 5e f7 6a 3d
       -0.12899657 0.087659605 0.12284046 0.057364814
000030 9e cc f1 bc c3 6a e1 3d c4 57 27 3d 17 6d 8f 3d
       -0.029516514 0.11006691 0.040855184 0.07003229
000040 23 1b 65 bd 1e 4f ce 3d 67 54 45 3c 6d 54 15 be
       -0.055934083 0.10073684 0.012044049 -0.14582987
000050 82 a5 31 bd b3 f7 25 3d c4 af c2 3c 49 26 1f 3e
       -0.04337073 0.040519428 0.023765452 0.15541948
000060 b7 9d ba bd 15 9f 1e 3e c0 c0 f5 3c 60 38 8f 3d
       -0.09112113 0.15490372 0.029999137 0.069931746
000070 dc d9 09 bd 43 08 5b bd cc e8 39 be 9a f8 71 bd
       -0.033655033 -0.053474676 -0.18155211 -0.059074976
000080 b2 f8 8b 3d c5 8c 62 bd ba 60 2c bc 97 2a fa 3d
       0.06834544 -0.05531003 -0.010521108 0.122151546
000090 1b eb 14 be ea 9d 72 bd d4 30 bf bb 39 59 fc 3c
       -0.1454281 -0.05923263 -0.005834678 0.030804263
0000a0 ae 34 34 be c0 eb a6 3c b9 8c e2 bb a6 fd 84 3d
       -0.1759822 0.020376086 -0.006913748 0.06493692
0000b0 e7 4e 8d bb a5 ca 23 be a0 88 19 3e 33 98 b1 bd
       -0.0043123844 -0.15995272 0.14993525 -0.08671608
0000c0 8f 1a ce 3d 2b 31 ac bc c8 52 cf bd 65 38 4d 3d
       0.100636594 -0.021019539 -0.10123211 0.05010261
0000d0 df 10 08 3e 55 e4 b1 bd 67 d3 d5 bc 38 7a 3a be
       0.13287686 -0.08686129 -0.026101781 -0.18210685
0000e0 ea 5a 33 3d 33 6d 4a 3b 7f 8d 80 3d 19 cd df bd
       0.043787874 0.0030887842 0.06276988 -0.10927791
0000f0 3b 00 06 3e 74 2f b2 bd 48 82 3c bd 52 33 4b bb
       0.13086025 -0.08700457 -0.046022683 -0.003100593
000100 a7 4c 39 bc 56 e2 d9 bc e6 df 11 3e 10 41 cc bd
       -0.011309779 -0.026597183 0.14245567 -0.09973347
000110 88 8e 91 bd c2 bb de bd da 8c ff bc 93 49 bf bc
       -0.07107264 -0.10875656 -0.031195093 -0.023350513
000120 c7 2d c2 bd 6a 54 75 3d 3d cf 24 3d 7a 28 7f bd
       -0.094813876 0.059894957 0.0402367 -0.06229446
000130 09 65 0e be 71 3c 93 3d e8 38 de bb df 7c 81 3d
       -0.1390573 0.07189263 -0.006781686 0.063226454
000140 ab 98 e9 3d 84 d3 1b 3e c3 4f 34 3d 05 19 11 bc
       0.11406072 0.15217406 0.04402138 -0.008856063
000150 1b 73 00 be bf c5 b1 3c a4 c1 af 3d dc 5b be bd
       -0.12543909 0.021700738 0.08581856 -0.092948645
000160 99 22 b7 bd 8b 82 a5 bd 37 ad 72 bd 3f dc 0f 3d
       -0.08942146 -0.0808154 -0.05924722 0.035122152
000170 77 78 f8 3c 1f 5c 21 be a1 63 10 bd 75 37 41 be
       0.03033088 -0.15757798 -0.035251264 -0.18868811
000180 f5 40 bf bd a7 a4 5e 3d 81 de 60 3d 71 16 cb 3d
       -0.093385614 0.054356243 0.054899696 0.0991639
000190 99 94 c3 bd c6 40 1c bd 91 c2 c1 bd bc 6a e4 bd
       -0.09549827 -0.03814771 -0.09460939 -0.111531705
0001a0 0d 5b d3 bc f2 bd f8 3c e7 dd b6 bd 3f 1e 85 ba
       -0.025800252 0.03036401 -0.08929043 -0.0010156109
0001b0 ce ea 14 3d 9b 47 10 bc 9f 3f 6c bd 5e c0 04 bd
       0.03635674 -0.008806135 -0.05767786 -0.03241002
0001c0 cc c5 f8 bd 81 fb be bd 2d e1 20 be c5 30 94 bd
       -0.12147102 -0.09325314 -0.15710898 -0.072358645
0001d0 82 9c d7 bd 18 cf 9a 3c 27 66 2a 3d 41 d1 49 bd
       -0.10527898 0.018897578 0.041601326 -0.049271826
0001e0 b8 a9 a0 bb b3 b6 2d bc 8d 45 47 bd 57 fb ed bd
       -0.0049030446 -0.010602641 -0.048650313 -0.11620205
0001f0 28 c3 c2 bd ba e6 c2 bb 12 1a b3 3d 3b 9e 81 bd
       -0.09509879 -0.005947915 0.08745207 -0.06329008
000200 32 76 10 3d 4d aa 8c bb 41 17 02 be 77 7c 6a 3d
       0.03526897 -0.0042927624 -0.12704183 0.057247605
000210 d6 c9 a9 bc 79 9f 20 be 8d b3 09 be 8c 6e 99 bd
       -0.020726126 -0.15685834 -0.134474 -0.07491788
000220 97 e7 02 bd 17 a2 35 bd 20 75 1b 3c 76 5d fe bc
       -0.031959143 -0.044344034 0.009488374 -0.031050425
000230 04 2d 36 bd fa c2 1c bd 9d 22 23 bb 3c ec 73 3c
       -0.044476524 -0.03827188 -0.0024892457 0.014887866
000240 f0 95 b5 bd 21 13 d7 bd 6b ea 9c bd cd fc 2e 3c
       -0.08866489 -0.105016954 -0.07661899 0.01068039
000250 a6 04 15 be 7b 48 7e bc 38 79 90 bd 51 6f 12 3d
       -0.14552554 -0.01552021 -0.07054371 0.03575069
000260 76 52 15 3d 27 d4 19 3d 13 d5 67 bd 65 91 5f bd
       0.036455594 0.03755584 -0.056599688 -0.05458202
000270 17 d7 41 3d f7 df ab bd aa 75 d8 bd 42 91 91 bd
       0.047324266 -0.08392327 -0.10569318 -0.07107784
000280 60 eb f8 bc 9b 53 87 3d 44 92 d3 bd 10 09 23 be
       -0.030385673 0.06607743 -0.10330632 -0.15921426
000290 d7 ca 7f bd e2 66 15 be 67 53 93 bd 19 a0 12 be
       -0.062449303 -0.14590028 -0.07193642 -0.14318885
0002a0 f6 d3 72 bc f3 83 ad bd 9a 3c b2 bc 23 c4 b1 bd
       -0.014821043 -0.08472433 -0.021757413 -0.08679988
0002b0 62 c1 49 bd 9a be c7 3c fa 70 93 bd b0 34 ad 3d
       -0.04925669 0.024382878 -0.07199283 0.08457315
0002c0 1a d5 db bd 95 10 b7 bd b8 45 98 3c 16 99 64 3a
       -0.10734005 -0.0893871 0.018587932 0.00087203213
0002d0 63 82 7a bd ff 1e a1 bc b3 e8 9f bd d4 8e fa bd
       -0.061159503 -0.0196681 -0.07808056 -0.122342736
0002e0 6d 71 20 be 2a 04 fc bd a3 2d 94 bd b3 92 d5 bd
       -0.15668269 -0.12305482 -0.07235267 -0.10428371
0002f0 1b c2 0a bd 1f 1c 20 be c0 45 95 3d 6b f4 a8 3a
       -0.03387652 -0.15635727 0.072886944 0.0012890225
000300 17 f4 14 bd 69 ef d3 bd 0d 5b 1e be 62 b1 98 bd
       -0.036365595 -0.10348398 -0.1546442 -0.07455708
000310 bd d8 1f be 9b c6 0e 38 e9 d5 8d bc bd ba 71 bd
       -0.15610023 3.4040404e-05 -0.017313914 -0.059015978
000320 6d 36 8a 3d b3 f7 c5 3d 65 85 c1 3d 4d d1 12 3c
       0.06748662 0.096663855 0.09449271 0.008961034
000330 62 d8 06 be c0 20 97 bd cd cc e1 3c ad 7b 62 bd
       -0.13168481 -0.073792934 0.027563477 -0.055293728
000340 43 e3 3e bd 5a c8 06 bd b3 23 13 3c 60 36 e8 bc
       -0.046603452 -0.032905914 0.008980679 -0.02834624
000350 35 33 c5 3d 7a 7b 0d 3d fd f9 46 3d 5a 1e a9 bd
       0.096289076 0.034541585 0.04857825 -0.08257742
000360 b3 c0 39 bc 35 eb bb bd 27 d7 81 bd 6d 74 f7 bc
       -0.011337447 -0.091757216 -0.06339865 -0.030206883
000370 bb 6a 8d be f7 ad b7 3d 82 ef b2 bd 30 5d 06 3d
       -0.2762049 0.08968728 -0.08737089 0.032803714
000380 f7 64 4a 3d 4d ba cc bd 05 a9 b6 3d 27 32 dd bc
       0.049412694 -0.099964716 0.08918957 -0.027001454
000390 aa 1e 7e 3d 47 c1 86 bd 88 fe a2 3d b0 b6 3c bd
       0.062040962 -0.065798335 0.07958704 -0.046072662
0003a0 e3 c3 19 3d 63 75 0b be bd e1 0a be 4d ea 5b 3d
       0.037540328 -0.13618998 -0.13562675 0.053690244
0003b0 48 51 99 bd 3f f9 9a 3d ad 6b 49 be a7 ab b4 bd
       -0.07486206 0.07567071 -0.19669981 -0.088218026
0003c0 1a b0 e8 3b ef ac a6 3d 70 33 2e be cd 09 b5 bd
       0.007101071 0.08138453 -0.1701181 -0.0883976
0003d0 c0 67 e6 3c 49 a3 3e be 33 5c 63 3d 5a f2 be bc
       0.028125644 -0.18616976 0.05550785 -0.023308922
0003e0 25 a6 c8 3d 00 b9 52 bb e0 03 53 3d a0 de e9 bc
       0.097973146 -0.0032153726 0.051517367 -0.028548539
0003f0 bd 21 94 3d c2 23 af bd 40 2a 10 bd 1a 87 33 3c
       0.072329976 -0.08551742 -0.035196543 0.010957504

fc2.bias f4 [64]
000000 ea 63 27 be b0 01 1d be d2 59 2c be e1 b0 43 bd
       -0.16346708 -0.15332675 -0.16831139 -0.047776107
000010 e6 1d 04 be 68 10 0c be 16 79 73 be d8 89 91 be
       -0.1290203 -0.13678133 -0.2377666 -0.2842548
000020 90 37 fe bc 29 76 44 be d2 e1 72 bd 94 ed 8c 3d
       -0.031032354 -0.191857 -0.05929739 0.06881252
000030 0f 7d c8 bd f6 bb 5d bd bd 0b 05 be ca c7 0d be
       -0.09789478 -0.05413433 -0.12992759 -0.13845745
000040 72 55 00 3f 11 ed 13 be f2 1f 5b 3e c3 34 b0 bd
       0.5013038 -0.14445902 0.21398905 -0.086038135
000050 39 8c 03 3e 9b 36 16 be bb 53 5b be 15 3a ad bd
       0.1284646 -0.14669268 -0.2141866 -0.08458344
000060 11 c6 6c bc 71 b7 21 3e 14 0b 0d bd 8a a8 0e be
       -0.01445152 0.15792634 -0.034434393 -0.1393148
000070 a9 b1 e3 3e ed 84 09 be 36 c1 78 bc 13 bb 4e bd
       0.4447148 -0.13429613 -0.015182784 -0.050471377
000080 f5 a4 ff bd 0d 56 10 be 7a d7 83 3e 68 e1 2b be
       -0.12482635 -0.14095326 0.25750333 -0.16785204
000090 be a4 9a bd b3 16 40 bc 48 9f 5e 3e 9a 98 49 be
       -0.07550953 -0.011724162 0.21740448 -0.19687119
0000a0 82 2f 01 be f1 62 6d bd 39 29 8b 3e f8 06 e3 bd
       -0.12615779 -0.057955686 0.27179888 -0.110853136
0000b0 8b 6f 14 3c c6 41 fe bc c4 bf dd 3e 61 75 2e 3c
       0.009059797 -0.031037223 0.43310368 0.0106481025
0000c0 1a 9f ee bb 0a 48 73 bc da a4 ac bd 41 25 a3 be
       -0.00728215 -0.014848718 -0.084298804 -0.3186436
0000d0 6f 53 27 be 56 e8 eb bd e5 cb 38 3c c4 f4 34 3e
       -0.16340421 -0.11518924 0.011279081 0.17671496
0000e0 b7 8d f4 3e 1a 5b 8f be 59 d4 a8 bd 76 e7 f7 bd
       0.4776437 -0.27999192 -0.08243627 -0.121046945
0000f0 b5 c3 24 3c 04 e6 35 be 8d d8 7b 3d 58 c1 ce bd
       0.010056426 -0.17763525 0.061485816 -0.10095471

fc3.weight f4 [64, 64]
000000 79 b6 05 3d 46 d9 24 3d e3 eb 3b 3e 86 9b e4 3b
       0.032644723 0.04024627 0.18351702 0.0069765477
000010 08 aa c8 bd 88 81 63 bd db ac aa bd 85 72 92 3c
       -0.09798056 -0.055543453 -0.08333751 0.017876873
000020 8e b9 06 bd c6 2b 91 3e b4 12 19 3d 4e ec 34 3e
       -0.032891802 0.2835371 0.037371352 0.17668268
000030 94 8a 0d bd a1 14 00 bd ef 72 21 be 5b aa 5d 3d
       -0.034555987 -0.031269673 -0.157665 0.05411754
000040 e0 c5 45 be d1 7f be 3d 41 2d f6 3d 4c 77 5d bd
       -0.19313765 0.09301723 0.1202035 -0.05406885
000050 0c db 26 3e 46 82 fa 3d 49 b9 41 3b 06 0b 5c bc
       0.16294497 0.12231879 0.0029559901 -0.013430363
000060 a1 24 9d bd d8 45 6c be 71 fe 25 be c6 dd 8c bc
       -0.07673002 -0.23073518 -0.16210343 -0.017195594
000070 5c f2 f4 3e 78 07 20 3c 2e ea 83 bc 24 40 90 bd
       0.47841156 0.009767406 -0.016102877 -0.07043484
000080 47 68 58 bd a9 e0 e6 3d 4e 26 80 3d 0a 91 85 bc
       -0.05283382 0.11273319 0.06257306 -0.016304512
000090 89 6a bb bd fa ee 60 be c0 88 3e 3d 79 c1 68 be
       -0.09151179 -0.21966162 0.046517134 -0.22730054
0000a0 3f 71 27 3e de a7 11 bd 10 c7 b8 bd 9e 37 4b bd
       0.16351794 -0.03556048 -0.09022343 -0.049613588
0000b0 f0 ab 1b 3e 1f eb 9e 3d 9d 02 47 bf 97 b7 0b 3e
       0.15202308 0.077596895 -0.7773836 0.13644253
0000c0 0a c7 e6 3c 8b 0a b6 3c b7 d8 34 be 1a 0f 9f 3d
       0.028171081 0.022221824 -0.17660795 0.07766552
0000d0 88 fe 9f 3d 61 a5 11 be 80 0d 29 3d 03 3e 6c 3d
       0.0781222 -0.14223243 0.04127264 0.057676326
0000e0 4c 93 56 3d 68 2f ba 3c c9 64 ac bc ce 95 e0 3b
       0.052386567 0.022727683 -0.021044152 0.0068537956
0000f0 fd 95 9f bc 75 d9 8c bd c2 b2 0f 3e f8 c6 ec bc
       -0.0194807 -0.06877414 0.14033034 -0.02890347
000100 a6 02 1a be 64 7b 4b bd 40 80 99 bb 8b c2 0c be
       -0.15040073 -0.04967822 -0.004684478 -0.13746087
000110 7a 5f 8c bd ea 16 ee bd 00 93 28 bb 8e b8 8c be
       -0.06854148 -0.11625464 -0.0025722384 -0.27484554
000120 f3 01 9d bd 12 d5 52 3d da 74 d6 3b fb 92 f2 bd
       -0.076663874 0.05147273 0.0065446915 -0.118444405
000130 d8 b4 b7 bc 48 14 7a bd ec e1 9e 3d d8 61 02 3d
       -0.0224251 -0.061054498 0.07757935 0.031831592
000140 f3 27 f9 be d5 c1 89 3a e3 dd 85 bf 3c 76 de bd
       -0.4866329 0.0010510037 -1.045834 -0.10862395
000150 51 a1 55 3e 8b 1a 36 be a4 bd 76 bd 8c 90 12 bd
       0.20862319 -0.17783563 -0.06023945 -0.035782382
000160 30 49 5a bc b2 53 e5 be 76 fe ee 3d fb 4e 3d be
       -0.013323113 -0.44790417 0.11669628 -0.1848716
000170 1c 24 8b bd 44 91 de 3d d5 49 2a 3c b3 8d cf 3e
       -0.06793997 0.10867551 0.0103935795 0.40537795
000180 b7 07 6c be 7e b5 a2 bd 9c f1 87 3e cb 65 76 be
       -0.23049818 -0.07944773 0.2655152 -0.24062268
000190 99 a4 06 be dd 7b 4d bf f6 c7 64 be 53 ac 4f 3d
       -0.13148727 -0.80267125 -0.22341904 0.05070145
0001a0 06 97 c7 bb 38 34 72 3d 79 4e be bb 00 4c ba ba
       -0.0060910014 0.05913183 -0.0058076945 -0.0014213324
0001b0 a2 68 ab bd 44 2f a8 bd 0d ee a0 3f 25 db 04 bc
       -0.083695665 -0.0821214 1.2572647 -0.008108889
0001c0 70 fa 12 bc bc 72 18 3d 59 b9 62 3d 53 ef c9 3c
       -0.008970842 0.037218794 0.055352543 0.024650251
0001d0 e3 a5 47 bf 28 a5 a6 bc 3f b8 46 bd 34 c3 f6 bf
       -0.779875 -0.020342425 -0.048515555 -1.9278321
0001e0 e9 9d 7b bd af 52 7c bf e8 ea cd bc fe 45 29 3e
       -0.06142989 -0.98563665 -0.025136426 0.16530606
0001f0 95 67 d4 bc a0 4d db bc 39 ec 93 3d 29 e4 18 bd
       -0.025928298 -0.026770413 0.0722279 -0.037326965
000200 c7 a7 42 bd 4e b9 4b bd d4 95 4e 3d 78 51 94 bc
       -0.047523286 -0.049737267 0.050435856 -0.018105254
000210 61 13 bb bd 4b 74 78 be 9a fb bc bd 07 81 3a be
       -0.091345556 -0.24263112 -0.09227677 -0.18213283
000220 85 48 0f 3d a5 39 dc bd 6e 99 57 3d 5a 17 0c 3e
       0.03498127 -0.10753182 0.052636556 0.13680783
000230 d8 53 8a 3c 27 3b 2a 3c 6e e7 72 3d 7e 86 c9 3c
       0.016885683 0.01039008 0.05930274 0.024600264
000240 52 6f 9d 3e 52 e8 0f 3d 0d f7 7c be c0 16 45 bb
       0.30748993 0.035133667 -0.24703617 -0.0030073375
000250 c7 48 bf 3d 5c 74 36 3e 84 61 bb 3d 9d 44 17 bd
       0.09340053 0.17817825 0.09149459 -0.03693067
000260 7f ff da bc e4 30 de 3d 51 d3 81 3d 8f fe b9 3d
       -0.026733158 0.10849169 0.063391335 0.09081756
000270 c3 04 bf 3e 7c 5f 37 bd 62 bc 81 bd 4e 5e 4c bc
       0.3730832 -0.044768795 -0.06334759 -0.012473656
000280 5f 91 db be fa ed 1a 3d 3b 6a 62 3e 9c 64 07 3e
       -0.42884347 0.03782461 0.22110836 0.13221973
000290 7d cc a4 3d 51 bf f2 3d 6f bb 20 be 74 3e eb bc
       0.080468155 0.11852897 -0.156965 -0.028716303
0002a0 98 03 f5 3d 4a 6d 3b bd 6b 65 a4 3d c1 b1 0c be
       0.11963576 -0.045758523 0.080271564 -0.13739683
0002b0 21 bf 19 bd 15 dd 7f bb a8 cc 3a 3d b4 b9 54 3c
       -0.03753579 -0.0039041687 0.04560533 0.012983728
0002c0 b9 b5 43 be d8 5b 04 3d 98 9b 42 3d 56 85 81 3d
       -0.1911229 0.03231415 0.047511667 0.0632426
0002d0 20 3b b6 bf aa e2 fe bd c7 26 12 3e 85 39 cb 3e
       -1.4236794 -0.124455765 0.14272605 0.3969232
0002e0 45 44 75 3d be 10 5f bc 63 75 19 3e 37 cf 6c 3c
       0.05987956 -0.0136148315 0.14986186 0.014453701
0002f0 bd 52 24 3e 07 7e 87 3c a0 4f 73 be 30 b2 bb bc
       0.16047187 0.016539587 -0.23760843 -0.022912115
000300 34 7b 0c be 34 43 6a 3d 50 f3 e7 3d c2 a9 84 bd
       -0.13718873 0.057192996 0.11325705 -0.06477691
000310 80 11 96 bb a7 80 30 bf c8 e4 cd 3d 28 8f 10 c0
       -0.004579723 -0.6894631 0.10053402 -2.2587376
000320 d1 da 09 bd 51 00 3a be 53 10 2a be 08 3f 48 bb
       -0.033655945 -0.18164183 -0.1660779 -0.0030555148
000330 a4 30 49 3d 87 d9 35 be 3a 2b bb 3d 28 4a d8 bd
       0.049118653 -0.17758761 0.09139104 -0.10561019
000340 2d d9 8b 3e 30 f7 62 3d d8 85 d1 3e 24 ec 90 bd
       0.2731413 0.055411518 0.40922427 -0.0707629
000350 7a 77 b6 bf ee 47 75 3d 58 6c c8 3c 10 f5 54 bd
       -1.4255211 0.05988305 0.024465725 -0.051991522
000360 dc 6f cc 3d 41 8b 9a 3e 3f e1 f4 3e 34 43 e4 3b
       0.09982273 0.30184367 0.478281 0.006966019
000370 74 4c 92 3d 90 39 32 3d e7 bc 14 be 54 67 4a ba
       0.071434885 0.043511927 -0.14525186 -0.00077210856
000380 a2 4a 83 bf f6 7d 51 3d 92 f9 5f be 22 c3 48 3e
       -1.0257151 0.051145516 -0.21872547 0.19605687
000390 80 02 0f be 05 1f e1 bf 50 5e 1a c0 03 8a c3 bb
       -0.13965797 -1.7587591 -2.4120064 -0.00596738
0003a0 73 34 76 bd 52 00 ef bd 14 09 f3 3c 9c 1d 6e bd
       -0.060108613 -0.11669983 0.029667415 -0.058133706
0003b0 fa db 26 be 5c cd 5a 3e fb 4a 7f 3e 17 b0 0a 3d
       -0.16294852 0.21367401 0.24930947 0.03385934
0003c0 92 d4 b7 3d d7 08 91 3c 34 9d 2c be c9 d7 81 3d
       0.089760914 0.01770441 -0.16856843 0.06339986
0003d0 2c c3 f0 bd a0 ff 54 bb 95 55 75 3d dd f2 bf be
       -0.11755976 -0.0032500997 0.05989607 -0.37489977
0003e0 7e 2c 29 bf a6 cb e2 3e ac 55 84 bd 22 9c 8d 3e
       -0.66083515 0.44295996 -0.06461653 0.27658182
0003f0 08 53 76 3d 28 01 76 3d b9 2c c1 be 74 08 01 be
       0.06013778 0.060059696 -0.37729433 -0.12600881

fc3.bias f4 [64]
000000 e0 ba d8 3c 29 a4 0e 3e 5e ab b2 3d b8 4e 38 bd
       0.026456296 0.1392981 0.08724092 -0.044996947
000010 32 4d 82 3d c1 ec 2b 3e e4 30 8a 3e c9 fe 10 3e
       0.0636238 0.16789533 0.26990426 0.14159693
000020 ea 5a ed 3c 45 4e 94 be a3 3f f5 3d 2c 19 9f be
       0.028974015 -0.28965965 0.11975028 -0.31073892
000030 d8 ea a7 3e 48 48 67 bc 59 16 67 3d c9 7e 73 bd
       0.3279636 -0.014116354 0.056417797 -0.059447084
000040 85 e9 a0 3e f4 82 ea 3c 8a b8 fb 3d 92 24 76 3e
       0.3142816 0.028626896 0.122910574 0.24037388
000050 42 22 6e bc 7b be 65 3e 9d 4a 05 bf 25 c9 84 3e
       -0.014534535 0.22435944 -0.52066976 0.2593471
000060 6d ca 81 3e 31 4a 83 bd c4 e5 37 be ab cb 06 bd
       0.2534975 -0.06410635 -0.17958742 -0.032909077
000070 92 54 83 3e 0a 46 71 bd b5 76 45 3e e2 3c 50 3e
       0.2565046 -0.058904685 0.19283564 0.20335725
000080 8c 17 fe bd b9 80 6e be 32 a4 c5 bd 49 7d 7d be
       -0.12406835 -0.23291291 -0.096504584 -0.24754824
000090 c9 eb 7f 3e a2 d1 b5 be 8a 19 7f 3c 24 1d 59 bd
       0.24992289 -0.355115 0.015570054 -0.053006306
0000a0 fa cb a3 be cb 87 8c be 78 30 bf be a0 29 02 bd
       -0.3199156 -0.27447352 -0.37341666 -0.031777978
0000b0 af 23 86 3d 73 a6 c2 bd 53 63 7a be 07 77 f6 bc
       0.06549775 -0.09504404 -0.24451952 -0.030086054
0000c0 b6 f6 76 bb ca 35 1b be ca 61 bf bd 28 b3 6a bc
       -0.0037683672 -0.15157238 -0.09344824 -0.014324941
0000d0 71 f5 ed bd 04 d1 1d bc ba f3 18 be 83 1d 56 3d
       -0.1161908 -0.009632353 -0.14936724 0.05227424
0000e0 90 46 ab 3e 85 0c da bd be 72 1a bf 8d e6 d5 3d
       0.33452272 -0.10646919 -0.6033133 0.10444365
0000f0 59 c1 9d 3c 33 06 01 3d 12 bd 9b be 15 bb de bd
       0.019257234 0.031500053 -0.30417687 -0.10875527

fc4.weight f4 [63, 64]
000000 47 33 87 39 f2 33 3b 39 19 ba 94 39 d0 19 1d ba
       0.0002578741 0.00017853061 0.00028367413 -0.0005992921
000010 88 de 67 38 7c 11 d6 39 66 02 31 39 ee ad 89 b8
       5.528194e-05 0.00040830288 0.00016880929 -6.565066e-05
000020 60 9a 87 3c d8 c1 24 bd 1a 22 a4 b8 8c 0f 71 3d
       0.016553104 -0.040223926 -7.826481e-05 0.058852717
000030 c2 90 94 38 6b ba de b8 86 78 0c 38 ae f2 5d 3e
       7.084153e-05 -0.00010620508 3.3490847e-05 0.21674606
000040 ca 2a 1a 39 a6 13 b4 3d 39 6c e9 38 38 65 23 b9
       0.00014702525 0.0879281 0.00011130464 -0.00015582598
000050 a1 56 a3 b9 7c 6b 4b b9 4e 93 3f 3e d7 52 51 b8
       -0.00031154326 -0.0001939963 0.18708536 -4.9906634e-05
000060 67 74 6a b8 f4 9c 33 3e b9 93 a2 bd 5e 62 96 3c
       -5.5898356e-05 0.17540342 -0.07938332 0.018357452
000070 22 52 ab 39 46 85 36 39 92 13 c0 36 d3 63 4d 39
       0.00032676855 0.00017406521 5.724324e-06 0.00019587511
000080 ea 09 78 bd 6e 9b b0 b9 02 8e c8 3d 22 b3 2b 3e
       -0.06055633 -0.0003368514 0.09792711 0.16767552
000090 2d fd b9 b9 e6 fa 32 be b9 94 78 39 25 1d 32 3e
       -0.0003547458 -0.17478523 0.00023706527 0.1739393
0000a0 46 75 29 3d 12 b2 1d bd e4 63 47 3e 16 5a 11 3e
       0.041371606 -0.0384999 0.19471699 0.14194521
0000b0 6f dd 8f 37 ba ca 85 38 f3 61 6d bb 65 a3 5c 3e
       1.7150041e-05 6.379695e-05 -0.0036221712 0.21546705
0000c0 84 b8 88 bd 01 dc 1a bd b4 1d db 3d 4a e2 02 39
       -0.066758186 -0.03780747 0.10699025 0.00012482065
0000d0 25 fb a5 3d 76 47 7c b9 14 a8 c7 3d 8f 8a 25 3a
       0.08104543 -0.00024059214 0.09748855 0.00063148973
0000e0 ee 6c 88 b9 03 57 6e bd 3c f1 e3 bc d6 1f 70 b9
       -0.000260211 -0.05818845 -0.02782499 -0.00022900043
0000f0 d5 a5 1f 39 58 de 4b 39 c3 2d 6e bd 3f 9c 2a be
       0.00015225199 0.00019442418 -0.05814911 -0.16661166
000100 58 04 83 b9 7e a1 8e ba 69 9e 29 39 4e d3 26 bb
       -0.00024989503 -0.0010881869 0.00016176108 -0.0025455537
000110 70 73 86 ba a0 cc 25 b8 da 19 80 b9 84 01 a4 b9
       -0.0010257792 -3.9529637e-05 -0.00024433323 -0.00031281647
000120 bd 98 87 bc 2c f6 31 be 8e c0 b7 b9 82 c4 ff 3d
       -0.016552323 -0.17379063 -0.00035047944 0.12488653
000130 8a bc 08 39 77 89 2e be cd f1 1b b7 7f e7 ad bc
       0.00013040207 -0.17044626 -9.295019e-06 -0.02122855
000140 ff 7b 94 39 03 58 6b 3d 63 e3 9c 38 52 ca 4b ba
       0.00028321144 0.05745698 7.481014e-05 -0.00077739835
000150 bd 74 8f 39 63 40 93 b8 63 77 43 be 6f 2e f1 b9
       0.00027362062 -7.021499e-05 -0.19088511 -0.00046001698
000160 81 8f 36 38 01 39 b8 bd 85 53 ca 3d 0b a2 1b bd
       4.352583e-05 -0.08995248 0.09879211 -0.037996333
000170 0d e8 63 3a 13 bb 03 3a eb 86 7e b9 56 60 a7 39
       0.0008693941 0.00050251296 -0.00024273588 0.00031924498
000180 79 03 1d be 33 f9 11 3a 5b 13 1a be 2f 3f ef bd
       -0.15333356 0.00055684446 -0.15046446 -0.11681973
000190 c9 f8 f9 b9 55 de c1 bd 06 2a d7 b8 ae ac b6 bd
       -0.0004767834 -0.094662346 -0.000102598264 -0.08919655
0001a0 50 59 87 bd 0e e3 01 be 32 8e 89 be 63 d7 80 3d
       -0.06608832 -0.1268427 -0.268663 0.06291082
0001b0 9f 2a dd 38 d7 64 58 39 4c 50 e7 3b f3 57 2c be
       0.0001054604 0.00020636931 0.0070591327 -0.16830425
0001c0 ae 32 61 bd cc 5e 03 3e e2 df c3 bd 41 e3 a3 39
       -0.054979973 0.12829131 -0.09564187 0.000312591
0001d0 e6 dd 84 bd d6 b2 84 b9 34 09 17 be 8a bd b5 3a
       -0.06487636 -0.00025310245 -0.14749604 0.0013865691
0001e0 45 4a 60 ba 8f 0e 24 bd 6e 5a ba bd 3e e5 d0 b8
       -0.0008555989 -0.040052947 -0.09099279 -9.9609126e-05
0001f0 ff 12 c8 39 5a a5 f5 39 d0 f4 d9 3d da e2 5d bd
       0.00038161126 0.00046853238 0.106423974 -0.05417142
000200 96 dd 1b ba 4f f6 96 3a 0d 88 46 39 a7 6a 21 bb
       -0.00059457996 0.0011517497 0.00018933434 -0.002463022
000210 6d b8 ea 38 0c 77 08 3a 4b 05 36 b9 d7 d6 96 ba
       0.000111923415 0.00052057276 -0.00017358844 -0.0011508119
000220 e3 22 9a bd 5d e7 04 3d 2f b8 59 b9 98 65 35 be
       -0.07526185 0.032447208 -0.00020763346 -0.17714536
000230 01 b1 04 3a 23 33 2c bd 21 d4 f1 38 90 4d f5 bc
       0.0005061776 -0.042040955 0.000115312876 -0.029944211
000240 15 09 18 b8 f0 83 03 be 39 ce 5a 3a 88 49 ab b9
       -3.6248082e-05 -0.12843299 0.00083467696 -0.00032670447
000250 f3 b5 bc ba 10 45 13 39 91 da 73 3e ae 12 b3 ba
       -0.0014397487 0.0001404474 0.23813845 -0.0013662183
000260 70 a4 03 39 03 17 07 3d 5b 7b 4e 3e 87 83 54 bd
       0.00012554391 0.03298093 0.20164244 -0.051883247
000270 56 88 ed 3a ae 9d af 38 2e 4c 09 ba dd 3c 97 b9
       0.0018122296 8.3740204e-05 -0.0005237487 -0.0002884631
000280 7d f0 0e be ef 77 ea 3a 5a b4 41 bc c3 b6 08 be
       -0.13958926 0.0017888526 -0.011822784 -0.13350968
000290 d2 5b 5b ba 44 33 98 bc 14 33 de 37 9b ff c8 bd
       -0.00083678693 -0.018579133 2.6488247e-05 -0.09814378
0002a0 9b 37 0b bc 05 4a 67 bc 9c 20 69 be b1 bf fd 3c
       -0.008497144 -0.014116769 -0.22766346 0.030975195
0002b0 df 4f 2b ba cb 54 d4 b9 b0 bd 47 bd a6 a3 d4 bd
       -0.0006535034 -0.00040498967 -0.048764884 -0.10382776
0002c0 a6 88 b0 3d ff 91 01 3d 1c c8 19 bd 92 58 f4 b9
       0.086198136 0.031633373 -0.037544355 -0.00046605297
0002d0 ba 07 52 3e ad 3a c3 b9 99 18 1c bd 66 ad 08 3b
       0.2051076 -0.00037237015 -0.038109396 0.0020855307
0002e0 9e 50 0b bb 70 2c 8c bb 82 42 59 3c ef 21 69 ba
       -0.0021257768 -0.0042777583 0.013260486 -0.0008893301
0002f0 66 0b 09 ba ca 5f 42 3b b4 02 8d 3e 91 7f a0 ba
       -0.0005227834 0.0029659146 0.27541125 -0.0012245049
000300 8b 52 8f 3e 4a dc 04 3e bf d7 34 bd 4f ef 41 be
       0.27992663 0.12974659 -0.044151064 -0.18938945
000310 ad a2 d6 bd 95 7e 81 be e5 f5 b6 3e 20 31 f7 bc
       -0.10480247 -0.25291887 0.35734478 -0.030174792
000320 2e 26 06 3e b0 c4 37 3e 18 08 46 3e a4 58 20 3e
       0.13100502 0.17946124 0.19339025 0.15658814
000330 ea 78 de 3d 06 19 33 3e 93 78 2d 3e e9 72 18 3e
       0.10862906 0.17490014 0.16940527 0.14887585
000340 16 a7 84 3e 2b 85 94 3d 66 32 29 bd 43 76 0b 3e
       0.25908726 0.07251962 -0.04130783 0.13619332
000350 da e8 e2 3d 78 7a 18 be 82 aa 48 3c 97 56 25 3e
       0.11079569 -0.14890468 0.0122476835 0.16146313
000360 a2 9a a7 3e 26 01 2c bd 8c 70 19 bd 15 3d 6d 3c
       0.32735163 -0.041993283 -0.03746085 0.014479895
000370 e6 ff 00 3e 16 b3 96 bc 01 c5 1f be 47 78 c6 bc
       0.12597618 -0.018395942 -0.15602495 -0.024227275
000380 95 dd b5 3d 4a cf 28 be 29 d7 98 bb 14 e3 82 3d
       0.08880154 -0.16485325 -0.004664321 0.06390968
000390 f4 fc 19 bd 6b ca ae be f8 23 1b be c2 a1 b6 3d
       -0.03759475 -0.34138808 -0.1515044 0.089175716
0003a0 2e 76 83 be dc e9 01 be 09 cf 9b be c0 5b 29 3b
       -0.256761 -0.12686867 -0.30431393 0.002584204
0003b0 5f c8 04 be df 0d 0c be 57 67 63 bd 3d 5d de bc
       -0.1296706 -0.13677166 -0.055518474 -0.027144069
0003c0 5e 61 8d 3d 84 d0 14 3b 3e bb a4 3c 2f f6 8a be
       0.06903337 0.0022707293 0.020108815 -0.27140948
0003d0 bc b7 85 be 80 3b 19 be c6 b4 36 3d b9 ee 13 be
       -0.2611674 -0.14964104 0.044605993 -0.14446534
0003e0 dc cf 50 be b9 59 ea bc 3b 9b fb 3e 83 e9 66 be
       -0.20391792 -0.028607236 0.4914187 -0.22550015
0003f0 ee 54 46 3d e4 50 35 bd 8f 9b e9 3d ef eb 31 3c
       0.04842084 -0.044266596 0.114066236 0.010859474

fc4.bias f4 [63]
000000 77 21 ba b8 36 26 31 b9 66 82 12 39 d6 09 e0 3e
       -8.8754045e-05 -0.0001689427 0.00013972222 0.43757504
000010 3d 10 dc 3e c2 25 c3 3e 0b 73 d9 3e 73 4e d9 3e
       0.4298114 0.38114744 0.42470583 0.42442665
000020 32 e3 c6 3e 80 0e e2 3e a3 86 d9 3e a6 8b 8a 3e
       0.3884521 0.44151688 0.42485532 0.27059668
000030 7d 2b 00 3f 9d dc 03 3f 8d 62 9c 3e 74 6f 3b 39
       0.5006636 0.51508504 0.30543938 0.00017875229
000040 29 0d b4 3e 05 f4 0b 3f 65 07 af 3e e7 ed 9a 3e
       0.3516629 0.5466922 0.3418533 0.3025963
000050 fb 8e b5 3e d7 50 b3 3e dc 8a cf 3e 2e cb bd 3e
       0.35460648 0.35022613 0.4053563 0.37069076
000060 34 1b 9e 3e 8f 6e d6 3e 4c 31 cf 3e 1c 99 d6 b8
       0.3088013 0.41881225 0.40467298 -0.00010232834
000070 2c 69 a8 3e ed 6f e9 39 36 d6 ac 3e ba 96 bc 3e
       0.3289274 0.00044524614 0.3375718 0.36833745
000080 8c cf 95 3e c5 3f ae 3e 4c 9a cc 3e 34 92 c4 3e
       0.29259908 0.34033027 0.3996147 0.38392794
000090 3f 00 a0 3e 0b dd dc 3e 3e a8 c5 3e 4e f9 62 3e
       0.31250188 0.43137392 0.3860492 0.22165415
0000a0 e6 78 9c 3e 1b 14 c7 3e 54 1d 98 3e d1 af ba 3e
       0.30560988 0.38882527 0.29709876 0.36462262
0000b0 fc 98 42 3e fb 79 9a 3e e6 a2 a5 3e df f3 8e 3e
       0.19003671 0.3017119 0.32350844 0.27920434
0000c0 8c 8a 87 3e 26 ed 9f 3e d2 de a8 3e 0d 5a 84 3e
       0.2647289 0.31235617 0.32982498 0.25849953
0000d0 91 34 d0 3e 9c 19 ad 3e 1d 1e 74 3e fa c2 9f 3e
       0.40665105 0.338086 0.23839612 0.31203443
0000e0 6b df 1a 3e 22 d7 5f 3e 58 92 a2 3e 1a 7c 37 3e
       0.1512429 0.2185941 0.31752276 0.17918435
0000f0 f7 50 4f 3e 0d a6 b7 3e 46 64 5d 3e
       0.2024573 0.35868874 0.21620283
