hand_landmarks/test/best_model.pth (torch, 129890 bytes, 10 tensors)

fc1.weight f4 [100, 126]
000000 3d 03 55 3d b5 16 94 bd f8 b8 85 bd 5f 61 bd 3b
       0.05200504 -0.072308935 -0.065294206 0.00577943
000010 0b 45 95 bd da 03 51 bd 55 2b 27 3d 71 3e 3f bd
       -0.072885595 -0.051029064 0.04081281 -0.04669041
000020 75 fe 6a 3c e1 36 79 bd 19 16 97 bd 38 8b a6 bd
       0.014342894 -0.060843352 -0.07377262 -0.081320226
000030 72 8d 60 bd 28 f8 ae bd a0 73 2b bd c6 b1 4d 3b
       -0.054822393 -0.08543426 -0.041858315 0.0031386479
000040 13 dd f2 bb 45 ce 4d 3d cf fb a1 bc bf ef 87 bd
       -0.007411608 0.050245542 -0.019773392 -0.06637525
000050 e8 dd 98 3d f7 eb a0 3d f3 fe 09 b9 30 62 81 3d
       0.074642 0.07857507 -0.00013160314 0.06317556
000060 c6 6d 22 bd 90 52 96 3d a8 0e 18 bd 4d dd 77 3c
       -0.03965547 0.07339966 -0.037123352 0.015128446
000070 f7 63 77 bd 7c fe b1 bc 3c 76 a1 bd a3 5f 86 bd
       -0.06039807 -0.021727793 -0.078838795 -0.0656121
000080 cf 44 ab bc d8 2f 72 bc 51 28 8b bd 08 3a c3 bc
       -0.020906834 -0.014781915 -0.06794799 -0.023831382
000090 fa 19 54 3d 0b 5f 13 bc db 5d 85 bd 1c ea e9 bb
       0.051782586 -0.008994828 -0.06512042 -0.0071385037
0000a0 8d 00 c0 3a 21 98 98 bc 6b 93 55 3d 80 13 ab 3d
       0.0014648602 -0.018627228 0.05214254 0.08353329
0000b0 bc 8b 78 bd 0f 72 ac 3d 14 53 d7 bc 6b 0c a3 bb
       -0.060680136 0.084201925 -0.026284732 -0.0049758456
0000c0 9a c7 37 3d 2c 3f 51 bc 87 a0 11 bd 64 59 d3 bc
       0.04486809 -0.012771409 -0.03555348 -0.02579946
0000d0 b2 72 8e 3d 5f dc b4 3d 0a 88 b0 3d 18 42 0c bd
       0.0695547 0.08831095 0.086196974 -0.03424272
0000e0 d4 99 bd bc 93 64 f3 bc f2 89 4b 3d 1c 5e b3 bd
       -0.02314464 -0.029711043 0.0496921 -0.08758184
0000f0 7c 4c 9c bd 5a bf 6e 3d 69 77 a3 bc 1d 4c a9 3d
       -0.07631776 0.058287956 -0.0199544 0.082664706
000100 86 ee a6 3d a9 bb a0 3d 05 64 7b bc 33 d4 ad 3d
       0.081509635 0.07848293 -0.015343671 0.084877394
000110 d6 09 10 bd 81 c7 43 3b 6a 68 e2 ba 12 8d 97 3a
       -0.03516563 0.0029873552 -0.001727355 0.0011562428
000120 d1 d0 21 bd f2 32 17 3d 37 1d d3 38 c0 86 bc bc
       -0.039505783 0.03691382 0.00010066706 -0.023013473
000130 77 a2 f1 3c 62 07 a3 bd 70 1b 74 bd 1f 0f b0 bd
       0.029496415 -0.079603925 -0.05959648 -0.08596634
000140 8c d1 24 3d e7 83 c9 bc 5e 48 cc bc 4a 5d 4f 3d
       0.040238902 -0.024599029 -0.024936851 0.050626077
000150 10 b4 af bd a5 ca 29 bd ab da 72 bc 8b 76 3f bd
       -0.08579266 -0.041453023 -0.014822642 -0.04674391
000160 56 a7 2a bd 2d 09 90 3d 17 be 69 bd 82 c1 1b 3c
       -0.04166349 0.07033 -0.05706605 0.009506585
000170 0a 24 8f bd 51 e8 8c 3c 3f a7 81 bd 5a 1f 8f bd
       -0.06989296 0.01720062 -0.06330728 -0.06988402
000180 55 f6 5b 3d 98 b8 28 3d 75 d0 66 3d b4 fd 53 3d
       0.053701717 0.041191667 0.056351144 0.051755622
000190 7c a8 87 bd cf 7f 94 bd a2 83 4c 3c 02 06 d0 bc
       -0.06623933 -0.0725094 0.012482556 -0.02539349
0001a0 55 ae 91 bd 83 64 e5 3c 49 dd 5e 3c a7 44 55 3d
       -0.07113329 0.02800203 0.013602563 0.052067425
0001b0 2c 23 19 bc 5f c8 7d 3d c3 33 08 bd 20 4b bf bc
       -0.009346765 0.061958667 -0.03325249 -0.023351252
0001c0 42 5a 7c 3d 9c e6 5c bc 48 47 99 bd e9 ce c7 bc
       0.061609514 -0.013482716 -0.07484299 -0.024390655
0001d0 73 f9 34 3d 09 3e e4 3c 02 3d 4f 3d 55 ef 26 bd
       0.044183206 0.027861612 0.05059529 -0.04075559
0001e0 eb fc 90 bd 10 70 27 bd 54 b0 5a bc 7c a1 9e bd
       -0.0707949 -0.040878356 -0.013347704 -0.077456445
0001f0 d5 56 28 bd 8d 79 b2 3d d3 33 f0 bc 0a 16 b4 bb
       -0.041098434 0.0871459 -0.029321587 -0.0054957913
000200 7e 89 30 bd d6 f4 47 bd 4a 53 b4 3c 4c 9a d9 bd
       -0.043099873 -0.048817478 0.022012372 -0.10625133
000210 56 23 0c bd 4b 9b 0c be 80 8c 4f bd 40 8b f4 bd
       -0.034213386 -0.13731115 -0.0506711 -0.11940622
000220 a3 a7 04 be 74 d4 13 be 95 92 c6 3b 41 ee 03 bd
       -0.12954573 -0.14436513 0.0060599544 -0.03220964
000230 79 64 06 bd e9 fd 75 bc da 42 7f bd 85 5e 40 bd
       -0.032810662 -0.01501415 -0.062319614 -0.04696514
000240 71 44 d4 bd 4e fb be bc 33 76 0b be 48 ce 54 bd
       -0.10364617 -0.02331319 -0.13619308 -0.051954538
000250 6b db d1 bc da 9b 82 bd df 4e f5 bd c6 bb f8 bd
       -0.025617322 -0.063773826 -0.11977934 -0.1214519
000260 79 e1 cb bd b3 74 52 bd 0a 25 c1 bd 32 e4 fe bd
       -0.09955115 -0.051380824 -0.09430893 -0.124458686
000270 0f 29 92 3c e9 6e 03 be d6 0d c3 bd a8 2c 12 be
       0.017841844 -0.12835278 -0.09524123 -0.14274848
000280 c0 0c a3 bd f2 fe 8b bd 07 c1 a2 bb c9 d5 c0 bd
       -0.07961416 -0.06835736 -0.0049668583 -0.09415776
000290 c0 19 c3 bd 73 78 8b 3a 89 69 92 3c 51 87 23 bb
       -0.09526396 0.0010640755 0.017872589 -0.002495248
0002a0 14 4c c7 bc af 9c bf bd 91 ae 06 be 84 87 fd bd
       -0.024328269 -0.09356057 -0.1315253 -0.12379363
0002b0 97 34 ed bd f7 e6 c0 3a 68 dd 9f bd 53 ee 09 3c
       -0.11582296 0.001471727 -0.07805902 0.008418637
0002c0 ac e3 cf bb 5c a8 ce 3c c7 28 bb bd 97 91 ca 3c
       -0.0063442793 0.025226764 -0.09138637 0.024727626
0002d0 db 89 17 be 84 38 9f 3c c6 97 00 be 81 bc 51 bc
       -0.14798681 0.019436128 -0.12557897 -0.0128012905
0002e0 35 42 f8 bd cd 22 d5 bd 85 ef e9 3c 48 4a 12 bd
       -0.12122003 -0.10407028 0.028556595 -0.03571537
0002f0 61 60 0e be 3a 92 e1 bd 62 10 53 bd 09 e1 df bd
       -0.13903953 -0.11014219 -0.051529296 -0.10931594
000300 87 62 d3 bd 36 08 05 be db 47 2b bd e1 00 d0 bd
       -0.10321527 -0.12991413 -0.041816574 -0.10156418
000310 8c f1 9b bc 30 f9 16 be a4 54 b7 bd 82 48 12 3c
       -0.019036077 -0.14743495 -0.08951691 0.00892842
000320 43 23 c6 bd d9 84 e4 bd 81 d7 35 bd a2 fb b9 bd
       -0.096746944 -0.11158151 -0.044394974 -0.09081198
000330 c2 5c e8 bd 91 8e 45 3c 1e 76 1a bd 6a 89 ae 3c
       -0.11345817 0.012057916 -0.0377103 0.021305759
000340 97 09 bd bd 75 34 18 be 83 36 0b bd 88 d6 81 bd
       -0.09230345 -0.14863761 -0.033987533 -0.06339747
000350 2d c6 8b 3c 16 bb d8 bb be 68 4c 3c 9e 87 e6 bd
       0.017062271 -0.0066140993 0.012476144 -0.11256336
000360 fa bf 03 be 80 2a 52 3c ef 32 09 bd 41 ef 91 bb
       -0.12866202 0.012827516 -0.03349584 -0.00445357
000370 f0 34 cc bc e3 ca c6 bd b7 49 e3 bd 09 1a d6 bc
       -0.024927586 -0.09706666 -0.11098044 -0.026135461
000380 c3 21 02 be 39 ac 71 bc 05 6e 09 be da 2e ba bd
       -0.12708192 -0.014750534 -0.13420875 -0.090909675
000390 84 96 98 3c 15 e5 08 be 81 49 4f 3c 9c ca e1 bd
       0.018626459 -0.13368638 0.012651802 -0.11024973
0003a0 2a 4c 91 3c d8 46 92 bd 3c 19 4f bc cd 08 0f be
       0.017736513 -0.071424186 -0.012640294 -0.13968201
0003b0 43 d9 9a bc a1 c3 05 be c4 5d 58 bd 73 ba 96 bc
       -0.018902427 -0.13062908 -0.052823797 -0.018399453
0003c0 28 2f 27 bd 5c 42 65 bd 7c 67 e0 bd a5 06 14 be
       -0.040816456 -0.05597149 -0.10957238 -0.1445566
0003d0 4d 4f 43 bd 20 e4 07 3c 4b 72 a2 bb 8e 6d e7 bd
       -0.04768305 0.008294135 -0.0049574724 -0.11300193
0003e0 19 64 a3 bd 4b f0 c6 bd 24 4f 0a be 71 fe a2 bd
       -0.079780765 -0.09713801 -0.13506752 -0.07958687
0003f0 b8 0a 3e bd 90 e9 e2 bd c9 1f d7 bd 40 68 97 3d
       -0.04639694 -0.11079705 -0.105041094 0.07392931

fc1.bias f4 [100]
000000 49 c9 40 3d 7f 0d fe bc d9 bf 93 bc 0e 05 ba bd
       0.04706696 -0.031012295 -0.018035816 -0.09082995
000010 44 20 65 bd 8f 2c 1d be d4 01 b7 3c 4a ab eb 3c
       -0.055938974 -0.15349029 0.022339739 0.0287682
000020 27 fb b0 bd 9f b1 f8 bc aa ac 89 bd e7 00 8f be
       -0.086416535 -0.030358134 -0.06722386 -0.27930376
000030 1b 64 95 bd d5 96 03 be 82 be 72 3d 23 1f 4e 3c
       -0.07294484 -0.12850507 0.059263714 0.012580666
000040 e8 1d 3c bc 48 48 e2 3b 62 fd 05 be a6 1f d6 3c
       -0.01148174 0.0069055893 -0.13084939 0.026138138
000050 ae 89 93 bd 88 3f 02 be e4 06 05 bc 73 82 12 be
       -0.07203995 -0.12719548 -0.008119319 -0.14307575
000060 0e bc 69 bd d7 be 91 3c 31 57 f1 bd b8 54 e9 bd
       -0.05706411 0.017791195 -0.117842086 -0.11393112
000070 d4 1b 46 bd f7 5d 02 bc 7d 45 b7 bc c3 ed 2b bd
       -0.048366383 -0.007956973 -0.022372002 -0.041974794
000080 2a e1 06 3e 26 de c4 3c 25 49 d7 be 35 f2 84 bb
       0.13171831 0.02403171 -0.42047992 -0.0040571936
000090 8f da 8e 3b fc 99 0b be 0d 99 e2 bc d4 d7 4b bc
       0.0043595503 -0.13632959 -0.02766087 -0.012441594
0000a0 b2 04 c0 bd ed 2c b5 bd 38 03 b4 bd 8a 98 aa bd
       -0.093758956 -0.088464595 -0.087896764 -0.08329876
0000b0 f8 00 d1 bd 68 76 97 bc 2f e0 8d ba 7d f0 2b bd
       -0.10205263 -0.018489078 -0.0010824258 -0.041977394
0000c0 4c c2 35 be 75 43 b3 bd eb 59 65 bd c7 a0 f0 bd
       -0.177499 -0.08753101 -0.055993956 -0.11749416
0000d0 d3 67 b1 3d 84 d1 57 bd bd 58 c6 bd 61 e6 7c 3d
       0.08662381 -0.052690044 -0.09684894 0.061743144
0000e0 87 ce 76 3d 5a 08 9f bd 4b d5 7e bd 6f ad a0 bd
       0.060255554 -0.07765265 -0.06221513 -0.0784558
0000f0 0d 48 a5 3d 21 7d 11 3d 0b 75 76 3d a7 e0 b5 3b
       0.08070383 0.035519723 0.060170215 0.0055504623
000100 fd bd f5 bd 2e 7e 08 bd 2c a2 ae bd 9f d5 cc bd
       -0.11999128 -0.03332346 -0.085270256 -0.100016825
000110 f1 f6 2c 3b 5c 13 c2 bd ce b6 9e bd d7 dc d3 bd
       0.0026392306 -0.09476349 -0.07749711 -0.10344856
000120 fa 59 88 be fe c4 c5 3b cf 87 5f 3d 28 ab 6b 3d
       -0.26631147 0.006035446 0.054572877 0.057536274
000130 c3 ac 1b 3c cf 90 3d 3c f0 57 83 3d a4 dc ee 3c
       0.009501639 0.01157017 0.06413257 0.029157944
000140 f3 80 85 bd 50 62 3c bc 49 42 cd bb fb ba ae 3b
       -0.06518736 -0.011498049 -0.0062640053 0.0053323484
000150 48 fa 34 bd fb e7 95 bc eb 9e e0 bd 0c f4 57 3d
       -0.044184 -0.018299093 -0.10967811 0.052722976
000160 4f e7 de bc 1d ba b9 bd e9 aa 45 3d fe 56 d5 3c
       -0.027209906 -0.090687014 0.048258696 0.026042458
000170 62 f0 3e 3b 6d 04 22 bd f0 44 27 bd 0c 19 b1 3d
       0.0029134979 -0.039555002 -0.04083723 0.086473554
000180 bf 7f e9 bd f6 68 cd bc 71 8c 4c bd 64 1f 23 3d
       -0.11401319 -0.025074463 -0.049938623 0.03982486

fc2.weight f4 [64, 100]
000000 cd d7 11 bb cd 34 d1 3a 8d 2f 73 3c e7 ee 1b bc
       -0.0022253871 0.001596117 0.01484288 -0.009517408
000010 33 8d 91 bc 0d 15 d9 bc cd 23 49 bb 8d 92 5f 3d
       -0.017767524 -0.026499296 -0.0030691505 0.05458312
000020 b0 32 78 bd 33 95 08 3b c0 67 18 3d 73 53 c2 bd
       -0.060595214 0.0020840883 0.03720832 -0.09488573
000030 37 d1 27 3d 93 54 aa bd cd f8 4e ba cd c0 94 bc
       0.040971007 -0.083169125 -0.00078953506 -0.01815834
000040 f7 3a 46 bd da 8c a6 bc 87 4e 52 bd cd e8 61 bd
       -0.048396077 -0.020330835 -0.05134442 -0.055153657
000050 b3 cb ea bb 63 2d 9b bd e2 3a 86 bd fb 8a b5 bd
       -0.007165396 -0.07577016 -0.065542 -0.08864399
000060 8d a9 38 bd 80 61 80 3b 4a 91 41 3d 00 41 e8 3b
       -0.04508357 0.003917873 0.0472577 0.0070878267
000070 a7 aa a7 3d 0d a8 3d bd 8a e8 7a bd 20 f3 bd 3c
       0.08186846 -0.046302844 -0.061256923 0.02318722
000080 7a f4 23 bd 8a ea 49 bd 67 11 7f bb 8f 53 b4 3d
       -0.040028073 -0.04929594 -0.0038920285 0.08805
000090 a8 76 b2 3d 70 56 4b 3d 1a f9 10 3c 67 56 3c bd
       0.08714038 0.04964298 0.008848453 -0.045980837
0000a0 2d 95 ef bc e7 d4 c0 bb 8d 9e 88 bd 6d a6 4b bd
       -0.029245937 -0.005884755 -0.06670866 -0.049719263
0000b0 4d 50 50 bd ba 4d be bc aa 14 12 3d 37 26 89 bd
       -0.05085783 -0.023230422 0.035664238 -0.06696742
0000c0 67 ee 20 bc 6d 2c 4c 3d 00 74 59 bb ca f1 66 3d
       -0.009822465 0.049847055 -0.0033180714 0.05638293
0000d0 53 c4 40 bd 03 34 31 bd 4a 2c c0 bd d0 5b 53 bd
       -0.04706223 -0.043262493 -0.093834475 -0.05160123
0000e0 ef e4 ac bd 2a 07 7f 3d c0 c8 fd 3c 67 19 61 3d
       -0.08442103 0.06226269 0.030979514 0.054955866
0000f0 57 92 06 3d 70 d8 a6 bd e7 e5 ec bc 4d 78 59 bc
       0.032854404 -0.08146751 -0.02891822 -0.013273311
000100 e0 e6 c7 bc d8 97 bc bd cd 95 79 3d 13 0d 34 3d
       -0.024402082 -0.092086494 0.060933877 0.04395778
000110 4d 56 41 3d 0d 22 54 bc e8 0a ae bd 4a c3 be 3d
       0.047201443 -0.012947571 -0.08498174 0.09314592
000120 33 17 96 3b 80 e7 01 3c b3 43 8b 3d 40 ae ba bd
       0.0045804023 0.007928729 0.06800022 -0.09115267
000130 bd d0 c7 bd e7 65 6d 3c a2 6c a6 bd cd af 42 bd
       -0.097566105 0.014489627 -0.08126189 -0.047530938
000140 0a d0 80 3d 73 a7 15 bc fd df 64 3d a7 58 b6 bd
       0.0628968 -0.009134161 0.055877674 -0.08903628
000150 cd 41 15 bd 1a d2 fa 3b 67 10 f8 3b c7 5a a8 3d
       -0.036439706 0.0076544406 0.0075703147 0.082204394
000160 4a cb c4 3d 33 e2 85 3d 87 62 93 bd b3 fc a2 3d
       0.09609087 0.06537285 -0.07196527 0.07958355
000170 d5 49 86 bd 23 e3 5c bd f7 42 91 bd 0b 11 95 bd
       -0.06557051 -0.053927552 -0.07092851 -0.07278641
000180 d7 ac 4b 3d 22 d8 ae bd ef 5d a4 3d 63 24 b7 bd
       0.04972538 -0.08537318 0.08025729 -0.08942487
000190 2d 81 de 3c 2b 36 31 bc 1a 13 66 3d 41 a7 5b be
       0.027161205 -0.010816137 0.05617056 -0.21450521
0001a0 2c 1d 1d be 0f 57 ad be 9a ea 28 bd d5 52 bb bd
       -0.1534316 -0.33855483 -0.04123936 -0.09146658
0001b0 f7 6f 4c 3d 1e 44 35 bd 65 19 28 bd d2 84 86 be
       0.049911465 -0.044254415 -0.041039843 -0.2627321
0001c0 03 40 bb bd a3 c6 28 bd f3 bc 53 3c 12 0a 0d be
       -0.09143069 -0.04120506 0.012923467 -0.13773373
0001d0 f7 73 8e be 62 d9 50 bc de 63 47 bd eb 30 95 3c
       -0.2782285 -0.012747141 -0.048679225 0.018211802
0001e0 6a ae 8c be ac 09 4d bd 80 81 bd be fa 61 6b 3d
       -0.27476817 -0.050058052 -0.37012863 0.057466485
0001f0 3c 9f c0 3b 58 99 eb bc da 61 08 bd 70 c7 7e 3d
       0.005878357 -0.028759643 -0.033296444 0.062201917
000200 58 d3 1a be 87 b1 6f 3c 53 54 1e 3d 33 8c 2e bb
       -0.15119684 0.014629728 0.038654637 -0.0026633858
000210 66 74 0d be e0 84 04 bd e3 40 44 be ad b7 8e 3d
       -0.13813934 -0.032353282 -0.19165377 0.06968627
000220 00 39 92 3d 6d ff 71 bd 6c fe 05 be 3e a5 fd bd
       0.07139778 -0.059081484 -0.13085335 -0.12385033
000230 ef 97 b3 bd 67 d4 10 be da ec 7e 3d c0 86 3a 3c
       -0.087692134 -0.14143525 0.062237598 0.011384666
000240 1b 84 db bd 7f f3 a3 be ba e9 11 3c d4 f5 61 bc
       -0.107185565 -0.3202171 0.008905822 -0.01379152
000250 c0 56 8c be 7b 7b b1 bd 92 23 00 3d f2 36 f5 bd
       -0.27409935 -0.0866613 0.031283922 -0.119733706
000260 6e 72 8b be 08 c7 c5 bd a4 be d8 bd 33 9e 09 bd
       -0.2723574 -0.09657103 -0.10583237 -0.033598136
000270 1e d0 13 bd 40 3c 8c bd a5 05 a6 bd 0d 9d 4d bc
       -0.036087148 -0.06847429 -0.08106545 -0.012549651
000280 7a 44 a5 3d 43 df 76 bd bb be 81 bd 45 35 b6 bd
       0.080697015 -0.060271513 -0.06335207 -0.08896879
000290 ae 57 24 bd fa 6a 8d bc 2a 17 52 bd e9 db 68 bd
       -0.04012268 -0.017262924 -0.051291622 -0.056850348
0002a0 fa c5 a8 bd 0a 80 6a be 7a e5 3f 3d 8a 50 94 bd
       -0.08240886 -0.22900406 0.046849705 -0.07241924
0002b0 32 26 ef bd bd 82 55 3d 35 6b 12 be c4 e4 f7 bd
       -0.11677207 0.052126635 -0.14298709 -0.121041805
0002c0 42 bb 22 be ed 46 25 bd 7d 8b e0 be 37 c3 23 bd
       -0.15891746 -0.040350843 -0.4385642 -0.039981093
0002d0 45 c1 ac bd b7 67 bb 3d 60 de 79 3c cb 60 b6 bd
       -0.08435301 0.091506414 0.015250772 -0.089051805
0002e0 d8 24 b1 bd ba b5 36 be 1c 2e 0d bd 30 56 81 3d
       -0.086496055 -0.1784276 -0.0344678 0.06315267
0002f0 c2 ab b9 bd 7f 22 0d ba c3 6d 94 3d 40 5a ee 3c
       -0.09065963 -0.00053838635 0.07247498 0.029095769
000300 c9 b6 4e be f3 29 26 be 94 a2 35 be e0 9f 45 3d
       -0.20186915 -0.1622694 -0.177378 0.04824817
000310 fe 5b a6 bd 53 86 06 3d cd bf ab bc 8d 86 53 bd
       -0.08123015 0.032842945 -0.020965481 -0.05164199
000320 e0 fe 95 3c a3 a2 79 3d 47 6e 8e bd a5 9a 0b be
       0.01831001 0.060946118 -0.069546275 -0.13633211
000330 1a eb ef 3b d7 21 4f be fd 28 13 3d 87 89 a7 bd
       0.0073217275 -0.20227753 0.03592776 -0.08180528
000340 5a 8a 8e bd dd 7c 86 bd b2 d0 9d bd 20 88 41 be
       -0.06959982 -0.065667845 -0.07705821 -0.18899584
000350 45 a5 c2 3d f3 e1 2a bd 00 26 45 bb 27 34 85 3d
       0.09504179 -0.04171939 -0.0030082464 0.06504088
000360 97 e0 c3 be 20 e7 b3 bc ff 95 be bd 17 cf 26 3d
       -0.38257286 -0.021960795 -0.09305953 0.04072484
000370 8f 84 a5 bd 37 75 5e bd 30 28 90 bd dd e1 34 3d
       -0.08081924 -0.054311004 -0.07038915 0.044160713
000380 77 33 2b bd cd 29 9d bb 33 8d 8d 3d f3 1e 79 bd
       -0.041797128 -0.004796243 0.06911697 -0.06082053
000390 97 1c cc 3d 40 74 b5 3d 8b f6 a0 bd 33 f3 f5 39
       0.099663906 0.088600636 -0.07859524 0.0004691124
0003a0 f3 76 3a bd eb 0e b9 bd c2 d9 9d be 27 e5 aa 3c
       -0.045523595 -0.090360485 -0.308302 0.020861221
0003b0 37 35 63 3d dd 1b 6a bd 4d e2 5d 3d b3 6d 99 3d
       0.05547067 -0.05715548 0.054170895 0.074916266
0003c0 9a 21 7f 3d a0 1c 69 bd b3 46 3c bd c7 4e b4 3c
       0.062287904 -0.056912065 -0.04596586 0.02201022
0003d0 13 7e e3 3c b5 a2 03 bf b3 c3 dd bc 80 0a b6 bd
       0.027770078 -0.51420146 -0.027070856 -0.088887215
0003e0 a6 be 33 be cb 88 91 bd bd 61 ae 3d 10 8d 8c bd
       -0.17553195 -0.07106169 0.08514736 -0.06862843
0003f0 cc a3 77 be b3 1b a7 3b 12 93 a3 bd d0 c0 8f 3d
       -0.24183577 0.0050997376 -0.07987036 0.07019198

fc2.bias f4 [64]
000000 dd 5b a9 bd a3 30 95 be cf 88 fd be 19 9a c8 be
       -0.08269475 -0.2913867 -0.4951844 -0.39180067
000010 65 a5 6f 3f 66 4c ab bd 4e a7 5d be 56 ae fe bd
       0.9361175 -0.08364181 -0.21645853 -0.12435596
000020 00 bb 8c be a3 0d 2c bd d9 39 a3 3e e7 85 d8 3d
       -0.2748642 -0.042005192 0.31880072 0.10572415
000030 07 00 8b 3e 26 8a 32 bd 68 87 8b be 4a c1 6c 3f
       0.27148458 -0.04358878 -0.27251744 0.92482436
000040 66 10 28 be 13 ea 92 3e 75 fc bf 3d 62 17 1e be
       -0.16412506 0.2869421 0.09374324 -0.15438607
000050 e4 73 f3 ba c7 81 35 bf 94 66 c3 be 27 bb 8d be
       -0.0018573967 -0.7090115 -0.38164198 -0.27681848
000060 31 d5 c5 be f9 7f 0e 3d 25 86 43 bd f1 d5 d7 be
       -0.38639215 0.034790013 -0.047735352 -0.42155412
000070 9f 89 94 be a6 99 4c be 5a b7 97 bf db 26 58 be
       -0.29011247 -0.19980487 -1.185283 -0.21108572
000080 29 c7 24 bf 1d c2 ca be 14 c7 5e be 6a 46 36 be
       -0.64366394 -0.39601222 -0.2175563 -0.17800298
000090 6f 59 b8 be ee b5 26 3f cd 48 cb be f7 9d d5 bd
       -0.36005732 0.6512135 -0.3970398 -0.1043052
0000a0 6e d1 54 be c0 74 3a be db 70 09 3f 69 50 95 3f
       -0.20783016 -0.18208599 0.5368783 1.1665164
0000b0 5b f9 c7 bd 24 06 19 bf e4 24 19 bf 10 b4 e6 bc
       -0.09764358 -0.59774995 -0.59821916 -0.028162032
0000c0 56 2f 64 bf ab dc b6 be 8e 2b 2f bf fb 5f cc 3e
       -0.8913473 -0.3571523 -0.68425834 0.39916977
0000d0 1c 5f c6 3e 2c 23 dd be ef a6 a1 be 2c aa 08 bf
       0.38744438 -0.43190897 -0.31572673 -0.5338466
0000e0 66 70 11 be 37 1c 9e be 4a 51 88 bd 59 84 82 be
       -0.14203033 -0.308809 -0.0665613 -0.25491598
0000f0 65 05 9c bf ef 86 e1 bd 25 a5 67 be a2 62 9d bf
       -1.2189146 -0.11012065 -0.22621591 -1.2295725

fc3.weight f4 [64, 64]
000000 70 07 b6 3d 3f 0f 11 be 68 72 3f bd 6b 41 d0 bc
       0.08888137 -0.14165972 -0.046739966 -0.025421819
000010 36 77 a5 3c 1a 1f 1b be e1 1f d2 3c cc e4 45 bd
       0.020198446 -0.15148583 0.025649967 -0.0483139
000020 77 c3 47 3d 29 af cf bd 71 2b 6b bd 1d 3f 23 be
       0.048770394 -0.10140831 -0.057414476 -0.15942045
000030 f6 5d 5f bd ac 8d 3c bd 7a 10 52 be 40 b0 ba bd
       -0.054532968 -0.046033546 -0.20514098 -0.09115648
000040 8a 6a 53 3d e0 a8 f7 bc 62 bf 04 be ee 0b 1e bd
       0.051615275 -0.030231893 -0.12963632 -0.038585596
000050 70 12 28 be a6 93 2e be 0a 18 20 be 2c 19 ca 3d
       -0.16413283 -0.17048511 -0.1563417 0.098680824
000060 eb b0 18 3d 33 83 04 3d 1b 5c b2 bd 0d 8b 20 be
       0.037278097 0.032351684 -0.08708974 -0.15678044
000070 76 df 55 bd 84 c4 58 bd 52 3b 2a bd 06 02 08 bb
       -0.052215062 -0.052921787 -0.04156048 -0.002075316
000080 e0 e8 3c bc 4d 8f 06 be d6 69 b6 3d d8 0a 15 bd
       -0.011530131 -0.13140602 0.08906905 -0.036387295
000090 14 f8 0c bd 2d 6b 00 be d4 1a 11 3d 28 2d 5b 3c
       -0.034416273 -0.12540884 0.035425976 0.013377465
0000a0 17 f6 c3 3c e8 b2 a4 bc bb 4a 28 be d0 8b 9d be
       0.023921056 -0.02010484 -0.16434757 -0.3077073
0000b0 a6 28 f2 bd 6c 7a 16 be 8b 46 0c 3d dc f9 24 3d
       -0.11824159 -0.14695138 0.034246963 0.040277347
0000c0 30 bd a3 be ff 29 92 bd 09 1f be bd cb 7d e3 bd
       -0.31980276 -0.07136916 -0.09283263 -0.111079775
0000d0 ea b2 07 be 2c 8a 56 3d 48 0c f6 bc c2 bd b8 bd
       -0.13251844 0.052377865 -0.030035153 -0.090205684
0000e0 0f 88 65 bd 90 22 85 3d 28 70 2f bd b3 83 2a be
       -0.05603796 0.06500733 -0.04283157 -0.16651802
0000f0 1c 18 e6 bd f1 e3 5a 3d f0 19 6c bd 93 13 e2 bd
       -0.11235067 0.053440038 -0.057641923 -0.1103889
000100 1c 67 5f 3d 39 11 d4 bd 80 ba a0 3b ba 24 32 3e
       0.054541692 -0.103548475 0.004905045 0.17396823
000110 0a 4c 01 be 7c ee 17 be b1 a7 a1 bc 3e 28 ba bd
       -0.12626663 -0.14837068 -0.019733282 -0.09089707
000120 5b b2 de bc c5 71 8e bc 32 cb 3e be e9 76 ce bd
       -0.027184656 -0.017388234 -0.186322 -0.10081274
000130 6f 58 e9 bd df f3 21 3d 7d 4b ba be d7 82 ad be
       -0.113938205 0.039539214 -0.36385718 -0.33888885
000140 2f 58 21 bd 82 17 91 bd 0a 7a b1 be 91 e7 1e 3d
       -0.03939074 -0.07084562 -0.3466342 0.038795058
000150 19 21 ea bd b7 ba 26 bd bb 9b a0 bc be 25 97 3d
       -0.11432094 -0.04070541 -0.019605508 0.073802456
000160 4e a5 3b be 9f 9e dc be 34 4f 56 3d bb f4 13 be
       -0.18324777 -0.43089768 0.052321628 -0.14448826
000170 8a 7e 4f 3d d0 6a 64 bd d3 8c f9 be ca b8 3a be
       0.050657786 -0.055765927 -0.48740253 -0.18234554
000180 c0 6c e9 3d 08 70 1d be 68 00 fa bc 46 ff 3c be
       0.113976955 -0.15374768 -0.030517772 -0.18456754
000190 e4 40 aa bd 46 46 c1 be 6a a2 9f 3d 7d ab 0f bc
       -0.08313158 -0.37748927 0.0779465 -0.008768913
0001a0 a6 b0 56 be 04 f9 99 bd 15 03 04 bb 24 fa 17 be
       -0.20965824 -0.07518199 -0.0020143439 -0.14841515
0001b0 98 f7 0d be 9c d1 ca bd 4e 6e 08 3d 2b c3 0e be
       -0.13863981 -0.09903261 0.03330832 -0.13941638
0001c0 96 09 8d be 2c 72 0b 3b 00 5d 2a be a1 fe b6 be
       -0.27546376 0.0021277769 -0.16637039 -0.3574114
0001d0 d7 51 ef bd a4 a9 37 be f8 fd 60 bd ce 03 3a bc
       -0.116855316 -0.17935807 -0.054929703 -0.011353446
0001e0 14 8e cd bd 22 5c b7 bd ea 43 ce 3d 0f 9e 71 be
       -0.10036865 -0.0895312 0.10071547 -0.23595451
0001f0 17 c4 6d be 2e 8c ee bb e6 c8 83 3d f5 b9 b7 be
       -0.23219334 -0.0072798943 0.06434803 -0.3588406
000200 ce 43 98 bd 0b 31 3e 3d 1a 08 e8 bd f0 53 81 bc
       -0.07434808 0.04643349 -0.1132967 -0.015787095
000210 b8 30 6b bd 0c 02 a7 3d 6f 03 20 3e 58 df d9 3d
       -0.05741951 0.08154687 0.1562631 0.106383026
000220 70 ff f0 3c 81 60 1e bc 7c 4e 11 bd c4 d2 24 bd
       0.029418677 -0.009666563 -0.03547524 -0.040240064
000230 74 dd 3d bc 28 6c c1 bd d4 9d cb bd ca 98 a6 bd
       -0.011588443 -0.09444457 -0.09942213 -0.08134611
000240 f0 2a 19 bc c1 07 d4 3c ff 60 b1 bd 64 90 89 3d
       -0.009348616 0.025882604 -0.08661079 0.067169935
000250 e0 fa 86 3d 02 18 33 bd 84 ab d9 3c 38 17 a1 bd
       0.06590819 -0.043724068 0.026571043 -0.07865757
000260 62 dc 26 3b 75 4a 00 bb 61 ef 8d 3d c8 3c 63 3c
       0.0025460948 -0.001957563 0.069304235 0.013869472
000270 2a 1f cf 3d d8 86 fa 3c 89 0d 85 bd 18 04 15 be
       0.10113366 0.030581877 -0.06496722 -0.14552343
000280 49 f8 a9 bd 02 06 16 be be 1a c7 3d 4c 91 75 3c
       -0.0829931 -0.1465073 0.097218975 0.014988255
000290 5b fe b9 bd c0 78 b1 bd 88 f6 57 bd 4d b3 0b be
       -0.090817176 -0.08665609 -0.052725345 -0.13642617
0002a0 6f ad e8 bd c6 69 b5 3d e0 f0 92 be be 98 86 bc
       -0.11361205 0.08858065 -0.28699398 -0.016430255
0002b0 80 43 f2 3d f2 0d ed 3d 68 f3 04 bb 6f 2f 83 3d
       0.11829281 0.115749255 -0.0020286683 0.064055316
0002c0 a8 35 9e be 72 c9 6b bd 8b e5 4b bd 92 14 82 3c
       -0.3090031 -0.05756516 -0.049779456 0.01587895
0002d0 90 e8 b2 bd 6f c8 1e 3e 57 a5 1f bc 7f fa 5b bc
       -0.08735764 0.15506147 -0.00974401 -0.013426422
0002e0 32 fb 65 3c 39 d4 33 3e 4b 96 70 be 08 11 29 be
       0.01403694 0.17561425 -0.23494832 -0.16510403
0002f0 0b 08 b5 bd 0e 10 29 3e c0 b1 d2 bd 70 c2 c1 bd
       -0.08839425 0.1651003 -0.10287809 -0.09460914
000300 c0 32 5a 3d c2 2d 20 3e 40 1b 4e bc 60 f8 e4 3d
       0.053271055 0.15642455 -0.012579739 0.11180186
000310 4c 24 8a be 20 d7 af bc 30 81 80 bc c0 98 4f 3d
       -0.26980817 -0.021464884 -0.015686601 0.050682783
000320 1c b3 f1 3d 74 0e 17 3d 71 1f 80 3e 7e 32 08 bf
       0.118017405 0.036879018 0.25023988 -0.53202045
000330 f4 f9 85 be 3f ae a6 3d ff 17 05 be 75 ed 14 c0
       -0.26167262 0.081387036 -0.12997435 -2.3269932
000340 30 28 76 bc 43 ac a6 bb de 08 b3 be 5a 42 f8 bd
       -0.01502423 -0.005086453 -0.34967703 -0.121220306
000350 4a e2 c9 bd af 7d 80 be 31 71 71 3d 47 fa 0c 3e
       -0.09857614 -0.2509589 0.05894584 0.13767348
000360 96 5f ee 3d 70 fd 8d bd 1c f7 35 3d 40 24 03 bd
       0.11639325 -0.06933105 0.044425115 -0.032016993
000370 e6 6b 0a bd 30 99 ce 3d 6c 0f 8c bf 44 22 fc 3c
       -0.033794306 0.10087812 -1.0942206 0.030778058
000380 ee 65 0a bd f8 9f 52 3d c6 07 79 3d f5 56 f9 be
       -0.033788614 0.05142209 0.06079843 -0.48699155
000390 45 a2 63 3d 19 5d c5 be 21 06 18 be eb f6 62 bc
       0.055574674 -0.3854759 -0.14846088 -0.013852815
0003a0 d0 ed df be 10 e1 2b bc 74 02 57 c0 f7 2a b9 bf
       -0.43736124 -0.010490671 -3.3595247 -1.4466237
0003b0 ec 13 9d 3d 98 af d3 bd df e7 16 3c d5 f4 a2 3e
       0.076698154 -0.10336226 0.009210556 0.31827417
0003c0 ea e8 d1 bf a4 93 c5 bd 38 8f c9 be 8d 32 c4 3d
       -1.6399205 -0.09647301 -0.3936708 0.09579954
0003d0 7c 5e e0 be d4 1d 08 bd a0 60 2d 3e ee 28 17 c0
       -0.43822086 -0.03323157 0.16931391 -2.3618731
0003e0 16 8c a2 3d 5e ef db bd cc d4 3b bd ae 9f 3a bf
       0.079368755 -0.10739015 -0.045857236 -0.728999
0003f0 3e b1 0c be 96 da b2 3e 7c 82 40 3d ff d8 76 c0
       -0.13739488 0.34932393 0.04699944 -3.8569944

fc3.bias f4 [64]
000000 5d d9 4b bc d2 29 68 be ed 85 bf be 20 1b f9 3e
       -0.01244196 -0.22672203 -0.37406865 0.48653507
000010 a9 87 0c bf b1 1f 49 bf 90 ac 0d 3f f6 74 38 be
       -0.548945 -0.7856398 0.55341434 -0.18013367
000020 eb 3b ce be 5b 82 71 bd f0 24 9c be 31 fd 33 bf
       -0.4028009 -0.058962207 -0.3049693 -0.70308214
000030 bd fa 30 bf ea ce 44 be b0 83 59 be 95 a9 50 be
       -0.69132596 -0.19219556 -0.21241641 -0.2037719
000040 47 9b 73 3b f3 2c 6a be 38 0e 3a be 76 3e c5 be
       0.003717141 -0.2286871 -0.18169487 -0.38524216
000050 af c6 fc 3d 4d f8 16 be 08 2a 84 be 03 23 97 3e
       0.123425834 -0.14743157 -0.25813317 0.295189
000060 45 16 8f bc 0e 1f 62 be e1 4e dd be d2 9c 26 3f
       -0.017466674 -0.22082159 -0.43224242 0.6508304
000070 4f a8 f4 be 78 37 0f 3e 7e ce e8 3c 39 06 0d bf
       -0.4778466 0.13986003 0.028418776 -0.5508762
000080 c7 d4 cb be a2 1f a3 be 3d 3e 4a bf e5 97 16 be
       -0.39810774 -0.3186007 -0.7900122 -0.1470638
000090 f6 5e c8 be d4 7a bd 3e 17 c4 72 be 2a d4 93 be
       -0.3913495 0.37007773 -0.23707615 -0.28872806
0000a0 02 88 e6 bd 63 1d f3 be fc 61 55 be 0e ca 61 be
       -0.1125641 -0.47483358 -0.2083816 -0.22049734
0000b0 e4 c4 09 bf a8 f3 b7 be 26 5b 85 bd 81 a0 a0 be
       -0.53816056 -0.35928082 -0.06511526 -0.31372455
0000c0 7f dd 96 be 71 07 f2 bd 74 79 cb be 00 76 82 be
       -0.29465863 -0.118178256 -0.397411 -0.25480652
0000d0 15 89 d8 be a2 a2 e1 bd 10 58 66 be 1c 40 cf 3d
       -0.42292085 -0.11017348 -0.2249453 0.1011965
0000e0 37 b5 7b bd a8 82 92 be a6 e7 84 bd 30 1c c4 be
       -0.061452117 -0.28615308 -0.06489496 -0.38302755
0000f0 a0 d4 84 3e 5d 78 f4 bd 20 9c ac 3e c0 1d 82 be
       0.2594347 -0.1193702 0.33712864 -0.25413322

fc4.weight f4 [64, 64]
000000 40 fd 14 bb f0 cc f0 3d 08 0a 88 bd d8 8e d2 bd
       -0.0022733957 0.11757839 -0.06642538 -0.102811515
000010 96 2a a1 3d 10 80 d9 3d ca de a8 be b0 d5 19 3c
       0.07869451 0.10620129 -0.32982475 0.009389326
000020 00 09 34 3b 58 5b 98 bd f8 8b b5 3c fc d5 2f bd
       0.0027471185 -0.074392974 0.022161469 -0.04292868
000030 70 16 57 3c ba a6 b3 bd 98 6f af 3c aa 65 c3 bd
       0.013127908 -0.08772035 0.021415517 -0.09540875
000040 f8 fa 36 bd 56 31 cd bd 2a 93 98 3d c0 19 ba 3b
       -0.044672936 -0.10019176 0.07449944 0.005679339
000050 ae f6 90 bd 04 c8 91 bd 53 21 a4 be 8c ae cf bd
       -0.070783004 -0.07118228 -0.32056674 -0.10140714
000060 b9 23 25 be 80 ae 17 bc b4 28 94 bd b3 87 bc be
       -0.16126908 -0.009257913 -0.07234326 -0.3682228
000070 00 d6 3f ba 2a 88 c5 bd e8 31 a8 bc d2 97 a3 3d
       -0.000731796 -0.09645112 -0.02053161 0.07987942
000080 de d0 da 3d 18 f2 73 3d 78 50 71 bd a8 ba e3 bd
       0.106843695 0.05955705 -0.05891463 -0.11119586
000090 12 27 db bd 64 d5 4d bd 88 f3 ab 3d 56 85 eb 3d
       -0.107008114 -0.050252333 0.08396059 0.11500041
0000a0 06 f4 9e 3d 38 b1 04 bd 1c 35 6f bd 9c 53 f4 3d
       0.077613875 -0.03239557 -0.05840026 0.1193001
0000b0 70 4a 75 3c 32 bf a5 3d 59 88 3d be 00 92 63 3c
       0.014971361 0.08093108 -0.18509044 0.01388979
0000c0 b0 40 b1 bc a2 2a bd be 80 9d c1 3c 3e 8c da bd
       -0.02163729 -0.3694659 0.023634672 -0.1067128
0000d0 aa 8b c5 3d 36 13 c8 bd 6b 30 af be 94 33 a8 be
       0.096457794 -0.09769289 -0.34216627 -0.3285185
0000e0 34 f6 4d bd 08 b8 92 3c 5a a0 c8 bd 7c f2 94 bd
       -0.050283626 0.017910019 -0.0979621 -0.07272813
0000f0 c9 77 17 be b2 86 e8 3d 47 e2 30 be 12 9b f2 bd
       -0.14791788 0.11353816 -0.17273818 -0.118459836
000100 76 5d 1d bd 34 8a 29 bc 29 65 ef bb 3c 2d c5 be
       -0.03841921 -0.010347892 -0.0073057604 -0.38511074
000110 b7 66 7d 3e 75 94 ab 3c ac 7d 8d 3e f0 84 bb bd
       0.24746214 0.020944813 0.27634943 -0.09156215
000120 93 35 5b 3d 77 17 a6 bd 2c 50 b1 3d 08 22 c2 be
       0.05351789 -0.08109944 0.0865787 -0.3791659
000130 1d 3c 51 3e 44 59 d9 be 78 61 c4 3e 12 62 f4 3c
       0.20433088 -0.42450917 0.38355613 0.02983192
000140 60 1a 22 be 6b e9 9e bd 00 59 a6 bd e7 93 7f bd
       -0.15830374 -0.07759365 -0.08122444 -0.06239691
000150 e1 ed 87 3d a4 31 0e c0 f4 4f 91 be f7 a0 bb 3e
       0.06637169 -2.2217798 -0.28381312 0.36646244
000160 d8 dd 93 3d 89 2b b6 bd 9d 30 31 3e 67 40 88 bf
       0.07220048 -0.088950224 0.17303701 -1.0644654
000170 2a 1a 05 bf 79 7d 3c 3e 36 c9 b7 3b 8f 82 97 bd
       -0.5199305 0.18407239 0.005608703 -0.07397949
000180 52 22 26 be 8d 46 a8 ba 41 57 1d 3e 9e 54 1e be
       -0.1622403 -0.0012838409 0.15365316 -0.15461966
000190 1f f1 91 3e 0c 84 f5 bc 45 16 31 3d fa fa 49 3c
       0.28504273 -0.029970191 0.04323413 0.012327904
0001a0 95 37 e7 3d e3 ed 4e be 07 8c 07 bd d9 42 03 be
       0.11289898 -0.20207934 -0.033092525 -0.12818469
0001b0 bc 95 13 bd 5e 96 96 3e 35 d3 65 3e 36 fb 2d 3e
       -0.03603147 0.29411596 0.2244385 0.1699036
0001c0 e0 b4 8e bd 14 31 22 be a1 bb 39 be 98 7d 06 bf
       -0.06968093 -0.15839034 -0.18137981 -0.5253539
0001d0 30 01 58 3c 90 20 cb bd 5d da 98 bf 88 61 54 bc
       0.013183877 -0.0991832 -1.1941639 -0.012962706
0001e0 5e fc 52 bc 3c 1d 44 3d 20 de 01 c0 9b d6 82 3c
       -0.012877552 0.047879443 -2.0291824 0.015971472
0001f0 ec 48 a9 be 91 24 cf bd a8 ad 89 be c3 c6 8b bb
       -0.33063447 -0.10114396 -0.26890302 -0.0042656376
000200 4a a2 82 3d c6 a8 0e be a7 68 d5 bd fe 98 ae 3d
       0.063786104 -0.1393157 -0.104203515 0.08525275
000210 f0 ae bb 3c 58 b7 c2 bd c7 45 04 be 23 1d 70 3d
       0.022910565 -0.09507626 -0.12917243 0.058621537
000220 24 65 80 bc 6c bc 23 be 00 76 68 3a d3 87 25 bd
       -0.015673228 -0.15989846 0.0008867681 -0.040412735
000230 6b ed 45 3d 03 cb 79 bd cf 36 a9 bb 64 66 4d bd
       0.048322123 -0.060984623 -0.0051640044 -0.050146475
000240 77 1d 11 be 52 4f aa 3d db 01 04 be 68 e4 d5 3c
       -0.14171396 0.083159104 -0.12891333 0.02610989
000250 8a 9e a4 3c 4e 4a 89 bd e1 9d 80 bc 02 a3 38 be
       0.020095129 -0.067036256 -0.015700283 -0.18030933
000260 68 15 24 3d 18 aa 3c 3d c1 f8 8c 3c 70 44 c3 bc
       0.040059477 0.04606065 0.017208459 -0.023836344
000270 e0 49 bf 3b 9f 4f 2a be 1b 37 15 be 3d 31 24 be
       0.005837664 -0.16631936 -0.14571802 -0.16034408
000280 38 43 b4 3d 60 8b 28 be 4c ff 13 bd 20 c8 4a bd
       0.088018835 -0.16459417 -0.036132142 -0.04950726
000290 04 2e e1 bd 6a f5 12 bd 5e 2c 84 bd a3 9b 79 3d
       -0.10995105 -0.035878576 -0.06453775 0.060939442
0002a0 9a 4a aa bd e0 a7 42 bd 88 a0 7f bd 40 5a 5d bb
       -0.0831501 -0.04752338 -0.062408954 -0.0033775717
0002b0 b0 33 1f 3d 88 6b c9 3d 98 9e 1f 3d e7 0b 1c bc
       0.038867652 0.09834963 0.038969606 -0.009524322
0002c0 18 dd c7 3c d4 a1 4e bd d8 a5 1d bd 7e 7b a8 bd
       0.024397418 -0.0504473 -0.03848824 -0.08226679
0002d0 66 7a 7c 3c c8 0b 26 be a7 ce 3f bd c3 7f 43 be
       0.015410041 -0.16215432 -0.04682794 -0.19091706
0002e0 6b c4 01 bd 88 55 9e 3d 86 aa 38 be b2 75 9d 3d
       -0.03168146 0.077311575 -0.180338 0.07688464
0002f0 42 a2 b4 bd fe 40 c8 bd 2c b3 2e 3d aa 75 e1 bc
       -0.08820011 -0.09778021 0.04265134 -0.027521927
000300 7e 2e 12 be ce 20 1c bd e4 28 9b bd d0 52 bc bc
       -0.14275548 -0.038117222 -0.07576159 -0.022988707
000310 94 de 62 3d f4 ac 4c bd 1c 73 d8 bd 27 42 c0 bb
       0.05538805 -0.04996963 -0.1056883 -0.005867261
000320 52 7f ba bc 12 de 6b bd a4 13 d4 bd de 63 c8 bc
       -0.02276579 -0.05758483 -0.10355309 -0.024461683
000330 c6 bd 49 3d f5 24 63 3d de 27 28 be a4 c9 49 bd
       0.049253248 0.055455167 -0.16421458 -0.049264565
000340 c9 30 e7 bd b0 b4 b4 bc 51 f6 20 be a8 28 cb 3c
       -0.11288602 -0.022058815 -0.15718962 0.02479966
000350 b1 17 44 bd 87 f9 50 be ce 03 0f bd 84 16 9c be
       -0.047874156 -0.20407687 -0.034915738 -0.30485928
000360 a3 ca 08 be 14 b4 21 bd 15 ca 06 be b4 33 c6 bc
       -0.1335855 -0.039478377 -0.13163026 -0.024194576
000370 1e b3 a9 bd f0 15 ae be e2 95 20 3d b8 34 9f bd
       -0.08286117 -0.34001112 0.03920544 -0.07773727
000380 e0 52 d5 bd 77 32 10 3d 38 fa a9 3d 18 a2 26 3d
       -0.10416198 0.035204377 0.082996786 0.04068193
000390 80 6e 3f 3b 45 26 80 be 10 53 76 3d 2e 6e f2 bc
       0.002921015 -0.25029197 0.06013781 -0.029593553
0003a0 d0 04 20 3c 3c 53 a8 bd 20 49 10 3c b8 fe c9 bc
       0.009766772 -0.08219001 0.008806497 -0.024657592
0003b0 74 b3 3b 3d d8 ea 5e 3d b4 75 86 be 30 61 ad bd
       0.045825437 0.054423183 -0.26261675 -0.08465803
0003c0 b4 9c 43 3d 97 6f e4 3c 60 d8 3d 3d 58 cf c7 bd
       0.047756866 0.027885241 0.04634893 -0.097563446
0003d0 7e 20 2b 3d bd 3e 51 bd 32 fd 28 be c9 97 6b be
       0.041779034 -0.051085223 -0.16502836 -0.2300712
0003e0 62 f1 20 3d a8 5e eb bc 48 b7 8a be 4a e4 db 3d
       0.0392927 -0.028731659 -0.27092957 0.10736902
0003f0 8d a1 b0 be 90 d4 c8 bd 92 db 4f 3b 39 35 09 be
       -0.34498253 -0.09806168 0.0031716567 -0.13399209

fc4.bias f4 [64]
000000 93 e8 6c be 89 f1 9e 3d 67 74 7d bd 1f bf a8 be
       -0.23135595 0.07760913 -0.061878588 -0.32958314
000010 f3 44 fb 3d df 60 1b be ab 48 ad 3e 29 38 9d be
       0.122690104 -0.15173672 0.33844504 -0.3070691
000020 de 6d 5a 3e 89 f5 b5 3e 87 6c 66 3e d1 74 50 be
       0.21330974 0.3553889 0.22502337 -0.20357062
000030 d6 ac e7 bd a2 c4 2d be 38 34 ce be af f6 80 be
       -0.11312263 -0.1696954 -0.40274215 -0.25188205
000040 8f 16 21 be 2a 36 08 bf b6 79 86 be ca 7c fe bc
       -0.15731262 -0.5320765 -0.26264733 -0.031065363
000050 1d 98 3e 3d 61 9d 14 3e eb 69 28 3d b8 8c 49 3e
       0.046531785 0.1451316 0.041116636 0.19682586
000060 b7 75 87 be 60 8d 53 3e 2b aa 60 3e eb 91 cc 3c
       -0.26456997 0.20659399 0.21939914 0.024971923
000070 f5 a0 c4 3e 5a 30 12 3e 4d 83 86 be 5b 12 ac bd
       0.3840405 0.14276257 -0.2627205 -0.084019385
000080 8f 5e c3 bd c6 a7 80 be df bd 06 3f 2a 64 cc be
       -0.0953952 -0.25128 0.5263347 -0.3992017
000090 20 1c a2 3d 6a e3 ab 3d 22 80 b4 be 76 19 71 bb
       0.07915521 0.08392985 -0.35254008 -0.0036788858
0000a0 c4 a4 5e be 7f 6b be be d0 b3 24 3e 91 8d a2 be
       -0.2174254 -0.37191388 0.16084218 -0.31748632
0000b0 28 90 dd 3d 3d d1 bb be 3b a6 3a bf 6f 13 04 be
       0.10818511 -0.36683074 -0.729099 -0.12898038
0000c0 85 2e c2 be 57 34 dc 3e 19 a4 0c bf 0a 8e 9a be
       -0.37926117 0.43008682 -0.54937893 -0.30186492
0000d0 bc b5 d2 3d e0 c0 e3 3b 9e b8 af bd 6b f0 45 be
       0.10288569 0.0069504827 -0.08580135 -0.19329993
0000e0 83 94 f0 be 5c 6c 64 be 91 79 73 3e 5d e8 81 be
       -0.46988305 -0.22306961 0.23776843 -0.25372592
0000f0 dd 53 ad be ea c6 2e 3d 93 7b da be 05 12 af be
       -0.33853045 0.042670168 -0.42672405 -0.34193435

fc5.weight f4 [63, 64]
000000 82 34 12 bd 19 92 a3 3c e9 8e bf bc 12 34 f7 3c
       -0.035694607 0.019967126 -0.023383575 0.030176196
000010 8b 0b 88 3c 30 3d bf 3a 07 e3 a1 bc 1c b3 f3 3c
       0.016607067 0.0014590379 -0.019761575 0.029748492
000020 d4 9c 15 bc 54 36 a7 bc 19 98 cb 3a e1 f1 99 bc
       -0.009131629 -0.020411648 0.0015533 -0.018792095
000030 bb c9 d9 3d 38 0e 5a bd 9b 34 44 3d 81 c2 6f be
       0.1063418 -0.053236216 0.04790173 -0.23414041
000040 98 de ef 3c 46 90 42 be 1c 0c e3 bd 83 a1 a5 bb
       0.029280946 -0.19000348 -0.11086294 -0.005054654
000050 ac bf 1a 3b 12 30 9c 3b ee 49 46 3c 06 3a 18 3b
       0.002361278 0.0047664726 0.012102587 0.0023227944
000060 fb da e4 3c 7c 98 bb bc 87 a8 3b bc e1 c8 12 3d
       0.02793645 -0.022899859 -0.011453754 0.035836104
000070 4f b2 7c bb 28 3e 00 3c 89 13 39 3e af 20 0f 3c
       -0.0038558429 0.007827319 0.18073858 0.00873582
000080 33 1b 04 bd a6 44 e6 bd dd dd f6 3b ad fa 13 3d
       -0.0322525 -0.112435624 0.0075337724 0.036127735
000090 05 87 b1 ba 6b f5 f9 3a af 40 ae 3d 18 d7 cf 3c
       -0.0013544267 0.0019070333 0.08508431 0.02537112
0000a0 87 e0 08 3a 70 cd 9c bd ea af ee ba aa 21 ee bd
       0.00052214455 -0.076563716 -0.0018210385 -0.11627515
0000b0 22 8d fa bb 15 bd 53 3a 43 3f 45 3d 6f 5f 72 3b
       -0.007646219 0.00080771866 0.048156034 0.0036983152
0000c0 8d a6 d5 3c dc 5b 96 bc 10 be cd bd e8 3f 2d 3c
       0.026080394 -0.018354349 -0.10046017 0.0105743185
0000d0 4e f0 38 3d 24 40 ff 3a 1f 7c 5b 3d 2b 95 17 bd
       0.045151047 0.0019474071 0.053585168 -0.037007492
0000e0 ff 31 0d 3d d5 65 8b 3d 66 4f ed bb 94 41 c6 3b
       0.034471508 0.06806532 -0.007242131 0.006050298
0000f0 21 b9 93 3c 4b 53 cf 3b 88 5d cb 3d 44 50 87 bd
       0.018032612 0.006327068 0.09929949 -0.06607106
000100 b6 66 73 bd e5 54 45 ba df 3c d4 bd dc 4c f3 bd
       -0.059424125 -0.0007527604 -0.10363173 -0.11879894
000110 ae fa 4a ba 78 1f 63 39 10 e8 12 3a df 8f e5 bb
       -0.00077430427 0.0002166013 0.0005604038 -0.007005676
000120 31 80 14 38 fc 62 43 3a f4 f2 94 b7 bb 31 e7 3b
       3.5405337e-05 0.00074534095 -1.7756109e-05 0.007055489
000130 61 e6 1a bc 44 d6 11 be 48 d8 13 3e 3b 58 fb 3d
       -0.009454341 -0.14241892 0.14437973 0.12272688
000140 d1 02 e3 bd 5d 1a 5a be 49 b7 e1 3d 68 f7 1e bc
       -0.110845216 -0.2129912 0.11021287 -0.009702541
000150 9b dc 21 ba b4 34 fe b8 de 30 31 ba 71 8f 26 bb
       -0.00061745354 -0.000121214805 -0.0006759296 -0.0025415088
000160 a9 39 b2 bd 85 38 ae 39 34 54 7b 39 ec 19 cf ba
       -0.08702404 0.00033229977 0.00023968593 -0.0015800572
000170 c6 f4 7f 39 81 68 44 b8 d5 c3 41 3d 81 f1 db b9
       0.0002440988 -4.682737e-05 0.0473059 -0.0004195087
000180 2e 97 cc 3d bc e2 0b 39 60 a2 32 b7 b4 0f 80 bd
       0.09989773 0.00013340538 -1.0647433e-05 -0.06252995
000190 f1 57 e3 39 c8 8c 71 ba a8 de 7c bd 6d e1 14 ba
       0.00043362335 -0.00092143985 -0.06173578 -0.0005679343
0001a0 0a f4 af bc 40 2c c3 bd 61 07 24 39 67 45 9d bd
       -0.021478672 -0.095299244 0.00015643008 -0.07679253
0001b0 b4 e1 de 39 29 d6 be 3b 31 aa c6 bc a9 14 8b bd
       0.00042511302 0.0058238697 -0.024251075 -0.0679105
0001c0 5a ca 2b bd d5 a9 fc 39 bf 48 80 bb cd 50 09 bc
       -0.041941024 0.0004819172 -0.003914922 -0.008381081
0001d0 dd c1 91 ba 16 1c 07 b9 4e 7f fc bd a0 61 5d 3d
       -0.0011120398 -0.00012885066 -0.12328969 0.05404818
0001e0 80 d1 bb ba 79 08 a6 3d 87 b6 69 3a d5 25 9d b9
       -0.0014329404 0.08107085 0.00089154433 -0.0002997356
0001f0 ab f6 9b ba d8 d6 06 3a 41 25 db 3d d2 de 0e bd
       -0.0011899074 0.00051437085 0.10700465 -0.034880467
000200 7f d8 1b 3e b7 44 b5 bb ed 01 e3 bd 2b 5c fd 3c
       0.15219305 -0.005531873 -0.11084352 0.030927738
000210 2c 30 76 b9 d8 11 26 bb 8a 97 11 3b 7a 77 0f bc
       -0.00023478334 -0.0025340226 0.0022215568 -0.008756513
000220 30 7e 17 3b 46 eb 94 3b 92 93 f0 ba e6 c7 20 3c
       0.0023115985 0.0045446483 -0.0018354526 0.0098132845
000230 25 37 21 be cb 26 05 bd 10 74 ac 3c 4d 05 85 3e
       -0.15743692 -0.0325077 0.021051437 0.25980607
000240 de a4 b2 3d 8e 4a 7a 3d ee 83 c4 3b 37 a6 07 be
       0.08722852 0.061106257 0.0059971726 -0.13247
000250 8a 76 ed 39 ef c5 bb ba f4 1b f3 bb 9e 1d 4f ba
       0.0004529248 -0.0014325957 -0.0074191038 -0.00079008366
000260 68 3d f5 bd 08 9e 52 ba 9c 95 7a 3b 96 84 30 bc
       -0.11974603 -0.0008034413 0.0038236147 -0.010773798
000270 20 09 c4 ba ae 81 ab bb 9d 8e ff bc 9d d1 b9 bb
       -0.0014956333 -0.005233965 -0.031195933 -0.00567074
000280 5c 2b f8 3d 27 78 58 3d 06 0b 8f 3b 6a 6a 82 3d
       0.12117645 0.05284896 0.004365328 0.06367953
000290 ab aa 96 bb 10 a8 6a 38 d4 43 c0 bd 9e 87 0c bb
       -0.004597982 5.5946468e-05 -0.09387937 -0.0021443139
0002a0 d9 10 ea 3c 2d eb 0e 3e 03 02 81 bb 79 c8 dd bd
       0.028572487 0.139569 -0.0039370074 -0.10829253
0002b0 7e ad a1 3a 0a 4f 4e ba 73 69 4e 3d 17 2c 08 bd
       0.001233503 -0.0007870054 0.050393533 -0.033245172
0002c0 f2 cf 01 be 2a 9c 25 3b 2a 6d 0e 3d 32 e8 23 bd
       -0.12676981 0.0025270083 0.034772076 -0.04001636
0002d0 9e 35 05 3b 30 4c 39 3b 0c ee a2 bd 1b fb 6f bd
       0.0020326148 0.002827417 -0.0795556 -0.058589082
0002e0 92 52 93 3c fb bc 2c bd e8 79 46 3b f4 d7 ce b9
       0.017983709 -0.042172413 0.0030285064 -0.0003945228
0002f0 fb c3 a0 39 58 4c f0 3a 86 8a 92 bd b6 f3 1e bc
       0.00030663595 0.0018333299 -0.071553275 -0.00970166
000300 5b 1a 22 be a2 71 fa bd 4b e3 2a 3e 92 18 0f 3e
       -0.15830366 -0.12228705 0.16688268 0.13974217
000310 26 9d 69 3e 6c 3e 09 3d 21 77 7e 3d d8 df 2c 3c
       0.22813854 0.033506796 0.06212533 0.010551415
000320 1b 88 9e be 2b a3 53 3e 37 30 93 3d 14 20 5a be
       -0.30963215 0.20667712 0.071869306 -0.213013
000330 29 93 30 3e a9 db 09 3e 9e 9f ff bb 3c 0e 17 bd
       0.17243637 0.134627 -0.0078010103 -0.03687881
000340 cf 42 a4 bd da f0 52 be e4 d3 ba be 37 f2 fc 3c
       -0.08020555 -0.2059969 -0.36489785 0.030877216
000350 5b 80 36 be a6 28 48 be f4 a6 1a 3e e5 e5 73 be
       -0.17822401 -0.19546756 0.1510275 -0.23818167
000360 3c d4 a2 3c 9c f2 d7 3e 6f 4b 03 3d 78 6c 5b be
       0.019876592 0.42177284 0.03205436 -0.21428096
000370 11 88 38 bd 94 5b db 3e e9 b4 74 bd 2f a2 56 3d
       -0.045051638 0.42843306 -0.059742842 0.052400764
000380 19 04 3c 3d 59 3c 11 3e e4 d0 a3 be b2 b3 5c 3d
       0.045902345 0.14183177 -0.31995308 0.05388231
000390 a5 8d d5 bc b1 4e e0 bc 20 67 b5 3d 5f 94 c7 bc
       -0.026068518 -0.027381273 0.0885756 -0.024362741
0003a0 19 94 f6 3c b8 46 8b bc de b4 9f bc 4b 22 ac be
       0.030099915 -0.017001495 -0.019495424 -0.33619913
0003b0 0e 8d 38 bb 9b cc 9a be e6 84 27 bf e7 6e 0f 3e
       -0.0028160247 -0.30234227 -0.6543716 0.1400715
0003c0 46 a5 e8 bd 51 6c bd 3d 9c d3 0e be cc 8e ae 3d
       -0.113596484 0.09249175 -0.1394791 0.0852333
0003d0 8d 8a ce 3c 2e 1f a4 be 02 5b 0f 3e fa 9f 7c be
       0.02521255 -0.32055038 0.1399956 -0.24670401
0003e0 ab 09 f9 be c1 0e 5a 3d 18 ec 5a 3d 36 5a dd 3e
       -0.4864019 0.053236727 0.053447813 0.43232888
0003f0 94 75 af bc f7 7d 17 be 11 3f 96 be 29 d7 17 3e
       -0.02141837 -0.14794146 -0.2934499 0.14828171

fc5.bias f4 [63]
000000 d5 b4 f3 3a ee b0 81 b8 c8 9e 50 ba d5 37 e7 3e
       0.0018593321 -6.184155e-05 -0.00079582306 0.45159784
000010 bc 5b 11 3f 9a ca 19 3f e2 96 00 3f 67 33 07 3f
       0.567806 0.6007477 0.5023023 0.5281281
000020 16 c5 15 3f 12 39 08 3f 6f 5f 00 3f 14 fb 00 3f
       0.58503854 0.5321208 0.5014562 0.50383115
000030 dd 16 1a 3f 7a 70 11 3f ad 21 02 3f c2 bf c8 39
       0.60191137 0.5681225 0.50832635 0.00038289843
000040 36 25 d6 3e fa 49 16 3f d8 a7 b8 3e 48 dd f9 3e
       0.41825265 0.5870663 0.36065555 0.48801637
000050 0e 57 07 3f a6 62 11 3f ef 1a 13 3f 5a 13 06 3f
       0.5286721 0.5679115 0.5746297 0.5237328
000060 d3 99 22 3f b9 95 07 3f 37 ac 01 3f 40 df ba 3a
       0.6351597 0.52962834 0.50653404 0.0014257208
000070 05 93 b6 3e 13 33 eb 3a 40 b3 a8 3e 69 bd 15 3f
       0.35659042 0.0017944298 0.32949257 0.5849214
000080 0d 6a d3 3e 18 48 0f 3f ba e8 17 3f 3c 69 07 3f
       0.41291848 0.5596938 0.5933949 0.5289495
000090 52 d1 24 3f d8 f6 0a 3f bf 4c ff 3e 7b 43 cc 3e
       0.643819 0.54282904 0.4986324 0.39895234
0000a0 d1 cc ab 3e ae 1e e4 3e b9 e0 bb 3e 8c c3 11 3f
       0.335547 0.44554657 0.36694887 0.56939006
0000b0 1e 88 a8 3e 71 a2 12 3f 63 ac 0b 3f e2 89 da 3e
       0.3291635 0.57279116 0.54559916 0.4268332
0000c0 49 41 1f 3f 8f 79 00 3f 41 57 ee 3e 89 77 dd 3e
       0.6220899 0.50185484 0.46550944 0.4325526
0000d0 67 77 e3 3e ae e1 e2 3e ff 7d f4 3e 9a ae e6 3e
       0.44427034 0.44312805 0.47752377 0.45055085
0000e0 a2 7b c5 3e 6a 21 14 3f 3b 2f e0 3e 02 09 e1 3e
       0.38570887 0.57863486 0.43786034 0.43952185
0000f0 68 8a 27 3f cc a1 dc 3e fc 62 fa 3e
       0.65445566 0.4309219 0.48903644
