hand_landmarks/test/mlp_model.pth (torch, 119634 bytes, 12 tensors)

fc1.weight f4 [64, 126]
000000 ac cb cd 3c 17 7b 85 b8 d4 8a 4b 3d f6 b2 55 3b
       0.025121532 -6.3648615e-05 0.049692944 0.003260789
000010 cd ec 2e 3c e5 8a b9 3d ea 2b d0 3d d7 80 8d 3d
       0.010676575 0.09059695 0.10164626 0.0690934
000020 74 4d 35 3e d6 45 43 bd 53 f1 30 3e 6b cc 62 3d
       0.17705327 -0.047674023 0.17279558 0.05537073
000030 93 ca 5f 3c 10 b1 98 3c 73 9b a4 3d ee 5a e9 3d
       0.013659137 0.018639117 0.08037462 0.113942966
000040 77 70 c2 bd 12 ce 1a 3e e5 02 c0 3b 1b 3a 07 3e
       -0.09494107 0.15117672 0.00585972 0.13205759
000050 79 c6 ae 3c 95 57 40 3c 8a df 85 3d 8f 84 5e 3c
       0.021334874 0.011739631 0.06536777 0.013581409
000060 f1 66 0c 3d cb e4 b6 3d 5d 1a b7 3d af 0f d6 3d
       0.03427786 0.089303575 0.08940575 0.1045221
000070 86 fe 93 3d 51 44 f6 3d e8 87 6d bd 8a f9 78 bd
       0.07226281 0.12024749 -0.05799094 -0.060784854
000080 56 50 8b 3d 87 57 cf 39 4d 1c da bd 74 a4 6b 3e
       0.06802432 0.0003954733 -0.10649929 0.23011953
000090 43 ce 0e bd 38 56 1e be 2e e2 06 3e 4e d3 b8 bc
       -0.034864675 -0.15462577 0.13172218 -0.022561695
0000a0 ec 9c a4 3d fb 86 ae 3d a6 38 19 3a fe 6b 53 3e
       0.08037743 0.08521839 0.0005844928 0.20646665
0000b0 2f 16 b1 3d be 36 9c bb 14 9e ba 3d 94 d6 39 bd
       0.08646809 -0.004767268 0.09112182 -0.045370653
0000c0 1a 58 d8 3d 7c c3 1d 3d 98 7f d1 bc 52 d1 f1 bd
       0.10563679 0.038516507 -0.025573537 -0.11807503
0000d0 0a f2 f8 3c 0e 0f 05 3d 80 e1 04 3d cb 53 77 3c
       0.03038885 0.03248506 0.032441616 0.015095661
0000e0 45 91 1f 3e 26 13 27 bc 04 4c c0 3d ff 9e 3b 3c
       0.1558276 -0.010197436 0.09389499 0.011451482
0000f0 bf e0 93 3d 8b 1f 2e 3e 60 ed 3c bb 43 fe 19 3e
       0.07220601 0.1700422 -0.002882801 0.150384
000100 e8 59 ca bc 9a 0e 37 3e db ac 50 bc 12 fa 7f bc
       -0.024701074 0.17876664 -0.012736524 -0.015623586
000110 3f b0 24 3d a8 12 63 3c 5c b1 15 3d fe 18 40 3c
       0.040207144 0.013859428 0.036546096 0.011724709
000120 39 17 13 3e 2e 17 ca ba 54 27 a5 bd c8 8d 5f bd
       0.14364327 -0.0015418285 -0.08064142 -0.054578573
000130 0e 1b e8 3c 22 06 d4 3d a0 c8 cd bb 06 eb 02 bd
       0.028333213 0.10352732 -0.00628002 -0.031962417
000140 d7 2c ed 3d 48 7f 87 bd b7 d1 b5 3c f5 76 de 3c
       0.11580818 -0.06616074 0.022194726 0.027156333
000150 7d 2c 97 3d 7d 96 e3 3b 2c 0d 4b bd 51 ad 06 3c
       0.07381532 0.00694543 -0.04957311 0.008220033
000160 f4 36 e4 bc f7 8c 37 bd dd 0f 56 3e 23 8f bf bc
       -0.027858235 -0.04481217 0.20904489 -0.023383683
000170 97 88 ff 3d 20 d6 d6 3b 05 6a 65 3e dd 3a 3b 3d
       0.12477224 0.0065562874 0.22403724 0.045710433
000180 60 11 86 bb ad 40 36 be 54 b4 cd 3d 1a c8 11 3e
       -0.0040914267 -0.1779811 0.100441605 0.14236489
000190 08 77 7b 3d f4 b4 02 bb b9 24 0d 3e ac a6 cb 3d
       0.061392814 -0.0019944282 0.1378354 0.099438995
0001a0 a3 f6 b3 3d 3b 6e 3b 3e c1 f6 5b 3d 41 83 77 bd
       0.087872766 0.18303768 0.05370212 -0.060427908
0001b0 0e 42 22 3e 7f 77 b4 3c cf c1 20 3e cf 79 5f 3e
       0.1584551 0.022029636 0.15698932 0.2182381
0001c0 a5 86 0f 3e 9c 73 f0 bc ea 5d 43 bd 50 b2 26 3d
       0.14016207 -0.029352002 -0.047696985 0.040697396
0001d0 6c 58 43 b8 77 58 80 3d 20 84 90 bd 36 25 e9 bc
       -4.6573972e-05 0.06266873 -0.07056451 -0.028460126
0001e0 e7 00 d7 bc 03 78 5e 3e a1 ca 3c 3d e7 9f a1 3d
       -0.026245547 0.21725468 0.04609168 0.07891827
0001f0 91 d8 17 3e e8 2a eb 3d 95 e8 04 bd fe 8f de 3d
       0.14828707 0.11482793 -0.03244837 0.10867308
000200 98 bb a1 3d 4c 86 bc bc 2e b2 c3 3c 31 a5 cb bc
       0.07897109 -0.023013256 0.023888674 -0.024859043
000210 a2 e0 9a 3d df 2a b5 3d f7 a8 61 3e 07 9a 02 be
       0.075623766 0.08846068 0.22037111 -0.1275407
000220 e0 a7 0f 3e 85 10 04 3e 35 a0 a0 bd 5d 82 86 bc
       0.14028883 0.12896927 -0.07843057 -0.016419584
000230 85 0a 1d 3e c6 fc 3e 3d c2 ff 11 be fb ca f7 3d
       0.15336044 0.046627782 -0.1425772 0.12099262
000240 4a 64 5c bd 57 fb b8 3d 81 ad 4c 3e 3c 28 12 3d
       -0.05380658 0.09032314 0.19988061 0.0356829
000250 98 b7 62 bc 24 24 c1 3c 85 3b d7 3c 3a a8 c8 3d
       -0.0138377175 0.023576804 0.026273498 0.09797712
000260 fd ab 8f 3d 8d 78 27 3e f1 82 78 bd c3 f8 48 3e
       0.07015226 0.1635458 -0.06067175 0.19626145
000270 50 2a 9c 3a be f2 af 3d 37 82 d9 3c 2d 67 f9 3c
       0.0011914466 0.08591221 0.02655135 0.030444706
000280 c6 fa 05 be be 99 48 3e cf a6 0f bc cd bb ab bd
       -0.13083944 0.19589898 -0.008767798 -0.083854295
000290 76 29 b0 3c 47 7c 07 3e dd d3 84 bd 62 65 ab bd
       0.021504145 0.13231002 -0.06485722 -0.083689466
0002a0 6e c7 89 3b af 6f 49 3d e1 9b 60 3d 57 f6 0d bc
       0.004204682 0.049178775 0.054836158 -0.008664689
0002b0 4a 09 a7 3b 6f e8 c5 3d 73 a2 40 3e d0 2c 82 3d
       0.005097543 0.09663474 0.1881197 0.063562036
0002c0 35 d0 b4 bd 2f ae 60 3c 4b b0 9b bd 7c 00 02 3d
       -0.08828775 0.013713404 -0.076019846 0.031738743
0002d0 57 1f 58 bd 78 71 8c bd a6 05 4e 3d 03 da ba 3d
       -0.052764263 -0.0685758 0.050298356 0.09123614
0002e0 30 3c f8 3c 52 9e b5 bc 5d 75 d3 3d 95 1a 8e 3d
       0.030302137 -0.02217022 0.1032512 0.06938664
0002f0 3e 26 24 3d c3 f3 c1 3d c9 bc 34 3d e5 c4 93 3d
       0.040075533 0.09470322 0.044125352 0.07215289
000300 9d 34 ec 3d 63 74 1b 3d 68 9e a8 3d 9c c3 e8 3d
       0.11533473 0.037952792 0.082333386 0.113654345
000310 0f ad b9 bd 7d 72 b2 bc 8a ad d1 3c f9 d5 bd bd
       -0.090662114 -0.021783108 0.025595445 -0.09269328
000320 aa ba db bc f6 f3 14 3d 62 4f f8 bc 55 75 c5 3d
       -0.026822407 0.03636547 -0.03031129 0.0964152
000330 08 14 5d bd 56 2c 0a bd ed d7 db 3c 94 b2 54 be
       -0.05397418 -0.03373369 0.02683636 -0.20771247
000340 78 cd 25 3d 85 b0 a9 bd 2a 6b f2 3d ab bb eb 3c
       0.040479153 -0.082856216 0.11836846 0.02877601
000350 ad b1 5c 3d 13 e8 c5 3c ce fb b3 3d 52 04 85 bd
       0.053880382 0.024158513 0.08788262 -0.06494965
000360 68 b1 f8 3d d7 c1 17 3d 93 a7 52 3e 66 31 bd bb
       0.121432126 0.037050094 0.20571737 -0.005773711
000370 6e f1 00 3e ea 8a 28 bc 7e 8a 12 be 8b d9 fd bd
       0.12592098 -0.010287026 -0.14310643 -0.12395009
000380 73 c5 c7 3c 24 69 17 3e e7 62 1e bd 26 5e 12 be
       0.024386143 0.14786202 -0.03866854 -0.14293727
000390 e1 1d 38 3e 16 5e 79 3d 85 6e 8a 3d 50 60 12 3e
       0.17980148 0.060880743 0.06759361 0.14294553
0003a0 6b ba 05 3d 8b a6 99 3d f0 7b 99 3c 01 e1 4b 3e
       0.032648485 0.07502469 0.018735856 0.19910051
0003b0 10 32 27 3e a4 05 11 3e 11 56 4e 3e 56 9e 47 bd
       0.16327691 0.14162308 0.20150019 -0.048734985
0003c0 73 46 09 bd f0 d0 98 bc 30 45 c9 bd cd 93 82 3e
       -0.03351445 -0.018654317 -0.098276496 0.25503388
0003d0 22 53 74 bd e3 4b c1 3d 46 7a 04 bd 47 1d 34 3e
       -0.059649594 0.09438302 -0.03234317 0.17589293
0003e0 bd 0d 23 3e c5 eb b3 bc 3c d4 33 3e 21 ec 10 3e
       0.1592321 -0.02196301 0.1756143 0.14152576
0003f0 43 50 0c bc 10 da 06 3e 1b 5b 0c bd 1a c6 86 bd
       -0.008564058 0.13169122 -0.034266572 -0.065807536

fc1.bias f4 [64]
000000 7e 66 ac 3d 77 8b e1 3c 87 b2 c1 3d 63 00 c9 bc
       0.08417986 0.027532322 0.094578795 -0.024536317
000010 12 5b e4 3d c2 f3 f4 bc 25 62 d6 3d dd 09 be bd
       0.11150183 -0.029901389 0.10467938 -0.09279225
000020 b0 32 f1 3c fd 89 8f 3d 8e e7 91 bd 7a a3 e1 3d
       0.029443115 0.07008741 -0.07124244 0.11017509
000030 3f d0 b1 3c db bb b0 bd 7f 64 dc ba 68 96 1c 3d
       0.021705745 -0.086295806 -0.0016814618 0.038229376
000040 3e 97 46 3d e3 de 8b 3d 3e 26 9e 3d ab db e7 3d
       0.04848408 0.06829622 0.07722138 0.11321195
000050 8a b4 e3 bc 99 bf cc 3c b2 36 ec 3c 0f b5 2a 3e
       -0.027796049 0.024993705 0.028834675 0.16670631
000060 31 ad e1 3c fb 59 0f 3e da 1b b2 bd ab fd 07 bd
       0.027548404 0.13999169 -0.086967185 -0.0332009
000070 51 23 39 3d c5 a4 73 3d b8 dd 8c bd cc 10 13 3d
       0.045199696 0.05948331 -0.06878227 0.03590469
000080 57 a8 1f 3d 7a d5 9a bd 78 ba df 3c d2 f8 43 3d
       0.0389789 -0.07560249 0.027310595 0.047844715
000090 a8 6d 92 3d 7f bd af 3d ed 5e 89 3d df c5 15 bd
       0.071498215 0.085810654 0.06707559 -0.036565658
0000a0 1a da 04 3e 3e 9e 75 bd bf fe 88 3d 2e 96 34 3e
       0.12973824 -0.059965365 0.06689214 0.17635414
0000b0 ee c1 27 3d 33 9b 0e 3e 3b 58 da 3d 33 20 97 3d
       0.04095643 0.13926391 0.1066136 0.073791884
0000c0 29 75 7d bd 16 35 34 bc 11 6c b8 bd e3 f0 e1 3d
       -0.06187931 -0.010998985 -0.09004987 0.110322736
0000d0 18 3d 8d 3d f7 74 c4 3d b3 08 82 3d 8d f7 2a bc
       0.06896418 0.09592622 0.063493155 -0.010434997
0000e0 e4 6e 24 bd 76 17 cd 3d 26 a0 42 3d 95 8d 63 3d
       -0.040144816 0.100142404 0.04751601 0.055554945
0000f0 61 4c 0c 3d 1b 89 8c 3d 9d 1b b7 3d ec 18 b1 bd
       0.034252528 0.06862088 0.08940814 -0.086473316

fc2.weight f4 [64, 64]
000000 58 8e 0f 3e 09 07 18 3e a5 cf 3f bd 84 07 02 be
       0.14019144 0.14846434 -0.046828885 -0.1269818
000010 9a 7e 25 3e bf e7 69 3d d2 2b a0 3d e4 2f b1 bd
       0.16161576 0.057105776 0.07820858 -0.086517125
000020 35 32 46 bd d3 be 8d 3d 13 69 38 bd b4 9a c7 3d
       -0.048387725 0.069211625 -0.04502208 0.09746304
000030 ca ba 23 3d 1e 9e bd bd 09 35 e0 3e 9b 46 18 3e
       0.039973058 -0.09258674 0.43790463 0.14870684
000040 d8 a7 12 3e 76 18 88 bd 3c 15 e4 bc cf 56 5f 3d
       0.1432184 -0.066452906 -0.027842157 0.054526147
000050 b4 37 90 3b 1b a7 b1 bd f0 8f 47 bc 21 bf 12 3e
       0.0044011716 -0.08674451 -0.0121803135 0.14330722
000060 7a b4 4f bd 71 e1 db bd 78 12 81 3c 18 10 a8 bd
       -0.050709225 -0.10736359 0.015755877 -0.08206195
000070 47 6b dc 3d 14 a2 a2 3d 8a df 24 bd 03 d9 d9 3d
       0.10762649 0.0794107 -0.040252246 0.10637095
000080 79 8b ca 3d b4 af 7b bd d1 ef 7c 3d ab da 9f 3d
       0.098898835 -0.06144686 0.061752144 0.078053795
000090 ba 8b bb bc af c0 fb 3d 6d 33 26 bd d4 90 79 bd
       -0.022893775 0.12292611 -0.040576387 -0.060929134
0000a0 f4 ce 86 bc 52 7d cf 3c e3 6a 28 3d e4 5e 54 3d
       -0.016456105 0.025328312 0.04111756 0.051848307
0000b0 07 55 b4 bc 51 73 5d bc 84 5a 3e 3e f5 41 08 3d
       -0.0220132 -0.013516263 0.18589216 0.033266027
0000c0 23 c2 9e 3d fd ea 87 3c 39 a6 8a bd 4c 87 0a 3e
       0.077518724 0.016591543 -0.06769986 0.13528174
0000d0 df ea 6f 3e 03 ea 68 3d 05 7d 22 3e 0e 37 ce 3d
       0.2342944 0.056863796 0.15868004 0.100690946
0000e0 eb a0 98 3b ae cf bf bc a6 cb 2b 3d 25 e7 f5 bb
       0.004657855 -0.02341446 0.04194226 -0.007504361
0000f0 94 35 79 3d 20 ec 19 bd 90 76 04 3d dc de df bd
       0.06084211 -0.037578702 0.032339633 -0.10931179
000100 f0 b6 8a bd 0c e4 73 bd 60 02 c8 3d 34 9b d1 3d
       -0.06773174 -0.059543654 0.09766078 0.10234681
000110 3c 1a 2b 3d 0a ee ab bd c0 56 f8 bb 20 78 ad 3b
       0.041773066 -0.08395012 -0.007578701 0.005293861
000120 24 e4 48 bd 46 62 8c 3d e2 0c f6 3d ec 4d 3a bd
       -0.049045697 0.06854682 0.12014176 -0.04548447
000130 48 5a 11 3d e0 62 e9 bd 60 f0 be 3d 18 a6 1b bd
       0.03548649 -0.11395812 0.09323192 -0.038000196
000140 e0 38 16 bd 6a 3d d1 3d 1c eb c6 bd b0 90 97 bd
       -0.036675334 0.10216792 -0.09712812 -0.07400644
000150 e6 c5 dd 3d 1a a9 b3 bd 8e 60 ac bd 04 c6 5c bd
       0.10828762 -0.08772488 -0.08416854 -0.05389978
000160 06 ec db 3d 8c 0d df 3d 00 b4 e7 39 a2 a1 97 3d
       0.10738377 0.10891256 0.00044193864 0.07403876
000170 64 12 35 3d 7c b1 8c bd a2 17 f7 bd f0 b6 81 bd
       0.04420699 -0.0686979 -0.120650545 -0.06333721
000180 28 61 a2 bd 52 94 fc bd 20 71 1f 3d 46 48 eb bd
       -0.07928687 -0.12332977 0.038926244 -0.114883944
000190 f0 05 e2 3d 84 8c 11 bd 86 e5 d8 bd f6 95 87 3d
       0.11036289 -0.035534397 -0.10590653 0.066204
0001a0 d8 0c 5c 3d 28 a5 bd 3d 9c 9d b4 3d ec 2c 99 bd
       0.053723186 0.09260017 0.08819124 -0.07479271
0001b0 c8 a9 82 3c 2c 1d 9d bd 90 3b 6e bc e0 25 ec bd
       0.015950099 -0.0767158 -0.014540568 -0.115306616
0001c0 b8 a8 76 bd 28 0f d5 3d 34 8d d6 bd 70 88 fa bd
       -0.060219496 0.104032815 -0.10476151 -0.12233055
0001d0 ec 06 68 bd 8e 1a cf bd 24 a3 80 bd 04 97 b5 bd
       -0.056647226 -0.10112487 -0.062811166 -0.088666946
0001e0 f4 d9 4b 3d 7e 6c 93 3d c0 b8 31 3c 1a f2 ff 3d
       0.049768403 0.071984276 0.0108472705 0.12497349
0001f0 e2 3a f8 bd c0 b4 89 bd c8 64 6e bd 24 ea 54 3d
       -0.12120606 -0.067239285 -0.05820158 0.051981106
000200 0c cb f1 bb 7c 1a d8 3d 20 d0 e8 3d ae b0 00 3e
       -0.0073789414 0.105519265 0.11367822 0.12567398
000210 99 26 08 3e aa 5e f6 3d c4 8d c3 3c 66 47 d7 bd
       0.13295974 0.120297745 0.02387131 -0.10511665
000220 b4 35 78 3e ea 18 40 3e dd 4f 32 3d 5a 42 ce 3d
       0.24239236 0.18759504 0.043533195 0.10071249
000230 48 3a f3 bd 98 96 fb 3d 4a 41 a3 3e ff c9 60 3d
       -0.11876351 0.12284583 0.3188575 0.05488014
000240 92 f2 70 bc 88 d7 f7 3d ad c8 8f bd e9 a3 01 3c
       -0.014706271 0.12101656 -0.07020698 0.007912614
000250 1b c5 8a bc 1d 9d 65 3d 7f f1 e9 bd b9 0c 2e 3e
       -0.01693969 0.056058038 -0.11423015 0.16997041
000260 34 bc 3e 3e cc 11 f9 bc 7c cb 8c 3d 61 3e 49 3e
       0.18626481 -0.030403994 0.06874749 0.19652702
000270 49 69 d4 3d 74 4a a0 3d ef a8 10 bd 54 77 55 3e
       0.10371644 0.07826701 -0.035317358 0.20846301
000280 ba df 58 bc ce a8 09 bb e7 5b af 3d f4 56 0e 3e
       -0.013236934 -0.0021005156 0.08562451 0.13900357
000290 d1 27 12 3e 4e d1 0a 3e 3d cf 40 3e f3 69 98 3d
       0.14273001 0.13556406 0.18829055 0.07442083
0002a0 42 90 11 bd 22 c2 87 bd 8c 76 e3 3d 76 e7 5a bc
       -0.035537966 -0.06628825 0.111065954 -0.013360849
0002b0 95 5a 95 bc 1f 5d eb 3d 47 67 08 3e 4b 7e 99 bd
       -0.01823167 0.11492371 0.13320647 -0.074947916
0002c0 49 0b 19 bd 80 c4 f3 3d ef 34 cf bd 20 c2 81 bd
       -0.037364278 0.11902714 -0.10117518 -0.063358545
0002d0 c7 89 61 3c 84 91 be 3d c6 3b ea 3d 2f a2 1c bd
       0.013765759 0.09305099 0.11437182 -0.038240608
0002e0 23 d6 d6 3d b3 50 86 bd 4b dc 37 3d d3 99 0a 3e
       0.10490062 -0.06558361 0.044887822 0.13535242
0002f0 17 28 d4 3d 0c 31 69 3e 6e 3b fb 3d fe b2 a4 3d
       0.10359209 0.22772616 0.12267195 0.080419526
000300 9a cd 73 3c fd 7d 98 3d 8b 7b 45 3d 4f ff 8b bd
       0.014880562 0.07445905 0.048213523 -0.068358056
000310 23 11 93 bb 35 36 f9 bd 93 90 ef bd c3 51 af 3d
       -0.004488127 -0.12168542 -0.11697497 0.08560517
000320 a0 80 8d 3c a3 41 0e 3e 8e 53 65 bc 4f be e0 3d
       0.017273247 0.13892226 -0.013996972 0.109737985
000330 62 67 cf bd 9f 40 4a bc d5 a9 ea 3e 97 c3 30 3e
       -0.101271406 -0.012344508 0.45832697 0.17262112
000340 09 5a 1a 3e 85 dd 0f bd 61 49 67 3d 2d e8 af 3d
       0.15073408 -0.035123367 0.056466464 0.08589206
000350 cc 48 e5 bd 33 85 e6 3d 57 d0 f2 bd 69 d0 30 3d
       -0.111955255 0.112558745 -0.11856144 0.043167505
000360 f0 db e3 bc d9 87 52 bd bc 95 bd bd 25 6d 36 be
       -0.027814835 -0.051399086 -0.09257075 -0.17815073
000370 e0 47 7a 3d 95 0d a1 bd d5 6b cc 3d 66 11 63 3e
       0.0611037 -0.07863919 0.09981505 0.22174606
000380 58 85 b6 bd 0e 46 2d bd 29 0a 16 3e 08 63 e9 3d
       -0.08912152 -0.042303137 0.14652313 0.11395842
000390 35 94 3d bc ca 1b ba bc 89 c0 2d 3e 3d bc 94 3d
       -0.01157098 -0.022718329 0.16967978 0.07262466
0003a0 cb 61 76 bd 5e c0 9d bd aa 92 4e 3e 34 6b 8d 3d
       -0.060151856 -0.07702707 0.20173135 0.06905213
0003b0 c6 26 df bd 5c 15 87 3d 64 e8 fe bc 13 50 d2 bd
       -0.10896067 0.06595871 -0.031116672 -0.10269179
0003c0 a3 85 ee 3c 8a a5 b7 3d 3b c5 8f 3d f9 6f 5e bd
       0.029116457 0.08967121 0.070200406 -0.054306004
0003d0 97 f0 d8 3d 1a 0a f7 3d 4d 46 96 bb d9 ce c8 3d
       0.10592764 0.120624736 -0.004586017 0.09805078
0003e0 f2 58 bb bd 01 94 1e be e7 d1 c1 3d e6 fa 1e 3e
       -0.09147824 -0.15486147 0.09463864 0.15525398
0003f0 dc 7f 05 be 62 8c 9d 3d 79 41 59 3d 10 8f e2 3d
       -0.13037056 0.076927915 0.053040955 0.11062443

fc2.bias f4 [64]
000000 31 04 fd bc 04 d1 55 3d 5c 25 ec bc f9 10 06 3d
       -0.030885788 0.052201286 -0.028826408 0.03273103
000010 52 f5 e6 3d 80 03 ed bc 0f d4 02 bb 60 6d 3a 3e
       0.1127726 -0.028932333 -0.0019962823 0.18205786
000020 a8 c1 12 3d 3c 8b 48 bc 2c 83 c0 bd 5a ad 0c 3e
       0.035829216 -0.012240227 -0.09400019 0.13738003
000030 99 e2 3d bd e9 11 c8 bd 9a 47 cb 3d fe a7 57 3d
       -0.04635868 -0.09769041 0.09925766 0.052650444
000040 54 48 1c 3e 4b 18 28 3e f8 ca 9f 3d 6e aa 78 3c
       0.15261966 0.16415517 0.07802385 0.015177352
000050 b2 54 a7 bc c2 02 ef 3d 5d b7 04 3e 1c 62 aa bd
       -0.020426128 0.11670448 0.12960573 -0.08319494
000060 5e a9 6d bd 14 12 c1 3d b8 de 3c bd 06 67 52 3c
       -0.05802285 0.09427276 -0.04611084 0.0128419455
000070 b4 e9 50 3e ba bd 05 bd 9f 13 38 3e 68 79 6b bd
       0.2040165 -0.03265164 0.17976235 -0.05748883
000080 64 cf e2 3d 3a cf 18 3e 7b 34 2c 3e ff 50 ff b9
       0.11074713 0.149228 0.16816895 -0.00048697737
000090 b0 2c 42 bd b2 50 86 3d 5d 48 f9 3d 58 e8 dd 3d
       -0.0474059 0.0655836 0.12172005 0.10835332
0000a0 49 31 0a 3e 70 15 b2 bd 6c 1c a3 3d c5 ef e2 3d
       0.13495363 -0.08695495 0.079644054 0.11080889
0000b0 90 d7 4d 3d fe 25 f5 3b 60 05 f1 3d cf 2a c4 3d
       0.050254405 0.0074813357 0.11768603 0.095784776
0000c0 fb 98 32 bd a9 9d 8b 3d f9 52 a7 bd 52 e9 21 3d
       -0.043602925 0.06817181 -0.08170123 0.039529152
0000d0 4d b6 44 3e 0c 97 06 3d be 90 01 bd b4 c5 a0 3d
       0.19210167 0.032858893 -0.031632178 0.07850209
0000e0 1b 32 17 3e 50 50 db bd c9 ca 86 bd 1a e9 5f 3d
       0.14765207 -0.10708678 -0.06581647 0.054665662
0000f0 df 93 86 bc 1e 16 d7 3d a5 b3 85 bc 4c e6 08 3e
       -0.016427932 0.105022654 -0.016321013 0.13369101

fc3.weight f4 [64, 64]
000000 05 40 c9 ba 20 ba d7 3c 0c a1 52 3d f8 82 70 3d
       -0.0015354162 0.026333869 0.051423118 0.05871865
000010 e0 ec f8 bd 3d 81 b6 bd 0c 50 92 bd e7 9d af 3d
       -0.12154555 -0.08911369 -0.07144174 0.08575039
000020 72 46 d9 3b 0a f3 03 ba db e1 cc bd eb 35 8b be
       0.006630712 -0.0005033469 -0.10004016 -0.27189574
000030 ea 59 04 be 62 2d b4 bd 77 f5 1f be 1f f9 d3 bd
       -0.12924924 -0.087977186 -0.15620981 -0.103502505
000040 17 8e 96 3d f3 9a 16 bd d3 03 40 3d 7a 95 be bd
       0.0735132 -0.036768865 0.046878647 -0.09305854
000050 38 95 25 3d 30 42 55 3d 07 80 a1 be a0 60 c7 3d
       0.04042551 0.052065074 -0.3154299 0.09735227
000060 c3 87 d0 bd 4c 98 20 bd 1d 57 b3 bd d2 49 f1 bd
       -0.101821445 -0.03920774 -0.0875685 -0.11781658
000070 b2 f4 cb 3d 82 9c b6 bd a4 18 8a 3d 00 e2 db bc
       0.09958781 -0.0891657 0.06742981 -0.026841164
000080 86 97 aa 3c 33 55 53 be 2a 12 22 bd c2 3e b7 bc
       0.020824205 -0.2063797 -0.039568104 -0.022368792
000090 94 dc 4c bd dc e4 41 3d d5 4f 13 3d 40 a5 d0 bc
       -0.050015047 0.047337398 0.035964806 -0.025469422
0000a0 4e 47 2e 3e d8 a5 c9 bc 74 95 77 bd ee 97 c2 3d
       0.17019388 -0.024615213 -0.060445264 0.095016345
0000b0 51 50 5b 3d 29 4a cb bd 42 48 9b bb 9f 9d cf 3c
       0.053543393 -0.09926254 -0.0047388384 0.025343714
0000c0 50 4c 1b be 61 ed b7 3d a9 db dd 3d d8 1a ae be
       -0.1516583 0.08980823 0.108329125 -0.34004855
0000d0 9a 44 06 3e ad f3 eb 3d bc 8c ee 3d a9 f1 81 3c
       0.13112107 0.11521087 0.11647937 0.015862303
0000e0 48 4d 3d bc d6 6d 00 3e 5b 75 9b 3c 14 aa 6e bd
       -0.01155407 0.12541899 0.018976858 -0.058267668
0000f0 ec 40 a9 3d e5 ae 10 3d 92 48 1f 3d 3f 37 4f 3d
       0.08264336 0.035323042 0.038887568 0.050589796
000100 ae 4a be 3d c0 7f 15 bd cb e9 d3 bb 3f 9b c8 3d
       0.09291588 -0.036498785 -0.0064670793 0.09795236
000110 21 3a 00 be 39 d7 9e bd 83 a9 ea bd 2e 25 84 3d
       -0.12522174 -0.07755894 -0.11458113 0.06452404
000120 db d3 e8 3b c3 65 f7 3d 44 89 db bd df 0a 34 3d
       0.0071053333 0.120799564 -0.10719541 0.04395568
000130 d1 ed ad 3d 4c 20 2b 3d 52 31 0d bc 90 5f ca bd
       0.084926255 0.041778848 -0.008617716 -0.09881508
000140 90 c5 28 bc 1f b9 7a bd cb d3 7d 3c 9a 34 b9 bd
       -0.010301009 -0.0612117 0.01549239 -0.09043236
000150 01 82 80 3d c3 e9 8b 3d 80 d9 96 bb f2 e4 be 3d
       0.06274796 0.06831696 -0.0046035647 0.093210116
000160 34 da 6b 3d 70 3e 6e 3d 25 37 68 bb 44 53 a9 3d
       0.05758114 0.058165014 -0.003543326 0.08267835
000170 59 ed 35 bd 01 21 22 3b 4d d7 ba 3d 9a bc f3 3d
       -0.044415805 0.002473891 0.091230966 0.11901207
000180 f2 79 9a bd 19 10 ba 3d 76 47 3b bd d0 58 75 3d
       -0.075427905 0.09085102 -0.045722447 0.05989915
000190 28 41 7f bd ff 0a db bd 3f 81 df bd 9f f3 45 3d
       -0.062317997 -0.10695457 -0.109133236 0.04832804
0001a0 da 1f eb bd 80 d0 09 3c 46 00 e9 bd 02 53 f7 bd
       -0.114806846 0.008411527 -0.11377005 -0.12076379
0001b0 79 46 f2 bb 6e ad 92 3d e0 ce bf 3d 78 ae a0 bd
       -0.007393655 0.07161985 0.0936563 -0.07845777
0001c0 12 0c 59 bd c7 54 bd bd 9e 3c d4 bd cd 00 da bd
       -0.052990027 -0.092446856 -0.10363124 -0.10644684
0001d0 25 83 bf 3d 44 fc bc 3c 6a c5 b1 bd c2 1b ba bc
       0.09351186 0.023069508 -0.08680232 -0.022718314
0001e0 15 9d da 3d e8 f9 d5 3c 98 fa 21 3d 9c 7a 9f 3d
       0.10674492 0.026120141 0.039545625 0.07787058
0001f0 b2 aa fd 3d 64 41 99 3d a0 ea bb 3c cd ce df 3d
       0.12386073 0.074831754 0.022939026 0.10928116
000200 9c 52 26 3d 8e d0 b7 bd b4 93 dc 3d 0f b1 31 3e
       0.040606126 -0.089753255 0.1077036 0.17352699
000210 3c 91 99 3d 5a dd 91 3d 9b 21 e2 3d 49 b2 22 3e
       0.074984044 0.071222976 0.11041566 0.15888323
000220 9a 1b cb 3d 89 af 23 bd 38 8c 93 bd 00 fb 60 3c
       0.09917374 -0.039962325 -0.07204479 0.013731718
000230 64 47 3e bd 4a 36 81 3c 24 19 8f 3d c7 40 5e bd
       -0.046454802 0.015772957 0.06987217 -0.054260995
000240 77 52 48 3e 0b 7f 88 3d 6a 32 08 3e 9b e0 03 3d
       0.19562708 0.066648565 0.13300481 0.032196622
000250 65 8a b2 3c 94 7b a3 3d c2 14 37 be bf c4 be 3d
       0.021794507 0.07982555 -0.17879012 0.0931487
000260 9a 56 6f 3c f0 56 f0 3c 38 1e 82 3d 25 19 4d bd
       0.01460805 0.02933833 0.0635342 -0.050072808
000270 64 cc 41 3e da 3d 03 3e cf a3 44 3e 00 bd b6 3c
       0.18925625 0.12816563 0.19203113 0.02230692
000280 93 4d 03 3e f5 ae 1e be 39 2d 55 bd 40 81 eb 3d
       0.12822561 -0.15496428 -0.05204508 0.11499262
000290 e8 cd b2 3c 79 a7 5d 3e 0f 91 bf 3d b9 11 77 3c
       0.0218267 0.21645917 0.093538396 0.015079909
0002a0 0e c7 79 3e 00 b9 0f 3d f4 08 74 3d 6e b2 ea 3c
       0.2439234 0.03508854 0.05957885 0.028649535
0002b0 d4 aa 50 3e 27 e7 ba 3d b7 bc bd 3c 2d 1b 3a 3e
       0.20377666 0.0912612 0.023161275 0.18174429
0002c0 99 18 3f 3d 28 98 21 3e c3 c9 89 bd 73 f9 7e be
       0.046654318 0.15780699 -0.06727936 -0.24899845
0002d0 42 b9 8e 3d 09 ef 1d 3f 10 a0 3b 3e 94 e7 b2 3d
       0.06968929 0.61692864 0.18322778 0.08735576
0002e0 79 89 26 bd 81 15 e9 bd 51 92 4f 3e c3 1a 00 3d
       -0.040658448 -0.11381055 0.20270659 0.031275522
0002f0 aa a1 e0 3d ce b1 07 3d a0 55 1a bf 60 3a 1f 3e
       0.10968335 0.033128552 -0.60286903 0.15549612
000300 90 38 30 bd 84 f5 03 3d 60 af 49 3c f0 6c 97 3d
       -0.043022692 0.032216564 0.012309879 0.07393825
000310 c0 fb 57 bb e4 2e 63 bd a0 78 fb 3c 8c 11 e9 bd
       -0.0032956451 -0.05546464 0.030697167 -0.113803
000320 b4 62 82 bd fc c8 db bd b4 12 96 bd 36 b2 bd bd
       -0.063664824 -0.10731694 -0.07327786 -0.09262507
000330 de 63 8c bd 9c cb 29 bd 10 f1 a6 3d 50 43 24 3c
       -0.06854986 -0.041453943 0.08151448 0.010025814
000340 e8 bc 50 bd fe 62 e6 bd b8 c2 a7 bd 4c 67 a0 3d
       -0.050961405 -0.1124935 -0.081914365 0.07832202
000350 7c 6d da bd 04 72 54 3d 50 4f 04 3d 30 8a f2 3d
       -0.10665414 0.051866546 0.0323022 0.118427634
000360 1e 68 e2 3d 9c 23 96 bd 90 38 55 3c 90 55 02 bc
       0.11055015 -0.07331011 0.013013974 -0.00795497
000370 90 88 64 3d 0c 8a 23 3d 80 a0 68 bb 86 6d f1 3d
       0.0557943 0.039926574 -0.0035496056 0.11788468
000380 f4 04 3a bd 3e 3b b4 bd 4e 89 bf bd 90 db 8c bd
       -0.04541488 -0.08800362 -0.09352361 -0.06877816
000390 6c 1f 11 bd fa 43 95 3d 78 d8 70 bd a0 98 59 3d
       -0.035430357 0.07288356 -0.05880019 0.05312407
0003a0 88 f3 c0 bc 10 25 ce bc 28 27 d1 3d 76 7d e4 3d
       -0.023553625 -0.025164157 0.102125466 0.11156742
0003b0 06 ef ec 3d a4 47 27 bd 68 8a 80 bd 0e d1 91 3d
       0.115690276 -0.040839806 -0.06276399 0.07119952
0003c0 1c ea a9 3d 1c 04 58 3d 50 6c 81 3c ec fe a1 bd
       0.08296606 0.052738294 0.015798718 -0.079099506
0003d0 78 03 a5 bc 50 76 74 3c e8 4b 4b 3d 70 88 c6 3c
       -0.020143256 0.014920786 0.049632937 0.02423498
0003e0 cc 98 e7 bd 48 69 b1 bd 36 60 ca bd 2a ff db bd
       -0.113084406 -0.08662659 -0.09881632 -0.10742028
0003f0 a6 fe 95 bd de 50 d3 bd 30 42 5f bd 18 f9 c2 3c
       -0.07323961 -0.103181586 -0.05450648 0.023800418

fc3.bias f4 [64]
000000 6c 36 4f 3d e3 88 44 bd 5b 36 0e 3e 80 c0 5f bb
       0.05058901 -0.047982108 0.13887922 -0.0034141839
000010 a0 f1 5c bd bc ff 46 3e 4b 54 9c 3d 52 c0 e3 bd
       -0.05394137 0.19433492 0.07633265 -0.111206666
000020 4c 15 c3 bd 58 a1 65 bd 32 94 b8 bd 96 1c 13 bc
       -0.095255464 -0.056062073 -0.09012641 -0.008978983
000030 a6 68 0e bc ca 3a a7 bd 88 2e 6c 3c 15 e7 ba bc
       -0.008691942 -0.0816551 0.014415391 -0.022815267
000040 d7 15 17 3d 88 81 e8 3c b5 29 52 bc fa 4d 4d bd
       0.036886062 0.028382078 -0.012827327 -0.050123192
000050 39 c8 15 3e c5 1e 01 3e a0 59 33 3e 52 26 e5 bd
       0.1462716 0.12609394 0.17514658 -0.1118895
000060 4b bd 6c 3d d8 c8 77 3d c1 47 a5 3c 78 83 5f 3d
       0.05779771 0.060494274 0.020175816 0.054568738
000070 40 8f fe bd 88 3f 26 3e 35 51 8e 3d 4d b5 40 3e
       -0.124296665 0.16235173 0.06949083 0.18819161
000080 62 50 88 bd bf 27 ed 3d 60 1f 0a bc fe 93 94 3d
       -0.06655957 0.115798466 -0.008430332 0.0725479
000090 15 8b 85 3d 69 74 d8 3d 8b fa b7 3d 24 ba 20 bd
       0.065206684 0.105690785 0.08983334 -0.039240018
0000a0 23 ad 35 3e d5 b5 04 3d 9b ae 86 bc be 6d c2 bc
       0.17741828 0.03239997 -0.01644068 -0.02373397
0000b0 9e 3d 02 3d c0 4b 54 bd ea 26 9d 3d e9 9c fd 3c
       0.031797044 -0.051830053 0.07673438 0.03095861
0000c0 44 5c 97 bd bc 0d d1 bd 5c 8b 1d 3e 72 f2 c5 3d
       -0.07390645 -0.10207698 0.15385193 0.096653834
0000d0 48 fd 4d 3e 1b ff 91 39 eb 5a 94 bd 57 c3 4f 3e
       0.2011615 0.00027846624 -0.07243904 0.2028936
0000e0 a1 64 3d 3e 5b 35 53 3e 39 6d e6 3d 11 2b 0f 3d
       0.18495418 0.20625822 0.11251301 0.03495318
0000f0 f5 03 38 3e 3e 04 9a bc 2c d0 b4 3d 8a c3 0d 3e
       0.1797026 -0.018800851 0.08828768 0.13844123

fc4.weight f4 [64, 64]
000000 0c 06 8c 3d 77 c6 a0 bc 11 20 de 3d c0 c3 5d bd
       0.06837091 -0.019625885 0.1084596 -0.05414176
000010 70 b7 89 bd 96 6c 62 bd 60 b2 48 bd f0 3c 20 bc
       -0.06724441 -0.055279337 -0.048998237 -0.009780154
000020 ee 00 45 3d 5c d9 c4 3d 8c c7 dd 3d 96 74 fe 3d
       0.04809659 0.096117705 0.10829076 0.12424581
000030 2a e7 7f bd 80 d9 34 3b 21 99 9f 3c d6 cf e1 3c
       -0.062476315 0.002759546 0.019482197 0.027564924
000040 7a a0 b9 3a 71 56 08 bd 5e cd 0d bd 37 78 22 bd
       0.0014162206 -0.033285562 -0.03461968 -0.039665427
000050 e2 56 80 3e 5f e0 af 3d 2d 50 18 3c e8 c1 dd 3d
       0.25066286 0.08587717 0.009296459 0.10828
000060 14 95 e1 bd 74 70 92 bd e3 95 84 bb 36 0e bc 3d
       -0.110147625 -0.07150355 -0.004046188 0.09182398
000070 6b c5 e2 bd 2d 7e 26 3d ad 26 da 3b fa 1a 05 3e
       -0.11072811 0.040647674 0.0066574425 0.12998572
000080 50 1f c7 3d c3 6a 4e bd d2 b1 d6 bd 9b f7 9d 3c
       0.09722769 -0.050394785 -0.10483135 0.019283107
000090 86 c9 c3 3d dd e4 05 3e af b7 00 bd ff bd 94 bd
       0.09559922 0.13075586 -0.031425174 -0.072628014
0000a0 ed dd 92 3d 1d 3a 16 bd 30 3f 56 3d 40 a8 3c 3d
       0.07171235 -0.036676515 0.052306354 0.046058893
0000b0 ac ce 28 bc 48 a6 e0 bd 43 cb 02 3e 1c 58 a3 bd
       -0.010303181 -0.10969216 0.1277285 -0.0797579
0000c0 40 3b a7 3d 44 b5 03 bd 64 91 ff 3d 51 09 86 3c
       0.08165598 -0.03215529 0.12478903 0.016361864
0000d0 6b 04 c5 3d 65 47 21 bc 2c 82 4e 3e a6 80 60 bd
       0.09619983 -0.009843682 0.20166844 -0.05481019
0000e0 9a 33 66 bd 81 62 00 be c2 3b 8d 3d 66 60 1f 3e
       -0.056201555 -0.12537576 0.068961635 0.15564117
0000f0 62 13 4b 3d 5e 98 e4 bd b8 9f 4a bd f0 42 89 3d
       0.04957903 -0.11161874 -0.049468726 0.067022204
000100 9d 2d 0a be 9d 73 60 bd 4b 7b 25 3e 18 f2 17 bd
       -0.13493963 -0.054797757 0.16160314 -0.037096113
000110 e8 d8 92 bc 88 51 bc 3d 40 1e 56 3e b6 84 91 3d
       -0.017925695 0.09195238 0.20909977 0.07105391
000120 24 52 17 be fe 55 c5 3d d8 8d a5 bc be 9f 61 3d
       -0.14777428 0.09635542 -0.020209238 0.055083983
000130 8e 91 d8 bd 9c 05 5a bd 5f 2f b1 3d eb 5f 77 bc
       -0.10574637 -0.053228006 0.086516134 -0.015098552
000140 5a ea b5 3d ac 44 9f 3d 2d bd 9d bd d0 6d bd bd
       0.0888259 0.0777677 -0.07702098 -0.09249461
000150 12 d3 60 bc a4 04 9b bd b9 a6 66 3d 44 b1 08 bd
       -0.013722198 -0.075692445 0.056311343 -0.03337218
000160 d0 08 f8 3c ae a7 e0 3d c8 c4 76 3d a8 bf 53 bd
       0.03027764 0.10969482 0.06024626 -0.05169645
000170 90 98 30 3d 67 a4 35 3c b4 71 d7 bd b3 eb c5 3d
       0.043114245 0.01108656 -0.10519734 0.09664097
000180 f0 de 3f 3d c3 23 e5 bc 52 99 c1 3d bb f6 52 be
       0.04684347 -0.027971154 0.09453072 -0.20601933
000190 13 93 54 3d 82 29 d0 bd 48 29 87 bd e2 81 b6 3d
       0.051898073 -0.10164167 -0.06599671 0.08911492
0001a0 4b e4 02 3e 4c 27 bd 3d 64 bf 0b be ec 35 16 3d
       0.127824 0.09236011 -0.13647228 0.036672518
0001b0 9e 53 05 bc 5e 79 e8 bd 0c a3 a1 3d 01 56 7f bd
       -0.008137612 -0.11351274 0.07892427 -0.06233788
0001c0 53 f8 23 bd 74 08 47 3d 50 8d 79 3c 36 cd 90 bd
       -0.040031742 0.048592046 0.015231445 -0.07070391
0001d0 7b ad 82 bd 8e f4 f3 3d 01 ac 1e be b1 25 47 3e
       -0.06380745 0.119118795 -0.15495302 0.19447972
0001e0 3c 29 01 3e 3c 49 ff bc 20 86 3f 3e 95 38 e9 bd
       0.12613386 -0.03116285 0.18703508 -0.11387745
0001f0 50 8b 7b 3d a0 9f 61 3d f7 fd e8 bd 0e c5 c8 3d
       0.061412156 0.05508387 -0.11376565 0.0980321
000200 9f 83 00 3e 73 93 3f bb 4e a6 c0 ba fc f1 79 3d
       0.1255021 -0.0029232174 -0.0014698 0.06102179
000210 50 0e 5a 3c 7e c3 80 bd f8 e6 b3 3d a0 c1 38 3c
       0.013309076 -0.06287287 0.08784288 0.011276633
000220 fa 97 ef bd 34 d4 25 3d 5e 1f 98 bd 91 75 fe 3d
       -0.11698909 0.040485576 -0.07427858 0.12424768
000230 80 a7 f9 bb 24 66 ea 3d 3a 68 35 3d 19 a9 ca 3d
       -0.0076188445 0.11445263 0.04428885 0.09895534
000240 6b 2b ac bc 84 b5 c9 bd 6e 66 83 bc 93 14 4a bc
       -0.021016797 -0.098490745 -0.016040053 -0.012334007
000250 da 83 33 bc fe 34 a8 bd 00 b7 8d 3d 04 c2 a4 3d
       -0.010956729 -0.082132325 0.0691967 0.08044818
000260 00 2a a7 39 0c 95 39 bd a6 38 1f 3c da f8 b6 3d
       0.00031884015 -0.045308158 0.009718096 0.089341834
000270 60 73 e6 bd f0 23 ae 3d 23 e3 72 bd 45 f7 58 3d
       -0.11252475 0.08502948 -0.059298646 0.05297019
000280 a0 79 0e bc 37 e2 09 bd d0 25 0a 3c 61 3c f2 bd
       -0.00869599 -0.033663 0.008431867 -0.118279226
000290 10 23 c2 3d 73 36 22 3e f9 c4 06 bd 20 97 53 3c
       0.09479344 0.15841083 -0.03290269 0.012914449
0002a0 3f 3c 17 3e a0 99 05 3c d2 24 44 3d 1b 2c e4 bc
       0.14769076 0.008154303 0.047886677 -0.027853062
0002b0 e8 e7 e5 3d 66 c6 e4 3d 88 3b 9a bd d1 73 47 3e
       0.11225873 0.11170654 -0.07530886 0.19477774
0002c0 77 b0 c2 bc f2 da 8d 3d 0c cb 36 bd fa 3a 9e 3c
       -0.023765786 0.06926526 -0.044627234 0.019315232
0002d0 1b 8c 17 3e b6 24 18 bc 9c 4c e6 bd 58 6e c6 3d
       0.1479954 -0.009286096 -0.11245081 0.09689015
0002e0 2b e0 74 3d 22 b1 28 bd 33 2c 30 3e 37 7e e7 3d
       0.059784096 -0.041184552 0.1720436 0.113033704
0002f0 f5 d7 16 bd 75 e3 e0 bc 08 27 23 3e b4 00 64 3c
       -0.036827046 -0.02745221 0.15932858 0.013916183
000300 8a 50 12 be 41 98 18 3d 8f 6b 45 3d a0 9e 4c bd
       -0.14288536 0.037254576 0.04819828 -0.049955964
000310 00 e6 e8 3b dd 04 05 3d a8 0e 0e 3e 30 60 39 bd
       0.0071074963 0.03247534 0.13872778 -0.045257747
000320 b9 34 37 3d 18 1a da 3c 34 1d 59 3d 64 e6 f0 3d
       0.044728015 0.02662377 0.053006366 0.117626935
000330 22 46 e2 3d 34 1d df bd 00 72 0c bd f8 b4 75 3d
       0.11048533 -0.10894242 -0.034288406 0.05998704
000340 a6 18 be 3c f1 52 8f 3b b9 cc 7a bd 19 d4 f2 bd
       0.023205113 0.004373901 -0.061230395 -0.11856861
000350 56 e0 0d be 59 72 38 bd cb 5c e2 3c e0 d4 a0 3d
       -0.13855109 -0.045030925 0.027632138 0.07853103
000360 bd 8c d3 bd b2 19 a7 bd 17 d9 53 bc 52 44 c8 bd
       -0.10329578 -0.08159198 -0.012930176 -0.09778656
000370 7d eb 90 3c 2d 59 23 3d 34 a0 e4 3b 83 c1 a8 3d
       0.017690415 0.039879967 0.0069771055 0.082400344
000380 bc 26 a9 bd c8 e3 b2 3d a8 46 ed bc 78 d7 23 be
       -0.08259341 0.08734852 -0.028964356 -0.16000164
000390 77 13 11 be 67 a9 21 3d fe 72 2c 3c 18 f8 24 3d
       -0.14167581 0.039468195 0.010525463 0.040275663
0003a0 56 00 7d bd 60 c0 f7 bb 2f e7 d4 bc 67 59 94 3d
       -0.0617679 -0.0075607747 -0.025989143 0.07243615
0003b0 a2 34 20 3e a0 19 bd 3c dd 9d 92 3d 76 a6 08 3e
       0.15645078 0.023083508 0.07159016 0.1334475
0003c0 70 3a 88 bd 88 eb d9 bc e6 a6 79 bd e1 68 26 bd
       -0.06651771 -0.026601568 -0.060950182 -0.040627364
0003d0 fc 3f c0 3d 16 29 01 bd d7 a1 c3 3c f6 89 01 3e
       0.09387204 -0.031533323 0.023880882 0.12650284
0003e0 34 37 b9 bc 61 dc ef 3d b3 0e 30 3e c0 78 3a 3d
       -0.02260933 0.11711956 0.17193107 0.045525312
0003f0 69 27 0a 3e a0 ef a5 3d 3a 47 40 3d 07 49 81 3c
       0.13491596 0.081023455 0.046942927 0.015781892

fc4.bias f4 [64]
000000 a6 ff f6 3d ee d5 37 bc e8 3c 6d 3d c3 46 95 bc
       0.1206048 -0.011220438 0.057919413 -0.018222218
000010 5a c1 a8 3c 8d 90 67 3d 02 47 75 3c b2 07 c8 3c
       0.02060001 0.05653434 0.014970543 0.024417732
000020 9f cc 19 3d 8c 36 17 bc 77 f0 a0 3d 1e 13 04 be
       0.037548658 -0.009229314 0.07858365 -0.12897918
000030 19 35 1c bd ea d2 a8 3d 54 cd e4 bd 3d 1a ba 3d
       -0.038136575 0.08243354 -0.11171976 0.09087036
000040 13 4d 51 bd 08 9e 8f bc c0 38 0a 3e b1 e6 7a 3d
       -0.051098894 -0.01753141 0.13498211 0.06125516
000050 48 24 19 bd e9 ea 88 bd da b8 58 3d 4b 30 60 bd
       -0.037388116 -0.066854306 0.052910663 -0.054733556
000060 1a 7f 86 bd aa f8 99 3d fa f4 74 3d b4 03 26 3d
       -0.065672114 0.07518132 0.05980394 0.040530875
000070 aa 9f 19 3e 5f 02 ff 3d 48 af 08 bd fc 8b 61 3d
       0.15002313 0.12451624 -0.033370286 0.05506514
000080 19 6f be 3d 46 8d 13 3c c3 d3 c2 3c b4 31 4b bd
       0.09298534 0.00900585 0.023782616 -0.049607947
000090 dd 6c 2d bd e3 69 e4 3d 44 b5 3d 3d c6 5a 07 bd
       -0.04234015 0.11153009 0.046315446 -0.033045553
0000a0 34 b3 14 3d a1 d6 ad 3d 34 31 09 3d de c6 0f bc
       0.036303714 0.08488203 0.03349419 -0.008775441
0000b0 3a 7e 19 3d 67 3b 18 3d b6 ab a8 bb b9 9a 9e 3d
       0.037473895 0.037166025 -0.0051474227 0.07744355
0000c0 78 23 ef bd fd d4 7c 3d 0a 97 dc bd 56 5b ad bd
       -0.11676687 0.06172656 -0.10770996 -0.084646866
0000d0 46 00 67 bd 5a 37 bd bd bd af 18 bd 50 01 8f bd
       -0.056396745 -0.09239073 -0.037276972 -0.06982672
0000e0 dd 1c 1b 3c cd 04 2b 3e 18 02 df 3d 9e 1b 96 3d
       0.009467331 0.1670105 0.10889071 0.07329486
0000f0 00 48 18 bd 92 ce 85 3d 47 34 a5 3d 45 44 12 3e
       -0.03717804 0.06533541 0.08066612 0.14283855

fc5.weight f4 [64, 64]
000000 28 24 e6 bc 11 e4 12 3d 18 cc af 3d 3a 33 8d bb
       -0.028093413 0.035862032 0.0858385 -0.004309085
000010 33 32 8e bd 84 b3 2d 3e 37 2b 38 3d e3 bc c1 bc
       -0.069431685 0.16963011 0.044963088 -0.023649639
000020 50 98 fa bd 94 79 0b bd c2 ac 43 bd 66 fd 68 3c
       -0.122360826 -0.034051493 -0.047772177 0.014220571
000030 70 d7 8d 3d 20 07 dd 3c fc fd 2b 3d d3 9b b6 3c
       0.06925857 0.026980937 0.041990265 0.0222911
000040 cf 70 8c bd 20 38 95 bb 1c 67 26 3e 27 c1 3a 3e
       -0.06857454 -0.0045538098 0.1625027 0.18237744
000050 52 61 d2 bd 3a 1d 6c bd 22 13 40 bc 01 52 f7 3d
       -0.102724686 -0.05764506 -0.011723312 0.12076188
000060 9d 16 98 3e 4d d0 67 bd c2 84 e4 3d 43 08 68 be
       0.29704753 -0.056595135 0.11158134 -0.22659402
000070 15 be ee 3d 03 9c 5b 3e 92 79 ea bd 52 ea 97 3c
       0.11657349 0.21446232 -0.11448969 0.01854435
000080 3a ef cf bd d7 3d 88 3c 77 a3 83 3d aa f4 9c bd
       -0.10153051 0.01663105 0.06427663 -0.076638535
000090 3c 51 d1 bd 83 7a e1 3b 57 a0 5f 3e 37 3a 8b bd
       -0.10220572 0.0068810596 0.21838509 -0.06798213
0000a0 f3 4e 19 3e 88 8c b4 3b 88 6f 56 3d ec 0a 71 be
       0.14971523 0.0055099167 0.05235246 -0.23539323
0000b0 fb 27 d6 bd 78 9f c4 bd f4 69 de ba c1 b2 74 3d
       -0.104568444 -0.09600729 -0.0016968832 0.059740786
0000c0 f8 d9 98 3c 83 40 16 3d 22 47 c8 3d 62 4b d0 3d
       0.018658623 0.036682617 0.097791925 0.10170628
0000d0 5e e8 77 bd fc 70 a1 3d 21 3b 31 3d f8 29 8c bc
       -0.060524337 0.07882878 0.04326928 -0.017109856
0000e0 0b d8 f4 3d b2 2e 00 bd cd 0b 2d bd 3f b2 fc 3c
       0.119552694 -0.031294532 -0.042247582 0.030846713
0000f0 a0 a4 4d 3d 1d 6c e0 3b f0 22 38 3d 46 2c 33 3e
       0.050205827 0.0068488256 0.044955194 0.17497358
000100 54 2b f2 bd 30 48 07 3d 6d ce 5d 3c 9e f2 a0 bd
       -0.118246704 0.033027828 0.013537985 -0.078587756
000110 4a 55 d0 bd 24 61 c1 3d 99 95 f2 3d 6f f2 bc bd
       -0.101725176 0.09442356 0.1184494 -0.09225928
000120 d8 05 44 bd d7 9e 01 be 68 a3 9c bd da 1c e7 bd
       -0.047857136 -0.12658249 -0.07648355 -0.112848
000130 34 f0 7e 3d cb 42 6d bd 88 d7 cc bd 66 06 79 3d
       0.062240794 -0.057925027 -0.10002047 0.060797118
000140 48 fa 19 3d 34 2c 31 bd 7f f6 9e ba e8 22 08 3d
       0.037592202 -0.043255046 -0.0012127905 0.033236414
000150 c0 5b fc bc cd 41 d7 bd 82 2d eb bc e0 84 f7 bd
       -0.030805469 -0.105105974 -0.028708223 -0.12085891
000160 5c ce a7 3d 34 3c a1 bd 9e 5d c6 bd b8 a2 24 bd
       0.08193657 -0.07872811 -0.09685825 -0.040194243
000170 17 40 80 bd 40 c6 b7 bd 14 56 8b 3d fc ec 4f 3c
       -0.06262224 -0.0897336 0.068035275 0.012690779
000180 68 4e 25 3d 96 f9 ee 3d b6 77 78 3c 80 e2 e7 bb
       0.040357977 0.116686985 0.01516526 -0.0070765615
000190 cd 27 94 3c b3 5b 93 bc d6 bc e4 3d c5 37 df bd
       0.018085385 -0.017988062 0.1116883 -0.10899309
0001a0 6c b6 bf 3d c0 4d fb bb 2d 57 02 be 04 7f 0d bd
       0.09360966 -0.0076691806 -0.12728567 -0.03454496
0001b0 f8 96 b7 3d 93 83 0e bd 70 27 bb 3b 89 8e 35 bd
       0.08964342 -0.034793448 0.0057114884 -0.044325385
0001c0 68 76 bd bd 9e 84 82 bd 24 27 41 3d 98 11 de 3c
       -0.092511 -0.06372951 0.047156468 0.027107999
0001d0 64 05 67 3d 98 40 4d bd e8 84 c1 bc e4 00 f9 bd
       0.056401625 -0.05011043 -0.023622945 -0.12158373
0001e0 22 59 c3 bd f7 95 1b bc b7 98 be bd 91 48 c1 bc
       -0.09538485 -0.009496204 -0.09306472 -0.023594173
0001f0 8a b2 80 3d 02 cd 72 3d d5 c7 44 bc 40 0b ed bc
       0.062840536 0.059277542 -0.012010534 -0.028936028
000200 af ef e6 bc be d9 a2 bd 96 6a 7b bd 5d 25 d8 bb
       -0.028190462 -0.07951687 -0.061380945 -0.006596251
000210 9e dd bd 3b 00 67 06 3d 21 68 ee bc aa 6e b0 bd
       0.005794241 0.032813072 -0.029102387 -0.086148575
000220 9c 86 19 3d 8a 19 da 3d 21 83 37 bc f8 c1 a0 bc
       0.03748189 0.106494024 -0.011200697 -0.019623742
000230 d0 b9 14 3d 9c dc a6 bd 30 9a 63 bd 48 f4 b6 3d
       0.036310017 -0.08147547 -0.055566967 0.08933312
000240 5e 85 ee bc 60 04 aa 3c b2 0e e6 bd c9 60 88 3d
       -0.029116329 0.02075404 -0.11233272 0.06659085
000250 7c e8 b1 bd d1 a6 14 bd 65 e7 ea bd f6 8e 9a 3d
       -0.08686921 -0.0362919 -0.11469916 0.07546799
000260 f0 f2 70 3d 98 c2 a4 39 2c 37 9f 3c d6 e2 89 bd
       0.058825433 0.000314255 0.019435488 -0.06732719
000270 df d0 1d bc 80 be ae 3d 5c a8 c0 bd bf ed 9d bd
       -0.009632318 0.08532429 -0.09407112 -0.07711362
000280 92 06 9d 3c 73 21 a1 bd 2a a3 7f bd c4 1e b9 3d
       0.019168172 -0.07867708 -0.062411465 0.09039071
000290 d3 e9 8c 3d e5 c2 c2 bd 3e f7 ba 3d 4f 22 a3 3d
       0.06880536 -0.095098294 0.09129189 0.07965528
0002a0 aa d7 26 3d 41 52 e7 3d 4b ca d9 3c bc 0a 7a bd
       0.040733017 0.112949856 0.026585719 -0.061045393
0002b0 a0 63 32 bd e5 e7 e3 3c 7e 17 d8 bd 6b cc ab bd
       -0.04355204 0.027820537 -0.10551356 -0.08388599
0002c0 38 ad cb bd 8c 8b bb bd 90 be ae 3d 20 19 29 3d
       -0.09945148 -0.09157476 0.08532441 0.041283727
0002d0 82 8d 3d bd 1c 55 64 bd 96 18 80 3d 64 2f 55 bd
       -0.04627753 -0.05574523 0.062546894 -0.05204715
0002e0 53 c1 d2 bd 19 e6 1b 3d d6 d7 8d bd e1 b4 d1 bd
       -0.1029078 0.038061235 -0.06925933 -0.10239578
0002f0 48 f9 ef 3c 57 2b 97 3d 0c d5 cc 3d fe ba d8 3c
       0.029293671 0.07381313 0.10001573 0.026456352
000300 45 13 70 3c c9 46 be 3d 26 65 93 3d d5 53 a3 bd
       0.014653032 0.09290845 0.07197027 -0.07974974
000310 ab af 0b bc f7 c9 41 3d 51 bc 4b bc 5d 09 82 bc
       -0.008525769 0.04731175 -0.012435035 -0.015873605
000320 2c cc 0e be 20 31 86 3b 39 e9 c7 3c c7 90 94 bd
       -0.13945073 0.0040952116 0.024403201 -0.072541766
000330 98 e3 46 bc dc d7 39 3d ba 24 86 bd 16 de d0 bd
       -0.0121392235 0.045371875 -0.06549974 -0.101986095
000340 96 ca 48 bd b0 82 b4 3c 95 4c 39 bd 4a 9f b9 3d
       -0.049021326 0.022034973 -0.04523905 0.09063585
000350 34 1d 41 bd 18 c3 52 3d eb b5 82 39 7e b1 44 3e
       -0.04714699 0.051455587 0.00024931072 0.19208333
000360 98 99 22 3b 29 9b 5a bd 44 6f ed bd 05 dd 09 3e
       0.0024810787 -0.05337063 -0.11593488 0.13463219
000370 97 4b 08 3d 97 02 81 bd d0 58 f6 3d 1c 92 ad 3d
       0.033275213 -0.06299322 0.120286584 0.08475134
000380 9d af f9 bc 4a 8b 99 3b c0 50 93 bc 40 78 9c bc
       -0.030479247 0.004685794 -0.01798284 -0.019100308
000390 cd 4b e3 bc 0d 2c bf 3d ab f6 df 3c 94 f6 27 3e
       -0.027746106 0.09334574 0.0273393 0.16402656
0003a0 a9 50 f3 3d 80 54 b3 bd 85 a2 0c bd 3c 1a 3d be
       0.11880619 -0.087563515 -0.03433468 -0.18467039
0003b0 1f e9 d5 bd 1e 93 a4 3d 4c af 72 bd 77 25 ee 3d
       -0.10444855 0.08035873 -0.059249207 0.116282396
0003c0 60 e4 3c bd 3b 3c 34 3e 82 d5 8a 3d bc c3 b8 3c
       -0.046116233 0.17601101 0.06779005 0.02255427
0003d0 f9 56 1f 3e 68 70 a4 bc 75 35 17 bd 10 b7 44 bc
       0.15560521 -0.02007313 -0.036916215 -0.012006536
0003e0 bd f7 0a 3e 7c 60 24 3e 1f fe 15 3e 31 a3 aa ba
       0.13571067 0.16052431 0.14647721 -0.0013018606
0003f0 04 96 c7 bd 67 ff b3 bc 8a c2 9e 3c 06 4b 76 bd
       -0.0974541 -0.021972371 0.019379873 -0.06013014

fc5.bias f4 [64]
000000 d4 37 0f 3e 5e bc d9 3d 2f e4 76 3d 47 fe 2a 3e
       0.1398614 0.10631631 0.060276207 0.16698562
000010 5a d4 c3 bd 66 2b e5 3b 5d f6 08 bd 4f 1c 47 3d
       -0.09561987 0.006993699 -0.033438075 0.04861098
000020 b3 87 9b 3d c6 a3 c4 3b c3 ad d5 bd 8c 09 48 bd
       0.07594242 0.0060009686 -0.10433533 -0.04883723
000030 41 7e e2 bc c0 29 7a 3b d2 78 08 3e 74 87 03 be
       -0.027648093 0.0038171858 0.1332734 -0.1284464
000040 60 97 c9 3d 58 6d ab bd 38 1d d1 bd 43 c8 0f 3e
       0.098433256 -0.08370465 -0.10210651 0.14041238
000050 cb 18 e0 bc a5 71 8d 3d 9d 7d e0 3d 7b fe 5a 3e
       -0.027355572 0.069064416 0.10961459 0.21386139
000060 5f 3e 3c 3d fd 12 d8 3c 32 47 c2 bd 4a 9c 16 be
       0.04595792 0.026376242 -0.09486236 -0.14708057
000070 52 0c 02 3e e1 f3 e7 ba 64 da 46 3d cb 0a cd 3d
       0.12700012 -0.0017696583 0.048548117 0.10011824
000080 73 43 13 3e 96 c3 a4 3c fc 3f 06 bd ea c6 8b bc
       0.14381199 0.020112794 -0.032775864 -0.017062623
000090 61 81 c6 bd 6c fd 9b bd a0 b3 28 3e f6 56 ca bd
       -0.09692646 -0.07616696 0.16474771 -0.09879868
0000a0 14 e4 eb bd 51 54 92 3d d2 75 b5 bd 86 9c 6e bd
       -0.11518112 0.07144988 -0.08860363 -0.05825474
0000b0 bd 98 bd 3d 2a 14 cd 3d 89 78 51 3e c0 04 ac 3d
       0.09257648 0.100136116 0.20456137 0.083993435
0000c0 76 2e db 3b fd 46 18 bd e4 8a a4 3d 5e cd 1e bd
       0.006688888 -0.037177075 0.08034304 -0.038770072
0000d0 b1 48 91 3d af 32 48 3c 03 9f 18 3e cd c2 42 bd
       0.07093943 0.012219115 0.14904408 -0.047549058
0000e0 26 7c 8f bc b8 bd f9 bc b8 15 a4 3d 19 ed b8 3d
       -0.017515253 -0.030485973 0.08011955 0.09029598
0000f0 71 86 ed bd 3e 65 93 3d 8c 12 0b bd 5c f1 20 3e
       -0.11597908 0.07197045 -0.033953235 0.15717071
