src/runs/ann_left_hand/20241105/20241105-1028/ann_left_hand_3_layers_best.pth (torch, 143302 bytes, 26 tensors)

network.0.weight f4 [63, 126]
-0.024984343 0.034991384 -0.011215141 0.119967744 0.012646919 0.0134341465 0.11614316 0.025326325
0.03049698 -0.033586137 -0.0032303624 0.07687763 0.05246054 0.0055440348 0.051622573 0.106894396
-0.010390549 0.025342692 0.0005783109 -0.05915548 -0.073232174 0.19626386 -0.004801289 -0.00021310635
-0.055820957 -0.071878284 0.08571111 -0.004269389 0.029066464 -0.0413692 0.04867531 0.035645135
0.06532234 -0.01869189 0.058503546 0.029659575 0.022728095 -0.034434874 0.14618541 0.027438834
0.043946713 0.002012088 -0.043778844 -0.018800175 0.13546193 0.048675667 0.013896501 0.016258609
-0.0017683629 0.063892365 0.052947037 0.007437462 -0.008188403 0.08210442 0.034126356 -0.036008023
0.04903578 -0.009641592 0.091456555 -0.05997316 0.0310347 0.028294925 0.038441274 -0.13138403
-0.10222309 0.0070978636 -0.01604699 0.0060552303 0.029722266 0.05693491 0.046408303 0.021339154
0.067580156 0.0043827156 0.19052339 0.136166 0.026378525 0.041491482 0.08470414 0.19596179
-0.066954546 -0.06150478 0.075538926 0.10120902 0.19813892 0.087055616 -0.025502747 -0.068472914
-0.032582752 0.03727784 0.018225353 -0.018673886 -0.016274173 0.0840152 0.012652879 0.0011015728
-0.097125955 0.073208585 -0.039945804 -0.08035394 -0.12829785 0.0925889 -0.04107857 0.081743345
-0.032570634 0.081935376 0.08419029 0.07180791 0.046744555 0.03295332 0.015419147 0.0033645113
0.018837402 0.048607904 -0.054072488 -0.033137713 -0.028228385 -0.05314082 -0.0006731515 -0.07717491
-0.037571907 -0.115215324 0.040510956 0.13971433 -0.034550585 -0.07837672 -0.08967621 0.04267446
0.10718505 0.23146664 0.14698164 0.0020583975 0.033530835 -0.06658075 0.056137744 0.021437807
0.047340233 -0.023503508 -0.09644853 -0.08055844 0.021271903 -0.09992254 -0.057542507 -0.13785584
-0.088489406 -0.118583456 -0.18884031 0.043130547 0.09437273 0.034005467 0.05423583 -0.010456526
0.017209906 0.055048775 -0.031068 0.0222545 0.044798713 -0.0049573807 -0.047512215 0.008486343
-0.0782492 -0.0414955 0.017362792 -0.00950229 -0.031127516 0.030670539 0.04563039 -0.028070247
0.18971303 0.0063163214 -0.1035514 -0.13343555 -0.04556742 -0.034313265 -0.0032871147 0.0058316234
-0.010124816 0.06717519 -0.04186944 -0.075560465 0.013683666 0.019243373 0.021536654 -0.079755366
0.0070836544 0.074012935 0.046929818 -0.08486271 0.013550701 -0.15908341 -0.0076853717 0.1086248
0.16497394 0.1803342 -0.057262354 0.004920627 0.01971005 0.103702486 0.03514968 0.048458833
0.048618913 0.030468559 0.015073149 0.06410449 0.056462612 0.041061226 -0.025689343 -0.03882924
0.013043403 0.018928953 -0.1597777 -0.021085236 -0.013641602 0.05723365 0.07432802 -0.039381243
0.02825592 0.013532105 0.026562134 0.010469841 0.040106982 -0.01727954 -0.040131144 0.008092642
0.051199384 -0.019424113 -0.035333075 -0.07868088 0.07721864 0.016030248 -0.018482411 0.20467022
0.06334507 -0.12852816 -0.08299537 -0.067834966 0.013928844 0.02463361 -0.010898789 -0.022607496
-0.037968505 -0.06447199 0.016668703 -0.005838085 0.07147848 -0.03331427 0.016106777 -0.0007863133
0.02415935 0.0022623555 0.047563642 -0.01619578 0.040995713 -0.08022976 -0.15882324 0.0818126
00000000: f7ab ccbc 2053 0f3d b6bf 37bc a6b1 f53d
00000010: 0635 4f3c e51a 5c3c 77dc ed3d 2779 cf3c
00000020: cdd4 f93c 9e91 09bd 7db4 53bb 0572 9d3d
00000030: dde0 563d bcaa b53b 3172 533d 73eb da3d
00000040: 1f3d 2abc 7a9b cf3c ca99 173a 044d 72bd
00000050: c0fa 95bd 65f9 483e 2254 9dbb 4d75 5fb9
00000060: 84a4 64bd ec34 93bd 4e89 af3d 3be6 8bbb
00000070: cb1c ee3c c072 29bd c35f 473d a200 123d
00000080: b8c7 853d bc1f 99bc 6aa1 6f3d a3f8 f23c
00000090: 4530 ba3c 950b 0dbd a1b1 153e 68c7 e03c
000000a0: 7801 343d 3cdd 033b 7251 33bd d302 9abc
000000b0: 88b6 0a3e 2360 473d 26ae 633c c630 853c
000000c0: 6ac8 e7ba 00da 823d fede 583d f4b5 f33b
000000d0: a728 06bc 5d26 a83d 14c8 0b3d 267d 13bd
000000e0: bed9 483d c5f7 1dbc 934d bb3d 6ba6 75bd
000000f0: 7c3c fe3c c2ca e73c 9974 1d3d 8989 06be
00000100: 575a d1bd 3295 e83b fa74 83bc f46a c63b
00000110: 1c7c f33c 9534 693d a216 3e3d 73cf ae3c
00000120: 7767 8a3d e29c 8f3b 9018 433e 1a6f 0b3e
00000130: c717 d83c f9f2 293d 5d79 ad3d 35aa 483e
00000140: 771f 89bd 70ec 7bbd 27b4 9a3d ad46 cf3d
00000150: eee4 4a3e 374a b23d 23eb d0bc 873b 8cbd
00000160: 7e75 05bd a6b0 183d 564d 953c faf9 98bc
00000170: 6a51 85bc 2910 ac3d 054e 4f3c a662 903a
00000180: f9e9 c6bd 62ee 953d 369e 23bd 9b90 a4bd
00000190: 8360 03be 409f bd3d 0142 28bd 0e69 a73d
000001a0: c968 05bd bccd a73d f56b ac3d 0710 933d
000001b0: 3877 3f3d 0ffa 063d 97a0 7c3c 227f 5c3b
000001c0: e550 9a3c 1519 473d 1d7b 5dbd 69bb 07bd
000001d0: 373f e7bc 30aa 59bd 6f76 30ba e10d 9ebd
000001e0: 00e5 19bd 03f6 ebbd d1ee 253d 4611 0f3e
000001f0: ea84 0dbd f983 a0bd 29a8 b7bd 6acb 2e3d
00000200: d683 db3d 9705 6d3e 5b82 163e 2ee6 063b
00000210: a157 093d 7d5b 88bd b1f0 653d 579e af3c
00000220: d5e7 413d 6e8a c0bc cf86 c5bd d3fb a4bd
00000230: 6a42 ae3c 30a4 ccbd b1b1 6bbd 152a 0dbe
00000240: ef39 b5bd e2db f2bd 5b5f 41be a8a9 303d
00000250: 7d46 c13d 5149 0b3d 6426 5e3d d951 2bbc
00000260: cafb 8c3c d37a 613d 5182 febc 124f b63c
00000270: db7e 373d 8671 a2bb 2b9c 42bd 4d0a 0b3c
00000280: 1e41 a0bd 2ff7 29bd 6a3c 8e3c 7eaf 1bbc
00000290: 22ff febc c840 fb3c efe6 3a3d 93f3 e5bc
000002a0: 2244 423e 25f9 ce3b c212 d4bd 54a3 08be
000002b0: e7a4 3abd 118c 0cbd a26c 57bb 3417 bf3b
000002c0: 8ee2 25bc 2593 893d 4a7f 2bbd 72bf 9abd
000002d0: 7431 603c 47a4 9d3c a36d b03c c856 a3bd
000002e0: 001e e83b 1894 973d 7b39 403d 80cc adbd
000002f0: c203 5e3c c3e6 22be 92d5 fbbb ae76 de3d
00000300: eeee 283e 87a9 383e ee8b 6abd 363d a13b
00000310: f976 a13c f861 d43d 1cf9 0f3d c57c 463d
00000320: a024 473d 3399 f93c 5ff5 763c 3749 833d
00000330: 5745 673d d12f 283d 7572 d2bc 690b 1fbd
00000340: ffb3 553c e410 9b3c c49c 23be f2ba acbc
00000350: 0781 5fbc d56d 6a3d 4a39 983d 3a4e 21bd
00000360: f678 e73c c3b5 5d3c d598 d93c b289 2b3c
00000370: 3847 243d d28d 8dbc 8e60 24bd 0097 043c
00000380: 72b6 513d 511f 9fbc 6ab9 10bd 7123 a1bd
00000390: ce24 9e3d de51 833c 6d68 97bc 1295 513e
000003a0: 0fbb 813d e39c 03be 7af9 a9bd 0fed 8abd
000003b0: ce35 643c 6dcc c93c d690 32bc 5b33 b9bc
000003c0: dd84 1bbd e409 84bd ce8c 883c 684d bfbb
000003d0: 4f63 923d 8b74 08bd 5cf2 833c 9820 4eba
000003e0: d4e9 c53c 0744 143b 18d2 423d 03ad 84bc
000003f0: 1feb 273d 804f a4bd 8fa2 22be 5d8d a73d

network.0.bias f4 [63]
0.33538917 0.29371753 0.48516232 0.4597904 0.44385597 0.336553 0.5980275 0.5676701
0.4419087 0.3621842 0.5721866 0.45512 0.3030994 0.5475835 0.5000845 0.30668303
0.50056434 0.46539474 0.49341938 0.35947686 0.5010979 0.4683968 0.50025827 0.40954158
0.46006227 0.36899465 0.6025604 0.5450897 0.5323584 0.43150857 0.42119047 0.29765084
0.37364206 0.4095822 0.49016243 0.5016809 0.41089126 0.44269603 0.3986234 0.36298156
0.6290037 0.5835717 0.6265989 0.3444685 0.62137395 0.43939352 0.52907115 0.4522187
0.5297157 0.48679128 0.5010436 0.5636169 0.4442198 0.5156405 0.41918507 0.44557354
0.51529783 0.5116254 0.40215307 0.5058129 0.16202547 0.56451607 0.46795475
00000000: 21b8 ab3e 2562 963e 3267 f83e a669 eb3e
00000010: 1741 e33e ad50 ac3e 5518 193f d452 113f
00000020: db41 e23e 3570 b93e d27a 123f 7d05 e93e
00000030: d82f 9b3e 6f2e 0c3f 8a05 003f 8f05 9d3e
00000040: fc24 003f 3848 ee3e 77a1 fc3e 5a0d b83e
00000050: f447 003f b5d1 ef3e ed10 003f 6faf d13e
00000060: 488d eb3e deec bc3e 6641 1a3f 008b 0b3f
00000070: a448 083f b1ee dc3e 47a6 d73e b165 983e
00000080: 034e bf3e c2b4 d13e 92f6 fa3e 296e 003f
00000090: 5760 d23e 0ea9 e23e 5e18 cc3e b8d8 b93e
000000a0: 6306 213f f464 153f c968 203f 2d5e b03e
000000b0: 5d12 1f3f 30f8 e03e 3571 073f 3689 e73e
000000c0: 739b 073f b53c f93e 6544 003f 3249 103f
000000d0: c770 e33e 0401 043f 6d9f d63e 3722 e43e
000000e0: 8fea 033f e2f9 023f 02e7 cd3e f47c 013f
000000f0: 01ea 253e 2084 103f c497 ef3e

network.1.running_mean f4 [63]
0.9474992 0.41311345 1.1621953 -0.8283243 -0.17874847 1.1930647 -0.45258015 0.2794614
-0.10712702 1.0627158 -0.35741687 0.54648185 0.36276543 1.1182956 1.299477 0.8159947
0.9640792 0.5998361 0.94368875 -0.63016135 1.3837905 1.4696267 1.220439 -0.01271514
0.014941719 0.41893938 -0.21460214 0.4599801 0.5816777 0.65511864 0.7878788 0.08709741
1.2564712 0.5406714 1.4936956 0.4269349 0.23213758 0.43549293 0.70930505 0.73489815
-0.046840727 -0.31439787 0.6002874 1.0521299 0.60967284 0.12634778 1.287886 1.5307939
1.048718 0.020902483 0.012088745 -0.40840873 -0.59144837 0.7662881 0.062270846 0.7076605
0.010005902 0.3672067 0.54086614 0.62373054 1.3082894 -0.46641028 -0.8605081
00000000: 4f8f 723f 9b83 d33e d1c2 943f 100d 54bf
00000010: d709 37be 58b6 983f 96b8 e7be 9115 8f3e
00000020: 6965 dbbd 1207 883f 58ff b6be 3ce6 0b3f
00000030: 64bc b93e 4f24 8f3f 4355 a63f 07e5 503f
00000040: e5cd 763f dc8e 193f 9695 713f 4152 21bf
00000050: 0c20 b13f ba1c bc3f 5837 9c3f 2a53 50bc
00000060: 1dce 743c 397f d63e aac0 5bbe 8382 eb3e
00000070: d4e8 143f dbb5 273f 6db2 493f 2060 b23d
00000080: 0cd4 a03f 7169 0a3f 6b31 bf3f 3697 da3e
00000090: 79b5 6d3e eef8 de3e 0495 353f 4922 3c3f
000000a0: 10dc 3fbd c2f8 a0be 6fac 193f 31ac 863f
000000b0: 8513 1c3f 5061 013e 73d9 a43f 0ef1 c33f
000000c0: 643c 863f af3b ab3c df0f 463c f31a d1be
000000d0: 2969 17bf 752b 443f b70f 7f3d 3d29 353f
000000e0: cbef 233c 8402 bc3e 3476 0a3f ceac 1f3f
000000f0: 0776 a73f 54cd eebe 424a 5cbf

network.1.running_var f4 [63]
0.0028154016 0.0013922093 0.0032585987 0.005529903 0.0034410753 0.0029099337 0.0033152006 0.0017654613
0.0020105795 0.005668569 0.0022851836 0.0023005109 0.0017066316 0.0031940734 0.0049521234 0.0014141728
0.0023857423 0.0020743173 0.003964791 0.0019263969 0.006916084 0.0025984386 0.004167472 0.002243852
0.0015235225 0.0019658173 0.0026271623 0.0023918077 0.0067798425 0.0018975686 0.002241018 0.002355144
0.004650669 0.002315693 0.004310991 0.00413646 0.0051496434 0.0043420857 0.0025667427 0.001200009
0.00092538464 0.0026712206 0.005900079 0.0013265468 0.00213684 0.0038723464 0.001929626 0.0051675765
0.0028559256 0.0035079096 0.001422513 0.0027579074 0.0060662627 0.0027501108 0.0028699995 0.0015478946
0.002921399 0.0022936654 0.0014229816 0.0025496583 0.0030486872 0.0058273743 0.005572106
00000000: 9a82 383b cb7a b63a 378e 553b 3034 b53b
00000010: aa83 613b 96b4 3e3b d643 593b 0d67 e73a
00000020: edc3 033b 67bf b93b 05c3 153b 2bc4 163b
00000030: 0eb1 df3a a953 513b 6c45 a23b c45b b93a
00000040: 1d5a 1c3b 45f1 073b 14eb 813b 277f fc3a
00000050: 51a0 e23b 914a 2a3b 4a8f 883b 970d 133b
00000060: efb0 c73a f1d4 003b 782c 2c3b e0bf 1c3b
00000070: 7129 de3b d6b7 f83a 0bde 123b c258 1a3b
00000080: a464 983b e2c2 173b 3743 8d3b 248b 873b
00000090: 57be a83b 0e48 8e3b cc36 283b 9f49 9d3a
000000a0: 8395 723a a50f 2f3b 7355 c13b 86df ad3a
000000b0: 3a0a 0c3b 31c7 7d3b 81eb fc3a c654 a93b
000000c0: 7b2a 3b3b f5e4 653b 9e73 ba3a 02be 343b
000000d0: 80c7 c63b 343b 343b 9a16 3c3b b9e2 ca3a
000000e0: f174 3f3b 5251 163b 5783 ba3a 2b18 273b
000000f0: 7ccc 473b 8ff3 be3b 3796 b63b

network.3.weight f4 [63, 63]
-0.041164577 0.057091452 -0.18002069 -0.045326363 0.06860971 -0.08838083 -0.09133848 -0.037468158
-0.022722267 -0.0117748985 0.0020216468 0.12712407 -0.07930999 -0.13380119 0.039223727 0.009889189
0.0037432355 0.11755475 -0.020676376 0.14805913 0.026516046 -0.06407333 0.16808446 0.11533583
-0.14742146 0.04231021 -0.116318144 0.046911545 -0.19374412 0.06903998 0.059033122 0.10089245
-0.058289714 -0.0016823009 0.049392514 -0.041806012 0.00050009205 0.036774423 0.03479637 0.11072462
-0.1386561 -0.062097095 -0.13049453 -0.0057826857 0.13254343 -0.018899672 -0.024411028 0.053673606
-0.007732619 -0.04767435 -0.006425489 -0.039869305 -0.038693327 -0.23665935 -0.15737307 0.16905677
0.08009055 -0.10527212 0.05919858 -0.05834449 -0.06492028 -0.057702884 0.0396158 0.020612536
0.013199998 -0.007819962 -0.17561525 0.0054734717 -0.15510835 -0.09892296 -0.040604405 0.02923175
0.041218214 -0.06292494 -0.16869259 -0.0045215813 -0.094524905 0.040851057 -0.00063808844 0.1820621
0.061179243 0.13524474 0.014041227 0.13876195 -0.115786955 -0.031659488 0.11021981 0.10921321
-0.051131893 0.03683353 0.020370798 -0.045895953 -0.068124995 -0.13022579 0.0013372046 -0.060047686
0.0057411217 -0.19596736 -0.08767871 -0.028365934 -0.025288865 0.017253513 0.06957433 0.06285644
0.12059998 -0.38193467 -0.0026690008 0.10587236 0.18083513 -0.012937068 0.02307886 0.081765994
-0.15093596 -0.0070022456 -0.0926944 -0.08439694 -0.05166981 0.0436762 -0.0386415 0.015036445
-0.15445915 -0.014979663 -0.015592972 -0.045553666 -0.106398955 0.11809242 -0.065473385 -0.054536812
-0.0024205851 -0.0050357874 -0.054322146 -0.036490086 -0.07271292 -0.056625906 -0.07410965 0.08160323
-0.0026674366 0.02141596 0.09452996 -0.0014819016 -0.006575986 0.0025669022 -0.1467216 -0.110964574
-0.014630772 -0.1386676 -0.121153556 -0.0039649927 -0.18240897 0.15812656 0.05034641 0.04560365
-0.04600864 -0.036808815 0.17198455 0.06377889 -0.06564929 -0.1651044 -0.11511939 -0.025018932
-0.053979743 -0.12557241 -0.02041648 -0.027394725 -0.13713227 0.08446255 0.044059813 -0.005469728
-0.16275692 -0.06730214 0.0029079653 -0.096315876 -0.19521949 -0.007680217 0.06375451 -0.02299823
-0.025181452 -0.091137856 -0.066223085 -0.047400538 0.051457476 -0.08474211 -0.005336271 -0.002890625
-0.14600435 0.12003181 0.118932635 0.057115346 0.12687492 -0.0037075337 -0.13994536 0.095031984
-0.117905386 0.07303245 0.005129791 0.08465074 0.06029436 -0.12535888 0.03375935 0.12069244
0.06311831 0.1156177 0.12560979 -0.123113416 -0.14155622 -0.024034206 0.015915629 -0.0926482
0.08950628 0.12138854 0.17430077 -0.018403945 -0.08709109 0.048067182 -0.06353922 -0.010353166
-0.07094003 0.074640945 0.0789082 -0.046674017 0.06876067 0.062496327 0.022501262 0.07374195
-0.058215383 -0.08895982 0.028525783 -0.24167469 -0.14159517 -0.011349783 -0.07273189 0.14077169
-0.0021088012 -0.010244367 0.006918696 -0.049214896 0.107659616 -0.03756979 -0.20357454 0.07471659
-0.043120187 0.009893443 0.099030726 -0.17300843 -0.004117813 0.048155747 0.012037516 -0.09343386
-0.055683907 0.019568643 0.007784691 -0.114765316 0.012343021 -0.08211211 -0.029044779 -0.039029133
00000000: 309c 28bd bad8 693d 5857 38be 23a8 39bd
00000010: 3f83 8c3d 0201 b5bd ab0f bbbd 3678 19bd
00000020: 0c24 babc 81eb 40bc 9b7d 043b d02c 023e
00000030: 476d a2bd 2e03 09be 0fa9 203d 4406 223c
00000040: 1251 753b 8bc0 f03d 8161 a9bc d09c 173e
00000050: 2e38 d93c e138 83bd 551e 2c3e 3135 ec3d
00000060: a7f5 16be 794d 2d3d 3538 eebd 5226 403d
00000070: dc64 46be d564 8d3d b7cc 713d b3a0 ce3d
00000080: 32c1 6ebd a780 dcba ce4f 4a3d c83c 2bbd
00000090: 9c18 033a c7a0 163d a386 0e3d 97c3 e23d
000000a0: ddfb 0dbe 8659 7ebd 5ca0 05be af7c bdbb
000000b0: 77b9 073e 7cd3 9abc a3f9 c7bc dbd8 5b3d
000000c0: e961 fdbb 2e46 43bd e98c d2bb ff4d 23bd
000000d0: e57c 1ebd d456 72be 6826 21be 381d 2d3e
000000e0: 8406 a43d e998 d7bd 367a 723d a2fa 6ebd
000000f0: ecf4 84bd dc59 6cbd 2d44 223d 9fdb a83c
00000100: ce44 583c 4c1f 00bc 7cd4 33be cf5a b33b
00000110: b9d4 1ebe 1f98 cabd ce50 26bd 6c77 ef3c
00000120: 6ed4 283d cade 80bd c0bd 2cbe c629 94bb
00000130: 4696 c1bd 7053 273d 6445 27ba 7d6e 3a3e
00000140: 1697 7a3d 997d 0a3e 2d0d 663c 9d17 0e3e
00000150: b621 edbd 61ad 01bd ecba e13d 2dab df3d
00000160: ad6f 51bd c1de 163d a9e0 a63c 65fd 3bbd
00000170: 1e85 8bbd e959 05be 2445 af3a 90f4 75bd
00000180: 0520 bc3b abab 48be e590 b3bd ad5f e8bc
00000190: 982a cfbc 3d57 8d3c fc7c 8e3d e1ba 803d
000001a0: 1ffd f63d f18c c3be 67ea 2ebb 9cd3 d83d
000001b0: d82c 393e fff5 53bc e10f bd3c ee74 a73d
000001c0: f58e 1abe 1873 e5bb 90d6 bdbd 4ed8 acbd
000001d0: b9a3 53bd d1e5 323d 8d46 1ebd 6c5b 763c
000001e0: 8a2a 1ebe 436d 75bc aa79 7fbc 7b96 3abd
000001f0: b2e7 d9bd 70da f13d e916 86bd fe61 5fbd
00000200: aea2 1ebb 3f03 a5bb e680 5ebd a176 15bd
00000210: 83ea 94bd 91f0 67bd cdc6 97bd 981f a73d
00000220: 29d0 2ebb 8670 af3c ec98 c13d 5e3c c2ba
00000230: 5e7b d7bb 7939 283b 303e 16be 6541 e3bd
00000240: e8b5 6fbc e1fe 0dbe 5b1f f8bd c5ec 81bb
00000250: 6bc9 3abe eeeb 213e 0a38 4e3d e5ca 3a3d
00000260: 8e73 3cbd d7c4 16bd b81c 303e 829e 823d
00000270: 2373 86bd 2111 29be b7c3 ebbd 81f4 ccbc
00000280: dd19 5dbd 0e96 00be 7640 a7bc e76a e0bc
00000290: 676c 0cbe b4fa ac3d 1078 343d 673b b3bb
000002a0: c0a9 26be b4d5 89bd 9093 3e3b 4241 c5bd
000002b0: 9ee7 47be 54aa fbbb b991 823d c966 bcbc
000002c0: 5549 cebc 7ca6 babd f89f 87bd 1127 42bd
000002d0: 13c5 523d 458d adbd e3db aebb a470 3dbb
000002e0: 2a82 15be 3dd3 f53d f492 f33d c8f1 693d
000002f0: 80eb 013e 18fa 72bb d64d 0fbe 21a0 c23d
00000300: 6178 f1bd 0a92 953d ce17 a83b 5e5d ad3d
00000310: 38f7 763d 145e 00be 3f47 0a3d 992d f73d
00000320: 2c44 813d f9c8 ec3d da9f 003e e322 fcbd
00000330: 1df4 10be 62e3 c4bc 7e61 823c 57be bdbd
00000340: 124f b73d 8e9a f83d e77b 323e dfc3 96bc
00000350: d05c b2bd 18e2 443d da20 82bd 53a0 29bc
00000360: 0249 91bd 5add 983d 9f9a a13d 412d 3fbd
00000370: 65d2 8c3d 26fc 7f3d 9154 b83c 0506 973d
00000380: 4173 6ebd 9130 b6bd e7ae e93c 9279 77be
00000390: 53fe 10be 71f4 39bc 75f4 94bd 7426 103e
000003a0: d033 0abb fdd7 27bc 3bb6 e23b 8f95 49bd
000003b0: a57c dc3d c8e2 19bd d875 50be 0305 993d
000003c0: cb9e 30bd 1c18 223c 9fd0 ca3d 1f29 31be
000003d0: b8ee 86bb f63e 453d 0039 453c 405a bfbd
000003e0: cf14 64bd 6b4e a03c b916 ff3b 140a ebbd
000003f0: 623a 4a3c 652a a8bd 51ef edbc 03dd 1fbd

network.3.bias f4 [63]
0.5019906 0.49956426 0.48977435 0.5061681 0.48997617 0.49036336 0.4914856 0.5117971
0.49787343 0.5043447 0.48895752 0.49553153 0.49782604 0.50413495 0.5071121 0.49700546
0.503556 0.50331306 0.49442568 0.4851744 0.5050338 0.4986218 0.4941865 0.4987965
0.50253516 0.50036305 0.5087764 0.49797344 0.5057899 0.50049055 0.47437176 0.49581712
0.49630713 0.4984132 0.50463104 0.49679598 0.4970048 0.49839965 0.4987055 0.4958868
0.4978908 0.5011034 0.49708307 0.49796575 0.49851334 0.48953104 0.4918911 0.49236172
0.49087563 0.5032745 0.57757795 0.49851623 0.5123853 0.49739334 0.48982975 0.51065177
0.49584502 0.4843945 0.48592916 0.51484495 0.49413738 0.4912583 0.47827628
00000000: 7582 003f e3c6 ff3e b4c3 fa3e 3c94 013f
00000010: 28de fa3e e810 fb3e 00a4 fb3e 2205 033f
00000020: 44e9 fe3e bc1c 013f a458 fa3e 4fb6 fd3e
00000030: 0ee3 fe3e fd0e 013f 19d2 013f 8077 fe3e
00000040: 0ce9 003f 20d9 003f 5d25 fd3e c768 f83e
00000050: e549 013f 5b4b ff3e 0306 fd3e 4162 ff3e
00000060: 25a6 003f cb17 003f 2c3f 023f 60f6 fe3e
00000070: 727b 013f 2620 003f dbe0 f23e bedb fd3e
00000080: f81b fe3e 0430 ff3e 802f 013f 0b5c fe3e
00000090: 6a77 fe3e 3d2e ff3e 5456 ff3e e0e4 fd3e
000000a0: 8beb fe3e 5048 003f ac81 fe3e 5ef5 fe3e
000000b0: 243d ff3e d0a3 fa3e 26d9 fb3e d616 fc3e
000000c0: 0d54 fb3e 99d6 003f 26dc 133f 853d ff3e
000000d0: af2b 033f 57aa fe3e f7ca fa3e 13ba 023f
000000e0: 66df fd3e 8e02 f83e b5cb f83e e1cc 033f
000000f0: 93ff fc3e 3586 fb3e a1e0 f43e

network.4.running_mean f4 [63]
0.37051454 0.30621374 0.20203139 0.44492954 0.32803375 0.41813177 0.5505066 0.6610453
0.27602813 0.43193206 0.4524432 0.34111726 0.43896538 0.7002357 0.49096233 0.43811005
0.5648939 0.65383786 0.2615691 0.23709764 0.31139752 0.38544282 0.45325753 0.63836443
0.40809754 0.41031954 0.67501646 0.37655246 0.43327165 0.32153213 0.40097874 0.27795124
0.6047732 0.68994814 0.4270911 0.5070088 0.40087688 0.22976126 0.467829 0.17583583
0.4867894 0.36428073 0.59244 0.43615574 0.31350344 0.47898066 0.38559112 0.35649535
0.65303755 0.6865693 0.69971544 0.28552866 0.62360376 0.37213114 0.32880813 0.6302339
0.21852975 0.41300812 0.38885316 0.5142622 0.53409743 0.23711544 0.31500143
00000000: 15b4 bd3e 0cc8 9c3e 51e1 4e3e cecd e33e
00000010: 0af4 a73e 5e15 d63e 00ee 0c3f 443a 293f
00000020: 8f53 8d3e 3326 dd3e a3a6 e73e eca6 ae3e
00000030: 12c0 e03e a642 333f 6a5f fb3e f64f e03e
00000040: e39c 103f eb61 273f 63ec 853e b9c9 723e
00000050: 7f6f 9f3e c358 c53e 5f11 e83e da6b 233f
00000060: 29f2 d03e 6715 d23e e1cd 2c3f 7ccb c03e
00000070: c8d5 dd3e dc9f a43e 164d cd3e a04f 8e3e
00000080: 6bd2 1a3f 71a0 303f afab da3e 54cb 013f
00000090: bc3f cd3e 8946 6b3e 4887 ef3e 4f0e 343e
000000a0: 763c f93e 0183 ba3e 26aa 173f ce4f df3e
000000b0: 8683 a03e f43c f53e 336c c53e 8f86 b63e
000000c0: 782d 273f 01c3 2f3f 8d20 333f d030 923e
000000d0: 7fa4 1f3f f987 be3e 8a59 a83e 0257 213f
000000e0: 43c6 5f3e cd75 d33e c317 c73e b0a6 033f
000000f0: 9cba 083f 64ce 723e de47 a13e

network.4.running_var f4 [63]
0.13844806 0.08665959 0.095451646 0.09553854 0.11621617 0.07641463 0.24441573 0.13507439
0.10438543 0.16492143 0.20825395 0.09810931 0.087370746 0.14460877 0.09276257 0.1501037
0.083458334 0.16398594 0.23435305 0.09947346 0.09679921 0.11905554 0.23835467 0.20619245
0.06615222 0.2598354 0.36839172 0.16806851 0.11650976 0.3332748 0.054516234 0.16125467
0.07202661 0.15156463 0.087194644 0.22436827 0.041371595 0.17811792 0.14469317 0.12232089
0.13736908 0.1276459 0.22369552 0.059037317 0.16693589 0.07333685 0.060396127 0.08603429
0.08646009 0.15953192 0.41474208 0.1457886 0.10226616 0.050983585 0.029138703 0.09217222
0.29191238 0.05248806 0.105989546 0.05309515 0.40551317 0.09464559 0.06628974
00000000: 54c5 0d3e 957a b13d 277c c33d b6a9 c33d
00000010: be02 ee3d 467f 9c3d 1e48 7a3e f150 0a3e
00000020: 07c8 d53d 2ae1 283e 8640 553e 89ed c83d
00000030: 6fef b23d 5214 143e 4dfa bd3d c9b4 193e
00000040: 34ec aa3d eeeb 273e 3ffa 6f3e beb8 cb3d
00000050: aa3e c63d 64d3 f33d 3f13 743e 1d24 533e
00000060: d17a 873d 2509 853e d79d bc3e 271a 2c3e
00000070: ab9c ee3d ffa2 aa3e 6a4c 5f3d f21f 253e
00000080: b082 933d c233 1b3e 1b93 b23d ccc0 653e
00000090: 4375 293d 8b64 363e 722a 143e 6083 fa3d
000000a0: 7baa 0c3e 9bb5 023e 7010 653e 1dd1 713d
000000b0: 3ef1 2a3e a131 963d ee61 773d bf32 b03d
000000c0: fd11 b13d 565c 233e 1359 d43e 9b49 153e
000000d0: ec70 d13d 2ad4 503d 4ab4 ee3c cac4 bc3d
000000e0: 8a75 953e b8fd 563d 0c11 d93d 4d7a 593d
000000f0: 6c9f cf3e 8cd5 c13d eac2 873d

network.6.weight f4 [63, 63]
0.051472623 0.061036017 -0.027252162 0.016093848 -0.063814834 -0.10937397 0.0051729516 -0.03574657
0.1510341 0.012480382 -0.00019193409 0.050947662 -0.054141328 -0.13808441 0.057607353 -0.12802269
0.059403915 0.04914408 -0.032916494 -0.053258184 -0.04224742 -0.081447475 -0.09630144 -0.17354806
0.044578444 -0.03267395 -0.011806031 -0.21311623 0.0044766744 0.11926619 -0.18050767 0.109727554
-0.039073307 0.063133955 -0.004542647 0.09428409 -0.07788796 0.12019587 0.00031993797 0.10318264
-0.03423665 0.046393726 -0.0711972 -0.065586366 0.06263048 -0.007806203 -0.010359876 -0.094684586
0.0093444185 0.016778171 -0.1294473 -0.041506283 -0.057668418 -0.03616273 -0.07964069 -0.184499
-0.012331803 0.020137088 -0.1437452 -0.05876853 -0.026482997 -0.13007884 -0.008451057 0.097058795
-0.02436044 -0.010852789 0.09367126 -0.006137969 0.15190107 0.07691559 -0.008060923 0.20162305
-0.07559761 -0.0050698896 0.13199438 -0.018613935 0.10273759 -0.08967129 -0.026078787 0.0059209378
-0.095232464 0.05344761 0.020254152 -0.02479203 0.26765522 -0.046504118 0.028285654 -0.011703359
0.04259201 0.025494765 0.09850899 0.08280515 0.046171773 -0.04725129 -0.15702021 -0.034755092
-0.08552207 -0.10566908 -0.045781445 0.026294863 -0.08953262 0.08767796 0.12799391 0.021570645
-0.008973994 -0.01343951 -0.010705189 0.010750064 -0.09031606 0.01598968 0.1195747 -0.10074888
0.11655069 0.14000663 -0.12506713 0.019793559 0.063803256 0.03154423 -0.022854155 -0.110876426
0.025367558 -0.042124588 0.08638332 -0.034432217 0.00784046 0.008240005 0.06356549 0.0126744155
0.0065418845 0.0050250865 0.014651973 -0.06763854 -0.004772312 0.07672603 -0.14858371 0.02639628
-0.08844165 0.05265834 0.010041012 -0.01127737 0.050770905 0.06124947 0.1466021 -0.033674683
-0.09124604 0.12109885 -0.13736427 0.058112472 0.05015127 0.1767955 0.11513535 0.0252374
-0.048388753 0.00017491839 -0.048126943 -0.09118015 0.06221602 -0.048440106 -0.10745496 -0.08263184
0.08959057 -0.06328708 0.07400289 -0.032238107 0.0042329584 -0.010504121 0.129061 0.09944042
0.031494055 0.04715731 -0.0939846 -0.11211801 -0.06019547 -0.019869259 -0.07863752 0.020058382
0.016971635 -0.018220916 -0.0018030502 -0.05948012 -0.09911406 -0.0063605797 0.044885166 -0.14289239
-0.058128443 -0.10824221 -0.22887795 -0.0016248755 -0.1794169 -0.048837565 -0.031098653 0.1854445
-0.06425418 -0.07923286 0.1057223 0.0026728867 -0.06021116 0.05482622 -0.020226635 0.017634962
-0.04904334 -0.09819821 0.15543017 0.0010087349 -0.010871775 0.008823213 -0.0910468 0.025185617
0.09179683 -0.088767394 0.08841882 0.07890803 -0.006181033 -0.052534048 -0.044923123 0.011586296
0.11067769 -0.13734716 0.13629611 -0.10963079 0.019766394 -0.006316472 -0.03872704 -0.030781226
-0.11210209 -0.05123207 0.03886937 -0.17873985 0.012294906 0.038223606 -0.0297043 -0.009523446
-0.22340554 0.09761875 0.08382581 0.09179933 0.024142383 -0.033361226 -0.043182004 0.0071364595
-0.0050955815 0.10956706 0.019719185 -0.027109055 -0.018723072 -0.08070236 0.018241538 -0.058053512
0.09922562 0.08692059 0.16017714 -0.059079595 0.057887234 -0.0027038455 0.057967287 0.12921062
00000000: f5d4 523d e700 7a3d ed3f dfbc 3fd7 833c
00000010: 5ab1 82bd 76ff dfbd dd81 a93b ff6a 12bd
00000020: afa8 1a3e 847a 4c3c ea41 49b9 7fae 503d
00000030: 4cc3 5dbd 0066 0dbe b0f5 6b3d 6118 03be
00000040: 8551 733d 4e4b 493d 72d3 06bd 4125 5abd
00000050: a10b 2dbd efcd a6bd b039 c5bd 95b6 31be
00000060: e397 363d 1fd5 05bd 156e 41bc 243b 5abe
00000070: 11b1 923b d541 f43d 01d7 38be d7b8 e03d
00000080: 550b 20bd 604c 813d 7cda 94bb 0418 c13d
00000090: b983 9fbd 4129 f63d 59bd a739 6c51 d33d
000000a0: bb3b 0cbd 5907 3e3d d6cf 91bd 2552 86bd
000000b0: 6944 803d 2dcb ffbb 78bc 29bc fee9 c1bd
000000c0: 5519 193c 6072 893c d58d 04be 7e02 2abd
000000d0: b835 6cbd 5f1f 14bd a81a a3bd 4eed 3cbe
000000e0: 550b 4abc 89f6 a43c f131 13be 45b7 70bd
000000f0: dff2 d8bc 6333 05be 4d76 0abc c3c6 c63d
00000100: 8c8f c7bc e5cf 31bc b8d6 bf3d 0421 c9bb
00000110: f48b 1b3e ec85 9d3d f611 04bc 4676 4e3e
00000120: ebd2 9abd 5121 a6bb 8929 073e 407c 98bc
00000130: 1668 d23d 95a5 b7bd 2ea3 d5bc 6d04 c23b
00000140: 3d09 c3bd e2eb 5a3d 09ec a53c a818 cbbc
00000150: 1b0a 893e 1a7b 3ebd 51b7 e73c 72bf 3fbc
00000160: f674 2e3d 66da d03c 15bf c93d bf95 a93d
00000170: 9d1e 3d3d 928a 41bd e8c9 20be 5b5b 0ebd
00000180: 3226 afbd 0869 d8bd 5385 3bbd 5368 d73c
00000190: e15c b7bd 8190 b33d d610 033e ecb4 b03c
000001a0: a907 13bc 6431 5cbc d164 2fbc 0921 303c
000001b0: a0f7 b8bd cafc 823c 95e3 f43d 6e55 cebd
000001c0: 21b2 ee3d e65d 0f3e 9911 00be 1a26 a23c
000001d0: 48ab 823d 8634 013d a338 bbbc 2e13 e3bd
000001e0: a0cf cf3c d58a 2cbd bde9 b03d cc08 0dbd
000001f0: 4675 003c 1601 073c a02e 823d 5aa8 4f3c
00000200: 4e5d d63b 7ba9 a43b d40e 703c 1386 8abd
00000210: 0e61 9cbb 8922 9d3d 5426 18be 033d d83c
00000220: e520 b5bd 46b0 573d 0f83 243c b8c4 38bc
00000230: 27f5 4f3d b9e0 7a3d dc1e 163e 77ee 09bd
00000240: 34df babd ad02 f83d 38a9 0cbe 5807 6e3d
00000250: 6b6b 4d3d e109 353e 15cc eb3d aabe ce3c
00000260: 4933 46bd 4c6a 3739 c220 45bd a9bc babd
00000270: 3ad6 7e3d 2269 46bd 5911 dcbd e23a a9bd
00000280: 437b b73d a89c 81bd d48e 973d 1b0c 04bd
00000290: a1b4 8a3b 7a19 2cbc 9128 043e 6ba7 cb3d
000002a0: e9ff 003d 0628 413d ff7a c0bd 219e e5bd
000002b0: 868f 76bd dbc4 a2bc b50c a1bd 7a51 a43c
000002c0: 1908 8b3c 0844 95bc 5354 ecba 6da1 73bd
000002d0: 50fc cabd 696c d0bb 82d9 373d 6252 12be
000002e0: 1718 6ebd 17ae ddbd fb5e 6abe c6f9 d4ba
000002f0: 10b9 37be e609 48bd 9ac2 febc 2ae5 3d3e
00000300: b297 83bd d644 a2bd ef84 d83d 992b 2f3b
00000310: fa9f 76bd 7591 603d 54b2 a5bc 3277 903c
00000320: abe1 48bd 251c c9bd 1629 1f3e 8737 843a
00000330: 881f 32bc 3d8f 103c bf76 babd 1152 ce3c
00000340: faff bb3d aecb b5bd ed14 b53d 899a a13d
00000350: 438a cabb f12d 57bd 4f01 38bd 73d4 3d3c
00000360: fcaa e23d bca4 0cbe 3591 0b3e 1c86 e0bd
00000370: 22ed a13c 68fa cebb 3fa0 1ebd e928 fcbc
00000380: c895 e5bd b8d8 51bd 7d35 1f3d 9407 37be
00000390: 9370 493c 5b90 1c3d 6f56 f3bc 3a08 1cbc
000003a0: 6cc4 64be 57ec c73d deac ab3d 4a01 bc3d
000003b0: 3fc6 c53c c8a5 08bd 9ddf 30bd f6d8 e93b
000003c0: d6f8 a6bb b264 e03d 218a a13c cf13 debc
000003d0: 2161 99bc 4747 a5bd 476f 953c 85c9 6dbd
000003e0: cd36 cb3d 6c03 b23d 7a05 243e 72fd 71bd
000003f0: 2a1b 6d3d 0033 31bb 1b6f 6d3d ca4f 043e

network.6.bias f4 [63]
0.4960515 0.52335364 0.47391385 0.49656874 0.47627756 0.4910763 0.49693966 0.5010291
0.49980155 0.49637574 0.49912208 0.543059 0.49790734 0.56183136 0.5140327 0.50373816
0.5012048 0.5003674 0.4839094 0.48594967 0.52176094 0.49219513 0.4968633 0.49635676
0.5044171 0.50148755 0.5127624 0.4919447 0.49832144 0.4993392 0.49964672 0.55115104
0.48907697 0.5012213 0.4976481 0.5037453 0.5185762 0.48701054 0.49599636 0.51230043
0.50342995 0.49863696 0.49257728 0.49365628 0.48618507 0.49646938 0.48189217 0.50842756
0.50070953 0.4940538 0.49748233 0.5206937 0.5121334 0.518637 0.5095565 0.5412089
0.4899028 0.5096118 0.48700938 0.49006674 0.49178347 0.49578312 0.49400523
00000000: 76fa fd3e 81fa 053f d6a4 f23e 423e fe3e
00000010: a7da f33e 5a6e fb3e e06e fe3e 7143 003f
00000020: fde5 ff3e f624 fe3e ee8c ff3e ea05 0b3f
00000030: b6ed fe3e 2ed4 0f3f a697 033f fcf4 003f
00000040: f54e 003f 1418 003f f9c2 f73e 65ce f83e
00000050: 2092 053f 0001 fc3e de64 fe3e 7922 fe3e
00000060: 7b21 013f 7d61 003f 6644 033f 2de0 fb3e
00000070: fd23 ff3e 63a9 ff3e b2d1 ff3e 3c18 0d3f
00000080: 4c68 fa3e 0a50 003f bbcb fe3e 74f5 003f
00000090: 69c1 043f 7259 f93e 3cf3 fd3e 1f26 033f
000000a0: c9e0 003f 584d ff3e 1733 fc3e 84c0 fc3e
000000b0: 40ed f83e 3c31 fe3e 92ba f63e 4f28 023f
000000c0: 802e 003f 9ff4 fc3e 01b6 fe3e 2f4c 053f
000000d0: 2d1b 033f 65c5 043f 4b72 023f ab8c 0a3f
000000e0: 8ad4 fa3e eb75 023f 4b59 f93e 07ea fa3e
000000f0: 0bcb fb3e 49d7 fd3e 41ee fc3e

network.7.running_mean f4 [63]
0.21885182 0.6716378 0.35007226 0.49698076 0.47788224 0.44595385 0.37280306 0.3674804
0.55117285 0.8682604 0.54682714 0.5548039 0.4335388 0.7737863 0.74577487 0.44769546
0.54573977 0.611176 0.3870972 0.51970613 0.47995383 0.51109564 0.39246738 0.30089206
0.44226664 0.5342074 0.6295673 0.6540465 0.38904765 0.5396594 0.4614582 0.7730062
0.5709754 0.5470169 0.6260296 0.7762715 0.5944842 0.44144815 0.25717074 0.6016028
0.6279152 0.48445952 0.3646341 0.42600304 0.36707693 0.4095084 0.347075 0.60699886
0.3924149 0.5260687 0.5512729 0.7232646 0.7464127 0.5913318 0.88065636 0.6015135
0.4480362 0.64068574 0.41363162 0.45474702 0.39359963 0.5101331 0.51637405
00000000: b11a 603e 74f0 2b3f ac3c b33e 4374 fe3e
00000010: fbac f43e 1054 e43e 0be0 be3e 6426 bc3e
00000020: aa19 0d3f 5046 5e3f ddfc 0b3f a107 0e3f
00000030: ccf8 dd3e dc16 463f 1aeb 3e3f 5738 e53e
00000040: 9ab5 0b3f 0876 1c3f 9b31 c63e 760b 053f
00000050: 82bc f53e 2ad7 023f 7cf1 c83e 860e 9a3e
00000060: c670 e23e d1c1 083f 532b 213f 976f 273f
00000070: 4131 c73e 1e27 0a3f 4044 ec3e bce3 453f
00000080: 722b 123f 4d09 0c3f 7a43 203f bbb9 463f
00000090: 1e30 183f 7e05 e23e e2ab 833e a402 1a3f
000000a0: 0dbf 203f 140b f83e 52b1 ba3e 121d da3e
000000b0: 82f1 bb3e 16ab d13e d0b3 b13e 4764 1b3f
000000c0: 9bea c83e 70ac 063f 3920 0d3f de27 393f
000000d0: e714 3f3f 8561 173f b272 613f cafc 193f
000000e0: 0065 e53e fb03 243f 86c7 d33e 9ad4 e83e
000000f0: e485 c93e 1598 023f 1731 043f

network.7.running_var f4 [63]
0.18743172 0.13828036 0.09093686 0.070040464 0.02993957 0.115604565 0.08451977 0.036961187
0.08915483 0.14321959 0.09825089 0.059530795 0.18452123 0.3887712 0.0916284 0.07026825
0.16359568 0.10695179 0.06849244 0.04826798 0.03535816 0.18022867 0.15896098 0.08933198
0.07506613 0.066066384 0.16037485 0.109885536 0.049851175 0.052435283 0.16367218 0.19524337
0.12542176 0.07404227 0.17693177 0.14325854 0.06037401 0.06362997 0.10422277 0.18207017
0.08660977 0.10440882 0.092452034 0.27995363 0.13223901 0.08619122 0.09483343 0.039522555
0.120930575 0.0829282 0.09070298 0.06791566 0.24701217 0.14550823 0.08670508 0.45631775
0.13364232 0.104600996 0.06726055 0.1430551 0.06321839 0.21346344 0.09478907
00000000: 1aee 3f3e 5e99 0d3e 1b3d ba3d 6071 8f3d
00000010: d443 f53c 16c2 ec3d b418 ad3d 9d64 173d
00000020: cf96 b63d 28a8 123e c337 c93d 90d6 733d
00000030: 22f3 3c3e 050d c73e aca7 bb3d cde8 8f3d
00000040: a085 273e 8a09 db3d c445 8c3d a5b4 453d
00000050: b8d3 103d dd8d 383e abc6 223e aff3 b63d
00000060: 45bc 993d d04d 873d 4e39 243e ab0b e13d
00000070: bf30 4c3d 61c6 563d ae99 273e e1ed 473e
00000080: 906e 003e 79a3 973d 9a2d 353e 5eb2 123e
00000090: bd4a 773d 6e50 823d bf72 d53d 9a70 3a3e
000000a0: 7760 b13d 4bd4 d53d 7e57 bd3d 1556 8f3e
000000b0: aa69 073e 0685 b03d 0838 c23d 67e2 213d
000000c0: 73aa f73d 43d6 a93d 7cc2 b93d 5e17 8b3d
000000d0: c2f0 7c3e 1c00 153e 6f92 b13d 7ba2 e93e
000000e0: 88d9 083e 0c39 d63d e6bf 893d 097d 123e
000000f0: a578 813d 2996 5a3e c620 c23d

network.9.weight f4 [63, 63]
-0.099146314 0.06461051 0.049509726 -0.09346467 0.01998911 -0.07260185 0.013378304 -0.039924044
-0.0105616255 -0.17051776 -0.101155154 0.16473426 -0.07333605 -0.073442124 -0.023786815 0.011908934
-0.0064739212 -0.15802647 -0.11226775 0.036151886 0.0319033 -0.12422665 -0.1917047 -0.08775997
0.004335284 0.047276687 0.021160228 -0.059073303 0.05282561 -0.08595331 0.070969276 0.092186846
-0.07989957 0.080933906 0.11615953 0.07971023 -0.044005696 0.03923525 -0.08517949 -0.014136301
-0.10911197 -0.08268931 -0.04575086 -0.13040413 -0.052025136 0.002063158 -0.1968219 0.06169948
0.0019865185 -0.08003881 0.12117163 -0.013168244 0.10835116 0.0057811434 0.11434884 -0.018386696
-0.059162118 0.04430923 -0.20914954 0.019875301 -0.0157195 -0.1444373 0.024107654 -0.14348215
0.060505442 0.037655693 -0.011367901 0.026585538 -0.061811 0.088412024 -0.08393934 0.05730563
0.08842117 -0.05389782 0.016258555 0.0006997731 -0.085478805 0.105831906 -0.16664588 0.052433003
-0.15226792 -0.006137207 -0.10341452 0.19096208 0.051519528 0.06324643 0.08308318 0.0018636473
0.19441648 -0.11286416 -0.13056628 -0.07188327 0.12612681 -0.049601868 -0.02644389 0.010750864
-0.19503312 -0.07312377 -0.03397571 -0.06391486 0.039713643 -0.17757481 -0.02647712 0.0049937535
-0.14996196 0.056599867 -0.05965394 0.03831943 -0.12590584 -0.08141042 0.09404909 -0.09885278
-0.18640336 0.009672142 -0.009491924 -0.034979135 0.058387484 0.017949542 -0.030071838 -0.08645056
0.028326005 -0.07456215 -0.08321216 -0.0012939807 -0.046574753 0.012678683 0.16704985 0.07674812
0.027659632 0.16778237 0.04955185 -0.087282024 0.07789066 -0.06080387 0.0070505934 -0.0020833528
-0.00337541 0.105592586 -0.1468387 0.001339854 -0.0313613 0.050565604 -0.07406945 0.011418349
-0.10528448 -0.16831405 -0.0194118 0.0957793 0.14742906 -0.06741931 -0.026631344 0.09002814
0.039677247 0.02813784 -0.019864555 -0.10855917 -0.053255897 0.15548997 0.045909632 0.12754348
0.0070365216 0.039199524 0.060642514 -0.0075457757 0.04693181 0.06141812 0.021669684 0.018755006
-0.067227095 -0.056311537 -0.063833706 0.11238317 -0.052945312 0.09608161 0.096423686 0.066528566
0.08547339 0.16477272 0.012961932 -0.050760116 -0.05598443 0.1473019 -0.012763739 0.14680208
0.0668372 -0.07325077 0.021009307 0.1099629 -0.09829324 0.06456587 0.04253326 0.008233551
0.06067509 0.06205341 -0.034720898 0.016283095 -0.0101373345 -0.11668938 -0.06620055 -0.2063912
0.18242292 0.04396784 0.123389326 -0.014748066 0.0741999 -0.10767316 0.023910062 -0.086772196
0.01791218 -0.17235087 -0.034501486 0.11797976 -0.06927756 0.057824057 0.0116528785 -0.02020759
0.14126636 0.02359881 -0.024663618 0.01055311 0.12044395 -0.0046009077 -0.052776195 -0.06030611
0.15970804 -0.010320686 0.03207122 0.056093067 0.10949149 0.011877181 0.07517005 -0.0016206033
0.028635008 0.03985183 -0.22382173 0.19245924 -0.04066629 -0.017078893 -0.050873775 -0.13153327
0.058171786 0.099607445 -0.053748522 -0.06593611 0.013083689 -0.09676443 -0.05271763 0.07986299
0.060433038 0.16139208 0.12787366 0.00902789 -0.13037881 0.07392688 -0.0739458 0.11426649
00000000: 390d cbbd 8452 843d b6ca 4a3d 686a bfbd
00000010: 34c0 a33c 47b0 94bd ad30 5b3c 6587 23bd
00000020: ab0a 2dbc 359c 2ebe 6f2a cfbd 19b0 283e
00000030: 3631 96bd d368 96bd 91dc c2bc b11d 433c
00000040: 3023 d4bb b1d1 21be a2ec e5bd 0014 143d
00000050: 09ad 023d 8b6a febd 3d4e 44be 80bb b3bd
00000060: ff0e 8e3b 33a5 413d 3758 ad3c d9f6 71bd
00000070: ab5f 583d 4a08 b0bd 5758 913d 75cc bc3d
00000080: 63a2 a3bd adc0 a53d 0ce5 ed3d 1e3f a33d
00000090: 513f 34bd 24b5 203d 9672 aebd f29b 67bc
000000a0: 1976 dfbd 0359 a9bd 4165 3bbd a988 05be
000000b0: 4f18 55bd 0c36 073b ae8b 49be 98b8 7c3d
000000c0: 4030 023b 63eb a3bd d528 f83d 9ebf 57bc
000000d0: 37e7 dd3d bf6f bd3b ba2f ea3d b29f 96bc
000000e0: fa53 72bd 987d 353d 4c2b 56be 87d1 a23c
000000f0: 2ec6 80bc 5fe7 13be 6a7d c53c fcec 12be
00000100: 8ed4 773d db3c 1a3d 6f40 3abc eac9 d93c
00000110: 882d 7dbd 5d11 b53d 64e8 abbd 4fb9 6a3d
00000120: 2916 b53d f6c3 5cbd a930 853c fa70 373a
00000130: 830f afbd 66be d83d 38a5 2abe fdc3 563d
00000140: 1fec 1bbe a01a c9bb feca d3bd 908b 433e
00000150: 2406 533d 5887 813d 8427 aa3d a045 f43a
00000160: 1d15 473e 5325 e7bd 2bb3 05be 8937 93bd
00000170: 6327 013e 542b 4bbd dba0 d8bc 6424 303c
00000180: c3b6 47be eac1 95bd 1d2a 0bbd cbe5 82bd
00000190: c6aa 223d 2cd6 35be 8ce6 d8bc a4a2 a33b
000001a0: a18f 19be 43d5 673d b157 74bd d6f4 1c3d
000001b0: 76ed 00be 82ba a6bd cf9c c03d 5473 cabd
000001c0: 86e0 3ebe e777 1e3c 0484 1bbc 4846 0fbd
000001d0: b727 6f3d eb0a 933c 3759 f6bc fe0c b1bd
000001e0: f00b e83c 0ab4 98bd 236b aabd ca9a a9ba
000001f0: 2bc5 3ebd 40ba 4f3c 1e0f 2b3e 1e2e 9d3d
00000200: 7496 e23c 24cf 2b3e e1f6 4a3d ebc0 b2bd
00000210: 2385 9f3d 7b0d 79bd aa08 e73b dc88 08bb
00000220: fc35 5dbb ed40 d83d e25c 16be 0a9e af3a
00000230: b574 00bd e11d 4f3d b9b1 97bd 0714 3b3c
00000240: 649f d7bd 855a 2cbe 7f05 9fbc f027 c43d
00000250: a5f7 163e 2313 8abd fa29 dabc ac60 b83d
00000260: 9c84 223d 5481 e63c feba a2bc 4554 debd
00000270: db22 5abd c338 1f3e bd0b 3c3d c29a 023e
00000280: 9f92 e63b ae8f 203d 4964 783d 8e42 f7bb
00000290: 923b 403d 9191 7b3d 9f84 b13c 19a4 993c
000002a0: 5cae 89bd eda6 66bd 3fbb 82bd 2629 e63d
000002b0: 2fdd 58bd 6fc6 c43d c879 c53d 2140 883d
000002c0: ac0c af3d 2eba 283e 495e 543c d7e9 4fbd
000002d0: ee4f 65bd 4fd6 163e 001f 51bc 4953 163e
000002e0: f1e1 883d 8004 96bd b61b ac3c 3b34 e13d
000002f0: f74d c9bd 1c3b 843d 5b37 2e3d 04e6 063c
00000300: 7186 783d b72b 7e3d 8037 0ebd 2064 853c
00000310: 1017 26bc d7fa eebd 2794 87bd 3758 53be
00000320: 13cd 3a3e 9f17 343d 8bb3 fc3d dfa1 71bc
00000330: 1ef6 973d bf83 dcbd 09df c33c 9fb5 b1bd
00000340: 90bc 923c bf7c 30be 6e51 0dbd 5f9f f13d
00000350: 65e1 8dbd ebd8 6c3d b7eb 3e3c 638a a5bc
00000360: 21a8 103e 4b52 c13c 5b0b cabc f4e6 2c3c
00000370: 51ab f63d 36c3 96bb da2b 58bd 8a03 77bd
00000380: 818a 233e 1818 29bc 1d5d 033d d8c1 653d
00000390: 133d e03d 8298 423c c1f2 993d 6c6a d4ba
000003a0: f793 ea3c ac3b 233d 8631 65be 0914 453e
000003b0: b291 26bd 09e9 8bbc 0561 50bd a8b0 06be
000003c0: 8a45 6e3d fdfe cb3d 6927 5cbd 8309 87bd
000003d0: f85c 563c 6e2c c6bd 71ee 57bd 358f a33d
000003e0: a288 773d f743 253e 50f1 023e b7e9 133c
000003f0: 0682 05be fa66 973d e570 97bd 8d04 ea3d

network.9.bias f4 [63]
0.50914943 0.51635724 0.51903516 0.5032318 0.4936845 0.4904224 0.4990223 0.50102097
0.48889023 0.5071421 0.49440223 0.49640405 0.49447194 0.49758112 0.49776402 0.49862528
0.5056801 0.515455 0.503389 0.4920314 0.4958722 0.50556636 0.5049554 0.49205288
0.53361714 0.4977843 0.48607138 0.49190596 0.47950485 0.49700618 0.4886783 0.5149414
0.49957153 0.5016322 0.48834231 0.49457207 0.49612406 0.4852872 0.5032844 0.4897558
0.5010091 0.49895608 0.49593583 0.53198564 0.48649123 0.48863775 0.53204256 0.4814295
0.49133912 0.48657718 0.50846636 0.5172539 0.48735008 0.5561617 0.51214147 0.49377048
0.5260955 0.49259448 0.48725188 0.48983118 0.5156459 0.5239941 0.5085589
00000000: 9e57 023f fd2f 043f 7ddf 043f cdd3 003f
00000010: 37c4 fc3e a518 fb3e da7f ff3e e942 003f
00000020: d24f fa3e 11d4 013f 4a22 fd3e ac28 fe3e
00000030: 6d2b fd3e f4c2 fe3e edda fe3e d04b ff3e
00000040: 4074 013f dcf4 033f 1ade 003f 8aeb fb3e
00000050: f6e2 fd3e cc6c 013f c244 013f 5bee fb3e
00000060: 229b 083f 95dd fe3e 59de f83e 19db fb3e
00000070: a981 f53e 9877 fe3e 0b34 fa3e 33d3 033f
00000080: d7c7 ff3e f86a 003f 0108 fa3e 8d38 fd3e
00000090: f903 fe3e 9077 f83e 3fd7 003f 46c1 fa3e
000000a0: 2242 003f 2c77 ff3e 4deb fd3e 3630 083f
000000b0: 6115 f93e ba2e fa3e f133 083f ed7d f63e
000000c0: cd90 fb3e a520 f93e da2a 023f c06a 043f
000000d0: f385 f93e 9d60 0e3f b41b 033f 7ccf fc3e
000000e0: 32ae 063f 5835 fc3e 1479 f93e 27cb fa3e
000000f0: 5f01 043f 7a24 063f eb30 023f

network.10.running_mean f4 [63]
0.19482379 0.2610619 0.7301231 0.6024562 0.48692435 0.35364693 0.40396562 0.29384378
0.5489164 0.24318337 0.28892434 0.14874725 0.5086151 0.27855274 0.2733329 0.19851404
0.37462398 0.66213286 0.41231441 0.43314642 0.063928254 0.5676548 0.33578616 0.27129737
0.6596178 0.32354152 0.46240047 0.99354535 0.35309246 0.334102 0.80078554 0.4729857
0.3700424 0.28649163 0.5020251 0.7132483 0.37405282 0.53882587 0.2940287 0.5061086
0.3747747 0.26527548 0.45558187 0.6533948 0.3440917 0.49965844 0.5748625 0.5957256
0.9359358 0.50250906 0.44920084 0.52174765 0.49064437 0.7098327 0.5146011 0.9203008
0.68026274 0.56301135 0.3900805 0.26076105 0.52355033 0.6366385 0.46622774
00000000: e37f 473e e8a9 853e 59e9 3a3f 923a 1a3f
00000010: 264e f93e 3611 b53e 95d4 ce3e b172 963e
00000020: c985 0c3f 1005 793e e4ed 933e 3351 183e
00000030: 9934 023f 779e 8e3e 4af2 8b3e 4447 4b3e
00000040: b7ce bf3e 8a81 293f e01a d33e 5ec5 dd3e
00000050: d1ec 823d d351 113f 2aec ab3e 7de7 8a3e
00000060: b6dc 283f 3ca7 a53e c1bf ec3e fd58 7e3f
00000070: 89c8 b43e 6b0f ab3e 4800 4d3f 2f2b f23e
00000080: 3376 bd3e 08af 923e b884 003f 7197 363f
00000090: da83 bf3e 7ef0 093f ee8a 963e 5590 013f
000000a0: 78e2 bf3e 30d2 873e 0742 e93e e244 273f
000000b0: ca2c b03e 3bd3 ff3e 302a 133f 7981 183f
000000c0: 7d99 6f3f 6fa4 003f a7fd e53e 4191 053f
000000d0: bd35 fb3e 99b7 353f e6bc 033f d598 6b3f
000000e0: b325 2e3f 8321 103f a2b8 c73e 7982 853e
000000f0: 6507 063f befa 223f 67b5 ee3e

network.10.running_var f4 [63]
0.13371757 0.040953152 0.263686 0.2719746 0.19494216 0.12961304 0.08462876 0.108043104
0.2918052 0.13371679 0.108971715 0.17971495 0.27927044 0.15291364 0.04894137 0.0984764
0.11546644 0.33098638 0.261645 0.08539222 0.11203617 0.31584045 0.120415054 0.09248807
0.35506257 0.25131175 0.28518173 0.17323917 0.17680176 0.18871582 0.2751459 0.20297284
0.12131361 0.07218271 0.11661459 0.22387534 0.4560948 0.13944227 0.14861217 0.13908878
0.10351698 0.34805456 0.43432856 0.35605815 0.31904018 0.19261998 0.25267407 0.09830715
0.26548836 0.14454348 0.11958225 0.2616321 0.18331546 0.32137695 0.3045582 0.2632241
0.055090725 0.13413118 0.18926668 0.061994743 0.1342212 0.32380974 0.16727519
00000000: 42ed 083e 7ebe 273d da01 873e 4140 8b3e
00000010: eb9e 473e 48b9 043e d851 ad3d b445 dd3d
00000020: 7e67 953e 0eed 083e 902c df3d 3207 383e
00000030: 89fc 8e3e 6595 1c3e bf76 483d ffad c93d
00000040: ab79 ec3d 0c77 a93e 55f6 853e 1ee2 ae3d
00000050: 3873 e53d d7b5 a13e 2b9c f63d 636a bd3d
00000060: c3ca b53e efab 803e 5703 923e 9c65 313e
00000070: 850b 353e b83e 413e ecdf 8c3e 1dd8 4f3e
00000080: 4573 f83d 87d4 933d a1d3 ee3d 943f 653e
00000090: 4285 e93e f4c9 0e3e ca2d 183e 4a6d 0e3e
000000a0: b600 d43d 3534 b23e 5060 de3e 414d b63e
000000b0: 3c59 a33e 2c3e 453e 7f5e 813e 4255 c93d
000000c0: 17ee 873e 3503 143e 8ae7 f43d a5f4 853e
000000d0: 0cb7 3b3e 858b a43e 0def 9b3e 4fc5 863e
000000e0: d0a6 613d af59 093e 20cf 413e 33ee 7d3d
000000f0: 4871 093e 64ca a53e 304a 2b3e

network.12.weight f4 [63, 63]
-0.01384014 0.024064075 -0.15577005 -0.12157458 0.099085644 -0.060822863 -0.011576646 0.14579357
-0.10607723 0.09856733 0.038721893 0.011336732 -0.079480395 -0.11183171 0.009090161 0.041952744
-0.122174285 -0.06202257 -0.042464714 -0.053791035 -0.1539133 0.03581452 0.04968786 0.16025375
0.023127194 -0.105333835 0.08323268 0.011435452 0.007378541 0.12401495 -0.08311151 0.03518386
0.15377824 -0.080711 -0.050377864 -0.008762173 -0.0015064342 0.18300346 0.09644701 0.11693058
0.0443024 -0.07827184 -0.07599371 -0.035429973 0.124255486 -0.010221349 -0.09203562 -0.025452161
-0.082519054 -0.17342491 0.13008288 0.050615814 -0.040861525 -0.20553178 0.045791678 0.06476804
-0.050061814 0.011583174 0.09874482 -0.06333077 -0.05725537 -0.09245962 0.043282308 -0.008938049
-0.06144395 -0.029429626 0.0691954 0.18467844 0.115574695 -0.1441593 0.0078409705 -0.11236806
0.0013003313 0.016575996 -0.024629418 -0.04966329 -0.044283297 0.076675266 0.0046029175 0.02472306
-0.06491066 -0.09451326 0.10533071 0.013393252 0.0057299645 0.026845116 -0.07409678 0.06591
-0.06691749 0.08949561 0.066607125 -0.078888856 -0.0009148009 -0.14170429 0.081995755 0.0007304292
0.06379913 -0.0533347 0.021119472 0.19925873 0.06127325 0.14274685 0.04116675 0.053349424
0.2570607 0.14177111 0.09849499 0.045334063 0.020963695 0.10387147 -0.08496261 -0.045703568
-0.058606166 0.1155169 0.09039605 0.0150966635 0.04623922 -0.0861887 -0.056780607 0.07259734
-0.08027086 -0.033856314 -0.0017802168 0.020636521 0.014202335 0.051869873 0.07071448 0.078016706
0.116845086 0.114553936 -0.06870962 -0.2412392 0.015518465 0.20370498 -0.08703037 0.020496622
0.04559441 -0.09456211 0.0017233554 -0.004250148 -0.017682333 0.116607584 -0.108141094 0.14237925
0.05095736 -0.06586477 -0.10180303 -0.09267865 0.12476918 0.18027145 0.03768943 0.06825595
0.083533265 -0.09412164 0.07564646 -0.04751633 0.036111794 0.021885993 -0.023170266 -0.13156106
-0.03711899 -0.013808131 -0.096383676 0.09479351 0.12440002 -0.03617061 -0.0031975722 -0.07160783
-0.094381176 -0.0589001 -0.020849071 -0.05184166 -0.11742673 -0.10790584 -0.08135498 -0.046614885
-0.04080184 0.13306993 0.0018037857 -0.045951396 0.085179396 0.11233573 -0.11763242 0.05107364
-0.12690987 -0.036721133 -0.081178434 -0.051748455 -0.008743872 -0.031473935 -0.05961379 0.09700316
0.08093749 0.028496359 -0.11421203 0.065912366 0.0017579215 -0.048647724 0.088059805 -0.040399037
-0.054867197 0.047939718 -0.02694257 0.017526824 -0.020372903 -0.01862675 -0.066100724 -0.12942338
-0.020158364 0.007581393 0.023362575 -0.08505162 -0.12896869 0.124590255 0.014756005 0.06571848
0.0052390113 -0.12228474 -0.049929406 0.011186669 0.14634967 0.035222996 0.08957598 -0.038658924
0.045713875 -0.04050731 0.22311072 -0.027791476 0.06221764 -0.00667348 0.13516061 0.13979492
0.0062645366 0.19662967 -0.022715207 0.13396356 0.0792762 -0.040259548 -0.068846494 -0.0022814588
0.11584807 -0.09435662 0.14464177 0.108950034 -0.1210069 -0.019701783 0.10472629 0.061210737
0.002521661 -0.041176587 -0.025285758 0.023901377 -0.049967892 0.08623193 0.00050151156 0.08016363
00000000: c1c1 62bc 0622 c53c 2f82 1fbe 18fc f8bd
00000010: 6aed ca3d 6521 79bd f9ab 3dbc e94a 153e
00000020: 053f d9bd abdd c93d d99a 1e3d b3bd 393c
00000030: 9ec6 a2bd 0608 e5bd e6ee 143c a4d6 2b3d
00000040: 8336 fabd 610b 7ebd 7bef 2dbd fd53 5cbd
00000050: 739b 1dbe 3fb2 123d 7f85 4b3d 8f19 243e
00000060: 3e75 bd3c 44b9 d7bd e575 aa3d c35b 3b3c
00000070: b0c7 f13b 8dfb fd3d 5e36 aabd f41c 103d
00000080: 0b78 1d3e cf4b a5bd 0559 4ebd 388f 0fbc
00000090: 8b73 c5ba 4265 3b3e 0386 c53d 4d79 ef3d
000000a0: 6f76 353d fd4c a0bd 97a2 9bbd 051f 11bd
000000b0: a979 fe3d 7277 27bc 2c7d bcbd 0d81 d0bc
000000c0: c0ff a8bd 4d96 31be 7234 053e 8752 4f3d
000000d0: 6a5e 27bd ec76 52be 0e90 3b3d 1ba5 843d
000000e0: 9e0d 4dbd 5ac7 3d3c b93a ca3d 90b3 81bd
000000f0: 9b84 6abd 785b bdbd ca48 313d e570 12bc
00000100: a7ac 7bbd 6616 f1bc 51b6 8d3d 581c 3d3e
00000110: 6db2 ec3d 7f9e 13be 6a77 003c 3a21 e6bd
00000120: e16f aa3a 62ca 873c a2c3 c9bc bc6b 4bbd
00000130: 6762 35bd ec07 9d3d 12d4 963b 0488 ca3c
00000140: e1ef 84bd 2b90 c1bd a1b7 d73d 5f6f 5b3c
00000150: 6dc2 bb3b 4aea db3c 0dc0 97bd d2fb 863d
00000160: 090c 89bd 7949 b73d 5169 883d 7b90 a1bd
00000170: 40cf 6fba ee1a 11be 64ed a73d 467a 3f3a
00000180: 1ea9 823d 7d75 5abd be02 ad3c 7b0a 4c3e
00000190: a9f9 7a3d 3b2c 123e 779e 283d ed84 5a3d
000001a0: 769d 833e 722c 113e beb7 c93d 36b0 393d
000001b0: 0ebc ab3c 91ba d43d e000 aebd aa33 3bbd
000001c0: 050d 70bd 2094 ec3d 9021 b93d ff57 773c
000001d0: 5665 3d3d b383 b0bd c892 68bd eaad 943d
000001e0: 0c65 a4bd ebac 0abd 2a56 e9ba ec0d a93c
000001f0: e9b0 683c 8175 543d c1d2 903d 39c7 9f3d
00000200: 7a4c ef3d 419b ea3d a1b7 8cbd 6907 77be
00000210: 2941 7e3c 0a98 503e fb3c b2bd 88e8 a73c
00000220: 34c1 3a3d c8a9 c1bd 36e2 e13a d344 8bbb
00000230: 8ada 90bc f5cf ee3d 1479 ddbd decb 113e
00000240: aab8 503d 1ce4 86bd 1b7e d0bd 4ece bdbd
00000250: fc86 ff3d 1499 383e 3b60 1a3d c7c9 8b3d
00000260: 7d13 ab3d d9c2 c0bd 88ec 9a3d 7ca0 42bd
00000270: f6e9 133d 414a b33c 92cf bdbc f1b7 06be
00000280: 150a 18bd 803b 62bc ce64 c5bd 1a23 c23d
00000290: 70c5 fe3d a227 14bd 5c8e 51bb 20a7 92bd
000002a0: eb4a c1bd 3b41 71bd accb aabc ec57 54bd
000002b0: 6d7d f0bd bdfd dcbd 719d a6bd 40ef 3ebd
000002c0: d51f 27bd 7c43 083e 016d ec3a 8837 3cbd
000002d0: 8972 ae3d 4610 e63d 44e9 f0bd 9832 513d
000002e0: a9f4 01be e668 16bd e140 a6bd 30f6 53bd
000002f0: 7542 0fbc d0ea 00bd 972d 74bd 98a9 c63d
00000300: 8ec2 a53d 3271 e93c ffe7 e9bd 10fd 863d
00000310: 0f6a e63a d642 47bd b358 b43d 7679 25bd
00000320: 6dbc 60bd 705c 443d aab6 dcbc 6a94 8f3c
00000330: 13e5 a6bc 2097 98bc d15f 87bd 9087 04be
00000340: 2723 a5bc 556d f83b df62 bf3c 8b2f aebd
00000350: 5e10 04be 2d29 ff3d 2cc3 713c 6997 863d
00000360: 03ac ab3b 6c70 fabd c782 4cbd 4a48 373c
00000370: b0dc 153e fd45 103d 9d73 b73d d258 1ebd
00000380: 793e 3b3d feea 25bd 2377 643e f3aa e3bc
00000390: edd7 7e3d 35ad dabb 8b67 0a3e 6626 0f3e
000003a0: be46 cd3b 4a59 493e 3e15 babc be2d 093e
000003b0: 8f5b a23d 32e7 24bd 64ff 8cbd 8784 15bb
000003c0: c141 ed3d 0b3e c1bd f91c 143e 3221 df3d
000003d0: 77d2 f7bd a265 a1bc bd7a d63d 1cb8 7a3d
000003e0: 7442 253b c8a8 28bd 1424 cfbc d2cc c33c
000003f0: 22ab 4cbd 5e9a b03d df77 033a d42c a43d
