src/runs/ann_left_hand/20241105/20241105-1100/ann_left_hand_3_layers_best.pth (torch, 143302 bytes, 26 tensors)

network.0.weight f4 [63, 126]
00000000: 8df0 7bbe 6f9d 13be 91e1 cfbd 99ec 91bc
00000010: d978 3dbd 0822 46bc d048 62bd 2ce6 03bc
00000020: 60c8 e93d fa54 a3bd 9e26 1bbc 9930 8e3d
00000030: 4145 293e dd8c febd e7c0 81bd d671 a33d
00000040: 4d1f 1e3e fc38 1ebd 6d95 08bd e2af fb3a
00000050: fc92 413e 25c8 11be b237 9bbd d6fa 53bd
00000060: ffb0 78bd 9e9f 0b3d b8ac 6f3c 0d61 c53b
00000070: dc04 72bd 6db6 7b3d fa5a 613d 857f 103d
00000080: f662 373d e0aa 213d 4354 41bc 173e 0b3b
00000090: 36c4 9ebc cdc0 a03b d3a9 37bd e1fd 2cbd
000000a0: 4f98 baba dbd1 c0bc 25ce 82bd fa02 8fbc
000000b0: 9382 243d b325 433d d450 c63c 626e fa3d
000000c0: e07f 853c 6fea da3c 517c 3a3d 9070 913d
000000d0: 56d9 473d 757a 9b3d 42d5 a53d e56a 0d3e
000000e0: 2e82 fd3d d2ac 393e ce96 0e3e 2dc9 9b3d
000000f0: 7b37 fb3c 028c b93c 7abd af3d ae11 3b3c
00000100: 7053 603c f232 613d 70e7 d43c ba64 4fbc
00000110: c009 24bc 8887 843c e55c 25bb 3281 dd3c
00000120: 39aa 893a b0b8 76bc eb96 2c3d f9e6 57bc
00000130: 3c89 be3c 488b 6cbd f765 02bc bf1f c9bb
00000140: 4e74 9bbd 6da4 163d d688 5cbc a52f 87bd
00000150: fe58 ba3c 7b67 dc3d 2e42 2a3e cd38 5a3d
00000160: 1929 5e3d 2c6d 5d3d f47c 433c 342a 4f3c
00000170: a160 273d ea52 7d3c 9cc3 b3bc 093a a0bc
00000180: e968 223d 1808 c2bb 0593 57bd f9d8 2fbd
00000190: cb60 113d 2d56 9cbd d79b 07bc a82d 62bd
000001a0: a59c c83c 4a13 d83c 81dc ae3d dad9 153b
000001b0: 9660 033d 5d9f 1a3d 4deb 953d a77a 1abc
000001c0: 5209 0cbc 4c14 e53c ecd2 6dbc 8d3a 523d
000001d0: 3bcb 223b ddb5 883c 3056 ef3c c5db 213d
000001e0: da1f 85bc 3f18 14bc 1eeb 7ebc 020b 9e3c
000001f0: 32e3 9abb ec9b 36bb aa92 7c3e c0d9 013e
00000200: b259 b43d f086 e23d 2593 a33d 1f6c ca3d
00000210: 560a a53b d373 51bc 9b36 0fbe 18c4 ea3c
00000220: 6453 0a3d 65bb 32bb c92b 2fbe b922 e03c
00000230: 23e9 57bc 307b 35be f49e 60be ee92 113c
00000240: 46ec 4a3d 9297 38bc 2ddc 28be c10e 0f3d
00000250: 2cde b43d 2ca5 2cbd e371 46bd 2918 52bc
00000260: 07e2 8c3c 5c0e 97bc c702 a33c 2d58 b9bc
00000270: 75ea 073d f5c3 f23c 824c 77bb c22f a43c
00000280: e083 9f3d 56b2 33bd 4a2d 51bd aca3 223c
00000290: ade8 843d 45be 683d 7d67 263c 0c86 9a3c
000002a0: 9ef1 73be ab7d e5bd db46 753c bfae 383d
000002b0: b3f7 b13c c96a 313d eb39 243c 680a 023d
000002c0: 478e 7d3d eaab 5e3d cf92 093c 74c6 a73d
000002d0: 9810 1b3e 8eb9 b3ba 4d7e 513d 96aa 293e
000002e0: b3ce 3e3e b5f0 403d ab6a 723c 56dc c53d
000002f0: fef8 d03d 2f5f f23d 7847 7a3d 36d8 3f3c
00000300: 61ee 303c ff59 873b 045b 463d 6d54 a53c
00000310: d6f0 703c e1b7 78bc 161e 4939 d989 21bd
00000320: 9d21 d6bd a889 96bd 1e06 d43c e75a 52bd
00000330: b3a6 ecbd 1d75 bcbd 8469 f7b9 728c 0a3d
00000340: 2683 82bd e32a a4bd a9fb 2a3e 2c79 043e
00000350: 1564 203d 1ace 37bd a337 9fb9 5491 adbd
00000360: c406 2abd 9228 9ebd cfd6 97bb d60e 79bd
00000370: 68cf 94bc 20a9 99bc 4297 b3bc 82fc bfbc
00000380: 4e7b 89bd 783b 27bd 9805 63bd 1fbe dc3c
00000390: dc12 38bc 020e 2fbd 2a96 a53a b8ce 62bd
000003a0: 2a9b 2e3d 5015 8b3d 5fc7 d73b 4e76 133d
000003b0: 6c19 413d cab0 5bbc 0ba9 1abd 0ddd b93c
000003c0: 6d95 143d ff83 1c3d e096 213d 8c8f 14bc
000003d0: b0d2 013d 14d8 223d d23a 653d fc4c b4ba
000003e0: c19b 973d 46de 80bb 5fbb cf3c dc6d c13b
000003f0: 7fde b23d 1f7e 2dbd 7de1 bebd 4eda 1bbe
-0.24603482 -0.14415525 -0.10150445 -0.017813014 -0.046257827 -0.012093075 -0.05524522 -0.008050483
0.114151716 -0.07975192 -0.009469656 0.06942863 0.16530325 -0.12429211 -0.06335621 0.07980697
0.15441628 -0.038628563 -0.03334563 0.0019202197 0.18903726 -0.14236505 -0.075789824 -0.051752888
-0.06071567 0.03408777 0.014628582 0.0060235322 -0.059086666 0.06145327 0.055018403 0.035277862
0.04477211 0.0394696 -0.011799875 0.0021246725 -0.01938067 0.004905796 -0.04483969 -0.042234305
-0.0014236065 -0.023537567 -0.06386975 -0.017457474 0.040163588 0.047643375 0.024208464 0.12228085
0.016296327 0.026723115 0.045528714 0.07101548 0.048791252 0.07591716 0.08097316 0.13810308
0.123783454 0.18132332 0.13924715 0.076067306 0.030666104 0.022649769 0.08581062 0.011417789
0.013691768 0.054980226 0.025989264 -0.012658292 -0.01001209 0.016177908 -0.0025232371 0.027039144
0.0010503001 -0.015058681 0.042136114 -0.013177627 0.023258798 -0.057750016 -0.007958881 -0.0061378176
-0.07590543 0.036777902 -0.013460359 -0.06600884 0.022747513 0.10761925 0.16626808 0.053276826
0.054238413 0.054059193 0.011931647 0.012644339 0.040863637 0.015461663 -0.02194386 -0.019558923
0.03965083 -0.005921375 -0.052630443 -0.04293153 0.0354927 -0.07633624 -0.008276901 -0.055219322
0.024488756 0.026376385 0.085381515 0.0022865445 0.032074533 0.037749637 0.07320271 -0.009428657
-0.008547144 0.02796378 -0.01451562 0.05132537 0.0024840373 0.016688282 0.029215902 0.03951623
-0.01625054 -0.009038984 -0.015558986 0.019292358 -0.004726791 -0.0027863933 0.24665323 0.12680721
0.088061705 0.110608935 0.0798705 0.09883904 0.0050366325 -0.012783962 -0.13985674 0.028657958
0.033770934 -0.002727234 -0.17106546 0.027360307 -0.013178143 -0.17722774 -0.21935636 0.008885128
0.049541734 -0.011266606 -0.1649024 0.03492618 0.088314384 -0.042149708 -0.048448455 -0.012823143
0.017197622 -0.018439464 0.019898785 -0.022625053 0.03318258 0.029634455 -0.0037734811 0.020042304
0.07788825 -0.043871246 -0.05106858 0.009926718 0.06489692 0.05682208 0.0101565095 0.018862747
-0.23822638 -0.1120561 0.014970507 0.045088526 0.021724558 0.04331473 0.010023574 0.031748205
0.061903264 0.05436317 0.008396818 0.08192149 0.15143049 -0.0013711916 0.05114584 0.1656898
0.18633537 0.047104556 0.014795939 0.09661166 0.102037415 0.11834561 0.061103314 0.011709264
0.010799021 0.0041306014 0.048426643 0.020181859 0.014705857 -0.015180559 0.00019180062 -0.039438102
-0.1045563 -0.073504746 0.025881823 -0.051356222 -0.11555233 -0.09202025 -0.00047190126 0.033825345
-0.06372671 -0.080159925 0.16697563 0.12936848 0.039157946 -0.04487429 -0.00030368296 -0.08474985
-0.04151036 -0.07722582 -0.0046337615 -0.060805164 -0.018165305 -0.018757403 -0.021922711 -0.023435835
-0.06712972 -0.0408282 -0.055425256 0.026946126 -0.011234965 -0.04273797 0.0012633253 -0.055372924
0.042628445 0.067911744 0.006585046 0.036001496 0.047143385 -0.013408849 -0.03775887 0.022688413
0.036275316 0.03821182 0.039450526 -0.009067427 0.031695068 0.03975685 0.0559643 -0.0013755853
0.074027546 -0.003932747 0.0253579 0.005902989 0.08733844 -0.042356607 -0.09320352 -0.15219995

network.0.bias f4 [63]
00000000: 7b45 ec3e ecfd d43e 3b2c e53e 2476 c83e
00000010: 93e2 a83e 9412 083f 9510 103f 67e3 e93e
00000020: a93c 113f e2bf 0a3f cd26 183f d834 133f
00000030: 395d 033f 9a81 023f e86e 093f 00a0 063f
00000040: 0fc7 893e f233 0e3f 6e72 a23e 9561 f63e
00000050: 45b7 8e3e 9177 e03e c86e f03e a084 d53e
00000060: 7ed8 f13e 3781 ee3e 23b0 053f d7ab df3e
00000070: d64e 173f c49a c83e 0e5a fa3e 631c 273f
00000080: f1f6 fb3e 12ca c03e e578 1b3f 5590 c33e
00000090: 2ce4 123f 97d6 e13e 4e8b c83e 2e78 053f
000000a0: 7072 be3e 5be8 b63e ffcf c13e 7a71 a23e
000000b0: f49f 063f 2249 e73e 9eba 043f 54d9 4d3e
000000c0: 4ba4 da3e 7f03 fe3e 5282 fe3e 4405 043f
000000d0: c544 cc3e 84bf f53e b1af 053f c065 ff3e
000000e0: fd90 eb3e de6a b23e 6701 023f 4d40 933e
000000f0: e6d2 ee3e 2e0c d33e 8142 a33e
0.4614676 0.41599977 0.44760308 0.39152634 0.32985362 0.5315335 0.562753 0.45681307
0.56733185 0.5419904 0.59434205 0.5750251 0.5131412 0.50979006 0.53684855 0.5258789
0.26909682 0.5554801 0.31727928 0.48121324 0.278742 0.43841222 0.4695952 0.41702747
0.47235483 0.46582958 0.5222189 0.4368579 0.5910467 0.39180577 0.4889683 0.6527769
0.4921184 0.37654167 0.60731345 0.38196054 0.5737941 0.44109032 0.3916878 0.52136505
0.37196684 0.35724148 0.37854 0.317272 0.5258782 0.45172983 0.51847255 0.20102435
0.4270347 0.49612042 0.49708802 0.51570535 0.39896217 0.47997677 0.5222121 0.49882317
0.46009055 0.34847158 0.5078339 0.28759995 0.46645278 0.4122023 0.31886676

network.1.running_mean f4 [63]
00000000: bad3 353f 7dbc aa3e 260e 36bf 0e1e 543e
00000010: 632e 243e 5c6e 0a3f f28c 84bd a1f2 c4be
00000020: 8df9 373f 70d5 f9be bae0 36be 8259 663f
00000030: d817 9b3f 6edb 153d 5305 07bf e20f edbf
00000040: 5d78 993f 7e65 8b3f 1d56 c33d 4c3a 4c3c
00000050: 2875 a93e 39c2 2e3f 1cc4 943c 6fd8 843c
00000060: 85f7 ae3e 1c2f dc3e 2797 2cbe 955e 623e
00000070: b870 573f ab54 8f3f 0deb 6c3f 0549 fd3e
00000080: 621c 0b3f eeb1 5b3f a268 dcbd e5ee 1b3f
00000090: 9bd1 a6bd eb16 753e 5d6b 273f da66 9b3f
000000a0: 0c8e 843f 65e2 7d3f 6081 2e3f c01d 7f3e
000000b0: 7ec7 5d3f a578 853e 0769 5d3f 2c0f 9a3f
000000c0: 2961 53be 33c4 f5bd c3d3 ac3f ad00 fc3d
000000d0: cff0 873e 91f1 5f3e 4f56 e33e 2099 423f
000000e0: 3efc 813f 8510 313f fd54 2d3f cfc7 2b3f
000000f0: d09e 50be 0589 22bf 6bbe aa3f
0.71026194 0.3334693 -0.7111534 0.2071459 0.1603332 0.54074645 -0.06472196 -0.3846636
0.7186516 -0.48795652 -0.17859164 0.8998033 1.2116652 0.036586218 -0.527425 -1.8520472
1.1989857 1.0890348 0.09537909 0.012465071 0.33097196 0.6826511 0.018159918 0.016216485
0.34173217 0.43004692 -0.16854535 0.22106393 0.8415637 1.1197714 0.9254616 0.49469772
0.54340184 0.85818374 -0.107621446 0.609114 -0.08145448 0.23934524 0.653982 1.2140763
1.0355849 0.99173576 0.6816616 0.24913692 0.86632526 0.26068607 0.86488384 1.203588
-0.20642532 -0.12000313 1.3502125 0.123048164 0.2655091 0.21869494 0.44401786 0.760149
1.0155103 0.6916583 0.67707807 0.6710176 -0.20373082 -0.63490325 1.3339361

network.1.running_var f4 [63]
00000000: 9959 1a3b e124 5d3b 8af3 543b cd0d 053b
00000010: e0ed 973a fb07 6a3b b606 8a3b d529 8c3b
00000020: 844d 113b b63e 403b ee58 a43b d9ea 423b
00000030: 13fe a73b bade 523b 12b6 4a3b 8404 453c
00000040: 52b8 493b bfda 913b 1c3c 9f3a 104c d13a
00000050: 2711 683a 551f 4b3b de6b ba3b a4bb df3a
00000060: d747 3b3b c79f 943a c475 b63a eee8 103b
00000070: 2ed5 403b 1748 0e3b 36ce 853b 6a15 683b
00000080: 5e1b 643b 5794 e73a ea00 ac3a 9561 0c3b
00000090: 3a91 443b 498f ac3b 95db 593b f14f 903b
000000a0: 76b8 bd3a 7140 893b 4d22 9c3a bd57 f53a
000000b0: 9527 4a3b 7ba7 683b 254b 333b d3f9 883b
000000c0: c4ec 3d3b 303c 2f3b 54d1 6e3b 362e 253b
000000d0: ce73 203b 7125 003b b39f ab3b 840e 803b
000000e0: 9560 9c3b 931a 9d3b 1afa 813b 1d37 423b
000000f0: 6fde 853b b703 c53b bcaa 7f3b
0.002355194 0.0033743905 0.0032493793 0.0020302415 0.0011591278 0.0035710323 0.004212226 0.0042774477
0.0022171447 0.0029334254 0.005015484 0.002974203 0.0051267236 0.0032176212 0.0030931276 0.012025002
0.003078003 0.0044511254 0.0012148651 0.0015968103 0.00088526536 0.0030994017 0.0056891283 0.0017069471
0.0028576755 0.0011339121 0.0013920595 0.0022111493 0.002942394 0.002171045 0.00408342 0.0035413154
0.0034806351 0.001766811 0.0013122831 0.0021420468 0.0029993788 0.0052661044 0.0033242453 0.004404061
0.0014474529 0.00418859 0.0011912078 0.0018718165 0.0030846347 0.0035500217 0.0027358022 0.004180172
0.0028980235 0.0026738755 0.0036440687 0.0025204546 0.0024483087 0.0019553567 0.0052375435 0.0039079804
0.0047722557 0.0047944277 0.003966582 0.00296349 0.004085354 0.0060124057 0.0039011678

network.3.weight f4 [63, 63]
00000000: 631a ddbc b37d ba3d 89f0 edbb 230a a9bd
00000010: c5e8 a73d 42d1 38bd ccec 843d b6ef ed3b
00000020: f245 953d e647 013b d5d2 743d e84c 8abc
00000030: 25c4 71bc c470 bc3c 2a3a 89bd 73e6 5abd
00000040: 8af5 a8bc 4aba 813c 6e98 acbd 082d 5cbd
00000050: 39f7 fdbd 92b9 ddbd 7b0c 063e 0e1c 953d
00000060: 1035 063d 881b 93bd 3e5e 243d 4fc0 083d
00000070: 6112 ec3c 6c45 03be fd2e e7bd fce4 2cbd
00000080: ce66 68be a766 083c bbde 8b3c 2a5d 7d3d
00000090: afde a5bd 2eaa 2cbe fd8d bcbc 3f39 55be
000000a0: 06cb fcbc a52c 1a3d f679 b83d 4734 d43c
000000b0: 14af 78be f336 01bd 6d6a babc 5022 26be
000000c0: 87b7 0c3d 6fed a13d 7aaa c33d 2e6c 87bc
000000d0: 52f4 7d3c 6632 0dbd 926f 0e3e 3e15 d5bd
000000e0: 7fab 23bd 2b2c bebd 2f18 e13d 9a2f 683d
000000f0: 84b3 9d3c 3f11 16be 9d3f 9ebd f0a2 2dbe
00000100: d02d b4bc a3b0 f5bb 5975 943d 88f0 2cbd
00000110: 2474 2bbd 9532 0a3d 4f1f 963d d0c9 03bc
00000120: 0316 33bd a215 0c3e 2e40 323d c6ee 823d
00000130: 3bcc a93b 041b a3bd 1118 24bb 587f 88bd
00000140: 9a69 00be b624 083e f980 703d 6a92 cfbd
00000150: 28b1 95bd 2be8 6a3c 9798 c73d 7cec ebbd
00000160: 62a8 e6bd 29e8 713c fbb3 e2bd 9710 85bd
00000170: cd58 e9bd 046f f5bd 87b7 a9bd 0a42 0dbd
00000180: b920 3fbd bc06 59bd 5c0e 603d 083f abbd
00000190: d036 b73d 0dcd 54be 5a1d 8abd 7afa 0ebe
000001a0: 2574 6c3d a27b e1bd 6d7c f93b cb5e 233c
000001b0: 0c43 e1bb f0b5 31bd 61cc c43d e178 e83d
000001c0: 507b 4fbc 892f 3abd 2924 d13d f61e 79bd
000001d0: bbc4 193d 1274 c33c 72d5 223e 9aaa cdbd
000001e0: f7ce f83b b768 783d 927b 333c 8b10 a5be
000001f0: 34d0 4dbd f360 96bd adf9 233d 53e6 88bd
00000200: 29ed 403e af8c 883c 033b 3fbe 34f0 b33d
00000210: 466a 853d 5303 28be 2512 47bd d1c7 88bd
00000220: bf8a a6bd 3c14 88bd de17 76bd a734 91bd
00000230: b962 9d3c a979 7c3d 0a9b f33d b647 f7bb
00000240: 59f3 d0bd 71fc 873d d1c3 debd 69b4 eb3c
00000250: ae3a 0dbe 6b7f 373d 6a5b 8cbd d044 a7bd
00000260: be5a 5cbd 9c15 8e3d ffa0 87bd ead4 07bd
00000270: c43e 533d 551d 4e3d e6c2 783c 88bf 0abc
00000280: cd6a c13b 96d0 1d3b 1d95 733c 84b4 5dbd
00000290: ec9d 9d3d 9c11 01be 28a0 3b3d caa1 bb3c
000002a0: 5aa0 d0bd f2fa 0f3d da3d 8b3d 1b74 87bd
000002b0: bff3 69bd 4f72 29be e1a5 043e 0788 84bd
000002c0: 343b f3bd 41ac d93d e652 963d 05a0 0dbe
000002d0: 5fc5 45bc a4f0 df3c 9c3d 24be 3e88 babd
000002e0: ad36 4ebd 29f7 9abd 9c4e 743e 6367 0bbe
000002f0: e074 0b3d 0e5d 57bc f2bc ab3d b419 e63c
00000300: a238 ae3c e4a8 3439 b44c b3bd 2bf2 ec3d
00000310: d7bf c9bd 0bfe 693d 25d0 eabd 6526 8ebc
00000320: 13de 7b3c f11c 02bd 8bdd 2b3d ec1a 1fbc
00000330: d48a 16be dd9e 343e 14ba cb3d 054b 35be
00000340: 111c c5bd f416 dc3c 0dd9 25bd 0e19 8c3d
00000350: 1f53 53bd 3736 db3d 30ec abbd f848 a43c
00000360: 97c6 2cbd 773a 0e3e 5b23 a1bd ace9 8f3d
00000370: 5621 413c 0e10 99bd 876c bfbd e7ef 023d
00000380: fe26 083d 9603 0dbb 8ac5 0fbe 04f9 8dbd
00000390: e2f3 483d 5693 673d ebf8 78bd f479 853d
000003a0: b853 363e 6918 b8bd 2920 80bc b3fd b9bd
000003b0: 531f cbbd 520e d9bd a67f 893d 23fa a6bd
000003c0: 6565 61bb cdf5 39be 168c 84bc dd60 86bd
000003d0: fb2f 013d 7c16 97bd 4561 d33c b4b8 c23d
000003e0: b9cf 5c3c a9d1 6d3d 2280 aebe daad aabd
000003f0: 7697 253d 58a0 5539 345b d5bc 3da8 05bd
-0.026990121 0.091060065 -0.00726134 -0.082538866 0.08198694 -0.04512144 0.06490478 0.007261242
0.07288732 0.0019726693 0.059771378 -0.016882375 -0.014756237 0.02300299 -0.06700547 -0.05344243
-0.020624895 0.0158359 -0.08427511 -0.053753883 -0.124006696 -0.1082641 0.13090698 0.07280742
0.032765448 -0.071829855 0.04012894 0.033386525 0.028817357 -0.12819451 -0.11288259 -0.042210564
-0.22695467 0.0083252555 0.01707398 0.061856426 -0.08099114 -0.16861793 -0.023016924 -0.20822619
-0.030858528 0.037640233 0.09007637 0.025903834 -0.24285537 -0.031546544 -0.022755826 -0.16224027
0.034354713 0.07906615 0.09554 -0.016531076 0.015500145 -0.03447189 0.13909748 -0.10404442
-0.039958473 -0.09285768 0.10990941 0.05668602 0.019250639 -0.14655016 -0.07726977 -0.16956687
-0.021994501 -0.0074978634 0.07248945 -0.042221576 -0.041858807 0.033739645 0.073301904 -0.008043721
-0.043722164 0.13680127 0.043518238 0.06393199 0.005181817 -0.07964137 -0.0025038759 -0.06664914
-0.12540284 0.13295254 0.058716748 -0.10135348 -0.073091805 0.01433758 0.09745901 -0.11519715
-0.11262585 0.014764824 -0.11069485 -0.06497305 -0.113938905 -0.11984065 -0.08286958 -0.034486808
-0.046662066 -0.052984938 0.054701194 -0.08361632 0.089460015 -0.20781346 -0.067438796 -0.13962737
0.05772795 -0.11009909 0.0076137097 0.009971331 -0.0068744477 -0.0433864 0.09609295 0.11351181
-0.012663677 -0.04545549 0.10211975 -0.060820542 0.037541132 0.023859058 0.15901735 -0.10042305
0.0075930315 0.06064674 0.010954754 -0.32239184 -0.050247386 -0.0734271 0.04003303 -0.06684556
0.1884047 0.016668646 -0.18674855 0.087860495 0.06514411 -0.16407518 -0.04860129 -0.06678737
-0.081319325 -0.066444844 -0.060081355 -0.07090121 0.019212114 0.06163946 0.11894806 -0.0075463904
-0.10202665 0.06639946 -0.10877193 0.02877255 -0.13791916 0.04479925 -0.06853373 -0.08167422
-0.053797476 0.069377154 -0.066225044 -0.033162035 0.05157353 0.050320942 0.015183186 -0.008468516
0.005902624 0.0024080626 0.014867094 -0.05412723 0.07696137 -0.12604374 0.045807034 0.022904295
-0.10186835 0.03515143 0.067989066 -0.06613942 -0.05711722 -0.16547512 0.12953903 -0.06471258
-0.118765265 0.10628558 0.0734003 -0.13830574 -0.012070983 0.027336426 -0.16039127 -0.091080174
-0.05034511 -0.07566673 0.23858112 -0.13613658 0.034047008 -0.013144745 0.08385648 0.028088428
0.021267239 0.00017229054 -0.08754864 0.115696274 -0.09851044 0.05712704 -0.11465482 -0.017352292
0.015372771 -0.031765882 0.041959327 -0.0097110085 -0.14701396 0.17638727 0.09947601 -0.17704399
-0.09624494 0.026866414 -0.0404902 0.06840716 -0.051592942 0.107037 -0.083946586 0.020054325
-0.042181578 0.1388949 -0.07868072 0.07026991 0.011787733 -0.07473765 -0.09346872 0.03196707
0.03324031 -0.002151703 -0.14040199 -0.069322616 0.04906071 0.056536995 -0.06078426 0.06517401
0.17805374 -0.08989031 -0.015640335 -0.090815924 -0.09918084 -0.105984345 0.067138 -0.081531785
-0.0034392711 -0.18160172 -0.01618008 -0.06561444 0.0315399 -0.073773354 0.025803218 0.095078856
0.013477259 0.058061276 -0.34082133 -0.08333941 0.040427648 0.00020372996 -0.026044466 -0.032631148

network.3.bias f4 [63]
00000000: 0f8e fe3e ad5f 003f 3694 fe3e 1839 fc3e
00000010: 45ea 003f be29 fc3e 021e ff3e 1c9b fe3e
00000020: cd22 fe3e b4c8 013f 9eec 003f ebdc ff3e
00000030: 7ae1 fe3e 49df 013f e489 ff3e 8228 013f
00000040: 8cbf f73e ff85 f93e cf95 fe3e fad2 fd3e
00000050: 0b06 fd3e fac6 023f be36 fe3e 1bdb 053f
00000060: 59ed ff3e 8f68 f43e 3502 003f f4c4 003f
00000070: 0695 fd3e ab27 fb3e 972d fe3e 7546 033f
00000080: 345d 013f fd80 fd3e 1f8d 003f 6432 023f
00000090: 8c19 ff3e c1f8 fc3e 7c12 ff3e 81c3 033f
000000a0: ee1c 053f 8996 fb3e 9b22 003f e1a3 f93e
000000b0: 42f5 fd3e cd70 fe3e 482b 003f efd2 fd3e
000000c0: d4fc 013f 4579 fa3e c9fe fd3e 444f fd3e
000000d0: 4a16 fc3e 8137 ff3e 571a fd3e 3e20 fe3e
000000e0: 76f1 013f 4c05 003f 292f 013f c437 003f
000000f0: 50d5 fd3e f97a 003f 33a0 013f
0.49717757 0.5014599 0.4972245 0.4926231 0.50357467 0.49250597 0.49827582 0.49727714
0.49635926 0.50696874 0.5036105 0.49973235 0.497814 0.5073133 0.4990989 0.50452435
0.48388326 0.48735043 0.4972367 0.49575025 0.49418673 0.51084864 0.4965114 0.52287453
0.4998577 0.47736022 0.5000337 0.50300527 0.49527758 0.49053702 0.49644157 0.51279384
0.5053284 0.49512473 0.50215334 0.5085814 0.49824178 0.49408534 0.4981879 0.5147019
0.5199727 0.49138287 0.50052804 0.48757842 0.4960118 0.49695435 0.5006604 0.49574992
0.5077641 0.48920646 0.49608448 0.49474537 0.49235755 0.49847034 0.49434158 0.49633974
0.50759065 0.5000808 0.50462586 0.5008509 0.49576807 0.5018764 0.5063507

network.4.running_mean f4 [63]
00000000: 6c11 8c3e ddc4 6b3e 7494 973e eadd 9d3e
00000010: 97d3 d03e 994a ff3e b256 053f 7d84 d13e
00000020: d999 313f b16f e73e f481 003f a172 e13e
00000030: fd76 0e3f bfda 223f 4214 fa3e 1a60 023f
00000040: 0be6 db3e 43df c43e 459e ba3e 8c99 a93e
00000050: 9e84 be3e fc48 133f e724 9e3e 46f9 1f3f
00000060: 0c7c f93e 4427 e53e 5dfe fa3e 2b28 d03e
00000070: 8b94 ef3e ed29 123f 81e1 b83e c7e3 2c3f
00000080: 6e19 c93e 2d70 fb3e abd2 053f 9c85 3e3f
00000090: 02ec ac3e a75b 033f e2cc d93e 64b2 253f
000000a0: dc6b 263f 66e5 b03e 52e6 b03e f5dd d83e
000000b0: 3b99 0a3f df3d 6b3e 0e70 8c3e fee6 ff3e
000000c0: 2676 283f ff9b 643e f8f0 843e 2642 bb3e
000000d0: d422 853e 578a c13e 718b 003f d194 cf3e
000000e0: ecd7 f93e e69d ed3e 5ae5 ef3e d39f bb3e
000000f0: 578d ea3e 275b 213f 3ad3 f63e
0.27357042 0.23024316 0.29605448 0.3083337 0.4078643 0.498616 0.5208541 0.40921393
0.6937538 0.452024 0.5019829 0.44032767 0.5565031 0.6361503 0.4884358 0.5092789
0.42948946 0.38451585 0.36448875 0.3312496 0.37210554 0.5753324 0.3088753 0.62489736
0.48727453 0.4475652 0.4902219 0.40655646 0.46793017 0.57095224 0.36109546 0.6753506
0.39277214 0.4910902 0.5227458 0.7442262 0.3377381 0.51311725 0.42539126 0.6472533
0.6500833 0.34550017 0.3455072 0.4235684 0.5414006 0.2297282 0.2742924 0.4998092
0.6580528 0.22325133 0.25965095 0.36573905 0.26003134 0.37800857 0.5021277 0.40543225
0.48797548 0.4640953 0.4685467 0.36645374 0.4581096 0.6302971 0.48208028

network.4.running_var f4 [63]
00000000: c47a 9a3d 90d1 103e ffa5 0e3e 4226 463e
00000010: c0ab d23d 05ea 323d 2c0a 5d3d b0eb 073e
00000020: 973b d23d 407c 503d 92b9 8b3d a68f 8c3d
00000030: 3257 063e e98b 7d3d 6553 003e 1526 0b3e
00000040: c084 1c3d 9d97 d33d 4fb4 0c3e 9a1d d83d
00000050: 53e4 ad3d 0ef0 193e fed5 f63d febd d43d
00000060: adc1 483e ab34 303d c6b2 553d 623b 023e
00000070: e966 a43d c68f a03d 5669 c93d 18af 053e
00000080: ff52 d53d 3fa8 253e e414 0d3e f07b 1c3e
00000090: 15d5 cc3d c763 143e 70c9 813e cfe0 a03d
000000a0: 763e c33d a4ba 373e 3f41 903d d4eb 213d
000000b0: 8a9d 3c3e f67d cb3d 2f58 853e 435e 173e
000000c0: 729b 253e 4d7e e73d 892f 6b3d ddd6 b33d
000000d0: aa59 083e 7cab 123e accd 063e 0a8f 443e
000000e0: bd72 463d 54e9 3c3e bce5 843d 66ce 933d
000000f0: e70b df3d 878d be3d 3b6e a83d
0.07542947 0.14142442 0.1393051 0.19350532 0.10286665 0.04368021 0.05396478 0.13273501
0.10265272 0.050899744 0.06822504 0.06863336 0.131192 0.061901007 0.12531812 0.13588746
0.038212538 0.10331652 0.13740657 0.10552521 0.08490815 0.1503298 0.120525345 0.10387801
0.19605131 0.043018978 0.052172445 0.12717965 0.08027441 0.078399226 0.09834544 0.13055074
0.10416221 0.16177462 0.137775 0.15281653 0.1000158 0.14491187 0.25348997 0.07855379
0.09533398 0.17942291 0.07043695 0.039531544 0.18419471 0.099361345 0.2604384 0.14782052
0.16172579 0.11303387 0.05741838 0.08781216 0.13315454 0.14323229 0.13164395 0.1919519
0.048449267 0.18448383 0.06489131 0.07217102 0.10890942 0.09304338 0.0822415

network.6.weight f4 [63, 63]
00000000: 06db 093c 9881 a6bd ae94 84bc 46aa 673e
00000010: 3486 c4bc f5de 00bd 3144 3dbb 81e8 f03d
00000020: e564 c83b ccaa f13c f3f3 6dbd 80bc d9bc
00000030: 6a4b 783c a0da 8dbd b45b 353e 94ab 48be
00000040: 33e8 b3bd 8aa8 af3c 2ae6 103d 795b 2b3b
00000050: 531d 33bc 7919 be3c cb3a 8f3d bfcf 0c3d
00000060: 33d8 323d 7ce7 2dbd 2982 ed3d d606 1d3d
00000070: efa3 3bbe d5e2 683d 4920 53be 9261 61bd
00000080: 75c7 92bd 25ad 883d ef51 0a3d cabf 8d3e
00000090: bc4d b4bd 18ef 04bc 820b 633d 33a0 abbd
000000a0: a003 143d 0f54 fa3d 40a3 2d3d 551e 3ebd
000000b0: 36f8 e2bd ed09 13be 7a55 fc3d 4fa7 fb3a
000000c0: cf06 a4bc d9cd 3bbc a7db 1bbe ce60 bb3c
000000d0: ab5e 843d 078b 02be 061e 98bd 0aa5 9fbd
000000e0: 146e 0b3d b42f 873d dee5 f7bc 7d6b 0abd
000000f0: 0a7c f73d ba4d 1ebd 782d 013c 4b5b 01be
00000100: 1331 e23d b85c cd3d 2169 1e3d ff8b aabd
00000110: ad7c 92bd de73 dd3b 4252 283d 40e1 34be
00000120: 6b0c 3a3d 60ec 7d3b 580b fabd ec70 5fbc
00000130: fe84 e1bc caa5 9dbe 5160 25be 1ffd bc3c
00000140: 1291 adbd a775 93bc 70bc 0abd db53 883d
00000150: 4605 49bb 9356 cd3d b4a3 913d 5fa2 81bc
00000160: c2f0 b93d c000 d23b 9060 c13c 7073 1cbe
00000170: 5cfd 4fbd 1c20 873d 196c 51bd e861 83bb
00000180: 2656 eebd f184 b6bd c011 a33d d1f5 eb3d
00000190: 6e09 093c 6434 033d 1bb2 dd3d 4a7b f93d
000001a0: ce67 503d 008e d43d 2360 9bbc 4e96 b6bd
000001b0: 8a12 20bd f913 26be ab94 46bc 901e 023e
000001c0: cbcb 7bbd b994 823d 85b4 7a3d 972c 9fbb
000001d0: 5715 ae3d 7dfd 8bbd 5b2e 183e 2404 f6bd
000001e0: c55e f2bd bac4 133e 5fd1 033d 389f 433b
000001f0: dcce a3bd 6e30 c13d e314 d6bd 3a87 3a3c
00000200: b07c 703c f9db 063d aa0b ca3d 3dd6 c03c
00000210: 9a3c 153d f211 af3d dcac bfbc 14fa 5d3d
00000220: 68af 7b3d bc23 debd 4ce9 793d b74b 05bd
00000230: 8c28 5a3d a99e 2f3e 199f b13c 56a6 66be
00000240: f5ab b6bd 81f1 903d 9d38 2f3d e928 543d
00000250: 8fe7 71bd 13f8 093e 6a6f 6c3d 6978 da3d
00000260: b96b e53c 8228 013e 0b05 e6bd 37f1 1abd
00000270: 40ac ebbd 5302 01bd df50 94bd f801 98bd
00000280: d913 3ebe 62ac a93c a2bd 753d 05e5 80bc
00000290: f32c 5ebd 90b3 0b3e e4ce 963b 8b8f 163d
000002a0: 668b 8cbb 54c8 febc 95d8 6c3d 259e 60bd
000002b0: 05b4 2d3d 5bed d3bd d509 4dbd d4bc 5c3d
000002c0: 5758 dabd 5420 c83d 49c0 6c3a add3 94bd
000002d0: 8932 9bbd c0d0 b2bd ecae 46bc 2498 5bbc
000002e0: 5dfe 9b3c 2a19 0e3e befb 21bd af46 733d
000002f0: cd9e 153d e416 dfbd d7d5 d03c 1bdd 9f3d
00000300: a1f0 943d 920e 2f3d 5700 9b3d f802 0dbe
00000310: 050d e3bd 84b2 8cbc 9bc2 c3bd 21af fc3d
00000320: 9787 f3bb 8251 7cbd 2de6 843d 5029 feba
00000330: 92ca 543e 49cb 88bc 201e 883d cfeb 4c3d
00000340: 1fd1 343d e051 9c3d 26e1 a93d 79f0 81bc
00000350: a7e7 d1bc da39 1cbe 2065 8a3d db47 13bc
00000360: 2527 923d 4ae1 313c 00ba f9bd 5fe1 233e
00000370: f52d 84bd 1eb8 a2bb 8d56 613d 5fbf 11bd
00000380: cc99 b73d 84df 74bc d737 933d 5112 ff3d
00000390: 970f 883d e9be 833d 8a1a a53d 4d6a 1fbd
000003a0: 760d f03d 371a 28be ea3b 5abe cee3 3d3e
000003b0: 792b 33bd 010b 09be 38a9 bcbd de01 f1bd
000003c0: c9a2 113e 6791 963d 24cc 953d daa9 68bd
000003d0: 7061 88bd d8a0 763c d59e e7ba 1715 84ba
000003e0: 1176 07be db98 923d b6e0 fa3d eabc 76bd
000003f0: c014 57bd e990 f03d d970 48bc ced9 073e
0.008414036 -0.08130187 -0.016184177 0.22623548 -0.023989774 -0.03146263 -0.0028879757 0.117630966
0.006115543 0.029500388 -0.058093976 -0.026579142 0.015154699 -0.06926465 0.17710763 -0.19596702
-0.08784523 0.02144267 0.03537575 0.0026147051 -0.010932284 0.023205506 0.06993636 0.03437781
0.043663215 -0.04245709 0.11597092 0.038336597 -0.18324254 0.05685695 -0.20617785 -0.05502469
-0.0716695 0.0667365 0.033769544 0.27685386 -0.08803889 -0.008113645 0.055430897 -0.08380165
0.03613627 0.12223064 0.042392015 -0.046415646 -0.11082499 -0.14359255 0.12320991 0.0019199642
-0.020022778 -0.011462652 -0.1522051 0.022873309 0.06463369 -0.12748347 -0.074276015 -0.077951506
0.034040526 0.066008955 -0.030260976 -0.033793915 0.120842054 -0.038648345 0.007884376 -0.12632482
0.110445164 0.1002745 0.038674477 -0.083274834 -0.07152686 0.006758197 0.041094072 -0.17664051
0.045422 0.0038745627 -0.12209195 -0.0136377625 -0.027529236 -0.3079055 -0.16150023 0.023069916
-0.084749356 -0.018000437 -0.033871114 0.06656619 -0.003067331 0.10026278 0.07111302 -0.015824495
0.09079124 0.006408781 0.023605615 -0.15278411 -0.05077873 0.06597921 -0.05112848 -0.004009474
-0.11637525 -0.08912075 0.0796237 0.11521495 0.008364065 0.032032385 0.108249865 0.12181719
0.050880246 0.10378647 -0.01896674 -0.08915387 -0.03908018 -0.16218556 -0.012120406 0.12706971
-0.06147365 0.06376023 0.061207313 -0.0048576104 0.08500164 -0.068354584 0.14861433 -0.120125085
-0.11834482 0.14430514 0.032182094 0.002984954 -0.0799844 0.09433065 -0.104532026 0.01138478
0.014678165 0.032924626 0.09865506 0.023539657 0.036434747 0.08548345 -0.023397855 0.05419357
0.061446577 -0.108466595 0.061013505 -0.03254291 0.053261325 0.17150368 0.021682309 -0.2252439
-0.08919517 0.07077313 0.0427786 0.051796827 -0.059058722 0.13473539 0.05772344 0.10667498
0.028005468 0.12613109 -0.112314306 -0.037827697 -0.115074635 -0.031496357 -0.072419874 -0.074222505
-0.18562259 0.020712081 0.0599953 -0.015734205 -0.054242086 0.13642716 0.0046023 0.036757987
-0.0042890785 -0.031101383 0.057823736 -0.05483832 0.042408008 -0.10348006 -0.050058205 0.053891018
-0.10661381 0.09771791 0.0009031338 -0.072669365 -0.07577998 -0.08731222 -0.012126666 -0.013402972
0.019042188 0.13876787 -0.03954672 0.05939358 0.036528397 -0.10893038 0.025492592 0.078058444
0.07272459 0.042738505 0.07568424 -0.13770664 -0.11086468 -0.017174967 -0.095586024 0.12338091
-0.007431935 -0.06160117 0.06489215 -0.0019390974 0.207804 -0.016698496 0.06646371 0.050029572
0.044144746 0.07632804 0.08294897 -0.015861737 -0.025623156 -0.15256444 0.06757569 -0.0089893
0.071363725 0.010856936 -0.1219368 0.16003941 -0.06454078 -0.004965796 0.055014182 -0.035582896
0.08964881 -0.014945868 0.07188385 0.124546655 0.066435985 0.064328976 0.080617025 -0.038919736
0.117213175 -0.1641625 -0.21311918 0.18543932 -0.04374263 -0.13383104 -0.092119634 -0.11767934
0.14222254 0.07351952 0.07314327 -0.056802608 -0.0665921 0.015052997 -0.0017671237 -0.0010077086
-0.13228633 0.07158061 0.122498915 -0.060238756 -0.052510023 0.117463894 -0.012233936 0.1326668

network.6.bias f4 [63]
00000000: f6d8 fe3e 836d 013f 61ce 003f 334c ff3e
00000010: 58a5 003f 0e24 ff3e 6f45 fc3e 64e2 f53e
00000020: 9b89 003f 9963 fe3e 176e 023f a3e1 fd3e
00000030: f65f 003f bd30 0a3f b295 ff3e e3c8 003f
00000040: b4e3 003f a917 ff3e 7f0f ff3e 5131 003f
00000050: 733e fe3e 7be8 fd3e 2281 fd3e bb4d fe3e
00000060: ef90 013f a1b8 fe3e 9c54 013f 93d9 023f
00000070: ca4c 023f adfd fa3e 4ddf fe3e a472 003f
00000080: 20db 033f e80a ff3e ef91 003f c358 033f
00000090: 057c 013f 6cf4 ff3e c68b fd3e 213f f93e
000000a0: c7b3 f83e 617d fc3e 7079 fb3e 4e49 fe3e
000000b0: 6941 033f 6230 fe3e 1484 023f 665a 003f
000000c0: f630 f93e 700b fd3e 4e3c fb3e 78d1 ff3e
000000d0: 26a0 fe3e 4cc4 ff3e 8564 013f 7205 fa3e
000000e0: 1afa 013f 0823 063f bd0f fe3e 159a f73e
000000f0: a89a 073f 1c9f 003f 80f0 fd3e
0.49774903 0.50557727 0.5031491 0.49862823 0.50252295 0.49832195 0.49271724 0.48024285
0.5020997 0.49685362 0.50949234 0.4958621 0.50146425 0.5398062 0.49918896 0.5030653
0.5034745 0.4982274 0.4981651 0.5007525 0.4965702 0.4959143 0.49512583 0.4966868
0.50611776 0.49750236 0.5051973 0.5111324 0.5089842 0.49021664 0.4977974 0.5017493
0.51506233 0.49813008 0.50222677 0.51307315 0.50579864 0.49991167 0.495207 0.48680976
0.4857466 0.49314407 0.49116087 0.49665302 0.5127168 0.49646288 0.50982785 0.5013794
0.48670167 0.4942279 0.49069446 0.499645 0.4973156 0.4995445 0.50544006 0.4883228
0.5077225 0.52397203 0.49621382 0.48359743 0.5297036 0.5024278 0.4959755

network.7.running_mean f4 [63]
00000000: ce32 043f 9f1f d73e de54 033f 7677 163f
00000010: 809d 053f 4c6e e73e f1c2 8e3e 9304 b03e
00000020: 30a9 213f 20b7 f73e fe32 e93e 425d 523e
00000030: 514b c43e b7d4 ff3e ec55 8f3e e25f e13e
00000040: 8fb8 113f 07c1 833e e0cd bf3e 25df a43e
00000050: 4ffd 063e dc70 e33e a721 933e 22fa 953e
00000060: e5c8 2b3f d21b e53e 44e5 b63e 3ee1 fd3e
00000070: 98a2 353f 90c3 033f 7b77 293f e7cc c43e
00000080: 9c8a 233f 3488 dc3d a792 1f3f 5cb8 173f
00000090: b5ca df3e b6f3 253f 452f 9f3e 5fed 9f3e
000000a0: 20b0 023f 50f6 fd3e 0735 d23e 45ab 943e
000000b0: 83c4 293f c7c9 113f 13f0 083f fe62 343f
000000c0: fedb 1b3f 7bb7 2a3f b853 993e 8dc7 8b3e
000000d0: df61 c93e e91c 863e f43a ee3e 5783 e13e
000000e0: 87c9 bc3e c9fe 663f ffc9 ee3e 70e3 f53e
000000f0: de0f e13e 708c 423f 6b58 c53e
0.5164002 0.42016312 0.5130137 0.5877603 0.5219345 0.45201337 0.27883103 0.3437849
0.63148785 0.483819 0.45546716 0.20543388 0.38338712 0.49966976 0.2799524 0.44018465
0.5692224 0.25733206 0.37461758 0.32201496 0.13182567 0.44422042 0.28736612 0.292924
0.67103416 0.44747788 0.3572179 0.4958591 0.70951223 0.5147028 0.6619794 0.38437578
0.63883376 0.10768166 0.6233315 0.59265685 0.4370934 0.64825 0.3109075 0.31235787
0.51049995 0.49601984 0.41056082 0.29036918 0.6631548 0.5694851 0.53491324 0.7046355
0.60882556 0.6668622 0.29946685 0.27300683 0.39332482 0.26193932 0.46529353 0.44045517
0.36872503 0.9023252 0.46638486 0.48025084 0.43957418 0.7599554 0.3854402

network.7.running_var f4 [63]
00000000: 2f05 4e3e b104 ee3d 7c68 1c3e ef20 a73d
00000010: 5507 193e 23d4 ad3d 9679 793d 4237 a73d
00000020: 1748 993d 4e7c a53d 575f 793d 66ac 5e3e
00000030: c5b5 8d3e a456 e73e 7782 a43d b5a7 c93d
00000040: e147 343e 5706 623e 4e21 423e 3310 a73d
00000050: f55e 363e a6f6 ab3d e846 123e 7992 c73d
00000060: ee40 c93d ca62 053e 38dd 923d 55d3 7b3d
00000070: fb99 f63d 9cb8 ec3d 6fb4 8c3e ffb7 be3d
00000080: 70f7 f73d 907a 8d3e e04c 133e 80b5 5d3e
00000090: 5a58 b33d c63d b23d a3b9 1f3e 3afd 843d
000000a0: 8358 e23d aefd 9a3d 1d90 c53d 40b0 b03d
000000b0: 86ae 6e3e 578d f93d bc6f 8d3e 762c 0f3e
000000c0: daae c63d d6f9 993e 8286 ca3d 0c7c b83d
000000d0: 8175 013e 88c1 ad3d dca1 9f3d 0455 0a3e
000000e0: 4722 cb3d ea02 753e 7d23 463e 99c1 603d
000000f0: 2437 203d 734d 073e 27be 5e3e
0.20119165 0.116219886 0.15274233 0.081605785 0.14944203 0.084877275 0.06090697 0.081648365
0.07484453 0.0808035 0.06088194 0.21745452 0.27677742 0.4518329 0.08032697 0.09846441
0.17605545 0.22072731 0.18958017 0.08157387 0.1780966 0.08396654 0.14284861 0.09744734
0.098268375 0.13025966 0.071711004 0.06148084 0.12041088 0.11558649 0.2748141 0.09312438
0.12107742 0.2763257 0.14384794 0.21651268 0.08757086 0.087031886 0.15598159 0.06493612
0.110520385 0.07567917 0.09646628 0.08627367 0.23308763 0.121851616 0.2762431 0.13981804
0.09701319 0.30073422 0.098889366 0.09008035 0.1264248 0.08484179 0.07794544 0.13508993
0.09918647 0.23926893 0.19349475 0.05487213 0.039115086 0.13213138 0.21752225

network.9.weight f4 [63, 63]
00000000: 699f 3abe e412 d53d 8d13 273d df89 3dbc
00000010: 18ee d73c 5244 803e b426 a83c 954a 733c
00000020: bc6d a13c 89ec 1d3c fcff 2dbd 17dc 833b
00000030: d70f 27bd 3cab 07be 242e 84bd 7e96 2c3e
00000040: 7ef9 223d a010 38be 0e2d e7bc 5c82 05be
00000050: 9b4f d1bc bba0 c13c 7aaf b5bc 2326 e93c
00000060: 8cf0 253d 73c6 f93b 4661 ab3d 503d ecbd
00000070: ffd5 4b3d a5eb 09be ae36 46bd 0072 343e
00000080: b1b6 163d 6e87 f93d 787b 413e 1a6a 1c3d
00000090: 1496 53bd 9eb1 923d 2374 d13d a46b 573d
000000a0: 44ec 2fbd 53c9 673d 7dc0 283d 9368 103d
000000b0: 71bc 32bb 3a77 3f3d 557e bfbd 3f47 1a3e
000000c0: 3cb9 d3bc 1a0d 86bc 1db5 08be 2dfe d1bd
000000d0: 03d8 943d 414f 3ebe 4ecc 813d b1c9 72bd
000000e0: 6f82 bc3d 8929 8d3c b53e 9a3d 0dcd 103e
000000f0: 516a 713d 5145 e73d 4f6c 443d 537a 753d
00000100: b498 27be ab97 ea3a 0c8e c93b 2611 913c
00000110: ecb7 d1bd f096 1fbe 4a11 bfbd 1576 f7bc
00000120: 9052 c73d 0adc 16bc e43a a0bd bbaa f83b
00000130: f267 a7bc ded3 de3b d553 003e 6808 de3c
00000140: 6363 f9bb e03f dfbd e95f efbd e89e b03d
00000150: 70f2 5c3b 7ef7 b53d 76fd 443d e90b 50bd
00000160: 31b6 09be 624c 833c b89d 4abd 3ae1 8d3d
00000170: 6e15 05bc fa5a abbd ad4c 243e 1896 743d
00000180: 36b5 073d 5be1 a0bc 1df2 8cbd 7a7d 9b3d
00000190: d9c6 993d d2ed 913e 3955 32bd 836e 993d
000001a0: 5c17 b0bc 2b5f 31bd 3932 acbb 37ed 54bc
000001b0: 5ae3 253d 7b4c 5f3c 5e68 8c3d 096d 303b
000001c0: 4762 43be 363a c03d 5bdb 4d3e 8790 afbb
000001d0: 0427 febc c53a 5a3c 04ef 60be 0e63 e23d
000001e0: d25a 8e3d fd0f e6bd ee8f 2a3e 7966 b03d
000001f0: 7433 f53c 22da 013e 3564 c33d 8a16 babc
00000200: 0570 aebc 18a4 ffbc b2a2 0ebe 106e edbc
00000210: 6a37 b0bc bb9d 09bd 5a12 6fbc 6dfe cd3c
00000220: b0d5 543d 85b6 6cbc 3657 573e 513c 1f3e
00000230: 49ea 8ebd 8ea9 e73d 8d40 bcbc 12df ad3e
00000240: 457e 453d ee68 903d cbb0 403d 48b3 c13d
00000250: 5611 373e 01e2 413b 73ee 293c 502b 503c
00000260: 05d2 373d 34bc 3abd 2bf2 243c 82cd dbbc
00000270: be70 023e 52ba d63d b08f 193e 76e6 003d
00000280: ecec 05bc e291 38bc f999 c03c ef5a a7bd
00000290: 02b5 ab3d 59ed 12bc d3a2 32bd e034 a13d
000002a0: 50eb b23b 98a3 083e d0b4 093e eb71 adbd
000002b0: 956a b23d e2d2 4a3d e7a2 47bd b4ed e9bd
000002c0: d7d0 1c3c f5e9 00bd 7153 c0bd 2f07 8dbd
000002d0: cd4a d13a f3ea 553d 5229 353d a8a9 c63d
000002e0: a153 96bd 6334 76bd 0743 253e de5e 37bc
000002f0: 9647 363c 73d0 46bd d769 88bd 0bc2 9f3c
00000300: cf72 d53c 4a37 b33d 9f4f 44bd d250 d4bc
00000310: 5599 8f3b 060f a03d 63cf 20bd 54fd ffbd
00000320: f5eb b6bd f3c2 c53c 8b1d 0cbe 988a 14be
00000330: 2e1d 4a3d 9fe9 6abd 4e26 0bbe 9117 603d
00000340: 5c95 973d 4c28 093e 05fe a03d 57d9 b43d
00000350: b619 3f3d f30c 5bbe 839d ebbc 6789 bebd
00000360: 6a23 a1bd 2727 06bd 3f90 66be b462 033e
00000370: 8b40 b03c 06f7 963c 8fee a33b 3166 18bd
00000380: 41e0 aebd 753e e7bb bd98 b3bc 2d33 2b3e
00000390: 28cd 89bc e41c debd c5af cebd 847a 75bb
000003a0: 4302 353d 2a23 3ebd 74f5 1a3d 463b e73d
000003b0: d26b 193c 0f45 aebb 9ab3 8f3d bcc6 1cbd
000003c0: d595 043b d813 42bd 9dc2 bbbd 606f 0b3e
000003d0: 1987 9cbd 81ff 03be 4ab1 f23b ce5e 5f3d
000003e0: 100a 763d 32b7 663c be02 843c c5ad febd
000003f0: e099 743d 44b1 f0bd d28e b13d fc1d 193e
-0.18224873 0.10403994 0.04079013 -0.011568516 0.02635865 0.25052124 0.020526268 0.014849325
0.019705646 0.009638914 -0.042480454 0.0040240395 -0.04078659 -0.13248914 -0.06454113 0.16854283
0.039788716 -0.17975092 -0.028219726 -0.1303801 -0.025550654 0.023636213 -0.0221784 0.028460568
0.040512607 0.007622534 0.08368163 -0.11535132 0.04976463 -0.13468798 -0.04839199 0.17621613
0.03679532 0.12184034 0.18894756 0.038187124 -0.051656798 0.07162784 0.102272294 0.05259289
-0.04294993 0.056588482 0.041199196 0.03525598 -0.0027272964 0.046744563 -0.09350268 0.1506624
-0.025845163 -0.01636367 -0.13350339 -0.10253558 0.072677635 -0.1858492 0.06337796 -0.05927438
0.09204566 0.01723172 0.07531492 0.1414072 0.05893928 0.11292518 0.047954854 0.05993111
-0.16366845 0.0017897984 0.0061509665 0.017708372 -0.102401584 -0.15584922 -0.093294695 -0.030207673
0.097325444 -0.009207735 -0.078237325 0.007588712 -0.020435307 0.006800159 0.1253198 0.027103618
-0.007610725 -0.10900855 -0.11688215 0.08624059 0.003371384 0.08885096 0.04809328 -0.05079261
-0.13448407 0.016027633 -0.04946682 0.06927724 -0.008122785 -0.08366962 0.16044874 0.059713453
0.0331318 -0.019638708 -0.06882117 0.07592292 0.0750863 0.28501755 -0.043538306 0.074917816
-0.021495514 -0.04330365 -0.0052550104 -0.01299601 0.040500022 0.013629074 0.06855844 0.0026920459
-0.19080459 0.09386103 0.20103209 -0.005357805 -0.031024463 0.013319676 -0.21966177 0.110540494
0.06950916 -0.11233518 0.16656467 0.08613295 0.029931761 0.12680867 0.09540597 -0.022715826
-0.02129365 -0.031206176 -0.13929251 -0.028983146 -0.021510798 -0.03359769 -0.014591778 0.025145734
0.0519616 -0.014447813 0.21029362 0.15550353 -0.0697828 0.11311637 -0.022979999 0.33959252
0.048216123 0.07051264 0.047043603 0.09458023 0.17877707 0.0029584172 0.010371792 0.012705639
0.044878025 -0.04558964 0.010067503 -0.026831392 0.1273832 0.104847565 0.14996219 0.031469785
-0.008174162 -0.01126525 0.02351092 -0.08171641 0.08384134 -0.008967721 -0.043612313 0.07871413
0.0054601803 0.13343656 0.1344788 -0.08468994 0.08711735 0.04951752 -0.04873934 -0.114222914
0.009571276 -0.03147312 -0.09390915 -0.06886136 0.0015967727 0.05222602 0.04422886 0.09700328
-0.0734017 -0.060108554 0.1613885 -0.011192052 0.011125466 -0.048538636 -0.06660812 0.019501707
0.026055722 0.0875078 -0.047927495 -0.025917444 0.0043822923 0.078153655 -0.03926028 -0.124994904
-0.08931724 0.02414081 -0.13683145 -0.14505994 0.049344234 -0.057351705 -0.13588831 0.054709975
0.07401535 0.13394278 0.078609504 0.08830517 0.04665538 -0.21391658 -0.02876163 -0.09303551
-0.07868083 -0.032752182 -0.22515963 0.12830621 0.021515151 0.018428337 0.0050028036 -0.037206832
-0.08538867 -0.007057006 -0.021923417 0.16718741 -0.016821459 -0.10845354 -0.10092119 -0.0037457058
0.04419161 -0.046420254 0.03783174 0.112906024 0.009364085 -0.005318291 0.07016678 -0.038275465
0.0020230908 -0.047382206 -0.09167979 0.13616705 -0.07642955 -0.12890436 0.0074063884 0.054533772
0.06006819 0.014081763 0.016114589 -0.12435488 0.05971706 -0.11752561 0.08669819 0.14952844

network.9.bias f4 [63]
00000000: aac5 fb3e 98c5 fd3e 9b06 033f 2562 ff3e
00000010: b10c 003f b3ce 093f 4120 003f 78d5 fd3e
00000020: 946e fb3e 62ff 053f 2fe9 fa3e e755 fe3e
00000030: bb90 fb3e 44ec ff3e 988c 0b3f 13a9 053f
00000040: b2ce 033f 74f5 053f 129d 003f fd67 fd3e
00000050: ef2f fe3e f4ae 033f 02d8 ff3e b946 ff3e
00000060: a0b8 003f 7c9c fa3e 3f37 093f f1f4 053f
00000070: d6cb f43e a870 ff3e 736b fd3e a112 003f
00000080: 0e6f fe3e aa83 fe3e 57d0 fd3e ea2d f83e
00000090: 3a45 023f 95b4 053f 443f f93e 6ea3 fd3e
000000a0: 636d fb3e 9ce1 033f 4b32 013f d9d2 fe3e
000000b0: a14f 003f 84a8 fc3e 30f9 043f f4bd fd3e
000000c0: 22a9 f43e df9e fb3e 41ae 013f 17e8 fe3e
000000d0: 2943 fc3e ac39 fa3e fce8 fe3e cb1d fe3e
000000e0: 3dc8 fb3e c114 fe3e c4ca 0c3f a4ae fa3e
000000f0: b1b8 073f 48e5 fd3e a03b fb3e
0.49174243 0.49564815 0.51181954 0.49879566 0.50019366 0.5383102 0.50049216 0.49576926
0.49107802 0.5234281 0.4900603 0.49674913 0.49133858 0.49984944 0.54511404 0.5221111
0.51487267 0.52327657 0.5023967 0.494934 0.49645945 0.5143883 0.49969488 0.49858645
0.50281715 0.48947513 0.53599924 0.52326876 0.47811764 0.49890637 0.4949604 0.50028425
0.49694103 0.49709827 0.49573013 0.4847253 0.5088688 0.5222867 0.4868108 0.4953875
0.49106893 0.5151613 0.50467366 0.4977024 0.50121504 0.49347317 0.5194273 0.49558985
0.47785288 0.49144647 0.50656515 0.49786445 0.4926999 0.48872125 0.49787128 0.49632105
0.49176207 0.4962521 0.54996896 0.48961365 0.5301619 0.4958899 0.49068928

network.10.running_mean f4 [63]
00000000: 6d9c 203f c030 113f 70fb 493f 5f76 ab3e
00000010: 3c87 2c3f beab 2e3f 7c7a ed3e d517 913e
00000020: 96ce 0d3f 1614 233f 7237 273f 0bda 283f
00000030: f6c6 e83e 866f 263f b535 553f 254f 203f
00000040: 858e 363f 3f64 293f 3428 a03e 73af fb3e
00000050: ae12 e33e 3e41 263f 7419 e13d c44b 033f
00000060: c3a9 9a3e f5b4 233f b83a 593f 5af2 ec3e
00000070: ba06 233f f7b7 dc3e 20b2 083f 52ff 473f
00000080: 55e8 a73e b563 023f 9999 103f 5022 183f
00000090: f751 dd3e e149 113f adac bd3e 5cbe c63e
000000a0: ba5c 123f 6db3 493f fe9a f13e 7bae 0e3f
000000b0: 2b92 803e 6ab9 9e3e 3a7f 203f 961d 123f
000000c0: dcc2 e63e cb7d 2e3f 2089 0d3f c3bd 053f
000000d0: f33e 183f b9ed eb3e 0437 4e3e 6245 123f
000000e0: fad7 eb3e f742 d33e 384f e43e b4fc e13e
000000f0: ceda 413f ad67 2f3f baa8 cb3e
0.62738687 0.5671501 0.7889929 0.33488747 0.6739385 0.6823081 0.4638251 0.28338495
0.5539335 0.63702524 0.6531898 0.6595771 0.45464295 0.6501392 0.83285075 0.62620765
0.7131122 0.6616859 0.31280673 0.49157295 0.4435019 0.649433 0.10991183 0.51287484
0.30207643 0.63947994 0.8485522 0.4627865 0.6368214 0.43109104 0.533968 0.7812396
0.32794443 0.5093339 0.5648437 0.59427357 0.43226597 0.56753355 0.37045804 0.38817108
0.5717274 0.78789407 0.47188562 0.55734986 0.25111517 0.31000835 0.6269413 0.57076395
0.4507054 0.68160695 0.5528736 0.5224268 0.5947105 0.46079805 0.20138174 0.5713712
0.46063215 0.41262028 0.4459169 0.4413811 0.75724494 0.6851757 0.39777166

network.10.running_var f4 [63]
00000000: 6a97 903e d951 0e3e ca8b 593e 2e6b 9d3d
00000010: e24a 1a3e 0f3b 4e3e 69d1 8e3d d7ac 9a3d
00000020: 306c 563e fff1 363e ec01 473d 307a 8e3e
00000030: 116a 383d a4c9 e33d e0fa 933e 2ab8 023e
00000040: 960a 363e b919 863e e13d 0b3e 5f72 063e
00000050: c4b8 e63d 61e3 a73e a1c4 b43d bbec b33d
00000060: 5160 bb3d 0b4c 613e 5a73 c63e f7e4 123e
00000070: 0b24 283e 5dc0 7a3e e0aa 423d 971d 2e3e
00000080: f712 2f3e 72d7 5a3e da88 f03d ee05 fe3d
00000090: 578f 483d 2e2a 5a3e f1fd df3d 902f be3d
000000a0: 998b cb3d e692 5c3e eff3 3d3e 32ff e13d
000000b0: 1be6 a23d 62bb 1d3e 29a4 cd3d c880 fc3d
000000c0: 50a8 1b3e 5f89 2d3e 8466 fe3d 3b10 e83d
000000d0: 1384 073e 4178 f93d 4a5f a03e 9b07 0b3e
000000e0: f030 833e 0ff9 723e 01d0 113d ec2b 453e
000000f0: 700d 973e d885 6d3e 1e68 e33d
0.2824052 0.1389841 0.21244732 0.076864585 0.15067628 0.20139717 0.069735356 0.07552498
0.20939708 0.17865752 0.048585817 0.27827597 0.045023028 0.11122444 0.2890234 0.12765566
0.17777476 0.261915 0.13597824 0.13129567 0.1126571 0.32790664 0.088265665 0.08785387
0.0914923 0.22001664 0.3875988 0.14345156 0.1642 0.24487443 0.04752624 0.17003475
0.17097078 0.21371248 0.11744852 0.12403475 0.048964825 0.21305153 0.10937107 0.092864156
0.099387355 0.21540412 0.18550085 0.11035003 0.079540454 0.15403512 0.10041077 0.123292506
0.15200925 0.16946934 0.12421897 0.11331221 0.13233976 0.1218114 0.313227 0.1357712
0.25623274 0.23727821 0.03559876 0.19255036 0.2950244 0.23195589 0.11103843

network.12.weight f4 [63, 63]
00000000: 62ff 12be 1f12 133d 37b8 b63d e860 78bd
00000010: 65cf a23d 2da6 0d3e a229 b7bc edc2 9d3c
00000020: cf3e 503d e825 68bc 5252 3abd 4aea 91bd
00000030: 1c9f a9bd d286 65bc 4278 8abb 66ba 993d
00000040: ec73 8a3d a711 7f3d ff87 813d 1479 043d
00000050: 600c 53be 4080 353d b4cb 243d 09f7 2cbe
00000060: 8c85 ba3c 77b8 40bd 990a 643d 7c6c 8bba
00000070: dcba 863e 2731 5a3d feb7 1dbe d9ca 2e3d
00000080: a333 9abd 9190 a73d d61e f6bd 8781 1d3e
00000090: 6c1d 00bd 37ee a43d 3e89 9fbd 8cfa 103d
000000a0: c45e 8f3d 99da a73d cc3b babd 673c 853d
000000b0: d532 013b 0348 b9bd ff82 00be 53e7 dcbc
000000c0: 4117 afbd 3a94 c9bd 453b 763c ef5b 893c
000000d0: 3863 abbd 3aaf f6bd d90f 313e b701 453d
000000e0: acc1 c23d f24d 14bd b47c 0b3d 2014 96bc
000000f0: 7b0b 163e 12b0 81bb f6bf c23d b008 57bd
00000100: 6f2e edbc 0fab ddbd 259a 803d f285 783c
00000110: e79f acbd 11a9 d23c 1e62 cdbd 98fa a53c
00000120: f401 c2bd 494d 0f3c 66a5 fabd 3c42 bc3d
00000130: 0909 d2bc a5f5 62bd 2631 6dbe 025b 1a3e
00000140: c12d 223e 89eb a5bc e4c2 f9bb fc9e 32bd
00000150: 6acd a53d 138a 59bb f3f2 f1bc 8132 6fbc
00000160: 8cc5 c23d 2440 dfbc 5c5e a93d 7932 333d
00000170: 583e a7bc 333c 0cbe 15ce d63d 1616 87b9
00000180: c8ca e2bb df9b 293c 89cb 2f3d da9d f43d
00000190: 0736 e6bd 0180 353e fdb9 9a3d b7a9 da3d
000001a0: 0cf0 29bc 5a29 09be f16b 663d e97d 57be
000001b0: 9342 e2bc f8a4 aebd 6e27 453d 7f97 debc
000001c0: 880f cbbb b492 563d cd89 ff3d 4797 05be
000001d0: 76d2 9a3c 3a90 84bd 383b d7bc f586 e2bd
000001e0: d185 513d 6a51 a33c 5e1b e83b 7254 d23d
000001f0: d24d ac3d 1016 883d a388 74bd 2fd4 113a
00000200: dca6 fabc 60df 25be e00e 80bd 139f 30be
00000210: 90bc 9c3d c68b 25bd d027 c6bd 9953 e1bd
00000220: 9b30 ad3b ad8a 193d bcd5 633b c9a6 363e
00000230: 0403 62bd f76f 113e ac2b 74bc ab33 fabd
00000240: f1e2 903d 7492 ca3d 10cf 58bd 3cdd 04be
00000250: 3aaa 7dbd 84a1 9f38 2f13 323b f242 07be
00000260: 86ee 22bc 7c5d 8bbd a191 b83c 7116 14be
00000270: 4640 3ebb 13c0 023d b4db bebc 0718 83bd
00000280: ab65 703d 7d75 06be 3dbf 75bd 6fed c13d
00000290: 5023 61bd c96e 7fbb 965c 323e f1a6 973d
000002a0: 33ce 1c3e 583e 7cbd 459c 37bd 0f38 0f3e
000002b0: 7be1 a3bd cf6a 7ebd 20fc 113d a257 23bd
000002c0: 9053 743d ddc8 21bb 3ecf b53d 1d09 033e
000002d0: 733f 203c e07a 4b3c f994 433c e4ef df3c
000002e0: 01c0 023e 89b7 56bd f5db d4bd 1091 0e3c
000002f0: 770e b43d 458b 05bd aff7 8cbc cab5 a23c
00000300: 33c5 00bd de28 73bb 6eb1 223e f4e1 a2bd
00000310: 408f 0b3d ba58 bb3d 2b53 d8bd 1a9b 963c
00000320: ddcb 87bd 85a6 c6ba 93d2 d73d 8621 4b3d
00000330: 41c9 983c 0794 d9bc 0d69 453d 3ec2 ca3b
00000340: 59c2 a5bd a4b3 9dbd 563f 833d 9a53 f83d
00000350: 9d1b 143d 59b0 80bd 7aad 143d b3c6 fb3d
00000360: bd52 ae3d 0a46 a53d a176 c73c 95e8 843c
00000370: ef69 88bd 0f19 383e d0aa e2bd dfa1 47bc
00000380: 74fe 323e c7a0 85be efb2 edbc 3b74 c8bc
00000390: a9de 933c 1c2c 9c3d 051e c93d db7d 853d
000003a0: 0af4 923d 5624 503c 10a3 ec3c b566 8bbc
000003b0: 445e b5bd e692 26bd d2eb 9a3c b4f4 9a3c
000003c0: 83b4 b33d 145d 8dbb ef57 64be 072d 933e
000003d0: 7aa6 a5bc c1a4 453d 67b3 62bd 9825 c03d
000003e0: d1cc 15be 6841 f13c 05e6 95bd 3385 8dbd
000003f0: a1e8 c03c cd49 4dbd a12a d83d f8b4 533e
-0.14355233 0.035905953 0.08921855 -0.060639292 0.079497136 0.13832922 -0.02235872 0.019257987
0.05084115 -0.014169194 -0.045488663 -0.07124765 -0.08282301 -0.014009194 -0.0042257616 0.07506256
0.067603916 0.062272694 0.06324767 0.03234203 -0.2061019 0.04431176 0.04023333 -0.16891111
0.022768758 -0.04705092 0.05567417 -0.0010637189 0.26314437 0.05326953 -0.15402219 0.04267392
-0.0752938 0.08181871 -0.120176 0.15381442 -0.03127806 0.080532484 -0.07789849 0.03539519
0.07000497 0.08195991 -0.090934366 0.065056615 0.0019714136 -0.09046938 -0.12549971 -0.026965773
-0.08549357 -0.09842725 0.015028779 0.01676747 -0.08368534 -0.120451406 0.17291202 0.04809734
0.09509596 -0.036207147 0.034054473 -0.018320143 0.14652817 -0.003957757 0.0950927 -0.05249852
-0.028952805 -0.108236425 0.06279401 0.015168654 -0.084289365 0.025715383 -0.1002848 0.020261094
-0.09473029 0.008746454 -0.122385785 0.09192321 -0.025639074 -0.055410046 -0.2316328 0.15073779
0.15837766 -0.020253913 -0.0076221097 -0.04360865 0.0809582 -0.003319387 -0.029534793 -0.014599443
0.09510335 -0.027252264 0.08269951 0.043749306 -0.02041547 -0.13694839 0.10488526 -0.00025765662
-0.006921146 0.010352104 0.042918716 0.1194417 -0.11240774 0.17724611 0.07555006 0.10676902
-0.010372173 -0.1339468 0.056255285 -0.21044125 -0.027619636 -0.08527559 0.048133306 -0.027171848
-0.00619692 0.052386 0.12477455 -0.13045989 0.018899184 -0.064728215 -0.026273355 -0.11060897
0.051153008 0.019936282 0.0070833405 0.10270013 0.084132805 0.06644833 -0.05970062 0.0005562929
-0.030597143 -0.16198492 -0.06252837 -0.17248182 0.07653153 -0.0404165 -0.096755624 -0.11002273
0.0052853352 0.037485767 0.0034764847 0.17837061 -0.055178657 0.14202867 -0.01490299 -0.12216886
0.07074536 0.09891215 -0.052931845 -0.12975019 -0.06192992 7.6117954e-05 0.002717208 -0.13209131
-0.009944564 -0.0680494 0.022530379 -0.14461686 -0.002903001 0.031921457 -0.023298122 -0.06401067
0.058690708 -0.13130756 -0.059996832 0.09469115 -0.054965317 -0.0038975945 0.17418131 0.074048884
0.15313034 -0.061582893 -0.044826765 0.13986228 -0.08001991 -0.06211358 0.035640836 -0.039878495
0.059650004 -0.0024686374 0.08877419 0.12796445 0.0097807525 0.012419432 0.011937373 0.027336068
0.12768556 -0.052421127 -0.10393516 0.008701578 0.087918214 -0.03260352 -0.017207948 0.019862074
-0.031438064 -0.0037103216 0.15887997 -0.079532534 0.03407216 0.091477826 -0.10562738 0.018384505
-0.06630681 -0.0015155828 0.10538211 0.049592517 0.018650653 -0.026559843 0.048195887 0.0061877063
-0.080937095 -0.07700279 0.06408565 0.12125321 0.036159147 -0.06283636 0.036298253 0.12293758
0.08511875 0.080699995 0.024348559 0.016224185 -0.0666083 0.17978309 -0.11067736 -0.012184589
0.17479879 -0.26099226 -0.029015986 -0.024469486 0.018050509 0.07625601 0.09820179 0.06518146
0.07175453 0.012703976 0.028886348 -0.017016748 -0.0885587 -0.040667437 0.018911276 0.018915512
0.08774664 -0.0043140743 -0.22299169 0.2874529 -0.020220984 0.048252825 -0.055346873 0.093821704
-0.14628913 0.029450133 -0.07319263 -0.06910171 0.023548426 -0.05011921 0.10555006 0.20674503
