src/runs/ann_left_hand/20241106/20241106-1755/ann_left_hand_5_layers_best.pth (torch, 321584 bytes, 34 tensors)

network.0.weight f4 [126, 141]
-0.012608805 0.017230649 -0.07679744 0.024521152 0.045607183 0.07402662 0.079606645 -0.03176501
0.0033777428 0.07493658 0.019483032 0.029147997 -0.016144445 0.05550229 0.02572775 -0.062849164
0.06934383 0.089068875 -0.023231663 0.044525307 -0.00085074146 0.03265457 0.031376753 -0.08266284
-0.0032839552 0.09896816 -0.05871746 -0.0073125414 0.030486003 -0.04145365 -0.029916039 0.104824156
0.026617086 -0.054032885 -0.0546367 0.03188104 0.10792723 0.08226146 -0.05160113 0.09932514
0.03396025 0.05863589 -0.10761241 0.15147617 0.027034406 0.00558368 0.0584474 -0.080029
-0.04252684 -0.011220474 0.023593709 -0.0017476701 0.058592696 0.007867321 0.0018837135 0.021816907
-0.012632546 0.027748792 -0.038036298 0.031401556 -0.058161195 -0.018647434 -0.12583439 -0.03930311
0.00326223 -0.11783871 -0.0459826 -0.07476532 0.07621637 -0.08452383 -0.07517717 0.026183872
-0.018339807 -0.0739748 -0.040503122 -0.05066676 0.022616766 -0.043244816 -0.050600186 0.051739756
-0.040414184 0.0687568 -0.025719743 -0.03879276 -0.08497657 -0.022792874 -0.029812844 0.028516421
0.006264863 0.08442134 -0.051216617 0.04977334 -0.049823906 0.097297266 -0.013682355 -0.001462979
-0.096001804 -0.048765298 0.026214024 -0.10571883 0.0015192349 0.010044161 0.00032525952 -0.02901711
-0.07790205 -0.06737394 -0.015738113 -0.009931836 -0.074425 -0.08995971 -0.0037823112 0.12841806
0.05587157 -0.03872717 0.010689242 -0.061560776 0.029003879 -0.017357212 -0.003522663 0.02458273
-0.017001752 0.046905212 -0.038711525 0.030764706 0.053966075 -0.0070252423 -0.022903498 -0.0065487083
-0.04439127 0.045280464 -0.0113564795 0.07575732 -0.09215537 -0.11720564 0.0155626815 0.036656357
-0.111816116 0.069352105 -0.025146635 0.0326116 0.0066720247 0.07454118 0.06724782 0.009289658
-0.00753832 0.067338 -0.040663797 -0.03618499 -0.007795876 -0.03242046 -0.026857326 -0.030729333
0.03144757 -0.014222428 0.01263073 -0.08009251 0.016437043 -0.005227325 -0.091693304 -0.06317458
0.031696178 -0.051344838 -0.03573615 0.03186755 0.054444466 0.024878915 -0.03274588 0.04209546
0.042315565 -0.03037415 0.029707067 -0.058530074 -0.07075557 -0.0842866 -0.017422471 -0.0767146
-0.0150851 0.040420357 -0.011343781 0.028901404 -0.0024920877 0.011979209 -0.0852603 0.021249542
0.2013039 0.039739523 -0.078048676 0.0044913157 -0.054281984 0.033826318 -0.055507746 0.032172836
-0.0324029 0.00754364 -0.026107129 0.016938131 0.02913386 0.033937547 -0.020550713 -0.02608372
-0.028763818 0.0029715784 0.07219647 -0.004954121 0.017784644 -0.012464124 -0.03019957 0.0303592
0.014335903 -0.0006710612 0.056875035 0.005873402 -0.0253823 0.015803521 -0.03572688 0.013336031
-0.0026607125 -0.12861697 0.00041410504 -0.044021025 -0.17575175 -0.10605292 -0.09615691 -0.047644902
-0.06112826 -0.18094595 -0.10290515 -0.17024402 -0.11430226 -0.12752578 0.030603608 0.040821407
0.059487533 0.01033046 -0.011203017 -0.06970704 -0.021031933 0.0008697078 -0.08950174 -0.0041905595
0.06282021 0.06716747 -0.06994314 0.027444255 -0.028020969 0.03456987 -0.033933442 -0.03512999
0.0614175 -0.02852123 0.045418438 0.018873876 0.080178455 -0.010988577 0.039511595 -0.068094745
00000000: 2995 4ebc 4a27 8d3c fa47 9dbd 95e0 c83c
00000010: 99ce 3a3d 459b 973d cf08 a33d 071c 02bd
00000020: 1f5d 5d3b 5a78 993d e19a 9f3c c8c7 ee3c
00000030: 5b41 84bc 5f56 633d 01c3 d23c 10b7 80bd
00000040: 2304 8e3d be69 b63d 5450 bebc 2b60 363d
00000050: 4b04 5fba ccc0 053d e984 003d 234b a9bd
00000060: a037 57bb d2af ca3d b881 70bd 0b9e efbb
00000070: c8bd f93c 4dcb 29bd 7b12 f5bc 0cae d63d
00000080: 130c da3c 9651 5dbd bbca 5fbd b295 023d
00000090: f408 dd3d b278 a83d b55b 53bd fb6a cb3d
000000a0: e719 0b3d 302c 703d e563 dcbd 921c 1b3e
000000b0: 4277 dd3c 4df7 b63b 8a66 6f3d 3fe6 a3bd
000000c0: a030 2ebd 14d6 37bc 9847 c13c 1412 e5ba
000000d0: e5fe 6f3d f0e5 003c f0e6 f63a 5fb9 b23c
000000e0: bdf8 4ebc 6f51 e33c f3cb 1bbd eb9e 003d
000000f0: 6f3a 6ebd 81c2 98bc bbda 00be 4cfc 20bd
00000100: 23cb 553b 6c55 f1bd 4058 3cbd 8f1e 99bd
00000110: 5417 9c3d d41a adbd 7df6 99bd 8f7f d63c
00000120: 5d3d 96bc 1a80 97bd 9ae6 25bd f387 4fbd
00000130: cc46 b93c 7a21 31bd 2442 4fbd 11ed 533d
00000140: 5889 25bd 5dd0 8c3d 36b2 d2bc 28e5 1ebd
00000150: 3208 aebd 1fb8 babc 113a f4bc 459b e93c
00000160: 7b49 cd3b 18e5 ac3d 84c8 51bd 21df 4b3d
00000170: 2714 4cbd ca43 c73d f52b 60bc 6ec1 bfba
00000180: 989c c4bd 1fbe 47bd cbbe d63c 1d83 d8bd
00000190: 1021 c73a 4490 243c 9887 aa39 4ab5 edbc
000001a0: 1c8b 9fbd 59fb 89bd 37ed 80bc 24b9 22bc
000001b0: 226c 98bd cc3c b8bd a7e0 77bb 0680 033e
000001c0: 96d9 643d 62a0 1ebd ee21 2f3c 2727 7cbd
000001d0: 8b99 ed3c b630 8ebc 7adc 66bb b961 c93c
000001e0: 4247 8bbc ae1f 403d fa8f 1ebd 4406 fc3c
000001f0: 880b 5d3d 0134 e6bb 1ea0 bbbc 8c96 d6bb
00000200: 9fd3 35bd 0278 393d 8710 3abc a726 9b3d
00000210: f4bb bcbd 8309 f0bd 9efa 7e3c fa24 163d
00000220: d9ff e4bd 7a08 8e3d 5100 cebc be93 053d
00000230: 00a1 da3b 0ca9 983d 3ab9 893d a633 183c
00000240: 0304 f7bb 81e8 893d 158f 26bd b636 14bd
00000250: 8c74 ffbb 51cb 04bd e503 dcbc 15bc fbbc
00000260: 2bcf 003d 3005 69bc 1ff1 4e3c 8b07 a4bd
00000270: faa6 863c fb49 abbb b3c9 bbbd ad61 81bd
00000280: dad3 013d f74e 52bd 1260 12bd 8c87 023d
00000290: 2901 5f3d dece cb3c 8b20 06bd 4a6c 2c3d
000002a0: 1653 2d3d 36d3 f8bc 3c5c f33c 3bbd 6fbd
000002b0: 4ce8 90bd 749e acbd 92b9 8ebc 8b1c 9dbd
000002c0: 7f27 77bc d18f 253d 44db 39bc a3c2 ec3c
000002d0: 4b52 23bb 7244 443c f49c aebd 8513 ae3c
000002e0: 9c22 4e3e e9c5 223d fcd7 9fbd e32b 933b
000002f0: c956 5ebd 778d 0a3d 175c 63bd aac7 033d
00000300: e7b8 04bd a430 f73b 9ede d5bc d6c1 8a3c
00000310: 22aa ee3c 1902 0b3d f859 a8bc 87ad d5bc
00000320: 19a2 ebbc d0be 423b bedb 933d 2e56 a2bb
00000330: 1ab1 913c 5336 4cbc 1765 f7bc dbb3 f83c
00000340: 23e1 6a3c 28ea 2fba ccf5 683d ab75 c03b
00000350: 8bee cfbc 6376 813c 5956 12bd 5e7f 5a3c
00000360: 595f 2ebb 2bb4 03be 3d1c d939 644f 34bd
00000370: 44f8 33be 4632 d9bd eaed c4bd 4d27 43bd
00000380: a061 7abd e549 39be efbf d2bd 7354 2ebe
00000390: 4e17 eabd 1e96 02be 6bb4 fa3c 5934 273d
000003a0: 33a9 733d 1741 293c dc8c 37bc 91c2 8ebd
000003b0: 294b acbc 1afd 633a b04c b7bd f650 89bb
000003c0: e2a7 803d 198f 893d 593e 8fbd c6d2 e03c
000003d0: 3b8c e5bc 2399 0d3d cbfd 0abd 77e4 0fbd
000003e0: eb90 7b3d 5ba5 e9bc af08 3a3d 639d 9a3c
000003f0: 9a34 a43d 6f09 34bc e9d6 213d 4275 8bbd

network.0.bias f4 [126]
0.4731569 0.50384194 0.5486761 0.5321546 0.5171171 0.4978446 0.5257983 0.4872103
0.5005109 0.47172132 0.5743122 0.49718544 0.52296793 0.4959782 0.50180113 0.49261647
0.44208404 0.49514857 0.51315796 0.5503724 0.49892473 0.5394458 0.5162188 0.45830697
0.5229991 0.5150617 0.60244834 0.47732595 0.4884912 0.55962116 0.5215404 0.52040035
0.5163665 0.3931065 0.46467462 0.50902045 0.54630387 0.4878321 0.39747456 0.49622238
0.5350482 0.49639472 0.51697713 0.494869 0.5918845 0.46522263 0.4535844 0.46377176
0.53382117 0.43737194 0.4985479 0.47409782 0.50402355 0.72955525 0.50680244 0.59380114
0.46409708 0.435935 0.52347744 0.44353822 0.49501392 0.5166802 0.50212365 0.50314194
0.52649254 0.50488675 0.4897307 0.5144655 0.5178064 0.40359297 0.5641902 0.58492446
0.5013692 0.56035846 0.4255817 0.47859293 0.5291805 0.5854269 0.38434207 0.49542108
0.48925415 0.5055674 0.49382976 0.445342 0.44782925 0.49690518 0.5602671 0.54076546
0.49650478 0.4809661 0.48228306 0.49012545 0.59466285 0.49807668 0.5124825 0.53006804
0.4766614 0.6221307 0.538824 0.4861239 0.63335156 0.47994474 0.4967617 0.523854
0.5130776 0.50740105 0.48661852 0.49173117 0.51552176 0.5133883 0.55225503 0.47601
0.53906065 0.47472438 0.46739244 0.4516098 0.45352256 0.53389573 0.5060109 0.5388037
0.5205143 0.5235568 0.48951402 0.45079872 0.5391094 0.5421227
00000000: 9f41 f23e c9fb 003f 0976 0c3f 493b 083f
00000010: c961 043f 7de5 fe3e b89a 063f a173 f93e
00000020: 7b21 003f 7585 f13e 2006 133f 178f fe3e
00000030: 3ae1 053f dbf0 fd3e 0a76 003f 3a38 fc3e
00000040: d758 e23e 1d84 fd3e 525e 033f 35e5 0c3f
00000050: 1073 ff3e 1f19 0a3f ea26 043f 36a7 ea3e
00000060: 45e3 053f 15db 033f 0e3a 1a3f 1164 f43e
00000070: 851b fa3e 5543 0f3f ac83 053f f538 053f
00000080: 9830 043f 4145 c93e d5e9 ed3e 2a4f 023f
00000090: 92da 0b3f 21c5 f93e c981 cb3e dc10 fe3e
000000a0: ebf8 083f 7327 fe3e 9d58 043f 785f fd3e
000000b0: be85 173f a931 ee3e 373c e83e 7e73 ed3e
000000c0: 81a8 083f 37ef df3e ac41 ff3e f3bc f23e
000000d0: b007 013f 22c4 3a3f cebd 013f 5a03 183f
000000e0: 229e ed3e df32 df3e 9e02 063f 7117 e33e
000000f0: 7772 fd3e 2745 043f 2d8b 003f e9cd 003f
00000100: 37c8 063f 4240 013f fbbd fa3e 03b4 033f
00000110: f68e 043f bda3 ce3e c56e 103f 9cbd 153f
00000120: bb59 003f a773 0f3f d8e5 d93e 220a f53e
00000130: 6078 073f 8ade 153f 7cc8 c43e d5a7 fd3e
00000140: 857f fa3e dd6c 013f 41d7 fc3e de03 e43e
00000150: e049 e53e 5b6a fe3e aa6d 0f3f 9b6f 0a3f
00000160: e035 fe3e 3041 f63e ceed f63e b9f1 fa3e
00000170: d33b 183f e803 ff3e 0e32 033f 8ab2 073f
00000180: f70c f43e f543 1f3f 5ff0 093f 3be5 f83e
00000190: 5423 223f 51bb f53e 8d57 fe3e 4c1b 063f
000001a0: 0e59 033f 09e5 013f 1026 f93e 30c4 fb3e
000001b0: 3cf9 033f 6a6d 033f 9660 0d3f 95b7 f33e
000001c0: e1ff 093f 130f f33e 104e ef3e 6639 e73e
000001d0: 1c34 e83e 64ad 083f ee89 013f 0aef 093f
000001e0: 6d40 053f d207 063f 95a1 fa3e 17cf e63e
000001f0: 1303 0a3f 8ec8 0a3f

network.1.running_mean f4 [126]
0.3613423 0.1706517 0.50257343 -0.47674084 -0.36376813 -0.06503217 0.85520726 0.53781325
0.18308313 0.11682586 0.6353191 0.5140293 0.4942556 0.8534275 1.410982 -0.07076783
1.5653275 0.87121844 0.74043095 1.0856677 1.7030472 0.5674712 -0.40556294 0.29792026
-0.14367276 0.47479525 0.43391946 0.7860016 0.18123117 0.13054173 -0.2628291 0.8825184
0.45404863 1.4088765 0.22544277 -0.09450711 -0.44887123 1.2456365 1.0895272 0.27921727
0.62472445 0.065940015 -0.287175 0.26506007 0.52424145 0.55059636 0.20541824 1.0899845
1.9992398 0.43921202 -0.58329326 0.13270645 -0.10730422 0.6932872 0.7482958 1.1137491
0.50401944 0.3585241 0.39459097 1.2233555 0.36989042 -0.5519108 0.45559496 0.93924236
0.5675496 -0.082562245 0.3315583 0.62919426 0.53635246 1.2606624 0.5902633 0.67514944
0.3950601 0.8006353 -0.590532 -0.10304993 0.54788 0.5153585 0.46700537 0.95422286
-0.45415008 -0.42431295 -0.055778313 0.5891022 0.2442234 0.7275257 0.46444443 -0.6960833
1.1291397 0.82587045 0.45569694 1.20731 -1.2887403 0.8864462 -0.27397102 0.6178732
-0.15602869 0.6127641 -0.32685623 0.74564517 0.6208669 0.921585 0.5734382 -0.6585737
1.1914225 -0.8011169 0.040101312 0.6216388 0.7204142 0.11542033 0.57172656 0.4338741
0.3164775 0.8388923 1.215585 1.354422 0.1366136 0.46378228 0.3685677 -0.46627408
0.14813678 0.84355795 0.10002089 0.844026 0.62641823 0.50453603
00000000: dc01 b93e 52bf 2e3e a7a8 003f 6017 f4be
00000010: d13f babe 962f 85bd ddee 5a3f 21ae 093f
00000020: 257a 3b3e 6642 ef3d 46a4 223f 6d97 033f
00000030: 120f fd3e 3a7a 5a3f 0f9b b43f b9ee 90bd
00000040: a75c c83f 2c08 5f3f e28c 3d3f 29f7 8a3f
00000050: 73fd d93f cb45 113f f2a5 cfbe 0189 983e
00000060: f41e 13be 5d18 f33e b12a de3e 6737 493f
00000070: aa94 393e bbac 053e 8991 86be baec 613f
00000080: 1079 e83e 1156 b43f 78da 663e f28c c1bd
00000090: 73d2 e5be 0471 9f3f a175 8b3f 91f5 8e3e
000000a0: f1ed 1f3f 8f0b 873d 9a08 93be f4b5 873e
000000b0: b034 063f e2f3 0c3f 2959 523e 9d84 8b3f
000000c0: 17e7 ff3f 66e0 e03e b552 15bf 33e4 073e
000000d0: 51c2 dbbd 457b 313f 5090 3f3f 558f 8e3f
000000e0: 6b07 013f 7990 b73e d407 ca3e ea96 9c3f
000000f0: 4762 bd3e 074a 0dbf be43 e93e 3072 703f
00000100: ee4a 113f 6516 a9bd 02c2 a93e e012 213f
00000110: 654e 093f 635d a13f 7f1b 173f 98d6 2c3f
00000120: 5145 ca3e 6ff6 4c3f 1b2d 17bf d70b d3bd
00000130: dd41 0c3f 89ee 033f 541b ef3e f347 743f
00000140: 5c86 e8be 8c3f d9be cd77 64bd 67cf 163f
00000150: b315 7a3e 203f 3a3f a9cb ed3e 8432 32bf
00000160: a687 903f 3f6c 533f 1c51 e93e 2289 9a3f
00000170: 71f5 a4bf 23ee 623f ee45 8cbe f02c 1e3f
00000180: fcc5 1fbe 1cde 1c3f b359 a7be 9ae2 3e3f
00000190: 22f1 1e3f ffec 6b3f d9cc 123f 4998 28bf
000001a0: 8880 983f ff15 4dbf 4641 243d b823 1f3f
000001b0: 116d 383f 7e61 ec3d ac5c 123f bf24 de3e
000001c0: 5709 a23e a5c1 563f 4a98 9b3f b35d ad3f
000001d0: 70e4 0b3e df74 ed3e e8b4 bc3e 7abb eebe
000001e0: 2bb1 173e 6af3 573f c1d7 cc3d 1712 583f
000001f0: f25c 203f 4629 013f

network.1.running_var f4 [126]
0.0019447403 0.0018667328 0.0054528057 0.007992178 0.0064590247 0.0049444903 0.0040622274 0.0021702023
0.0069024097 0.0022662326 0.003489688 0.007023659 0.0042815246 0.004630361 0.0065959194 0.0031339014
0.007904622 0.0030586924 0.0015367818 0.0038288275 0.0068444703 0.004043103 0.010099032 0.005914029
0.009110021 0.007968824 0.0007693254 0.0033140916 0.008639755 0.0028864874 0.0026929146 0.005283564
0.0043502483 0.0033919013 0.003965465 0.0014581674 0.006181223 0.006026053 0.004335844 0.003689882
0.0052712937 0.0037892296 0.008947399 0.0019527816 0.0011590977 0.005269181 0.004441188 0.0065004514
0.004660898 0.004598136 0.006252874 0.0048179687 0.0028050388 0.00075340655 0.0033701956 0.0030571097
0.009558567 0.0020512037 0.0047854027 0.002764293 0.0044625285 0.0071034357 0.005235284 0.006055825
0.0031170151 0.007941141 0.0049841157 0.0016036778 0.00426867 0.00708575 0.0014885202 0.002993172
0.0002718061 0.0048695523 0.0036733705 0.006149802 0.0027342516 0.0011854459 0.0017998078 0.0073921992
0.003875843 0.0076759253 0.005516775 0.0056035994 0.004017032 0.0034467361 0.001251016 0.005719547
0.0074538444 0.0033418841 0.0016650319 0.0054632225 0.008678171 0.0101452265 0.005271402 0.0062821666
0.0029595078 0.005955511 0.0053950325 0.0041251085 0.0024737292 0.0028721313 0.00095214625 0.0040647583
0.0055165356 0.008541304 0.006370647 0.0033233047 0.0027450535 0.002706954 0.003229779 0.003874064
0.005366811 0.0071965843 0.0044601182 0.003423909 0.0047447574 0.00024984416 0.0012791337 0.003861942
0.005471568 0.0023015242 0.0059587345 0.0022188127 0.004954433 0.0019865613
00000000: a8e6 fe3a 29ad f43a 73ad b23b a0f1 023c
00000010: 3aa6 d33b 6405 a23b 6f1c 853b f439 0e3b
00000020: 9c2d e23b 1385 143b 40b3 643b b926 e63b
00000030: 084c 8c3b 49ba 973b 9522 d83b 2462 4d3b
00000040: 6382 013c 5874 483b d76d c93a 11ed 7a3b
00000050: 9447 e03b 027c 843b 6976 253c 79ca c13b
00000060: 3342 153c ac8f 023c 8eac 493a 3b31 593b
00000070: c28d 0d3c 392b 3d3b 9c7b 303b bf21 ad3b
00000080: 878c 8e3b a94a 5e3b bbf0 813b fb1f bf3a
00000090: db8b ca3b 3276 c53b b213 8e3b f3d1 713b
000000a0: d1ba ac3b b954 783b 1d98 123c 7af4 ff3a
000000b0: ddec 973a 18a9 ac3b 6387 913b bd01 d53b
000000c0: 72ba 983b f6ab 963b e9e4 cc3b 0de0 9d3b
000000d0: bed4 373b 4280 453a 80de 5c3b ca59 483b
000000e0: 899b 1c3c 7d6d 063b dece 9c3b 2429 353b
000000f0: 673a 923b f0c3 e83b bf8c ab3b f16f c63b
00000100: d646 4c3b 8f1b 023c cb51 a33b 7f32 d23a
00000110: 33e0 8b3b 942f e83b 731a c33a 1829 443b
00000120: 3281 8e39 c490 9f3b eebc 703b 4784 c93b
00000130: 2131 333b f760 9b3a 87e7 eb3a 433a f23b
00000140: db01 7e3b 5486 fb3b 10c6 b43b 669e b73b
00000150: 4fa1 833b a3e2 613b 22f9 a33a 0a6b bb3b
00000160: 613f f43b 8303 5b3b 333d da3a d504 b33b
00000170: e32e 0e3c 2a38 263c babb ac3b a2da cd3b
00000180: 4df4 413b 7226 c33b d0c8 b03b eb2b 873b
00000190: 4a1e 223b 5e3a 3c3b 7499 793a aa31 853b
000001a0: 0ec4 b43b d3f0 0b3c dcc0 d03b cdcb 593b
000001b0: 5be6 333b 2767 313b b3aa 533b 02e4 7d3b
000001c0: 13dc af3b 53d1 eb3b 2f26 923b a963 603b
000001d0: e979 9b3b 84fd 8239 9ba8 a73a a318 7d3b
000001e0: d74a b33b 2bd5 163b 7d41 c33b 8069 113b
000001f0: cc58 a23b f830 023b

network.3.weight f4 [100, 126]
-0.056358468 -0.033040024 -0.05700183 -0.018392842 -0.050060347 -0.07911413 0.059841696 0.020649973
-0.034579977 -0.06828987 0.00011830304 0.0050110132 0.0807118 -0.014307755 0.06345114 -0.028039098
-0.051585767 -0.058893476 -0.04525824 -0.12205499 0.06393361 -0.06547487 -0.06000297 -0.0069940216
-0.046434432 0.033016294 -0.033768266 0.062787734 0.016352091 0.028536877 -0.086517036 -0.062329788
0.037652235 -0.08252988 -0.08819759 0.013649053 -0.007479055 -0.0128509 0.030898748 -0.0072210496
-0.06886799 -0.02241324 -0.025962433 -0.034492236 0.13301606 -0.018461842 -0.024836753 0.033270318
-0.026853818 -0.0905119 0.028477296 0.014215736 0.060822926 0.13985828 -0.060489833 0.09167307
-0.015804505 0.067256376 0.003313253 -0.02306033 0.040433504 0.016573343 0.008291961 -0.016819777
0.090295814 0.03851702 -0.0703175 0.033964865 -0.0063968347 0.076746605 -0.086699344 0.08850952
-0.04352569 0.10688065 0.11045755 0.016522309 0.059016343 0.09857647 -0.064275995 -0.09358959
0.028190661 0.108362354 -0.0064161397 0.044314552 0.0051121498 0.03328788 -0.0059260237 -0.003958458
0.07696858 0.06849376 -0.0031544159 -0.0016181025 -0.036548167 0.008034046 -0.005845456 -0.089675196
-0.030577 0.0010852447 -0.07353172 0.021507574 0.090350285 -0.02299152 -0.076588586 0.0071383826
-0.035364494 0.104958996 0.051120847 0.027167367 0.039793592 -0.07258347 -0.06303389 -0.054537013
-0.075514145 0.0076686144 0.053328358 -0.047647182 0.009027513 -0.063938215 -0.05518386 -0.09931362
-0.025925593 -0.027824437 0.062324498 0.009599365 -0.0026651693 0.025208618 -0.08174163 -0.06907242
0.03706968 0.022111528 -0.052340142 0.044284474 -0.046509713 0.06441503 0.0130923 0.04927642
0.04510338 -0.07033707 -0.022104489 -0.051371306 0.09027684 -0.045618545 -0.03776033 0.019763367
0.042722996 0.10729798 0.00032985982 -0.07495258 -0.07472199 -0.04910166 0.020242805 -0.004847988
0.0087510655 -0.0054255957 0.0071340282 -0.12769757 -0.09729527 -0.024371903 0.016806614 0.055216365
0.0154135125 -0.060816865 0.07309034 0.07670125 0.104118966 -0.004969777 0.050702702 0.0060028965
-0.04424278 0.0118302815 -0.06378538 -0.021893887 0.08666333 0.03175631 0.029010031 0.05129153
-0.08099294 -0.072859466 0.023648487 0.02455742 -0.05803542 0.0003143797 -0.04259669 0.08638858
-0.0020951831 0.046711624 -0.044288374 -0.03328293 -0.015029393 -0.059413288 0.002980222 0.018558184
0.020896442 -0.07363717 -0.039932158 0.08161527 0.045211524 -0.023442034 -0.044030752 -0.08356704
-0.099000596 -0.01619964 0.0032993918 -0.14947177 -0.029308897 -0.105308644 -0.029846653 0.05898828
-0.07527109 0.110733 -0.05909087 0.004475853 -0.06440294 0.005019285 0.09295009 -0.02554899
-0.03570946 0.043586813 -0.076236956 0.057384867 0.08826902 -0.07440392 0.026697183 -0.06910689
-0.0445491 0.053680733 0.02189013 0.106810056 0.033692677 -0.012554373 0.09575607 -0.10245719
0.09556682 0.017738668 0.073525146 0.067361884 -0.019665876 -0.056116626 0.027879069 0.06341233
0.06924996 0.017982658 -0.03557226 -0.0018501598 0.07812407 -0.049190234 -0.09242313 -0.034986563
0.004377951 0.027730042 -0.073315024 0.032315608 0.015946873 -0.044299304 -0.018009026 -0.06953006
00000000: 23d8 66bd fa54 07bd c07a 69bd 96ac 96bc
00000010: 140c 4dbd 9706 a2bd 911c 753d 222a a93c
00000020: bca3 0dbd 8fdb 8bbd 7619 f838 6d33 a43b
00000030: 3a4c a53d 136b 6abc acf2 813d 40b2 e5bc
00000040: 994b 53bd 493a 71bd b460 39bd f7f7 f9bd
00000050: a0ef 823d b017 86bd adc5 75bd 1b2e e5bb
00000060: 0832 3ebd 183c 073d 9850 0abd db96 803d
00000070: d2f4 853c 2bc6 e93c d82f b1bd 854d 7fbd
00000080: 3b39 1a3d 6d05 a9bd f0a0 b4bd 47a0 5f3c
00000090: dc12 f5bb 958c 52bc 5f1f fd3c 8e9e ecbb
000000a0: a90a 8dbd f99b b7bc 2baf d4bc bb47 0dbd
000000b0: 5d35 083e 4a3d 97bc 7276 cbbc 7546 083d
000000c0: 8afc dbbc 4e5e b9bd 3849 e93c 1ee9 683c
000000d0: 7621 793d 0237 0f3e 30c4 77bd 17bf bb3d
000000e0: 7378 81bc b6bd 893d 2923 593b 04e9 bcbc
000000f0: 9a9d 253d d2c4 873c 01db 073c a1c9 89bc
00000100: 03ed b83d 06c4 1d3d 9f02 90bd be1e 0b3d
00000110: 8a9c d1bb 532d 9d3d 6d8f b1bd 7b44 b53d
00000120: fe47 32bd 3ee4 da3d 9137 e23d cb59 873c
00000130: 1fbb 713d 76e2 c93d 22a3 83bd e6ab bfbd
00000140: 1af0 e63c 15ed dd3d 7b3e d2bb 2d83 353d
00000150: d283 a73b df58 083d 172f c2bb f4b5 81bb
00000160: b4a1 9d3d 7546 8c3d 51ba 4ebb 8316 d4ba
00000170: 88b3 15bd 3ba1 033c 3d8b bfbb a1a7 b7bd
00000180: 9e7c fabc c53e 8e3a cc97 96bd a730 b03c
00000190: 9209 b93d b658 bcbc 7ada 9cbd 18e9 e93b
000001a0: 5cda 10bd bef4 d63d 1864 513d 198e de3c
000001b0: 9bfe 223d a4a6 94bd ea17 81bd 3462 5fbd
000001c0: 29a7 9abd 0049 fb3b d66e 5a3d b129 43bd
000001d0: 22e8 133c 0af2 82bd 7908 62bd f064 cbbd
000001e0: e961 d4bc 13f0 e3bc f947 7f3d a846 1d3c
000001f0: 1faa 2ebb 4e82 ce3c 2868 a7bd d775 8dbd
00000200: 60d6 173d 3c23 b53c 9e62 56bd a363 353d
00000210: f880 3ebd 07ec 833d 1681 563c 12d6 493d
00000220: 52be 383d e20c 90bd 7914 b5bc b86a 52bd
00000230: 10e3 b83d 83da 3abd 93aa 1abd c9e6 a13c
00000240: 4ffe 2e3d 0bbf db3d 09f1 ac39 bd80 99bd
00000250: d807 99bd d21e 49bd 3dd4 a53c dfdb 9ebb
00000260: a160 0f3c 32c9 b1bb 91c4 e93b 27c3 02be
00000270: be42 c7bd 96a7 c7bc 06ae 893c 8e2a 623d
00000280: f588 7c3c 1b1b 79bd 63b0 953d 8c15 9d3d
00000290: 533c d53d 83d9 a2bb a3ad 4f3d f2b3 c43b
000002a0: eb37 35bd ccd3 413c e9a1 82bd cf5a b3bc
000002b0: 8b7c b13d e812 023d 72a6 ed3c 1117 523d
000002c0: a0df a5bd 5837 95bd 79ba c13c a42c c93c
000002d0: 8cb6 6dbd 54d3 a439 de79 2ebd 7fec b03d
000002e0: 574f 09bb b054 3f3d ba67 35bd ae53 08bd
000002f0: d83d 76bc 595b 73bd d44f 433b 5507 983c
00000300: 042f ab3c 16cf 96bd e78f 23bd e825 a73d
00000310: b82f 393d 8209 c0bc 9759 34bd 3225 abbd
00000320: d3c0 cabd 1cb5 84bc 9c3a 583b 210f 19be
00000330: 3619 f0bc 0fac d7bd f880 f4bc b29d 713d
00000340: bb27 9abd fcc7 e23d 4509 72bd 2daa 923b
00000350: b0e5 83bd d078 a43b 9e5c be3d 1e4c d1bc
00000360: 1544 12bd 1688 323d 1f22 9cbd 650c 6b3d
00000370: 63c6 b43d 1561 98bd 0db4 da3c ea87 8dbd
00000380: 1e79 36bd 54e0 5b3d ee52 b33c 3bbf da3d
00000390: 5501 0a3d dbb0 4dbc c21b c43d 13d5 d1bd
000003a0: 89b8 c33d af50 913c 5a94 963d 07f5 893d
000003b0: 551a a1bc 8cda 65bd a562 e43c 53de 813d
000003c0: ecd2 8d3d 5e50 933c 38b4 11bd 1081 f2ba
000003d0: 83ff 9f3d b37b 49bd 5748 bdbd 124e 0fbd
000003e0: ea74 8f3b 1d2a e33c 3026 96bd 5f5d 043d
000003f0: 04a3 823c 3073 35bd aa87 93bc c765 8ebd

network.3.bias f4 [100]
0.5500147 0.5045617 0.5239121 0.51197946 0.49500623 0.499188 0.50773454 0.49535874
0.5001966 0.4953761 0.507004 0.4946666 0.5066507 0.5448304 0.49122334 0.50082505
0.48653835 0.5145633 0.5024599 0.5190308 0.48896766 0.49523622 0.5057649 0.49393284
0.49939615 0.49813145 0.50159705 0.4955022 0.49591482 0.50504386 0.49560744 0.5031898
0.507414 0.4991912 0.49827474 0.4956739 0.5034807 0.50098586 0.4989466 0.52675694
0.49701184 0.5174801 0.5059929 0.49480742 0.4988846 0.50027376 0.505207 0.49237502
0.49748933 0.5084182 0.48877952 0.48796362 0.49083632 0.5003122 0.49867028 0.49839348
0.49476668 0.50323504 0.5040691 0.50016576 0.49725792 0.50089985 0.53735524 0.4915197
0.498451 0.51082885 0.49453855 0.4905356 0.498562 0.49552232 0.49506947 0.49916404
0.504083 0.50267607 0.49886397 0.5100748 0.48557582 0.49540097 0.49371257 0.5052155
0.49584684 0.50981206 0.49825302 0.51829636 0.49244624 0.4919891 0.50361 0.50827557
0.51022923 0.50376207 0.49232125 0.50856125 0.4885167 0.5020202 0.4993488 0.49345928
0.50245047 0.510223 0.5110569 0.51341796
00000000: c3cd 0c3f f52a 013f 1a1f 063f 1611 033f
00000010: 7571 fd3e 9295 ff3e e4fa 013f a99f fd3e
00000020: e20c 003f f0a1 fd3e 04cb 013f f144 fd3e
00000030: dcb3 013f 017a 0b3f a081 fb3e 1236 003f
00000040: 8e1b f93e 6cba 033f 36a1 003f 34df 043f
00000050: f859 fa3e 9a8f fd3e cf79 013f c4e4 fc3e
00000060: dab0 ff3e 160b ff3e aa68 003f 77b2 fd3e
00000070: 8ce8 fd3e 8e4a 013f 42c0 fd3e 0cd1 003f
00000080: e2e5 013f fd95 ff3e de1d ff3e f8c8 fd3e
00000090: 1ce4 003f 9c40 003f ee75 ff3e 8bd9 063f
000000a0: 5678 fe3e 9379 043f c088 013f 6657 fd3e
000000b0: cd6d ff3e f111 003f 3f55 013f 9418 fc3e
000000c0: ecb6 fe3e b227 023f 4f41 fa3e 5ed6 f93e
000000d0: e64e fb3e 7614 003f b651 ff3e 6e2d ff3e
000000e0: 0f52 fd3e 03d4 003f ac0a 013f dd0a 003f
000000f0: 9798 fe3e f93a 003f 1d90 093f 78a8 fb3e
00000100: f834 ff3e aec5 023f 2834 fd3e 7b27 fb3e
00000110: 8543 ff3e 1ab5 fd3e bf79 fd3e 6e92 ff3e
00000120: 950b 013f 61af 003f 196b ff3e 4394 023f
00000130: 659d f83e 32a5 fd3e e5c7 fc3e ce55 013f
00000140: a3df fd3e 0b83 023f 051b ff3e 12af 043f
00000150: ea21 fc3e ffe5 fb3e 96ec 003f 591e 023f
00000160: 629e 023f 8df6 003f 8811 fc3e 1231 023f
00000170: dc1e fa3e 6584 003f a5aa ff3e b2a6 fc3e
00000180: 98a0 003f f99d 023f a0d4 023f 5c6f 033f

network.4.running_mean f4 [100]
0.47964066 0.41938138 0.36721894 0.8137332 0.5086647 0.09855844 0.5614019 0.34579656
0.2577391 0.63541895 0.8156452 0.54081607 0.7383129 0.85909194 0.23605885 0.37436786
0.42528084 0.7136764 0.40977284 0.6025667 0.39552078 0.28034687 0.64151156 0.4024809
0.19888939 0.5815817 0.36518818 0.47128105 0.5594014 0.5957157 0.427001 0.63047504
0.68138266 0.21484226 0.44320887 0.3453164 0.31920597 0.5778499 0.20589422 0.48731485
0.7507847 0.78640115 0.6312764 0.31124455 0.482549 0.61985457 0.5542051 0.5326749
0.07627075 0.4732375 0.29761174 0.6018622 0.18275706 0.769365 0.27775255 0.34655124
0.35116285 0.6151548 0.6124613 0.18662553 0.4960431 0.7022295 0.68759704 0.15083149
0.27518228 0.7534722 0.54013574 0.77913547 0.36522135 0.21744463 0.81061524 0.56311244
0.32851833 0.46243462 0.5207901 0.6420946 0.38526455 0.6095129 0.24700138 0.7170706
0.47992557 0.8621413 0.32236823 0.40305665 0.07035999 0.3819446 0.27114213 0.6691309
0.6863707 0.7390443 0.7173439 0.8413945 0.50294757 -0.0010952161 0.47671485 0.42632487
0.7181026 0.25511554 0.97150064 0.6699509
00000000: 7693 f53e 28b9 d63e 1f04 bc3e d250 503f
00000010: da37 023f 02d9 c93d 09b8 0f3f 3f0c b13e
00000020: 61f6 833e d1aa 223f 20ce 503f ec72 0a3f
00000030: 1302 3d3f 73ed 5b3f 69b9 713e 25ad bf3e
00000040: 69be d93e 7fb3 363f bfcd d13e d041 1a3f
00000050: b381 ca3e a089 8f3e 1a3a 243f fa11 ce3e
00000060: a9a9 4b3e 8ae2 143f f2f9 ba3e c04b f13e
00000070: ee34 0f3f d380 183f e09f da3e d066 213f
00000080: 186f 2e3f 9cff 5b3e 46ec e23e 50cd b03e
00000090: f76e a33e f9ed 133f efd5 523e 5581 f93e
000000a0: 6d33 403f 9651 493f 559b 213f 725b 9f3e
000000b0: aa10 f73e caae 1e3f 63e0 0d3f 625d 083f
000000c0: d733 9c3d 304c f23e 9160 983e a413 1a3f
000000d0: ab24 3b3e 1bf5 443f 9535 8e3e 2a6f b13e
000000e0: 9ecb b33e c97a 1d3f 44ca 1c3f c31a 3f3e
000000f0: 5cf9 fd3e 50c5 333f 5c06 303f 9273 1a3e
00000100: b1e4 8c3e 8ee3 403f 5646 0a3f 6c75 473f
00000110: 4bfe ba3e cea9 5e3e 7b84 4f3f 2328 103f
00000120: 8e33 a83e 3bc4 ec3e 8052 053f 5060 243f
00000130: 6541 c53e 0a09 1c3f eeed 7c3e f091 373f
00000140: ceb8 f53e 4bb5 5c3f 730d a53e 715d ce3e
00000150: e618 903d 3e8e c33e 24d3 8a3e 2a4c 2b3f
00000160: fdb5 2f3f 0232 3d3f daa3 373f a165 573f
00000170: 2cc1 003f 5b8d 8fba f813 f43e 4147 da3e
00000180: 92d5 373f 819e 823e 44b4 783f e781 2b3f

network.4.running_var f4 [100]
0.05537321 0.26330307 0.06859468 0.41213623 0.27166048 0.26703122 0.10625507 0.18617839
0.33554375 0.1310451 0.58688164 0.10295592 0.08968038 0.17427465 0.40543348 0.85414135
0.13318543 0.2646392 0.1114105 0.056692444 0.1456028 0.0824413 0.21773465 0.25923425
0.34057516 0.28653568 0.09608883 0.30337316 0.0951411 0.16021495 0.16271876 0.41820166
0.25072035 0.3239654 0.11148166 0.092194095 0.1349227 0.09296016 0.13817118 0.11892687
0.39478722 0.12376236 0.56107104 0.27975687 0.37028491 0.19210711 0.21452387 0.3340854
0.17157614 0.07233682 0.4208659 0.15095764 0.15669791 0.3999755 0.15959822 0.19672744
0.113272235 0.19949043 0.54698247 0.3373133 0.10439391 0.18247283 0.13536057 0.16703562
0.21101828 0.15559359 0.16331217 0.42130703 0.28113577 0.097428635 0.30447552 0.29586875
0.35395432 0.117759645 0.22797543 0.0716914 0.45621333 0.39905503 0.075725004 0.20622738
0.26081282 0.3087005 0.11749611 0.060334317 0.31446055 0.07786484 0.15131359 0.15179229
0.22045688 0.35435882 0.120987475 0.31860113 0.21014331 0.33538824 0.13069838 0.17663105
0.22245474 0.04806426 0.18189155 0.20932941
00000000: 05cf 623d a9cf 863e 5e7b 8c3d 8503 d33e
00000010: 1517 8b3e 51b8 883e 429c d93d 8ca5 3e3e
00000020: 64cc ab3e b030 063e e03d 163f 8eda d23d
00000030: 59aa b73d 0e75 323e fa94 cf3e 02a9 5a3f
00000040: c361 083e ca7e 873e 302b e43d 5636 683d
00000050: e718 153e fcd6 a83d d5f5 5e3e 5aba 843e
00000060: de5f ae3e ceb4 923e 38ca c43d ba53 9b3e
00000070: 56d9 c23d 630f 243e bf9f 263e 871e d63e
00000080: 6b5e 803e cbde a53e 7f50 e43d 42d0 bc3d
00000090: 2d29 0a3e e561 be3d bf7c 0d3e ee8f f33d
000000a0: 8d21 ca3e 1f77 fd3d 5aa2 0f3f 4b3c 8f3e
000000b0: fc95 bd3e bab7 443e 25ac 5b3e 3e0d ab3e
000000c0: a8b1 2f3e 5425 943d bc7b d73e a494 1a3e
000000d0: 6b75 203e 97c9 cc3e b76d 233e eb72 493e
000000e0: 46fb e73d 3847 4c3e 0b07 0c3f 54b4 ac3e
000000f0: 79cc d53d 28da 3a3e f69b 0a3e 630b 2b3e
00000100: 2d15 583e ed53 1f3e 4e3b 273e 8eb5 d73e
00000110: 07f1 8f3e aa88 c73d 37e4 9b3e 1c7c 973e
00000120: 8039 b53e f82b f13d 6472 693e f1d2 923d
00000130: cb94 e93e f150 cc3e b615 9b3d 452d 533e
00000140: 4289 853e fe0d 9e3e cda1 f03d 1e21 773d
00000150: f900 a13e 9a77 9f3d f3f1 1a3e 706f 1b3e
00000160: 73bf 613e 856e b53e 48c8 f73d b01f a33e
00000170: cf2f 573e 02b8 ab3e ccd5 053e c5de 343e
00000180: 2dcb 633e 08df 443d c741 3a3e 735a 563e

network.6.weight f4 [100, 100]
-0.07145908 0.06680988 -0.116387546 -0.036096603 0.028517097 0.030300409 -0.043522377 0.11845808
0.0881675 -0.013563068 -0.059718434 -0.07875838 -0.07001809 0.04656564 0.022208631 0.05569922
-0.04813568 0.07928659 0.0036887638 -0.055390105 -0.078832865 0.06947115 0.12530315 0.06714246
0.07204221 -0.059534144 0.026289554 0.021651227 -0.15022285 -0.025066521 -0.07763743 0.0623453
-0.081397094 -0.1105639 0.07361727 -0.037236292 -0.04335685 0.05632475 0.038205836 0.0065878173
0.07539446 0.03420262 0.06545111 -0.09767369 0.040939234 0.025154648 0.0660882 -0.072297595
-0.07627802 0.11158191 -0.03802165 0.081952415 -0.038042188 0.031069813 0.007556335 0.08387641
-0.05744759 -0.023613581 0.042247776 -0.12160627 0.06793686 -0.036611464 -0.040699374 0.050626643
-0.03399299 0.075420216 -0.0041678273 -0.07883427 0.046716664 -0.040407207 -0.0067402404 -0.03306102
-0.04498571 0.07946303 -0.019768719 0.04026208 -0.020442259 0.094366215 0.034386627 0.060207207
-0.12325104 -0.047266666 -0.052575104 -0.18044467 -0.1171354 -0.1117542 0.016302254 0.013206333
0.078885555 -0.040941563 0.13534631 -0.029129855 0.09105225 -0.0649714 -0.07438819 -0.026201408
0.03769849 -0.055550873 0.06707565 0.033876117 0.010941214 0.0743532 0.116294615 -0.05415535
0.006341947 -0.03589577 0.05743808 -0.07023958 -0.10721148 0.08342965 -0.061414335 -0.0642152
0.0912962 0.04367201 -0.093816966 0.014985313 0.011654433 0.058124244 0.018050753 0.068892516
0.04932542 -0.09021351 0.076589525 0.04530911 -0.119348034 -0.10331512 0.0023698334 0.043887105
-0.140287 0.07680227 -0.03861782 0.10180505 0.003698538 -0.042545374 0.013567704 -0.08455694
-0.08319757 0.027348964 0.048637487 0.073147744 -0.024736296 0.047196362 0.046120714 0.11901831
0.068602435 0.063790016 -0.024340533 -0.04106061 0.017474545 0.120886385 0.052648768 -0.010162999
0.06025473 0.00062862673 -0.06380712 0.108217515 0.042238317 0.04546842 -0.04403883 -0.018102719
0.014000339 -0.0221035 0.038773652 0.08174016 0.05675631 0.048629697 0.04530552 -0.015909867
0.05427767 -0.1111874 0.0045216787 0.10366791 -0.13628893 0.01781638 -0.0644213 0.039782032
0.0852747 0.07348926 -0.09492626 0.0044595567 -0.07264439 0.06859659 -0.064478554 0.011766181
0.097671166 -0.041170333 -0.12760663 -0.023361465 0.06580276 -0.041121624 0.060829554 -0.100507304
-0.056119256 0.015091513 0.029483784 -0.011204983 0.013994113 -0.17681588 0.05077267 0.0020724535
0.08395108 -0.06558727 0.02427849 0.11984305 -0.012701216 -0.009633901 0.0033828758 -0.025142105
0.07735225 -0.009027766 0.05761314 0.035104003 -0.10358225 0.0036202995 -0.053463917 0.03201437
-0.024778094 0.012438341 -0.033812277 -0.108229585 -0.084762834 -0.024350425 -0.018788483 -8.595782e-05
-0.09589053 -0.02761158 -0.008382383 -0.055215217 0.05914953 -0.05418701 -0.0024576478 -0.03678037
-0.10025403 -0.062401917 -0.05192232 -0.04746663 0.048163243 0.049596336 0.07306409 0.035115305
0.035387862 -0.1355382 0.037453096 0.047038034 0.055241883 0.013691324 -0.0388278 0.08246105
-0.009763783 0.027231818 0.05278842 -0.022441672 -0.005896653 0.06811813 -0.06061205 0.0016413716
00000000: 2359 92bd 9ed3 883d 985c eebd 08da 13bd
00000010: b09c e93c 9038 f83c 8544 32bd 269a f23d
00000020: 2a91 b43d a137 5ebc 519b 74bd 134c a1bd
00000030: a565 8fbd 9dbb 3e3d e0ee b53c de24 643d
00000040: eb29 45bd 0261 a23d 30bf 713b bce0 62bd
00000050: 2073 a1bd e446 8e3d 784f 003e fc81 893d
00000060: de8a 933d 13da 73bd 315d d73c ea5d b13c
00000070: 05d4 19be 4e58 cdbc 5f00 9fbd c95d 7f3d
00000080: 85b3 a6bd 536f e2bd a7c4 963d 1585 18bd
00000090: f496 31bd c8b4 663d b97d 1c3d 9ede d73b
000000a0: 6968 9a3d 0c18 0c3d 3b0b 863d 2509 c8bd
000000b0: e6af 273d 1f11 ce3c 4059 873d c310 94bd
000000c0: a737 9cbd 0e85 e43d 97bc 1bbd abd6 a73d
000000d0: 20d2 1bbd 1f86 fe3c 229b f73b 65c7 ab3d
000000e0: 2a4e 6bbd 4571 c1bc 010c 2d3d b50c f9bd
000000f0: 7b22 8b3d e7f5 15bd 63b4 26bd e25d 4f3d
00000100: 3c3c 0bbd ea75 9a3d 4592 88bb dd73 a1bd
00000110: f959 3f3d 0782 25bd 3cdd dcbb fe6a 07bd
00000120: f042 38bd 83bd a23d 02f2 a1bc dae9 243d
00000130: 8676 a7bc 1343 c13d fed8 0c3d d59b 763d
00000140: 0b6b fcbd b19a 41bd fe58 57bd 7dc6 38be
00000150: afe4 efbd 63df e4bd 4e8c 853c 605f 583c
00000160: c08e a13d 57b2 27bd 3998 0a3e bca1 eebc
00000170: 9a79 ba3d ba0f 85bd d658 98bd 56a4 d6bc
00000180: bb69 1a3d 5089 63bd f55e 893d afc1 0a3d
00000190: c742 333c 7e46 983d df2b ee3d 00d2 5dbd
000001a0: 1bd0 cf3b 7107 13bd 3144 6b3d c5d9 8fbd
000001b0: b191 dbbd 2add aa3d 998d 7bbd 4283 83bd
000001c0: 81f9 ba3d 6ce1 323d 1c23 c0bd f584 753c
000001d0: 3cf2 3e3c b013 6e3d 2cdf 933c 8517 8d3d
000001e0: 7409 4a3d dcc1 b8bd f8da 9c3d 0c96 393d
000001f0: be6c f4bd e196 d3bd 354f 1b3b f7c2 333d
00000200: 65a7 0fbe 824a 9d3d b82d 1ebd 2b7f d03d
00000210: 2c63 723b 0f44 2ebd 134b 5e3c 302c adbd
00000220: 7d63 aabd ef0a e03c 1a38 473d 7cce 953d
00000230: c6a3 cabc f950 413d 13e9 3c3d dfbf f33d
00000240: 6f7f 8c3d 57a4 823d cc65 c7bc 2c2f 28bd
00000250: c726 8f3c 4893 f73d 3ca6 573d b582 26bc
00000260: aacd 763d 6dca 243a 4fad 82bd 25a1 dd3d
00000270: 1602 2d3d 183d 3a3d 0f62 34bd 274c 94bc
00000280: ae61 653c 6612 b5bc 1fd1 1e3d 6367 a73d
00000290: 4e79 683d ef2f 473d 4892 393d 6955 82bc
000002a0: 4352 5e3d 38b6 e3bd 972a 943b d74f d43d
000002b0: 538f 0bbe a8f3 913c 51ef 83bd 7cf2 223d
000002c0: 80a4 ae3d 8a81 963d b368 c2bd 7921 923b
000002d0: 95c6 94bd 5e7c 8c3d 550d 84bd f1c6 403c
000002e0: d207 c83d 39a2 28bd 50ab 02be 8b60 bfbc
000002f0: 99c3 863d 266f 28bd 6928 793d c6d6 cdbd
00000300: 4edd 65bd 6542 773c fa87 f13c 1b95 37bc
00000310: 9047 653c 390f 35be 01f7 4f3d 00d2 073b
00000320: 8bee ab3d 9e52 86bd afe3 c63c 4670 f53d
00000330: c318 50bc 82d7 1dbc 3db3 5d3b d1f6 cdbc
00000340: db6a 9e3d 32e9 13bc c2fb 6b3d 37c9 0f3d
00000350: ee22 d4bd 8c42 6d3b fbfc 5abd 8021 033d
00000360: 6efb cabc 2fca 4b3c be7e 0abd 79a7 ddbd
00000370: 2398 adbd 8b7a c7bc 4eea 99bc 4144 b4b8
00000380: 4162 c4bd ae31 e2bc 4356 09bc 5a29 62bd
00000390: c746 723d 33f3 5dbd 7d10 21bb 03a7 16bd
000003a0: fc51 cdbd 2799 7fbd 80ac 54bd 5e6c 42bd
000003b0: d246 453d 8725 4b3d a0a2 953d 11d5 0f3d
000003c0: ddf2 103d 87ca 0abe 6b68 193d f4aa 403d
000003d0: 5045 623d 9351 603c e609 1fbd 57e1 a83d
000003e0: 46f8 1fbc 4315 df3c ac38 583d 99d7 b7bc
000003f0: b638 c1bb 8581 8b3d 5744 78bd 4b23 d73a

network.6.bias f4 [100]
0.49978682 0.49446902 0.50522715 0.49128044 0.51760787 0.50054187 0.5055256 0.50348824
0.49964333 0.5029021 0.4978537 0.49052417 0.48790812 0.49512523 0.5021062 0.4941731
0.5081488 0.50066626 0.49274197 0.49369618 0.50762284 0.4993256 0.5126002 0.49797663
0.50034887 0.5027359 0.49758068 0.5048929 0.48953143 0.49819168 0.5074416 0.5004288
0.5146692 0.4966856 0.5440931 0.5022511 0.5008004 0.50174034 0.48970112 0.52402884
0.5054385 0.49836603 0.5293335 0.48842633 0.4987987 0.50061846 0.50401545 0.5158442
0.4941154 0.49432313 0.49185416 0.49566078 0.5026178 0.5362911 0.50775677 0.50091046
0.5012333 0.4980583 0.49423617 0.500532 0.50276613 0.49244243 0.49701583 0.49825883
0.4950542 0.51036036 0.5028809 0.50640655 0.49815327 0.4953029 0.5000902 0.49247247
0.4980977 0.49817225 0.4982866 0.5082626 0.48959124 0.49810445 0.5120834 0.49877843
0.48803717 0.51522213 0.49883196 0.49798337 0.503316 0.49662766 0.5156925 0.49751303
0.5058748 0.5639689 0.49546292 0.5480909 0.494115 0.52474874 0.49476913 0.4945493
0.5331103 0.5199908 0.4964831 0.49883592
00000000: 0fe4 ff3e 0b2b fd3e 9156 013f 1c89 fb3e
00000010: f381 043f 8323 003f 206a 013f 9be4 003f
00000020: 40d1 ff3e 31be 003f aee6 fe3e fc25 fb3e
00000030: 18cf f93e 0e81 fd3e 088a 003f 4204 fd3e
00000040: 0a16 023f aa2b 003f ad48 fc3e bfc5 fc3e
00000050: 92f3 013f 9ba7 ff3e c439 033f cbf6 fe3e
00000060: dd16 003f 4db3 003f e5c2 fe3e a940 013f
00000070: dda3 fa3e fb12 ff3e b1e7 013f 1a1c 003f
00000080: 5cc1 033f 934d fe3e af49 0b3f 8793 003f
00000090: 7434 003f 0e72 003f 1bba fa3e c126 063f
000000a0: 6b64 013f d529 ff3e 6682 073f 0413 fa3e
000000b0: 8b62 ff3e 8828 003f 2807 013f 5e0e 043f
000000c0: b2fc fc3e ec17 fd3e 4fd4 fb3e 40c7 fd3e
000000d0: 8fab 003f 604a 093f 59fc 013f ab3b 003f
000000e0: d350 003f 7f01 ff3e 860c fd3e dd22 003f
000000f0: 48b5 003f 6a21 fc3e dc78 fe3e c81b ff3e
00000100: be77 fd3e faa6 023f cdbc 003f dca3 013f
00000110: f20d ff3e 5798 fd3e e905 003f 5a25 fc3e
00000120: a906 ff3e 6f10 ff3e 6c1f ff3e 7f1d 023f
00000130: b4ab fa3e 8c07 ff3e e617 033f e35f ff3e
00000140: 02e0 f93e 99e5 033f e766 ff3e adf7 fe3e
00000150: 51d9 003f fb45 fe3e 6c04 043f 07ba fe3e
00000160: 0381 013f 4460 103f 51ad fd3e af4f 0c3f
00000170: a4fc fc3e ef55 063f 6152 fd3e 9135 fd3e
00000180: eb79 083f 1e1e 053f 0833 fe3e 6c67 ff3e

network.7.running_mean f4 [100]
0.45462152 0.6000992 0.5919654 0.31249776 0.6084372 0.60118073 0.56065714 0.6159455
0.7182319 0.5169207 0.35296053 0.3841363 0.4272051 0.58567774 0.56145984 0.4291853
0.568073 0.5999246 0.6493668 0.28643292 0.41754216 0.49204394 0.4764088 0.054882847
0.2705729 0.5712415 0.38804975 0.73449856 0.3889653 0.40215692 0.7794486 0.56086564
0.6239438 0.6377431 0.5045212 0.28418174 0.48987803 0.6478565 0.48724547 0.5973546
0.36209634 0.62590593 0.7699242 0.4126349 0.5199573 0.6416596 0.62915146 0.7690102
0.7228025 0.65082425 0.30577064 0.4708313 0.5992563 0.743876 0.65376467 0.6828793
0.5214797 0.47735175 0.40966693 0.5787112 0.5341965 0.3138094 0.191177 0.48080257
0.30604252 0.72819334 0.47866386 0.47265425 0.12047183 0.6799473 0.3332349 0.36510742
0.38057923 0.50868595 0.48365155 0.4979352 0.46446195 0.27869517 0.6734555 0.34705427
0.5324383 0.42993337 0.28379104 0.46660188 0.77369493 0.33072716 0.6540187 0.22954652
0.23339808 0.753813 0.41192913 0.70439774 0.44783375 0.5013648 0.65609133 0.662397
0.61334604 0.74925315 0.35220593 0.54953456
00000000: 27c4 e83e 1aa0 193f 0b8b 173f b5ff 9f3e
00000010: 8ac2 1b3f fbe6 193f 3a87 0f3f 9bae 1d3f
00000020: 0cde 373f ea54 043f 3eb7 b43e 83ad c43e
00000030: a0ba da3e faee 153f d5bb 0f3f 2dbe db3e
00000040: 3b6d 113f a994 193f e73c 263f 56a7 923e
00000050: 16c8 d53e 2fed fb3e dbeb f33e d6cc 603d
00000060: 8888 8a3e e23c 123f 75ae c63e 1908 3c3f
00000070: 7626 c73e 83e7 cd3e f289 473f e494 0f3f
00000080: c8ba 1f3f 2243 233f 4d28 013f 4580 913e
00000090: 4bd1 fa3e ecd9 253f 3d78 f93e 3bec 183f
000000a0: b164 b93e 5f3b 203f c119 453f e244 d33e
000000b0: ec1b 053f ce43 243f 1210 213f dadd 443f
000000c0: 9609 393f 6b9c 263f f88d 9c3e cd10 f13e
000000d0: dc68 193f a86e 3e3f 1f5d 273f 2ed1 2e3f
000000e0: b27f 053f 7367 f43e ddbf d13e 6b26 143f
000000f0: 1ac1 083f a0ab a03e e7c3 433e c12b f63e
00000100: 9bb1 9c3e e16a 3a3f 6e13 f53e bdff f13e
00000110: efb9 f63d 0711 2e3f c49d aa3e 5cef ba3e
00000120: 48db c23e 3e39 023f 2da1 f73e 5df1 fe3e
00000130: f5cd ed3e 22b1 8e3e 9467 2c3f 19b1 b13e
00000140: e04d 083f 3a20 dc3e 0f4d 913e 71e6 ee3e
00000150: df10 463f 1255 a93e c56d 273f 3e0e 6b3e
00000160: e8ff 6e3e e4f9 403f 60e8 d23e 6953 343f
00000170: 774a e53e 7259 003f 9af5 273f da92 293f
00000180: 3f04 1d3f 0ecf 3f3f 5654 b43e 4cae 0c3f

network.7.running_var f4 [100]
0.22258997 0.35747313 0.21955353 0.26674312 0.06867701 0.16258803 0.070293635 0.23356158
0.14120266 0.27399155 0.2703835 0.1326117 0.23091084 0.10588916 0.18589132 0.2048995
0.20925696 0.2989412 0.24307266 0.1612918 0.19730677 0.21488449 0.11493923 0.15393342
0.09614796 0.38348168 0.16117749 0.28108108 0.3196361 0.101662375 0.20839167 0.19065388
0.1602729 0.2022686 0.05183472 0.06682944 0.22958396 0.14149305 0.42303666 0.06285401
0.27772254 0.21550773 0.1612317 0.20029546 0.20844473 0.12155596 0.31610483 0.17536393
0.20933262 0.27119136 0.17135307 0.15970759 0.20111263 0.21278566 0.09106149 0.16756105
0.14130558 0.15574817 0.15816362 0.31203717 0.3556594 0.19473606 0.1660144 0.20993796
0.47257072 0.10174191 0.14847639 0.29948536 0.29609367 0.16518867 0.27927467 0.16492037
0.21763548 0.21345463 0.23749813 0.11007847 0.18014044 0.03220009 0.18778208 0.34102437
0.17543688 0.054074723 0.056089595 0.10523431 0.061692372 0.30195746 0.13833633 0.07849513
0.11182445 0.33291492 0.11365531 0.09075235 0.17695823 0.07873192 0.15746766 0.28966287
0.17289641 0.21962866 0.23820141 0.24333328
00000000: a0ee 633e b806 b73e a4d2 603e 8e92 883e
00000010: 88a6 8c3d 7a7d 263e 1cf6 8f3d c42a 6f3e
00000020: 6e97 103e 9f48 8c3e b56f 8a3e 5dcb 073e
00000030: e473 6c3e 6adc d83d 4b5a 3e3e 2dd1 513e
00000040: 7547 563e d20e 993e 0ae8 783e ad29 253e
00000050: c90a 4a3e ae0a 5c3e 4265 eb3d b9a0 1d3e
00000060: 39e9 c43d b657 c43e b60b 253e dce9 8f3e
00000070: 58a7 a33e 5d34 d03d a064 553e c53a 433e
00000080: 941e 243e 801f 4f3e a550 543d e0dd 883d
00000090: 0f18 6b3e 8ee3 103e 4398 d83e 9ab9 803d
000000a0: a631 8e3e 0fae 5c3e ec19 253e 411a 4d3e
000000b0: 8972 553e 55f2 f83d 7ed8 a13e 9a92 333e
000000c0: 4a5b 563e 98d9 8a3e 2e77 2f3e 638a 233e
000000d0: 78f0 4d3e 7ce4 593e 727e ba3d 2095 2b3e
000000e0: 69b2 103e 737c 1f3e a5f5 213e 56c3 9f3e
000000f0: fd18 b63e e468 473e aeff 293e faf9 563e
00000100: caf4 f13e 105e d03d 320a 183e 2556 993e
00000110: 9799 973e 3827 293e 17fd 8e3e e3e0 283e
00000120: d6db 5e3e da93 5a3e b632 733e d270 e13d
00000130: bc76 383e 3ee4 033d f249 403e bf9a ae3e
00000140: baa5 333e 757d 5d3d 34be 653d 1685 d73d
00000150: 24b1 7c3d 2b9a 9a3e 0aa8 0d3e 0ec2 a03d
00000160: 3804 e53d d373 aa3e 1dc4 e83d 5edc b93d
00000170: 8a34 353e 333e a13d 343f 213e b14e 943e
00000180: c20b 313e 56e6 603e 12eb 733e 5c2c 793e

network.9.weight f4 [100, 100]
0.052684184 0.042876255 -0.097609766 -0.069659814 -0.09490475 0.07604014 0.010300528 0.12801969
0.07846541 0.087545745 -0.018965352 -0.04520082 0.14589505 0.025511295 0.035382755 -0.12665758
-0.039846726 0.019229958 0.059221257 -0.1459941 -0.006690427 0.031598616 0.12863366 -0.01725112
-0.0094582755 -0.02091727 -0.09112755 -0.07984396 0.0039196815 0.12474763 0.01324514 0.064416446
0.07342547 0.01080803 0.053822156 0.040987108 -0.1189526 0.028291011 -0.08978028 -0.06717435
0.022174403 0.06213609 0.021028252 0.08756517 -0.09312935 -0.014967811 0.006315429 -0.05043653
0.0037746958 -0.033866465 -0.10770169 -0.012584193 -0.057219546 0.079698384 -0.026157377 0.056177687
0.017105805 0.12699297 -0.018283263 -0.040640872 0.05705092 0.008981884 0.015559366 -0.06722219
-0.021668116 -0.035212353 -0.009607524 -0.13732369 0.027857156 -0.018078415 0.06747693 -0.020383345
0.07554785 -0.1046365 -0.025371559 -0.003462991 0.074269824 0.015501567 0.02739101 0.025526151
-0.064951465 0.028444495 -0.024403796 -0.090972796 -0.08794475 -0.09142169 0.08708822 -0.028447269
-0.03153393 -0.04615555 0.021510603 0.08384832 -0.090792626 -0.09360185 -0.06499999 -0.03810678
-0.019329092 0.033261687 -0.014672381 -0.009315066 0.03193411 0.049769614 -0.11339556 -0.11729056
0.04957108 0.0073687695 0.09127528 0.09908527 -0.07103596 -0.10188778 -0.0947844 0.12260807
0.10659741 0.0036602514 -0.03201113 -0.11498039 -0.03661477 -0.05293333 0.026842918 0.04049774
-0.063226715 -0.08571879 0.03921881 0.013220794 0.070994586 -0.061943956 -0.083187774 -0.0028487989
-0.080725 -0.067737035 0.06784158 0.047405276 -0.14137046 -0.032474644 0.09255524 -0.053743575
0.060725458 0.013673633 -0.031163597 -0.15472734 0.02603457 0.049987257 -0.05433745 -0.02841718
-0.0401896 0.02788852 -0.014449362 -0.03455099 0.08470664 0.042658184 -0.042636693 -0.05867008
0.033138435 -0.058325626 -0.052876636 0.07715613 4.526195e-05 0.07455119 -0.13751228 -0.0113898115
0.044592123 0.014704245 -0.09238697 -0.07935511 -0.013041922 0.027371114 0.026880084 -0.10445662
0.05329411 -0.055611312 0.08013503 0.04046141 0.027486123 0.014966905 0.011474307 -0.0657677
0.014149257 -0.051156856 -0.10543753 -0.0411807 0.0376104 -0.011358911 0.001389981 0.0025183684
-0.08922538 0.019586258 0.06139014 -0.084786855 0.056124557 -0.039022557 0.15050377 0.05866541
-0.003418385 0.065695025 -0.04777791 -0.07102965 -0.08688851 -0.010112599 -0.016746586 0.0473993
-0.064387694 0.089204885 0.10900199 -0.008717957 -0.06910198 -0.04813366 -0.00015371066 -0.05199422
-0.0006353918 0.066366255 -0.05089192 -0.042083602 -0.061118398 -0.04962594 -0.048510123 0.013670533
-0.060325038 -0.06568331 0.11788149 -0.093730934 0.12095013 0.0069398344 0.019817948 -0.016195554
0.09886169 -0.05716066 -0.07197414 0.11263737 -0.11560703 -0.083176106 -0.036935363 0.06049269
-0.05256827 -0.037094146 0.029701961 -0.068809316 -0.05611606 -0.026882865 -0.082157 -0.077958696
0.07945053 -0.05308326 -0.023135737 0.12583444 0.13247736 -0.07731875 0.044306763 0.1335073
0.098637745 -0.03669705 0.042261004 -0.06867875 0.074965484 0.072535194 -0.036018293 -0.037715364
00000000: 5fcb 573d 039f 2f3d a1e7 c7bd cea9 8ebd
00000010: 6c5d c2bd efba 9b3d 8cc3 283c 9817 033e
00000020: 79b2 a03d 2f4b b33d 3a5d 9bbc 7f24 39bd
00000030: 8365 153e 10fd d03c 82ed 103d 86b2 01be
00000040: 5236 23bd 2588 9d3c fd91 723d 7a7f 15be
00000050: 5f3b dbbb 8d6d 013d 8bb8 033e 3952 8dbc
00000060: e2f6 1abc b25a abbc 15a1 babd 3b85 a3bd
00000070: ac70 803b af7b ff3d 2502 593c c5ec 833d
00000080: 1860 963d 2a14 313c 9f74 5c3d 19e2 273d
00000090: 6c9d f3bd 8dc2 e73c b9de b7bd b592 89bd
000000a0: 18a7 b53c 6a82 7e3d 7143 ac3c 5e55 b33d
000000b0: 9aba bebd 8d3b 75bc a9f1 ce3b 8996 4ebd
000000c0: e360 773b 90b7 0abd b492 dcbd ee2d 4ebc
000000d0: 0b5f 6abd e838 a33d ff47 d6bc 931a 663d
000000e0: 7921 8c3c 720a 023e c8c6 95bc 0b77 26bd
000000f0: 3aae 693d c128 133c b6ec 7e3c caab 89bd
00000100: 5581 b1bc d43a 10bd e068 1dbc 959e 0cbe
00000110: b134 e43c 2f19 94bc 5831 8a3d f9fa a6bc
00000120: d5b8 9a3d a94b d6bd 04d8 cfbc 59f3 62bb
00000130: c71a 983d 49fa 7d3c 1d63 e03c 381c d13c
00000140: 4605 85bd 6e04 e93c 78ea c7bc f24f babd
00000150: 611c b4bd 4c3b bbbd 4f5b b23d 3f0a e9bc
00000160: b929 01bd 9a0d 3dbd 0137 b03c abb8 ab3d
00000170: 7cf1 b9bd 54b2 bfbd b71e 85bd db15 1cbd
00000180: 0b58 9ebc 683d 083d 6d64 70bc 389e 18bc
00000190: 57cd 023d 39db 4b3d ee3b e8bd 0836 f0bd
000001a0: 0b0b 4b3d b875 f13b 89ee ba3d 38ed ca3d
000001b0: 4d7b 91bd 8aaa d0bd 531e c2bd f119 fb3d
000001c0: be4f da3d d4e0 6f3b 1a1e 03bd d77a ebbd
000001d0: 5ef9 15bd 9fd0 58bd aee5 db3c f5e0 253d
000001e0: 027d 81bd 558d afbd e7a3 203d 079c 583c
000001f0: 9c65 913d f2b8 7dbd 5a5e aabd eab2 3abb
00000200: 2653 a5bd b7b9 8abd 87f0 8a3d 092c 423d
00000210: 6bc3 10be 2204 05bd 9a8d bd3d 3922 5cbd
00000220: 42bb 783d 6007 603c cd4a ffbc d870 1ebe
00000230: 7346 d53c 70bf 4c3d f290 5ebd 25cb e8bc
00000240: da9d 24bd 7776 e43c 04bd 6cbc 5785 0dbd
00000250: ad7a ad3d 59ba 2e3d d0a3 2ebd 0a50 70bd
00000260: 2bbc 073d dae6 6ebd 2c95 58bd 0804 9e3d
00000270: a6d7 3d38 4bae 983d 05d0 0cbe 559c 3abc
00000280: 3ba6 363d 13ea 703c 6135 bdbd ef84 a2bd
00000290: c9ad 55bc 6339 e03c 9f33 dc3c 5aed d5bd
000002a0: ed4a 5a3d b0c8 63bd d61d a43d ddba 253d
000002b0: 942a e13c c037 753c bbfe 3b3c 37b1 86bd
000002c0: 49d2 673c da89 51bd a2ef d7bd 18ad 28bd
000002d0: 5d0d 1a3d ba1a 3abc 0630 b63a 360b 253b
000002e0: ccbb b6bd 5c73 a03c 3a74 7b3d bba4 adbd
000002f0: dde2 653d 1ed6 1fbd a91d 1a3e 244b 703d
00000300: fc06 60bb 1d8b 863d c5b2 43bd fe77 91bd
00000310: 9af2 b1bd 50af 25bc 2330 89bc c525 423d
00000320: b2dd 83bd 0db1 b63d 6f3c df3d c3d5 0ebc
00000330: 5785 8dbd cd27 45bd 642d 21b9 e4f7 54bd
00000340: 6c90 26ba 08eb 873d 0c74 50bd db5f 2cbd
00000350: 4957 7abd 9244 4bbd 8db2 46bd 5ffa 5f3c
00000360: 6317 77bd f984 86bd da6b f13d 01f6 bfbd
00000370: b4b4 f73d 8d67 e33b 4059 a23c 8aac 84bc
00000380: ff77 ca3d 4c21 6abd 2e67 93bd 6cae e63d
00000390: 61c3 ecbd 3c58 aabd 8949 17bd 2fc7 773d
000003a0: d451 57bd 08f0 17bd 8751 f33c e6eb 8cbd
000003b0: f4d9 65bd 7439 dcbc ee41 a8bd cfa8 9fbd
000003c0: f6b6 a23d d56d 59bd 2887 bdbc beda 003e
000003d0: 25a8 073e 4b59 9ebd 027b 353d 23b6 083e
000003e0: 9602 ca3d a54f 16bd e019 2d3d 72a7 8cbd
000003f0: 8187 993d 558d 943d eb87 13bd 6d7b 1abd
