src/runs/ann_left_hand/20241105/20241105-1623/ann_left_hand_3_layers_best.pth (torch, 147078 bytes, 26 tensors)

network.0.weight f4 [63, 141]
00000000: 1bb0 543d ea78 4b3d 1134 58bd 46c7 2ebb
00000010: dfb2 6c3d e120 56bc bc40 fe3c b690 d4bb
00000020: 3a07 593c d10d 1b3d 0a08 14bc 75b0 fdbc
00000030: fbd6 8d3b f1f9 87bd c5e2 cebd 0237 75bd
00000040: ea8b d13d fec5 033d 4e72 51bd b15d febd
00000050: 4ec6 f2bd e7ac e9bc 6cae 46bd f146 89bd
00000060: 9688 36bc bf2e 98bd 0501 fe39 6bf1 c53b
00000070: b7d7 0d3d cece b03d 20c2 19bd 621f a53d
00000080: 9a17 be3c 44ef 923d c6b2 023d 5acc a13d
00000090: 9ef8 893d a858 d83c 8142 4a3d 72c9 c93d
000000a0: 669e d9bb 5e9f 8a3d c3aa 773d a23c 42bd
000000b0: 3b86 453d 4a17 283e a472 7c3d e0cc 313d
000000c0: a9e6 91bd e05d 0cbb 6f27 10bd f60d ac3c
000000d0: 0c6f 073e ffa2 493c 5e6a 483c abbb 903c
000000e0: 6cac d53c 251a 723d 7481 063d 8c5f 993c
000000f0: 83aa 88bc d7c8 a6bd 5549 66bd 4028 5ebd
00000100: c4f9 86bd 77cc 25bd 9772 0dbe bc3b 6fbd
00000110: 057b acbd f0ad dabc cab8 553c 86d7 6d3d
00000120: e393 933d 1ee4 c63b c0a3 b53c 4dff 483c
00000130: 0201 403d f8ae 28bc 8032 38bc 1b70 59bd
00000140: 4751 8b3b 7192 133d 0788 78bd d6f1 17bd
00000150: 6f97 9839 4375 91bd 905f 9dbc e688 8a3c
00000160: b3e9 aebd 4fdc 4f3c bceb 20bd 9a7d 043e
00000170: de25 893d f50d b93d 1458 833d 744c fabd
00000180: ed56 1dbe ffa5 0ebe d656 e0bd 3b7c c9bd
00000190: 7ac4 8d3c ffa6 f5bb 9fef c63d 2bfb 1bbd
000001a0: 7d5b a33c d17e 573c 2a17 663d 6d4f 96bd
000001b0: 91fb 87bd a432 fabb 1c22 d93c 1d69 0cbd
000001c0: 8700 173d 2117 57bd 2215 993d c223 d6bc
000001d0: f519 383d b171 0dbe d312 7fbd 2598 bcbc
000001e0: 2aea 143d 8466 553b 3985 efba 931a fdbb
000001f0: f5c3 29ba e206 a8bc a859 013e f9df f83d
00000200: edd1 d13d e05f e33c b6e6 ab3d 7930 993d
00000210: 4775 1cbc 70f6 613a 6ea8 913d c2e0 eb3d
00000220: f487 70bc d267 e93d 9537 f0bc 5525 e93d
00000230: 30f7 973d 528e bb3d a8c7 703d 5233 0b3d
00000240: 454a 763d fe35 0b3e 1b1a bcbb 98bb 543d
00000250: 83cb d73c 24f0 3d3e 9220 59bc 6113 18bd
00000260: 2aaa 40bd 5a9e b2bd 44ff 87bd 7b76 45bd
00000270: 867e e73b 41e2 63bd a64e 90bc 1830 c63c
00000280: c37b 9ebd bccd 4dbc d5b1 0cbc 2a98 7fbc
00000290: 571e 26bd 517a 91bc ffc0 ed3d 9ea3 e8ba
000002a0: 9ff8 823d 8b30 0bbb ad96 f2bb 0ebe c1bc
000002b0: 9015 893b c5a2 13bd 0c6a 8abd 2922 cf3c
000002c0: ab76 a83b 7034 f13d 8af7 6dbc e834 a2bc
000002d0: 3e41 15bd 6249 003d 68b8 57bc f55f ae3c
000002e0: 70d7 9f3d c1fc 9f3d 256e 0fbe 4013 08be
000002f0: ce3c 80bd 1551 1c3c 3dfe 42bd d85f fbbc
00000300: 3f56 abbd 8b49 393b 8a4f 133d 635d b03c
00000310: b051 5cbd 32bc 87bc 9bac 23bc a8ae febc
00000320: 068a a7bd 23e4 113d cd10 99bc 2e92 13be
00000330: 02f8 a5bd be67 2ebd 650f 163d 9da6 aebd
00000340: 6fd2 ebbd 244c 06be 7093 14be 3547 dfbd
00000350: 8ac4 46be 9cfd 26be efcd 22bd d052 583d
00000360: 7b5d 85bd 7bfc 4cbb b8ba 3cbe 9825 7bbd
00000370: e720 91bd e2f6 46be 306b 18bc a5c9 2cbd
00000380: 1f35 50bc d13e 22bd 71ae 4dbd 42a9 a73d
00000390: 0edd ef3d d110 f8bb 3315 693b 6ea4 39bb
000003a0: 5332 663d 96bf 973c 21ca 9e3d 0774 ab3c
000003b0: a9f7 bf3d 3362 0c3d 83ca a3bd 87d4 1abc
000003c0: 74d5 1abd 1a2c 68bd bc4f e0bc fe27 0bbd
000003d0: 08dd c6bc 38ae 95bd ec7a d33c 6737 133d
000003e0: bd0d e63b 06e9 8ebd 63d6 873c 1122 c33c
000003f0: 7237 a13d 2be6 33bd 5df2 c63c 2177 4d3d
0.05192576 0.04967586 -0.05278403 -0.002666907 0.057787772 -0.013069362 0.031036727 -0.0064869775
0.013246352 0.037854973 -0.00903512 -0.03096793 0.004328606 -0.066394694 -0.101018466 -0.059866913
0.102317646 0.032171242 -0.0511344 -0.12420214 -0.1185423 -0.02852483 -0.048506185 -0.06702984
-0.011140963 -0.07430791 0.00048447415 0.006040742 0.03462955 0.08633195 -0.037538648 0.080626264
0.023204613 0.071745425 0.031908773 0.07900305 0.06736873 0.026409462 0.04937983 0.09852876
-0.006641197 0.06768678 0.060465585 -0.047421105 0.048223715 0.16415134 0.061632767 0.043408275
-0.07124073 -0.0021418259 -0.035193857 0.02100275 0.13225955 0.012306928 0.012232391 0.017667612
0.026083194 0.059106965 0.0328383 0.018722318 -0.016682869 -0.08143776 -0.05622228 -0.054237604
-0.06590608 -0.040478196 -0.13813244 -0.058406577 -0.084219016 -0.026694268 0.013044545 0.058066867
0.072059415 0.006069674 0.022172809 0.0122679 0.04687596 -0.010295622 -0.011242509 -0.053085428
0.0042516324 0.03602833 -0.0606766 -0.037095867 0.00029104526 -0.07102444 -0.019210607 0.016910981
-0.08540668 0.012686803 -0.039287314 0.12938538 0.06696676 0.09035865 0.06413284 -0.122216135
-0.15365191 -0.1393051 -0.10954063 -0.09838148 0.017305601 -0.007496714 0.09713673 -0.03808133
0.019941086 0.013152794 0.056174435 -0.07339368 -0.06639779 -0.0076354314 0.026505522 -0.03427993
0.036865737 -0.05251229 0.07474734 -0.026140098 0.04494663 -0.13812901 -0.06227381 -0.023021767
0.03635613 0.0032562325 -0.0018273956 -0.007724115 -0.0006476038 -0.020511094 0.12631857 0.121520944
0.10245118 0.027755678 0.08393614 0.074799486 -0.0095494455 0.0008619791 0.071122035 0.115174785
-0.014680851 0.11396755 -0.029323379 0.11384074 0.07420194 0.09158005 0.058784157 0.03398449
0.060129423 0.13594815 -0.0057404167 0.051936716 0.02634216 0.18548638 -0.013252394 -0.037127856
-0.04703728 -0.087216094 -0.06640485 -0.048208695 0.0070646433 -0.055635694 -0.017615627 0.024192855
-0.077384494 -0.012561258 -0.00858732 -0.015600244 -0.040556278 -0.01775852 0.11609077 -0.0017748957
0.06395077 -0.002123865 -0.007403216 -0.023650195 0.0041834787 -0.0360439 -0.06758508 0.025284844
0.0051410994 0.1177758 -0.01452435 -0.019800618 -0.036439173 0.031319983 -0.0131665245 0.02128599
0.07804763 0.07811881 -0.1400686 -0.13288593 -0.062615976 0.009540816 -0.04760574 -0.03068535
-0.083660595 0.0028272595 0.035964526 0.021528905 -0.05378884 -0.01656923 -0.009989883 -0.031089142
-0.08180623 0.03561796 -0.018684769 -0.14411232 -0.08103944 -0.042579405 0.036635775 -0.08527873
-0.115147464 -0.13114983 -0.14509368 -0.109022535 -0.19410911 -0.16307682 -0.039747175 0.05281335
-0.065119706 -0.003127842 -0.18430603 -0.06131515 -0.07086354 -0.19430116 -0.009302899 -0.04218449
-0.012707978 -0.039610688 -0.05021519 0.0818658 0.11712085 -0.007570364 0.0035565614 -0.0028326767
0.056200337 0.018523972 0.07753397 0.02092935 0.09373409 0.034273338 -0.079976104 -0.0094500845
-0.03780122 -0.056682684 -0.02738177 -0.033973686 -0.024275318 -0.0730862 0.02581545 0.035941508
0.0070206807 -0.069780394 0.01658172 0.023819955 0.078719035 -0.043920677 0.02428549 0.05016244

network.0.bias f4 [63]
00000000: 00ef 0a3f 92d1 fc3e 639c e43e 4f1a d83e
00000010: 03d7 053f 14b9 103f 91b9 063f c6f0 ea3e
00000020: ca6a fb3e 7d08 013f 0b73 dc3e 8dcf bf3e
00000030: 522f e23e f4e6 df3e 00e3 093f 506b 5d3e
00000040: 9227 d03e 1996 883e 60bd b63e 9762 113f
00000050: 9cc3 033f 1fa6 a73e 4457 0b3f a80f fd3e
00000060: 2268 e73e 7bf9 f93e b6ec 073f 8f26 1b3f
00000070: d609 183f f7f1 973e b533 093f 74fa ff3e
00000080: 1307 073f c5ef 113f a8d2 043f 4f24 d33e
00000090: 8b38 e03e 9b62 cd3e d915 043f 6129 2c3f
000000a0: ae21 e43e 4205 c93e 9eaa a83e 4da8 093f
000000b0: 1e5c 003f c3de ac3e 2c8f 033f 9eee 183f
000000c0: 7cfe 163f 7b0d 093f f605 d83e 4bbb 0b3f
000000d0: 0fb8 233f ef62 d73e 5ff3 f93e c4ca a33e
000000e0: 1c7a d53e 7021 ea3e eaac 073f ec13 ff3e
000000f0: 6dcf 053f 42ba ae3e e5ba 053f
0.54270935 0.4937864 0.44650564 0.42207572 0.52281207 0.56532407 0.526269 0.4588682
0.4910491 0.5040358 0.4305652 0.37463036 0.44176728 0.4373089 0.53862 0.21622968
0.4065519 0.26677015 0.35691357 0.5679106 0.5147035 0.32743928 0.5443003 0.49426007
0.45196635 0.4882315 0.5309557 0.6060571 0.5939001 0.29676792 0.53594524 0.49995768
0.5274517 0.57006484 0.51883936 0.4123864 0.4379314 0.40114293 0.51595837 0.6725064
0.44556946 0.39261824 0.3294267 0.5377243 0.5014056 0.33763704 0.5139034 0.597391
0.5898206 0.53536195 0.42192048 0.5458266 0.63952726 0.42067668 0.4881849 0.31990635
0.41694725 0.45728636 0.5299822 0.49819887 0.5226963 0.34126478 0.52238303

network.1.running_mean f4 [63]
00000000: 88d9 3f3f cfeb 2e3e 98b6 263f 9d7f ce3e
00000010: 9547 0a3c 8a0f be3e a6ce dc3e d4d2 3dbe
00000020: b82f 903e c7ca b3ba 73ef da3e 3176 f83e
00000030: 97e7 103e f1f1 753e a21f 2ebd 4da1 9d3f
00000040: 3312 8f3e e767 033f 587e 76bf 1947 1e3f
00000050: 3e46 1a3f 6ed2 f23e b298 5a3f fd03 563e
00000060: 373f 783e ceea 103e 138d fabe 8c5d 223f
00000070: f842 0cbf 76af 853f 98aa 8b3f d7e7 3cbe
00000080: f7d0 a7be 9670 e53d af90 243f 3681 383f
00000090: 8b0c 7c3e be40 be3f 102e 583f f135 573f
000000a0: c8b9 b33c 3ac2 0e3d 07e0 853f 3575 65bf
000000b0: a6ee f53e 2843 693e bd1a 0dbf a04a 5c3f
000000c0: 752b 083f f97d db3e db78 f63f eaf3 da3e
000000d0: cfaf 783f 093e 8e3e b39d c53e 4201 e13f
000000e0: 7cc1 4f3f d6b0 733f f698 053f 2abd b3be
000000f0: bffe 8f3e ea4f a53f 9945 203d
0.749413 0.17082141 0.65122366 0.40331736 0.008439918 0.3712123 0.4312641 -0.18537456
0.28161407 -0.0013717049 0.4276081 0.48527673 0.14150845 0.24018075 -0.042510636 1.231485
0.27943572 0.5133042 -0.96286535 0.61827236 0.6026343 0.4742617 0.85389245 0.20899959
0.24242865 0.14152071 -0.48935756 0.6342399 -0.54789686 1.0444171 1.0911436 -0.18447815
-0.32776615 0.11203115 0.6428327 0.7207216 0.2461416 1.4863508 0.84445286 0.84066683
0.021939173 0.034853198 1.0458993 -0.8963197 0.48033637 0.22779524 -0.55118924 0.8605137
0.5319131 0.42869547 1.9255632 0.42764217 0.9714326 0.27781704 0.38596877 1.7578509
0.8115461 0.95191705 0.52186525 -0.35105258 0.28124043 1.2915013 0.039128873

network.1.running_var f4 [63]
00000000: 9a2d b83b ba7c 9e3b 297f a13b b3ba a23a
00000010: 0749 af3b 8b2e 233b c03e b93a 3d6d bc3b
00000020: 6bff 733b dec3 ba3a 48f9 a73b bb9a 223b
00000030: 35d0 b83b f6cc 753b 2761 b53b ff3c 763b
00000040: 6f36 773b f8af a73b 2f96 bb3b ab71 c43a
00000050: 624c 913b 33ae fa3a 26e5 a63b 59f5 1f3c
00000060: 4ecf 073b 400e 863b af7d f93b cc65 583b
00000070: 0880 733b cd33 5c3b a3df 5c3b 39ef 5f3b
00000080: e2d4 ed3b ced0 7f3b 31d3 7f3b 7929 843b
00000090: f3fd 8c3b 13c1 8c3b dc0e 763b 137e 433b
000000a0: 8d0d 8a3b b677 933b bfdb 033c 203b 9a3b
000000b0: 833b 153b f066 583b 6f32 4f3b a382 873b
000000c0: 5c71 493a cb7c 9a3b 18ea 053c 4fb4 5f3b
000000d0: 8058 b93b 448e c73b 5808 a73b d5cd 873b
000000e0: abf1 bf3b 21ea 1a3b 7ef6 533b 9795 713b
000000f0: d8fd aa3b 5778 ee3b cd04 983b
0.0056206705 0.004836646 0.0049284888 0.001241526 0.0053492817 0.0024899568 0.0014133081 0.005750327
0.0037231098 0.0014249047 0.005126152 0.0024811465 0.0056400546 0.00375062 0.005535263 0.0037572978
0.0037721654 0.0051174127 0.0057246904 0.0014987489 0.0044341544 0.0019125402 0.0050932346 0.009763085
0.0020722928 0.004091054 0.0076138596 0.003301966 0.003715517 0.0033600212 0.0033702634 0.0034169687
0.0072580436 0.003903437 0.0039035792 0.0040332642 0.004302734 0.004295477 0.0037545478 0.0029829785
0.004213041 0.0045003546 0.008047997 0.0047067553 0.0022771067 0.003302034 0.0031615754 0.004135446
0.00076844334 0.0047145835 0.008173488 0.0034134572 0.005656302 0.0060899574 0.00509743 0.00414441
0.0058576665 0.0023638087 0.0032342966 0.0036862844 0.005218249 0.007277529 0.004639244

network.3.weight f4 [63, 63]
00000000: 1bfa f3bd 4ef8 69bd 4d89 f1bb 4105 c2bc
00000010: 97c6 603c 2537 e33d 7857 503d 61cd c7bd
00000020: cd72 e5bc cec1 bc3d 317a b8bc e2eb 8bbd
00000030: 8f2e c2bd fbc5 0dbb 0b27 05be c5ab abbc
00000040: 2bc9 203d e13d 5dbe 3507 01be ecfb 34bd
00000050: 32eb 9cbd dd8b 443c 88b6 0f3d d5b6 823e
00000060: 4445 04be 705f 833b ed4b 3f3e bc26 fdbd
00000070: a208 1fbe 25ee 5f3d 8efd 983b 51b6 18bd
00000080: 7b55 e23d 964b b1bd cbee a4bd a95b b9bd
00000090: 4cb5 093e 04ab e9bb 313d 643d 60ee 7b3d
000000a0: dab6 93bc 83b9 90bd 9d43 38bc 0ef6 c63d
000000b0: 9276 d4bc 34cc b03c 8017 5cbc 859a 3f3d
000000c0: 3733 08be c932 30bd 0a73 debc 4415 283e
000000d0: 1d27 9e3b 8b76 e7bd a6ba 083d b1c9 c93a
000000e0: e06b fb3d 465b a53c 3962 7f3b f317 a939
000000f0: 8fec c7bd 6a7a bbbd 680f b3bb dfb0 023e
00000100: 2692 d03c 92ab 82bd 1c5c 81bd 9642 18be
00000110: 915f f43d 6f11 873d 6eb5 67bd 0f8d 9b3d
00000120: cdb8 c33c 2f92 70bb 138c 5b3d cde4 8ebc
00000130: ff8a 41bd 12e4 c33b 46aa 243d 3006 553d
00000140: dc01 19bd 8e9b 00be c7e0 07be a5c8 e2bd
00000150: b787 f5bd 6272 1a3e bbbd 1d3e d23d 0d3d
00000160: aa9d af3c 31e5 753d bd09 253d 00e6 ecbc
00000170: d460 c43d 8bfe 043e 91b1 333e d8e4 d3bc
00000180: 784c 923d e0c7 773c 926f 083e 07f9 1fbc
00000190: b798 1b3e 6e77 bc3d da78 d9bd f063 42bd
000001a0: 837f fb3c 05aa 8fbd 372a a03c 6d53 60bd
000001b0: 9b70 3dbe 5efc ae3d 1d06 983d 393d 81bd
000001c0: 45a6 b7bd 6d80 0d3d 6878 c43d b02b 81bd
000001d0: 36e4 933d f0a7 e33d 4e9f 16be 973c 033e
000001e0: 1f4f 773d ba05 443d 807d f43d 49ca a0bd
000001f0: 9373 66bb 7b7d 3ebd 8f10 f9bd 9bec a0bb
00000200: 6863 523d b8cd 70bd 2931 d0bb 56b6 9abd
00000210: d6c1 a9bc f3c7 80bd 4127 663d 2ed3 8a3b
00000220: f7d1 adbd 41ff e6bd f39f d33c c061 603d
00000230: cee6 3bbc e100 84bc 06de 333d 23d1 1fbd
00000240: 3b9b 8fbb 9a31 e9bc de38 5b3a 1c26 96bd
00000250: f7e9 87bd 6b45 bdbc 1127 6e3d 9f7d 253e
00000260: 4a19 0dbe 9ea9 8cbd 4a5e edbd 1940 09bd
00000270: c5aa 123b 3644 c4bd ecf0 303d 43a1 b4bd
00000280: 673a 163e cb61 2f3e 899f 11be 5db3 34be
00000290: 29d9 80bd e074 66be 060b da3d 567c 1cbe
000002a0: 6949 efbd e873 003d dc4f 60bd c2cc 5d3b
000002b0: 2d39 22bd bfc4 a5bd 0234 05be dca7 b93c
000002c0: 3d55 72bd b313 863d 2f8b 033e c8e3 3b3c
000002d0: 20ba 863d f281 bc3d e101 a2bd 3878 b93d
000002e0: ff36 3e3e 5492 d03d 565c a6bd 1f03 37be
000002f0: 2c68 a8bd 8b74 cfbd 9e4c 213c f6ec 6a3d
00000300: cfbe 923c 8966 1ebd 864f 483d b015 3fbd
00000310: 574e efbd a479 dabd 7e60 42be 7c46 903c
00000320: 96bf 17bc 527a f63d 084d 0c3e 6a7d 4dbe
00000330: e9d0 9d3d 6e26 21be 0e57 493c ddf9 123e
00000340: 5091 1abd 9f9f 41bc fcc2 be3d 6748 32bd
00000350: 6f0b f03d ff6a 8c3c f215 003d 9bbf ef3c
00000360: 09a2 2fbc 61cf 66bd e2cc bc3c ecb2 563d
00000370: 75f2 57be d598 9bbc 1af5 953a 642a 38bd
00000380: 1703 f73d e48f 91bd 5d64 4abd d4c4 c2bc
00000390: 4743 4dbe 55d0 423d 1245 bc3d b0c0 0b3d
000003a0: e368 24bd a21f 623d c733 1f3e 3ed9 cb3d
000003b0: 9bad 8dbd 5b6d 773a e985 153d ced5 4b3e
000003c0: f7f7 8d3c c736 65ba 398a d3bc eb81 a4bc
000003d0: c662 d8bd 9848 363c 0bf4 dbbd 77ad 5a3d
000003e0: 8c8e d63d 0de5 81bd 0e21 eabd 1a71 e43c
000003f0: bd61 c83d b4b1 fcbd c090 9dbc a6e8 9cbd
-0.11912938 -0.057121567 -0.007371104 -0.023684146 0.0137192225 0.11094502 0.050864667 -0.0975597
-0.028008843 0.09216653 -0.022519203 -0.068321005 -0.094815366 -0.0021632898 -0.13003175 -0.02095593
0.03925435 -0.21605636 -0.12600406 -0.044185564 -0.076620474 0.011996237 0.035086185 0.25530115
-0.12917048 0.00400918 0.18681307 -0.123609036 -0.15530637 0.05467047 0.004668898 -0.037283245
0.1105146 -0.08656995 -0.08053359 -0.09050686 0.13448066 -0.0071309824 0.05572242 0.06150663
-0.018031526 -0.070666336 -0.011246589 0.097149 -0.025935445 0.021581747 -0.013433337 0.04677822
-0.13300787 -0.043017182 -0.027154464 0.16414362 0.00482644 -0.11301907 0.033381127 0.0015395192
0.12276435 0.020185124 0.0038968457 0.00032252035 -0.09761917 -0.09154208 -0.005464483 0.12762783
0.025460314 -0.06380381 -0.063163966 -0.1486915 0.1193229 0.06595122 -0.05656951 0.07595264
0.02389183 -0.0036708226 0.053600382 -0.017443085 -0.047251698 0.005978116 0.040201448 0.052007854
-0.03735529 -0.1255934 -0.1326934 -0.11073426 -0.11988776 0.15082696 0.15404408 0.034482785
0.021437485 0.060033027 0.04029249 -0.028918266 0.09588781 0.12987725 0.17548205 -0.025865957
0.071434915 0.0151233375 0.1332381 -0.009763963 0.15194975 0.09202467 -0.10618754 -0.04745859
0.03070045 -0.070148505 0.01955138 -0.05476706 -0.18499987 0.08544229 0.07423041 -0.063105054
-0.0896726 0.034546304 0.09593278 -0.06307161 0.07221262 0.11116016 -0.14709207 0.12816082
0.06037819 0.047857024 0.11938 -0.07851083 -0.0035164102 -0.046506386 -0.121613614 -0.004911018
0.051364332 -0.05878994 -0.0063535166 -0.07554309 -0.020722311 -0.06288137 0.05618978 0.0042366004
-0.08487313 -0.112791546 0.025833106 0.05478072 -0.011468602 -0.0161137 0.04391291 -0.039017808
-0.0043825186 -0.028466035 0.0008362661 -0.073314875 -0.06636422 -0.02310439 0.058142725 0.16161202
-0.13779178 -0.068682894 -0.1159025 -0.033508394 0.0022379619 -0.09583323 0.04319851 -0.08819821
0.14670716 0.17127149 -0.14221014 -0.17646547 -0.0629142 -0.22505522 0.10646634 -0.15281805
-0.11683924 0.031360537 -0.05476366 0.003384397 -0.03960531 -0.08094167 -0.1300812 0.02266305
-0.05916332 0.06546726 0.12846063 0.0114678815 0.06578469 0.092044726 -0.079105146 0.09056133
0.18575667 0.1018416 -0.081230804 -0.17872284 -0.08222994 -0.10129651 0.009844927 0.05735489
0.01791325 -0.038672004 0.048903964 -0.046651542 -0.11684864 -0.10667732 -0.18982121 0.017611735
-0.009261986 0.120350495 0.1370126 -0.20067373 0.07705862 -0.15737316 0.012288822 0.14353128
-0.037736237 -0.011817842 0.09314534 -0.04352608 0.11720931 0.017140863 0.03127093 0.02926617
-0.010719785 -0.056350116 0.023046914 0.052416727 -0.21088584 -0.018993774 0.0011440844 -0.0449623
0.12061136 -0.07107523 -0.04941212 -0.023775496 -0.20045196 0.047561962 0.091928616 0.034119308
-0.04013909 0.05520595 0.15547095 0.09953545 -0.06917878 0.00094385975 0.03650466 0.19905779
0.017330153 -0.0008743819 -0.025822746 -0.020081481 -0.105657145 0.011125706 -0.10739907 0.053388085
0.104764074 -0.06342516 -0.11432086 0.027885962 0.09784267 -0.12338582 -0.019234061 -0.07661562

network.3.bias f4 [63]
00000000: e314 fd3e 3e78 053f 2edb fd3e 892f ff3e
00000010: 66af fe3e 11ea 023f fc4a ff3e ca7a fe3e
00000020: 588d ff3e b3ce fa3e 543a fb3e 50a0 fc3e
00000030: bac5 043f c19f fd3e 84ce f73e b080 053f
00000040: 7047 fe3e c8f0 fd3e b3a3 fb3e 317b 043f
00000050: 6e19 023f 2a82 fd3e 1b4d 023f 8c4a 003f
00000060: 1400 ff3e e7e3 013f de64 fe3e 5484 fc3e
00000070: 69eb ff3e 5a17 fa3e 72e9 053f aab7 013f
00000080: 403b fd3e e910 013f d43a 043f 4dbe 013f
00000090: 019c ff3e 34e5 fd3e ff98 fe3e d43d fe3e
000000a0: 550e fe3e 754e fe3e 27aa fb3e de26 fe3e
000000b0: c337 fd3e 6767 fd3e 6b48 003f b2aa 013f
000000c0: 62c4 f83e 699b 033f fdfd 073f 2a48 fe3e
000000d0: 0460 fb3e 7f7d fb3e b8ba 013f 7642 023f
000000e0: 0b7f ff3e 2084 003f c9fc fb3e 1975 013f
000000f0: c454 f93e 0fad fb3e e4ce fe3e
0.49429998 0.521366 0.49581283 0.49840954 0.49743193 0.51138407 0.49861896 0.49703056
0.49912524 0.48985824 0.49067938 0.4934106 0.51864207 0.49535945 0.48399746 0.52149487
0.49663877 0.49597764 0.4914833 0.51750475 0.5082005 0.4951337 0.50898904 0.5011375
0.49804747 0.50738376 0.4968633 0.49319708 0.4998429 0.4884594 0.52309334 0.50670874
0.49459267 0.5041643 0.51652265 0.50681 0.4992371 0.4958893 0.49726102 0.49656546
0.4962031 0.49669233 0.49153253 0.49639028 0.49456605 0.49492952 0.501105 0.50651085
0.48587328 0.5140901 0.5312193 0.49664432 0.49096692 0.49119183 0.50675535 0.5088266
0.49901614 0.50201607 0.49216297 0.505693 0.48697484 0.4915547 0.4976722

network.4.running_mean f4 [63]
00000000: bea5 b13e cad2 2e3f da90 7c3e dfc1 e63e
00000010: 2e41 c63e a78f 283f 3c41 b63e 578b 223f
00000020: 78e4 4f3e 7cfe fa3e 8b37 123f 14f2 f03e
00000030: f24d 303f 1b57 033f 33dd c83e 7ed8 3f3f
00000040: 5350 f93e 0261 e13e 1ffa 253f 552c ec3e
00000050: 5dbb 303f 20c3 b53e 7f00 1e3f 6e9a 273f
00000060: 1383 0f3f 537c 2e3f 18e9 e63e 7ee5 a83e
00000070: 29f4 5b3e 492c 943e 821d 103f 139f 323f
00000080: 039f 873e 334b 103f 9287 ef3e 49ca 123f
00000090: 5e06 3d3f 1816 843e 3baf 2e3e 827d 0f3f
000000a0: d094 c83e aa64 1c3f 897b ce3e c3ea 0d3f
000000b0: cc91 463e b8e0 0b3f a0d2 0d3f e01c 2e3f
000000c0: 8df1 703e 408a 113f 8fd8 163f 4dc6 023f
000000d0: e0d7 bc3e 0a37 0c3f fc5f 1b3f 887e 203f
000000e0: 9d66 213e ee65 153f f6c9 c83e c87c 133f
000000f0: 16c1 9d3e 1ea5 d13e 1588 c73e
0.34696764 0.6829039 0.24664631 0.45069787 0.38721603 0.65844196 0.35596645 0.63493866
0.20301998 0.4902228 0.57116 0.4705969 0.68868935 0.5130479 0.39231262 0.74939716
0.48694095 0.44019324 0.6483478 0.46127573 0.69035894 0.3550043 0.61719507 0.65470016
0.5605938 0.68158454 0.4509971 0.3298759 0.21479858 0.28940037 0.56295025 0.6977398
0.26488504 0.56364745 0.4678312 0.5733991 0.7383784 0.25798106 0.17059033 0.56050885
0.39176035 0.610911 0.40328625 0.5543634 0.19391555 0.5463977 0.55399513 0.6801281
0.23529644 0.5685158 0.5892419 0.5108383 0.3688345 0.5477148 0.60693336 0.6269307
0.157618 0.5835866 0.39216584 0.57612276 0.30811375 0.40946287 0.3897101

network.4.running_var f4 [63]
00000000: 5dc9 2b3e 8727 1c3e a4ea 913d f467 0e3e
00000010: d134 c83e 8789 f23d 3a72 823d 1b93 513e
00000020: 5e3a 033e fbf1 be3d 7feb b73d 3231 e83d
00000030: 3053 523d 4ab5 053e c139 163d 502e c73d
00000040: 53d9 663e 77df 0f3e fccc fe3d 354e 3b3d
00000050: 7a86 493e 5423 cd3d 1a4d 883d a4f0 3c3e
00000060: 450e c53d e61c 0e3e 40f2 b13d 3da3 f43d
00000070: 64c8 ab3e 7971 c43d d4aa 103d 1219 ca3d
00000080: 6856 0b3e 1676 e83d f661 923d ca96 eb3d
00000090: 5ac3 403e dbca 243e ddba 563e bd98 823d
000000a0: f7f4 943e 41a1 283e 2f0c 423d ed87 9e3e
000000b0: ebb3 3f3e 8629 223e 0409 513e 69b3 c43d
000000c0: 5037 c23d b166 ec3d 3ac1 873d 4743 0e3e
000000d0: 5df7 0d3e 41ed 9e3d c45d ae3d 0685 383e
000000e0: 6e30 953e 667c 903d 70a3 f43d c413 393e
000000f0: 14f2 543d d62e 143e 1dee 443e
0.16776033 0.15249453 0.07124832 0.13906842 0.39102796 0.118426375 0.06369443 0.20466273
0.12815234 0.09323498 0.08980464 0.11337508 0.051348865 0.13057438 0.036676172 0.0972563
0.2254384 0.14050089 0.124414414 0.04572888 0.19680205 0.10016504 0.06655331 0.18451172
0.09621862 0.13878211 0.08688784 0.11945198 0.33551323 0.09591956 0.035319164 0.09868063
0.1360718 0.11350648 0.07147591 0.1150337 0.1882452 0.16093008 0.2096972 0.06376789
0.29093143 0.16467763 0.0473749 0.30963078 0.18720977 0.15836152 0.20413595 0.09604532
0.09483206 0.11543024 0.06628652 0.13892852 0.13863893 0.07760096 0.08513978 0.18019494
0.2913851 0.07054977 0.11945236 0.18073946 0.051988676 0.14470991 0.19231458

network.6.weight f4 [63, 63]
00000000: 9a4b 18be 95f7 07bd 4521 c1bb a316 80bd
00000010: 1b99 273c a2e7 ea3d 0c24 f5bd ba13 e43b
00000020: 23d0 34bd 0e93 53bd 5825 11bd fbba 8c3c
00000030: d932 ac3d e6fd e1bd eb3b 24bb a806 893d
00000040: 72ee 8dbc 5f16 52bc d2f8 6bbd 891b 833e
00000050: 5879 a2bc cb97 c2bb acef d8bd 0bf6 9d3d
00000060: 5ab6 48bd 443f fc3d b061 a2bd eba4 68bb
00000070: a411 c2bd 858f 173d 80d0 4b3c a79b 023e
00000080: 6d78 a83d ebb4 363d fed0 233e d7c2 ffbc
00000090: 1ff0 963d baae 533e 931e 0dbe 0f96 d13d
000000a0: 752e 463d 26f6 d1bd 9d26 e33d 61ed 4f3d
000000b0: 2b0e 5f3d e44f 98bd d4d3 2f3c 6c19 02be
000000c0: 0815 9abc 6e76 e3bd 52d7 d23b 500a 55bd
000000d0: 8623 ed3d c94b a33d 3c76 f73c e452 5c3d
000000e0: 8f09 063e 9613 b9bd 559c eebc 72fd 8e3d
000000f0: fd55 07bd 971d 44bc f5f5 6f3d 5252 31bd
00000100: 28af c3bd 581e cd3c a207 193e 56b0 dd39
00000110: a9df 983d c888 28bd b04f bc3c 9223 6a3b
00000120: de69 633d af77 273d 0319 fb3d 24b1 883d
00000130: 2b1c 25bd 27ec bdbd c090 0fbc 5ecc 9b3d
00000140: 5473 a73d 1112 d33d afb8 5abd bb22 b7bb
00000150: f7cc 0f3d 170d 5fbd 94fe 23bd d735 463c
00000160: f9b6 b83d 74d4 85bc d1cb 803d 9ab3 bebd
00000170: cdbf 28bd 5508 adbd 4c87 073e d829 cb3c
00000180: eb07 29be 2e37 6cbc 1811 e23d fa33 a23d
00000190: a287 073e a822 113e 6ce2 0fbe 308a 153d
000001a0: 677c 533c 7821 5bbd d515 08be 800b 31bd
000001b0: b1ad 0e3e 16ac 88bc 2e6a a3bd 6e1f 983d
000001c0: b894 29be 9ef4 913c 45ca 80bd 3bb5 cdbd
000001d0: 93fa a93d 6c47 9e3d b06b 473d 4864 6c3c
000001e0: 01fa 36bd 59de 8e3c d8ae c0bd 44bf e43c
000001f0: efb9 2ebe b449 093e 7280 8ebb 83f8 fb3d
00000200: 4322 a4bd d47a 17bd b71d 3fbd f07e 903c
00000210: 7f50 34be 14ca 2e3e 1ace 93bd b1a2 023e
00000220: b261 88bc f253 f5bd 0877 2bbd 3da1 d13c
00000230: 1b99 853b 0936 a3bd 863c 2d3c 328d 3c3c
00000240: 99b7 823d b63a 14bc 4f66 1a3d d016 803d
00000250: 455a 273e b250 c7bc aad7 29bd 935f 97bd
00000260: cc90 66bd 1b00 17be 1a11 bcbc 60f5 5f3d
00000270: 69f1 fb3c 2a22 c2bc 4721 8e3d 0802 d63d
00000280: 0173 433c 353b 293d ab57 6f3d e6c7 eabd
00000290: 1a00 fa3d 879c b9bd 66b2 a03c 48d6 3bbd
000002a0: c233 13be e02c 653c 9dcb bf3b 2cb2 81bd
000002b0: 2dc5 743d 508d 31bd 3023 ad3d 9f71 a23d
000002c0: 559a 533e 9add 033d 99f3 b73c 047f a73d
000002d0: 0a7a 9ebd 9045 f83c 6976 953d 208f 5cbd
000002e0: 03bf 15bc 01a8 1f3d f269 8dbc f6a3 063d
000002f0: 5d58 95bc d996 633d eb1d 18be 0013 a2bd
00000300: b4d6 c9ba d7fd f73c ca37 0d3d 9d9e 9abc
00000310: 7d78 a3bd 703b 633d 2ec4 c43d 03cc 1e3e
00000320: 5533 94bd 719f 043d f1a4 4dbd 286e 483c
00000330: 32e6 21bb 60cc 33bc a4a2 313d dcb4 a8bb
00000340: 7853 bcbd 837a e3bc 721c 253c f6a8 8d3d
00000350: cdc4 b5bd 37f5 253e 09b3 803d 7c54 b93d
00000360: 6147 23be b419 f7bd d484 cb3d 5114 e03d
00000370: 6e45 f63c 5416 f53d 1d63 a2bc 7325 a8bc
00000380: acf9 953d 4e97 a2bd a931 cbbd 9b37 8d3d
00000390: 29f8 bcbd 8d04 ba3d 994e 3cbe 8899 a03d
000003a0: f3ec 323e ed88 e73b 26e8 03be 2229 15be
000003b0: 6176 653d 985d f73c 9d40 8fbb 3afc b73d
000003c0: a2c4 91bd 7390 15bd f79f 983d 468e b43b
000003d0: 17a4 b93c c370 ddbd b636 373d d0f3 223c
000003e0: d881 07bd eac7 15bb 5ee3 313d 5006 6ebe
000003f0: 6472 93bc 59ed c6bc 6c77 273e 1a92 db3c
-0.1487259 -0.033195097 -0.0058938586 -0.062543176 0.010229374 0.11469962 -0.11969766 0.0069603594
-0.044143807 -0.051653914 -0.035436004 0.017179003 0.08408136 -0.110347554 -0.0025060128 0.06690723
-0.017325614 -0.0128227165 -0.05761034 0.25606945 -0.019833252 -0.0059385053 -0.10592589 0.077129446
-0.04900203 0.123167545 -0.07928789 -0.003549869 -0.09476021 0.037002105 0.012439847 0.12754689
0.082260944 0.04460613 0.15997693 -0.031220837 0.07370018 0.20672122 -0.13781194 0.102336995
0.04838415 -0.10252027 0.11091349 0.05076349 0.05445687 -0.07437113 0.010731656 -0.1270501
-0.018808857 -0.11106573 0.0064343596 -0.052011788 0.11579041 0.07973439 0.030207746 0.05378999
0.13089584 -0.09036939 -0.02912728 0.069819346 -0.03304099 -0.011969945 0.058584172 -0.043291397
-0.09554893 0.025038883 0.14944318 0.00042283785 0.07464535 -0.04114607 0.022987217 0.0035726768
0.055520885 0.040885624 0.1226063 0.06674412 -0.040310066 -0.09273558 -0.008762538 0.07607339
0.08176294 0.1030618 -0.053398784 -0.005588857 0.03510758 -0.054455843 -0.040037706 0.012097797
0.09019274 -0.016336657 0.06288875 -0.093116 -0.04119854 -0.08448855 0.13235205 0.024800226
-0.16506927 -0.014417453 0.110384166 0.0792007 0.13235334 0.14173377 -0.14051217 0.03650874
0.012908078 -0.053498715 -0.13289578 -0.043223858 0.13933446 -0.01668362 -0.079792365 0.0742787
-0.16560638 0.017816838 -0.0628858 -0.100443326 0.08299746 0.077284664 0.048686683 0.014428206
-0.044672016 0.017440008 -0.09408349 0.027923234 -0.17063116 0.13407022 -0.004348808 0.12303259
-0.080143474 -0.036982372 -0.046659198 0.017638654 -0.17608832 0.17069274 -0.07217045 0.12757374
-0.016648147 -0.11978902 -0.041861564 0.02558958 0.0040770895 -0.07969291 0.010573512 0.011508273
0.06382675 -0.009047201 0.037695225 0.06254351 0.16343029 -0.02433047 -0.04146544 -0.07391276
-0.056290433 -0.14746134 -0.022957373 0.054677367 0.030754762 -0.023697931 0.06939941 0.10449606
0.011929275 0.04131623 0.058433216 -0.11463909 0.122070506 -0.09063058 0.019616317 -0.04585865
-0.14375213 0.01398775 0.00585313 -0.06332812 0.059758354 -0.043347657 0.08453977 0.07931828
0.20664342 0.032193758 0.022455024 0.08178523 -0.07738121 0.030306607 0.072979756 -0.053847432
-0.009139779 0.03897858 -0.017262433 0.03287121 -0.018230611 0.05556378 -0.14855163 -0.0791378
-0.001539907 0.030272407 0.034477033 -0.01887446 -0.07981966 0.055476606 0.09607731 0.15507512
-0.07236353 0.032378618 -0.05020613 0.012233295 -0.0024703857 -0.01097402 0.043367997 -0.0051485132
-0.09195608 -0.02776838 0.010077583 0.06916992 -0.088754274 0.16206823 0.06284148 0.09049317
-0.15945198 -0.12065449 0.09937444 0.10941375 0.030062404 0.119671494 -0.019822652 -0.02052567
0.07323012 -0.07939015 -0.09921581 0.068953715 -0.0922702 0.09082899 -0.18389358 0.07841784
0.17473201 0.0070658834 -0.12881526 -0.14566472 0.056021098 0.030195996 -0.004371716 0.08983655
-0.07117583 -0.03651471 0.07452386 0.0055101244 0.022661252 -0.10812523 0.04472991 0.009945825
-0.033082813 -0.0022854754 0.043429725 -0.23244596 -0.017998882 -0.024283098 0.1635415 0.026803065

network.6.bias f4 [63]
00000000: 376c 013f d6c0 f83e f316 013f 20dc fc3e
00000010: cb6a 023f 6c37 023f f4fd ff3e 588b fd3e
00000020: 1a43 013f 8eac f73e ee42 033f 3ea2 fd3e
00000030: 8535 003f 9de0 113f 34de 003f ccfe fa3e
00000040: 95e2 fa3e a7c4 fa3e 6a6b 0e3f 0df2 013f
00000050: 59da fa3e d4a4 053f 3215 003f 1d1e 273f
00000060: 582f f83e 5771 f83e cf19 003f 8cf3 003f
00000070: dd4a fe3e b124 fe3e 0693 023f cc23 f83e
00000080: 25f9 fb3e 35f5 f83e 6687 fc3e 1af0 ff3e
00000090: 49f4 f83e e130 fc3e 5c5e fb3e 390c 033f
000000a0: 6769 fc3e 5600 053f ca9b 013f 8702 fb3e
000000b0: 6aa9 0b3f d127 003f 90eb f93e 61cb 0c3f
000000c0: 27b8 ec3e 30aa 023f 7d5c 093f b11e 283f
000000d0: 244f ff3e 8ea6 fc3e 5cdc 033f 3a64 133f
000000e0: 8286 023f 00f2 fe3e 0575 fc3e e564 083f
000000f0: 437a 003f 1d1f 023f 1a22 003f
0.5055575 0.48584622 0.5042564 0.49386692 0.50944203 0.5086582 0.49998438 0.49520373
0.50493014 0.48373836 0.51274 0.49537843 0.50081664 0.5698336 0.50339055 0.4902252
0.49000993 0.4897816 0.5563265 0.50759965 0.4899471 0.5220463 0.5003234 0.65280324
0.4847362 0.4852397 0.5003938 0.50371623 0.4966649 0.49637368 0.5100559 0.4846481
0.4921352 0.48624578 0.4932205 0.4998787 0.48623875 0.49256042 0.49095428 0.51190525
0.49299166 0.5195364 0.5062834 0.49025366 0.5455538 0.50060755 0.48812532 0.5499783
0.46234247 0.51040936 0.5365675 0.6567183 0.49865067 0.4934582 0.51508117 0.5757481
0.5098649 0.49794006 0.4930803 0.5327895 0.50186557 0.50828725 0.50052035

network.7.running_mean f4 [63]
00000000: da91 1e3f 2a6f 0f3f 5d77 153f 79a2 ed3e
00000010: d61e 023f b286 053f 56ad e33e a526 d33e
00000020: 8d7e 393f c573 053f 3480 cf3e 8514 ec3e
00000030: e74a cd3e 400e 563f 5fd3 d83e 2dcd 0d3f
00000040: 9677 053f ab62 223f 3717 3a3f b9cc 1f3f
00000050: 4d3d e03e 0679 173f 2d77 b93e b42c 7d3f
00000060: 30f4 093f 0eb8 053f 9fd7 113f 6667 093f
00000070: b463 323e db05 2c3f b3c5 303f f9d0 c43e
00000080: 9f15 093f 2685 093f 5125 243f b8e1 b33e
00000090: 449e 0c3f 8330 c43e 223c f13e 5e6e 1d3f
000000a0: c6c9 df3e 1a3f 063f 1726 dd3e c526 b53e
000000b0: bc2a fa3e 5a31 9f3e 6b58 463f 62f7 433f
000000c0: fa4b e53e 26b4 073f c129 603f f9bb 773f
000000d0: df1e 023f 1fd4 c03e d016 223f 6677 593f
000000e0: 460e 0f3f b304 113f 1863 263e 31aa 023f
000000f0: d84e f73e 2f83 2c3f 75d6 9d3e
0.619413 0.56029 0.5838526 0.4641302 0.508283 0.52158654 0.44468182 0.4124042
0.72458726 0.52129775 0.405275 0.46109405 0.40096208 0.83615494 0.42348763 0.553912
0.521356 0.63431805 0.72691673 0.62421757 0.4379677 0.5916904 0.36223736 0.98896337
0.53888226 0.5223397 0.56969637 0.536734 0.17420846 0.67196435 0.69051665 0.38440683
0.53548616 0.53718793 0.6411944 0.35133147 0.54928994 0.38318262 0.4711619 0.6149653
0.43708628 0.52440035 0.43193123 0.3538114 0.4886073 0.3109234 0.77478665 0.7654935
0.44784528 0.5300926 0.8756371 0.967712 0.50828356 0.37661836 0.6331606 0.8494781
0.55881155 0.56647795 0.16248739 0.5104094 0.4830234 0.6738767 0.3082768

network.7.running_var f4 [63]
00000000: 00eb 0f3e b442 003e 4257 c53d 1abe 9a3e
00000010: 348e 953d 9dee ed3d 3619 5e3d 75e2 a03d
00000020: 7132 1d3e 8466 083e e903 593d d024 4e3d
00000030: 3d98 323e 00dc c43d a5c3 353d 1dde 183e
00000040: 6841 033e 8894 fa3d 2ff9 e33d f26b c83d
00000050: 3ae7 9c3d 63f7 353d 8c5f d03d de98 d03d
00000060: 1924 4f3d e2ee a73d 90c0 ba3d 6f94 8b3d
00000070: 1109 aa3d 542e 0d3e 4f1e b93c b4ed b63d
00000080: 6966 503e 2c5b 223e ebaf 0e3e 9903 a43d
00000090: 6d1c b53d 952e 333e f011 453d e286 b63d
000000a0: 2016 0e3e ca7a 3e3d f8a7 ca3d b281 353d
000000b0: 0bad a83c 2b28 193e 3431 983d f9bb d13d
000000c0: a937 b43d bdf3 123e 4059 113e 5b94 083e
000000d0: 7449 ce3d 3dd0 493e 14cb 803d 1326 ff3d
000000e0: 0201 6f3d 28a3 833d 8218 3a3e 7b78 5f3d
000000f0: 3014 e33d d4f1 f53d 2d5f 853d
0.14054489 0.12525445 0.09635784 0.3022316 0.07302514 0.116177775 0.05422326 0.07855693
0.15351273 0.13320357 0.052982245 0.050328076 0.17440887 0.09612274 0.044376034 0.1492848
0.12817919 0.12235361 0.111315124 0.09786214 0.076612905 0.04442538 0.10174474 0.10185407
0.050571535 0.0819986 0.0911876 0.06815421 0.083025105 0.13787204 0.02259746 0.08932057
0.20351566 0.15855092 0.13934295 0.08008499 0.088433124 0.17498238 0.04811281 0.089124456
0.13875628 0.04650382 0.09895319 0.04431314 0.020590326 0.14956729 0.0743126 0.10240931
0.08799679 0.14350791 0.14194202 0.13337843 0.10072604 0.19708343 0.06288734 0.12458434
0.05835057 0.06427604 0.18173411 0.05455826 0.11087835 0.12009016 0.06512294

network.9.weight f4 [63, 63]
00000000: b586 2abd af1e 44bc c249 473e ac6d 23bc
00000010: 85e6 2ebd 6291 3ebc 0e0b ed3d 4df3 e93d
00000020: 5f7a a9bc 4bcb 5bbd 010b 1abe 9c15 c2bc
00000030: fde0 363b 20b9 603d c334 8ebb af59 a43d
00000040: cc5f d73c 99fe 133b 4f21 02bc 64ec 71bd
00000050: 5820 1dbe 00a6 813d cf1c e83d bdfe 4d3c
00000060: 552a 9abd e3ce b6bd 2f55 e7bd f575 2e3d
00000070: 7f1a 153e 145c 7c3d c711 713d 91ab bbbd
00000080: a4d0 58bd 4720 a93b 973f 993d 159e 0c3e
00000090: 53b1 5ebd f0da 253d 0dcf a23c c6a0 13bd
000000a0: 2bff 65bd a09d 72bc d1d0 403d 6733 c3bc
000000b0: 20a2 2eba 0d4d db3d 8d21 eb3d bf84 ffbd
000000c0: 0896 4abe 707e 80bd 3bc9 063c 989a 873a
000000d0: e415 983d 6d41 0abc f04f bbbd 0b20 ce3d
000000e0: d228 8b3d db54 b9bc cead a3bc 6807 813e
000000f0: 451a 953d 668c 3bbe 77a4 bfbd c2ad fc3d
00000100: 05c9 bebd c493 313e 446d 74bb f891 96bd
00000110: 587c f03d ce45 01be 0f60 5f3d 0963 e13c
00000120: 86f8 a3bd ff36 dc3c ace5 a6bd 33a1 293e
00000130: 8a4f 133d 9754 1c3e b055 573d 7fc1 b43d
00000140: 725d 15be bdfe 4e3d 5a91 f13d d54d 823d
00000150: 2ae4 223d 97c3 343d 65eb 5e3c b527 c0bd
00000160: c483 8fbc 527c 973d 5a16 18bc acc5 8d3c
00000170: 8a7d 913d 6b19 b03c 1e3e bf3d c217 363d
00000180: 1a6f 9e3c a3b6 2ebd 4336 cc3d 0ae9 cb3d
00000190: 0653 d0bc 8487 21bd 0f34 cebd 7758 4abd
000001a0: 1f60 4e3d ec2a 6bbd f269 11bd 1eb5 a4bd
000001b0: 3180 75bd 0b80 5a3d 3c5e 273e 6e33 553c
000001c0: 9d95 833d 9b9e aabd eef8 54bd 5f5f b73d
000001d0: db72 9dbd f3ef 83bd c7a1 6bbd a54c ac3d
000001e0: 2c49 61bd e9fd 0f3e 6e1d 093e 10ce 26be
000001f0: d68e ae3b cf97 27be c6ba ee3d 2b13 1bbd
00000200: 185f ca3d e960 3dbc f309 c9bb 3d51 463d
00000210: df22 573d d0e7 b03d 0e12 0bbe b670 87bd
00000220: 49c1 133e 53e6 3e3d 096d f8bd 22d6 7fbc
00000230: 8829 f03c 60b2 40bd 7931 7c3d 6534 293e
00000240: 0885 e43d 55a0 edbd 7fd6 133d e9ed e13c
00000250: 953b 1c3d 9a96 203d 6713 97bd cf1c 88bd
00000260: c67d bebd bccc 91bd b19d debd 226d 1abb
00000270: 6309 ad3c debc 783d 00df c7bd 3003 f93d
00000280: 2f1c 973d d3c1 853d 09b1 b4bd d167 0bbd
00000290: 7881 d53d 1eab 083e 7b78 853c 0f4b 63bd
000002a0: 6ee2 dfbc 5005 08bb 1795 24be a9fc 293d
000002b0: 3564 53bd 8802 23bd 53c0 43bd 8557 603d
000002c0: 2718 84bd 4eb0 8b3d bcc2 0e3e 2ff0 2f3d
000002d0: 1736 363e c6a3 20bd 9100 023c d0e5 28be
000002e0: 780e 173e d0c8 cb3d 5789 0bbe 8ab7 60be
000002f0: 8e34 b9bd 3b0f e5bd 1071 fc3b e83d 3cbd
00000300: a0b2 aa3c d9a6 f1bd 652a 3d3d 1488 aebd
00000310: eabe d0bc d150 cabc 9c5f 74bd 1c6f 4d3e
00000320: 5a26 273e 6bc8 0cbe 1f35 37bc ea35 913d
00000330: 7835 13bd 4790 02be f6c8 203e 1221 983d
00000340: e920 dd3c eccd a33d bc1f 463d 9faf b23d
00000350: b769 393d 4235 933c f47a 0e3d 530b 28bd
00000360: 6cee a7bd 0faf 453c acfd 633d 5264 be3d
00000370: 1223 a13d baa5 f7bd c0ee 07be 480b 9c3d
00000380: caf7 893d 18d4 78bd 227b 553c c41e 483c
00000390: b2c6 303e 4495 bc3b ba9d 32be 6072 99bc
000003a0: 0c1a 90bd d05e 7db8 c8e9 503e 75b3 103d
000003b0: 221c 6f3b 83a8 bebc e6de 80bc 5097 4abc
000003c0: 7ba5 6b3d 5e96 8f3c ae91 133e 0159 11be
000003d0: aecf 4d3d 2413 dd3c fa46 db3c 492d 453d
000003e0: 8d07 b8bd 99bb e6bd 1faa 5d3e de65 e73d
000003f0: d08a 833d ca67 7ebd d77a c23d 280a d0bc
-0.041632373 -0.011970206 0.1946173 -0.009974878 -0.04270031 -0.011631342 0.11574374 0.11423359
-0.020688234 -0.053660672 -0.1504326 -0.023691945 0.00279051 0.05486405 -0.004339786 0.08024918
0.026290797 0.0022582172 -0.007942512 -0.05906333 -0.1534437 0.0633049 0.1133362 0.012572941
-0.075276054 -0.08926179 -0.11295544 0.04259296 0.14560889 0.06161125 0.058854844 -0.09163583
-0.05293335 0.0051613185 0.07482832 0.13732179 -0.05436833 0.040492 0.01987412 -0.036041997
-0.05615155 -0.014808089 0.047074143 -0.023828221 -0.0006661732 0.10708056 0.11481009 -0.12476491
-0.19783795 -0.06274116 0.008226688 0.0010345755 0.0742605 -0.00843845 -0.09146106 0.100647055
0.06794895 -0.02262347 -0.019980337 0.25200963 0.07280401 -0.18315277 -0.09357541 0.12337829
-0.09315685 0.17341524 -0.0037296573 -0.0735206 0.11742467 -0.12624285 0.054534968 0.027513044
-0.080063865 0.026881693 -0.08149275 0.16565399 0.035964526 0.15266643 0.052571952 0.08825969
-0.14586428 0.050535906 0.11795302 0.063625015 0.039768375 0.04413184 0.013605927 -0.093825735
-0.017518885 0.07396759 -0.009282673 0.017306171 0.07104023 0.021496495 0.0933802 0.04445625
0.019340087 -0.042654645 0.09971287 0.09956558 -0.025430214 -0.03943588 -0.10068523 -0.049400773
0.050384637 -0.05741398 -0.035501428 -0.08042358 -0.059936706 0.053344768 0.16344541 0.01301275
0.06425021 -0.08331033 -0.05199521 0.089537375 -0.076879226 -0.06442251 -0.05752733 0.08413056
-0.055001423 0.14061703 0.13390133 -0.16289544 0.005327086 -0.16366504 0.11656718 -0.037860077
0.09881419 -0.01155875 -0.0061352192 0.04841732 0.05252349 0.08637965 -0.13581106 -0.06613295
0.14429201 0.046606373 -0.12130172 -0.015615018 0.029316679 -0.04704511 0.06157062 0.16523893
0.11158186 -0.116028465 0.03609323 0.027579265 0.03814276 0.039206125 -0.073767476 -0.0664612
-0.09301333 -0.07119128 -0.10869921 -0.0023563583 0.02112264 0.060726993 -0.09759331 0.12158811
0.073784225 0.0653111 -0.08822829 -0.034034554 0.10425085 0.13346526 0.016292801 -0.055491503
-0.02732965 -0.002075512 -0.16072498 0.04150072 -0.051609237 -0.039797336 -0.047790837 0.054770965
-0.06449919 0.06820737 0.13941473 0.042953666 0.17794071 -0.039218687 0.007934705 -0.16493917
0.14751613 0.09950411 -0.1362661 -0.21945015 -0.09043227 -0.111845456 0.007703908 -0.045957476
0.020837128 -0.11799402 0.04618301 -0.085220486 -0.02548166 -0.02469674 -0.059661493 0.20061916
0.16323224 -0.13748328 -0.011182099 0.070903614 -0.035939664 -0.1275035 0.1570166 0.07428183
0.026993232 0.07998261 0.048370108 0.08724903 0.045266833 0.017969731 0.034785226 -0.041026425
-0.08199772 0.012065663 0.055661842 0.09296478 0.07868017 -0.12092157 -0.1327467 0.07619339
0.06736715 -0.060749143 0.013029845 0.012214366 0.17263296 0.0057550985 -0.1744298 -0.018731296
-0.07036218 -6.04082e-05 0.2040168 0.035327394 0.0036485274 -0.023273712 -0.015731286 -0.012365177
0.05753086 0.017527755 0.14411041 -0.14194109 0.050246887 0.026986666 0.026767243 0.04813889
-0.08985815 -0.1126625 0.21646927 0.112987265 0.06422961 -0.0621107 0.09496086 -0.025395468

network.9.bias f4 [63]
00000000: efb7 003f c8e9 fa3e 5f8e fd3e 5a8b 013f
00000010: dbde 023f dc8c f33e 289f 003f 180c 0b3f
00000020: 0bf4 f93e ea79 fc3e 3386 f03e 1155 003f
00000030: e0c0 073f f065 fe3e b233 fd3e 8eb7 043f
00000040: dbbc fe3e bc18 ff3e 04f7 043f dd74 003f
00000050: 3132 fe3e f741 fd3e 1e74 fb3e fcd0 fc3e
00000060: 461d 013f 9df0 fb3e 0f05 f93e 47d6 073f
00000070: 5e0d 003f 5a1d 023f 124c fe3e 274f fb3e
00000080: 28d9 fa3e e26a 033f 3f7b fa3e ff36 053f
00000090: 5d9f fb3e fc63 073f beb7 043f 5251 013f
000000a0: d935 003f fc2a fb3e 6fb5 fe3e a863 063f
000000b0: 50a2 fa3e 51cf 003f 5ea7 fe3e 882f fe3e
000000c0: 624d ff3e 8308 fd3e bbab fe3e bf0f 003f
000000d0: 2c46 fd3e cff1 fe3e 7c11 0c3f 8cc1 fd3e
000000e0: 2013 f93e 7b36 033f 2b32 ff3e 4c90 fc3e
000000f0: 1fd3 0a3f ae7e fd3e 000d 003f
0.5028066 0.49006486 0.49522683 0.5060326 0.511213 0.47568405 0.50242853 0.5431533
0.48819003 0.49311763 0.46977386 0.501298 0.5302868 0.49687147 0.49453503 0.5184258
0.4975346 0.49823558 0.51939416 0.5017832 0.49647668 0.4946439 0.49112028 0.49378192
0.5043529 0.4920701 0.48636672 0.53061336 0.50020397 0.50826037 0.49667412 0.49083826
0.48993802 0.51334965 0.48922154 0.5203704 0.49145022 0.5288694 0.5184287 0.5051471
0.50082165 0.49056232 0.49747798 0.52495813 0.4895196 0.5031634 0.49737066 0.49645638
0.49863726 0.49420556 0.49740395 0.50024027 0.494676 0.4979386 0.5471418 0.49561727
0.48647404 0.51255006 0.49842963 0.4932884 0.54228395 0.4951071 0.50019836

network.10.running_mean f4 [63]
00000000: d5f4 053f 0ee7 223f 2329 063f 38dd 233f
00000010: af12 133f 66aa 223f e65f eb3e 7118 073f
00000020: 4a9c 0b3f 7049 b93e cd88 f13e 3630 1b3f
00000030: 8a6f 143f 1f69 053f 84bd f03e 2416 f73e
00000040: b4ac 8d3e 4513 ec3e 0f3c d23e bab6 223f
00000050: a837 813e d955 c33e f5ee ff3e 99ec e93e
00000060: f919 113f 4108 d13e a4ea 113f c490 2e3f
00000070: fe4f c63e cc3c 0a3f 5955 7b3e 32cb e93e
00000080: 927e 183f 51c9 0e3f 9f17 e13e 793c 0b3f
00000090: f332 183f d161 ec3e c5e9 e93e b6a7 f13e
000000a0: ccde f03e a8c5 ae3e 22cd c03e 3c96 ee3e
000000b0: 3d43 f13e 4975 263f 7fb8 113f 1db2 a73e
000000c0: 8137 df3e 9f0f 353f f9a5 cd3e eef5 013f
000000d0: f8d8 423f e8cb 183f b627 133f 8a94 623e
000000e0: 3781 013f 00f3 f43e fe81 243f 1fd8 133f
000000f0: 0951 223f d6ac 8b3e 139b 9a3e
0.5232671 0.6363381 0.5240652 0.6400943 0.57450384 0.6354126 0.45971602 0.5277167
0.54535353 0.3618884 0.47174683 0.6062044 0.57982695 0.5211353 0.4701959 0.4825908
0.27670825 0.4610845 0.41061446 0.6356007 0.25237775 0.38151434 0.49986997 0.45688322
0.56680256 0.4082661 0.5699866 0.68189645 0.38732904 0.5399902 0.24544276 0.45662838
0.5956813 0.55775934 0.43963334 0.5438915 0.5945274 0.46168378 0.45686164 0.47198266
0.4704498 0.34135175 0.37656504 0.46598995 0.4712161 0.6502271 0.56922144 0.32753077
0.43597034 0.7072696 0.4016569 0.50765884 0.7611232 0.59686136 0.5748247 0.22126976
0.5058779 0.47841644 0.6426085 0.5775165 0.634049 0.272803 0.30196437

network.10.running_var f4 [63]
00000000: f31f b43d 4257 1e3e cd81 823d ce90 8c3d
00000010: 0605 c13d 650d e63d 6613 183e d2cc 183e
00000020: e1e9 de3d b7ef a83d 5631 913d a54a bd3d
00000030: 328b 1c3e fe6a 9e3d eff0 bb3d f7c5 9a3d
00000040: 7711 a13d 1520 983d 2ce9 083e 5f36 c93d
00000050: f666 eb3d a591 d33d 3594 7b3d 0c9b 3f3e
00000060: 2500 263e c13b db3d c34c ce3d 8ac5 3c3e
00000070: d692 983d d527 a53d 178a a93d 50ca 2d3e
00000080: 7593 ce3d 2613 f73d c625 c13d 5e2b 093e
00000090: ef5b c83d c425 723d df15 633d 8e82 353d
000000a0: 66de 103e ef53 803d 45ea cb3d 1294 023e
000000b0: 8b42 323e 7876 913d efd2 c23d fbdd 813e
000000c0: 706d e23d f07e bf3d 8d6d cb3e 798e 0e3e
000000d0: 1039 0e3e 05fa b13d 8978 3b3e 96fb 2a3e
000000e0: 35bc a63d ef8c 223e 8414 243e f56f e93d
000000f0: 06ef 0b3e 2b22 143e 5a95 9d3d
0.08795156 0.15462974 0.06372414 0.06863557 0.09424786 0.112330236 0.1485115 0.14921883
0.108844526 0.08248847 0.07089488 0.09242753 0.15287474 0.07735251 0.09176814 0.0755729
0.07864659 0.07427994 0.13370198 0.098248236 0.114942476 0.10330514 0.061420638 0.1871149
0.16210993 0.107047565 0.10073235 0.1843473 0.07449882 0.08064238 0.08278292 0.16971707
0.10086719 0.12064199 0.09431033 0.1339545 0.0978316 0.059118047 0.05544078 0.04431396
0.14147338 0.06266009 0.09956793 0.12751797 0.17408197 0.07102674 0.09512889 0.2536467
0.1105603 0.09350383 0.39732018 0.13921537 0.13888955 0.086902656 0.183077 0.16697535
0.081413664 0.15874074 0.16023451 0.11398307 0.13665399 0.14466159 0.07694502

network.12.weight f4 [63, 63]
00000000: 540d 503e b201 083e 4713 82bb f2ee 9f3c
00000010: f85f 0dbd cb11 5cbd a279 2b3d ec38 96bd
00000020: 13ae c4bd 3a18 59be 3399 bcbd 93c6 60be
00000030: bbe6 91bc d633 ba3c f3e2 0c3e cda8 b73d
00000040: 7328 a8bd ba88 d33d a174 213c cfa7 493d
00000050: d01c 993c 57c3 253e 22d4 adbd 0de0 9fbd
00000060: 93e9 0f3d 4a62 873d 68cc 17ba 5d06 c4ba
00000070: 1a46 053e 4011 dfbc 0221 eebd 6a62 15be
00000080: 2207 c23c ccf1 c03d b1e0 6d3d 8dc2 05bd
00000090: 53a1 6fbd d7e5 14be 55b7 96bd 1e36 223d
000000a0: b126 cdbd fe97 f33d c588 c8bc c29c 543e
000000b0: 6583 6fbd 6751 cd3c a44f f33c 4592 07bd
000000c0: 543d 11be 6b35 203e 4ad8 b03d 78a4 603d
000000d0: f8f4 1dbd d2eb 283d 6702 81bd 2845 11bd
000000e0: 17e6 8a3a 37e0 03be c9a3 13bd d2ce 13bc
000000f0: 30b8 ecbc 729f 8b3d 4aa4 393e 0567 38bc
00000100: b808 26be 00d0 32bd 9f5e 95bd f295 08ba
00000110: 4611 a3bd 0972 ba3c 8bca 46bd 8dfc 893c
00000120: e4fa 5fbe 033f 2a3b bd17 023e f6a5 ff3d
00000130: e493 723d ec18 86bb 59c8 8d3d 72b9 b93d
00000140: 2d9d 373e 9d28 54be 0a74 1dbe ee7d 6b3e
00000150: a161 74bd a399 62bd a0d4 7d3d 457e c43d
00000160: 99d4 ddbc 567b 13bc 7483 9d3d cbe0 4c3d
00000170: 91f3 28bd c7cf c1bc 2c69 573d d4bc 23bd
00000180: 571d a63d bee6 48be a4ee edbb 7177 5f3b
00000190: e00f c0bd cb3c d93d ea17 f13b 0dc7 ef3b
000001a0: 9ce6 13bd b710 a03d 5002 e03c e8b3 01be
000001b0: 631f f0bd 5d9e ee3d d355 e23d d90c 0d3d
000001c0: 4bba b0bd f1ae 77be 5e1f 5ebc 2a83 893d
000001d0: c94b 053d 67ec 4c3d 2ef7 363d e77c fa3d
000001e0: cbab 36bd 1869 aa3c f06a a53d 8c7a 243c
000001f0: 1643 2a3e cd8d 90be ea89 3cbd fb8f 88bd
00000200: 7464 b4bd cf6f 18be 9ed4 a13c 90da 5abd
00000210: d1c6 0bbe 340c 943c 4e26 2cbc 4faf 263e
00000220: 3fe4 d43c cb54 d93d da2f c6bd 01d2 cd3d
00000230: 32c1 2c3d 5b37 f7bc e7e1 643e bfa9 25be
00000240: c6d9 ae3d 9bf6 eabd 22af 6dbe 0828 58bd
00000250: 28e0 1e3e 7d32 d6bc 9045 3cbd 4e0b 5c3d
00000260: f913 efbc 97d6 ebbb fa18 3ebe 74d4 9c3d
00000270: a78f 78bd d069 ef3c aae4 7f3d 77d9 8cbd
00000280: 158c 9e3c ab9f 643d 032f f137 7566 5d3e
00000290: 23c2 62bc 10e3 ce3d fbf5 563d 1109 003d
000002a0: 5d54 4d3d 8a16 cdbd 7dff 0bbd 4596 a4bc
000002b0: 0114 083e 19db ba3d 77b9 193d 0756 9a3c
000002c0: c289 36be 3644 943d a48c 423c 0784 0c3c
000002d0: 7152 d93d c941 f13d a126 cdbc 9978 f73c
000002e0: 16dc 7d3c 8474 c03c 05c9 1b3d a137 3a3c
000002f0: 2220 91bd bf38 d2bc 2b2d 14be db6a 5d3d
00000300: d0b9 a3bd 09c8 dcbc 26e8 57bc a189 e0bc
00000310: e499 3ebe ec1f c33d 455c d43d 8ebf 163e
00000320: 1351 22be 8b00 a9bd fbe9 b83c c0ab 2c3c
00000330: 2f12 2b3d f2fd 1ebc f818 0abe 166a aa3d
00000340: 3b68 0fbc 3ea2 4e3e e4ea 1dbe 6366 2e3e
00000350: 4ba8 ef3c ce9b 553d 3c52 5ebd 582c a23d
00000360: 6f32 3e3c e488 04be fac3 40bd 4bdc a63d
00000370: 8cd7 9abd 9287 abbd 494a 9ebd 65a8 4fbd
00000380: c920 ce3d b307 72bd 16fa 763d 06f4 6d3b
00000390: 4500 76bd 0f63 033e 541e 62bc 92b6 8dbc
000003a0: 0c20 153e 541b 13bd 0924 dcbd d175 ba3d
000003b0: ec1a 113e bb0d dd3d a726 763c 1e2c abbd
000003c0: 3eb6 f53d 5f94 7bbd 4d14 523d 3495 c2bd
000003d0: 69b4 10bd 2d03 803c 5c0b e93d ec8f 363d
000003e0: 17d3 13bc 1ef9 02be c26c 0ebd edbe 61bd
000003f0: 4734 35bc a15d a93d 4f66 a43d 270e d0bb
0.20317584 0.13281897 -0.003969583 0.019523118 -0.03451535 -0.053727906 0.041864045 -0.07335076
-0.096035145 -0.21200648 -0.09208908 -0.2195075 -0.017810216 0.022729795 0.1375845 0.08967743
-0.0821084 0.10328813 0.009854467 0.0492323 0.018690497 0.16187797 -0.08487727 -0.07806406
0.035134863 0.06610544 -0.0005790652 -0.001495551 0.13015023 -0.027229905 -0.116273895 -0.14588323
0.023685042 0.09421119 0.05807561 -0.03265624 -0.05850346 -0.14540802 -0.073591866 0.03960239
-0.100171454 0.118942246 -0.02447928 0.20762923 -0.058474917 0.02506323 0.029701062 -0.033098478
-0.14183551 0.15645377 0.08635004 0.05484435 -0.0385637 0.04124052 -0.06299286 -0.035466343
0.0010597137 -0.128785 -0.03604487 -0.009021478 -0.028896421 0.06817521 0.18129078 -0.0112550305
-0.16214263 -0.043655396 -0.07293438 -0.0005210332 -0.07962279 0.022759454 -0.048533004 0.016844058
-0.21873051 0.00259775 0.12704368 0.124828264 0.05922307 -0.0040923264 0.06922979 0.09068574
0.17931052 -0.20718618 -0.15376297 0.22997257 -0.05966342 -0.0553223 0.061970353 0.095943965
-0.027078914 -0.009001574 0.07691088 0.050019067 -0.041247908 -0.023658646 0.052590534 -0.039975002
0.08111065 -0.19619271 -0.007261114 0.0034098292 -0.09378028 0.106072985 0.007357587 0.00731743
-0.036108598 0.07815688 0.027344853 -0.12666285 -0.117247365 0.11651299 0.11051526 0.03443608
-0.086292826 -0.24187829 -0.013557283 0.06714471 0.032542977 0.05003014 0.044669323 0.122308545
-0.04459743 0.020802066 0.08077037 0.010038983 0.16627154 -0.28233185 -0.046029963 -0.06668087
-0.088082224 -0.14886402 0.019754704 -0.053431094 -0.13650061 0.018072225 -0.010507179 0.16277812
0.025987742 0.10611876 -0.09677096 0.10049821 0.042176433 -0.030177763 0.223518 -0.16178034
0.08537631 -0.114728175 -0.23211339 -0.05277255 0.15515196 -0.026147122 -0.045964777 0.05372172
-0.029184328 -0.007197212 -0.18564215 0.0765771 -0.060683873 0.02922526 0.06247393 -0.068774156
0.019353906 0.055816334 2.875133e-05 0.21621116 -0.013840231 0.101019025 0.05248068 0.031258646
0.050129283 -0.100140646 -0.0341792 -0.020091185 0.13288881 0.09123821 0.03753039 0.01883985
-0.17825988 0.07239573 0.011874352 0.0085764 0.106114276 0.11780126 -0.025042834 0.030208873
0.015494367 0.023493059 0.038033504 0.011365802 -0.07086207 -0.025661824 -0.14470355 0.054056983
-0.07994425 -0.026950853 -0.013177907 -0.027409377 -0.18613392 0.09527573 0.103691615 0.1472151
-0.1585124 -0.08252057 0.022572508 0.010538995 0.041765388 -0.0097041 -0.13486087 0.083210155
-0.008752878 0.20179078 -0.15421635 0.17031245 0.029255053 0.05215054 -0.054277644 0.07918614
0.011608704 -0.12942845 -0.047061898 0.08147486 -0.075606436 -0.08375467 -0.077290125 -0.050697703
0.10064847 -0.059089374 0.060297094 0.003630878 -0.06005885 0.12830757 -0.013801176 -0.01729897
0.14563006 -0.035914734 -0.10749061 0.09104503 0.14170426 0.107936345 0.015023864 -0.08358024
0.119976506 -0.061420795 0.05128889 -0.095011145 -0.035328303 0.015626514 0.1137912 0.04457085
-0.009022496 -0.12790343 -0.03477169 -0.05511372 -0.011059827 0.082698114 0.08027326 -0.0063493433
