src/runs/ann_left_hand/20241106/20241106-1406/ann_left_hand_3_layers_best.pth (torch, 147078 bytes, 26 tensors)

network.0.weight f4 [63, 141]
000000 e8 7c 37 3e 6e 51 80 3d 49 b6 d0 bd 11 5c 1b bd
       0.17918742 0.062655315 -0.10191018 -0.0379296
000010 1a ef f7 bd 2a fd 1d bd 8a 84 f3 3c 89 3f fc bc
       -0.12106152 -0.038571514 0.029726285 -0.030792015
000020 b8 c1 e6 bd 91 cd 3f 3b 63 55 74 bd 87 7f 83 3d
       -0.11267418 0.0029266814 -0.059651744 0.06420808
000030 02 e3 6e bd 4b a0 23 3c e4 c0 43 bd 1c 2d 61 bd
       -0.05832196 0.009986947 -0.047791377 -0.05497466
000040 a9 7d 4d bd 8a cc 9b 3c 65 f3 51 bc fd 45 3d bd
       -0.050168667 0.01901843 -0.012814377 -0.046209324
000050 46 83 7f bd e6 a3 66 bd 1b d1 8f bc e9 a2 1b bc
       -0.06238105 -0.05630865 -0.017555764 -0.00949929
000060 4f f0 45 3d 4d f6 d0 3d 51 53 9a bc 13 83 14 bc
       0.04832488 0.10203228 -0.018838556 -0.009064454
000070 61 88 82 3c 4a 0d 58 3d 74 34 d5 bd 30 7b 1f 3d
       0.015934171 0.05274705 -0.10410395 0.03893584
000080 19 1c 25 3d 89 b7 bf 3a f4 ad 9b bd e3 2b 3f bd
       0.04031 0.0014626841 -0.07601538 -0.046672713
000090 cb 14 84 3b ec 43 0b 3b c4 4b a9 bd 8e 4e 15 bc
       0.004030799 0.0021250201 -0.08266404 -0.009112967
0000a0 43 84 33 bb 0e 50 72 3a 0c a6 7d 3c a1 94 d0 3c
       -0.0027392067 0.00092434965 0.015481483 0.025461497
0000b0 78 0b 55 3d fb 5b 82 3c db fe fd 3b 3c 69 0d bd
       0.05201289 0.015913 0.0077513284 -0.034524187
0000c0 e9 e8 c9 ba 0e 45 d1 3c 3a 63 26 3d 07 91 83 3d
       -0.0015404496 0.025545623 0.040621974 0.06424146
0000d0 43 7c 94 3d d7 dc 8b 3c f9 07 4b 3c 33 08 50 3c
       0.072502635 0.017073078 0.012392038 0.012697267
0000e0 68 68 40 3d 53 1c f9 3c fb 9f 15 3b 70 26 b8 bb
       0.04697457 0.030409014 0.0022830951 -0.0056198165
0000f0 a0 87 50 3d f3 fb 8f 3c ad 95 81 bc 37 a1 a4 3b
       0.050910592 0.017576193 -0.015818441 0.005024101
000100 c3 45 de 3c 62 18 5f bd 73 20 f4 3c d4 96 0c 3d
       0.027132874 -0.054466613 0.02980063 0.03432353
000110 6f f9 3c 3e 81 5e 52 3d e2 5e 41 bc 77 5e 0a bd
       0.18454526 0.051359657 -0.011802407 -0.033781495
000120 2a 7a c3 bc da 1c 11 bd d0 b6 04 3d d4 44 51 bd
       -0.023861963 -0.035427906 0.032400906 -0.05109103
000130 29 af 81 bd 3e b2 97 bd 70 dd 2f bd 4c da a8 bd
       -0.06332237 -0.07407044 -0.04293579 -0.08244762
000140 12 a5 c5 bd e9 bf 3a bd c3 da bb 3c 5c 4e 49 bd
       -0.09650625 -0.045593176 0.022931462 -0.049146995
000150 aa a1 17 ba f2 17 c0 3c 3a 9f 5a 3d 7a d1 2b 3b
       -0.00057842827 0.023448918 0.053374507 0.0026217387
000160 c0 79 14 bd c3 2e 18 bd a3 d6 2d 3e 5b a7 a4 3d
       -0.036248922 -0.03715397 0.16976409 0.08039733
000170 68 ca a7 bc 13 be 02 3d 32 24 e9 bd 96 8d ab 3d
       -0.020482257 0.03191955 -0.11383857 0.08376615
000180 9a c1 c4 3d 53 93 19 3c 70 75 3c 3d 94 c6 36 bd
       0.09607239 0.009373504 0.046010435 -0.044622973
000190 e3 c4 2d 3c 5d c5 fb 3c 18 ab b4 bd ef 9f fd bd
       0.0106060235 0.030733759 -0.08821696 -0.123840205
0001a0 0f 00 1e bd 3f 43 87 3c 5c b3 90 bd 5c 8d 06 be
       -0.038574275 0.016511558 -0.0706546 -0.13139862
0001b0 73 14 8a bd e2 10 cb bd b4 4d 37 b9 b6 17 83 bd
       -0.06742182 -0.099153295 -0.00017481187 -0.06401007
0001c0 22 f1 27 bd 66 4b b8 bc 0c 46 58 bd 6a ea 2b 3c
       -0.041001447 -0.02249689 -0.052801177 0.0104929
0001d0 99 7c 52 3d 6c f9 03 3e 37 11 50 3d c7 c7 04 3d
       0.051388357 0.12888116 0.050797667 0.032417085
0001e0 bc 3a ca 3d 80 5e c1 3c 49 ec 04 3d 6f f5 54 bc
       0.09874484 0.023604631 0.0324519 -0.012997969
0001f0 a9 33 96 3d f6 1b 6f 3d 4e 42 25 3d fe 94 8a bc
       0.07334072 0.058376275 0.040346436 -0.016916748
000200 66 19 6a 3d 49 c9 a5 3c 6f 5d 2e bd 92 f3 ab 3c
       0.057153128 0.020237582 -0.042569574 0.020990167
000210 c0 8b c4 3c ea cf 1a bc 55 07 82 bc 3b 0f a6 bb
       0.02399242 -0.009448985 -0.015872637 -0.0050677336
000220 d0 21 30 3e 30 22 97 3e d9 46 cc 3c 05 ff 1d bd
       0.17200398 0.2951827 0.024936127 -0.038573284
000230 12 91 1f 3a ed 5a e7 bd 1f 55 44 bd 34 57 e1 3c
       0.0006086986 -0.112966396 -0.04793274 0.027507402
000240 c1 97 92 3d be dc 2a 3d fa 52 87 3c bf 5a 56 3d
       0.07157851 0.041714422 0.016519058 0.052332636
000250 f2 f3 d2 bd 15 14 8f bb 77 97 af 3c 4d c2 cf 3c
       -0.10300435 -0.0043664076 0.021434529 0.025361205
000260 ab b1 8a 3d fb 47 36 3d 26 b1 30 bd c9 5c 78 bc
       0.06772169 0.04450224 -0.043137692 -0.01515884
000270 f1 84 69 3d f7 1e b9 3d 5d 91 01 bd 9c 5b 9a bd
       0.05701155 0.09039109 -0.03163277 -0.07537004
000280 40 8a 7e 3d ba d2 70 3c 33 20 2d 38 1f d1 53 bd
       0.062143564 0.014698679 4.1276402e-05 -0.051713105
000290 34 31 38 3d 60 e2 7b 3b a8 6d f2 3a 98 b1 89 3d
       0.0449688 0.003843449 0.0018495815 0.067233264
0002a0 71 80 2e 3d ba ff 7d ba 84 5a d6 3c ab cb bd 3c
       0.04260296 -0.00096892903 0.026166208 0.023168406
0002b0 6a a1 8b 3c e4 9e 31 3d fe 7c 48 bd 04 92 28 3e
       0.017044742 0.04336442 -0.048947327 0.1646195
0002c0 26 cf 34 3c 97 56 01 3e 96 10 2b bc 7f 3f 9e 3d
       0.011035716 0.12630688 -0.010440966 0.07726955
0002d0 ca 28 2d 3d 93 bb 92 3c 58 ab 15 3d de 43 0b be
       0.042275228 0.017911708 0.03654036 -0.13600108
0002e0 44 ca 23 3e 89 dd 0e be 7c e8 0e 3d 87 74 7b 3d
       0.15995127 -0.13951696 0.034889683 0.061390426
0002f0 b4 2f f2 3d 76 bc 42 3d 9e 84 15 3d 2e 77 55 3c
       0.11825505 0.04754301 0.036503427 0.013028903
000300 93 30 6f bc ad 95 82 3d 4f ef 15 3d c8 43 f1 3c
       -0.014598983 0.06376205 0.036605176 0.029451266
000310 62 4c 79 bc 3e b6 fc 3c 08 92 26 bb 5c 12 18 bc
       -0.015215965 0.030848619 -0.0025416631 -0.009281721
000320 89 6b 4f bb 10 7b d8 3c 06 05 ec ba 0c ea 09 bd
       -0.003164979 0.026425868 -0.0018006868 -0.03367047
000330 a6 bd fa bc 30 85 a9 3c 62 c2 ce 3c ea 32 78 3d
       -0.03060801 0.020693392 0.025239173 0.06059543
000340 37 63 52 3d 0c e5 05 3c 13 5e 47 3d b7 f8 a3 3c
       0.05136415 0.008172285 0.0486737 0.020016057
000350 31 87 53 3d 32 ac 93 3b aa 59 3e bc 86 95 57 3d
       0.0516426 0.0045066113 -0.011618057 0.05263283
000360 07 c5 09 bd 41 bd 17 3d 15 33 f3 bd 90 52 7e bc
       -0.033635166 0.03704572 -0.118749775 -0.015522614
000370 d1 c2 00 be 85 51 b3 3c d5 d5 b0 bd f3 89 bb bc
       -0.12574317 0.021889457 -0.08634535 -0.022892928
000380 c4 47 3c bd f6 58 a9 3b 4b 20 80 3d e2 7b 13 3c
       -0.04596688 0.0051680757 0.062561594 0.009001704
000390 2b c1 da bc 7a 0b d6 3c 6d 4b 11 bd c9 1e f2 3c
       -0.026703438 0.02612852 -0.035472322 0.029555695
0003a0 89 2e a8 bd e4 04 6a be 21 8b 7f 3c f9 a1 c7 be
       -0.08212001 -0.22853428 0.015597136 -0.38990763
0003b0 bb a1 27 be b0 0a a1 bd 79 a7 64 bd 36 92 ab bb
       -0.16370289 -0.078633666 -0.055823777 -0.0052359356
0003c0 45 c9 95 bb c2 dc 6b bd 17 de c2 3a 8b e1 a5 bc
       -0.0045711123 -0.057583578 0.0014867213 -0.020249149
0003d0 a6 46 ad 3d 08 1e 82 3d fd 6a 72 3d de bb 48 bd
       0.08460741 0.06353384 0.059184063 -0.04900729
0003e0 ba 2d f6 3d ea 95 38 3d 99 aa db 3d 06 54 dd 3d
       0.120204404 0.045064844 0.10725898 0.10807042
0003f0 ba 9d 8b 3c 03 17 cd 3c 4f 3f 17 bd 7a 0b 09 bd
       0.017042983 0.025035387 -0.03692561 -0.03345821

network.0.bias f4 [63]
000000 f5 3f fc 3e 2f 60 19 3f f2 4a 1d 3e 15 34 8e 3e
       0.49267545 0.5991239 0.1536062 0.2777411
000010 ba 06 02 3f 59 f3 09 3f aa 81 1e 3f f4 d1 4f 3e
       0.50791514 0.53886944 0.619166 0.20294935
000020 7f c9 1f 3f 24 d0 9f 3e 65 69 1a 3f 9f 9b 13 3f
       0.62416834 0.31213486 0.6031707 0.57659334
000030 aa 8a 31 3f 9f 8a 26 3f b5 31 d2 3e 2a 1a ae 3e
       0.6935221 0.6505527 0.41053548 0.34004337
000040 4f d2 f8 3e a7 64 1c 3f 0b 42 ad 3e 2f 36 f2 3e
       0.48597953 0.61091083 0.3383945 0.47306964
000050 4e 5f ca 3e 32 23 e5 3e 76 c8 21 3f 22 a4 0b 3f
       0.39525837 0.44753414 0.63196504 0.5454732
000060 0a 78 1a 3f 3f 7a eb 3e e9 1f 38 3f 5f 5f 20 3f
       0.60339415 0.45991704 0.7192369 0.62645525
000070 a0 1a 0a 3f b4 3f 09 3f 6a de 90 3e da 52 24 3e
       0.53946877 0.5361283 0.28294688 0.1604723
000080 d9 86 18 3f f9 dd fe 3e 1f 09 d9 3e 25 e4 12 3f
       0.5958076 0.49778727 0.4238977 0.5737937
000090 ea 82 f7 3e 2d 43 13 3f 3a 1f 2d 3f 1c 90 1b 3f
       0.48342067 0.5752438 0.6762577 0.6076677
0000a0 d7 79 e1 3e e2 18 50 3f 28 27 dd 3e 09 12 bc 3e
       0.4403827 0.8128797 0.43193936 0.3673251
0000b0 90 fa 67 3f dd a2 e7 3e 2a b7 bf 3e b2 04 03 3f
       0.90616703 0.45241442 0.3744443 0.5117904
0000c0 b9 d6 9c 3e fc 7f f6 3e f7 56 2f 3f 5e 2d e8 3e
       0.3063257 0.4814452 0.6849207 0.45347112
0000d0 dd c4 ff 3e ec bf 01 3f 07 c4 2f 3f 45 39 bf 3e
       0.49954882 0.50683475 0.6865849 0.3734838
0000e0 27 d6 b8 3e fb d9 62 3f ae 4d 11 3f da a2 c2 3e
       0.36100885 0.8861386 0.56759155 0.3801487
0000f0 6e ea 24 3f 61 19 2b 3f 3b 10 c4 3e
       0.6442021 0.668356 0.38293633

network.1.running_mean f4 [63]
000000 61 70 27 3e 1a 7f 1b 3f 65 e9 51 3f 79 e2 b5 3e
       0.16351463 0.60740817 0.81996757 0.35524347
000010 d6 19 0d bf 12 14 b6 3e cf c0 b6 be 6f 70 16 40
       -0.5511755 0.35562187 -0.35693976 2.3506124
000020 a0 cf 8e 3f 74 92 a8 3f b0 42 95 bf b8 f1 ce 3e
       1.1157112 1.3169694 -1.1660976 0.40418792
000030 1a 66 4d be 9e f6 7c bf 06 ce 35 3f 70 98 41 3e
       -0.2005848 -0.9881381 0.7101749 0.18905807
000040 e3 7d 31 be f7 de e1 3e f3 ce ce 3f 7b ca 2d 3f
       -0.17333178 0.4411542 1.6156906 0.67887086
000050 6c 35 dd 3e 0e 20 6d 3e f5 ff e2 3e 40 06 9f be
       0.4320482 0.23156759 0.44335905 -0.31059456
000060 3a 7e a0 3f 15 e4 e7 bd b5 06 a8 3e 51 36 df 3e
       1.2538521 -0.113228 0.32817617 0.43596128
000070 e9 99 3f bc 7b 05 ce 3f 9c ad a0 3f 1a 51 f2 3f
       -0.01169441 1.6095423 1.2552981 1.8931
000080 94 05 88 3f 71 28 97 3e 0c c4 87 3e 40 e9 0f 3f
       1.0626702 0.29523042 0.2651676 0.56215286
000090 4d a9 d3 be 45 4d a6 be 21 18 9d bf 56 ef 5f be
       -0.41340104 -0.32480827 -1.2272989 -0.21868643
0000a0 c4 f6 02 3f 86 23 1b 3f 36 b6 f3 3f 8b 03 ae 3e
       0.51157784 0.6060108 1.9039981 0.33987078
0000b0 86 ec 77 3f d5 2b 6b 3f 61 7c 87 3e 31 8a 89 bf
       0.9684528 0.9186376 0.2646208 -1.0745298
0000c0 4a a5 8b 3e ad e8 9d 3e b1 77 f4 3e 30 98 8c bf
       0.27274543 0.3084158 0.47747567 -1.0983944
0000d0 04 18 ea bf 8c 37 17 3f c6 7e 3d 3f 4d 37 ea 3f
       -1.8288579 0.5906913 0.74021566 1.8298126
0000e0 8e 39 90 3f 5f 65 b0 3f 7c a1 8f 3f 3c fa c6 3f
       1.1267564 1.3780936 1.1221156 1.5545115
0000f0 91 54 e7 3f 57 33 14 bf d6 1b 90 3e
       1.8072683 -0.5789084 0.28146237

network.1.running_var f4 [63]
000000 68 a3 dc 3b 6b 2f e4 3b 55 d2 b0 3b 74 26 95 3b
       0.0067333467 0.0069636605 0.0053961673 0.004551703
000010 07 eb ec 3b f3 a2 bf 3a 32 45 ce 3c e3 52 69 3c
       0.007230166 0.0014620706 0.02517948 0.014240953
000020 88 b8 d0 3b de dd 1c 3c b0 78 0f 3c 8b 00 ea 3b
       0.006369654 0.009574382 0.0087568015 0.007141178
000030 2a 26 a5 3c 98 7b 9c 3c 70 49 1d 3c 88 44 c1 3b
       0.0201598 0.019101903 0.009600028 0.005898062
000040 a6 e9 36 3c 7d a9 69 3c 21 50 09 3c 2d 0a 95 3b
       0.011164105 0.014261601 0.008380921 0.004548332
000050 14 ed 05 3c 19 c0 2e 3c d0 8e 02 3a 35 e7 ae 3b
       0.0081742 0.010665917 0.0004980387 0.0053376206
000060 62 87 93 3b ee bb 0b 3c 1b 0e bc 3a 8b 24 5c 3b
       0.004502223 0.008528693 0.0014347465 0.0033591117
000070 df 64 e9 3b 48 e7 d9 3b bc 25 f1 3b c1 d8 25 3c
       0.0071226205 0.0066498853 0.0073592346 0.010122479
000080 f8 9f 05 3c fd e9 4a 3c e2 a8 cc 3a a1 0e 48 3c
       0.008155815 0.012384889 0.0015614296 0.012210519
000090 9b 1e cb 3b d7 53 9e 3b e5 06 3f 3c 4c 48 56 3c
       0.006198717 0.004831772 0.011659359 0.01307876
0000a0 2d 9e 04 3c f8 fb bd 3a cd d5 97 3c f4 2b b0 3b
       0.008094353 0.0014494648 0.018534565 0.0053763334
0000b0 36 96 ed 3b e2 03 8f 3b 1c 58 36 3c 17 5b 65 3c
       0.0072505726 0.0043644765 0.011129405 0.013998768
0000c0 13 78 d4 3a e1 b2 00 3c 81 0c ff 3b 4b 4c 65 3c
       0.0016210101 0.007855148 0.007783473 0.01399524
0000d0 8c d7 a3 3c b2 f6 c6 3a f8 e4 0e 3c e2 ba 17 3c
       0.020000242 0.0015179722 0.008721583 0.009260865
0000e0 1d 03 32 3c 89 ba 9e 3b f2 b1 a6 3b d9 6d 9e 3b
       0.010865 0.004844014 0.0050871307 0.004834872
0000f0 c0 45 2a 3c ec 8e 0c 3c 4d 82 6f 3c
       0.010392606 0.008578997 0.0146184685

network.3.weight f4 [63, 63]
000000 f7 67 b5 3d 1b d8 a2 bd ce d5 b6 3d 4e 99 6b bd
       0.0885772 -0.07951375 0.08927499 -0.05751925
000010 11 77 11 bd 1a 3a ab 3d 1f 6d 9f bc 7c 62 a3 bb
       -0.03551394 0.08360691 -0.019461213 -0.0049861055
000020 3f c4 4f bd dd 1b 61 3d 31 6d 1d 3e 5f 7c 57 3d
       -0.050724264 0.054958213 0.15373684 0.052608844
000030 63 cd c9 3c e4 d1 ad 3c 9a 91 e2 bc 41 06 77 3e
       0.024634069 0.021218248 -0.027657319 0.2412348
000040 e3 79 18 bd f5 32 a4 3d dc 4e 41 bc 98 24 06 bd
       -0.037225615 0.08017532 -0.011798587 -0.032749742
000050 20 fc 4b 3e 65 60 3e bc 0e be 47 3e da 29 31 3e
       0.19920397 -0.011619662 0.19506094 0.17301121
000060 fc d6 2a 3d 03 52 53 be 27 87 ac 3d 9d f7 ba bd
       0.04170893 -0.20636754 0.08424216 -0.0912926
000070 4f 6f 80 be b7 9c 1c bd 86 b9 94 3d 04 b5 91 3b
       -0.25084922 -0.038235392 0.07261948 0.0044466276
000080 22 ca 96 3b b0 86 f9 bb eb 64 8b 3d 44 bd a5 bd
       0.004601733 -0.007614933 0.06806358 -0.0809274
000090 9f 0c cd bd 90 a6 cd bb 53 f3 89 bc 13 b4 27 3d
       -0.10012173 -0.0062759593 -0.016839659 0.040943217
0000a0 c4 43 9d bd 36 13 1c be ed 4a 17 3e 1c 2d a8 bc
       -0.07678941 -0.15241703 0.14774676 -0.020529322
0000b0 69 bb 1e 3e 76 0c 14 bd 77 2c d8 bd 35 0a a6 bd
       0.15501179 -0.036144696 -0.10555356 -0.081074156
0000c0 c5 56 34 3d b3 7d 47 3e 2e 54 45 3d cd 82 b0 bc
       0.044028062 0.19481544 0.048175983 -0.021546746
0000d0 44 aa ae bd ba e9 4b bc a1 e0 f2 bb 06 29 c9 3d
       -0.08528569 -0.0124458615 -0.0074120318 0.09822278
0000e0 ec f4 64 bd 17 4a 3e bd 2c 0b eb bd c6 a4 2e 3d
       -0.05589764 -0.046457376 -0.1147674 0.04263761
0000f0 6f 75 4d 3b 81 3b 5d be 35 84 96 3c 89 55 13 3c
       0.0031350513 -0.2160473 0.018373588 0.008992561
000100 57 12 56 3d 7a ec 4a bd c1 94 ea bc 44 ff 6b bc
       0.052263584 -0.049541928 -0.028635385 -0.014404122
000110 bc 83 3b 3d 72 58 2c 3e ee ea 18 3e c7 a1 4a 3c
       0.04577993 0.16830614 0.14933369 0.012367672
000120 85 a1 ce bd b4 cf 17 bd 6b a3 b8 bd 93 0f 63 3c
       -0.10089401 -0.037063316 -0.090155445 0.013858694
000130 0e c5 94 3c 17 1b 29 3e 4f 6a ad bd 34 df ab bd
       0.01816037 0.1651424 -0.084675424 -0.08392182
000140 c8 5a 96 3c 94 12 0c bd ba 3a fc 3c 4a f4 c0 bd
       0.018353835 -0.034197405 0.030789722 -0.094215944
000150 19 5f 25 bd 35 df e9 bd 0e 55 09 be 62 22 96 bd
       -0.040373895 -0.114195265 -0.13411352 -0.07330777
000160 9a 07 31 3d 1f 7e 40 3e c7 72 38 3e 3f 6c a3 3d
       0.04322014 0.18798111 0.18012534 0.07979631
000170 b4 d2 23 3e 27 bf 15 be d6 3e 4f 3d e2 1f f4 3c
       0.15998346 -0.146237 0.050597034 0.02980036
000180 ba 50 2a 3e 14 df 7e bb fe d3 a2 3d 0c 6c 36 bc
       0.16632357 -0.003889029 0.079505906 -0.011134159
000190 1a 7a f5 3c af cd 84 3d b3 4b 2e 3d 71 4e 98 3d
       0.02996545 0.064845435 0.04255266 0.074368365
0001a0 a8 69 4d bd 81 d5 2e bc fe fd cb 3d c4 97 0e 3e
       -0.05014959 -0.0106710205 0.099605545 0.13925081
0001b0 86 c5 6e 3e d2 ac 1e be 4e 20 39 3c 84 4b ac bd
       0.23317537 -0.15495613 0.011299206 -0.08412841
0001c0 d1 35 e1 bd b7 27 86 3d 73 5f 2d 3d 03 3c 40 bd
       -0.10996593 0.06550544 0.042327356 -0.04693223
0001d0 f8 32 21 be 12 94 29 be b5 ef 37 bb e4 89 34 bd
       -0.157421 -0.1656039 -0.002806646 -0.044076815
0001e0 30 fa d3 3d 05 d5 b0 3d 1e 88 77 bd 91 00 f0 3c
       0.10350454 0.0863438 -0.060432546 0.029297145
0001f0 14 f6 02 bd 70 42 4d 3c 95 85 fd 3d 92 9a 7c 3d
       -0.03197296 0.012528047 0.123789944 0.061670847
000200 c1 3e a5 bc 12 56 d4 bd 15 50 65 3d ac bb 14 be
       -0.020171525 -0.10367979 0.055984575 -0.14524716
000210 a4 55 6f 3d 3a 95 82 bd 6e 62 3d bc 3f 0a 93 3d
       0.058431283 -0.06376119 -0.011559112 0.07179689
000220 9b 66 47 bd 69 3d 1d 3d 5c a9 11 3e df 50 24 be
       -0.048681837 0.038388643 0.14224762 -0.16046475
000230 76 98 71 3d 3b 9c 59 3d 1d ea a9 bd 2c 30 dc 3c
       0.05898329 0.05312751 -0.08296607 0.026878439
000240 d1 13 ac bd 07 61 bb bd f5 02 07 3e fd 0e a2 3d
       -0.08402217 -0.09149366 0.13184722 0.07913015
000250 c0 94 06 be af bf 62 3b f6 fc 6e 3c 2e 55 5a 3c
       -0.13142681 0.0034599116 0.014586678 0.0133259725
000260 da 63 36 bd e8 e9 c1 3d 72 72 df 3c 0e 0f 74 3d
       -0.04452882 0.09468442 0.027276251 0.05958467
000270 ea ea d4 3c 9e f2 04 3d 53 0d e8 bd e7 57 25 3c
       0.025990922 0.03245794 -0.113306664 0.010091758
000280 5e 05 82 3d a3 d4 0e 3e aa 21 06 3d 14 1a 80 bd
       0.0634868 0.13948302 0.03274695 -0.06254974
000290 91 61 cb bd a9 40 08 3c 2c 71 20 3d 0f 53 94 bd
       -0.09930719 0.008316197 0.03917043 -0.07242405
0002a0 10 5f fc bc c8 c5 a5 bd a3 f4 c1 bd f0 4b b2 bb
       -0.030807048 -0.080943644 -0.09470489 -0.0054411814
0002b0 d5 4d 4e 3e 55 b8 67 bd 1d 59 88 3c 3d 6e f6 bd
       0.20146878 -0.056572277 0.016644055 -0.12032745
0002c0 1f 69 86 bd 2e b7 b0 bd 28 93 63 bc 48 e0 dd 3a
       -0.06563019 -0.08628689 -0.013890065 0.0016927803
0002d0 36 d0 a4 bb c9 7c c0 3d f5 a3 52 bc 2d 73 95 bd
       -0.0050297035 0.09398801 -0.012856473 -0.07297359
0002e0 2b 22 55 be 43 18 b8 bc 60 2f aa bb 15 22 47 3d
       -0.20813815 -0.022472506 -0.005193636 0.048616488
0002f0 48 0a 7e bd 03 87 fa bd ce d5 80 3d 7a f7 56 3d
       -0.062021524 -0.12232783 0.0629078 0.052482106
000300 9c 19 a8 bd 36 ef 17 bd bb 99 64 be 72 15 72 bd
       -0.082080096 -0.037093364 -0.22324269 -0.059102483
000310 6a d8 93 3a bf e8 12 3d ef ed bd 3d 51 33 cf 3d
       0.0011279706 0.035866495 0.09273898 0.1011721
000320 f1 ae a8 3d 91 15 46 be 0a 52 34 bd 52 64 07 be
       0.082364924 -0.19344164 -0.04402355 -0.13221863
000330 bd 2b d4 bc 9a 3d cb bd e7 58 b4 bc 16 4a 84 3d
       -0.025899762 -0.09923859 -0.022015048 0.06459443
000340 2e b9 a3 bc bb 32 54 3e 86 c4 ed bc f3 08 ea bc
       -0.019985761 0.20722477 -0.029024374 -0.02856872
000350 d7 fc e3 bd cd c2 cd bc aa f0 3c 3d f9 46 6b bd
       -0.1113221 -0.025117302 0.046127953 -0.05744073
000360 ca 91 8d 3d d1 8d 54 bd 05 70 24 bd af 92 14 3d
       0.06912573 -0.05189306 -0.040145893 0.0362727
000370 a8 30 11 bd 8b 13 74 3a cc 16 ca bd 6f 1f 34 bd
       -0.035446793 0.00093107735 -0.098676294 -0.04397529
000380 28 b1 d4 bc 9a 7d f7 bb 7f 47 12 bd 6d 61 fa 3d
       -0.025963381 -0.0075528147 -0.035712715 0.12225614
000390 86 8b 92 bd 9c 8e 2d 3e 36 75 7a 3e 97 f2 ff bc
       -0.07155518 0.16948932 0.24458775 -0.031243606
0003a0 f6 b3 9a 3d 46 f7 ee bd 1f 61 a8 3d c2 cf b7 bd
       0.07553856 -0.116682574 0.082216494 -0.089751735
0003b0 f5 9e fc 3d 3a fb ca 3d ee 11 53 3d 8c a8 c0 bd
       0.12335006 0.09911199 0.05153077 -0.09407148
0003c0 43 22 90 bc 17 06 fd 3c 5d f5 4c 3d 56 d9 c7 3d
       -0.017594462 0.030886693 0.050038684 0.097582504
0003d0 cc 23 2a 3d c1 97 ea ba 6d 4e 2e bd d5 43 c4 bd
       0.041538045 -0.0017898009 -0.04255526 -0.095832504
0003e0 64 2c 6e bd b0 a6 3f bd 38 10 93 bd 02 07 20 bd
       -0.058147803 -0.046789825 -0.07180828 -0.039069183
0003f0 f9 32 2a 3d 30 f3 87 bd 71 78 ad bd 84 47 a0 bc
       0.041552518 -0.06638181 -0.08470238 -0.019565351

network.3.bias f4 [63]
000000 16 6b fb 3e aa 3e 2d 3f 51 46 f7 3e d1 03 04 3f
       0.49105138 0.6767374 0.48295835 0.51568323
000010 99 c2 f2 3e 06 ce 02 3f 02 3f 10 3f 84 3f f4 3e
       0.4741409 0.51095617 0.5634614 0.4770471
000020 e1 c1 e4 3e ee a4 13 3f bd 5f e6 3e b8 2e 01 3f
       0.44679168 0.5767354 0.44994918 0.5046191
000030 a2 96 10 3f f2 f1 e2 3e 37 42 1d 3f 11 0a 00 3f
       0.5647985 0.44325215 0.6142916 0.5001536
000040 87 12 f6 3e 11 b7 f9 3e 4d d7 06 3f 6a bd ff 3e
       0.4806101 0.4877248 0.5267227 0.499492
000050 9a ce f4 3e 3b 50 f9 3e d8 dc f4 3e f6 1f 03 3f
       0.47813874 0.48694023 0.4782474 0.51220644
000060 5f c7 ef 3e 15 f2 f6 3e 8d a2 f7 3e ea de fd 3e
       0.46831796 0.4823157 0.48366204 0.49584132
000070 72 b0 07 3f ab 66 10 3f 4a 55 f7 3e ea 13 04 3f
       0.5300361 0.5640666 0.48307258 0.51592886
000080 bb c0 03 3f 65 6c 10 3f ec 46 0f 3f 1d 35 03 3f
       0.5146596 0.56415397 0.55967593 0.5125292
000090 01 09 f4 3e ca 61 23 3f a1 a9 0e 3f f6 b3 f7 3e
       0.4766312 0.6382109 0.55727583 0.48379487
0000a0 ce da fa 3e 5f 90 f7 3e 3e 8a fa 3e dd ff 02 3f
       0.4899506 0.48352334 0.48933595 0.51171666
0000b0 8a 38 f2 3e a6 3c f9 3e 8e b8 f9 3e c0 0d 01 3f
       0.4730876 0.48679084 0.48773617 0.50411606
0000c0 8f 33 0e 3f 3c 84 fd 3e fa 07 02 3f 34 d8 20 3f
       0.5554742 0.4951495 0.5079342 0.628299
0000d0 c2 30 1c 3f 11 df ee 3e 00 5d f0 3e ea ae df 3e
       0.610119 0.4665456 0.46945953 0.43688136
0000e0 b5 f2 01 3f cb 73 00 3f 42 d1 f5 3e 02 f4 06 3f
       0.50760967 0.50176686 0.48011214 0.52716076
0000f0 77 09 01 3f d2 71 dc 3e 2b 82 ec 3e
       0.5040507 0.43055588 0.4619306

network.4.running_mean f4 [63]
000000 30 fe 0e 3f 33 d2 4a 3f bf 8d c6 3e 73 86 db 3e
       0.5585661 0.7922699 0.3878002 0.42876014
000010 f2 bb d1 3e 12 f3 1e 3f dc bd 12 3f 6f 2d c6 3e
       0.40963703 0.62089646 0.5732095 0.38706538
000020 06 f9 a6 3e fc 39 79 3f 58 3a 2e 3f ca 6b 58 3f
       0.32611865 0.973541 0.68057775 0.84539473
000030 85 2f 3e 3f e4 b2 e7 3e e4 a8 42 3f 1f ac 24 3f
       0.7429126 0.4525367 0.76038957 0.64325136
000040 20 21 ec 3e 90 4c 10 3f 0a da 12 3f 47 7c 2c 3f
       0.46119022 0.56366825 0.5736395 0.6737713
000050 f3 da 32 3f eb 66 d7 3e b1 cd a9 3e 77 70 20 3f
       0.6986534 0.42070708 0.33164743 0.6267161
000060 63 32 c8 3e b1 0a d5 3e 0f 2f 91 3e fa 40 0a 3f
       0.39100942 0.4160972 0.28356215 0.54005396
000070 5f 71 37 3f 83 b7 27 3f 5f 63 e0 3e a2 24 34 3f
       0.71657366 0.6551439 0.43825814 0.703684
000080 0b 0a 8c 3e 48 e7 14 3f 21 56 2f 3f 39 af 29 3f
       0.27351412 0.5816541 0.684908 0.66282994
000090 4c 0c 34 3f 4e 4b 4b 3f 06 4d 32 3f 78 16 b2 3e
       0.70331264 0.7941178 0.6964878 0.34782767
0000a0 14 03 e2 3e f9 2b 4e 3e 0d 07 36 3f 0b 90 f3 3e
       0.44142973 0.20133962 0.7110451 0.47570834
0000b0 2c 73 e2 3e be 24 44 3f ba fd b5 3e 89 14 dd 3e
       0.44228494 0.76618564 0.3554514 0.4317973
0000c0 38 d5 26 3f 11 8b f5 3e 38 9c d6 3e 52 54 28 3f
       0.65169096 0.47957662 0.4191606 0.6575366
0000d0 b5 89 28 3f 4e ea a8 3e ca 18 b4 3e 0f 4b a6 3e
       0.65835124 0.3299126 0.35175163 0.3247914
0000e0 a2 fd 2f 3f 90 8c 06 3f 15 a8 07 3f af 59 04 3f
       0.6874639 0.5255823 0.5299085 0.51699346
0000f0 ed b0 43 3f b7 de 15 3f 02 15 e2 3e
       0.7644184 0.5854296 0.44156653

network.4.running_var f4 [63]
000000 cb 32 88 3e 86 c9 83 3d 69 47 34 3e a0 e3 bd 3d
       0.26601252 0.06434922 0.17605366 0.09271932
000010 ec 70 6f 3e 1d a3 83 3e 0f d4 81 3d c0 32 66 3d
       0.2338292 0.25710383 0.06339275 0.056200743
000020 3e 5e f1 3e 3b c6 4f 3e 7c 8d 63 3e 48 e2 c9 3e
       0.47142214 0.20290463 0.22221941 0.3943045
000030 d3 2a 0b 3e d4 32 f7 3d 90 bb a9 3d ef 40 51 3e
       0.13590555 0.120702416 0.08287728 0.20434926
000040 8b 94 82 3e 3b b6 c3 3e 42 ad 23 3e c3 cf 48 3e
       0.25503954 0.38224968 0.15984061 0.19610505
000050 db dc e5 3d 54 ec 04 3e e0 92 11 3e ea b5 63 3e
       0.112237655 0.12980777 0.14216185 0.22237363
000060 a9 81 12 3d 04 e0 ad 3d 92 c9 e0 3d 4c 10 83 3e
       0.035768185 0.08489993 0.109759465 0.2559837
000070 88 0b 07 3e b4 5d b9 3d 95 9c 13 3e 2b 29 90 3e
       0.13187993 0.090510756 0.144152 0.2815641
000080 e7 dc f8 3d fb 1d d5 3d 11 8a 28 3e ac f2 0a 3e
       0.12151509 0.10406109 0.16458918 0.13569134
000090 a7 0f 86 3e d0 22 0b 3d 39 9a 0d 3e 12 e9 54 3e
       0.26183817 0.033968747 0.13828363 0.20792034
0000a0 75 66 81 3d b7 17 39 3e 4f c5 62 3e 8f 50 49 3e
       0.0631837 0.18075453 0.2214558 0.19659637
0000b0 86 6a 0c 3e 06 77 71 3e 71 ca aa 3d 1c 80 86 3e
       0.1371251 0.2358056 0.08339394 0.26269615
0000c0 e5 6c 65 3d 72 ac 40 3e 6d 83 01 3e dd cb 13 3d
       0.056012053 0.18815783 0.12647791 0.03608309
0000d0 0a 96 3e 3d b2 12 69 3d 0c 9d fc 3d c1 9a 55 3d
       0.046529807 0.056902595 0.12334642 0.052149538
0000e0 46 04 14 3e 97 69 d2 3e 23 8d 06 3e 98 f1 bb 3d
       0.14454755 0.41096184 0.13139777 0.0917694
0000f0 db fc 73 3e 30 11 e6 3d 41 4b 4b 3e
       0.23826925 0.11233747 0.19852926

network.6.weight f4 [63, 63]
000000 8e d1 e8 3d f0 d7 e8 bd 8a 3c 53 be 1c 30 c5 bd
       0.113680944 -0.11369312 -0.20628563 -0.09628317
000010 92 ec da bd 69 de b9 3d 59 65 0b 3e d0 25 12 3e
       -0.106896535 0.090756245 0.1361288 0.14272237
000020 03 81 25 3e 4f 6f 64 bd 66 f1 9a 3d c1 d6 4c be
       0.16162495 -0.055770215 0.07565574 -0.20003797
000030 68 53 6b 3d a5 f9 f1 3b 42 49 01 bd 0f e2 c8 bd
       0.05745259 0.0073844963 -0.031564005 -0.09808742
000040 91 27 a8 3c ce c6 b0 bd 18 3b c6 bc 69 06 f6 bd
       0.02052668 -0.08631669 -0.0241981 -0.120129414
000050 94 56 93 bd 1e 29 d7 3d 0e a1 68 3d b2 d8 3b be
       -0.07194248 0.10505889 0.05679422 -0.18344381
000060 cc 5c 44 bc bf ea 12 3d 9d 40 ba 3d 51 cb 11 be
       -0.011985015 0.035868403 0.09094355 -0.14237715
000070 ba 1e a3 3d f3 d7 5b 3e 39 1d 50 3c 6a 9c c5 3c
       0.07964845 0.21469097 0.01270228 0.024122436
000080 d6 ec ce bd 26 1e 80 ba 53 04 88 bd c6 57 ee 3d
       -0.101037666 -0.000977461 -0.0664145 0.11637835
000090 28 08 fa bd 1e 5d 8b bd 6c fb 26 3d 3e 85 0f 3e
       -0.12208587 -0.0680487 0.04076712 0.14015672
0000a0 bc ce 18 3e 60 4c af 3c 97 b0 ca bb f0 cc bd bd
       0.14922613 0.021398723 -0.006185602 -0.09267604
0000b0 18 20 51 3d c7 fd 85 3d 9d 8c 82 3d 74 38 ca 3d
       0.051055998 0.06542545 0.06374476 0.09874049
0000c0 f3 19 5a 3d 9b aa 86 bd ec b3 8b 3d c5 d2 85 be
       0.053247403 -0.06575509 0.06821427 -0.26137367
0000d0 a8 63 55 bd 83 7f bb bb 3d 8c 8e 3d 1c da 69 3d
       -0.052096993 -0.0057219877 0.06960342 0.05709277
0000e0 b4 f4 40 bd 3b e3 05 bc 13 b9 dd bd 63 f5 d1 3d
       -0.047108367 -0.008171852 -0.10826316 0.10251882
0000f0 27 0b c6 3d 51 d3 be 3c 6a 7d db bd 84 f3 97 3d
       0.09670096 0.023294123 -0.1071728 0.07419494
000100 e2 96 88 3c 38 ca b5 bd 0b 75 f0 3d 0e 90 72 3c
       0.016673509 -0.08876461 0.11741074 0.014804853
000110 ed dd bb 3b 77 27 4c 3d 46 65 c1 3d 4a 4d 92 3d
       0.0057332427 0.049842324 0.094431445 0.07143648
000120 2a 5f 3c 3b 91 4c c6 bd ae 3a 1d bd 83 85 90 3b
       0.0028743246 -0.09682573 -0.03838604 0.004410447
000130 d0 75 01 3d ee ae d6 39 12 3e 25 3e b3 46 2c be
       0.031606495 0.00040947594 0.16136959 -0.16823845
000140 3c d5 0e bd 27 e7 9a bd 26 98 43 bc 09 0b 36 3e
       -0.034871325 -0.0756362 -0.0119381305 0.17777647
000150 fa bb f9 bd 8c 6c c0 3d 5d 38 4f bd fd 0e e1 3c
       -0.12194057 0.09395704 -0.05059086 0.027472967
000160 f4 11 bb bc e4 4f a1 3d 5c 6e 43 bd 90 dd 7d 3c
       -0.02283571 0.07876566 -0.04771267 0.015494719
000170 a8 38 52 3d c4 1f 80 bd 81 54 f1 bd 15 4a 40 be
       0.051323563 -0.06256059 -0.11783696 -0.1877826
000180 f7 cf f9 bd 2d 54 aa bd 7f f9 9e 3d a1 3a f0 bd
       -0.12197869 -0.083168365 0.07762431 -0.117299326
000190 f6 54 a0 bd cf db db bc 18 6c dd 3c f1 cf 80 3d
       -0.07828705 -0.026838211 0.027029082 0.06289662
0001a0 fa 2e 2e be 30 ee b0 bd 69 9a 8d bd 5a 28 16 3e
       -0.17010108 -0.08639181 -0.06914217 0.1466383
0001b0 60 1e 90 3d 6b df 75 3d 72 d1 7e 3d 60 3b 4c 3c
       0.070370436 0.06002752 0.06221146 0.012465328
0001c0 4f 25 35 bd ce 3c ef 3d 40 62 ca bd 47 f9 60 3d
       -0.044225033 0.116815194 -0.09882021 0.05492523
0001d0 5f f5 2e bc 1b b4 5d bc 93 92 0c be 68 b2 8b 3d
       -0.010678618 -0.01353171 -0.13727789 0.06821138
0001e0 3f ab 3f 3c 75 fd d4 3d 09 5b 99 3c 45 6e 2b be
       0.011698543 0.103999056 0.018720167 -0.16741283
0001f0 c1 4a 55 be 7e 3c 5f be da f1 10 be d7 14 26 bd
       -0.20829298 -0.2180042 -0.14154759 -0.04054722
000200 b0 0e 36 b9 4f 9e 1b 3e c6 b3 91 3d f9 27 e1 bd
       -0.00017362344 0.15197109 0.07114367 -0.10993952
000210 db 71 37 3d b1 e2 1c bc f6 7a 84 3d a3 a3 e2 bd
       0.044786315 -0.009575532 0.064687654 -0.110663675
000220 d9 34 91 3c 42 de 0c 3d 7b 92 d2 3c 7f b6 b1 3c
       0.017725395 0.03439165 0.025704613 0.021693466
000230 85 97 45 3d 33 e6 9f 3d cf b8 68 3d 3d ec 65 bd
       0.048240203 0.07807579 0.056816872 -0.056133498
000240 29 5f 26 3d 1b 54 02 3e 48 77 b3 bc a1 a7 52 3c
       0.040618096 0.12727396 -0.021907464 0.012857349
000250 b2 e0 3e be f8 8b 3e bd 6e b7 85 bd b9 8e 18 bc
       -0.18640402 -0.046520203 -0.06529127 -0.0093113715
000260 1d bb 09 3e 5d f1 ae 3d d7 0f 89 bb 6b 2d 15 ba
       0.13450284 0.0854213 -0.0041827965 -0.0005690667
000270 2f 5e cb 3d 86 1e 5a bd 4c b3 89 bd 47 00 c3 3d
       0.099300735 -0.053251766 -0.06723651 0.09521537
000280 7f f5 a1 3d db b6 36 3c 28 e6 7e 3d 96 67 9e be
       0.07908153 0.011151995 0.062231213 -0.30938405
000290 3a 92 07 bd ba e2 98 bc 39 ca ed bd 93 bb 4b 3d
       -0.033098437 -0.0186628 -0.116108365 0.04973943
0002a0 a7 c0 ff bd 77 e7 f2 bd 56 6d a4 bd c2 b4 21 bd
       -0.124879174 -0.11860555 -0.08028667 -0.039479025
0002b0 24 d6 8f ba 3b 0b 6c bd df d2 5f 3d b1 33 53 3e
       -0.0010973853 -0.057627898 0.05464446 0.20625187
0002c0 32 80 9b 3d d2 2b d6 3d 37 a2 12 3b 66 cf 52 3c
       0.07592811 0.10457577 0.002237452 0.01286683
0002d0 5a 53 8f 3d 5f bd 42 3e 94 9a 79 bc 25 40 55 3e
       0.0699832 0.19017552 -0.015234608 0.2082525
0002e0 2d 64 05 3b 00 0b 2a 3d 1e c8 4c bd 0e 8c 32 3d
       0.00203539 0.041514397 -0.049995534 0.043590598
0002f0 65 47 3c 3d 9c 72 51 bd c1 b2 f7 3d ad a1 a4 3c
       0.045966525 -0.05113469 0.120946415 0.020096624
000300 dd 72 1a 3e 92 bc 32 3c 14 a9 94 bc 84 ee a9 3d
       0.1508288 0.0109092165 -0.018147029 0.08297446
000310 38 86 84 3d a5 12 09 be 42 40 4b bd 7c 73 13 be
       0.06470913 -0.13386019 -0.049621828 -0.14399523
000320 7f 05 74 3d 28 30 76 bd a7 a1 aa bd 37 3e 01 be
       0.059575554 -0.06010452 -0.08331614 -0.1262139
000330 7d fc e2 bc 3b 31 c2 bb 34 23 98 3d 69 64 0d 3e
       -0.027708286 -0.005926279 0.074285895 0.13807835
000340 7b b1 f8 3d 9a c3 0e 3d b3 c7 ec bd 69 2e 8e bd
       0.12143227 0.03485451 -0.11561527 -0.06942446
000350 7a 8f 26 bc d8 61 99 bd e5 ff cf 3c 23 b1 f8 bc
       -0.010166043 -0.07489365 0.025390575 -0.030357903
000360 dd f8 63 3d 6d 2c e3 3d b1 a2 af bb 08 5b 4a be
       0.055657256 0.11092458 -0.0053599705 -0.19761288
000370 e4 b6 05 be 50 7e 17 be ad 0e 8c 3d 95 2f c3 bd
       -0.13058048 -0.14794278 0.06838737 -0.0953056
000380 14 01 10 be 61 12 e2 3b d4 aa 06 be b7 84 83 bd
       -0.14062911 0.0068991636 -0.13151103 -0.06421798
000390 2a 38 a4 bd 3a 2c 0b 3e 55 86 45 bb d3 3c 16 3d
       -0.08018525 0.1359109 -0.0030139883 0.0366791
0003a0 ae e2 47 3e b9 e3 c2 3c 4a 46 93 3b cc e2 06 be
       0.19520065 0.023790227 0.004494463 -0.13172454
0003b0 7e 10 83 bc 67 f7 18 bc 1d 3b 36 3d f9 b9 e5 bc
       -0.015999075 -0.009336329 0.04448997 -0.02804278
0003c0 5f e4 0e 3c 82 5e 05 bd c1 d6 93 bc a1 de e8 bb
       0.00872144 -0.032560833 -0.018046739 -0.0071066176
0003d0 be 40 7b 3d 32 11 b6 3d e9 83 b1 bd c6 27 5b 3e
       0.06134104 0.088899985 -0.08667738 0.21401891
0003e0 0f 79 85 3d 29 18 49 3b 3e 7d 32 bd 06 00 c6 3d
       0.06517231 0.0030684567 -0.04357647 0.09667973
0003f0 0b 78 94 bd 4c 9a 4a bc b0 b4 bb bd 7c 51 e4 3d
       -0.07249459 -0.012365889 -0.09165323 0.111483544

network.6.bias f4 [63]
000000 d7 f8 f9 3e 7a fe e8 3e 78 6e 09 3f ed fe f5 3e
       0.48822662 0.4550665 0.53684187 0.48046055
000010 ac 97 01 3f f6 8c 07 3f 71 cc 2a 3f cc df 2b 3f
       0.5062206 0.52949464 0.667182 0.6713836
000020 b5 90 fb 3e 46 2a 05 3f b1 3d 00 3f 70 05 17 3f
       0.4913384 0.5201763 0.50094134 0.5899267
000030 42 48 10 3f 95 ec f3 3e 6d 71 0c 3f dd fe fb 3e
       0.56360257 0.47641435 0.54860574 0.49217883
000040 41 f8 01 3f a2 4d f8 3e fc 34 fa 3e d5 1a 05 3f
       0.5076943 0.4849673 0.4886855 0.5199407
000050 2e e9 08 3f c9 68 ea 3e b2 f0 06 3f 68 44 fe 3e
       0.53480804 0.4578307 0.5271102 0.49661565
000060 d9 70 ff 3e 56 27 00 3f f1 68 f9 3e ad 8d 0b 3f
       0.49890783 0.5006002 0.48712876 0.54513055
000070 80 6d 0a 3f 95 c2 02 3f 93 18 e3 3e 92 24 ef 3e
       0.54073334 0.5107816 0.44354686 0.46707588
000080 17 19 07 3f 3f c7 f9 3e 4c 69 ef 3e 4f d6 27 3f
       0.5277266 0.48784825 0.46760023 0.65561384
000090 76 f5 e8 3e 3c 16 14 3f 01 f7 24 3f 71 ea 44 3f
       0.45499772 0.57846427 0.644394 0.7692023
0000a0 39 27 00 3f 5a c5 fb 3e 0c e7 0c 3f c8 06 00 3f
       0.5005985 0.49174005 0.5504005 0.5001035
0000b0 53 07 05 3f ba 43 06 3f 24 54 0b 3f 99 9f ef 3e
       0.519643 0.5244709 0.54425263 0.4680145
0000c0 81 4f fd 3e ca 40 04 3f 86 11 eb 3e f7 17 f2 3e
       0.4947472 0.5166136 0.45911807 0.4728391
0000d0 a8 87 fc 3e d6 9d 1a 3f 68 a4 e7 3e ec 9e fd 3e
       0.49322248 0.6039709 0.4524262 0.4953531
0000e0 b8 2a 29 3f da 18 f1 3e ff ab 20 3f 3d 4b 11 3f
       0.6608081 0.47089273 0.62762445 0.5675543
0000f0 23 3a f9 3e be c3 fc 3e c4 7a f5 3e
       0.48677167 0.4936809 0.47945225

network.7.running_mean f4 [63]
000000 7b 2d f7 3e c5 46 99 3e e9 25 26 3f 05 59 de 3e
       0.48276886 0.29936805 0.64901596 0.43427292
000010 54 fb 14 3f 88 79 5c 3f 75 80 69 3f e9 2e 48 3f
       0.58195996 0.8612294 0.91211635 0.7819658
000020 a4 e0 00 3f 22 48 e1 3e 19 31 fd 3e ac 44 1f 3f
       0.50342774 0.44000345 0.4945152 0.6221416
000030 cd 4a 27 3f 98 62 fb 3e 9e 04 21 3f 05 4f 8d 3e
       0.6534851 0.4909866 0.6289767 0.2759935
000040 3d 7a c6 3e 0b 31 b5 3e f8 00 02 3f 51 ec 13 3f
       0.38765135 0.3538898 0.5078273 0.57782465
000050 8b 15 2f 3f 46 f0 0f 3f 19 06 08 3f ce e8 04 3f
       0.68392247 0.56226003 0.53134304 0.5191773
000060 f8 7c cc 3e 04 17 18 3f 96 d4 2e 3f dc b3 32 3f
       0.39939094 0.5941012 0.6829313 0.69805694
000070 31 df 15 3f 7f 1f 18 3f 4f 24 12 3f 65 1a e4 3e
       0.5854369 0.5942306 0.5708665 0.44551387
000080 6e b3 26 3f a3 5e be 3e 90 c5 4a 3f b1 e5 65 3f
       0.6511754 0.37181577 0.79207706 0.89803606
000090 6f ec f4 3e 35 a6 37 3f 12 18 64 3f 06 04 35 3f
       0.47836635 0.71737987 0.8909923 0.70709264
0000a0 bf 56 be 3e 19 6b 2f 3f af 93 2d 3f 1c 4b b4 3e
       0.37175557 0.68522793 0.6780347 0.35213554
0000b0 f6 f3 39 3f 8c e0 fb 3e 79 19 1e 3f 80 0d 1a 3f
       0.7263788 0.49194753 0.6175762 0.6017685
0000c0 70 f1 2a 3f 31 b1 64 3f 9f 7e f7 3e 21 68 29 3f
       0.66774654 0.8933287 0.48338792 0.66174513
0000d0 02 31 85 3e fb e5 54 3f 4a 18 c7 3e c5 63 1b 3f
       0.26013952 0.8316342 0.3888572 0.6069911
0000e0 ff 86 70 3f f2 90 db 3e 7d aa 45 3f ea 3b 3e 3f
       0.9395599 0.42884022 0.7721327 0.7431017
0000f0 a3 17 52 3f 29 eb cd 3e cc 0c 09 3f
       0.82067317 0.40218475 0.5353515

network.7.running_var f4 [63]
000000 0e 43 d8 3e 4f 2f 20 3e 8a 78 2e 3e 93 3d 96 3e
       0.4223866 0.15643047 0.1703817 0.29343852
000010 28 a0 0b 3e d4 c9 9d 3e 92 20 88 3e 60 12 cf 3d
       0.13635314 0.30818045 0.2658735 0.10110927
000020 cc 9b 9b 3e f2 ed 08 3e 0e e8 1d 3e 9c 1f 87 3d
       0.303923 0.13372019 0.15420553 0.06597826
000030 49 62 8f 3e b1 78 6d 3e 78 18 5c 3e 03 9a 93 3e
       0.28004673 0.23190571 0.21493709 0.2882844
000040 96 eb 00 3e 90 aa 20 3e 8a c2 3a 3e 74 35 02 3e
       0.12589869 0.15690064 0.18238273 0.12715703
000050 87 12 ba 3d b7 29 f4 3d 1d fd 4b 3e 61 72 b1 3e
       0.09085565 0.11922019 0.19920774 0.34657577
000060 85 41 08 3e 75 95 7f 3e 65 3e 25 3e bd 29 45 3e
       0.13306244 0.24959357 0.16137083 0.19254203
000070 a9 a4 b8 3d c7 7c 83 3e 57 c4 9e 3d 28 1e e1 3d
       0.090157814 0.25681135 0.077522926 0.1099208
000080 84 da b7 3d 3b 0b ad 3e c9 19 0d 3e 22 34 e6 3d
       0.089772254 0.3379763 0.13779368 0.11240412
000090 5b 44 06 3e 9c 62 95 3d 7c 9c d2 3d c6 4e 31 3d
       0.13112013 0.07294199 0.10283753 0.043288015
0000a0 4e c7 a9 3d 4f 97 38 3e d5 b9 a4 3d a0 6f 58 3e
       0.082899675 0.1802647 0.08043257 0.21136332
0000b0 8c 28 6a 3e 57 69 10 3e 12 cf f1 3d 82 f0 84 3e
       0.2286703 0.14102684 0.11807074 0.25964743
0000c0 c3 5f 6b 3e 2b 3e ce 3e f1 b9 d0 3d 63 30 e5 3e
       0.22985749 0.40281805 0.101917155 0.4476348
0000d0 6b 3a 3c 3e 70 34 1d 3e ea 20 ae 3e a2 b0 11 3e
       0.1838166 0.15352035 0.34009486 0.14227536
0000e0 94 9c b4 3e 7a c0 0e 3e 73 64 b2 3d 76 4e b0 3d
       0.3527571 0.13940611 0.087105654 0.08608715
0000f0 97 2b e6 3d af 2d d8 3d 9e a9 0d 3e
       0.11238783 0.105555885 0.13834235

network.9.weight f4 [63, 63]
000000 bf 08 c7 bd 64 79 b9 3d 3d 4c 8d be c8 6d 0c 3d
       -0.09718465 0.090563565 -0.27597228 0.034284383
000010 f4 76 0d 3e 5f 7c 37 bd 1e 68 0e be 56 97 f6 bd
       0.13814908 -0.044796344 -0.13906905 -0.12040584
000020 06 40 1f 3d f5 81 09 be ec b9 f2 bc 36 af 02 3e
       0.038879417 -0.13428481 -0.02962967 0.1276215
000030 9a 49 27 bd e4 22 8b bb 63 02 a2 bc 0f bc 15 3d
       -0.040841676 -0.0042461026 -0.019776529 0.0365563
000040 86 b3 03 be c5 ef fc bc cc 7b ce 3d 25 9c 97 bd
       -0.12861452 -0.03087605 0.10082206 -0.07402829
000050 7c fa 5c 3d 04 6c d1 bd c7 f1 4d 3b a1 15 d0 3d
       0.053949818 -0.102256805 0.0031424628 0.101603754
000060 10 a3 28 3d 6b 5b 29 be 8d bf 18 3d 3d 2f a7 3d
       0.041171134 -0.1653878 0.037292052 0.08163307
000070 26 00 db bd 3f 03 3d bd ac b8 2c 3e 54 b2 35 3d
       -0.10693388 -0.046145674 0.16867322 0.04435952
000080 0a 26 fc bd 84 cf 41 3d 3e a8 13 3d 14 bb 73 3c
       -0.12311943 0.047317043 0.03604912 0.014876146
000090 af 47 db bd 97 35 22 be 01 db 14 be 42 09 9f 3c
       -0.10707032 -0.15840755 -0.14536668 0.019413594
0000a0 f2 2d 42 3e 47 82 02 3e 03 a4 44 be aa 2e 54 bd
       0.18962839 0.1274501 -0.1920319 -0.051802315
0000b0 7d 3f 4e bb dc f0 12 3d e6 59 21 3e b0 ed 3b be
       -0.0031470947 0.035874233 0.1575695 -0.1835239
0000c0 41 ff b0 bd 80 f0 a4 3d 29 5c f2 bd df f6 d4 3d
       -0.08642436 0.08053684 -0.118339844 0.103986494
0000d0 26 13 f0 3d 6f b6 9d 3c e6 a4 0a 3d 6d 2d 91 bd
       0.11722402 0.01925203 0.033848666 -0.070887424
0000e0 cb 2a 2d 3c 75 a8 20 bd 14 ee e9 3c ca 25 29 3d
       0.010569285 -0.039223153 0.028555907 0.041295804
0000f0 81 87 3c bd e1 2b 4b bd 25 c5 d8 3b 2e 80 84 bd
       -0.046027664 -0.049602393 0.0066152983 -0.06469761
000100 a5 1a 14 bd 3a c4 c1 3d 86 77 ba bd 39 6c 15 3e
       -0.036158223 0.09461255 -0.091048285 0.14592065
000110 14 cc a5 3d b5 5c f5 bd c6 dd c3 bc 50 c7 ff bd
       0.080955654 -0.11980573 -0.02390946 -0.12489188
000120 32 19 b8 3d 2d 2d 11 bd c8 b1 3a be 5c 6d 9c bd
       0.089891806 -0.035443474 -0.1823188 -0.07638046
000130 0f 91 f0 bd 7e 42 b3 bd df cf 1a 3e 39 98 7f 3e
       -0.11746418 -0.08752917 0.15118359 0.24960412
000140 b2 3b 98 bd e5 1c a4 bd e8 21 fd bc 06 48 0d 3e
       -0.07433261 -0.08013324 -0.030899957 0.13797006
000150 03 59 06 3e ce 95 0a be 42 3d 96 bd df 11 26 3e
       0.13119893 -0.13533708 -0.07335903 0.16217755
000160 5c fc 94 bd 70 23 25 3e b5 a4 b8 3d f0 eb 23 3e
       -0.07274696 0.161268 0.090157904 0.16007972
000170 75 99 ed 3d 91 c0 9d 3d 5f 29 4d bd 3a a2 16 be
       0.11601535 0.07702745 -0.050088283 -0.14710322
000180 73 b6 7f bd 0e c3 fd bc 18 71 ef 3d 99 45 7a 3d
       -0.062429857 -0.030976798 0.11691493 0.06110153
000190 6c 86 de bb 98 17 97 3d e4 ce da bc cf 54 49 3c
       -0.0067909267 0.07377547 -0.026709981 0.012288286
0001a0 6f 70 d0 3d 7b c9 96 bc 3f ef 28 be 71 c4 61 bd
       0.10177695 -0.01840662 -0.16497515 -0.05511898
0001b0 ba a0 2d 38 a8 af 6a 3d a0 b7 8b bd ee 73 83 ba
       4.1396102e-05 0.057296425 -0.06822133 -0.0010029057
0001c0 75 db b5 bc da 23 c0 bd 8c d0 d6 bd 88 77 a1 3c
       -0.022199372 -0.09381838 -0.10488996 0.019710317
0001d0 6d fd ba 3d b5 fb c1 3d 96 ad f8 3d c4 da 8c 3d
       0.091303684 0.094718374 0.12142484 0.06877664
0001e0 31 29 04 be 47 80 05 be 64 42 aa bd 7c 2f ba 3d
       -0.12906338 -0.13037215 -0.08313444 0.09091088
0001f0 d1 be d0 3d ac a1 90 3d e0 aa e8 bd 1f cb 1b 3d
       0.10192645 0.070620865 -0.11360717 0.03803551
000200 33 bb 34 3e 40 80 92 bd 76 86 3c be 84 4f b0 bd
       0.17649536 -0.07153368 -0.18410668 -0.086089164
000210 d5 6e dc ba 7b 0b 4f bd 20 31 bc 3d 2e f7 8e 3b
       -0.0016817698 -0.050548058 0.09189057 0.004362962
000220 f5 be 36 3d 89 03 06 3e 23 f0 d2 3d 40 7d 8e bd
       0.044615705 0.13087286 0.10299709 -0.06957483
000230 88 93 f3 bd b7 6e ed 3c 39 5f 88 bd 3c d9 58 bd
       -0.11893374 0.028983457 -0.06658787 -0.052941546
000240 34 d4 a6 3d f8 b8 8d 3e da 01 35 bd 96 34 48 3d
       0.08145943 0.27680182 -0.04419122 0.048878275
000250 08 48 a1 bd e7 58 bb 3c e3 84 6d bc 58 72 fa 3c
       -0.07875067 0.02286954 -0.014497015 0.030572101
000260 5a c9 85 3d c7 ae 1f be 44 99 11 3e 27 6d b3 bd
       0.065325454 -0.15594016 0.14218622 -0.087610535
000270 4e 62 15 bd a7 4e 37 bd 15 fe 7e 3d 5a c6 ce 3d
       -0.036470704 -0.044752743 0.06225403 0.10096426
000280 54 ab a9 bd 0f 56 ec 3d 04 86 04 3c 84 80 4f bd
       -0.08284631 0.11539852 0.008088592 -0.05065967
000290 17 6f 14 3d 37 d1 2f 3e 31 ca 2a 3e c3 06 72 3d
       0.036238756 0.17169653 0.16678692 0.05908848
0002a0 dd 5f a3 bd dc a4 83 bd a6 20 4a bd e8 99 6c 3c
       -0.07977269 -0.06427929 -0.049347542 0.014440991
0002b0 5f c4 75 3d 9e e9 45 3d 2d ec 51 bc f5 61 01 be
       0.060001727 0.048318498 -0.012812656 -0.12635024
0002c0 71 f4 22 3e 24 54 48 3c 1c ee 68 bd ef 4f 01 3e
       0.1591356 0.012227092 -0.056867704 0.12628148
0002d0 5f 22 27 bc b7 44 56 3e 6b b4 d6 bd 18 e6 7b bd
       -0.010201066 0.2092465 -0.10483631 -0.06149873
0002e0 36 a6 3d bd 65 a2 bd 3c b7 97 fc 3d 59 fe 1c bc
       -0.04630109 0.023148725 0.12333625 -0.009582126
0002f0 21 75 02 be 8b 41 39 3d bf 8e 12 3e 93 1a ff bc
       -0.12739994 0.045228522 0.14312266 -0.031140601
000300 ce 25 23 bd d5 4e 0a bc 68 16 0a bd bf ba 9f 3d
       -0.039830975 -0.008441647 -0.033712775 0.07799291
000310 b6 ec 60 3d d0 83 41 bd 57 a4 80 bd b5 5a b3 3c
       0.054913245 -0.047244847 -0.06281345 0.021893838
000320 5a 2e a6 bd 8a e4 de 3c fd a5 e3 bc b4 75 8b 3d
       -0.081143096 0.027208585 -0.02778911 0.068095595
000330 f3 cc b8 3c e9 41 fc bc d6 28 69 3d 30 65 f7 bd
       0.022558665 -0.030793147 0.05692371 -0.12079847
000340 f5 3c 29 3d e5 dd 05 be c7 23 4b bb 77 f2 c7 bc
       0.0413179 -0.13072927 -0.0030996667 -0.024407608
000350 55 64 30 bc de 2b 4f 3d 2b 6f a0 3d 09 41 50 be
       -0.0107661085 0.050578944 0.078337036 -0.20337309
000360 8c 62 e6 b9 fe 7a 6c be 47 a6 21 3c c3 87 9a bc
       -0.00043942442 -0.23093793 0.009866304 -0.018863564
000370 51 db 19 bd ab 8b d1 3d bb 24 98 bd b5 c9 78 bd
       -0.037562672 0.10231718 -0.07428881 -0.060739238
000380 44 a2 72 3d d5 70 bd 3d 47 f8 a3 3d 0f fb 1d 3e
       0.05923678 0.092500366 0.080063395 0.15427803
000390 03 93 10 be fd ce 9e be 5a e6 7a bc 86 0c 70 3e
       -0.1411858 -0.31017295 -0.015313709 0.23442277
0003a0 d8 e1 ba bc f9 15 d3 bd 2e 07 37 be 21 f9 1d be
       -0.022812769 -0.10306925 -0.17873833 -0.15427066
0003b0 5c ad 91 bd e8 3b 02 bc e9 ce f3 bb 92 6d 74 bb
       -0.07113144 -0.007948853 -0.007440437 -0.0037296754
0003c0 99 59 e9 bd f1 a3 26 be a0 ad 8a 3b 9c 4f a1 3d
       -0.113940425 -0.16273476 0.0042321235 0.078765124
0003d0 23 bf cf 3d 55 23 fb 3b 9b 07 e7 3d d7 54 f0 3b
       0.10143878 0.007664124 0.112807475 0.0073343324
0003e0 ce f5 9d 3d 66 89 b1 bd f3 11 af 3c 86 a7 b5 3d
       0.07712899 -0.08668785 0.021370864 0.08869843
0003f0 6c 13 a6 bc 95 c6 fd bd c9 74 ce 3d 06 1e 04 3e
       -0.020272933 -0.12391392 0.10080869 0.12902078

network.9.bias f4 [63]
000000 d7 dd f5 3e 9a b9 f5 3e 68 82 ec 3e 14 c6 01 3f
       0.48020813 0.47993165 0.46193242 0.5069287
000010 cc ae 08 3f d8 0a ec 3e 8c ff fc 3e b0 3b f3 3e
       0.5339172 0.46102023 0.49413717 0.47506475
000020 cb f9 f0 3e e3 18 01 3f 2f 0d 03 3f 72 0e 0a 3f
       0.47065577 0.504286 0.5119199 0.5392829
000030 81 15 eb 3e cb 9a eb 3e ea 69 fa 3e 91 14 02 3f
       0.45914844 0.46016535 0.4890893 0.5081263
000040 72 73 2b 3f 7d 6e f8 3e b7 77 f6 3e 38 f4 19 3f
       0.6697303 0.48521796 0.4813821 0.60138273
000050 31 a9 ee 3e 5c 59 f3 3e 6a d0 08 3f e6 38 f7 3e
       0.46613458 0.47529113 0.53443015 0.48285598
000060 06 e7 fa 3e e3 29 fc 3e 18 c0 ea 3e 16 5a f9 3e
       0.49004382 0.49250707 0.4584968 0.48701543
000070 24 91 04 3f e8 23 e2 3e c3 69 f0 3e bd 90 f5 3e
       0.51783967 0.4416802 0.4695569 0.4796199
000080 91 32 f6 3e 2d 8a 00 3f 00 d5 f5 3e e1 2a f7 3e
       0.48085454 0.5021084 0.4801407 0.48274902
000090 27 3a 39 3f e9 ee fd 3e 9b 89 f1 3e de 3f f8 3e
       0.7235436 0.49596336 0.47175297 0.48486227
0000a0 8c a6 29 3f 96 d0 de 3e 6f 4c ea 3e 7c 95 fa 3e
       0.66269755 0.43518513 0.4576144 0.48942173
0000b0 37 62 21 3f 0a 4b 03 3f 07 45 e5 3e df 41 fb 3e
       0.6304049 0.51286376 0.44779226 0.49073693
0000c0 d9 34 26 3f e0 3b 1a 3f 46 01 31 3f 74 f6 fc 3e
       0.6492439 0.6024761 0.6914257 0.4940678
0000d0 69 1b 2a 3f 8a 4b f0 3e 43 88 f5 3e 9a 08 17 3f
       0.66448075 0.46932632 0.47955522 0.589975
0000e0 81 9a fb 3e 19 f5 ee 3e 4f 4b 08 3f 1e 32 e9 3e
       0.49141315 0.4667137 0.5323991 0.4554605
0000f0 d6 cd 00 3f 93 96 22 3f be d4 f4 3e
       0.5031408 0.6351101 0.4781856

network.10.running_mean f4 [63]
000000 28 c3 b6 3e 23 29 09 3f 91 b4 0f 3f 1e a5 bc 3e
       0.35695767 0.53578395 0.561349 0.36844724
000010 64 ef 0f 3f 29 49 24 3f 15 35 ab 3e 02 ab ff 3e
       0.56224656 0.64174134 0.33438936 0.49935156
000020 f3 73 09 3f c4 5a b8 3e 3a d2 92 3e bf 3e 1f 3f
       0.5369255 0.3600675 0.28676015 0.6220512
000030 6a b8 f5 3e e7 1b 24 3f b1 6f fd 3e 6a f9 1a 3f
       0.4799226 0.64105076 0.49499276 0.60536826
000040 79 28 54 3f 81 a3 f0 3e de 76 e6 3e 47 2f 3d 3f
       0.82874256 0.46999744 0.45012563 0.73900265
000050 15 ae b2 3e 62 41 04 3f 81 b6 53 3f 80 17 eb 3e
       0.3489844 0.51662266 0.82700354 0.45916367
000060 e3 89 03 3f 3b a4 b7 3e 0a d7 be 3e d7 dc ec 3e
       0.51382273 0.35867485 0.37273437 0.46262237
000070 a5 f6 01 3f cd f5 08 3f 51 d2 2b 3f cc 92 ba 3e
       0.50766975 0.5350006 0.6711779 0.36440122
000080 7a d0 b6 3e e7 72 db 3e aa 46 b9 3e d0 ed fe 3e
       0.3570593 0.428611 0.36186725 0.49790812
000090 ac 4d 5a 3f 16 9e ce 3e dd ee 1a 3f da 0f 03 3f
       0.8527477 0.40354985 0.60520726 0.5119606
0000a0 ea 57 3f 3f e0 0c 07 3f 8c ed 07 3f d9 ea b9 3e
       0.7474352 0.5275402 0.5309684 0.36311987
0000b0 7c f8 26 3f c7 1d bf 3e 20 82 21 3f f0 1b d2 3e
       0.6522291 0.37327406 0.6308918 0.4103694
0000c0 ae 3c 36 3f d0 07 0e 3f 90 f6 43 3f 68 f5 ce 3e
       0.7118634 0.5548067 0.765481 0.40421605
0000d0 42 4a 65 3f f3 0f e2 3e 36 bf 0a 3f 7c ab 1e 3f
       0.89566433 0.44152793 0.54198015 0.61980414
0000e0 bd 74 b2 3e 6a 1c 10 3f 7d df 0c 3f 50 f6 d9 3e
       0.3485469 0.56293356 0.55028516 0.42570734
0000f0 a8 22 0a 3f 11 14 24 3f a2 e1 01 3f
       0.5395913 0.6409312 0.50734913

network.10.running_var f4 [63]
000000 ee fd 55 3e 5b 77 62 3e fd f0 77 3d 66 3d 88 3e
       0.20897648 0.22115843 0.06053256 0.26609343
000010 fd ab cd 3d 79 05 d7 3e 12 45 b1 3e 62 8a 9c 3e
       0.1004257 0.41996363 0.3462301 0.30574328
000020 75 64 b4 3e b7 1d f5 3d 0e f7 2a 3e d5 70 a9 3d
       0.35232893 0.11968558 0.16695806 0.08273474
000030 08 cb ad 3d 43 18 8f 3e 89 bf 02 3e 64 f6 ff 3d
       0.08485991 0.27948198 0.12768377 0.12498167
000040 a3 30 c5 3e 82 48 2e 3e 22 44 1b 3e d6 98 4b 3e
       0.3851367 0.17019847 0.1516271 0.19882521
000050 30 1b a4 3e 96 70 0a 3e 18 9d 19 3e 4e de 30 3e
       0.32051992 0.1351951 0.15001333 0.17272303
000060 b6 c8 9e 3d 6f 8f 61 3e 4e c2 ec 3d da 9f eb 3d
       0.07753126 0.22027372 0.11560498 0.11505099
000070 05 26 1b 3e 17 94 21 3e 5c 18 15 3e 42 ba 55 3e
       0.15151222 0.15779148 0.14560074 0.20871833
000080 4c 9b 79 3e ce ce 9b 3d 91 01 2a 3e 89 3b ae 3d
       0.24375647 0.07607804 0.1660216 0.08507449
000090 06 8f 90 3e 58 88 d7 3d 56 c0 92 3e ba 36 f4 3d
       0.28234118 0.105240524 0.28662366 0.11924501
0000a0 dd b5 d0 3e 8b 89 45 3e 79 51 9e 3e ec a1 1c 3e
       0.4076375 0.1929075 0.30921534 0.15296143
0000b0 ad 8c 9f 3e 61 31 93 3e 70 8a db 3d 81 ea ac 3d
       0.31162015 0.2874861 0.10719764 0.084431656
0000c0 0c e9 a4 3e af 82 2e 3e 09 6e af 3e 77 2a df 3e
       0.3220905 0.1704204 0.34263638 0.43587086
0000d0 a0 58 b6 3e e6 bc 6a 3e ad 82 73 3e 33 b0 07 3e
       0.3561449 0.22923622 0.23780318 0.13250808
0000e0 e3 9b 81 3e 17 4a 50 3e b2 38 ef 3d 6a b6 56 3e
       0.25314245 0.20340763 0.11680736 0.20968023
0000f0 91 2c cd 3d f4 4e ba 3e 67 a1 ed 3d
       0.10018266 0.3638836 0.11603051
