src/runs/ann_left_hand/20241106/20241106-1139/ann_left_hand_3_layers_best.pth (torch, 147078 bytes, 26 tensors)

network.0.weight f4 [63, 141]
00000000: 5e00 3cba 274f 183e a595 e9b9 6c2f a7bc
00000010: 899d 00bd 40a6 15bb cf33 9b3d e288 633c
00000020: be14 c73d 8cb0 333c 5c5e 8d3c 7d86 673d
00000030: b827 a93d c7a9 51bd 3238 8fbd 6b9d d73d
00000040: f983 de3d 3360 d0bb 8102 cabc e74f 6c3d
00000050: b3d6 cb3d 8821 933d e832 8d3c 1d0b f3bd
00000060: d1af dcbd 9f33 8fbd 882a 1fbd 392b 833d
00000070: b46e 763d ea56 11be e124 3abd 8df4 ea3c
00000080: 46c7 cdbc bd56 efbb 3451 73bd 6dee ae3c
00000090: 52f2 b63c a50d 153b c743 583d b6a1 053c
000000a0: 3d9d 7e3a 1a76 883d d693 ff3d 90d8 c53d
000000b0: 0e11 f83c df39 77be 27ad 7cbd b44b 0cbd
000000c0: 101f a23c 2d03 403d 4633 8a3c 1502 cf3b
000000d0: 81d4 8abb 98d1 0fbd acb5 ebbb df14 85bd
000000e0: 9054 f2bc e16b d4ba 5797 54bd 90ef 32be
000000f0: 7c73 a1bd cf4f c7bd 721a 1cbe 012d 4bbe
00000100: c839 7bbd 2493 fcbd 3805 9abd b11c 75be
00000110: 8a07 60bd aaa5 893d 084d 23be 8eba 4abd
00000120: b32b 5bbd 0e0b 5ebd 1c3c e9bc eafd 49bd
00000130: 6375 17bd 8d15 a03c 2f03 90bd 4bfc 1bbe
00000140: 6b64 eebd 20e1 68bb 0202 a4bd 6ea7 e7bd
00000150: 5897 c6bd f701 be3d a7ad 61bd a4cb acbd
00000160: 5627 22bd 6b2a ca3c d666 ba3d c538 ed3d
00000170: 24ff 71bd 8919 853d c1b5 78bd ce96 32bc
00000180: 5516 eabd a696 60bd b3df 94bc 633e 6e3d
00000190: 0bbf 28bd 4cda b2bd 5b53 ba3c bfcb c9bd
000001a0: 2422 70bd bc87 a23b 769d 873d 8d7e c7bd
000001b0: 41f1 efba a5de 0bbd 7b2c 363c 031c 8a3d
000001c0: c189 df3c 4ddd 4ebd 2ebf c5bc 41f0 46be
000001d0: a935 6ebd d071 a53c 1edc b7bc d57e 4e3c
000001e0: aa3f 62bb 7a9f 023d 79b5 92bd bf97 5dbc
000001f0: 8e5c 4a3d 867d fe3c 1155 723d 820d 8d3d
00000200: 639d 353d 4df5 8a3d abc5 dd3d 0447 2f3d
00000210: 2b94 06bd 15ad 41bd b04b 543b 885b c13c
00000220: 7425 99bd 74bf 7f3d 7cbf 79bd 78e7 e63d
00000230: c0fd b13d 4926 123d 1d5d 4bbb c6b7 b03d
00000240: 39dd 2b3b 5edd 79bc 788b 3fbc c54a 653c
00000250: c508 503d 42e2 1fbd 5367 fc3b d40c 3e3c
00000260: 9b41 1fbd ab8c 67bd 4dc4 e0bd bef7 823c
00000270: ab2f b8bd 0697 e4bd 8545 3abd ce93 2ebc
00000280: d435 35bd 4f4f debd ce81 82bd c449 bfbd
00000290: ad06 663d e3e4 373b 333b f43c e738 d23c
000002a0: c207 9cbc 308d c63b 4d8a b73d 12f9 c8bb
000002b0: 1745 1f3d 84c4 143d ca66 b13c 925f 1abd
000002c0: c0ae c9bc b2fe d43b 5d0f 01bc db9f 4a3c
000002d0: 3589 8e3c a05f abbc 0683 a0bc a382 76bd
000002e0: d500 5b3e e119 dbbd 6687 09bb 3b35 c73c
000002f0: b1ef 41bd 2f97 563c d968 49bd 484a 25bc
00000300: f406 0abc ae55 d6bc b023 2d3c 020e 7fbc
00000310: 3293 ac3b 6920 06bc 4eda b2bc a207 143d
00000320: 7e1e 693c d34b 7e3d 2756 f33b 7a6b 003d
00000330: 30d8 3f3c cae2 ae3c df2c 3abc 2180 89ba
00000340: 01a5 483b c610 b5bc 95db 9cbd 6c67 29be
00000350: cc01 76bd 72ff 7abd 4177 60bd a42d 6dbc
00000360: 7efb 9cbc 8385 48bc 5b8c 5e3d 502d 25bd
00000370: f73d 5cbc 86bb 683b 0da9 133d 94eb 623a
00000380: 9440 b83a 967e 5f3c 963d 9e3d 12c4 463c
00000390: a8a0 d33c 3529 ec3c 6514 c6bd 2c22 f23d
000003a0: 8689 c8bd 4941 183e 4af5 b33d 9e7e 7abe
000003b0: 57fc ecbd 1473 b83c 4afb ef3c 96d0 093d
000003c0: 57b8 30bd da4b cebc 908e 583c 593d e73c
000003d0: 17ad e7bc a099 483d 9ef6 dd3c 443e 95bc
000003e0: 015e d8bc 6813 dc3c bf38 843d a72a 2fbd
000003f0: b40f da3b 1816 3bbd 4222 d13c 7c43 aabb
-0.00071716856 0.14873944 -0.00044552717 -0.020408355 -0.031400237 -0.0022834688 0.07578241 0.013887616
0.09720753 0.010967385 0.017256908 0.056524742 0.08259529 -0.051187303 -0.0699314 0.10528072
0.108650155 -0.006359124 -0.024659397 0.05769339 0.0995306 0.0718413 0.017236188 -0.11867354
-0.10775722 -0.06992268 -0.03885892 0.064047284 0.06016417 -0.14193311 -0.045445327 0.028681064
-0.025119435 -0.007304041 -0.059403613 0.021353925 0.022332344 0.0022743728 0.052799013 0.008156231
0.00097127614 0.06663151 0.12479369 0.09660447 0.03028157 -0.2414317 -0.06168857 -0.034251884
0.019790202 0.04687803 0.016870152 0.006317387 -0.004236758 -0.035111994 -0.007193288 -0.064981215
-0.029581338 -0.0016206467 -0.05190214 -0.17474198 -0.07883355 -0.09732019 -0.15244463 -0.19841386
-0.0613344 -0.12332752 -0.07520527 -0.23936726 -0.05469469 0.06721051 -0.15947354 -0.04949432
-0.05350847 -0.05420976 -0.028471045 -0.049314417 -0.036977183 0.019541526 -0.07031857 -0.15232961
-0.11640247 -0.0035534576 -0.080081955 -0.113112316 -0.09696835 0.092777185 -0.05509725 -0.08437279
-0.039588295 0.02467843 0.09101646 0.115830936 -0.05908121 0.06499011 -0.06072021 -0.010900212
-0.11430041 -0.05483117 -0.018173074 0.058164965 -0.041197818 -0.08733043 0.022744825 -0.098533146
-0.05862631 0.0049600285 0.0662183 -0.097409345 -0.0018306152 -0.034147877 0.011119003 0.06743624
0.027287366 -0.050504018 -0.024139013 -0.19427587 -0.058156643 0.020195872 -0.022443827 0.012603481
-0.003452281 0.03189037 -0.071635194 -0.013524949 0.049404673 0.031065714 0.059163157 0.06887342
0.04433955 0.06785069 0.10828718 0.042792335 -0.032856148 -0.047284205 0.0032393746 0.023603216
-0.07477847 0.062438443 -0.06097363 0.11274618 0.08690977 0.035681043 -0.0031030842 0.08628802
0.0026224388 -0.015250532 -0.011690967 0.013994877 0.050789613 -0.039034136 0.007702747 0.011599738
-0.038880926 -0.056530636 -0.109749414 0.015987273 -0.08993467 -0.11161618 -0.045476455 -0.010655357
-0.044240788 -0.10854971 -0.063724145 -0.093402416 0.05615871 0.002806001 0.029813385 0.025661899
-0.019046668 0.0060593113 0.08961926 -0.006133207 0.03888425 0.036320224 0.021655459 -0.0376888
-0.02461946 0.0065000886 -0.007877198 0.012367214 0.01739941 -0.020919621 -0.019593727 -0.06018318
0.21387036 -0.106982954 -0.0020985245 0.024317374 -0.04734773 0.013097568 -0.049172256 -0.010088511
-0.008424509 -0.026163902 0.010567591 -0.015567305 0.0052665705 -0.008186438 -0.021832611 0.03614009
0.014228461 0.06208403 0.0074260416 0.031352498 0.011709258 0.021348376 -0.011363237 -0.0010490456
0.0030615928 -0.022102725 -0.076590694 -0.16543359 -0.060060307 -0.061278768 -0.05480123 -0.014476214
-0.01916289 -0.012238863 0.054333072 -0.040326416 -0.013442508 0.0035512163 0.03604989 0.00086563197
0.0014057332 0.01364102 0.0772659 0.012131708 0.025833443 0.028828243 -0.09671859 0.11822924
-0.097918555 0.14868654 0.087870196 -0.24462363 -0.115715675 0.022515811 0.029294629 0.03364619
-0.04314455 -0.025182653 0.013217583 0.028227495 -0.028280778 0.048974633 0.027095135 -0.018218167
-0.026412012 0.026864722 0.06456136 -0.042765286 0.006654704 -0.045675367 0.02552903 -0.005196033

network.0.bias f4 [63]
00000000: 94f2 313f 7143 083f a112 eb3e b163 b33e
00000010: 43b4 f83e e39d 9e3e 90f3 af3e af1e 093f
00000020: 4202 e53e 2aa7 173f fe5d 723f c1f6 413e
00000030: 99cb c53e 34b3 1c3f 86af 863e 5b78 083f
00000040: 3ef3 cd3e eee3 2e3f 0361 023f d422 7d3e
00000050: fc82 823e 23ec 113f fdcd 0e3f 9e57 f53e
00000060: 869f fa3e 2e1c 1f3f d955 073f 0b72 333f
00000070: b4e9 243f 8337 b13e df27 013f 7b46 b73e
00000080: e985 e73e 7ffc e83e 60fa 0b3f b4c1 003f
00000090: c2a2 053f 7f09 ba3e 2cb3 1e3f 1144 0d3f
000000a0: 2532 b93e d1d3 103f b909 aa3e e3b7 013f
000000b0: fdde f23e 9c69 f73e 270a d13e 0f01 f63e
000000c0: f08f 1c3d 9bce cd3e 8f09 f73e e1f8 a83e
000000d0: d0c3 de3e 6bef d73e ef11 fe3e e356 0b3f
000000e0: a8fe 1a3f 81fd eb3e cb1b f23e 08e8 d83e
000000f0: 0e48 213f 1092 ff3e 02bc ec3e
0.6951077 0.5322791 0.4591265 0.35036996 0.4857503 0.30979833 0.3436551 0.53562444
0.44728285 0.5923945 0.9467467 0.18941785 0.38631895 0.6121094 0.2630579 0.5330865
0.40224642 0.68316543 0.5092928 0.24720317 0.25490558 0.5700094 0.55783063 0.4791841
0.48949832 0.62152374 0.5286537 0.7009589 0.644191 0.34612665 0.50451463 0.3579596
0.45219353 0.4550514 0.54678917 0.5029557 0.52201474 0.3633537 0.61992145 0.55181986
0.3617107 0.56573206 0.33210543 0.50671214 0.47435752 0.4832276 0.40828058 0.48047683
0.038223207 0.4019669 0.4824948 0.3300238 0.43508768 0.4217485 0.49623057 0.54429454
0.60544825 0.46091846 0.4728683 0.42364526 0.6300057 0.49916124 0.4623719

network.1.running_mean f4 [63]
00000000: ee30 303e c2fc 603e 15f7 ba3d 8503 1f3f
00000010: 028f cb3c f5e0 b33e 826b 8ebf 57d5 b03e
00000020: f005 0d3f 6eb8 1ebf 6f58 eebf f54a b03f
00000030: eb06 4a3e 4af0 713f 4c65 873f 3e41 9ebe
00000040: ef4c 933f 7f84 e3be cec1 9ebf bfed a43f
00000050: 3595 9e3f 4811 013f 880b 463f e135 54be
00000060: b91b 89bc e7ab 4a3f 0293 1e3f 8594 853e
00000070: f408 333f 431c fd3e eb0d 8d3f 5fb9 cd3e
00000080: 20d3 ef3d abde 5fbe 6ce8 c83d 26ee a03f
00000090: 8d09 9a3e 606d d13f 5bdd c5bd db50 7ebe
000000a0: 1161 623c e2fc b63e ebab b73e e3be 853f
000000b0: 8029 153f a72f 4f3f 7b73 733f f066 583f
000000c0: d633 863f 1367 fc3f 61d4 133f 3321 253f
000000d0: 4e2a 933e fed9 793f 9bab 0e3f 8b50 1cbf
000000e0: 49e8 603d f7a4 e63e 5e7c 43bf aec1 633e
000000f0: 45e0 20bf 9222 b0bb 8ed5 913e
0.17206165 0.2197142 0.091291584 0.62114745 0.024848465 0.35132566 -1.1126559 0.34537765
0.55087185 -0.6200017 -1.8620738 1.3772875 0.19729201 0.94507277 1.0577788 -0.3090915
1.1507853 -0.44437024 -1.2402894 1.2885054 1.2389284 0.50416994 0.77361345 -0.20723678
-0.016736852 0.7916855 0.61943066 0.26089874 0.69935536 0.49435624 1.1019872 0.4018049
0.11710191 -0.21862285 0.09809956 1.2572677 0.30085412 1.6361504 -0.09661361 -0.24835531
0.013817088 0.3573981 0.3587335 1.0448879 0.5826645 0.80932087 0.95098084 0.8453207
1.0484569 1.9718956 0.5774594 0.64503783 0.28743213 0.97598255 0.557306 -0.610604
0.054909024 0.45047733 -0.76361644 0.22241852 -0.6284221 -0.005375215 0.28483242

network.1.running_var f4 [63]
00000000: 33e4 ea3b 8804 863a 9bda db3b 0a28 3f3b
00000010: a869 4d3b a770 d63b 0087 2f3c 82ed 213c
00000020: 4a6c 333c 7d45 023c 4305 803c 05c4 563b
00000030: dcec 6c3b eae7 d43b cf50 803b c764 a33b
00000040: 9901 bb3b e701 893c 916c 9b3c 7e9f 873b
00000050: 6d76 993b c983 ac3b 4685 103b aeb8 a53b
00000060: 521e c03b efe6 2f3c 5d38 093b 3f03 293b
00000070: bc09 de3b 08fe 463b fd7d 073c 6703 bb3b
00000080: 0358 933b 8eaf 363c dfda ad3b 35fd 5c3c
00000090: 0422 143b d3d4 8d3b a791 fa3b a3e4 a03b
000000a0: 80cd 9c3a 4084 613b 0db5 b93b 5d62 ce3b
000000b0: 066a 8e3b 29ec 863b 61e4 4e3c a8a4 953c
000000c0: ab8a 8a3b aa0d f63b 143e 063c 3a3e c83b
000000d0: b2cb 433b d3e6 d43b 9133 bd3b 6d75 1a3c
000000e0: 3a9b 5d3b 9d4c cc3b 99a2 cc3b 961e 953b
000000f0: d3ee bc3b 5e08 b43b bbb4 a03b
0.0071683167 0.0010224739 0.0067094094 0.0029168152 0.0031343494 0.006544191 0.010713339 0.009883286
0.010951111 0.007951138 0.015627509 0.0032770645 0.0036151921 0.006497373 0.003915883 0.004986379
0.0057069776 0.01672454 0.018972667 0.004138886 0.004683307 0.0052647335 0.0022052093 0.005057416
0.0058629895 0.010736211 0.0020938136 0.0025789288 0.006776063 0.0030363817 0.008269784 0.0057071927
0.004496576 0.011150254 0.0053056325 0.013488104 0.0022603283 0.004328349 0.0076467576 0.004910068
0.0011963099 0.0034411103 0.005667335 0.006298347 0.004346135 0.004117508 0.012627692 0.01826699
0.0042279563 0.007508953 0.0081935115 0.0061109336 0.002987605 0.006497243 0.0057739695 0.009427411
0.0033814446 0.006234719 0.006244969 0.0045507653 0.0057657748 0.0054941615 0.0049043573

network.3.weight f4 [63, 63]
00000000: ed32 b03d b124 ddbd fd24 5fbd fb41 c8bd
00000010: a822 533b 2693 973b 5064 0bbd e22d 43bd
00000020: 2706 a5bd 1d3f 203c 44a0 513d c027 883d
00000030: 6dc8 4f3e 98c5 9a3d 3c3d b8bd 2d32 393c
00000040: 6342 0c3d dda2 f73a e9bc 6c3d 71c9 eebd
00000050: 507a 0e3d 8de4 b7bd 4523 303e 5249 6b3a
00000060: a396 ca3d 3936 f43d 971a ce3d a93e a6bd
00000070: 24b2 be3d 1002 133c dc69 bebc faf8 98bd
00000080: 0464 dabc 2e2f bfbc 629e 0a3e 82dd e6bc
00000090: 7c5b ef3d e26e 2f3b f30f e4bb 0ff2 d83d
000000a0: 5fda a8bc e075 a8bc f08e 1fbe 3170 ab3d
000000b0: 1f4b edbd 8b8c dbbd 9f0f 013d 6b7f 00be
000000c0: aedb 1c3c 70d1 453d 71af 923b 8597 013d
000000d0: 10d4 af3c 4009 ed3d 768b a2bd f6b4 adbd
000000e0: df23 4ebd 1ee6 14be 9346 2ebd 2fc5 3a3e
000000f0: dbef 8cbd d3d5 f13c 2011 90bd 0585 91bd
00000100: 1cd8 3cbd cdc2 06be bfd1 69bd 5a8b cb3d
00000110: 7df0 263e 01dc a83d a753 d7bc 8ffd 863d
00000120: 1c22 06be 88c3 e5bd fe01 4e3d 0107 1dbd
00000130: ffc0 853d a527 dc3d 569e 483d 2838 0b3c
00000140: 467a 9a3d e8af c7bd 5bc8 a5bb 33a8 d93d
00000150: dcd1 d03d 3a96 473d de68 363e d7e5 183e
00000160: 8421 00bd 5312 9a3c 11ff ec3d 36ac 563b
00000170: e78a b73b 8b42 033d 01ee 4b3d a097 20be
00000180: 070e 38bd 71b8 003e 7aab 6dbb 3b9e cabd
00000190: db33 c8bd 2d3e 0f3d 6ab9 c83d 4ac2 7abd
000001a0: 5213 4bbc 5c25 b13d c043 9e3b 29d1 b3bd
000001b0: f177 0e3d d9c6 f6bd 40af 86bc 1377 a23d
000001c0: 28c3 353e da12 2dbe 6952 223a 4c30 bd3b
000001d0: 88ad 143d eaec 9c3c 55aa b1bd e3ac 11be
000001e0: ebeb d3bd 6382 8fbb 4f14 413e 18d2 d8bd
000001f0: 3d6e 333e 05b4 4fbd fa01 f93d e1ec 893c
00000200: 2af6 86bd 0e8e 1dbd fae9 823d 5c39 e5bd
00000210: 07e5 693d 2723 093c 5dff 21be 8d9c 063c
00000220: 28f2 eb3d 2240 f63d 755a 9dbc d79b 3c3d
00000230: d3ae 8fbd 47c1 afbd 66a1 2e3c 4d4b a63d
00000240: d940 64bd 9b89 413e a6d1 9d3d e2db ba3b
00000250: 394a ed3d 1108 a03d 76d1 4bbd e797 cebd
00000260: 77d1 023e 4f69 b63d f844 163e 72f1 4bbc
00000270: e2ca 823d 1588 82bc b2a6 81bd 6fc9 7cbd
00000280: 3834 48bc 1cbc 32be a457 8e3c 35d7 1d3c
00000290: f8a6 003d 5024 3abb 575a 153e 214b 4f3e
000002a0: 24fd c83a 8791 21bd 8630 98bd eebc 0cbe
000002b0: b07e 053e 2806 87bd 5527 44bd 5452 3cbd
000002c0: ea1f 0ebe 14a2 febc 25b2 513d b411 a63d
000002d0: 7734 9abc 6bdf e33d 41ac 16be a37c 823d
000002e0: 2bd0 99bd 965b 743d dfcd 37bd 5f2b 253e
000002f0: da36 853b fd77 86bd 0c63 9f3d 9fc7 45bb
00000300: 1b2c 2bbe cf01 483d e60c 503c bf45 b0bd
00000310: d6e3 13bd 8f60 54bd 9d31 e8bd 9b8c f13d
00000320: 8174 833c bf37 54bd 0346 2e3e bcd4 663d
00000330: dfd4 b53d 496b 58bd 8306 13bd 517f 15bd
00000340: 5e59 06bc eabb 453e e503 45bd 9ae1 89bb
00000350: bdee 5ebd 224b f23b 2ea1 143e efa9 4dbd
00000360: 6696 803c e737 8cbd 4004 753d 09ce 9e3d
00000370: f8b5 ecbd a9d9 3a3e f4ae d1bb 6d5d 4a3d
00000380: c886 063d 7bfc 4a3c f83f 79ba 998c 23bd
00000390: 9159 a13d bb43 59be f1ca 13be eba1 f2bd
000003a0: e26a 913c 2434 1abc 4aad 9a3d 9eb5 4dbe
000003b0: 25d0 57be 6882 903d f306 8cbd 816b 6b3a
000003c0: 8243 b9bd 9ddd 0fbe f32b 45bd dc37 b4bc
000003d0: daa7 e7bc ca95 4a3e 8aba c5bd b281 7dbd
000003e0: a767 04be 2f28 71bc 7132 7c3d 6d7c 9ebc
000003f0: 51d9 953d 1414 023e bcb8 1dbe 0c84 3e3d
0.08603463 -0.10798014 -0.054478634 -0.0977821 0.0032216702 0.0046256958 -0.034031212 -0.04765118
-0.08057814 0.009780672 0.05117823 0.06648207 0.202913 0.07557219 -0.089960545 0.011303467
0.034243 0.0018893142 0.057797346 -0.11659516 0.034784615 -0.089791395 0.17200954 0.0008975464
0.09892013 0.11924405 0.10063665 -0.0811742 0.093113214 0.00897266 -0.023243837 -0.074693635
-0.02665902 -0.023337927 0.13536981 -0.028181795 0.11687371 0.0026768972 -0.006959909 0.10593044
-0.02061194 -0.02056402 -0.1558187 0.08371008 -0.11586594 -0.10720166 0.031509038 -0.12548606
0.00957386 0.04829544 0.0044764807 0.03163864 0.021463424 0.1157403 -0.07936756 -0.08481781
-0.050327178 -0.14540908 -0.042547774 0.18239282 -0.06881686 0.029520905 -0.07034516 -0.071054496
-0.046104535 -0.13160248 -0.057084795 0.099386886 0.16302676 0.082450874 -0.026285006 0.06591331
-0.13098949 -0.11218935 0.05029487 -0.038336758 0.06530952 0.10749749 0.048979126 0.008497275
0.07542853 -0.09750348 -0.0050592846 0.106277846 0.101962775 0.04872725 0.17813441 0.14931427
-0.031281963 0.018807566 0.115720876 0.0032756454 0.0056012752 0.032045882 0.049787525 -0.1568284
-0.044935253 0.12570359 -0.0036265538 -0.09893461 -0.09775516 0.034971405 0.0980099 -0.061220445
-0.012394743 0.08649704 0.004829854 -0.087801285 0.034782354 -0.12049646 -0.016440988 0.07932868
0.17750227 -0.16901723 0.00061920896 0.0057735797 0.036298305 0.019155938 -0.086750664 -0.14226107
-0.10347732 -0.004379557 0.18855403 -0.10586947 0.17522521 -0.05070879 0.1215858 0.016836585
-0.06589921 -0.038465552 0.06392284 -0.11192581 0.057103183 0.008370197 -0.1582007 0.008216036
0.11520797 0.12023951 -0.019208172 0.046047058 -0.07015767 -0.085817866 0.010658598 0.08119831
-0.055725906 0.18900149 0.07706003 0.0057024816 0.115864225 0.078140385 -0.049760304 -0.10087567
0.12775217 0.08906805 0.14674747 -0.012447702 0.06386353 -0.01593403 -0.06330623 -0.06171554
-0.012219481 -0.1745457 0.017375775 0.009633829 0.031409234 -0.0028402992 0.14585243 0.20243503
0.0015334231 -0.039445426 -0.0743113 -0.13743946 0.13036609 -0.06592971 -0.047889072 -0.04597695
-0.13879362 -0.031083144 0.051195282 0.08108845 -0.018823845 0.11126598 -0.14714147 0.06371429
-0.07510408 0.059657656 -0.04487407 0.16129826 0.0040653767 -0.06565855 0.077825636 -0.0030178798
-0.16716044 0.04882985 0.012698388 -0.08607053 -0.036105953 -0.051849898 -0.11337588 0.117943965
0.016046764 -0.051810976 0.17018895 0.056355223 0.088784926 -0.05283669 -0.035894882 -0.03649837
-0.008200018 0.19309965 -0.048099417 -0.004207802 -0.054426897 0.0073942104 0.1451461 -0.05021089
0.015696716 -0.068466 0.059818506 0.07754142 -0.11558145 0.18247093 -0.00639903 0.049405504
0.03284338 0.012389298 -0.0009508128 -0.039929006 0.078784116 -0.21217243 -0.14432885 -0.1184729
0.017751161 -0.009411845 0.075525835 -0.20088813 -0.21075495 0.07056123 -0.06837263 0.0008980558
-0.09046079 -0.14049383 -0.048137616 -0.021999292 -0.02827828 0.19783702 -0.0965472 -0.061891265
-0.12930165 -0.014719053 0.061571542 -0.01934644 0.073168404 0.12702972 -0.15402502 0.04651265

network.3.bias f4 [63]
00000000: a9df 013f 172f fe3e 8fc5 033f 606f fd3e
00000010: d764 0e3f 8b96 f83e 83b3 f33e d1f7 f83e
00000020: 71a9 153f b5cb 023f d746 0e3f b666 013f
00000030: e3a6 073f 8be2 153f 24ac f73e 4e41 f03e
00000040: f9d2 fc3e d431 003f 31b2 003f d75a fc3e
00000050: 7098 fb3e 9ae4 ff3e ec17 fb3e 3485 f83e
00000060: aa26 fb3e de61 023f c533 f53e f9f7 ff3e
00000070: 1456 fc3e a747 0e3f 7128 fa3e c45d fb3e
00000080: 0ae8 fd3e d39c f83e cbed ff3e c554 003f
00000090: ffac fa3e 358f 033f d18e fe3e fd7b 073f
000000a0: d937 033f 3e13 fb3e 5de8 053f 2006 f43e
000000b0: ea23 ff3e ba87 003f 3a0e fe3e 72f0 063f
000000c0: 4f3b f33e 1a1e f93e cd4c 023f 545d 013f
000000d0: 4a1d f53e d23c fc3e 5d16 0b3f e7f9 0a3f
000000e0: d4c0 023f bb0d f73e 1f43 033f 60cb 023f
000000f0: 813a 013f 2121 eb3e 03a1 fe3e
0.50731903 0.49645302 0.51473325 0.49499035 0.5562262 0.48552355 0.47597894 0.4862657
0.5846167 0.5109208 0.55576843 0.5054735 0.52989024 0.585488 0.4837352 0.46924824
0.4937971 0.5007603 0.502719 0.49288055 0.49139738 0.49979097 0.49041688 0.48539126
0.49052936 0.50930583 0.4789106 0.49993876 0.49284422 0.5557808 0.4885898 0.49094975
0.49591094 0.48557147 0.4998611 0.5012935 0.4896011 0.5139039 0.49718335 0.52923566
0.5125709 0.49038118 0.52307683 0.47660923 0.49832088 0.502071 0.4962023 0.5271064
0.47506186 0.48655778 0.5089844 0.5053303 0.47873908 0.49265152 0.54331 0.5428757
0.5107548 0.48252663 0.51274294 0.51091576 0.50479895 0.45923713 0.49732217

network.4.running_mean f4 [63]
00000000: b80d 073f 4078 163f 999b 263f 4561 9e3e
00000010: 03de 053f 6dba 8e3e 6516 153f d26b 183f
00000020: 72e1 183f c75a 1f3f dae1 203f 79e1 073f
00000030: 415c 203f 3e22 503f d788 7a3e 7768 f83e
00000040: c5ff f13e afda f43e 8b7e 053f 3e9b 943e
00000050: 6afd e13e 4662 dd3e 2cd1 873e b60c 2e3f
00000060: 2c60 123f 3d7a 0b3f a0f5 ce3e 2a5d 353f
00000070: e855 8c3e 0547 153f 3e4b 1b3f dadd ef3e
00000080: 0a24 173f c8af b63e 8304 083f f494 0b3f
00000090: b3d5 f03e b8aa 073f 303a 1c3f cc3a 173f
000000a0: 00ae 363f b404 1b3f 03f9 023f 7829 813e
000000b0: d1b8 173f fd52 0f3f 638c 973e fdaf 373f
000000c0: beb6 013f 07d0 2a3f 2571 073f 4ff5 183f
000000d0: d88f 863e ae81 203f 20fd 0e3f dbe7 2d3f
000000e0: 6fbb 353f df37 043f 472f 3a3f 0b35 433f
000000f0: e665 063f 528a ba3e 599e 993e
0.5275531 0.58777237 0.65081173 0.30933586 0.5229189 0.27876607 0.58237296 0.5953952
0.59719 0.6224789 0.6284462 0.5307842 0.6264077 0.8130225 0.24466263 0.485172
0.4726545 0.47823092 0.52146214 0.2902469 0.44138652 0.4323904 0.26526773 0.67988145
0.57177997 0.54483396 0.40421772 0.7084528 0.2740929 0.5831149 0.60661685 0.46848947
0.59039366 0.35680985 0.53131884 0.5452416 0.4703804 0.5299487 0.6102629 0.5907409
0.7135925 0.6055405 0.5116121 0.2522695 0.5926638 0.55986005 0.29599294 0.7175291
0.5066947 0.66723675 0.5290702 0.5974931 0.2628162 0.62697875 0.5585499 0.6793191
0.70989126 0.5164775 0.7272839 0.7625281 0.52499235 0.36433655 0.30003622

network.4.running_var f4 [63]
00000000: d004 ef3d 10b0 5b3e b9bd 773e ea05 3e3e
00000010: 699d a23e a87b 7b3e 420e df3d 1398 153e
00000020: 4322 0f3d de46 083e 2951 a23d beb5 063e
00000030: e717 c33d 895c 013e fdcd fc3d 08cd 9f3d
00000040: b2fb 803d b495 813e 4bfb 993e 035f 5f3e
00000050: e07b 6e3e 8880 2d3d 1a8b 573e 549a f23d
00000060: 2ef0 6e3e bd70 983d fbb8 0b3e 37a7 e93d
00000070: 5455 b63e c7b3 313d 341b 033e f31a 153e
00000080: 52f3 683d d669 dc3d cb47 4b3e 2b64 423e
00000090: 2da3 4a3e 370c ea3d 323e 1e3e 0864 043e
000000a0: 9c70 8a3e 33e7 263e 296b 733d 8def 953d
000000b0: 5474 003e 925e 4f3e af1e 2f3e ef09 173e
000000c0: 61b5 493e 0164 3d3e c8b2 5d3d 9e75 c13d
000000d0: 659f 043e ab33 1d3e 5405 8c3d 10c1 0e3e
000000e0: 59c8 633e 2a81 dd3d 99e5 da3d d334 db3d
000000f0: 9c81 b23d 42b1 eb3d 8c9f 293e
0.1167084 0.21453881 0.24193467 0.18556944 0.3176072 0.2455889 0.10891391 0.14608793
0.034944784 0.13308284 0.07925636 0.13155267 0.095260434 0.12632956 0.12343977 0.078027785
0.06298007 0.25309527 0.30074534 0.21813588 0.23289442 0.042358905 0.21049157 0.11845842
0.23333809 0.07443378 0.13644783 0.11408847 0.35611975 0.04338434 0.12803346 0.14561062
0.056872673 0.10762374 0.19851606 0.18983524 0.19788809 0.11428111 0.15453413 0.12928784
0.2703904 0.16299133 0.059428368 0.07321081 0.12544376 0.2025092 0.17101549 0.14749883
0.19698097 0.1849518 0.054125577 0.09446262 0.12951429 0.15351741 0.06836954 0.13940835
0.22244395 0.10815652 0.106883235 0.10703435 0.08716127 0.115084186 0.16564769

network.6.weight f4 [63, 63]
00000000: 95a4 163e 872f 863d ab92 fa3d 9989 0e3d
00000010: 9a06 8abd fd02 1dbe 3a8c 9cbd de3e aabc
00000020: a4ba 5b3d 0dd0 cb3d 08f1 48bc 8b0a 393c
00000030: bf37 15bd fda4 c23d be7e bd3c 4a67 26bc
00000040: d96b 733d 7c22 e4bd 2b72 103e 3f3a b9bb
00000050: a4e6 eabd cf9a 04be 9883 2dbd 4407 8f3d
00000060: 6b94 e93c 28fa 49bc eba7 8b3d a44f d6bd
00000070: 3848 7d3d d003 84bd 5c68 f8bd 469e adbd
00000080: 55bb 06be 6b40 9e3a ac02 f23c 3a49 06be
00000090: 5b2f f1bc 7c38 023d dcb8 0fbe 3854 14bc
000000a0: c070 bfbb 3fbd 84bd 1488 90bd 7830 fe3d
000000b0: 4082 973c 37d2 b13c 6171 033e cba6 393d
000000c0: 2e55 7f3d 0bbe 42bd 6e81 d63c 9348 c1bd
000000d0: cd5f 86be 655c 153e 99ec 5fbb 4ad8 36bd
000000e0: c2a7 52bd 31a8 b1bc 45bb 3e3e 19ee 90bc
000000f0: e921 e1bd bc42 c3bc 307f cb3d d124 8f3b
00000100: f339 f93c 465e 82bd 7cc4 06be dc9f 22bd
00000110: 49d8 08bc 24d9 03bc ff11 c6bd 29f2 46be
00000120: 7e0e d6bd 21c4 ebbc 5d16 a0bc 1e13 333d
00000130: 9e30 093e f2b1 07bc 0601 01be 9826 e73c
00000140: b089 97bd 61f0 5d3c 5f2d 8abd feb4 8c3c
00000150: d6f0 98be fd20 e3bd 6afa 943d 43f5 ed3c
00000160: afdb 10be fc2f a13d 103c c13c f2fa 9bbd
00000170: 4b11 8b3d 899c f83c f3b5 803c 36f0 a73c
00000180: 5779 8c3d 495a 653d 6d1e 1d3d 90ad 6ebb
00000190: fba5 023e 1984 e93d 571d a2bd 00c5 a43d
000001a0: 736d 67bc 7157 1cbd bd56 5cbd ce9b 223d
000001b0: 00cb 4dbd d3ac b2bd 976b 32bd 4794 67bc
000001c0: 71fc d53c 6a24 393e 910e 4abd 3f0c 12bd
000001d0: 40d6 e3bc 8b68 133e 0b70 de3c f7f4 01bd
000001e0: a7d8 f4bc 4d84 e4bd f59c cfbb 2b80 97bc
000001f0: b4d2 91bd 4c38 b23d e126 273c e2da a33d
00000200: 112a d13d 52e0 9cbb e16d 26bd 850f 683d
00000210: 07d7 12bc 69f4 083e 4a2b 4abd a354 f43d
00000220: 449c aabc ee81 0fbe 4d44 993d 38de a63d
00000230: 79c1 cd3b de79 163e 31d3 22be 027b 0b3d
00000240: 0a22 df3d d23b 0aba 4f2a 19bd 9ec2 0b3d
00000250: 6d96 713e e7a5 84bd d25c 013e b5af 503c
00000260: c454 543d e8c3 993c e886 293e 2a4f acbc
00000270: 0e6c b1bc e9b4 17bd fcdd 37be e1e0 453d
00000280: 2094 a9bd fb4c 91bd b037 a13c 9916 56be
00000290: 3664 10bd 5f94 203d 287f 3e3d c864 78bd
000002a0: cae1 b13b 2265 bebc 6c3f 05be 6955 9e3d
000002b0: 04f8 813d 81ef 773d f77a 4c3d 687e 00bd
000002c0: 458e ca3d f143 123e ce35 c63c aff9 82bd
000002d0: 0bd6 7fbc f0dd 603e b9af 463d 5f72 ca3d
000002e0: 92b4 ab3c 173d 18bd 2045 0dbe 6e8b 063e
000002f0: 7b4c 9b3d 8164 92bd 9fe2 f6bc b32c 9e3d
00000300: 10ce bf3d 76e6 53bb 9557 253e df69 a03d
00000310: f2c0 7c3d 18c7 4f3d 256a 7cbd 6d0c 1a3e
00000320: ece6 2c3d 314e c93d 2fed 3ebd fa2a 313d
00000330: b441 c3bd 1152 873d 0b55 d6bd def9 ccbd
00000340: 8ede c23d e498 033d 49d9 8bbd 8efa 2e3c
00000350: a796 da3d 0578 ce3d cf8b 2a3d f89a 02be
00000360: a537 55bd 3880 92bd 7e05 583d c108 bc3d
00000370: a5ac 19bd 0aa5 e23c 17bb b93b 9ec2 51bd
00000380: 886c a1bd 18eb bc3c 34b8 af3d d7e3 323d
00000390: 8b42 8cbd b70c 17bd ac7f 24be fbdf ccbc
000003a0: 44b0 28be 5354 873c a43a b23d c389 3c3e
000003b0: f5c9 9c3d 98d6 39bd 3d62 b9bd dbd2 923d
000003c0: 10a0 9d3d 7d32 1cbc fd10 3d3d 0792 843d
000003d0: 7d5c ac3c 3e49 11be 1753 dd3d dc02 70bd
000003e0: ee90 77bd 89d9 5fbe 9cab e9bd 4909 573d
000003f0: 211c 38bd d3c5 8d3d 6b40 863d 76b5 383d
0.1471122 0.06552034 0.12235006 0.034799192 -0.067395404 -0.15333171 -0.076439336 -0.02078193
0.05364479 0.09951792 -0.012264498 0.011294018 -0.036430117 0.09504125 0.023131724 -0.010156462
0.059429023 -0.1113939 0.14106052 -0.0056526954 -0.114697725 -0.1294968 -0.042361826 0.06983808
0.028513154 -0.012327708 0.06819137 -0.10464409 0.06183645 -0.0644604 -0.1212928 -0.08477454
-0.13157399 0.0012073641 0.02954229 -0.13113871 -0.029441526 0.03179215 -0.14035362 -0.009053282
-0.0058422983 -0.06481408 -0.07057205 0.124115884 0.018494725 0.021706684 0.1283622 0.04532508
0.062337093 -0.04754452 0.026184764 -0.094376706 -0.26244965 0.14586027 -0.0034168123 -0.044639863
-0.051429518 -0.021686645 0.18626125 -0.017691659 -0.10992796 -0.023835532 0.099363685 0.0043684025
0.03042314 -0.063656375 -0.1316089 -0.039703235 -0.008352348 -0.008047376 -0.09671401 -0.19428314
-0.10451983 -0.028780045 -0.019541914 0.043719403 0.13397452 -0.008282172 -0.12598047 0.028216645
-0.07399309 0.01354608 -0.06746935 0.017176148 -0.29871243 -0.110902764 0.07274325 0.029047614
-0.14146303 0.078704804 0.02358821 -0.076162234 0.06790408 0.03034808 0.01571176 0.020500284
0.06859081 0.055994306 0.038359094 -0.003641937 0.12758629 0.11402149 -0.079157524 0.08045387
-0.014125216 -0.038169328 -0.053793658 0.03969937 -0.050242424 -0.0872437 -0.043559637 -0.014134473
0.02612135 0.18080297 -0.049330298 -0.03565621 -0.027812123 0.14395349 0.027153036 -0.031727757
-0.029888464 -0.11158047 -0.0063358494 -0.018493732 -0.071202666 0.08702144 0.010202141 0.08000733
0.10213102 -0.0047874833 -0.040632132 0.056655426 -0.008962399 0.13374485 -0.04935769 0.11930206
-0.020826466 -0.14014408 0.074837305 0.081478536 0.0062791673 0.14694926 -0.15900876 0.034052856
0.10895164 -0.0005273196 -0.037393864 0.03412115 0.23592539 -0.06476956 0.12633064 0.012737204
0.05183865 0.018770173 0.16555369 -0.021033842 -0.02165797 -0.037037764 -0.17955774 0.048310164
-0.08280206 -0.07094761 0.019679874 -0.20907058 -0.03525182 0.039203998 0.046507984 -0.060642987
0.0054285275 -0.023241583 -0.13012475 0.077311344 0.06346133 0.060531143 0.049921956 -0.03137055
0.09890417 0.1428373 0.024195578 -0.063952796 -0.015614997 0.21959662 0.048507426 0.09885096
0.020960126 -0.037167635 -0.137959 0.13139126 0.07582947 -0.07148076 -0.030137358 0.077233694
0.09365475 -0.003233341 0.16146691 0.07832693 0.061707444 0.05072698 -0.061624665 0.15043803
0.04221241 0.09829367 -0.046612915 0.043253876 -0.09534016 0.0660745 -0.104654394 -0.10008596
0.09515105 0.03212823 -0.06828553 0.010679854 0.10673266 0.10081486 0.041637238 -0.12754428
-0.05205502 -0.07153362 0.052739613 0.09181357 -0.037518162 0.027666587 0.005668055 -0.051210992
-0.07882029 0.02306132 0.08580056 0.043674316 -0.068486296 -0.03687736 -0.16064328 -0.025009146
-0.1647349 0.016519701 0.08702591 0.18411927 0.07655708 -0.04537067 -0.090519406 0.07169124
0.07696545 -0.009533522 0.04615878 0.06473165 0.021040196 -0.14188096 0.10806864 -0.058596477
-0.06044095 -0.21860327 -0.11409685 0.05249909 -0.0449487 0.069224976 0.065552555 0.04509493

network.6.bias f4 [63]
00000000: d475 f43e 2489 073f 4492 043f 6b63 f33e
00000010: ae82 f93e ce65 033f eb41 fd3e f559 303f
00000020: 36de fa3e 0aa3 e83e 8396 f83e 2ab6 013f
00000030: d1f9 013f 8670 f23e 0f13 f43e 6392 013f
00000040: de71 f53e 42ee eb3e 2445 013f cb71 613f
00000050: c84a f33e 7ce2 f03e 02c5 023f 4724 003f
00000060: f86f fe3e e6c2 e93e 892c 053f b372 fe3e
00000070: aea4 023f 396e 043f 9e31 013f e5a1 f83e
00000080: 755f 123f ed1f f93e d0dc f93e 7db2 fb3e
00000090: 7efc 013f a41d f63e a2f0 033f 3c5c 003f
000000a0: 366f 033f 3b7a 093f 2010 2f3f d768 fd3e
000000b0: ad40 ff3e 8bc5 ed3e 6013 073f 86d2 f63e
000000c0: f308 043f a6d0 f63e 1f6c 053f b63e f93e
000000d0: d7d8 f93e 6ef3 5f3f 880d 193f 5c4a 0e3f
000000e0: a4fe 013f db9f 053f 4c62 143f 478b 003f
000000f0: 5266 fc3e 667b 073f 8f1f fb3e
0.47746146 0.52943635 0.51785684 0.47536787 0.48732513 0.51327217 0.49464354 0.68887264
0.48997658 0.4543689 0.4855233 0.50668585 0.50771815 0.47351474 0.4767079 0.50613993
0.47938436 0.46080214 0.50496125 0.8806426 0.4751799 0.47047794 0.5108186 0.50055355
0.496948 0.45656508 0.5202108 0.49696884 0.5103253 0.51730686 0.50466335 0.48561016
0.57176906 0.4865717 0.4880128 0.49159613 0.507759 0.4806949 0.5153905 0.5014074
0.5134157 0.53702134 0.6838398 0.4949405 0.4985403 0.46439776 0.5276394 0.48207492
0.51576155 0.4820606 0.52118105 0.48680657 0.48798248 0.8748082 0.5978627 0.55582213
0.50779176 0.52197045 0.5796249 0.5021252 0.49296814 0.52922666 0.49047515

network.7.running_mean f4 [63]
00000000: 00ce c83e 34bf c13e 8658 413f b8bd 053f
00000010: 0466 593e 66d4 0c3f 7569 e93e db0e 773f
00000020: 6441 d03e 3a4c 1b3f d91d 363f 6114 0f3f
00000030: a3a4 e93e 4c97 043f 77a5 253f 5ab0 d23e
00000040: 51a8 273f 5b8d c53e 0040 2f3f 16e8 933f
00000050: cc92 453f 1969 a83e 35ac 4b3f 15d3 e43e
00000060: 5f8b ff3e 5e09 fb3e 4f39 3e3f b15e 223f
00000070: 4dac fc3e f4db 003f f7d3 013f b3b1 303f
00000080: 800d 013f a311 453f fe35 063f bfeb 1b3f
00000090: a257 3c3f c964 f43e a7b4 2c3f 5287 123f
000000a0: 6714 463f 54be 363f 306f 223f 3cdc 1c3f
000000b0: f49c 843e 5a7c 073f 0cf5 1c3f 5973 9a3e
000000c0: e37b 1e3f 41bb 0e3f b305 043f 487d bd3e
000000d0: 0f29 d03e e026 8d3f b93f 2a3f 44cb 3f3f
000000e0: 67d5 ad3e c512 123f 7b33 153f 26fb a43e
000000f0: 348c dd3e dbd6 373f 0a03 b13e
0.39219666 0.3784119 0.755257 0.5224261 0.21230322 0.55011594 0.4558827 0.9650704
0.4067489 0.6066319 0.71139294 0.5589047 0.4563342 0.5179336 0.64705604 0.4115017
0.65491205 0.38584408 0.6845703 1.1555202 0.7717712 0.32892683 0.7955964 0.44692293
0.4991102 0.49030584 0.74306196 0.6342574 0.49350205 0.5033562 0.5071406 0.6902115
0.50411224 0.76980036 0.52426136 0.60906595 0.7357122 0.47733143 0.67463154 0.5723773
0.7737488 0.7138417 0.6345091 0.6127355 0.25900996 0.5292412 0.6131141 0.30166128
0.61907786 0.55754477 0.51571196 0.37009645 0.40656325 1.1027489 0.66503483 0.74919534
0.33951876 0.5705989 0.5828168 0.3222286 0.4327103 0.7181222 0.3457263

network.7.running_var f4 [63]
00000000: 9461 133e 4ccb 073d 9f28 9d3d 7bc9 c73d
00000010: e233 d73d c650 e73d 6762 6a3d 75ff 543d
00000020: 36b4 c33e 5948 0b3e f9b0 ff3d 968a 9d3d
00000030: bdd4 533d cc69 943e 601c 643d 3f5e ab3d
00000040: d90c aa3d 747e ba3d 188f 813d ed31 923d
00000050: 6c67 bc3d 09e6 353d 0662 b13d d442 b23e
00000060: e5ce f03c fb05 183e f685 cc3d 4915 143e
00000070: 51c3 333d 7f0c 023e a8c4 b33d 83c8 f03d
00000080: e060 513d 5fc3 033e 5e94 4d3e 8391 463d
00000090: d0d9 c33d 4d76 0a3e f37f 703e 675a 473d
000000a0: 6673 093e ac71 b13d 1353 533e 392b eb3d
000000b0: 9ddc d63e 8c79 053e bc1f 473e c50d 963d
000000c0: 8c74 dd3d 5a05 0a3e cf3b 703d b711 943e
000000d0: 3400 323e cb65 913d be54 413d 09d4 613d
000000e0: 24ed 563d 424f 123e 5e85 f63c d8b6 0e3e
000000f0: 02d2 d53d c949 8d3d c91b 203e
0.14392692 0.033152863 0.076737635 0.09755226 0.10507943 0.11294703 0.05722275 0.052001435
0.38223428 0.13601817 0.12484927 0.07692449 0.051716555 0.28986967 0.055691123 0.083675854
0.08303232 0.0910615 0.06326121 0.07138429 0.09199414 0.04440883 0.086612746 0.3481661
0.02939553 0.14846031 0.099864885 0.14461245 0.04388744 0.1270008 0.087777436 0.117569946
0.051117778 0.12867497 0.20076129 0.048478615 0.09563029 0.1352169 0.23486309 0.0486702
0.13422927 0.08664259 0.20637159 0.114828534 0.4196519 0.13034648 0.194457 0.07326845
0.10813245 0.13478604 0.058650788 0.28919765 0.1738289 0.070994936 0.047199957 0.055133853
0.05247225 0.14288047 0.030092891 0.13936937 0.104404464 0.06898839 0.15635599

network.9.weight f4 [63, 63]
00000000: 4b44 b6bc fa79 ebbc 3207 003e c5d7 4ebc
00000010: cded 983d d44e 083c 3e0f d03d 5e3d cf3c
00000020: 818f 2d3d b040 34bd e33b 453b ef5c 193e
00000030: c625 abbd c417 bbbd 8da4 b53c 28f5 bebc
00000040: b3c1 5f3d 0dd7 c53c c323 f73c 4d37 b2bc
00000050: b672 c63d 9489 8c3d f9fa f7bd 34c4 c6bd
00000060: 2c96 8b3d cf66 a73c 17df 1fbe f348 0abe
00000070: d2bd 4b3d 2c1c 34be ce0b 83bc f07a 2c3e
00000080: a6da f0bb 6569 f63c 4e91 af3b b744 da3d
00000090: e02b 863d f12d 2a3d 77ea d73d 68f2 fdbd
000000a0: b9e3 c9bc de5b a63d 03e8 81bc 60ce 6fbc
000000b0: 5f98 193e 7722 943d c2a5 74bd 328a 55bd
000000c0: aedd 62bd d99f 8cbc 38eb 81bd 94c3 913d
000000d0: 7970 79bc f922 9d3b 2680 0e3e 85b1 5ebe
000000e0: c9f6 823d 44c0 adbd bada 423e 530c ab3d
000000f0: 56f3 99bd b206 e73d 8b9a f43d 1872 67bc
00000100: e257 513e a25b 01bb 9080 113e 6835 d2bb
00000110: dbe1 50bb 3e3f f33c ab56 11bd ed40 893d
00000120: 466f eabd 8361 a73d 9a01 fb3d b93c 4cbc
00000130: 3b39 243a 4578 97bd 0702 99bc 5537 9dbd
00000140: 34be 813c 8ddf edbd 0e0b 543d 32fa aa3d
00000150: c1e8 143d f4b3 5bbd 9448 9b3d 7b80 86bd
00000160: 908c 56bd 6a05 003c 8d28 1ebe 9d1d ac3d
00000170: d333 d53d dec3 443d bd25 c7bc 76dc e6bc
00000180: 1d2f bcbd 50dc 003c 6d5c c1bc 8351 0ebe
00000190: ba54 74bc 965a d63b eca5 803d 4626 fcbd
000001a0: 856e 343e ebd2 d73d e4a4 e1ba 0cce f8bc
000001b0: 4c95 ac3d b2fc acbd 0758 1b3d 258e 6e3d
000001c0: 6ceb c53d 61e0 80be 1cfc 413d b67a 92bd
000001d0: f384 d1bc 522b 3ebd 911a cfbc 0d28 f5bc
000001e0: e2e9 613d dab5 1abe ba40 f33d d133 383c
000001f0: 1f1b b43d 8c30 78bc 1e12 223d a897 b3bc
00000200: 11f3 933d 3e5a 34be cef9 6a3d e1a5 90bd
00000210: 4539 85bd c7c1 c83c d19d 0f3e 0f34 953b
00000220: c031 d63c 2301 aa3d 22c1 29be 77fe 0fbe
00000230: f444 b73a 9971 03be 1542 76bd 8b60 19bd
00000240: 487b 933d 2888 f2bd eb1f 8bbd 9ec8 79bd
00000250: f129 eabd bf30 193c 12bf 5b3c eca1 903d
00000260: cb84 61bd c617 b53d 351d c0bd 12d1 1dbe
00000270: e4ee 063e fd94 003e 6c59 de3d becf 1c3d
00000280: 3383 4dbd 505f 1fbb 9bd1 e33c 9e6f 1e3e
00000290: 003b 793d 2ce9 13be 46e6 da3c cf67 183e
000002a0: c33b 34bd 77b8 55bc ed96 2bbd e192 013e
000002b0: 5fad cfbd 357c 9ebd e113 67bd 4478 19bd
000002c0: e497 f8bd add5 d8bd 79e1 463b 23c1 3abe
000002d0: ca85 2abd 3ca3 68bd 059b 9bbd dbd5 463e
000002e0: cf35 323d e970 b1bc 8e01 f33b 41a1 a73c
000002f0: a1aa b33c a827 083d c05b ab3d b73f 56bd
00000300: 53ad da3d f47f 9a3d b6f1 473c 59f9 b3bd
00000310: ce14 c93d bfdf 8abb 2c60 4ebd 2ebe 3a3d
00000320: 555d 08be ea0b fc3c f16f f2bd 1ada 4bbb
00000330: 4979 e33d 4e0a e0bd ccf2 f8bd 1593 d8bc
00000340: e0b8 a73d 6f58 0ebd 2866 623d cc20 fdbc
00000350: 1c63 b9bd e061 913d c719 1bbc 398c 08bd
00000360: db76 b6bd 0df3 183c 0493 8e3c 95c1 0abe
00000370: d20e 54bc ea2f ce3d 5ec3 42bd d6ee 023e
00000380: 63f1 4e3c ba1e acbb a26e 193e 112f 373d
00000390: 9ccf fdbd eeee 85bc f10d b1bd 6297 203d
000003a0: 3780 973c 0bd6 4a3e 945e 08be e90e a63d
000003b0: bcbe 433d 81e0 4dbd 7fb7 85bd 6259 8a3d
000003c0: ede1 a83a 9545 a0bd f549 283e 1bf0 9c3d
000003d0: 160d 7cbd 6984 83ba 0ec1 fd3c 1bcc f83c
000003e0: 4611 c6bd 1f7f 033e ad23 093e 8f9d dbbb
000003f0: f7a9 ee3d 26f0 943d 9ab2 40bd ff53 8f3d
-0.022249362 -0.028744686 0.12502745 -0.012624686 0.07467232 0.008319575 0.10159157 0.025297817
0.042373184 -0.044007003 0.003009551 0.14976858 -0.08356814 -0.09135392 0.02217319 -0.023310259
0.054628085 0.024150396 0.03016842 -0.021754885 0.09689848 0.068621784 -0.12108416 -0.097053915
0.068157524 0.020434765 -0.15612446 -0.1350439 0.049741574 -0.17588872 -0.01599684 0.16843772
-0.0073502837 0.030079553 0.005357898 0.106576376 0.06551337 0.04154772 0.105427675 -0.12399751
-0.02464472 0.08122991 -0.015857702 -0.014636606 0.14999531 0.07233136 -0.05972839 -0.052133746
-0.05538719 -0.017166065 -0.063436925 0.07117382 -0.0152245695 0.004795429 0.13916072 -0.21747406
0.06394727 -0.084839374 0.1902875 0.0835196 -0.07517116 0.11280574 0.11943539 -0.014126323
0.20443681 -0.0019738455 0.14209199 -0.006415058 -0.0031872902 0.029693242 -0.035483044 0.06701837
-0.11447005 0.08172896 0.12256165 -0.012465649 0.00062646315 -0.073959865 -0.018677725 -0.07676569
0.015837766 -0.116149046 0.051768355 0.08348502 0.036354784 -0.053638414 0.075822026 -0.065674745
-0.052380145 0.007813791 -0.15445156 0.08404086 0.10410275 0.048038356 -0.024309987 -0.028181296
-0.09188674 0.007865027 -0.023603642 -0.13898282 -0.0149127785 0.0065415604 0.06281647 -0.123119876
0.17620285 0.10538276 -0.0017215279 -0.030371688 0.084269136 -0.08446635 0.037925746 0.05824103
0.09664044 -0.25171188 0.04735957 -0.071523115 -0.02557609 -0.046428032 -0.025281223 -0.029926324
0.05515469 -0.15108433 0.1187758 0.011242823 0.087942354 -0.015148293 0.03956806 -0.021922901
0.072240956 -0.1761255 0.05736714 -0.07062889 -0.06505064 0.024506463 0.14025046 0.004553325
0.02614677 0.08300998 -0.1657758 -0.14061914 0.0013982342 -0.12836303 -0.060121614 -0.037445586
0.072012484 -0.11842376 -0.06793197 -0.06098234 -0.11433781 0.009350001 0.013412254 0.07062134
-0.055058282 0.08842425 -0.09380571 -0.15411785 0.13177067 0.12556835 0.108568996 0.038284056
-0.05017395 -0.0024318285 0.027809909 0.15472266 0.060847282 -0.14444417 0.026721131 0.1488335
-0.044002306 -0.013044468 -0.04189198 0.12653686 -0.1014049 -0.07738534 -0.056415442 -0.03746821
-0.12138346 -0.105876304 0.0030346795 -0.18237738 -0.041631497 -0.056796297 -0.07597927 0.19417517
0.043508347 -0.021660285 0.007415957 0.020462634 0.021931948 0.033240944 0.08367109 -0.052306857
0.1067759 0.07543936 0.0122036245 -0.08787794 0.09818421 -0.0042380984 -0.050384685 0.045591526
-0.13316853 0.0307674 -0.118377574 -0.003110534 0.11107118 -0.109394655 -0.12155685 -0.026437322
0.08189559 -0.034752306 0.055273205 -0.030899428 -0.09052107 0.07098746 -0.009466595 -0.03333685
-0.08909389 0.009335292 0.017404087 -0.13550408 -0.012942987 0.10067733 -0.047549598 0.12786421
0.012630793 -0.0052526863 0.1498361 0.04472262 -0.12393114 -0.016349282 -0.08645237 0.03920687
0.018493755 0.19808213 -0.13317329 0.08108313 0.04778932 -0.05026293 -0.0652914 0.0675533
0.0012884714 -0.07825772 0.16434462 0.07662984 -0.061535917 -0.0010033968 0.030975845 0.030370763
-0.096712634 0.12841462 0.13392515 -0.006702132 0.11653512 0.07272367 -0.047045328 0.06998443

network.9.bias f4 [63]
00000000: a96c fc3e 06eb fb3e 63df fc3e ea0e 223f
00000010: e38c 023f 6596 f03e ba56 fb3e 4409 f23e
00000020: 13fa 053f c418 303f af09 fd3e 5f09 fd3e
00000030: 99ce 053f 9d82 fb3e 40b2 133f 8cca 093f
00000040: 5a5c ef3e 8b27 e63e d3ae ff3e 3508 f83e
00000050: 25d3 1a3f 71fe 0d3f 3c13 f53e 491b 033f
00000060: 59bd f03e e48f fa3e 02c5 0c3f 09c7 f93e
00000070: 89c0 f83e 634b fa3e 10ff f83e 93c3 0a3f
00000080: 6042 ef3e 7066 f43e b02b 193f 5c75 063f
00000090: 5c6e fd3e 683e e93e 1068 e83e 00c6 f73e
000000a0: 11b5 073f 5f93 113f 18c2 073f 48aa 033f
000000b0: 2bef 013f a4d3 f73e 4e6c f43e 59cb e53e
000000c0: f5fe f63e f375 f53e 3979 ff3e a91b f33e
000000d0: ece2 f43e c08d ee3e 4dff ee3e beef 0b3f
000000e0: 4c63 f33e 710e f43e 91ad f83e 44d3 f53e
000000f0: 919d 0d3f 737e 003f 6453 ed3e
0.4930165 0.49202746 0.4938918 0.6330401 0.50996226 0.46989742 0.49089605 0.47272694
0.5233471 0.6878779 0.4942145 0.49421212 0.5226837 0.49123088 0.5769386 0.53824687
0.46750146 0.44952044 0.49938068 0.4844376 0.6047843 0.5546637 0.47866237 0.5121351
0.4701946 0.48937905 0.5498811 0.48784664 0.48584393 0.4888564 0.48632097 0.5420467
0.46730328 0.47734404 0.59832287 0.52522826 0.4949826 0.45555425 0.45391893 0.4839325
0.5301066 0.56865495 0.5303054 0.51431704 0.50755566 0.48403656 0.4773888 0.44881704
0.48241392 0.4794155 0.49897173 0.4748204 0.47829378 0.46592522 0.46679154 0.5466269
0.47536695 0.47667268 0.4856992 0.48012745 0.5531855 0.50192946 0.46352684

network.10.running_mean f4 [63]
00000000: 5587 203f a6de 033f a28e cc3e d9d5 283f
00000010: 3004 e83e d9c9 ed3e b0ac ee3e 6999 ff3e
00000020: 9f86 d03e 2585 463f caae ad3e a035 f13e
00000030: 1743 043f 04fd 013f e3ea 373f 8acb 053f
00000040: 9884 2f3f ddf6 d13e 8545 b63e d680 8e3e
00000050: 25ec 2b3f adda d83e 2e3d 0a3f 8987 b63e
00000060: 194b 003f b393 e93e 832e ff3e ff95 ee3e
00000070: b745 1b3f f515 233f ce7e b53e 1cb1 e93e
00000080: 06d9 b73e e1c4 1a3f a1ea e03e eada 013f
00000090: 04b3 db3e cf27 043f 50a1 1c3f 01b3 fb3e
000000a0: bddd 1b3f 31a3 443f b062 9d3e 45e8 dd3e
000000b0: 269e 243f ec7b e63e 4616 e73e 3671 203f
000000c0: 3f31 c23e c4f6 173f 0aaa 043f 7745 093f
000000d0: d3bf 173f 8663 283f 8f61 f23e eb37 0b3f
000000e0: 7dae 303f 7797 9a3e 8a6a b83e b039 103f
000000f0: 2af9 213f afad eb3e 6658 073f
0.627065 0.5151161 0.3995257 0.65951306 0.45315695 0.4644306 0.46616125 0.4992173
0.40727708 0.7754691 0.33922416 0.47111225 0.5166487 0.50776696 0.71842784 0.522637
0.68561697 0.41008654 0.35599914 0.2783267 0.671572 0.42354336 0.539996 0.3565028
0.5011459 0.45620498 0.49840173 0.46598813 0.6065325 0.6370538 0.35448307 0.45642936
0.35907763 0.60456663 0.43929008 0.5072466 0.42910016 0.51623243 0.61183643 0.49160007
0.6088522 0.7681151 0.30739355 0.4334127 0.64303815 0.4501642 0.4513418 0.62672746
0.37928197 0.5936091 0.5182196 0.5362162 0.59277076 0.6577686 0.47340056 0.543822
0.6901625 0.30193684 0.36018783 0.56338024 0.6327082 0.46030948 0.5286926

network.10.running_var f4 [63]
00000000: 0fb0 a53e 9f02 893d 546d 5c3e 8865 163e
00000010: 6684 ac3d be12 483e 22ec e03d 9b7f c83d
00000020: 8cd0 633e f0d0 683e 0aeb b23e 785d a03e
00000030: ec63 013e 7fc0 f43d 83ae 3c3e 6c3e 323e
00000040: 9530 6b3e 539a e53d 845f ea3d db4c 153e
00000050: 330a 123e 4a98 443d 7e15 ac3d 5214 da3d
00000060: 8718 373e 97be 333e 934d d93d fcd2 223e
00000070: 93dc c93d c89d c93d 800c 043e 2627 1a3e
00000080: 0fbf 583e c6f0 db3d e59f 5d3e e685 5a3e
00000090: 100f 323e f567 af3e 215f 383e 0286 ae3d
000000a0: 3bad 013e ecb2 0d3e 2110 4b3e 05e0 983d
000000b0: 6b30 133e 2e3f a53e a095 483e 6632 153e
000000c0: aa5f 3a3e dea0 f03d 41f3 f33d ee5f 143e
000000d0: ce1d c33d d9ea 183e 163e 253e 9832 0d3e
000000e0: 7968 763e cddf 2e3e 1e91 633e 2dcd 0b3e
000000f0: d04b a53e c9e0 9b3e ee29 433e
0.32360885 0.06689953 0.2152608 0.14687169 0.084236905 0.195384 0.10982539 0.09789964
0.22247523 0.22735953 0.34944946 0.3132131 0.12635773 0.11950778 0.18425946 0.17406625
0.22967751 0.11211076 0.114439994 0.145801 0.14261703 0.047996797 0.08402537 0.10648407
0.1788045 0.17553173 0.10610499 0.15900797 0.09856524 0.098445475 0.12895393 0.15053996
0.21166633 0.10739283 0.21643026 0.2134014 0.17388558 0.34259 0.18005039 0.08521654
0.12663738 0.13837785 0.19830371 0.07464603 0.14373939 0.32274765 0.19588327 0.14570007
0.18200555 0.11749433 0.119116314 0.1448972 0.09527169 0.14933337 0.16136965 0.13788831
0.2406329 0.1707756 0.22223327 0.13652487 0.32284403 0.30444935 0.19058964

network.12.weight f4 [63, 63]
00000000: 1a93 f5bd c3a2 133c 5be4 4b3e cc6b f63d
00000010: 66f9 95bd 5569 ecbd 3cfd 07bd 1b9e 1bbd
00000020: 9030 b9bc 1a92 ad3d a00e 93bc b0a6 e13c
00000030: 1f9f cabd 8964 d13c 26d4 19bd 2e65 843d
00000040: 4628 d33d 9891 0dbe 6aa4 243d e4e5 053d
00000050: 723b 8a3c 99fb 053e 0012 b4bb 5262 5b3d
00000060: 4b17 33bd 2d28 093e adbb 4ebd 119b 83bc
00000070: b113 373d 4671 3d3d 9773 c73d ebd7 3d3d
00000080: 2de2 3d3c 9ced 9dbd e0e6 fb3d 7060 1e3e
00000090: 9a02 953c 32ac 4f3d 6b91 94bd b8f8 873d
000000a0: ad06 7d3a 1663 14be 9ef0 dd3c acd8 37bc
000000b0: 90ad e1bd 5b17 473e d3c0 163e 29ec 0cbe
000000c0: f9f7 0a3e a27c 9e3d 5cb6 8f3c 2475 09bd
000000d0: a743 0abc 15d4 efbd aee2 debd a0fd 8e3d
000000e0: 7840 f23d 5525 c5bd 4fb8 15bb 8433 693d
000000f0: f99d d63d d4b5 3ebd a8a4 9abb 90df f3bd
00000100: c6e8 263d c1a2 f13d 0b11 98bc 546c c33b
00000110: ac07 57bd 5822 013e d1b7 b3bc 00af c03d
00000120: 4038 e43d 7835 c43c 1bf2 02bd 27e3 5e3e
00000130: 89ae b3bd cf64 e2bc f49d 233d 4c80 3a3d
00000140: 403a 093e 483e 013c b667 2c3d ca1d 403d
00000150: 891d b6bc e10a eb3b a660 15be 8e64 f2bb
00000160: 059d e8bd 1283 d4bd 3971 0a3d 241b 9ebd
00000170: 40d3 cb3c 4e40 723e f3d4 debd e23f e5bd
00000180: 7418 e2bc 2685 783d 0973 1fbd ea9f 9f3c
00000190: b3fe 96bd da64 e63c 19e4 af3d 32d2 49bd
000001a0: 57c5 163c afb4 64bc 1f03 c8bb c412 94bd
000001b0: b488 daba 96db 4a3e 4e66 d4bd 7932 a63d
000001c0: 5b05 243e 55f5 edbc 7273 aa3d 017d 953d
000001d0: a89b f13d a048 4d3d 2d1e a43d 5e3a ccbd
000001e0: cde8 33bc 37ac 57bd 040f 733a d511 84bd
000001f0: 8fd6 54be 301e 093e 1c35 b9bd 254b abbc
00000200: 626e 243d 0cb1 373e e998 76bd 57b8 9c3d
00000210: fd09 f7bc ea13 a43d 262d 103d 73dd 8b3d
00000220: d14e 093e af47 86bd e484 cebc a9fd f5bd
00000230: 0655 333d 7877 78bb d55c f33d 6e16 a83b
00000240: 87c8 d3bd 0370 1d3e ab5f 253e 338c 863d
00000250: 9527 5c3c 6c42 a9bc df72 38be 1b46 003e
00000260: 9279 033e 1665 1d3d 7a71 b93d ac25 0abc
00000270: a586 67bd df52 f9bb 58a1 19bd f23f 69bd
00000280: d9d3 10bd 9cc0 4b3d ab0e 873d 03a4 fdbd
00000290: 72f7 90bd acb0 dc3d f108 3a3d 817a 073e
000002a0: 8597 193c 8930 debc b41c babd 8e65 0fbe
000002b0: b0b0 b6bd 14b5 5f3d e77b f73d a2d6 9f3b
000002c0: 06cd 8f3d aee9 d5bd c3cf d3bc ab65 fabc
000002d0: 2a0e c8bd 12e5 40bd 53b8 1c3c 32de 583d
000002e0: b0d6 a23d 6baf 0abe 5ebb d63d 292a 793d
000002f0: f11f dc3d e4c5 51bd 4a2a b2bd b11a 44bd
00000300: 9a18 103e dc57 8d3d a5fa 6b3d 36a7 b33b
00000310: d2e8 b23c c5cc abbd 81c1 d83d 0da0 873e
00000320: f7d6 e8bd dd4b 7f3d 97c7 f439 0857 a5bc
00000330: e4dd ac3d e16b 843d b983 e0bd c79a c93c
00000340: 15b2 c63c 66a2 e53d f8c0 6fba a506 86bb
00000350: a25f 48bd 25b9 f2bd b4b7 033e 9d1c 2dbb
00000360: a5b1 06be cb44 32bd 1180 6abc bf9d 4cbd
00000370: a909 94bc 61a1 84bd ecbf 3b3d ef8b 1d3e
00000380: de79 8a3d 6ce0 cc3d 5ccf a7bd e71b c2bd
00000390: 1aa7 a03d 480b 77bd f32c bb3d 9104 1cbe
000003a0: 454b dbbd bb7c cd39 0f0b fbbc f055 debc
000003b0: b396 873d 0a19 bc3d 3922 30bd 7c6f f0bc
000003c0: a49f f6bc 621f a23d 9bdd 7b3d b718 a1bd
000003d0: dac2 0b3e 9ceb 70bd 30cb f7bd e76a b13d
000003e0: 0e5f 08be 674d 633d a07d 453e f417 fe3d
000003f0: b7f5 0f3e ce79 983c bf6f 35bd 37ee 56bd
-0.11990948 0.009010973 0.1991133 0.12032279 -0.073229596 -0.11543528 -0.033200487 -0.037992578
-0.022606164 0.08475132 -0.01795131 0.027545303 -0.09893631 0.025560634 -0.037555836 0.06464611
0.10310416 -0.13825071 0.04019586 0.032689944 0.016874049 0.13084258 -0.00549531 0.053560562
-0.043723386 0.13394232 -0.05047195 -0.016065152 0.044696514 0.046250604 0.09738844 0.046348494
0.011589569 -0.07711336 0.12299895 0.15466475 0.018189717 0.050701328 -0.07254299 0.06639236
0.0009652179 -0.14490923 0.027092274 -0.011221092 -0.110194325 0.19442503 0.14721994 -0.13761963
0.13571157 0.077386156 0.01754301 -0.03355898 -0.008438981 -0.11710373 -0.108830795 0.06981969
0.11828703 -0.09626261 -0.0022845452 0.056933895 0.1047935 -0.046560124 -0.0047193356 -0.119078755
0.040749334 0.11798621 -0.018562814 0.0059638415 -0.05249755 0.12610757 -0.021938236 0.094083786
0.11143541 0.023951277 -0.03196917 0.21766339 -0.08773524 -0.02763596 0.039945558 0.04553251
0.13401127 0.007888384 0.042091094 0.04690341 -0.02223088 0.0071729277 -0.1458765 -0.007397241
-0.11358074 -0.10376562 0.033799384 -0.077200204 0.024881005 0.23657343 -0.108804606 -0.11193825
-0.02759955 0.060673855 -0.038928065 0.019485433 -0.07372799 0.028124262 0.08588428 -0.049272723
0.009202323 -0.013959094 -0.0061038877 -0.07230142 -0.0016672821 0.19810328 -0.103710756 0.08115096
0.16017668 -0.029047647 0.08322801 0.07299233 0.11797267 0.05011809 0.08013568 -0.0997207
-0.010980797 -0.05265447 0.0009271952 -0.06448714 -0.20784973 0.13390422 -0.09043333 -0.020909855
0.04014433 0.17938632 -0.06020442 0.076523475 -0.03015613 0.08011611 0.035199307 0.068293475
0.13408972 -0.06556641 -0.025209852 -0.120112725 0.043782257 -0.0037913006 0.11882941 0.005129627
-0.10340982 0.1537476 0.16149776 0.0656971 0.0134371715 -0.020661555 -0.1801257 0.12526743
0.12839344 0.03842648 0.09054847 -0.008431833 -0.05652489 -0.007608756 -0.037507385 -0.05694575
-0.035358284 0.049744233 0.065945946 -0.123847984 -0.070784464 0.10775885 0.045418683 0.13230325
0.009374504 -0.027122753 -0.09087506 -0.14003584 -0.08920419 0.05461605 0.12084179 0.004877881
0.07021527 -0.104449615 -0.025855904 -0.030566057 -0.097683266 -0.04709346 0.009565431 0.052946277
0.07951105 -0.13543479 0.10484956 0.060831223 0.1074828 -0.051214114 -0.08699472 -0.047877017
0.14071885 0.069015235 0.05761208 0.0054825796 0.021839533 -0.08388666 0.10583783 0.26489297
-0.11369126 0.06232821 0.00046688013 -0.020183101 0.0844076 0.06465889 -0.10962624 0.024609936
0.024254838 0.11212616 -0.0009145881 -0.0040901476 -0.048919328 -0.1185172 0.12863046 -0.002641476
-0.13153704 -0.043522637 -0.01431276 -0.049955126 -0.018071013 -0.06476093 0.045837328 0.15385412
0.067615256 0.100037426 -0.081938475 -0.09477978 0.07844372 -0.060313493 0.09139433 -0.15236117
-0.10707716 0.00039193578 -0.030644922 -0.027140588 0.066205405 0.09184463 -0.043001387 -0.029350035
-0.03010542 0.07916142 0.061490636 -0.07866042 0.13648549 -0.058818445 -0.12099302 0.08662968
-0.1331751 0.05549374 0.19286203 0.124069124 0.14058577 0.018612769 -0.044296023 -0.052473273
