src/runs/ann_left_hand/20241105/20241105-1427/ann_left_hand_3_layers_best.pth (torch, 143302 bytes, 26 tensors)

network.0.weight f4 [63, 126]
-0.045663577 -0.13998824 -0.011347764 0.009218243 0.047599155 -0.07676776 -0.084259905 0.024399033
0.08747331 0.050353874 0.027577816 0.041144747 0.044219617 0.070841685 0.019591162 0.0077084447
0.017366795 0.09767906 0.080121525 0.10403729 0.025932364 0.08877249 0.01621991 0.03413807
-0.032043416 -0.044208232 0.044567477 -0.09418079 0.035545304 0.06150965 0.08208922 -0.025967088
0.035485547 0.06297739 0.11205401 0.040250078 -0.039558265 -0.051164914 0.03299531 0.04343524
-0.029114308 -0.022052197 0.008376758 0.04800267 -0.15146834 -0.0651184 -0.038938243 -0.2607587
-0.10100632 -0.097857594 -0.02620624 -0.18624881 -0.13602808 -0.034512088 -0.047847126 -0.08557313
0.01135127 -0.07377846 0.017069716 -0.008368024 0.003607468 0.045425177 0.02309786 0.11577727
0.12986304 0.058994923 -0.021433758 -0.025592962 -0.1793389 -0.051447187 -0.044749647 -0.0894562
-0.15486167 -0.031378597 -0.09524218 -0.14786763 -0.17247838 -0.03539981 0.0035154705 -0.15262486
-0.124561734 -0.16023427 -0.08263069 0.005510476 0.0888319 0.049234092 -0.03526526 -0.051462397
-0.025516458 0.11158553 -0.04531186 -0.0018180463 0.037400443 0.11901705 0.00044019913 0.03770572
0.04339335 0.058284573 0.17458355 0.02332902 -0.024165172 0.014631538 0.09035525 -0.00935441
0.01944695 -0.08638183 0.07580771 0.10745959 0.046878308 0.046044216 0.0656185 0.02861846
0.021727277 0.05591462 0.021985639 0.11511005 0.071867526 0.060467415 -0.019770717 -0.041591395
0.039814685 0.017357863 0.109528504 -0.018536057 -0.040629137 0.045846283 -0.23757087 0.0037494986
-0.029570574 -0.0016182876 0.04206553 -0.014789483 0.0062573776 0.0021399993 -0.008373469 0.079062246
0.010671541 0.015406044 0.050334502 0.06162196 0.13216797 0.14838602 0.12146805 0.08357312
0.067239575 0.20252234 0.10160854 0.00409632 -0.031101853 -0.099110775 0.012021994 -0.03572247
0.035902407 0.031199925 0.08678579 0.031681865 0.030252831 0.06549506 -0.0040163402 0.05693602
-0.0052451035 -0.061591946 0.00065617426 -0.014451388 -0.17051733 0.000937533 -0.043550994 0.035706844
-0.13312529 -0.025979897 0.10330067 0.05857993 0.01047672 0.029475411 0.024959931 0.0318024
0.025025459 -0.0051047322 -0.0033441186 -0.0056864186 -0.010876722 -0.039890945 -0.14405042 -0.13744394
-0.037464704 -0.08686017 -0.116495274 -0.22745633 -0.09763884 -0.14430065 -0.022452494 0.051474694
-0.042776953 0.030373175 -0.02141603 0.003966696 0.04310099 0.095366836 -0.042970356 0.030677428
0.01902305 0.077437595 -0.020217713 -0.06657251 0.028958354 0.045770764 0.0018535623 0.07682874
0.010405968 -0.037716873 0.08301405 0.035387095 -0.017755013 -0.064158715 -0.035263542 -0.028741844
-0.00035283377 -0.030383548 0.010096586 -0.007700736 -0.05519452 0.019648643 -0.056334775 -0.08088765
-0.16480123 -0.10455438 -0.04161279 -0.12032963 -0.086859696 -0.02294278 -0.030025313 0.13744164
0.16877995 -0.015168384 0.039068658 -0.011081202 0.029919876 -0.0058331965 -0.04362826 0.005054745
0.063966595 -0.062362377 0.007838537 -0.07367151 -0.09951424 -0.026472406 -0.13071755 -0.08633697
-0.14110626 -0.1059488 -0.13626201 -0.06261377 -0.07943354 0.064666696 0.07826594 -0.081959106
00000000: bb09 3bbd 1459 0fbe f9eb 39bc 1d08 173c
00000010: 55f7 423d 6a38 9dbd 7590 acbd 7be0 c73c
00000020: 3525 b33d dd3f 4e3d dfea e13c 6587 283d
00000030: a11f 353d 7215 913d a57d a03c 1f97 fc3b
00000040: cf44 8e3c f60b c83d c116 a43d 8111 d53d
00000050: 1c70 d43c 5ace b53d 9edf 843c 5cd4 0b3d
00000060: f53f 03bd b113 35bd 638c 363d dce1 c0bd
00000070: f497 113d 8bf1 7b3d 651e a83d eeb8 d4bc
00000080: 4b59 113d 4afa 803d 937c e53d 44dd 243d
00000090: d907 22bd 4d92 51bd 1726 073d 26e9 313d
000000a0: 2181 eebc cfa6 b4bc ab3e 093c 739e 443d
000000b0: 841a 1bbe cc5c 85bd b57d 1fbd 2a82 85be
000000c0: 67dc cebd 9069 c8bd 78ae d6bc 02b8 3ebe
000000d0: f24a 0bbe 8c5c 0dbd 59fb 43bd f740 afbd
000000e0: adfa 393c 2919 97bd cad5 8b3c 091a 09bc
000000f0: 456b 6c3b c00f 3a3d b937 bd3c a21c ed3d
00000100: d1fa 043e a9a4 713d d995 afbc 55a8 d1bc
00000110: 9ea4 37be 49ba 52bd 684b 37bd d034 b7bd
00000120: 0f94 1ebe d886 00bd 550e c3bd 9d6a 17be
00000130: 2c9e 30be 64ff 10bd cf63 663b b149 1cbe
00000140: 391a ffbd 7414 24be 473a a9bd 3991 b43b
00000150: 80ed b53d b0a9 493d 4e72 10bd 3cca 52bd
00000160: e407 d1bc f486 e43d ee98 39bd 834b eeba
00000170: 3531 193d 36bf f33d 87ca e639 5071 1a3d
00000180: 3abd 313d cebb 6e3d 08c6 323e 801c bf3c
00000190: 0af6 c5bc 1eb9 6f3c 2c0c b93d 3d43 19bc
000001a0: 364f 9f3c f5e8 b0bd 1341 9b3d c613 dc3d
000001b0: 7803 403d dc98 3c3d fe62 863d 4371 ea3c
000001c0: 67fd b13c bb06 653d 3a1b b43c d1be eb3d
000001d0: 482f 933d aeac 773d 33f6 a1bc bd5b 2abd
000001e0: b914 233d 1432 8e3c 7b50 e03d eed8 97bc
000001f0: bd6a 26bd 50c9 3b3d c745 73be 26ba 753b
00000200: fd3d f2bc b91c d4ba e84c 2c3d 964f 72bc
00000210: b00a cd3b 3b3f 0c3b e030 09bc 63eb a13d
00000220: b0d7 2e3c a269 7c3c 8d2b 4e3d 4f67 7c3d
00000230: 0a57 073e 81f2 173e 3ec4 f83d 6228 ab3d
00000240: e7b4 893d 0462 4f3e 2318 d03d 6c3a 863b
00000250: 50c9 febc 97fa cabd e6f7 443c ba51 12bd
00000260: 670e 133d fc96 ff3c c0bc b13d d8c4 013d
00000270: c9d4 f73c 4622 863d 819b 83bb be35 693d
00000280: 1edf abbb d647 7cbd 1c03 2c3a 84c5 6cbc
00000290: 189c 2ebe c6c4 753a 8762 32bd 5741 123d
000002a0: ff51 08be cbd3 d4bc 4d8f d33d 82f1 6f3d
000002b0: 8ca6 2b3c 6b76 f13c c578 cc3c 3c43 023d
000002c0: 3102 cd3c 9945 a7bb 0029 5bbb 2355 babb
000002d0: 4734 32bc b064 23bd f481 13be 1bbe 0cbe
000002e0: 9774 19bd bfe3 b1bd 1395 eebd 50ea 68be
000002f0: dff6 c7bd 8dc3 13be 4bee b7bc 21d7 523d
00000300: e336 2fbd 2ad1 f83c ac70 afbc 0ffb 813b
00000310: aa8a 303d b04f c33d af01 30bd 3b4f fb3c
00000320: 3ad6 9b3c 9a97 9e3d 9e9f a5bc 2b57 88bd
00000330: 123a ed3c 207a 3b3d 3bf3 f23a 6358 9d3d
00000340: cb7d 2a3c 027d 1abd 4503 aa3d 0ff2 103d
00000350: f672 91bc a565 83bd 8170 10bd 0474 ebbc
00000360: 8cfc b8b9 ebe6 f8bc 276c 253c 7556 fcbb
00000370: a613 62bd 31f6 a03c 4bbf 66bd 6da8 a5bd
00000380: a7c1 28be 9b20 d6bd 2c72 2abd 626f f6bd
00000390: 7fe3 b1bd 7ff2 bbbc a5f7 f5bc 80bd 0c3e
000003a0: a7d4 2c3e d084 78bc 7506 203d ee8d 35bc
000003b0: 871a f53c 6624 bfbb 8cb3 32bd 46a2 a53b
000003c0: eb00 833d b16f 7fbd 356d 003c 17e1 96bd
000003d0: 1fce cbbd a9dc d8bc d2da 05be 70d1 b0bd
000003e0: 297e 10be affb d8bd 4588 0bbe a63b 80bd
000003f0: 0dae a2bd f96f 843d e549 a03d 2dda a7bd

network.0.bias f4 [63]
0.33967763 0.52551675 0.5125455 0.3914532 0.33995506 0.56316286 0.46246377 0.56109977
0.46678287 0.365068 0.5085851 0.54029137 0.46817172 0.48377454 0.281574 0.40858167
0.5497461 0.4986902 0.14592075 0.32110944 0.3974603 0.47703716 0.44167325 0.18036091
0.22826403 0.60914475 0.30763084 0.4824499 0.29565844 0.4498426 0.5088136 0.20998119
0.6074045 0.3730154 0.30321816 0.5256356 0.5484314 0.2179497 0.33970064 0.3871737
0.42118895 0.4941607 0.7884809 0.51987064 0.39607912 0.50152314 0.6776105 0.5696705
0.493953 0.3387371 0.253609 0.52772814 0.23601805 0.7099763 0.4073744 0.41161454
0.10126728 0.48098335 0.32882848 0.41748703 0.5625782 0.10746718 0.45934516
00000000: 3aea ad3e 4488 063f 2f36 033f 8e6c c83e
00000010: 970e ae3e 712b 103f 0dc8 ec3e 3ca4 0f3f
00000020: 2afe ee3e 31ea ba3e a232 023f 8950 0a3f
00000030: 34b4 ef3e 4cb1 f73e 782a 903e 9e31 d13e
00000040: 29bc 0c3f 5254 ff3e 406c 153e 7568 a43e
00000050: eb7f cb3e 373e f43e ff22 e23e 88b0 383e
00000060: 0cbe 693e e9f0 1b3f ca81 9d3e ac03 f73e
00000070: 8b60 973e c551 e63e 9c41 023f 4f05 573e
00000080: dc7e 1b3f e0fb be3e 693f 9b3e 0e90 063f
00000090: 0066 0c3f 352e 5f3e 3eed ad3e a23b c63e
000000a0: 14a6 d73e a202 fd3e e2d9 493f 3e16 053f
000000b0: e2ca ca3e d263 003f e277 2d3f edd5 113f
000000c0: 68e7 fc3e f36e ad3e 0ad9 813e 3119 073f
000000d0: b7ae 713e 02c1 353f 6193 d03e 24bf d23e
000000e0: 3865 cf3d 7343 f63e 355c a83e dcc0 d53e
000000f0: 2005 103f c117 dc3d 4a2f eb3e

network.1.running_mean f4 [63]
0.85910034 -0.018769363 0.17922604 0.77694607 1.0763257 0.6567359 -0.1427637 0.25938028
0.41697556 0.67546004 -0.15172791 -0.6888708 -0.49748877 -0.743138 0.17450844 0.6340622
-0.011759964 0.4438911 0.29522005 0.8709625 0.97624207 -0.107109234 0.38794604 0.52585655
0.38432387 -0.13778593 1.4807755 0.41531625 0.46856368 -0.122625746 -0.07670289 0.50259846
-1.0146104 0.4519831 1.2353066 0.5738388 1.1571224 0.24421051 0.8815891 -0.008585056
0.6158072 1.2431452 0.6835219 -0.67990273 0.48610502 0.48591942 -0.099335626 1.1073458
0.03316761 0.37266985 0.15776879 -0.13601708 0.87633985 0.45481333 1.0752213 1.4739397
0.9382558 0.3227052 0.72489357 0.78515005 1.7193223 0.7296243 0.66542256
00000000: 00ee 5b3f 35c2 99bc 0887 373e f0e5 463f
00000010: 0ac5 893f d81f 283f a630 12be 7ecd 843e
00000020: d27d d53e f3ea 2c3f 905e 1bbe d659 30bf
00000030: d9b6 febe 4b3e 3ebf 57b2 323e e651 223f
00000040: ddac 40bc b245 e33e 1527 973e 66f7 5e3f
00000050: 00eb 793f 165c dbbd dda0 c63e 899e 063f
00000060: 19c6 c43e c117 0dbe 0d8a bd3f 55a4 d43e
00000070: 94e7 ef3e 3523 fbbd 6816 9dbd 4baa 003f
00000080: c1de 81bf 546a e73e 871e 9e3f 19e7 123f
00000090: 961c 943f 5212 7a3e d3af 613f 56a8 0cbc
000000a0: 8aa5 1d3f 621f 9f3f 4bfb 2e3f 1b0e 2ebf
000000b0: c2e2 f83e 6eca f83e 7a70 cbbd 82bd 8d3f
000000c0: c3da 073d 95ce be3e 248e 213e 1048 0bbe
000000d0: cf57 603f 4bdd e83e daa0 893f 0eaa bc3f
000000e0: 8831 703f 9e39 a53e a092 393f 98ff 483f
000000f0: c112 dc3f a8c8 3a3f 2259 2a3f

network.1.running_var f4 [63]
0.0035127497 0.005035337 0.002534044 0.0018046652 0.0052387128 0.0041801967 0.006257138 0.004584152
0.0011743235 0.0039607137 0.0025568386 0.005065371 0.005103304 0.0057282033 0.003263465 0.0074622193
0.0024748999 0.0027197285 0.0023370325 0.0025215049 0.0029618652 0.0059599797 0.0022595886 0.001534978
0.0009959114 0.0023703463 0.0034021963 0.006061991 0.0020600413 0.0008668403 0.0024524848 0.0023124802
0.004833054 0.002078733 0.004132174 0.0043404503 0.004347877 0.002559423 0.002438389 0.003444881
0.00242058 0.0038920746 0.0040078373 0.0037101263 0.0018814564 0.0027122446 0.0031579123 0.0036564588
0.0039998423 0.0044263597 0.0018048038 0.0068584965 0.0037287802 0.0015551489 0.00558771 0.005537568
0.0047070473 0.0039196755 0.0041031674 0.0045480854 0.0075672865 0.001823367 0.002629989
00000000: 2936 663b 78ff a43b 3412 263b 848a ec3a
00000010: 82a9 ab3b 08fa 883b ae08 cd3b a736 963b
00000020: c2eb 993a e0c8 813b a290 273b 69fb a53b
00000030: 9e39 a73b a7b3 bb3b dbdf 553b a285 f43b
00000040: ee31 223b 793d 323b e628 193b d53f 253b
00000050: da1b 423b ef4b c33b 9b15 143b 5131 c93a
00000060: 3e89 823a d057 1b3b 62f7 5e3b aba3 c63b
00000070: c201 073b ab3c 633a deb9 203b fb8c 173b
00000080: 985e 9e3b 5a3b 083b 3067 873b 563a 8e3b
00000090: a378 8e3b febb 273b 61cd 1f3b 83c3 613b
000000a0: 98a2 1e3b 2d12 7f3b 2d54 833b 9725 733b
000000b0: 339b f63a eabf 313b faf4 4e3b 33a1 6f3b
000000c0: 1c11 833b ff0a 913b 2b8f ec3a 3dbd e03b
000000d0: 8d5e 743b 23d6 cb3a 1c19 b73b 7d74 b53b
000000e0: 933d 9a3b 9f70 803b dd73 863b 1b08 953b
000000f0: 00f7 f73b 0bfe ee3a e55b 2c3b

network.3.weight f4 [63, 63]
-0.07622271 -0.102096885 -0.0044529624 -0.09313205 -0.11094135 -0.04247445 0.038917176 0.0290008
0.02623331 -0.12418871 0.04288062 0.06729762 -0.050477754 0.06865057 0.11137924 -0.09479854
0.12031379 0.021062987 0.023737958 0.017679015 0.013452629 -0.07257057 0.0539657 -0.12432789
-0.015643718 0.06956396 0.12267893 -0.17069666 -0.1402591 0.021094551 -0.013285593 0.042643543
-0.10369784 -0.026221115 -0.02714149 0.034704275 -0.051838454 -0.17077072 0.116523914 -0.092846245
-0.010021229 0.039296966 0.14464392 0.09163029 -0.021962337 -0.07554841 -0.06435926 0.17159313
-0.011071855 0.03655382 -0.11717579 -0.19672948 0.03537293 -0.011184112 0.101779014 -0.1730853
-0.079761624 0.047026776 -0.04180918 -0.00039843685 0.099120505 0.097078376 -0.04822221 -0.08508089
0.110511035 0.009238093 0.06543033 -0.10243564 -0.12683149 0.1453896 0.0057074293 0.1433792
-0.11196446 -0.07863737 -0.04730681 0.07382495 0.0031429883 -0.0638464 0.013189759 -0.051347546
0.028510556 0.022024244 0.08166325 0.10764289 -0.006568059 -0.06298719 -0.04829241 -0.087240286
-0.058235515 -0.037789445 -0.044644702 -0.014538226 0.07383125 0.0998537 -0.08625683 0.040885583
-0.043822747 0.09226861 -0.0046920534 -0.116943054 -0.029439956 -0.028947959 0.03196586 -0.11028217
0.0806903 -0.0016597325 -0.041619234 0.1662997 0.049104 0.15263362 -0.014602547 -0.1308657
-0.091033205 0.10411715 -0.121352226 0.06770943 0.08312891 -0.18749972 0.08999726 -0.07851198
-0.018853111 -0.024459332 0.1332853 -0.06870036 0.017873233 -0.06585826 -0.04086012 0.048641097
-0.061618194 0.009220965 -0.09810562 -0.084710404 -0.16233286 0.019894406 0.12337098 -0.10986469
-0.14035226 -0.02813615 -0.012314079 0.043553818 -0.0018003545 -0.12603298 -0.13578653 0.11711127
0.077273704 0.08255108 0.030984022 0.047165956 0.027288044 -0.03146918 -0.05296583 0.008872234
0.12886466 -0.12553741 -0.042295862 0.032745507 0.038717765 0.04197254 0.026199173 0.14117552
-0.10716 -0.0013673807 0.00082879607 -0.21666408 0.003200344 -0.08732354 -0.20804764 0.049350932
0.13233334 0.06755252 -0.08902946 -0.05796438 0.07526157 0.15802614 -0.19965628 0.1582424
-0.0606506 -0.13520847 -0.11928486 -0.075607546 0.08080326 -0.080524266 0.044044595 -0.07324359
-0.013824599 0.014806887 0.076699845 0.04059055 0.087161556 0.02307103 -0.0445265 0.070814535
0.086865015 -0.033802647 0.008888804 0.13330472 -0.039669424 0.07780703 0.0066885417 0.15860973
0.054095086 0.0046617365 0.094700135 -0.06110358 0.029259175 -0.098888956 0.013140617 0.03961626
0.0726579 0.006720341 0.066570766 0.16743307 0.019132955 -0.0012631179 0.035138696 -0.029544445
0.083931096 -0.22356464 -0.004039324 0.07927908 -0.14098924 -0.08982866 0.11838696 -0.0768591
0.011540767 0.06494384 0.20364435 -0.044096928 -0.057468664 -0.018505387 -0.093162164 -0.014949547
0.060010698 0.07805985 0.023262989 -0.1890135 -0.056667835 -0.04788011 -0.16001612 -0.04381536
0.007638633 0.009697525 -0.024156936 0.08586395 -0.10565044 -0.032527972 -0.06811318 0.01755877
0.008169946 0.091091156 0.09254169 0.008197507 0.064680755 0.008629348 0.028962556 0.10211432
00000000: a71a 9cbd 2c18 d1bd 28ea 91bb 04bc bebd
00000010: 3835 e3bd b0f9 2dbd 9e67 1f3d 1693 ed3c
00000020: 3de7 d63c a656 febd 97a3 2f3d 56d3 893d
00000030: c3c1 4ebd ac98 8c3d cd1a e43d bd25 c2bd
00000040: 1467 f63d 498c ac3c 1b76 c23c 95d3 903c
00000050: 6a68 5c3c e19f 94bd 230b 5d3d 9f9f febd
00000060: 4127 80bc 8d77 8e3d 173f fb3d 1bcb 2ebe
00000070: 15a0 0fbe 7bce ac3c d1ab 59bc ffaa 2e3d
00000080: 885f d4bd aacd d6bc d457 debc 1226 0e3d
00000090: 8f54 54bd 85de 2ebe 17a4 ee3d 2c26 bebd
000000a0: 1530 24bc dbf5 203d 891d 143e a9a8 bb3d
000000b0: 5cea b3bc 20b9 9abd cace 83bd 1cb6 2f3e
000000c0: ba66 35bc 75b9 153d dcf9 efbd 7473 49be
000000d0: 35e3 103d 913d 37bc 8471 d03d 463d 31be
000000e0: 105a a3bd 269f 403d 1a40 2bbd 4ae5 d0b9
000000f0: b1ff ca3d 07d1 c63d a784 45bd e43e aebd
00000100: 9c53 e23d 5f5b 173c 5600 863d c7c9 d1bd
00000110: 1de0 01be 03e1 143e 6305 bb3b ffd1 123e
00000120: 9f4d e5bd a10c a1bd c9c4 41bd 8931 973d
00000130: 98fa 4d3b e7c1 82bd dc19 583c ce51 52bd
00000140: f88e e93c 306c b43c 103f a73d e073 dc3d
00000150: df38 d7bb 6eff 80bd 43ce 45bd 09ab b2bd
00000160: 5d88 6ebd 1bc9 1abd 5ddd 36bd bd31 6ebc
00000170: d734 973d 1980 cc3d 6ca7 b0bd a477 273d
00000180: 7b7f 33bd 53f7 bc3d ccbf 99bb d77f efbd
00000190: 102c f1bc 4524 edbc a2ee 023d 9edb e1bd
000001a0: f540 a53d 628b d9ba ee78 2abd 784a 2a3e
000001b0: 4721 493d fd4b 1c3e 853f 6fbc a801 06be
000001c0: 9e6f babd 5f3b d53d 8487 f8bd 3eab 8a3d
000001d0: 7d3f aa3d edff 3fbe 7c50 b83d e4ca a0bd
000001e0: d771 9abc f05e c8bc f17b 083e c6b2 8cbd
000001f0: e36a 923c b2e0 86bd f15c 27bd e33b 473d
00000200: 5c63 7cbd 8813 173c 99eb c8bd a67c adbd
00000210: 963a 26be 98f9 a23c eda9 fc3d bd00 e1bd
00000220: 81b8 0fbe c97d e6bc fec0 49bc 7d65 323d
00000230: dff9 ebba ca0e 01be a00b 0bbe 09d8 ef3d
00000240: ad41 9e3d 8a10 a93d 34d2 fd3c 1731 413d
00000250: 2d8b df3c d4e5 00bd b3f2 58bd d95c 113c
00000260: 19f5 033e e18c 00be 6d3e 2dbd 2720 063d
00000270: 8596 1e3d 66eb 2b3d a69f d63c 5190 103e
00000280: b476 dbbd af39 b3ba 9043 593a 30dd 5dbe
00000290: ddbc 513b afd6 b2bd 710a 55be 3424 4a3d
000002a0: 6482 073e fa58 8a3d 1455 b6bd 0f6c 6dbd
000002b0: bd22 9a3d 9bd1 213e b272 4cbe 4c0a 223e
000002c0: c36c 78bd 1774 0abe 9f4b f4bd 21d8 9abd
000002d0: 2e7c a53d e8e9 a4bd 1b68 343d bc00 96bd
000002e0: 9280 62bc 9698 723c cf14 9d3d 4742 263d
000002f0: c281 b23d 75ff bc3c 6b61 36bd 3607 913d
00000300: 49e6 b13d a574 0abd 59a2 113c 0881 083e
00000310: 687c 22bd 4b59 9f3d 8e2b db3b 976a 223e
00000320: cf92 5d3d 7bc1 983b 25f2 c13d bf47 7abd
00000330: f0b0 ef3c 4b86 cabd be4b 573c a944 223d
00000340: aacd 943d 4e36 dc3b 4156 883d 9373 2b3e
00000350: b7bc 9c3c 348f a5ba 98ed 0f3d 3107 f2bc
00000360: 11e4 ab3d 21ee 64be 4e5c 84bb 125d a23d
00000370: 7c5f 10be 17f8 b7bd dd74 f23d 4e68 9dbd
00000380: 7c15 3d3c 4701 853d 2588 503e fb9e 34bd
00000390: 4364 6bbd 9c98 97bc cecb bebd f2ee 74bc
000003a0: c7cd 753d d8dd 9f3d 0692 be3c c18c 41be
000003b0: 881c 68bd ef1d 44bd 44db 23be bc77 33bd
000003c0: 7f4d fa3b 5ee2 1e3c c4e4 c5bc 70d9 af3d
000003d0: 425f d8bd 0d3c 05bd ec7e 8bbd 69d7 8f3c
000003e0: 3ddb 053c 008e ba3d 7f86 bd3d d64e 063c
000003f0: 5877 843d 1c62 0d3c e242 ed3c 5021 d13d

network.3.bias f4 [63]
0.52476835 0.5001492 0.51328754 0.4996964 0.49613523 0.48306313 0.47975552 0.46883795
0.49741656 0.49343807 0.4900339 0.49267456 0.48902583 0.49473795 0.4847553 0.48690945
0.49433297 0.49677017 0.48789895 0.5289 0.49995103 0.4977713 0.5031454 0.5051399
0.50710875 0.4965616 0.49453914 0.51432765 0.47842348 0.50731397 0.49796435 0.518648
0.5354215 0.49485514 0.4981002 0.49800768 0.5025533 0.5044178 0.49142924 0.49264532
0.51272947 0.50093186 0.5054033 0.49835742 0.50243974 0.4840219 0.49109954 0.48550674
0.49232498 0.49590024 0.4890557 0.48110443 0.5382615 0.49643236 0.5070423 0.4986951
0.49658674 0.4956859 0.48335284 0.5017535 0.49976477 0.5005956 0.49523297
00000000: 3857 063f c709 003f d066 033f 35d8 ff3e
00000010: 7005 fe3e 0d54 f73e 84a2 f53e 870b f03e
00000020: 62ad fe3e eaa3 fc3e b9e5 fa3e d73f fc3e
00000030: 9861 fa3e 4b4e fd3e d931 f83e 324c f93e
00000040: 3619 fd3e a958 fe3e e4cd f93e fe65 073f
00000050: 95f9 ff3e e1db fe3e 23ce 003f d950 013f
00000060: e1d1 013f 523d fe3e 3c34 fd3e faaa 033f
00000070: ecf3 f43e 54df 013f 2ff5 fe3e 1ec6 043f
00000080: 6211 093f a75d fd3e fd06 ff3e ddfa fe3e
00000090: 55a7 003f 8621 013f 9d9c fb3e 023c fc3e
000000a0: 3d42 033f 123d 003f 1c62 013f b428 ff3e
000000b0: e49f 003f b8d1 f73e 6671 fb3e 5794 f83e
000000c0: 0512 fc3e a3e6 fd3e 8265 fa3e 5253 f63e
000000d0: 81cb 093f 622c fe3e 86cd 013f f754 ff3e
000000e0: 9e40 fe3e 8bca fd3e 067a f73e eb72 003f
000000f0: 2be1 ff3e 0927 003f 2d8f fd3e

network.4.running_mean f4 [63]
0.40781847 0.473049 0.37074625 0.5728802 0.5255732 0.3314365 0.39489734 0.54068923
0.40083182 0.54455817 0.4140072 0.42664385 0.3441105 0.35473105 0.41457245 0.42925116
0.3211616 0.16189349 0.29522473 0.59936005 0.3120274 0.5220446 0.41372108 0.75610906
0.60845035 0.33417547 0.42271584 0.49984983 0.4397797 0.3988181 0.5497872 0.5064847
0.7672016 0.37998483 0.31217763 0.39206943 0.6783655 0.6032203 0.33972415 0.14644887
0.58593845 0.62483233 0.55725956 0.30862343 0.20217906 0.35502344 0.23791479 0.37762278
0.4447214 0.35505265 0.31633303 0.45603958 0.59422207 0.2970889 0.51658916 0.6136769
0.52977055 0.5686979 0.3635696 0.5781199 0.56426203 0.52044 0.4088209
00000000: 95cd d03e 7b33 f23e 74d2 bd3e 47a8 123f
00000010: f78b 063f 0cb2 a93e fc2f ca3e 9c6a 0a3f
00000020: d439 cd3e 2a68 0b3f c0f8 d33e 1071 da3e
00000030: 402f b03e 4f9f b53e d742 d43e cfc6 db3e
00000040: 4b6f a43e 68c7 253e b227 973e a96f 193f
00000050: 0ec2 9f3e b7a4 053f 40d3 d33e 5d90 413f
00000060: 67c3 1b3f 0c19 ab3e 366e d83e 51ec ff3e
00000070: ce2a e13e e331 cc3e dbbe 0c3f fba8 013f
00000080: 5367 443f 5f8d c23e bfd5 9f3e 53bd c83e
00000090: 5da9 2d3f a56c 1a3f 53f0 ad3e b1f6 153e
000000a0: 1000 163f 03f5 1f3f 90a8 0e3f e403 9e3e
000000b0: 0708 4f3e a2c5 b53e ef9f 733e c657 c13e
000000c0: 86b2 e33e 76c9 b53e 67f6 a13e 057e e93e
000000d0: f01e 183f 091c 983e 303f 043f ee19 1d3f
000000e0: 0b9f 073f 3096 113f cb25 ba3e aaff 133f
000000f0: 7a73 103f 8e3b 053f f950 d13e

network.4.running_var f4 [63]
0.037350055 0.14952038 0.10471181 0.098523006 0.08762991 0.07179563 0.041875135 0.06904324
0.09919416 0.061700664 0.10903395 0.05972593 0.0768177 0.12219008 0.035750777 0.09587465
0.117986165 0.14296526 0.066695005 0.08719045 0.14390442 0.12688424 0.10924142 0.120326824
0.1287536 0.119488135 0.18709032 0.053496998 0.058164757 0.13381854 0.2375563 0.07044434
0.0725478 0.1809446 0.10830729 0.11251914 0.09199186 0.103365704 0.14093293 0.26130256
0.08581332 0.11609461 0.07911242 0.061904464 0.11033988 0.07480619 0.13377735 0.06062225
0.044459518 0.2105618 0.049655695 0.044171248 0.05834738 0.14103208 0.09085163 0.057458896
0.14353208 0.0764323 0.08500199 0.11085956 0.06122615 0.06919327 0.16510381
00000000: 5ffc 183d df1b 193e 2573 d63d 6ec6 c93d
00000010: 4f77 b33d 9609 933d 4385 2b3d 8b66 8d3d
00000020: 4f26 cb3d d6b9 7c3d 314d df3d 2da3 743d
00000030: 9952 9d3d cb3e fa3d 686f 123d ee59 c43d
00000040: bba2 f13d 7c65 123e 6497 883d e890 b23d
00000050: ae5b 133e f1ed 013e f7b9 df3d e96d f63d
00000060: fcd7 033e 32b6 f43d 9b94 3f3e ab1f 5b3d
00000070: 2b3e 6e3d ba07 093e f541 733e 1f45 903d
00000080: f193 943d 8b49 393e 36d0 dd3d 6f70 e63d
00000090: 3a66 bc3d 66b1 d33d b950 103e 73c9 853e
000000a0: e5be af3d 03c3 ed3d b105 a23d 898f 7d3d
000000b0: e0f9 e13d fd33 993d eefc 083e 094f 783d
000000c0: 2f1b 363d 839d 573e c563 4b3d e9ec 343d
000000d0: aafd 6e3d b76a 103e 6b10 ba3d 055a 6b3d
000000e0: 13fa 123e 8a88 9c3d 8615 ae3d 560a e33d
000000f0: 45c8 7a3d 33b5 8d3d f910 293e

network.6.weight f4 [63, 63]
-0.12901938 -0.0663022 0.00029570048 0.033791255 0.041924324 -0.122215636 -0.07193501 0.07213746
0.020720383 0.0101659605 0.09665908 0.10806316 0.081800215 -0.014562932 0.024655256 0.071254104
-0.08834048 0.15804803 0.08490984 0.039643276 0.010056663 -0.041473676 0.10460572 0.017068718
-0.01756469 -0.15154848 0.040408786 0.027076574 0.076973 -0.033088475 -0.090001106 -0.012182442
-0.10620603 -0.07868386 0.09158881 0.012127597 -0.06725281 -0.16467683 -0.14870489 0.043702517
0.069525 0.054155618 -0.045386545 0.09774555 -0.06359371 0.13855205 -0.14824304 0.17584749
0.02427416 0.05156729 -0.085018024 0.016987342 0.04844335 -0.13998531 -0.14362837 0.039715588
0.060835574 0.018102035 -0.06127046 -0.019691428 0.03376204 -0.005177796 0.11290946 -0.16214436
0.069201484 0.10559551 -0.085788876 -0.0073092743 -0.074042395 -0.016445141 0.0514638 0.22217366
0.10821677 0.10025756 0.033992115 -0.041564476 -0.022708436 0.028587734 -0.049963564 -0.21296273
-0.08498993 0.020070245 -0.068439916 -0.058832455 -0.10552238 0.041450165 -0.0026836467 -0.0049276957
-0.19963646 -0.02855498 0.05021865 -0.042102467 0.11212809 0.04013586 -0.019246077 -0.026056033
-0.013117084 -0.0069593783 0.015129688 -0.16234204 -0.15149952 0.048675194 0.106767125 -0.0586863
-0.016124818 -0.053203378 0.021897472 -0.24351561 0.03593465 0.07033145 0.047721546 0.032410145
-0.18712154 0.13190459 0.002190152 -0.034499045 0.054256927 -0.1788271 0.08249787 0.097625166
-0.0049613807 0.081368975 0.01771055 0.001307847 -0.11868772 -0.0077201235 0.10258114 -0.18465774
0.053734813 -0.008784495 -0.12845649 0.063955486 -0.013630324 0.091959335 0.08752985 -0.075512834
0.08434091 0.009885782 -0.039951477 -0.054361284 -0.055422213 -0.20098086 -0.10161179 0.005420895
0.091223724 -0.0814893 -0.2248336 -0.06510399 0.16418314 0.076744474 -0.10275789 -0.19457594
0.050065298 -0.02056967 -0.024285948 0.10390533 -0.10501873 -0.02650708 -0.093420185 0.024836676
-0.08071119 -0.0489591 -0.026155181 -0.01058662 -0.016189922 -0.01029416 0.04990023 0.009722334
-0.13979107 0.13523039 -0.08988715 0.091924466 0.14546277 -0.029458398 -0.11637585 0.038660046
-0.024199344 -0.032625243 -0.014385339 0.030141372 0.08021802 0.1372807 0.07147373 -0.109991185
-0.020947512 -0.05582185 0.079067215 0.083308585 -0.0696253 0.117688686 0.027463721 0.1161424
-0.05596979 0.06855713 -0.0016140919 0.016445242 0.028197711 0.08766225 -0.123856716 0.06731274
-0.016527364 0.0042550224 -0.097937986 0.078310765 0.09335081 -0.24771756 0.2118506 0.080994695
0.043135528 -0.07599207 -0.036193095 -0.0018938485 -0.07277152 0.19903673 -0.007429223 0.082292855
0.046644866 -0.038629048 0.004025191 -0.14873873 0.21995053 0.036241382 0.20921306 -0.23375209
-0.057791542 -0.060506668 0.08631888 -0.094532005 0.2102295 0.11821075 0.06673353 0.09777813
0.10590976 0.053142678 -0.027911767 -0.04539985 0.061792575 -0.07548105 -0.120316006 -0.11228354
-0.035684116 0.06681504 0.033085864 0.043179017 0.07423502 -0.10522885 0.00022364061 0.031987645
-0.07368312 -0.019581893 0.07122781 0.035903532 -0.014746653 -0.0179221 0.22695448 -0.0038367284
00000000: a81d 04be 73c9 87bd 3f08 9b39 b368 0a3d
00000010: d7b8 2b3d 314c fabd aa52 93bd cebc 933d
00000020: cbbd a93c 218f 263c 32f5 c53d 3850 dd3d
00000030: df86 a73d 5d99 6ebc d2f9 c93c aced 913d
00000040: dbeb b4bd 58d7 213e 36e5 ad3d fd60 223d
00000050: b4c4 243c 4de0 29bd 863b d63d b2d3 8b3c
00000060: d3e3 8fbc 862f 1bbe af83 253d b1cf dd3c
00000070: 05a4 9d3d c887 07bd 8052 b8bd dd98 47bc
00000080: 8c82 d9bd 0125 a1bd ea92 bb3d d4b2 463c
00000090: d7bb 89bd 0ba1 28be 1846 18be 6901 333d
000000a0: 2063 8e3d 48d2 5d3d 3ee7 39bd d22e c83d
000000b0: 6b3d 82bd 97e0 0d3e 06cd 17be 5d11 343e
000000c0: 9ada c63c 3938 533d ee1d aebd 0a29 8b3c
000000d0: 896c 463d 4f58 0fbe 5113 13be d0ac 223d
000000e0: b92e 793d b84a 943c bcf6 7abd eb4f a1bc
000000f0: 114a 0a3d 80aa a9bb 133d e73d 2c09 26be
00000100: 82b9 8d3d 7542 d83d 14b2 afbd a382 efbb
00000110: 8aa3 97bd f6b7 86bc b5cb 523d 7e81 633e
00000120: c1a0 dd3d d653 cd3d 513b 0b3d 833f 2abd
00000130: 0b07 babc d330 ea3c 98a6 4cbd e712 5abe
00000140: 330f aebd 5b6a a43c 3a2a 8cbd 4dfa 70bd
00000150: 1e1c d8bd a6c7 293d 1fe0 2fbb 8278 a1bb
00000160: 806d 4cbe 22ec e9bc 12b2 4d3d a373 2cbd
00000170: 69a3 e53d 8065 243d f3a9 9dbc 7673 d5bc
00000180: 0ae9 56bc 7f0b e4bb 83e2 773c fe3c 26be
00000190: b122 1bbe a45f 473d b9a8 da3d 0c61 70bd
000001a0: 3218 84bc c9eb 59bd 5462 b33c 285c 79be
000001b0: 3630 133d ef09 903d ab77 433d 80c0 043d
000001c0: ca9c 3fbe ff11 073e a788 0f3b df4e 0dbd
000001d0: 833c 5e3d 741e 37be a5f4 a83d b4ef c73d
000001e0: 1493 a2bb c7a4 a63d b715 913c 106c ab3a
000001f0: 8c12 f3bd 17f9 fcbb 1016 d23d eb16 3dbe
00000200: 0919 5c3d d8ec 0fbc 198a 03be 18fb 823d
00000210: b951 5fbc 2d55 bc3d da42 b33d 79a6 9abd
00000220: edba ac3d faf7 213c 29a4 23bd f0a9 5ebd
00000230: 6702 63bd edcd 4dbe d819 d0bd c3a1 b13b
00000240: 81d3 ba3d dde3 a6bd c73a 66be 3e55 85bd
00000250: a01f 283e 352c 9d3d bb72 d2bd ea3e 47be
00000260: 4511 4d3d b981 a8bc 53f3 c6bc 51cc d43d
00000270: 0f14 d7bd 6025 d9bc 1553 bfbd 4976 cb3c
00000280: e94b a5bd 5689 48bd 6443 d6bc 8173 2dbc
00000290: baa0 84bc d6a8 28bc 2f64 4c3d 6d4a 1f3c
000002a0: 6425 0fbe d679 0a3e c116 b8bd e542 bc3d
000002b0: 31f4 143e bd52 f1bc 7656 eebd ff59 1e3d
000002c0: b43d c6bc 0ca2 05bd 7cb0 6bbc 0aeb f63c
000002d0: 5849 a43d 5093 0c3e d260 923d 0f43 e1bd
000002e0: 1e9a abbc 74a5 64bd feed a13d b19d aa3d
000002f0: b697 8ebd c406 f13d 99fb e03c 11dc ed3d
00000300: 9440 65bd ae67 8c3d f08f d3ba 2cb8 863c
00000310: e3fe e63c 4488 b33d 97a8 fdbd 43db 893d
00000320: 6564 87bc b76d 8b3b b693 c8bd 6561 a03d
00000330: b62e bf3d aca9 7dbe 5def 583e 8ce0 a53d
00000340: e1ae 303d bba1 9bbd 363f 14bd 033b f8ba
00000350: 3c09 95bd 49d0 4b3e d770 f3bb 2889 a83d
00000360: b00e 3f3d 7e39 1ebd c0e5 833b f74e 18be
00000370: b63a 613e d871 143d f33b 563e b55c 6fbe
00000380: d3b6 6cbd d7d5 77bd f4c7 b03d ff99 c1bd
00000390: 6746 573e 7a18 f23d 97ab 883d e63f c83d
000003a0: 37e7 d83d 23ac 593d 38a7 e4bc 31f5 39bd
000003b0: 361a 7d3d cf95 9abd 3d68 f6bd eaf4 e5bd
000003c0: 8229 12bd 53d6 883d 0b85 073d 7bdc 303d
000003d0: 8808 983d 3982 d7bd 1281 6a39 7a05 033d
000003e0: 2de7 96bd 356a a0bc e3df 913d 950f 133d
000003f0: f29b 71bc 5ed1 92bc c166 683e 9f71 7bbb

network.6.bias f4 [63]
0.49338186 0.49944997 0.49359822 0.5272668 0.5503107 0.49082848 0.49621207 0.49295312
0.49114546 0.5004597 0.50964487 0.49570194 0.49853712 0.49178672 0.51735187 0.48729596
0.5063687 0.496794 0.4951653 0.5029176 0.5102742 0.49850312 0.49481308 0.50524634
0.497045 0.49414393 0.5178679 0.49480173 0.47679174 0.49413902 0.4881628 0.51306605
0.4864577 0.49862766 0.49915728 0.49246374 0.5092254 0.52788347 0.54922146 0.49758333
0.4877153 0.5226111 0.49284434 0.49673444 0.50551873 0.49612615 0.53026927 0.49464348
0.49795973 0.5147563 0.50040144 0.48741722 0.50216806 0.49358153 0.48668635 0.5053981
0.50494444 0.50927496 0.5433269 0.6049759 0.48813602 0.49976525 0.4921605
00000000: 8c9c fc3e e8b7 ff3e e8b8 fc3e f5fa 063f
00000010: 29e1 0c3f df4d fb3e 820f fe3e 5a64 fc3e
00000020: 6b77 fb3e 201e 003f 1678 023f a5cc fd3e
00000030: 4240 ff3e 78cb fb3e 2c71 043f db7e f93e
00000040: 61a1 013f c85b fe3e 4e86 fd3e 35bf 003f
00000050: 54a1 023f cd3b ff3e 2458 fd3e d357 013f
00000060: af7c fe3e 6f00 fd3e fe92 043f a756 fd3e
00000070: 0c1e f43e caff fc3e 79f0 f93e 4c58 033f
00000080: fc10 f93e 204c ff3e 8b91 ff3e 3524 fc3e
00000090: 995c 023f 5f23 073f c799 0c3f 3ec3 fe3e
000000a0: d2b5 f93e d7c9 053f 1856 fc3e fa53 fe3e
000000b0: ad69 013f 3f04 fe3e babf 073f e941 fd3e
000000c0: 94f4 fe3e 12c7 033f 4f1a 003f c08e f93e
000000d0: 168e 003f b8b6 fc3e f42e f93e c561 013f
000000e0: 0a44 013f d85f 023f 7917 0b3f b3df 1a3f
000000f0: f7ec f93e 3be1 ff3e 76fc fb3e

network.7.running_mean f4 [63]
0.51025015 0.3443175 0.3396816 0.7007564 0.7007766 0.6776906 0.21858764 0.19180901
0.41812724 0.41280845 0.50232226 0.61360663 0.4178921 0.8154521 0.57660025 0.33090895
0.37923142 0.43527356 0.7707795 0.6307532 0.52651584 0.28755075 0.31928712 0.4850155
0.56385124 0.26388434 0.44851455 0.29833844 0.37400618 0.2786227 0.69968736 0.45957124
0.3026602 0.6975502 0.47033817 0.49038336 0.5417373 0.56990576 0.80757827 0.33050126
0.42381373 0.50175196 0.49837512 0.40821126 0.6218879 0.63176423 0.6190312 0.69012713
0.26693365 0.5529864 0.46470404 0.45823902 0.22861649 0.54261047 0.5816209 0.69993985
0.21556824 0.56397444 0.57301795 0.8728628 0.5549586 0.28309733 0.39165682
00000000: c19f 023f 624a b03e bfea ad3e c564 333f
00000010: 1866 333f 227d 2d3f 70d5 5f3e 9569 443e
00000020: c614 d63e a15b d33e 3198 003f 5315 1d3f
00000030: f4f5 d53e 78c1 503f 139c 133f e66c a93e
00000040: 9f2a c23e 2ddc de3e ce51 453f 0b79 213f
00000050: bec9 063f da39 933e 9a79 a33e f453 f83e
00000060: 8e58 103f d91b 873e b3a3 e53e d1bf 983e
00000070: bd7d bf3e a2a7 8e3e b61e 333f ec4c eb3e
00000080: 47f6 9a3e a692 323f 2ad0 f03e 8713 fb3e
00000090: 4caf 0a3f 58e5 113f 73bd 4e3f 7637 a93e
000000a0: 1dfe d83e d172 003f 062b ff3e 1101 d13e
000000b0: 0c34 1f3f 4dbb 213f d478 1e3f 2cac 303f
000000c0: 87ab 883e 8490 0d3f b0ed ed3e 4e9e ea3e
000000d0: 711a 6a3e 85e8 0a3f 1be5 143f 422f 333f
000000e0: ecbd 5c3e a160 103f 4eb1 123f f073 5f3f
000000f0: c411 0e3f 22f2 903e 3e87 c83e

network.7.running_var f4 [63]
0.10886907 0.10532321 0.0634706 0.08072498 0.020745132 0.17278332 0.18926564 0.07129454
0.08191639 0.048213787 0.07221598 0.24166773 0.09156375 0.23057245 0.0479575 0.12396116
0.10091001 0.2093605 0.14049292 0.11777498 0.1436642 0.17994402 0.08888555 0.12611781
0.19789067 0.06429673 0.12307994 0.10271188 0.07585802 0.07697466 0.13431616 0.106089026
0.059787784 0.11021817 0.17969395 0.27239153 0.13716216 0.055234555 0.10699829 0.102939785
0.0835477 0.06696276 0.14672786 0.07145307 0.07474212 0.26838878 0.06045945 0.10320237
0.12876622 0.09441852 0.09183181 0.06742593 0.09429609 0.18074311 0.0587476 0.06790002
0.066877134 0.06627062 0.07520152 0.0934211 0.09273771 0.07990261 0.06051454
00000000: bff6 de3d b2b3 d73d e0fc 813d 2353 a53d
00000010: b2f1 a93c 1cee 303e dace 413e df02 923d
00000020: c8c3 a73d d27b 453d f9e5 933d bf77 773e
00000030: c685 bb3d 2f1b 6c3e 156f 443d 59df fd3d
00000040: e8a9 ce3d 9962 563e 60dd 0f3e 0234 f13d
00000050: b51c 133e 3f43 383e a109 b63d 0725 013e
00000060: daa3 4a3e 01ae 833d 5611 fc3d 9b5a d23d
00000070: 735b 9b3d e4a4 9d3d 2d8a 093e 3445 d93d
00000080: 09e4 743d 10ba e13d b101 383e e776 8b3e
00000090: 3d74 0c3e a13d 623d eb21 db3d 18d2 d23d
000000a0: 0e1b ab3d c623 893d d43f 163e fd55 923d
000000b0: 6612 993d 416a 893e 54a4 773d c45b d33d
000000c0: 4bdb 033e 7f5e c13d 5112 bc3d 9b16 8a3d
000000d0: 4f1e c13d b914 393e 53a1 703d 2a0f 8b3d
000000e0: e1f6 883d e4b8 873d 4103 9a3d 9053 bf3d
000000f0: 45ed bd3d fba3 a33d 18de 773d

network.9.weight f4 [63, 63]
0.049078982 0.0773999 -0.08100365 0.11964715 -0.1768453 -0.08761801 -0.01608028 -0.09104371
0.060190614 -0.088344924 -0.062424324 -0.105791904 0.10441869 0.03105503 -0.13245806 -0.05984448
-0.013618853 0.03397385 -0.031786457 0.107626915 0.09496228 -0.029532472 0.040855724 -0.04867437
-0.072756976 -0.04138353 0.15343031 0.0078566 -0.0620348 0.068260394 0.0011943104 -0.11389457
0.1713557 0.040212315 0.010721904 -0.07763861 0.025929002 0.24697118 0.0811113 -0.011670633
-0.03159514 0.01485279 0.018520325 0.1083337 0.053737115 -0.18301709 -0.018477045 -0.053500492
0.08016233 0.090251826 -0.07158506 0.0060233423 0.05841489 -0.07727902 -0.008418525 -0.042310063
-0.22494957 0.15683998 0.07328893 0.10152169 -0.09282537 -0.066626266 0.0645989 0.1159057
-0.2015688 -0.08572427 -0.03418078 -0.18849012 0.15207337 0.12539755 -0.061106324 0.15562408
-0.12890464 0.056505155 0.061867468 0.0981354 -0.00085178827 0.021967085 -0.06269666 -0.077055655
-0.04406869 0.0024765532 0.018898645 -0.0007453321 -0.12010162 0.015203205 0.08757414 0.017395543
0.00612799 -0.03660623 -0.03906613 -0.07154331 -0.010244219 -0.052122857 -0.08778666 0.13426107
0.062038697 0.04629208 0.14409201 -0.07444463 0.09871737 0.04440262 0.104169294 -0.06693772
0.06706951 -0.12946613 -0.06753552 -0.059078403 -0.16523772 0.04223046 -0.035699856 0.12076183
0.076764785 -0.08043396 -0.048551604 -0.0035305081 -0.07171292 0.11919311 -0.07806668 0.06707092
0.06713947 0.041806784 0.11465792 -0.06212011 -0.1501683 -0.029869134 0.105729 0.0075960974
-0.0016466498 0.027699556 -0.022691166 -0.0045355815 0.0666924 0.049964003 0.039403982 0.060874566
-0.06018246 -0.040527876 0.012399063 -0.21780299 -0.010150749 0.12722911 -0.07379414 -0.0032760869
-0.046044897 -0.07037877 0.044435706 0.17216003 -0.021026228 -0.21092266 0.12752824 0.060991433
-0.100792095 -0.15922777 -0.00938344 0.09040824 0.09458493 0.080032624 0.032715973 0.043622497
0.024170471 -0.33986667 0.05522779 0.17794727 0.02325359 0.06340439 0.024463968 0.034175254
-0.010712514 -0.090354234 -0.04214442 0.027363852 -0.09374728 -0.06082621 0.0286744 -0.009735107
0.09381904 0.030160956 0.047231685 0.07674038 0.10086039 0.035459258 -0.0013236512 0.10154689
-0.11385703 -0.031928547 0.047503233 0.012461714 0.051108696 0.082033716 0.13658227 0.10679042
0.20104615 0.017557178 -0.15591982 0.103374586 0.020797446 0.19712283 -0.11037033 -0.039216593
0.089017026 0.013452294 -0.16909742 0.16261737 -0.0342927 0.0719092 -0.04351485 0.046321854
-0.073977165 -0.08933437 -0.23242001 -0.04829085 -0.09404612 0.054415528 -0.1185302 -0.081632264
-0.006455651 0.046480745 0.019500392 0.059361182 -0.014865675 0.082300186 -0.042474262 -0.048847612
-0.12154039 0.1332787 -0.06743704 -0.059916478 0.020553512 0.023129098 0.04621778 -0.018463744
0.108419426 -0.05883683 -0.103789374 -0.13939711 -0.23508 0.007852178 0.101337604 -0.1565229
0.030440398 -0.013560759 0.1311853 0.024930544 -0.13385333 0.0039542755 0.025028618 0.05809305
0.09548505 -0.029567396 -0.03169353 -0.06702824 -0.05713251 -0.100798905 -0.033729468 -0.005859583
00000000: 0b07 493d d783 9e3d 3ee5 a5bd 9109 f53d
00000010: ef16 35be 1271 b3bd cbba 83bc 2075 babd
00000020: 6f8a 763d 2fee b4bd a6b0 7fbd 6da9 d8bd
00000030: 77d9 d53d 1e67 fe3c 16a3 07be 7c1f 75bd
00000040: 9c21 5fbc 2a28 0b3d 8432 02bd 806b dc3d
00000050: 957b c23d 15ee f1bc 5558 273d c75e 47bd
00000060: 9c01 95bd c781 29bd d61c 1d3e f8b8 003c
00000070: 3418 7ebd 1bcc 8b3d 688a 9c3a 8e41 e9bd
00000080: de77 2f3e abb5 243d edaa 2f3c fe00 9fbd
00000090: 0f69 d43c 03e6 7c3e ae1d a63d 2f36 3fbc
000000a0: e869 01bd 1e59 733c f0b7 973c 0fde dd3d
000000b0: 731b 5c3d d568 3bbe 2c5d 97bc 5523 5bbd
000000c0: 262c a43d f3d5 b83d 309b 92bd 755f c53b
000000d0: 7444 6f3d 7644 9ebd daed 09bc 514d 2dbd
000000e0: 2e59 66be a99a 203e 8218 963d 9bea cf3d
000000f0: 3a1b bebd 5a73 88bd 6e4c 843d f85f ed3d
00000100: 0d68 4ebe 3590 afbd 2501 0cbd 8e03 41be
00000110: 1fb9 1b3e 3768 003e a04a 7abd eb5b 1f3e
00000120: 94ff 03be f371 673d be68 7d3d 36fb c83d
00000130: 8b4a 5fba 51f4 b33c 1b67 80bd 5bcf 9dbd
00000140: 5f81 34bd ab4d 223b 55d1 9a3c 6462 43ba
00000150: d7f7 f5bd dd16 793c 125a b33d 1981 8e3c
00000160: 4ecd c83b 6af0 15bd ce03 20bd 4d85 92bd
00000170: 5ed7 27bc c77e 55bd 7ec9 b3bd bc7b 093e
00000180: 4a1c 7e3d c49c 3d3d db8c 133e 6d76 98bd
00000190: 552c ca3d 86df 353d b656 d53d a516 89bd
000001a0: bd5b 893d c592 04be 1050 8abd 32fc 71bd
000001b0: 1434 29be d9f9 2c3d 033a 12bd fa51 f73d
000001c0: db36 9d3d 8fba a4bd 0cde 46bd 1960 67bb
000001d0: 39de 92bd 841b f43d 6ce1 9fbd 7a5c 893d
000001e0: 6b80 893d 973d 2b3d c6d1 ea3d a871 7ebd
000001f0: b8c5 19be 1db0 f4bc 7288 d83d afe8 f83b
00000200: 66d4 d7ba 2eea e23c d3e2 b9bc 379f 94bb
00000210: 0696 883d 0ea7 4c3d 1266 213d 9c57 793d
00000220: e281 76bd 8f00 26bd 7125 4b3c bf07 5fbe
00000230: 544f 26bc 5948 023e 6221 97bd 9eb3 56bb
00000240: 9399 3cbd bf22 90bd 3702 363d b84a 303e
00000250: 323f acbc 1cfc 57be c396 023e 27d2 793d
00000260: 166c cebd 9b0c 23be 00bd 19bc f527 b93d
00000270: beb5 c13d 25e8 a33d 2f01 063d 81ad 323d
00000280: 2701 c63c 0103 aebe 8936 623d cf37 363e
00000290: 507e be3c 29da 813d a968 c83c 5afb 0b3d
000002a0: 8a83 2fbc a40b b9bd a19f 2cbd 282a e03c
000002b0: 93fe bfbd e724 79bd 93e6 ea3c 0080 1fbc
000002c0: 3224 c03d 1c14 f73c 0376 413d 0f2a 9d3d
000002d0: e48f ce3d ba3d 113d 5d7e adba d1f7 cf3d
000002e0: e02d e9bd 82c7 02bd c092 423d 382c 4c3c
000002f0: 5a57 513d 4b01 a83d 39dc 0b3e f0b4 da3d
00000300: 0bdf 4d3e 12d4 8f3c 72a9 1fbe 0eb6 d33d
00000310: 685f aa3c 91da 493e d709 e2bd 94a1 20bd
00000320: 8f4e b63d 0367 5c3c e027 2dbe 2b85 263e
00000330: 8176 0cbd 2145 933d a13c 32bd fcbb 3d3d
00000340: 5781 97bd f0f4 b6bd 83ff 6dbe a0cc 45bd
00000350: 419b c0bd d1e2 5e3d f6bf f2bd d12e a7bd
00000360: ed89 d3bb 9862 3e3d 49bf 9f3c b624 733d
00000370: 298f 73bc 008d a83d 7ef9 2dbd 6f14 48bd
00000380: 2bea f8bd 367a 083e 6e1c 8abd fb6a 75bd
00000390: d75f a83c 3c79 bd3c db4e 3d3d 4741 97bc
000003a0: 010b de3d e3fe 70bd 868f d4bd 1ebe 0ebe
000003b0: d0b8 70be 6ca6 003c 178a cf3d 8a47 20be
000003c0: 245e f93c f22d 5ebc 7055 063e 243b cc3c
000003d0: d910 09be de92 813b d108 cd3c faf2 6d3d
000003e0: aa8d c33d 5337 f2bc 13d1 01bd 1a46 89bd
000003f0: c703 6abd a86f cebd e927 0abd bf01 c0bb

network.9.bias f4 [63]
0.52939975 0.5015948 0.48205122 0.4939848 0.50078976 0.5245488 0.48456743 0.49900615
0.49439883 0.49670586 0.49647778 0.4934606 0.49738634 0.4989785 0.49231237 0.4916315
0.49244156 0.5071765 0.49736825 0.52631354 0.4923876 0.49494275 0.48306242 0.5293882
0.50397575 0.48348027 0.49961233 0.51642495 0.48643327 0.4786162 0.4962933 0.4900103
0.62016106 0.48795345 0.4919677 0.5522259 0.5098532 0.48892012 0.49525627 0.48068804
0.5188165 0.4877006 0.49880797 0.52163565 0.49296185 0.4976935 0.5005915 0.4756702
0.5074573 0.49057543 0.4971376 0.49125478 0.51762646 0.4874738 0.5038293 0.49510607
0.5303328 0.5077849 0.51117766 0.47642586 0.49846914 0.50846136 0.4905004
00000000: be86 073f 8468 003f 6bcf f63e 93eb fc3e
00000010: c233 003f d548 063f 3919 f83e bc7d ff3e
00000020: d821 fd3e 3b50 fe3e 5632 fe3e dea6 fc3e
00000030: 6ca9 fe3e 1c7a ff3e 5e10 fc3e 20b7 fb3e
00000040: 4d21 fc3e 52d6 013f 0da7 fe3e 7cbc 063f
00000050: 3a1a fc3e 2369 fd3e f553 f73e fc85 073f
00000060: 8e04 013f ba8a f73e 30cd ff3e 6d34 043f
00000070: c80d f93e 2f0d f53e 281a fe3e a1e2 fa3e
00000080: e0c2 1e3f 09d5 f93e 31e3 fb3e ad5e 0d3f
00000090: bd85 023f bd53 fa3e 3b92 fd3e be1c f63e
000000a0: 28d1 043f e5b3 f93e c263 ff3e ea89 053f
000000b0: 7f65 fc3e afd1 fe3e c426 003f 0b8b f33e
000000c0: b9e8 013f b42c fb3e d288 fe3e bf85 fb3e
000000d0: 2b83 043f 2a96 f93e f5fa 003f 8b7e fd3e
000000e0: e4c3 073f 31fe 013f 8adc 023f 17ee f33e
000000f0: 5937 ff3e 862a 023f de22 fb3e

network.10.running_mean f4 [63]
0.49494556 0.44436505 0.5757944 0.41425276 0.6493203 0.5499885 0.4246966 0.41417643
0.31184882 0.6024849 0.3700436 0.58750916 0.5661307 0.410027 0.46441805 0.42867556
0.43657055 0.8387556 0.38603672 0.5994309 0.45467135 0.3846038 0.50337046 0.2842906
0.56804293 0.46240315 0.3466561 0.342951 0.7535996 0.5739271 0.61119294 0.560851
0.47403535 0.49717912 0.42027035 0.61053354 0.7982828 0.5080003 0.2663262 0.4917242
0.5273602 0.5463824 0.36682516 0.3783511 0.35130307 0.40849936 0.45641336 0.77537477
0.5555548 0.3733185 0.65465534 0.6082101 0.629964 0.6083184 0.39275077 0.5295283
0.676128 0.6831879 0.43918163 0.78524446 0.39316082 0.39977965 0.43070966
00000000: 8169 fd3e d183 e33e 4367 133f f018 d43e
00000010: db39 263f 0ccc 0c3f d571 d93e ef0e d43e
00000020: a6aa 9f3e 733c 1a3f 5b76 bd3e 0067 163f
00000030: f1ed 103f 0fef d13e 34c8 ed3e 5d7b db3e
00000040: 2d86 df3e b0b8 563f 9ba6 c53e 4e74 193f
00000050: afca e83e caea c43e e3dc 003f 8a8e 913e
00000060: 436b 113f 1bc0 ec3e e97c b13e 4697 af3e
00000070: e7eb 403f e3ec 123f 2477 1c3f ee93 0f3f
00000080: c3b4 f23e 438e fe3e ad2d d73e ed4b 1c3f
00000090: 435c 4c3f 4f0c 023f e85b 883e 46c3 fb3e
000000a0: 1401 073f b8df 0b3f 82d0 bb3e 3cb7 c13e
000000b0: ffdd b33e d426 d13e 03af e93e f67e 463f
000000c0: d738 0e3f 9a23 bf3e 7e97 273f a8b3 1b3f
000000d0: 5245 213f c1ba 1b3f a116 c93e 2b8f 073f
000000e0: b916 2d3f 67e5 2e3f 6adc e03e c805 493f
000000f0: 604c c93e ebaf cc3e fa85 dc3e

network.10.running_var f4 [63]
0.22678229 0.12247152 0.11749223 0.074220896 0.2607472 0.23889734 0.1139008 0.17447239
0.13025679 0.10874488 0.10361384 0.09562169 0.16194394 0.2441732 0.09128336 0.084291644
0.13869824 0.62293476 0.08756127 0.20414115 0.22561646 0.10867871 0.13053839 0.10831137
0.08289079 0.15305197 0.194598 0.1502411 0.09533707 0.13322257 0.20701852 0.07869114
0.03413447 0.03054021 0.20129654 0.29859206 0.14684895 0.16519727 0.09797541 0.12835862
0.13584468 0.06691421 0.24556449 0.11703941 0.081672475 0.18986171 0.14500786 0.22614749
0.07777346 0.064922 0.22744367 0.06642944 0.19177747 0.1284791 0.06187406 0.12789747
0.41671848 0.2868321 0.09369865 0.15925014 0.5817889 0.0822356 0.09593477
00000000: 9e39 683e 59d2 fa3d c49f f03d 2001 983d
00000010: a880 853e 81a1 743e d344 e93d e4a8 323e
00000020: 0962 053e a3b5 de3d 7e33 d43d 4ed5 c33d
00000030: a2d4 253e 8a08 7a3e c5f2 ba3d 19a1 ac3d
00000040: e906 0e3e a778 1f3f 5353 b33d 610a 513e
00000050: 0008 673e f292 de3d dbab 053e 5ad2 dd3d
00000060: a6c2 a93d a8b9 1c3e b344 473e ced8 193e
00000070: 1540 c33d 7f6b 083e aafc 533e d228 a13d
00000080: 96d0 0b3d 762f fa3c ae20 4e3e 0fe1 983e
00000090: 925f 163e 7929 293e 55a7 c83d 7170 033e
000000a0: de1a 0b3e 510a 893d 4275 7b3e 5cb2 ef3d
000000b0: e643 a73d 1c6b 423e f17c 143e 3593 673e
000000c0: b147 9f3d d3f5 843d fee6 683e 290c 883d
000000d0: 5061 443e 0690 033e a86f 7d3d 8ef7 023e
000000e0: 205c d53e a8db 923e 14e5 bf3d 7812 233e
000000f0: 1ef0 143f 236b a83d 7379 c43d

network.12.weight f4 [63, 63]
0.11704325 -0.046600163 0.016737774 0.08940982 0.01417409 -0.089808226 0.017848132 -0.0031136272
-0.08512982 0.007459904 -0.033490114 -0.0053868713 -0.10647474 0.1332966 -0.042068075 -0.26062128
0.11130108 0.004226956 -0.014413657 -0.045020133 0.17452578 0.091078065 -0.036051508 0.114726946
-0.029573929 -0.09428309 -0.097256176 -0.072543934 0.044645596 0.00741928 0.19062169 -0.10258676
0.0030357363 0.16117139 0.10863483 0.034049965 0.068723366 0.041565165 0.009444827 -0.039967008
-0.009569908 -0.059486333 0.08766185 0.068128414 0.051414695 -0.06582905 -0.3378626 -0.023521768
0.017370103 -0.019590704 0.050053354 -0.044224057 -0.0804082 0.16986796 -0.10069804 0.08373629
0.11385977 0.064005435 0.032380886 -0.11597332 0.20154852 -0.040952105 -0.09789831 0.110586576
0.041270796 0.010126794 0.088163085 -0.10725441 0.13477346 0.07692215 0.12695667 0.076594196
-0.028576622 -0.08553989 0.04500224 -0.005986254 -0.09945072 -0.033957217 0.02063312 -0.102085516
0.04345695 -0.06551701 0.0036559452 -0.068066634 0.055199277 -0.20924641 0.009789918 -0.1249367
0.00824106 0.002773768 0.13234714 0.07051556 -0.051348977 0.036287572 -0.031511895 0.1342109
0.050851468 0.17172785 0.02488652 0.07313849 0.22924343 -0.0312809 -0.05023151 0.12687443
0.037510037 0.13882682 -0.06578708 0.013623487 -0.029683353 -0.013328241 0.08804064 0.01908806
0.028417584 -0.09240464 -0.117710546 -0.11320696 0.2212935 0.049179807 0.06382766 -0.023175353
0.03008326 -0.05886523 0.14433481 -0.01858568 -0.018503942 0.07177705 -0.047768727 -0.029986829
-0.13267034 -0.05819282 0.065293856 0.08817832 -0.03062066 0.11791611 0.016783327 -0.049528986
0.15240513 -0.15782706 0.008607389 -0.045282155 -0.05941971 0.03624855 0.12253432 0.09772476
-0.0011780331 -0.0008959089 0.08552645 -0.03373314 -0.04797716 -0.10141252 0.043472603 0.060787067
0.0031544885 -0.095552765 -0.069521025 0.029240677 0.06159729 0.010670072 -0.02843021 -0.16864772
-0.004256515 0.027586406 0.15274835 -0.060311787 -0.07981124 0.279253 0.04866976 -0.05746173
0.034006987 0.044034008 -0.019663183 0.2027286 -0.16243368 -0.099425934 -0.032469247 -0.08955224
-0.046616096 0.11502894 -0.025253579 -0.073276594 0.052812304 0.004142987 0.087928355 0.07117041
0.030120673 -0.029824214 0.22049697 -0.022255283 -0.022597086 0.07478375 0.011695621 0.025096532
0.03119974 -0.013748596 0.1477145 -0.023937872 0.059651747 -0.03154668 0.04789636 -0.13983613
-0.015157846 -0.03021486 0.22425222 0.059413545 0.08976469 0.11558891 0.09390805 0.095249735
0.012996836 0.10759907 0.017821264 0.10848198 0.11342099 -0.06826204 -0.11914418 0.026825182
0.08066247 0.16129097 -0.06397816 0.0032792746 -0.024480874 0.048487715 -0.06031335 0.010777105
0.007921403 -0.037264302 0.0146498345 0.10050132 0.093162 0.03705854 -0.026819654 0.08787779
0.029533712 0.056093138 0.0423915 -0.024071777 -0.16529696 -0.18867558 0.015532536 0.039887052
0.072504036 -0.033037674 -0.015792042 0.15258193 -0.033091486 0.0961448 0.16458166 -0.0533317
-0.1256853 0.31422296 0.021508554 0.06927955 -0.04275787 -0.07870195 -0.01458748 -0.09201957
00000000: 5fb4 ef3d d0df 3ebd a81d 893c 7f1c b73d
00000010: 713a 683c 60ed b7bd 3f36 923c ff0d 4cbb
00000020: 8b58 aebd 3672 f43b ee2c 09bd 5a84 b0bb
00000030: 6e0f dabd e77e 083e 934f 2cbd 2770 85be
00000040: d2f1 e33d 4782 8a3b 4227 6cbc 0867 38bd
00000050: e3b6 323e 2387 ba3d bfaa 13bd f6f5 ea3d
00000060: 0645 f2bc 7e17 c1bd 3f2e c7bd ea91 94bd
00000070: 4dde 363d 6e1d f33b 5532 433e 0219 d2bd
00000080: 34f3 463b 1d0a 253e f07b de3d fa77 0b3d
00000090: d6be 8c3d 3c40 2a3d 7abe 1a3c 72b4 23bd
000000a0: 1acb 1cbc f1a7 73bd 0e88 b33d e986 8b3d
000000b0: 3798 523d 62d1 86bd 54fc acbe b9b0 c0bc
000000c0: bf4b 8e3c af7c a0bc bf04 4d3d 4924 35bd
000000d0: 0ead a4bd def1 2d3e c63a cebd ef7d ab3d
000000e0: 502f e93d 4815 833d d2a1 043d 6c83 edbd
000000f0: bc62 4e3e 65bd 27bd e97e c8bd 377b e23d
00000100: 910b 293d daea 253c d98e b43d 33a8 dbbd
00000110: 0e02 0a3e 5c89 9d3d ee00 023e 6bdd 9c3d
00000120: 8519 eabc 8a2f afbd 4554 383d 5728 c4bb
00000130: d2ac cbbd b916 0bbd ca06 a93c 3612 d1bd
00000140: eaff 313d c82d 86bd 9598 6f3b 8566 8bbd
00000150: a318 623d b144 56be e465 203c d0de ffbd
00000160: 8305 073c 1bc8 353b 0286 073e 766a 903d
00000170: 4e53 52bd 47a2 143d 9e12 01bd 956e 093e
00000180: a149 503d 6dd9 2f3e d1de cb3c a2c9 953d
00000190: cabe 6a3e 6720 00bd 8ebf 4dbd 5feb 013e
000001a0: 20a4 193d 9e28 0e3e 60bb 86bd 0c35 5f3c
000001b0: 812a f3bc b25e 5abc a74e b43d 905e 9c3c
000001c0: fecb e83c a53e bdbd 3a12 f1bd 0dd9 e7bd
000001d0: c39a 623e c470 493d 14b8 823d 3dda bdbc
000001e0: 2b71 f63c ab1c 71bd 81cc 133e ff40 98bc
000001f0: 9495 97bc d9ff 923d 24a9 43bd f0a6 f5bc
00000200: bcda 07be 985b 6ebd c9b8 853d d696 b43d
00000210: 2ed8 fabc 007e f13d 307d 893c e8de 4abd
00000220: 1710 1c3e 6b9d 21be 0206 0d3c c879 39bd
00000230: 1562 73bd 5c79 143d 46f3 fa3d eb23 c83d
00000240: 3b68 9aba 6edb 6aba 7e28 af3d c32b 0abd
00000250: b383 44bd 5eb1 cfbd 5410 323d dcfb 783d
00000260: 89bb 4e3b 2bb1 c3bd 0a61 8ebd 258a ef3c
00000270: 714d 7c3d 87d1 2e3c 79e6 e8bc fdb1 2cbe
00000280: 3c7a 8bbb e3fc e13c 106a 1c3e 7e09 77bd
00000290: 1374 a3bd 40fa 8e3e f159 473d fe5c 6bbd
000002a0: e94a 0b3d 015d 343d af14 a1bc 1698 4f3e
000002b0: 0455 26be d39f cbbd 79fe 04bd 2a67 b7bd
000002c0: 85f0 3ebd 4b94 eb3d 98e0 cebc 0a12 96bd
000002d0: b751 583d e5c1 873b c813 b43d cbc1 913d
000002e0: a1bf f63c e951 f4bc f5c9 613e b650 b6bc
000002f0: 861d b9bc 3928 993d fd9e 3f3c 3e97 cd3c
00000300: 9996 ff3c cb41 61bc 7842 173e 5b19 c4bc
00000310: 6455 743d 1737 01bd f92e 443d 3431 0fbe
00000320: 9d58 78bc 2785 f7bc 60a2 653e 9e5b 733d
00000330: 8dd6 b73d e1b9 ec3d dd52 c03d 4b12 c33d
00000340: aef0 543c e75c dc3d e6fd 913c cd2b de3d
00000350: 4449 e83d f8cc 8bbd dd01 f4bd 7cc0 db3c
00000360: 5d32 a53d 7629 253e fb06 83bd 19e9 563b
00000370: 1d8c c8bc 0e9b 463d 220b 77bd 7492 303c
00000380: c6c8 013c 74a2 18bd dc05 703c a3d3 cd3d
00000390: b8cb be3d b2ca 173d e4b4 dbbc 45f9 b33d
000003a0: aff0 f13c ebc1 653d b6a2 2d3d 2d32 c5bc
000003b0: 9b43 29be 2c34 41be 2e7c 7e3c 9b60 233d
000003c0: ff7c 943d 8352 07bd 505e 81bc 703e 1c3e
000003d0: f08a 07bd 91e7 c43d 1888 283e 5772 5abd
000003e0: a6b3 00be d5e1 a03e b532 b03c 70e2 8d3d
000003f0: e022 2fbd 7d2e a1bd 5300 6fbc c274 bcbd
