src/runs/ann_left_hand/20241104/20241104-1151/ann_left_hand_3_layers_best.pth (torch, 143302 bytes, 26 tensors)

network.0.weight f4 [63, 126]
000000 ce 84 22 bf 5d a3 c3 be 61 9f 17 bf 11 69 15 3f
       -0.63483894 -0.38210574 -0.5922757 0.58363444
000010 e2 0d e8 3e 18 e8 d3 be c2 5b 08 3f a1 02 84 3e
       0.45323092 -0.4138801 0.5326501 0.25783256
000020 0f 81 91 3e a5 b0 40 3e 4d 09 e5 3c c4 2a 15 3f
       0.28418776 0.18817385 0.027958537 0.5826838
000030 2f 72 08 3e 7e 6f 81 bf da 49 69 bf fc b5 15 3f
       0.13324808 -1.011215 -0.91128314 0.5848081
000040 99 ca f5 3e cd a3 02 bf be db 01 be 8b 4e 56 3f
       0.48006132 -0.5103119 -0.12681481 0.837136
000050 f4 f9 3e 3f cd 1f 72 bf 00 6a 20 bf 8d 72 e8 3e
       0.7460015 -0.94579774 -0.62661743 0.45399895
000060 03 af 50 3f 7d d7 6b 3f 05 38 98 be 47 77 b7 3e
       0.81517047 0.92125684 -0.2973024 0.3583319
000070 01 72 6b 3f 51 72 ce 3e 18 6e 51 3f fe d3 b3 3e
       0.9197083 0.40321591 0.81808615 0.35122675
000080 2e 32 8a 3f 32 a9 15 3f 05 8d bc 3f c2 5d 29 be
       1.0796564 0.58461297 1.4730536 -0.16539672
000090 fe fd a5 bd f8 6b e2 3d e5 10 7c 3e a7 ef a4 3e
       -0.08105086 0.1105575 0.2461582 0.3221409
0000a0 b4 ca 32 3e 50 4f a7 3e 53 7d f8 40 29 33 e4 3f
       0.17460138 0.32677698 7.7652984 1.7828113
0000b0 b0 b9 79 3f 7d 4f 60 3e 23 c8 e0 bb 20 df d1 3e
       0.9754896 0.21905322 -0.0068597957 0.40990543
0000c0 58 37 b3 bd be 02 55 3e 0f 2c 34 3e 34 35 08 3e
       -0.0875079 0.20801827 0.17594932 0.13301545
0000d0 47 75 91 be a1 14 9d be e4 85 13 be 02 3b 05 3f
       -0.28409788 -0.306798 -0.14406544 0.52043164
0000e0 2e 75 2b 3f 7b 49 95 3e 77 f3 78 bd 77 b2 e0 3e
       0.66975677 0.29157624 -0.06077906 0.43886158
0000f0 0c 74 f6 be e4 35 03 be fa e2 94 3e 97 3e af bf
       -0.48135412 -0.12813526 0.2907942 -1.3690976
000100 ef 96 1b bf 15 38 28 3f 49 08 64 3f a0 b6 18 3f
       -0.6077718 0.65710574 0.8907514 0.59653664
000110 b1 e0 3a bf 37 49 79 3d 62 3c 9d 3e 4a b9 a5 be
       -0.729991 0.06086084 0.3071013 -0.32367927
000120 0c 22 6e 3e e8 7c 62 be 44 22 48 bf 4f 20 a0 3e
       0.23255175 -0.2211796 -0.78177285 0.3127465
000130 29 bc f6 be 30 6b 0d 3f 34 6a 07 3e 9e ae b9 3e
       -0.4819043 0.5524168 0.13224107 0.36266035
000140 1b c2 bf bf 7e 2b 09 3f df 50 a3 3f 3d 11 9e 3e
       -1.4981111 0.5358199 1.2759055 0.30872527
000150 d7 e2 13 3f 6e 02 91 bf 8f 76 0a bf 92 42 0d 3d
       0.57768005 -1.1328866 -0.54087156 0.034487315
000160 c1 48 c1 3e e1 11 85 bf 8e dc 10 bf 5e d3 94 be
       0.3775082 -1.0396081 -0.5658654 -0.2906751
000170 95 63 82 be 47 f3 32 3e d4 1f a4 be f1 9e 65 bf
       -0.254666 0.17475615 -0.32055533 -0.8969565
000180 66 b6 65 be 3b 19 d3 ba cd 43 11 bf 8f ef 8d be
       -0.2243286 -0.0016105542 -0.5674408 -0.2772183
000190 fe 06 24 be 13 b7 4c bd 73 8b 1b be b6 ce b6 3e
       -0.16018292 -0.04997928 -0.15189914 0.35704583
0001a0 69 55 0d be ac 45 00 c0 37 cb 80 bf e9 fc d8 bd
       -0.13802113 -2.0042524 -1.0062016 -0.10595114
0001b0 dc bd 25 3e 4b 56 b4 3e c8 c1 90 bf dd 9e 79 be
       0.16185707 0.35222086 -1.1309137 -0.24377008
0001c0 28 27 d7 bd 9c ec 44 bc be 85 fd bd 93 e4 c6 3e
       -0.10505515 -0.012019303 -0.12379025 0.38846263
0001d0 d8 a6 7e be fe fa 63 3d 25 c0 6d bf 9a fc 1a 3d
       -0.24868333 0.055659287 -0.92871314 0.037838556
0001e0 a7 60 b2 be 74 82 7f 3e 65 9c 09 3f 5e 0b 59 be
       -0.34839365 0.24952108 0.53754264 -0.21195742
0001f0 f5 ec 86 3d c6 c1 32 3e 4f b4 0a 3f 20 c4 f2 3e
       0.06588165 0.17456731 0.5418138 0.47415257
000200 c8 3b 19 3f 1a 5a ff 3c e3 0d d4 3e 4d 7a 7a 3e
       0.59856844 0.031170893 0.41416845 0.24460717
000210 05 41 69 3f c3 b2 15 3e d8 22 90 be a4 a4 97 3f
       0.91114837 0.14618973 -0.28151584 1.1847119
000220 da 95 81 be 91 f6 36 3f a3 7e 3e 3d 3e 90 a1 3c
       -0.2530964 0.7146998 0.04650749 0.0197221
000230 43 88 f1 3e e1 e7 c7 3d 20 2a 78 3e f1 1f 5c bd
       0.47174272 0.09761024 0.2423482 -0.0537414
000240 e2 e1 70 bf 74 5a 01 bf 02 b1 01 bf 05 f7 7c 40
       -0.9409467 -0.50528646 -0.5066072 3.9525769
000250 7b 30 54 3f 98 02 98 3e 47 40 31 3e 0e 39 6e 3d
       0.82886475 0.2968948 0.17309676 0.05815988
000260 de 8e 5c 3f db 53 0d bf 7a 37 8a 3e d0 d8 2f be
       0.861555 -0.5520608 0.2699545 -0.17172551
000270 14 2a 32 3f e4 a4 51 be 76 a2 92 be fd b8 cc be
       0.69595456 -0.20473057 -0.28639573 -0.39984885
000280 62 b3 a3 3e 04 d4 e7 be 4b 41 65 be ff 5d 63 3e
       0.31972796 -0.45278943 -0.22388189 0.22203825
000290 b6 57 b5 3d 0f b3 b5 be fd 03 55 be 31 65 a4 be
       0.0885462 -0.35488173 -0.20802303 -0.32108453
0002a0 14 c6 23 c0 e3 e4 aa bf f8 03 85 3c 06 c4 96 3e
       -2.5589647 -1.3351101 0.016237244 0.2944643
0002b0 d6 c9 1c 3e ae c5 ae 3e 0b dd 07 bf 25 ac 2b 3e
       0.1531137 0.34135193 -0.5307166 0.16764887
0002c0 93 33 89 3e 46 dc ae bf 08 44 84 3c 25 4e d8 be
       0.2679716 -1.3660972 0.016145721 -0.4224712
0002d0 85 93 4f 3c 5a 59 39 be 5c 5f 61 3e 20 ea 14 3e
       0.012669449 -0.18100491 0.22009033 0.14542437
0002e0 13 07 87 3e 9e f9 0f 3f 41 b0 ea 3e 30 14 24 3f
       0.26372585 0.5624026 0.45837596 0.64093304
0002f0 9a 41 43 3e 66 70 d2 bd 1c d2 83 3e 47 41 ae 3f
       0.19067994 -0.102753446 0.25746238 1.3613671
000300 d0 47 af 3f 42 db 0e 3e c5 ed 3a 3f 3f f5 74 3f
       1.369379 0.13950828 0.7301906 0.95686716
000310 fa e7 82 3d 6d 57 41 3f 9a 73 59 3f 79 51 3f 3e
       0.06391902 0.75524026 0.8494202 0.18683423
000320 3c ae 31 bf e1 da b0 3c ab ee a2 bf c4 2e 4f bf
       -0.69406486 0.021588745 -1.2729086 -0.80930734
000330 cf f2 2c bf ed 9c ba bd 41 18 38 c0 fc 6d 4a c0
       -0.67557997 -0.091119625 -2.8764803 -3.162963
000340 75 a4 41 bf 4f 72 f5 bf f0 9e e3 bf fd fa d2 3d
       -0.75641567 -1.9175509 -1.7782879 0.103017785
000350 1d 92 9e 3f 13 81 7f 3e 9d 12 3f be 58 06 c3 3f
       1.238834 0.24951582 -0.18659444 1.5236311
000360 59 5c ae 3e ff f3 1f bd 73 e1 dc be 02 66 8f 3b
       0.3405483 -0.039051052 -0.43140754 0.004376174
000370 c6 07 93 3e c6 74 98 be b0 bf a0 3e 4f 41 b2 bf
       0.28716868 -0.2977659 0.31396246 -1.3926181
000380 61 d1 2b bf 82 0e 6f be 8f e7 e5 be 3b 37 1a bf
       -0.6711636 -0.23345378 -0.44903228 -0.60240525
000390 5c 7a 08 c0 06 d8 9d bf dd b8 fa be 85 13 48 3f
       -2.1324682 -1.233155 -0.48969164 0.78154784
0003a0 0d ec 85 bf 37 3d e9 3e 21 83 b7 bd d9 30 5b bd
       -1.0462662 0.45554516 -0.08960558 -0.05351338
0003b0 2b 54 92 3e 00 35 f9 be 68 e5 a7 bd f8 55 0f be
       0.2857984 -0.48673248 -0.08198053 -0.13997638
0003c0 06 ed df 3c 5c 96 c9 3e fb 79 34 3d b3 89 38 3e
       0.027334701 0.39372528 0.044061642 0.18021278
0003d0 0a d6 4d 3f 6d 4e 43 3e 19 69 5f 3c f6 5c a6 3d
       0.8040472 0.19072886 0.013635897 0.081232
0003e0 06 36 14 be e7 6e 86 bf ec cf b2 be 93 a8 27 be
       -0.14473733 -1.0502595 -0.34924257 -0.163729
0003f0 de 16 99 bf 1c 43 a2 bf fe 6a 9b bf 99 7f 23 be
       -1.1960104 -1.267673 -1.2142026 -0.15966643

network.0.bias f4 [63]
000000 de 16 00 3f ae 98 06 3f de 29 f8 3e ee 30 01 3f
       0.5003489 0.5257672 0.48469442 0.50465286
000010 ea 27 05 3f 0d 35 1a 3f 23 58 fb 3e 54 3d f2 3e
       0.5201403 0.602372 0.4909068 0.47312415
000020 28 ec 00 3f 4a 97 f9 3e ee e6 05 3f 77 8d 07 3f
       0.50360346 0.48748237 0.52305496 0.52950233
000030 bd f5 fd 3e aa f0 f6 3e fd bd 00 3f 68 43 02 3f
       0.49601546 0.48230487 0.502899 0.50884104
000040 a1 2d fe 3e b9 28 f2 3e 91 55 01 3f f5 5d e5 3e
       0.49644187 0.47296694 0.5052119 0.44798246
000050 9a 83 00 3f 14 0e e3 3e 21 a9 13 3f 81 e9 04 3f
       0.5020081 0.44346678 0.57679945 0.519188
000060 93 fd 01 3f 76 79 e1 3e 59 71 a3 3e 93 3a 00 3f
       0.5077755 0.4403798 0.31922415 0.5008938
000070 04 42 ff 3e ca c8 02 3f 5e 8a 11 3f 47 cc c2 3e
       0.49855053 0.5108763 0.56851757 0.38046476
000080 c1 1e cf 3e 2b 71 04 3f 26 c3 f8 3e a2 12 02 3f
       0.4045315 0.5173518 0.48586386 0.5080968
000090 57 ab f9 3e 56 69 e4 3e e3 86 fd 3e 27 3c e3 3e
       0.48763534 0.44611615 0.49516973 0.4438183
0000a0 8b 14 fa 3e 61 d2 05 3f 2b c5 d4 3e ea 02 06 3f
       0.48843798 0.5227414 0.41556677 0.52348197
0000b0 5e 44 cc 3e 76 b6 01 3f 3d 52 06 3f 7a ed 06 3f
       0.3989591 0.5066904 0.52469236 0.5270611
0000c0 f3 d9 f7 3e 39 d1 02 3f 9d 24 02 3f 2b f1 b5 3e
       0.4840847 0.511005 0.5083712 0.3553556
0000d0 78 81 fd 3e 42 a4 f9 3e e2 bd 07 3f 09 b0 d4 3e
       0.4951284 0.4875813 0.53024113 0.41540554
0000e0 3a f3 de 3e aa db 09 3f 7e 88 ff 3e 72 0e 02 3f
       0.43544942 0.53850806 0.49908823 0.5080329
0000f0 c5 a5 b9 3e e4 b8 fc 3e 48 32 fb 3e
       0.36259285 0.4935981 0.490618

network.1.running_mean f4 [63]
000000 4f 98 0e 40 f6 29 7c c0 85 10 05 40 64 f1 ab bf
       2.2280462 -3.940061 2.0791333 -1.3433042
000010 4d 6e d7 c0 b6 46 e3 c0 2a 19 94 bf 26 8a 66 40
       -6.7322145 -7.1023817 -1.157018 3.602182
000020 81 1b 88 bf b3 2f 71 3f 1a d0 de 41 31 f9 3e c1
       -1.0633394 0.9421341 27.851612 -11.935838
000030 c2 77 31 c0 35 71 0d 40 f4 40 97 c0 6f 13 b4 c0
       -2.7729344 2.2100346 -4.726679 -5.6273723
000040 fd ed 24 3f ca 77 8b bf 0d 30 c1 c0 43 1b 03 41
       0.6442564 -1.0895932 -6.0371156 8.194156
000050 42 10 0a c0 bd 4c 2a 41 2a 4f dd c0 9d 6e 17 c1
       -2.1572423 10.643735 -6.9159136 -9.464505
000060 21 3c ba c0 38 8f 45 41 d2 1a 08 41 2a d0 34 41
       -5.81984 12.3474655 8.506548 11.300821
000070 f3 d2 1b c0 96 96 20 40 b6 5b 3d c0 b5 c1 29 41
       -2.4347503 2.509191 -2.9587226 10.609792
000080 73 b6 be 3e 49 2c 8a 40 1e 3d 1a 41 57 4e 5e c1
       0.37248573 4.317906 9.639921 -13.894126
000090 90 3f 7a c0 89 60 3c 40 2c 8c 10 40 35 d8 d2 40
       -3.9101295 2.943392 2.2585554 6.5888925
0000a0 b2 b5 2e 40 c9 10 48 c1 88 d9 10 40 de a3 28 c1
       2.7298398 -12.504098 2.263277 -10.540007
0000b0 54 63 d1 41 f9 d8 15 3e 4a 33 dd c0 36 59 c4 c1
       26.1735 0.1463355 -6.912511 -24.54356
0000c0 1e 36 5a bf 8f e4 37 c1 cc 88 63 c1 14 f9 a7 40
       -0.85238826 -11.4933 -14.220898 5.249155
0000d0 e7 87 3e 40 e3 47 c9 40 bb 5b d5 c0 e2 9e 89 40
       2.9770448 6.290025 -6.6674476 4.300645
0000e0 c5 e6 fd 40 02 dc 01 c1 09 5e a7 40 0a 9d 7b c1
       7.93442 -8.116213 5.230229 -15.72584
0000f0 21 2c e6 40 e1 2c e0 40 61 d1 a9 c0
       7.192887 7.0054784 -5.306809

network.1.running_var f4 [63]
000000 f1 f6 02 3f 5d 15 11 3e 09 3d 48 3f 70 fc 54 3e
       0.5115805 0.14168306 0.7821813 0.20799422
000010 29 9f 96 3e 54 46 b7 3d 11 73 dd 3d 90 f3 5f 3f
       0.29418305 0.08948961 0.10812963 0.8748102
000020 55 4b c7 3e 0d 24 01 3f ca 6a 02 40 49 07 50 3f
       0.3892466 0.50445634 2.037768 0.81261116
000030 a2 49 8f 3f a2 40 b1 3e f4 2f 9b 3e aa 00 80 3e
       1.1194346 0.34619623 0.30310023 0.25000507
000040 cf 10 80 3f 2f f2 ff 3d 9d 8a 1c 3e c3 16 2c 3f
       1.000513 0.12497365 0.15287252 0.6722223
000050 fa 0d 53 3f 6b bc f5 3e 06 56 03 3e d7 8d e1 3f
       0.824432 0.47995314 0.12825784 1.7621411
000060 2a 00 0f 3e 91 24 f4 3e fd 7f 70 3e 0f ad 57 3f
       0.13964906 0.47684148 0.23486324 0.8424844
000070 bb 17 34 3e 7c 41 d4 3e 72 f2 dd 3d f7 cb 6c 3e
       0.17587177 0.4145621 0.108372584 0.23124681
000080 32 6c 8c 3d 66 e8 06 3f 4e f1 3a 40 4c 2d 25 3f
       0.06856574 0.5269836 2.920978 0.6452224
000090 19 40 35 3e 6a fe cb 3d 61 59 cf 3f e2 cd cc 3e
       0.17700233 0.09960635 1.6199151 0.40000826
0000a0 1e 34 fd 3e 1a 28 9e 3e a7 5d ba 3d 6f 94 55 3f
       0.49453825 0.3088997 0.09099894 0.83429617
0000b0 c8 fe e4 3f 88 24 df 3e 88 50 3b 3f b2 68 32 40
       1.7890253 0.4358256 0.73169756 2.78764
0000c0 43 8d 37 3e 01 5e c5 3f ed ee c8 3f bc 3a 7b 3e
       0.17924981 1.5419313 1.5697914 0.24534124
0000d0 56 0e b0 3e 1c 07 83 3f 21 06 b9 3e eb 93 ee 3e
       0.34385937 1.0236545 0.36137488 0.46597227
0000e0 db c1 c2 3e db cd 9d 3e 5c cc 60 3f e5 af eb 3e
       0.38038525 0.30821118 0.8781183 0.46032634
0000f0 c0 fb 3d 3d 73 7f 07 3f f8 a9 1d 3f
       0.046382666 0.5292885 0.61587477

network.3.weight f4 [63, 63]
000000 e6 ad 43 bf 05 ed de bd cb 1b 06 c0 c9 54 ab be
       -0.7643722 -0.10885052 -2.0954463 -0.33463123
000010 dc d5 34 3e ae ee 98 3e 5b 52 cd 3d 82 45 87 c0
       0.17659706 0.29869598 0.10025474 -4.227235
000020 cd 6e b3 be a6 f1 db be 58 f4 c6 bd c1 24 6e bf
       -0.35045472 -0.429578 -0.097145736 -0.9302483
000030 88 2f 96 bd 40 d4 01 3f 7a a5 15 3f 60 06 fc bd
       -0.073332846 0.5071449 0.5845562 -0.123059034
000040 f4 71 04 bf e4 92 8b 3e f1 9d 6e 3e 5a 3d 43 3f
       -0.5173638 0.27260506 0.23302437 0.7626549
000050 5f 55 86 3d f7 ba 87 3d 32 f6 4f bf cc ce b3 3d
       0.06559252 0.066274576 -0.8123504 0.08779678
000060 d6 d5 4b 3e 48 59 47 3e b0 3f a0 be 04 8c 7f 3e
       0.1990579 0.19467652 -0.3129859 0.24955755
000070 52 e2 40 3f bc 1b 06 bf 98 16 c3 bf f5 93 7b be
       0.7534534 -0.5238607 -1.524127 -0.2456816
000080 0b ef 50 3e 4a 12 8f 3e d6 35 a1 3e 23 4f 84 3e
       0.20403688 0.2794364 0.31486386 0.25841627
000090 eb fb be bd 83 e2 c2 3d 81 c9 a4 3f ef 0a f1 bf
       -0.09325393 0.0951586 1.2873994 -1.8831462
0000a0 86 f9 b3 be 6f 51 05 bf fe 93 59 bd 4f fd c3 bf
       -0.3515131 -0.5207738 -0.053119652 -1.5311679
0000b0 f3 7c 62 bd c3 9b 3a 3c d7 7a 36 3f ca ff c0 3f
       -0.055294942 0.011389676 0.7128119 1.5078061
0000c0 da 52 42 be d0 12 36 bf f0 32 7a 3f e0 d0 34 be
       -0.18976918 -0.71122456 0.97733974 -0.17657804
0000d0 94 c9 75 3f 91 36 89 3f 94 a8 84 3f da bd cd 3d
       0.9601071 1.0719777 1.0363946 0.10045977
0000e0 0d 52 1e 3f 27 7b 42 be 86 9c a0 bf bb 6d b8 be
       0.6184395 -0.18992291 -1.2547767 -0.36021218
0000f0 d5 e5 1b be a2 5f 48 3f 87 1a a0 bf 83 44 38 3f
       -0.15224393 0.78270924 -1.2508096 0.7197954
000100 21 cc 2c bf 72 5e 64 be c4 87 88 3f 8d 21 1c 3f
       -0.67498976 -0.22301653 1.0666432 0.60988694
000110 35 f8 2d bf b8 72 ca be 9f f1 80 3f 78 1c 8a be
       -0.6795686 -0.39540648 1.0073737 -0.26974845
000120 f0 e1 36 c0 f4 a0 f0 be 7a 10 a7 3e 08 8d 6a bf
       -2.8575401 -0.46997797 0.32629758 -0.91621447
000130 e7 43 05 3e 28 f3 75 bf f5 a5 32 bd a9 05 d9 3e
       0.13014184 -0.9607415 -0.0436153 0.4238713
000140 fd 3b 39 bf 62 e8 9a bd 2c 87 0f be 0d 78 9e 3f
       -0.7235716 -0.07563855 -0.14016408 1.2380387
000150 88 20 d2 be 74 8d f9 be ba c3 01 c0 7e 12 8a 3e
       -0.41040444 -0.48740733 -2.0275712 0.26967233
000160 e5 7d d5 be 57 89 36 be c5 7f 2e 3f 57 9a 9a 3d
       -0.41697612 -0.17825828 0.6816371 0.07548969
000170 f4 29 26 bf 6a 20 9e be 37 56 cf be 98 79 98 3e
       -0.64907765 -0.30884105 -0.40495464 0.2978027
000180 a9 23 a4 be db 18 d0 3f 4c d1 59 be bf 03 01 bd
       -0.32058457 1.6257585 -0.21271247 -0.031497713
000190 6d 14 f3 be cb 57 9b be e0 fa 16 bd 1a 59 c0 be
       -0.4747652 -0.30340418 -0.036860347 -0.3756798
0001a0 de 01 a1 bf 8f 09 34 be db f3 d5 be e6 e3 ac 3f
       -1.2578695 -0.17581771 -0.4178761 1.3507049
0001b0 f9 ff 52 3f b2 ac 1f bf 7d 51 89 3f 1a a3 04 3f
       0.82421833 -0.6237289 1.0727993 0.51811373
0001c0 3c de 95 bf 78 4a 1c bf 1f 1c 62 bf f4 77 06 c0
       -1.1708446 -0.6105113 -0.8832416 -2.1010714
0001d0 f9 cd 9b bf e8 7c 21 3c f1 0e a2 3f ab 2c 6b bf
       -1.2172233 0.00985644 1.266081 -0.9186503
0001e0 f3 bd 67 be a6 d4 f8 3a d6 95 8b bf 8e ee 9e bf
       -0.22631054 0.0018984273 -1.0905101 -1.2416551
0001f0 cb ab a1 bf 13 02 2d bf 40 85 93 bf 36 c8 1d bf
       -1.2630552 -0.6758129 -1.152504 -0.6163362
000200 89 45 f5 be 5a 16 e8 3e 76 72 19 3f a3 b6 b1 bf
       -0.47904614 0.45329553 0.5994028 -1.3883861
000210 ca bf 24 be bd b5 14 3d 80 3d dd 3d 09 73 30 c0
       -0.16088787 0.03630613 0.10802746 -2.7570212
000220 d2 bd 3d 3f 5b 33 39 3e 27 48 b9 bf a8 f4 b7 be
       0.7411777 0.18085997 -1.4475144 -0.35928845
000230 b6 ac 88 bf 27 32 85 3c b0 7d b5 bf 6d 84 00 3e
       -1.0677707 0.016259266 -1.4178982 0.12550516
000240 56 04 81 bd 5e 13 02 3f 0d 65 89 3f ab 99 5b 3f
       -0.06299655 0.508108 1.0733963 0.85781354
000250 65 da 4f bf 79 92 c5 be 19 fa 4f bf 18 9a ee bf
       -0.8119262 -0.38588312 -0.81240994 -1.8640776
000260 3c 8f 5d be ff f9 ee 3f f2 0d 16 be 66 9c 48 be
       -0.21636671 1.8670043 -0.14653757 -0.19590911
000270 4a b6 9c 3d a8 b3 bc 3e fe 9c 09 be b2 f5 6e 3f
       0.076519564 0.36855817 -0.13438794 0.9334365
000280 3e 93 48 3e ff fa c8 3e b5 94 d4 be 97 4e b9 bf
       0.19587418 0.39253995 -0.41519704 -1.4477109
000290 02 42 2c bf b5 1a f6 bd e4 fe 0f bf 44 4d 05 bf
       -0.6728822 -0.12016813 -0.5624831 -0.52071023
0002a0 0e 48 ab be b5 f7 23 3f df db 38 3e 41 d5 3b 3f
       -0.3345341 0.64049846 0.18052624 0.73372275
0002b0 a7 33 34 3f db a0 82 3d 07 8d c8 3f b6 3d 76 bf
       0.70391315 0.06378337 1.5668038 -0.96187913
0002c0 d9 f7 81 3f e4 ba 45 3f b3 c0 4b bf d5 ef d0 be
       1.0153762 0.772383 -0.7959091 -0.40807977
0002d0 40 0f df 3e bb 80 9e 3f c3 0e 37 bf af 08 38 3f
       0.43566322 1.2383035 -0.715069 0.7188825
0002e0 0c 64 51 bd 07 8f 78 bf 11 da 3d be 86 a3 e4 bd
       -0.051120803 -0.9709324 -0.18540217 -0.11164002
0002f0 8e a4 cd bd ef e3 57 bf e7 f2 be be b9 6b ae bf
       -0.10041152 -0.84332174 -0.37294695 -1.3626624
000300 54 4c b6 3f b1 bd 65 bf 85 ad eb be be 78 36 be
       1.4242043 -0.8974257 -0.46030822 -0.17819497
000310 c5 0c af 3e dd 6c 95 bf c7 72 10 3f 3f 5c 10 be
       0.3418943 -1.1673847 0.56425136 -0.14097689
000320 b9 7e c8 3e e7 82 83 be 48 66 8b 3f e3 b4 08 3d
       0.39159182 -0.25685808 1.0890589 0.033375632
000330 1b a2 8b bf 16 dc 0e bf 87 8e 88 3f a6 ba ec be
       -1.0908846 -0.55804574 1.0668496 -0.4623615
000340 2c 8a f0 3f f1 e5 fc 3f 58 58 50 3f 17 a8 ba 3e
       1.8792167 1.9757673 0.813848 0.36456367
000350 d6 fa 30 3f ea 99 09 3e 1e fd 10 bf 85 5e 5f be
       0.69132745 0.1343762 -0.56636226 -0.218134
000360 f4 21 05 be ea ff 01 bf e0 ff e0 bd 25 74 7b be
       -0.13001233 -0.5078112 -0.10986304 -0.24556024
000370 35 db 64 3e 7e 9e b8 3d 3a b0 8e be d8 6e 79 bd
       0.22349246 0.09014605 -0.27868825 -0.060896724
000380 9f a7 87 3f 4e b3 05 c0 b5 04 7a bf cc f1 65 3e
       1.0598029 -2.089069 -0.9766343 0.2245552
000390 61 43 84 3f 17 35 37 3f 28 ac 0f bf 10 c7 14 bf
       1.0333062 0.71565384 -0.56122065 -0.58116245
0003a0 32 bd 40 bf d8 75 ba 3d 6c 38 99 be 19 4c 43 be
       -0.7528869 0.09104508 -0.2992586 -0.19071998
0003b0 b0 12 33 be 58 30 3f be c5 4a b5 bf ea c0 30 bf
       -0.17487597 -0.18670785 -1.4163443 -0.69044363
0003c0 fa 46 e2 3e 3c 50 46 3e 15 dd 24 bc 7d f3 64 bf
       0.44194776 0.19366544 -0.010062476 -0.89434034
0003d0 ff 04 7f bf ba b8 52 be 72 c2 74 be bf 17 3e 3e
       -0.99617 -0.2057828 -0.239023 0.18563746
0003e0 a2 62 ad bf 50 1a ab bd 7f ce f9 bb f7 34 db bf
       -1.3545725 -0.08354628 -0.007623493 -1.7125539
0003f0 95 a8 b1 3e 47 91 27 bf 95 da c7 3f a7 20 14 3f
       0.3469893 -0.6545605 1.5613581 0.57862324

network.3.bias f4 [63]
000000 f5 06 00 3f cb 8f 00 3f f6 c1 ff 3e 18 ea ff 3e
       0.50010616 0.5021941 0.49952668 0.49983287
000010 9e 2e 00 3f c8 56 00 3f 4d fd ff 3e 20 ba 00 3f
       0.5007113 0.5013242 0.4999794 0.50284004
000020 ee d2 ff 3e 60 88 ff 3e 86 25 00 3f c8 9b 00 3f
       0.49965614 0.49908733 0.50057256 0.50237703
000030 c9 34 00 3f 83 58 00 3f 8f e3 ff 3e 32 0d 00 3f
       0.50080544 0.5013506 0.499783 0.50020134
000040 ae 44 ff 3e 4d 39 00 3f 8b 23 ff 3e 2b f1 ff 3e
       0.49857086 0.50087434 0.49831805 0.49988684
000050 cc 23 00 3f 91 2f 00 3f b7 1e 00 3f 82 e1 ff 3e
       0.5005462 0.5007258 0.5004687 0.49976736
000060 b9 e6 ff 3e f4 9e ff 3e 28 09 00 3f 40 93 ff 3e
       0.49980715 0.4992596 0.5001397 0.4991703
000070 41 e2 ff 3e cc 2a 00 3f 1c 8f ff 3e c2 de ff 3e
       0.49977306 0.500653 0.4991387 0.49974638
000080 b2 d4 ff 3e d5 a9 ff 3e 54 04 00 3f 55 fe ff 3e
       0.4996696 0.4993426 0.50006604 0.49998727
000090 61 d5 ff 3e f3 5f 00 3f 2f 72 ff 3e 0c 25 ff 3e
       0.49967483 0.50146407 0.49891803 0.49832952
0000a0 29 de ff 3e 1f f1 fe 3e 05 b1 ff 3e 00 37 ff 3e
       0.49974182 0.49793336 0.49939743 0.4984665
0000b0 81 cb ff 3e 98 de ff 3e 63 56 00 3f e7 69 00 3f
       0.4995995 0.49974513 0.50131816 0.50161594
0000c0 87 a4 ff 3e 8d 9e ff 3e f5 50 00 3f 64 b2 ff 3e
       0.49930212 0.49925652 0.5012353 0.4994079
0000d0 9b 59 ff 3e 88 aa 00 3f f2 1b 00 3f d4 33 00 3f
       0.4987305 0.5026021 0.5004264 0.50079083
0000e0 aa 62 00 3f 50 89 ff 3e 45 96 ff 3e c2 13 00 3f
       0.5015055 0.4990945 0.49919334 0.5003015
0000f0 9a 24 00 3f ee a3 ff 3e f8 a9 ff 3e
       0.5005585 0.49929756 0.49934363

network.4.running_mean f4 [63]
000000 73 18 6a bf 5f f0 12 c0 52 0f 37 bf 93 5e 91 bf
       -0.91443557 -2.295921 -0.7150775 -1.1356987
000010 e3 a6 ba bf 09 18 03 40 69 99 d8 bf 30 af ac bf
       -1.458218 2.048342 -1.6921817 -1.3490963
000020 c2 f9 9e 3e e0 48 ad 3f 00 d0 6e bf bc e6 90 3f
       0.31049925 1.3537865 -0.9328613 1.1320415
000030 1e 40 00 c0 e4 c2 f7 3f d5 89 08 be 98 f1 b9 3e
       -2.0039134 1.9356351 -0.13333829 0.36317134
000040 1f de 3b 3f c5 d7 82 40 4c 1c 35 bf 2c 0a 3e bf
       0.73385805 4.088839 -0.707463 -0.7423427
000050 eb 9b 15 c0 d0 29 3b 40 56 3f b7 bf 93 b5 19 bf
       -2.3376415 2.924427 -1.4316204 -0.60042685
000060 3a cb 90 3f 35 6c f9 3d f8 ba 06 bf 0f dc a6 bf
       1.131202 0.12178842 -0.5262904 -1.3035907
000070 84 70 04 c0 aa bc 53 be 17 9b 22 be ba 56 1a 40
       -2.0693674 -0.20677438 -0.15879475 2.4115434
000080 76 7b c6 bf 41 b7 82 bf 16 71 46 bf 14 37 b6 be
       -1.5506427 -1.0212175 -0.77516305 -0.35588896
000090 b7 ad 67 bf b3 36 70 3e 35 e9 a2 bf 64 7a 20 3f
       -0.9049944 0.23458366 -1.2727419 0.62686753
0000a0 34 45 70 bf c7 f5 3a bf 88 33 8d 3f e7 14 4d bd
       -0.93855596 -0.73031276 1.1031351 -0.050068762
0000b0 31 64 f2 bf c3 c4 80 bf e6 e9 4f bf 03 4a 45 bf
       -1.8936826 -1.0060047 -0.81216276 -0.7706606
0000c0 7e 41 a6 3f bb dd cb bf e3 ef 5c 3f 3d 02 b9 bf
       1.2988737 -1.5927042 0.8630354 -1.4453808
0000d0 34 24 de bf d4 e1 61 3f f2 5a f0 3c 5e d9 15 c0
       -1.7354798 0.8823521 0.029340241 -2.341392
0000e0 ef 68 af 3f 97 fa b4 bf 24 3a 64 bf ca 3f a9 bf
       1.3703898 -1.4138974 -0.89151216 -1.3222592
0000f0 d0 48 35 c0 0f bd 16 bf a0 2e 2b c0
       -2.8325691 -0.5888223 -2.6747208

network.4.running_var f4 [63]
000000 31 a7 b7 40 d2 cb 03 41 3c 5c 9e 40 1b de be 40
       5.739159 8.237261 4.948759 5.9646125
000010 b9 7e 4d 41 a0 8a 12 42 92 63 e3 40 db 8b 20 41
       12.843438 36.635376 7.1059046 10.034144
000020 69 2b 09 41 9e 8a 28 41 20 0e 8c 40 92 f2 41 41
       8.573098 10.533842 4.3767242 12.121721
000030 23 cc a4 40 56 f3 0e 41 8f 73 fe 40 da a1 33 40
       5.149919 8.934408 7.9516063 2.8067536
000040 3e a6 c8 41 8a 5a 61 42 00 44 da 40 50 72 63 40
       25.081173 56.338417 6.820801 3.553852
000050 ee 6c b2 41 79 69 08 42 d7 b7 43 41 91 80 0e 41
       22.303188 34.103 12.232383 8.906388
000060 9a 2f d3 40 69 31 3f 41 68 c4 e8 41 3d da 05 41
       6.5995607 11.949563 29.095901 8.365781
000070 12 92 24 41 27 eb 63 41 96 7b 04 40 6e 57 0a 42
       10.285662 14.24491 2.070043 34.58538
000080 e5 f9 3d 42 21 3d 5b 41 a4 17 eb 40 31 e3 23 41
       47.494038 13.702424 7.346636 10.242967
000090 4e c1 df 40 8f 3d 60 41 04 1a 2a 41 ba 40 f9 40
       6.992347 14.015029 10.631351 7.789151
0000a0 17 c0 b9 41 c8 f8 93 40 82 cd 08 41 bd 91 2a 42
       23.218794 4.624119 8.550173 42.642323
0000b0 bd 98 99 40 ba 82 79 41 e0 59 84 40 9a f8 24 41
       4.799895 15.594416 4.135971 10.310694
0000c0 0f d7 25 41 bb 79 06 41 90 e9 bb 40 f2 13 a9 40
       10.365005 8.404719 5.872261 5.2836847
0000d0 2e 53 b8 41 9e 09 1c 41 5b fb bd 40 ab 47 b6 41
       23.040615 9.752348 5.936933 22.784994
0000e0 45 66 5a 41 d0 f2 8c 41 61 30 9e 41 23 88 dd 40
       13.649968 17.61856 19.773623 6.9228683
0000f0 4d e2 87 41 66 37 2c 41 ef 1c 8a 41
       16.985498 10.763525 17.264128

network.6.weight f4 [63, 63]
000000 86 5b 1f 3f ea b7 84 3c d4 9c 2b bf cd 4c d1 3e
       0.6224903 0.016200978 -0.67036176 0.40878907
000010 12 a2 45 bf 98 a5 c6 3d 7a 29 f5 3e f6 44 ed be
       -0.77200425 0.09699553 0.47883207 -0.46341676
000020 9b a1 db 3f 10 b0 b6 be d4 f6 d1 be 58 80 50 bf
       1.7158693 -0.356812 -0.41008627 -0.8144584
000030 37 c1 39 3f 61 5a 0f bf 3d 25 01 3f 3d d6 d9 3d
       0.7256045 -0.5599728 0.50447446 0.10636566
000040 b5 7b 4f bf ca 13 b6 be ad 5b d9 bf 72 3a f1 3d
       -0.81048137 -0.35561973 -1.6981102 0.11778726
000050 93 d0 1d bf 12 c3 12 bf 7b 5b 31 bf 96 47 c3 bf
       -0.61646384 -0.57328904 -0.69280213 -1.5256221
000060 95 55 8c 3f 9a 6c 42 3e 56 59 c3 3f 4a 17 1f 3f
       1.0963618 0.1898674 1.5261638 0.6214491
000070 f6 32 f4 3e e9 ee df 3f 51 16 1a 3e 0b 1c 83 3e
       0.4769513 1.7494785 0.15047576 0.25607333
000080 26 37 d7 be 95 1e ba bf 49 cc 92 be 5c 72 4b be
       -0.42034262 -1.4540583 -0.28671482 -0.19867843
000090 74 1c 2b bf 11 48 8c 3f d2 6c 5b 3f 33 e0 10 3f
       -0.6684029 1.0959493 0.8571292 0.565921
0000a0 62 d4 12 3f 17 9d a5 3f 24 aa 9b 3e fe 31 b6 3e
       0.5735532 1.2938565 0.30403244 0.35585016
0000b0 af ff 1a 3d cf d1 f6 be 36 3e 88 be c5 ba b5 bf
       0.037841495 -0.48206946 -0.26609963 -1.4197623
0000c0 d6 42 d4 be 66 e9 94 3f c5 b8 b5 bd ea 16 9e bf
       -0.41457242 1.1633728 -0.088731326 -1.2350743
0000d0 21 74 66 3f 72 ad 35 3e ec 78 64 3f af 59 e4 3e
       0.9002095 0.17741945 0.8924701 0.44599673
0000e0 27 d8 c9 3e ea 6e b4 be 2f 21 18 c0 b8 d7 40 3f
       0.39422724 -0.3524087 -2.3770254 0.7532916
0000f0 f9 9e b5 3e 4a 97 bb 3f 85 4e 1f 3e 6b 35 50 bf
       0.3547285 1.4655545 0.15557297 -0.8133151
000100 92 67 6a bf 37 dd f0 be f6 ba b3 bf 83 3a 39 3c
       -0.91564286 -0.47043774 -1.4041431 0.011305454
000110 47 98 8f bf 1b be 4f 3f 08 db 4a bf 37 2b 26 3e
       -1.1218346 0.8114945 -0.79240465 0.16227423
000120 8d 18 36 bf b6 c5 09 bf 69 f1 88 be f9 56 3d bd
       -0.7113121 -0.5381731 -0.2674668 -0.04622552
000130 5b e1 33 3f 7c e2 75 be 21 44 2e 3f 84 d2 ce 3e
       0.7026574 -0.24012178 0.68072706 0.40394986
000140 75 30 50 3f 31 e6 58 3e 1f 11 dc bd 3a 5e 00 40
       0.8132394 0.21181561 -0.10745453 2.0057511
000150 87 9f e2 bd b1 46 13 3e 95 56 3c 3f bf 63 a2 3f
       -0.11065584 0.14382435 0.73569614 1.268669
000160 b1 67 ab 3e 78 41 0f 3e c6 a0 3f 3d 47 7b 06 bf
       0.33477548 0.13989818 0.046784185 -0.52531856
000170 77 ec 5c 3f b1 f7 03 bf 97 b8 8f 3e ea 6f 45 bf
       0.86298317 -0.5154982 0.28070518 -0.7712389
000180 e4 a3 0b 3f 30 cc 1c bd ce 80 14 bf 96 15 78 3f
       0.5454695 -0.038280666 -0.5800904 0.9690794
000190 71 97 9a 3f 39 04 9b be 22 cb 02 bf cf 26 87 be
       1.2077466 -0.3027666 -0.51091206 -0.26396796
0001a0 48 7b a5 3f 87 4e 29 be 5b bd 7b bd 26 92 3f bf
       1.2928247 -0.16533862 -0.06145988 -0.7483238
0001b0 b0 ab 2c 3f 5d b3 9f be 45 88 71 be 9d 5c d7 bf
       0.67449474 -0.3119153 -0.23587139 -1.6825138
0001c0 50 a6 48 bf 69 8d 24 3f 56 c5 fc bf 5d af 96 3e
       -0.7837877 0.64278275 -1.9747722 0.29430667
0001d0 6b 76 7e 3e d1 da eb 3f fd 16 25 bc 2c ab 04 3f
       0.2484986 1.8426152 -0.010076282 0.5182369
0001e0 83 e5 ff 3e c6 29 a4 3f a3 0c 97 3f d2 7b a1 3f
       0.4997979 1.2825248 1.1800731 1.2615912
0001f0 a0 65 cc bf d5 dc 0c be 7a 8d d1 3e 9c 8c 4a 3f
       -1.5968513 -0.13756116 0.4092825 0.791208
000200 43 93 8d 3d e0 6d 1a bf 1b 49 fd be d2 9d 50 c0
       0.069128536 -0.60323906 -0.49469838 -3.2596326
000210 e2 a1 db bd 47 6a 1f bf d5 96 b1 3e 81 4f ce be
       -0.10724236 -0.6227154 0.34685388 -0.40295032
000220 0c 93 d6 3d 51 2b e3 3d 4f 14 3e 3c 29 7e a2 bf
       0.10477266 0.11092246 0.011601522 -1.2694751
000230 1b 21 9a be 59 d9 d3 3e e2 c7 78 be ec 53 f0 3e
       -0.30103382 0.4137676 -0.24294999 0.46939027
000240 64 4e ef be 40 a0 82 bd 83 9e a8 bc 18 39 25 bc
       -0.46739495 -0.063782215 -0.020583397 -0.010084413
000250 91 93 76 3e 34 fe e5 3e 5f dc 7d 3f 16 fa f3 3e
       0.2407973 0.44920504 0.99164385 0.47651738
000260 8c cb ec be 8c a5 bf 3f 79 f7 88 bf 7f 8f ab bf
       -0.46249044 1.4972396 -1.0700523 -1.3403167
000270 20 5c fc bd e1 40 b0 3f 0a 96 19 40 81 be d5 bd
       -0.12322259 1.37698 2.3997827 -0.10436726
000280 00 8e e1 bc a4 65 6d be 30 d6 1b 3f 81 8e 0f be
       -0.027533531 -0.23183304 0.608737 -0.14019205
000290 31 bb 3d be 9c 4a db be 86 da 8c bf 27 5a a6 3c
       -0.18528439 -0.4283036 -1.1004188 0.02030666
0002a0 80 39 0a bf 22 67 ef 3e e0 87 07 bf 13 0b e5 3f
       -0.5399399 0.46758372 -0.52941704 1.7894005
0002b0 db f9 a7 be 30 e3 5f 3f 5a 8b 96 bf a0 b7 79 bc
       -0.32807812 0.87456036 -1.1761277 -0.0152415335
0002c0 78 e1 88 3f 5d 47 02 3c 13 f7 00 bf 45 54 3d bf
       1.0693808 0.007951585 -0.50377005 -0.7395671
0002d0 a1 79 bd bd d2 56 9b 3d 2f 84 9f be 35 00 1a 3f
       -0.092517145 0.07584919 -0.31155536 0.60156566
0002e0 3c 30 98 be 3a 3d 45 3f fa 0b 23 3f d2 f1 b6 bf
       -0.297243 0.7704655 0.6369015 -1.4292548
0002f0 29 04 0e be 91 12 1a 3f 0f 2b 08 3f 07 e7 a8 3f
       -0.13868774 0.6018458 0.531907 1.3195504
000300 90 fb 87 3f 58 7c b3 3d ce e6 fc bd 0f c2 31 3f
       1.0623646 0.08763951 -0.1234871 0.69436735
000310 05 6c 5f 3f 06 b4 03 bf d1 b3 0d be 27 60 50 3e
       0.872742 -0.5144657 -0.13838126 0.20349179
000320 e8 f5 78 3d 94 70 93 bf 03 9b 3f bf 20 67 9d 3d
       0.06078139 -1.1518731 -0.74845904 0.07685685
000330 72 5e 72 3c 3c ea 04 bf d0 ad e8 3e 3e e4 c3 3f
       0.014793025 -0.51919913 0.45445108 1.5304029
000340 cd 38 df be 13 b8 48 3f b4 54 19 3f 79 16 6d 3f
       -0.43598023 0.78405875 0.5989487 0.92612416
000350 60 48 5f 3f ed ea 58 40 36 ce 8a 3d 11 4e 79 3f
       0.8721981 3.3893387 0.06777613 0.97384745
000360 e5 be f7 be 82 9b 36 bf 64 ed fd 3e f8 39 84 bf
       -0.48387828 -0.71331036 0.49595177 -1.0330191
000370 70 85 67 3f a5 ed 91 3e d5 65 ab 3f bf a8 05 3f
       0.90437984 0.2850162 1.3390452 0.5221061
000380 2f 92 71 bd c8 b8 a0 3f ab e6 73 3e 35 fe 87 3d
       -0.058977302 1.2556391 0.23818462 0.06640283
000390 51 ca 3b be d4 13 4a bd 12 61 32 bf 50 bc 27 bf
       -0.18338896 -0.049335316 -0.6967937 -0.6552172
0003a0 eb a0 67 bf 16 2c f4 be a3 89 4a bf ed 5a 78 3e
       -0.90479916 -0.47689885 -0.79116267 0.24253435
0003b0 1c b4 33 bf a4 ce f0 3e 8f 01 00 3e e1 09 41 be
       -0.701967 0.47032654 0.12500595 -0.18851425
0003c0 09 7e 3c bf 4f 19 f3 3e 2f 81 3c be 5f 4b 99 be
       -0.73629814 0.47480246 -0.18408655 -0.29940316
0003d0 b2 32 05 3f ed bd 0e 3f 18 5f 27 be 48 a5 ca bd
       0.5203048 0.55758554 -0.16344869 -0.09894806
0003e0 d5 d0 15 bf 14 e4 03 bf 27 b5 c0 be 4b 5e bd 3e
       -0.5852178 -0.51519895 -0.37638208 0.36986002
0003f0 aa 9e 8e 3f 3c 09 e7 3e 8a b4 51 3f 4b 91 e3 bf
       1.114217 0.45124233 0.81916106 -1.7778715

network.6.bias f4 [63]
000000 3a cd ff 3e d5 a5 ff 3e f8 f4 ff 3e 60 e6 ff 3e
       0.49961263 0.49931207 0.49991584 0.4998045
000010 a6 92 ff 3e 47 78 00 3f bc a7 ff 3e 60 1e 00 3f
       0.4991657 0.5018353 0.4993266 0.5004635
000020 43 f8 ff 3e 09 1d ff 3e 8f 2f 00 3f 86 10 00 3f
       0.49994096 0.4982684 0.5007257 0.5002521
000030 e7 7c 00 3f 23 15 00 3f 66 dc ff 3e d2 b6 ff 3e
       0.50190586 0.5003225 0.49972838 0.49944168
000040 c9 17 00 3f 81 03 00 3f 38 86 00 3f 9e f7 ff 3e
       0.50036293 0.50005347 0.502048 0.49993604
000050 8a 02 00 3f 73 e5 ff 3e 23 63 00 3f e0 cb ff 3e
       0.50003874 0.49979743 0.5015127 0.49960232
000060 6d 00 00 3f 9d 56 00 3f 93 06 00 3f a0 86 ff 3e
       0.5000065 0.5013216 0.5001003 0.49907398
000070 3c 49 00 3f 58 36 00 3f 81 e3 ff 3e 58 48 fe 3e
       0.50111747 0.5008292 0.4997826 0.4966457
000080 d8 a4 ff 3e 0c 1f 00 3f ac 3e 00 3f cd 1c 00 3f
       0.49930453 0.50047374 0.5009563 0.50043947
000090 fc d1 ff 3e d9 09 00 3f 79 c1 ff 3e d9 24 00 3f
       0.49964893 0.50015026 0.49952295 0.50056225
0000a0 3b 30 00 3f 29 10 00 3f 0b 9d ff 3e ef 39 00 3f
       0.50073594 0.5002466 0.49924502 0.500884
0000b0 d9 13 00 3f b5 ff ff 3e 35 13 00 3f 31 1b 00 3f
       0.50030285 0.49999776 0.5002931 0.5004149
0000c0 6a e7 ff 3e b7 22 00 3f 1f 49 ff 3e 7d 3e 00 3f
       0.49981242 0.5005297 0.49860474 0.5009535
0000d0 fa 0d 00 3f f9 14 00 3f 93 17 00 3f a4 28 00 3f
       0.50021327 0.50032 0.5003597 0.5006201
0000e0 d3 32 00 3f 7b be ff 3e 2b 2b ff 3e 7e 17 00 3f
       0.5007755 0.49950013 0.49837622 0.50035846
0000f0 89 dd ff 3e 37 e0 ff 3e 18 0d 00 3f
       0.49973705 0.4997575 0.5001998

network.7.running_mean f4 [63]
000000 d4 15 94 3f 7f ba ad 3f 62 37 34 3e 54 44 15 40
       1.1569161 1.3572539 0.17599252 2.3322954
000010 64 1d ed bf e2 9c e9 3f 0d 76 94 3e f9 06 03 40
       -1.8524594 1.8251002 0.28996316 2.0473006
000020 43 fa 49 3e 25 1f 8c 3e 78 9d 50 bf 50 11 12 bf
       0.19724374 0.2736751 -0.8149028 -0.57057667
000030 1d 67 d3 bf 96 a3 36 3f 24 e4 74 be 25 fc 32 3e
       -1.6515843 0.7134336 -0.23915154 0.17478998
000040 38 64 f1 be 37 b7 cd 3f c2 6d 05 40 99 51 33 bf
       -0.47146773 1.6071538 2.084824 -0.70046383
000050 49 a8 39 3f 06 a2 b3 be 82 35 65 bf 6f f4 e0 3e
       0.7252241 -0.35084552 -0.8953477 0.43936488
000060 5d 8e 44 bf 8f af a5 be 41 1a 94 3f 8c 72 3a 3f
       -0.7677973 -0.32360503 1.1570512 0.72831035
000070 c7 ab 83 bf 6c 6e 4c 3f a3 08 45 3f e0 ff d3 bd
       -1.0286797 0.7985599 0.76966304 -0.10351539
000080 13 a5 84 3f 33 21 d5 3f 82 1b b2 3e c7 e8 f3 3d
       1.0362877 1.6650757 0.34786612 0.11909633
000090 5b fb 4e be ee 7b b1 3f e9 71 2b be e0 95 d2 3e
       -0.20213072 1.3865945 -0.16742672 0.4112997
0000a0 5f 2a 3e 3f 48 22 80 3e 08 09 94 bf 1d b2 83 3d
       0.74283403 0.25026155 -1.1565256 0.06430457
0000b0 9b 92 19 3f 27 70 9f 3f 93 4a fa bb 42 20 fc 3e
       0.5998933 1.2456101 -0.0076382845 0.4924336
0000c0 a1 65 18 3f bf b0 19 bf 81 e7 23 be 17 29 6a bf
       0.59530073 -0.6003532 -0.1600628 -0.9146895
0000d0 4a 03 db 3f e0 3b 0d 3e e5 cf 4a 3e ec 71 b6 bf
       1.7110379 0.13792372 0.19805868 -1.4253516
0000e0 0c e7 1b 3e 5e 3b d1 3f 37 7a 29 3f ee 2f 7e be
       0.15224856 1.6346242 0.6620211 -0.24822971
0000f0 01 f1 8d be 31 6a f5 bf d0 be 36 be
       -0.27722934 -1.9173032 -0.17846227

network.7.running_var f4 [63]
000000 7b 9e 8a 40 f7 1f dc 40 df 82 b0 41 3b 91 a3 40
       4.3318458 6.878902 22.063902 5.1114783
000010 4e 66 6f 40 93 5a 2b 40 b9 3e d0 40 0f 08 92 40
       3.7406192 2.6774032 6.5076566 4.5634837
000020 c0 d5 72 40 82 98 bf 40 60 3a 85 40 62 fd a4 40
       3.7942963 5.9873667 4.163376 5.1559305
000030 ac 9f fa 40 2a e4 64 40 ba 8d 2c 40 f4 b4 86 41
       7.831991 3.576426 2.6961503 16.838356
000040 d4 0a c9 41 b8 5d 0b 41 8a e1 b4 40 85 58 7c 40
       25.130287 8.710381 5.6525316 3.9429028
000050 09 5e c9 40 ec 4c b8 40 f6 18 ef 40 72 55 a3 41
       6.292729 5.75939 7.471797 20.416721
000060 68 25 bb 40 69 42 60 41 59 fe ac 40 be 7a e8 40
       5.848316 14.016213 5.4060483 7.264983
000070 28 d1 d1 40 13 ec 88 40 51 25 5b 40 3f c7 4c 40
       6.556782 4.2788177 3.4241526 3.199661
000080 6f 35 65 41 ec d0 41 40 83 bc 7a 41 d6 b1 8b 40
       14.325545 3.0283766 15.671023 4.3654585
000090 d2 23 a0 41 e0 84 8c 41 16 b6 e1 40 d7 d6 2d 41
       20.01749 17.56488 7.0534773 10.864951
0000a0 b3 3d 04 41 28 7b b2 40 d6 cf 22 41 b4 7b b4 41
       8.265063 5.5775337 10.175741 22.560402
0000b0 d7 9b ab 41 66 92 20 41 8d 6e e0 40 2d c8 67 41
       21.451094 10.035742 7.013495 14.486371
0000c0 88 27 bf 40 15 82 b3 41 a7 34 28 42 68 68 be 40
       5.9735756 22.438517 42.05142 5.950245
0000d0 63 8a ba 40 14 07 0d 41 84 60 d9 41 50 eb e5 40
       5.829393 8.814228 27.172127 7.1849747
0000e0 19 43 7f 41 d1 06 0e 42 e5 02 02 42 ae 2b 6c 40
       15.953881 35.506657 32.502827 3.690166
0000f0 77 dd b4 41 c1 15 81 41 a8 01 93 40
       22.608137 16.135622 4.593952

network.9.weight f4 [63, 63]
000000 f8 a8 c5 bd 0c fe a3 3d 9c cd bf 3e b3 95 df 3b
       -0.09651369 0.0800744 0.37461555 0.0068232655
000010 0f 94 3c be 48 45 7f 3e 6b fd 80 bf 45 ec 82 be
       -0.18415855 0.24928772 -1.0077337 -0.25570884
000020 b0 fa ad 3e b0 16 a6 3f 3e 70 6c 3e fd fa 6a 3d
       0.33980322 1.2975674 0.23089692 0.057368267
000030 50 79 a1 bd ab c0 0f 3e 25 ae a0 bf 50 4d 10 bf
       -0.07884467 0.14038341 -1.2553145 -0.5636797
000040 95 3f 73 3f 1f 5d 8a 3f b2 ca 50 bf d7 45 37 3d
       0.95018893 1.0809668 -0.8155929 0.04474434
000050 e7 dc d5 3d 44 6d 29 3e 52 8a 2b bf 67 18 a0 3f
       0.104425244 0.16545588 -0.67007935 1.2507447
000060 a3 ec 56 be 8c 0f cf 3f 09 fd b6 3f cf be 6f 3f
       -0.20988707 1.617662 1.429597 0.93650526
000070 14 83 0a 3f 67 ac bd bf 2a 8c 88 be ae 4e b7 be
       0.5410626 -1.4818238 -0.26669437 -0.35802215
000080 60 6b 12 3f e5 6b b0 be 15 4a 4a 3f b5 50 28 bf
       0.5719509 -0.34457317 0.7901929 -0.6574815
000090 78 42 8a 3e 99 fb 88 bf 22 e4 12 bf 26 23 32 3f
       0.27003837 -1.0701782 -0.57379353 0.6958488
0000a0 da d5 2c 3f f4 c3 5b 3e 04 54 98 bf ab ac 3b bd
       0.6751381 0.21461469 -1.190064 -0.045818966
0000b0 c8 22 e5 3e b3 d3 c5 bf a5 99 0e 3f 0a 46 a5 be
       0.44753098 -1.545523 0.5570319 -0.32279998
0000c0 f0 d2 e1 be 04 37 fd 3d dd e6 1f 3f 9b e5 21 3f
       -0.44106245 0.12364009 0.62461644 0.63240975
0000d0 86 52 67 bf 92 cf 0e bf 46 a4 50 c0 3f 6d 0c 3f
       -0.90360296 -0.5578548 -3.2600265 0.54854196
0000e0 68 f9 03 40 0e 38 59 3e f9 a8 c7 3f 8e df 36 be
       2.0620975 0.2121279 1.5598441 -0.17858717
0000f0 05 5d 15 bf 15 f1 25 be 18 9d 09 bf 7d 92 b3 3d
       -0.5834506 -0.16205247 -0.5375533 0.08768175
000100 b1 8b 5b bf 22 eb 47 3e ff 5e 90 3f f5 4c f2 be
       -0.8576003 0.1952329 1.127899 -0.4732434
000110 63 75 c7 3e b1 15 a2 bf f8 63 8c bd b8 ac 0a 3f
       0.38956746 -1.266287 -0.06855005 0.541698
000120 0e e2 85 3f 24 8e 63 3e 6f b0 43 3f 28 23 5b bf
       1.0459611 0.22222191 0.7644109 -0.8560052
000130 a1 17 1d c0 7b 0a 01 be 6c e5 b9 be fc 77 3d bf
       -2.4545672 -0.12601654 -0.36307847 -0.74011207
000140 b7 3c 94 3f 3f f9 22 be cb cd 17 3f d4 47 2d 3f
       1.1581029 -0.15915392 0.5929839 0.67687726
000150 d0 c2 e5 3f b2 d4 8f bf a7 5a cf 3e 4d 11 b1 bd
       1.7950077 -1.1236784 0.4049885 -0.08645878
000160 16 54 67 be be eb 67 bf e6 28 74 3e 9c d6 83 3f
       -0.2259067 -0.9059409 0.23843727 1.0299869
000170 3b a2 18 c0 7e 1e 7d 3e 20 cf fb be 65 0c d1 be
       -2.3849018 0.24718663 -0.4918146 -0.4082977
000180 65 78 98 be 2c 26 a7 bf 29 38 a9 bf b5 96 3b 3d
       -0.29779354 -1.3058524 -1.3220264 0.045798022
000190 88 8c 80 3f 7f 08 7f be 33 e4 19 3e 39 1d 01 3f
       1.0042887 -0.24905585 0.15028457 0.50435215
0001a0 19 1b 01 3f 18 e4 37 3e 8e e5 82 bf ef c6 88 3e
       0.5043197 0.17958105 -1.0226305 0.26714274
0001b0 d3 48 1f 3f 7c de cf 3d a7 8a 46 3f 9d 19 4b bf
       0.62220496 0.101498574 0.77555317 -0.7933596
0001c0 2e e6 44 bf d9 16 02 bd d2 eb 39 3e fc af 6e 3e
       -0.76913726 -0.03176007 0.18156365 0.2330932
0001d0 5e 99 93 bd a4 53 89 bf 70 3a 27 bf 6c 11 97 3d
       -0.07206987 -1.072865 -0.65323544 0.0737637
0001e0 7c 3f b3 bf 27 06 72 3e e4 81 05 be 13 a9 b8 3f
       -1.4003749 0.2363516 -0.1303783 1.4426597
0001f0 f3 d4 1e 3d fa 70 8e 3e 30 05 39 bf a5 5b 67 3f
       0.038777303 0.2782057 -0.7227354 0.90374213
000200 91 11 1d 3d c7 c3 8d bf 97 70 56 3f 57 50 8a 3e
       0.03834683 -1.1075372 0.8376555 0.2701442
000210 25 f7 c9 bf 11 e5 a0 be c8 2a a6 3d 4d 2e 02 c0
       -1.5778548 -0.31424764 0.081136286 -2.034076
000220 ed 8d ba 3f 08 cd f9 bf 28 e5 0a 40 c1 d6 42 3f
       1.4574562 -1.9515696 2.1702366 0.7610894
000230 a0 43 92 3d 92 a5 05 bf 42 ec 32 bf f2 94 20 3f
       0.07141805 -0.52205765 -0.6989175 0.6272727
000240 7f 4c f0 3e f4 21 b9 bf 00 a3 8c be c8 12 75 be
       0.46933362 -1.4463487 -0.2746811 -0.23932946
000250 93 96 a9 be 87 54 80 3a ec 92 35 bf 47 5e a0 be
       -0.33122692 0.0009790816 -0.7092731 -0.31321928
000260 23 85 7f 3f 73 d3 c8 bf af b8 81 3e 4b fa 94 3f
       0.99812526 -1.5689529 0.25336215 1.1638883
000270 b2 8d b4 3e 73 d9 c3 3f 02 e6 0c bf f3 ad 83 3e
       0.35264355 1.5300735 -0.55038464 0.2571865
000280 9c af 90 3e 44 bb 21 3f e7 c6 a8 be 71 2f 23 3e
       0.2825898 0.6317637 -0.3296425 0.15936066
000290 c9 3e 89 3e ce 33 09 3f 11 a7 3a bf 8c ee 02 c0
       0.26805714 0.5359467 -0.72911173 -2.0458097
0002a0 30 7e 8e be d6 33 16 3f 6d 27 08 3e e5 43 ab be
       -0.27830648 0.58672845 0.1329629 -0.33450237
0002b0 34 76 0a 3f 44 9d 9b bf 82 75 99 3f 02 ea 2a 3f
       0.54086614 -1.2157369 1.1988986 0.6676332
0002c0 74 5e 77 be ef fb 00 3e a9 f9 b1 bf 94 0e d9 be
       -0.24157125 0.12596105 -1.3904315 -0.42393935
0002d0 83 d8 80 bd 36 be 82 3f a7 ca 27 3e d4 42 cf be
       -0.06291296 1.0214298 0.163859 -0.40480673
0002e0 c6 ef 84 3f a3 bd a9 3f ab 32 e5 3e a1 e0 90 3d
       1.0385673 1.3260998 0.4476522 0.070740946
0002f0 e0 77 2b bf 74 33 33 3e 9d 61 e2 3e 1d aa 0a 3f
       -0.6697979 0.17500097 0.44215098 0.5416582
000300 b3 b9 a1 3e d3 db 5d 3f ac 05 8a 3d b9 e7 5f bf
       0.3158699 0.8666355 0.06739363 -0.87462956
000310 ed b3 85 bf ad e4 43 3f ae 6f 87 bf 85 58 80 bd
       -1.0445534 0.76520807 -1.0580957 -0.06266884
000320 c1 17 99 bf b4 14 29 3f b8 01 fa 3d ff 96 9c bf
       -1.1960374 0.66047215 0.12207359 -1.223358
000330 2e 98 8a bc 8d 6c ec 3f ab f8 10 40 d6 ef cf 3e
       -0.016918268 1.8470627 2.2651775 0.40612668
000340 ed 62 15 bf 9f 3c e9 3d 3f 3c da 3e 2a 75 02 bf
       -0.58354074 0.11388516 0.4262409 -0.5096003
000350 2e a1 05 bf 99 35 f2 be 80 89 81 bf 44 3e 41 3f
       -0.52199066 -0.47306517 -1.0120087 0.75485635
000360 53 61 e6 bf 29 ee 36 3f 6d 89 0b 3f 68 af b0 bf
       -1.7998451 0.71457154 0.5450657 -1.380353
000370 da c8 b7 bd 36 c6 76 3e dd a8 4d 3f 6b 3d 99 bf
       -0.08973856 0.24099049 0.8033579 -1.1971868
000380 31 31 41 be 2b 34 df 3f 61 4a 7f 3f a5 46 05 bf
       -0.18866421 1.7437795 0.9972287 -0.5206092
000390 05 5b ce 3e 02 ec fd be 1b 6c 39 be 8a 70 09 3f
       0.40303817 -0.49594122 -0.18107645 0.53687346
0003a0 73 f1 d8 be bf 29 ec 3e 8f 5f 91 3e a4 48 9c be
       -0.4237171 0.461256 0.28393218 -0.3052417
0003b0 db bb 68 bf eb 79 92 3f c4 a2 80 bf 78 7e 03 c0
       -0.90911645 1.1443456 -1.0049672 -2.054594
0003c0 e9 9d 2e 3e 84 18 48 bf 4a 5e 02 be 6c 90 a4 bf
       0.17052425 -0.7816241 -0.12731281 -1.2856574
0003d0 53 a2 65 be 8e 67 87 bf 66 c9 a3 bf 43 37 7e 3f
       -0.22425203 -1.0578477 -1.2795837 0.9930307
0003e0 8c 54 e5 3e 57 b7 c5 3d 0d f8 31 3f 37 e7 63 bf
       0.44791067 0.0965411 0.6951912 -0.8902468
0003f0 96 b0 06 bf c8 94 a7 be 67 fa ad 3e 9f 53 da bd
       -0.526132 -0.327307 0.33980104 -0.10660481

network.9.bias f4 [63]
000000 b9 34 00 3f 9f 13 00 3f 09 5c 00 3f cd a3 ff 3e
       0.5008045 0.5002994 0.50140435 0.49929658
000010 a4 d8 ff 3e 5a 31 ff 3e 35 c1 ff 3e 85 4c 00 3f
       0.4996997 0.4984234 0.49952093 0.5011676
000020 e5 3c 00 3f 8a 11 00 3f 63 60 ff 3e a4 43 00 3f
       0.5009292 0.5002676 0.49878225 0.5010321
000030 47 21 00 3f ac c7 ff 3e 86 df ff 3e 86 11 00 3f
       0.5005078 0.49957025 0.49975222 0.5002674
000040 18 29 00 3f 4f f7 ff 3e 63 af ff 3e 6f a1 ff 3e
       0.50062704 0.4999337 0.49938497 0.49927852
000050 ad ad ff 3e 8c 1b 00 3f 1a b6 ff 3e 1d a9 00 3f
       0.49937192 0.50042033 0.4994362 0.50258046
000060 4a 4e 00 3f c9 23 00 3f 0b db ff 3e 7d 19 00 3f
       0.5011946 0.50054604 0.49971804 0.5003889
000070 86 ba ff 3e 91 72 00 3f 9f 08 00 3f c9 c8 ff 3e
       0.49946994 0.50174814 0.50013155 0.49957874
000080 f1 89 00 3f 9d 1c 00 3f 10 15 00 3f 60 cb ff 3e
       0.5021048 0.5004366 0.5003214 0.4995985
000090 40 e5 00 3f b4 57 ff 3e 59 aa 00 3f 8e d2 ff 3e
       0.5034981 0.498716 0.5025993 0.49965328
0000a0 76 42 00 3f 92 1c 00 3f 5d e9 ff 3e 0a f3 ff 3e
       0.5010141 0.50043595 0.4998273 0.49990112
0000b0 dd 10 00 3f 7f e5 ff 3e 19 0f 00 3f 25 82 00 3f
       0.5002573 0.4997978 0.5002304 0.50198585
0000c0 62 64 ff 3e 64 01 00 3f f5 89 00 3f 68 76 00 3f
       0.49881274 0.5000212 0.50210506 0.50180674
0000d0 4a 52 00 3f e9 ff 00 3f 2b 0f 00 3f 1a 76 ff 3e
       0.50125563 0.5039049 0.50023144 0.49894792
0000e0 7c 9f ff 3e 43 54 00 3f 1d 6a ff 3e d1 ff ff 3e
       0.49926364 0.50128573 0.49885646 0.4999986
0000f0 35 1c 00 3f 11 11 00 3f 9d 61 00 3f
       0.5004304 0.5002604 0.50148946

network.10.running_mean f4 [63]
000000 df 70 6f 3f 3c b9 e0 be 4c 00 65 3e 65 57 d7 be
       0.935316 -0.43891323 0.22363394 -0.42058864
000010 5d 61 c7 3d af 3b f7 be ba 2f a9 3e 77 92 00 40
       0.097353674 -0.48287722 0.33044225 2.0089395
000020 ea 7a 00 3f 00 b1 88 bf a6 12 bd 3e 19 06 a0 3e
       0.5018755 -1.0679016 0.3692829 0.31254652
000030 8f 36 16 3f b6 19 43 3f 7a 4c e2 bd 49 a2 b6 be
       0.58677 0.76211107 -0.11049743 -0.3567069
000040 38 16 4e 3f e3 32 db 3e c0 93 6b be 54 6c c6 be
       0.80502653 0.4281226 -0.23005581 -0.38754523
000050 44 ab 2d be 97 98 ef 3f 45 9c 46 3f 63 a0 db 3f
       -0.16959864 1.8718442 0.775822 1.7158321
000060 34 90 79 bd 5f 35 4c 40 91 e3 5f bf 8c bf 09 bf
       -0.06092854 3.1907575 -0.87456614 -0.538079
000070 fa 9e 05 3f eb a1 c5 3f a8 b0 5c be 57 6c 28 3f
       0.52195704 1.5440038 -0.21551764 0.65790313
000080 8a d8 9b be cb a7 21 bf 1c 68 91 be b6 ed 01 3f
       -0.30438644 -0.63146657 -0.28399742 0.50753343
000090 7f a3 e1 3f d4 7a 55 40 1f f7 74 3e fc 88 b1 be
       1.762802 3.3356218 0.23922394 -0.34674823
0000a0 24 63 d7 be 74 37 4c 3c 2d 9e 28 bf 87 36 38 3f
       -0.42067826 0.012464393 -0.6586636 0.719582
0000b0 95 55 5a 3e 31 35 1c bf e7 36 32 40 6d 65 0d 40
       0.2132171 -0.61018664 2.784601 2.2093155
0000c0 27 41 86 40 dc 60 33 3e 2c b7 bc 3f 0b 79 75 3f
       4.195453 0.17517418 1.47434 0.9588782
0000d0 16 e1 47 40 f0 98 b2 3f e3 08 f2 3f 9c d3 1b 40
       3.1231132 1.3952923 1.8908962 2.4347906
0000e0 5b 98 b5 be a1 ac 37 3f 18 1d 88 3e 83 3e a0 3e
       -0.354678 0.71747786 0.26584697 0.31297693
0000f0 6d 6c 80 3f 5c 73 db 3f bf 0c eb 3f
       1.0033089 1.714458 1.8363265

network.10.running_var f4 [63]
000000 c2 ff e4 41 fc 32 f7 40 29 f5 05 41 42 a2 52 41
       28.624882 7.7249737 8.372354 13.164614
000010 e3 c0 31 41 0c ee e6 40 9d ac fe 40 b8 7b 94 41
       11.1095915 7.2165585 7.958571 18.56041
000020 db 4f 7d 41 06 d1 6b 41 40 bf 07 41 b6 f7 8f 40
       15.831996 14.738531 8.484192 4.498988
000030 ca 05 2e 41 79 41 73 41 fe 7f 00 42 30 21 e4 41
       10.876413 15.203485 32.124992 28.516205
000040 d3 fb ec 40 b8 e4 b7 40 98 04 a3 40 da 05 34 41
       7.4057403 5.74667 5.0943108 11.251429
000050 a4 bb 38 41 76 60 a6 40 0b 89 b6 40 15 bc 13 41
       11.545811 5.199275 5.704229 9.233418
000060 6a 4e c2 41 c5 00 59 41 39 6b d2 40 48 3b e1 41
       24.288288 13.562688 6.5755887 28.153946
000070 32 ba 07 41 10 59 d1 40 98 37 32 41 33 d7 f6 41
       8.482958 6.542122 11.138573 30.855078
000080 38 a3 0e 41 fe 1e 05 41 cf 32 05 41 f3 59 a1 41
       8.914848 8.320066 8.324904 20.16892
000090 18 1a 1b 41 b7 bb d8 41 b2 79 9c 40 f2 60 c2 41
       9.693871 27.091658 4.8898554 24.297337
0000a0 91 a2 14 41 4c fa bb 40 8e 40 49 41 36 29 61 41
       9.289689 5.874304 12.57826 14.072561
0000b0 3c 90 0f 41 92 1b 2b 41 5e 65 0b 41 65 80 c0 41
       8.972713 10.694231 8.712248 24.062693
0000c0 21 44 1c 41 0f b6 98 40 25 a7 37 41 6f 16 66 40
       9.766633 4.772224 11.478307 3.5951192
0000d0 7d f5 62 41 6d f7 4c 41 80 2f a3 41 d2 f5 17 41
       14.184934 12.810407 20.398193 9.497515
0000e0 1d 35 a2 40 f8 11 dc 40 ba 16 1c 41 31 68 0e 41
       5.0689836 6.8771935 9.7555485 8.900437
0000f0 1e 19 7d 41 1d 9e 9a 40 90 27 0f 41
       15.818632 4.831801 8.947159
