src/runs/ann_left_hand/20241107/20241107-1505/ann_left_hand_5_layers_best.pth (torch, 314736 bytes, 34 tensors)

network.0.weight f4 [126, 150]
0	0xbc404d46	-0.011737173
1	0x3d574268	0.052553564
2	0x3d433d3b	0.047665816
3	0xbd8c0c51	-0.06838287
4	0xbce98d03	-0.028509622
5	0xbd9729da	-0.073810294
6	0x3ba4c7f3	0.0050287186
7	0xbc20eacd	-0.009821606
8	0xbcaba0cf	-0.020950703
9	0xbd8aef10	-0.06783879
10	0xbbc039ce	-0.005866266
11	0x3c2f89ed	0.010714036
12	0xbd32a803	-0.04361726
13	0xbd42c34c	-0.04754953
14	0x3d8ea7f8	0.06965631
15	0x3d6cf180	0.0578475
16	0x3c45513a	0.012043292
17	0x3c48926a	0.012241939
18	0x3d336445	0.043796796
19	0x3d17003a	0.03686545
20	0xbd54b3a5	-0.051929135
21	0xbd965288	-0.0733996
22	0xbcf01eb3	-0.029311514
23	0x3cbedb5d	0.02329796
24	0x3c9bc0ca	0.019012827
25	0x3d8a5a0e	0.06755458
26	0xbce74f77	-0.028236134
27	0x3a3e57de	0.0007261018
28	0x3e03c87d	0.12869449
29	0x3dc08c11	0.094017155
30	0xbc2665c5	-0.0101561
31	0x3ce6984d	0.028148795
32	0x3c703823	0.014661822
33	0x3d70eafa	0.05881784
34	0x3daa3281	0.08310414
35	0xbd07b236	-0.03312894
36	0x3daa40d6	0.08313148
37	0xbcc4a767	-0.024005605
38	0xbcfa0320	-0.030519068
39	0xbc8b5e5b	-0.017012766
40	0x3bc165d7	0.005902033
41	0x3dc87c43	0.09789326
42	0x3cff094c	0.031132363
43	0xbc3cdbcd	-0.011527014
44	0x3d796779	0.060889695
45	0x3cc13ae6	0.023587655
46	0x3d4ac439	0.04950354
47	0xbc384d2d	-0.011248869
48	0xbd427210	-0.04747206
49	0xbd85409a	-0.065064624
50	0x3d2701be	0.040773146
51	0x3d7c1c58	0.06155047
52	0x3cc079bb	0.023495546
53	0x3dcf06b5	0.10108701
54	0xbd033c6e	-0.032040052
55	0xbd87c814	-0.06629959
56	0x3bb2859c	0.0054480564
57	0x3d8d5d63	0.06902578
58	0xbc382a2f	-0.011240526
59	0xbcb6dde6	-0.022322606
60	0xbd4f50fa	-0.050614335
61	0x3d8b989d	0.06816218
62	0x3d62c194	0.05536039
63	0xbd8dc0b6	-0.06921522
64	0xbd8109c6	-0.06300692
65	0x3d694c9a	0.05695782
66	0x3d93403e	0.071899876
67	0xbdf6b97f	-0.12047099
68	0xbd98377b	-0.07432457
69	0xbd0bcd11	-0.034131113
70	0x3c504745	0.0127123045
71	0xbc64a86b	-0.01395617
72	0x3c8f7fce	0.017516997
73	0xbdb24a83	-0.08705618
74	0x3d0e7bef	0.03478616
75	0xbd6a90f9	-0.057267163
76	0xbc8d21ae	-0.017227974
77	0x3d082241	0.033235792
78	0x3c72630a	0.014794121
79	0xbddd3771	-0.1080159
80	0xbca52722	-0.020160262
81	0x3db2964e	0.087200746
82	0xbdbf6b30	-0.09346616
83	0xbdef680a	-0.11689766
84	0x3b86672b	0.004101654
85	0xbd385199	-0.044999693
86	0x3d9cfb80	0.07665157
87	0xbc8b9f55	-0.017043749
88	0x3d158075	0.03649946
89	0x3bd43060	0.0064754933
90	0xbd0989f6	-0.033578835
91	0x3cb7a43e	0.022417184
92	0x3db94f38	0.09048313
93	0xbc1a3445	-0.009411876
94	0x3d11203c	0.03543113
95	0xbc492709	-0.012277373
96	0x3cc092e9	0.023507552
97	0x3dae2af8	0.085042894
98	0xbd691972	-0.056909032
99	0x3dd30189	0.10303027
100	0x3b23b853	0.0024981692
101	0x3d156ea0	0.036482453
102	0xbdc27cf1	-0.09496487
103	0xbd3ac853	-0.0456012
104	0xbad654fc	-0.0016352232
105	0x3c08a386	0.008339768
106	0xbc26e9d0	-0.010187581
107	0xbdd81742	-0.10551311
108	0x3d4e39ce	0.050348096
109	0x3cdfa005	0.027297983
110	0x3c27d5ae	0.010243816
111	0x3c822306	0.015885841
112	0x3cb449db	0.022007873
113	0x3d963364	0.07334021
114	0xbcea13ad	-0.028573835
115	0x3df808b7	0.12111037
116	0x3e2d977f	0.16952322
117	0x3c83ee05	0.016104707
118	0xbc643098	-0.013927601
119	0x3de5a9f6	0.11214058
120	0x3e07d8f7	0.1326636
121	0xbd9a6799	-0.07539291
122	0xbd226f8b	-0.039657157
123	0x3db5fb7e	0.08885859
124	0xbcd11a3e	-0.025525209
125	0x3d622a9a	0.05521641
126	0x3ced97e1	0.029003086
127	0x3b9ad6fd	0.0047253356
128	0x3a107701	0.0005510897
129	0x3d9eebff	0.077598564
130	0xbd650e03	-0.055921566
131	0x3cd8fda0	0.026488125
132	0x3c874dfd	0.01651668
133	0x3d70817b	0.058717232
134	0xbd22e221	-0.039766435
135	0x3dd56f02	0.10421564
136	0x3da7ded2	0.081967965
137	0xbbe1fe3a	-0.0068967612
138	0x3d02efaa	0.031966843
139	0x3d3359fb	0.043786984
140	0xbbb376a3	-0.005476789
141	0xbc318a58	-0.010836206
142	0xbdc96134	-0.09832993
143	0x3ce0f230	0.027459234
144	0x3dc562da	0.09637995
145	0xbb1ccce6	-0.002392584
146	0xbcfab74a	-0.030604977
147	0xbb3cbcc5	-0.002879904
148	0xbb916ed3	-0.00443826
149	0x3dd28d78	0.10280889
150	0x3cc3b8aa	0.023891766
151	0x3c8fc2c5	0.017548928
152	0xbcdac41f	-0.026704846
153	0x3cb6978d	0.022289062
154	0x3ce3752a	0.02776583
155	0x3e0d7e43	0.13817696
156	0xbca24f4b	-0.0198132
157	0xbdacfe49	-0.084469385
158	0xbd453f03	-0.048155796
159	0x3daf61ab	0.085635506
160	0x3bf415cf	0.007448889
161	0xbc77cf1f	-0.015125065
162	0xbdc9cfc8	-0.09854084
163	0x3c01331a	0.007885719
164	0x3d12d67e	0.035849087
165	0xbdb3185a	-0.08744879
166	0xbd14d08d	-0.036331702
167	0xbbd2ef8a	-0.0064372467
168	0x3dc6dceb	0.097101055
169	0x3c873527	0.016504837
170	0x3cf47f7b	0.029845944
171	0xbbf1adda	-0.007375461
172	0xbcfc3ca3	-0.030790633
173	0x3cff7c4a	0.031187195
174	0xbdf0a45f	-0.11750101
175	0xbe1360d9	-0.14392413
176	0xbc2980a3	-0.010345611
177	0xbd79fc13	-0.061031412
178	0x3ccf236f	0.02528545
179	0xbe091895	-0.13388284
180	0xbd3dc8dc	-0.046334133
181	0xbcdc1c64	-0.026869006
182	0xbd6f17c3	-0.05837227
183	0xbd475335	-0.048663337
184	0xbc1e2930	-0.009653375
185	0x3c8d67bc	0.017261378
186	0x3d293424	0.04130949
187	0xbd4e1b9c	-0.0503193
188	0x3dc64b56	0.09682338
189	0x3d4a6ff4	0.049423173
190	0x3db63463	0.08896711
191	0xbda21d68	-0.07915765
192	0x3d3a61c8	0.045503408
193	0x3d3e3d7f	0.046445366
194	0x3c007a0a	0.007841596
195	0x3dd03ad9	0.10167474
196	0x3cf99bb3	0.030469751
197	0x3d8d250c	0.06891832
198	0x3cc2ef3e	0.02379572
199	0xbd06847d	-0.032841194
200	0xbd19c4b6	-0.037541114
201	0x3cc6c84a	0.024265427
202	0x3e293a40	0.16526127
203	0x3d03bdc2	0.03216339
204	0x3da2aa70	0.079426646
205	0x3d61f03c	0.055160746
206	0x3d1f8925	0.03894915
207	0x3cc56a98	0.02409868
208	0xbb3e1906	-0.0029006614
209	0x3d838d72	0.06423463
210	0xbd4297e4	-0.047508135
211	0x3c8fc788	0.017551199
212	0xb9cac794	-0.0003867714
213	0x3d1828ab	0.03714816
214	0xbdba406f	-0.09094321
215	0x3dd3edeb	0.103481136
216	0xbb51cc2b	-0.0032012563
217	0x3c87d802	0.016582493
218	0xbd0cdb68	-0.03438893
219	0x3de87910	0.11351216
220	0x3e180e58	0.14849222
221	0xbca3a5e9	-0.019976573
222	0x3db63a1a	0.08897801
223	0x3de18f12	0.110136166
224	0x3d97047f	0.073739044
225	0x3dcbd39e	0.09952472
226	0x3cf56eda	0.029960085
227	0xbc46bcea	-0.012130002
228	0x3b5b29d5	0.0033441682
229	0x3d72d1e1	0.059282187
230	0x3c9a1dd9	0.01881306
231	0xbd48788a	-0.04894308
232	0xbd8455b8	-0.06461662
233	0xbca46070	-0.020065516
234	0x3ca9803d	0.020691032
235	0x3cf29318	0.029611155
236	0x3d159856	0.036522232
237	0x3900aa82	0.0001227055
238	0x3df2c016	0.11853044
239	0x3cd180f5	0.025574187
240	0x3d8f85bc	0.0700793
241	0x3d19353a	0.037404276
242	0xbbbb2b56	-0.005711953
243	0xbd8e1839	-0.06938214
244	0xbd847f21	-0.064695604
245	0xbca358e6	-0.019939851
246	0xbd1c24b6	-0.038120948
247	0xbdbbaa21	-0.09163309
248	0xbd011b2d	-0.031520057
249	0xbceb883c	-0.028751485
250	0x3c205b63	0.009787413
251	0x393874c6	0.00017591109
252	0xbe394154	-0.18091327
253	0xbd56a4bb	-0.052403193
254	0xbe394f2f	-0.18096612
255	0xbc97413e	-0.018463727

network.0.bias f4 [126]
0	0x3ed51816	0.4161994
1	0x3f024d72	0.5089942
2	0x3f040873	0.5157539
3	0x3f001432	0.50030816
4	0x3ef96a43	0.48713884
5	0x3eeeae47	0.46617338
6	0x3ef7b0bb	0.48377022
7	0x3efafede	0.49022573
8	0x3ec3771a	0.38176805
9	0x3edec96a	0.43513042
10	0x3f01e15a	0.50734484
11	0x3eb6251a	0.3557518
12	0x3efed4a8	0.4977162
13	0x3ee4f6f4	0.4471966
14	0x3eebf229	0.4608319
15	0x3ed8bb6a	0.42330486
16	0x3f03261b	0.5123002
17	0x3eff88e3	0.49909124
18	0x3ef29634	0.4738022
19	0x3f05b66c	0.5223148
20	0x3f0ee67f	0.5582046
21	0x3ef1989b	0.4718674
22	0x3f0faa07	0.56118816
23	0x3f0e81f8	0.55667067
24	0x3ef57e5b	0.47947964
25	0x3f07237e	0.5278853
26	0x3f0ab477	0.5418162
27	0x3ef62e3d	0.48082152
28	0x3f085e6b	0.5326907
29	0x3f070579	0.52742726
30	0x3ed5090d	0.41608468
31	0x3f0a566d	0.54038125
32	0x3efa3ce4	0.4887458
33	0x3f09027b	0.5351941
34	0x3ef47c16	0.4775092
35	0x3f02eb8b	0.5114066
36	0x3f0cbea0	0.5497837
37	0x3f044be3	0.51678294
38	0x3f086846	0.5328411
39	0x3ef2f34d	0.4745125
40	0x3ee27268	0.4422791
41	0x3ebb42d9	0.36574438
42	0x3ed50db7	0.41612026
43	0x3f061692	0.5237819
44	0x3ec4bade	0.38423818
45	0x3f00947b	0.50226563
46	0x3efa35cb	0.48869166
47	0x3ed95da7	0.42454264
48	0x3edd5143	0.4322606
49	0x3ef9bd5c	0.48777282
50	0x3efcb856	0.49359387
51	0x3ef8123d	0.48451415
52	0x3ee76791	0.45196202
53	0x3f049912	0.51796067
54	0x3ef197d8	0.4718616
55	0x3eee21f6	0.46510285
56	0x3f016c96	0.50556314
57	0x3efbffdb	0.4921864
58	0x3f05b459	0.52228314
59	0x3ec9dcfa	0.39426404
60	0x3ee99ed7	0.45628998
61	0x3ee760e6	0.45191115
62	0x3f0113ff	0.50421137
63	0x3f149558	0.5804038
64	0x3f00cb48	0.5031018
65	0x3f08b8bd	0.5340689
66	0x3ee3984e	0.44452137
67	0x3f037884	0.5135577
68	0x3eeeca05	0.46638504
69	0x3f0beec5	0.5466121
70	0x3f006d49	0.50166756
71	0x3f074abf	0.5284843
72	0x3f171bea	0.5902697
73	0x3f04283f	0.5162391
74	0x3ee6d6af	0.45085666
75	0x3ef728a3	0.4827319
76	0x3f138335	0.5762208
77	0x3f096ab5	0.53678447
78	0x3ecda66d	0.40166035
79	0x3eed5355	0.4635264
80	0x3efdb557	0.49552414
81	0x3efc7cd0	0.49313974
82	0x3eed0a6f	0.46297023
83	0x3ef38416	0.4756171
84	0x3f029e35	0.51022655
85	0x3efe5952	0.4967752
86	0x3f0af8e4	0.54286027
87	0x3f087873	0.5330879
88	0x3ef341bf	0.47511098
89	0x3ef50498	0.47855067
90	0x3ee32337	0.44362804
91	0x3efb0ae9	0.4903176
92	0x3efbbc6b	0.4916719
93	0x3ee8b0fc	0.45447528
94	0x3f06172a	0.52379096
95	0x3eebcaf0	0.46053267
96	0x3efab3f8	0.4896543
97	0x3f01ebe1	0.5075055
98	0x3f045a1b	0.5169999
99	0x3ef9324e	0.48671192
100	0x3ef9d707	0.48796865
101	0x3efdb3ea	0.49551326
102	0x3ef3fe5d	0.47655
103	0x3ee7c2f4	0.45265925
104	0x3eff2fd0	0.49841166
105	0x3f0665d9	0.5249916
106	0x3ed4f1a6	0.41590613
107	0x3ecf072c	0.4043516
108	0x3f09226f	0.53568166
109	0x3edf1333	0.43569335
110	0x3ed6bd43	0.4194127
111	0x3f083fb1	0.53222185
112	0x3f0c7de1	0.54879576
113	0x3f04e63d	0.51913816
114	0x3ed86ef0	0.4227214
115	0x3efecf87	0.49767706
116	0x3ef1f5be	0.472578
117	0x3ef33931	0.4750457
118	0x3f0e48e9	0.5558
119	0x3efd951e	0.4952783
120	0x3ee4c221	0.4467936
121	0x3eec1f89	0.4611781
122	0x3ede9a3c	0.43477046
123	0x3f08576d	0.532584
124	0x3ee47403	0.4461976
125	0x3f01e981	0.50746924

network.1.running_mean f4 [126]
0	0x3f9a2c59	1.2044784
1	0xbe97df9b	-0.29662785
2	0x3e4e1c71	0.20128037
3	0xbef51090	-0.478642
4	0x3d9f7ca5	0.07787446
5	0xbeb04ee5	-0.34435192
6	0x3d15f4df	0.03661048
7	0x3e901ffa	0.28149396
8	0x3f5bc2ca	0.858441
9	0x3f63c162	0.88966954
10	0xbf003ced	-0.50092965
11	0x3f80e109	1.0068675
12	0x3f255c97	0.64594406
13	0x3fcaa550	1.5831699
14	0x3dfa3623	0.12217357
15	0x3ec9af16	0.39391392
16	0xbe988094	-0.29785597
17	0x3e26e6e9	0.16299023
18	0x3da23773	0.07920732
19	0xbb509679	-0.003182797
20	0x3f0d7763	0.55260295
21	0x3f27d3af	0.6555738
22	0x3f0838e4	0.5321181
23	0x3f726508	0.9468541
24	0x3f0c9d16	0.54927194
25	0x3f597dea	0.84957755
26	0x3f278ad2	0.654462
27	0x3f7bf4f5	0.9842065
28	0x3f1c4833	0.6104767
29	0x3fb2e2d3	1.3975471
30	0x3e91548f	0.28384826
31	0x3f6d0705	0.92588836
32	0x3dafd929	0.08586342
33	0xbf3a2adb	-0.7272164
34	0x3fa36c9d	1.2767521
35	0x3f5f8376	0.8730997
36	0xbf3b601e	-0.7319354
37	0x3d76b43c	0.06023048
38	0xbec214ba	-0.37906438
39	0x3ec0a1ce	0.37623447
40	0x3eb92bdb	0.36166272
41	0x3fb8e16d	1.4443794
42	0x3ec7ca8f	0.39021727
43	0xbe22cc84	-0.15898329
44	0x3edd90e5	0.43274608
45	0x3d24be98	0.040220827
46	0xbd856ccb	-0.06514891
47	0x3f573efb	0.84080476
48	0x3f1a141b	0.6018693
49	0x3d9cae45	0.07650427
50	0x3de4315d	0.11142228
51	0x3ea4c297	0.3217971
52	0x3f4b9f8c	0.79540324
53	0x3f00d1da	0.5032021
54	0x3fba8cd1	1.4574224
55	0x3e10bc84	0.14134413
56	0x3da9a7fa	0.08283992
57	0x3f08baae	0.5340985
58	0x3f818335	1.0118166
59	0x3ef648b6	0.4810235
60	0x3f23c265	0.639685
61	0x3f9176ac	1.1364341
62	0x3f4e7b5f	0.80657
63	0x3f6b14bd	0.9182852
64	0x3effb192	0.49940163
65	0xbdebc01f	-0.115112536
66	0x3f3fa92e	0.7486752
67	0x3e3906b5	0.18068965
68	0x3f1e2272	0.6177131
69	0x3f42cd34	0.76094365
70	0x3f22f98e	0.6366204
71	0xbe305a03	-0.17221837
72	0x3f3c5c8e	0.7357873
73	0xbe6183e4	-0.22022969
74	0x3f363739	0.71178013
75	0x3e932774	0.28741038
76	0x3f8bb0dc	1.0913348
77	0x3ef1c7d9	0.47222784
78	0x3ed86407	0.42263815
79	0x3f83bebe	1.0292585
80	0x3f149c43	0.58050936
81	0xbd941909	-0.072313376
82	0x3efc0948	0.4922583
83	0x3f799246	0.9748882
84	0x3f6ef84f	0.9334764
85	0x3e705763	0.23470835
86	0x3fa5ef15	1.2963587
87	0x3f24d868	0.6439271
88	0x3e707a13	0.23484068
89	0x3ec58a6f	0.3858218
90	0x3f571786	0.8402027
91	0x3f694233	0.91116637
92	0x3e193c68	0.1496445
93	0x3f4dcc03	0.8038942
94	0xbd783152	-0.06059391
95	0x3fa1d317	1.2642545
96	0xbee1a290	-0.44069338
97	0xbead225a	-0.3381527
98	0xbf11a70f	-0.56895536
99	0xbdde355d	-0.10850022
100	0x3eeb423f	0.4594898
101	0x3f1e8bb1	0.619319
102	0xbde9d7a7	-0.114180855
103	0x3f897a9f	1.0740546
104	0x3eb73c35	0.35788122
105	0x3e7623e2	0.24037126
106	0x3fb9a06c	1.4502082
107	0x3f8d2908	1.1028147
108	0x3f758b96	0.95916116
109	0x3f7f6aa9	0.99772125
110	0x3f22cc87	0.63593334
111	0xbf491bb0	-0.7855787
112	0xbf61d046	-0.88208425
113	0x3d447d0d	0.04797082
114	0x3fa1145a	1.2584336
115	0x3c0f11e5	0.008732294
116	0x3e168446	0.14698896
117	0x3e49c43a	0.1970376
118	0x3e2facb9	0.17155732
119	0x3da3dde5	0.080013074
120	0x3ed2d23d	0.41176024
121	0x3f9018e6	1.1257598
122	0x3f83aefa	1.0287774
123	0x3f54c5dc	0.8311441
124	0x3f98f47c	1.1949611
125	0x3f13d987	0.57753795

network.1.running_var f4 [126]
0	0x3bab25ff	0.0052230353
1	0x3c858114	0.0162969
2	0x3a8f797b	0.0010946238
3	0x3b5d4389	0.0033762178
4	0x3b4c4196	0.0031167022
5	0x3b1ccc1e	0.0023925374
6	0x3b635074	0.0034685405
7	0x3b7a3b8d	0.0038182468
8	0x3b7ce057	0.0038585865
9	0x3b101fb8	0.0021991562
10	0x3c37ad43	0.011210742
11	0x3b0f35bc	0.0021852097
12	0x3b58c073	0.0033073693
13	0x3bcb54fd	0.0062051998
14	0x3b43af39	0.002985908
15	0x3ad208e2	0.0016024376
16	0x3b52fce8	0.00321942
17	0x3b1f2587	0.0024283843
18	0x3b6cf52d	0.0036156878
19	0x3ac2928d	0.0014844701
20	0x3b92800f	0.004470832
21	0x3b9df596	0.004820536
22	0x3b1a4c88	0.0023544151
23	0x3b657f8a	0.0035018646
24	0x3be6dfe7	0.007045734
25	0x3bb5afc7	0.005544636
26	0x3c09804e	0.008392407
27	0x3b21a1d7	0.0024663114
28	0x3aafe963	0.0013420995
29	0x3bc8c996	0.0061275465
30	0x3b6cae63	0.0036114685
31	0x3be7b411	0.007071026
32	0x3b99009c	0.004669262
33	0x3c3747d0	0.011186555
34	0x3b7da9e7	0.0038706006
35	0x3b901e1f	0.004398122
36	0x3c120d93	0.008914369
37	0x3bf84ff0	0.0075778887
38	0x3b4033ec	0.0029327823
39	0x3b122558	0.002230009
40	0x3b88c8cb	0.004174327
41	0x3b90c86b	0.004418423
42	0x3b2360c0	0.0024929494
43	0x3b89105c	0.0041828584
44	0x3b5e3d09	0.0033910892
45	0x3b8d68cf	0.0043154727
46	0x3be859b4	0.0070907716
47	0x3bb61c55	0.0055575767
48	0x3a52adab	0.0008036743
49	0x3b8d9b61	0.004321501
50	0x3b88a1d1	0.0041696806
51	0x3bc546db	0.0060204095
52	0x3c158284	0.009125356
53	0x3b04e96d	0.0020280734
54	0x3c1aa290	0.009438172
55	0x3bab32fe	0.0052245846
56	0x3b85022c	0.004059097
57	0x3bebcabc	0.0071957987
58	0x3b37ac8d	0.0028026432
59	0x3a61c272	0.00086120435
60	0x3b8c6eb5	0.0042856582
61	0x3b7eb234	0.0038863542
62	0x3c179d06	0.009253746
63	0x3b6674e6	0.0035164892
64	0x3bc6891d	0.0060588256
65	0x3c1e242a	0.009652177
66	0x3c2b2e29	0.010448017
67	0x3c0bee97	0.008540771
68	0x39f07aa6	0.00045867747
69	0x3c2ee240	0.010674059
70	0x3c195a4a	0.0093599055
71	0x3b88a306	0.0041698245
72	0x3b42e1d4	0.0029736655
73	0x3c0f7f5e	0.008758394
74	0x3becbbc6	0.007224533
75	0x3b93a0ca	0.0045052515
76	0x3b8e0647	0.0043342444
77	0x3c17cdf8	0.009265415
78	0x3b3eac89	0.0029094538
79	0x3b8db6b2	0.0043247575
80	0x3ab4a888	0.0013783136
81	0x3b23e562	0.002500855
82	0x3aecb092	0.0018057993
83	0x3bfee0bb	0.007778255
84	0x3b65ad8e	0.0035046074
85	0x3b76e7aa	0.0037674704
86	0x3babbb1b	0.0052408106
87	0x3aefe296	0.0018301781
88	0x3b3bbcc5	0.002864645
89	0x3c0fab28	0.008768834
90	0x3b286771	0.0025696422
91	0x3b5e5cf2	0.0033929911
92	0x3b074ac6	0.0020643934
93	0x3b84d139	0.0040532616
94	0x3ba840a8	0.0051346608
95	0x3b805ac3	0.0039170696
96	0x3b585dfd	0.0033015006
97	0x3b9a338c	0.004705852
98	0x3c5de400	0.013543129
99	0x3ba663b2	0.0050778026
100	0x3b942ec2	0.0045221755
101	0x3bc5e7f4	0.006039614
102	0x3b720d34	0.003693414
103	0x3c227b32	0.009917067
104	0x3bbf831c	0.005844487
105	0x3b3e9bf9	0.0029084666
106	0x3bd20eaf	0.006410442
107	0x3bd6fe74	0.006561095
108	0x3b996d22	0.004682199
109	0x3b76aae7	0.0037638487
110	0x3a33fc61	0.00068659155
111	0x3c805dd3	0.015669739
112	0x3c006930	0.007837579
113	0x3b4daadc	0.0031382358
114	0x3bb5ecb0	0.005551897
115	0x3b829fb4	0.0039863233
116	0x3b886a00	0.004163027
117	0x3b4540f3	0.0030098527
118	0x3b942878	0.004521426
119	0x3bb0d3bc	0.0053963345
120	0x3b98e112	0.0046655023
121	0x3bee070a	0.0072640227
122	0x3b8ba34d	0.0042614103
123	0x3b47ea4d	0.0030504644
124	0x3b3f3e3b	0.002918138
125	0x3bcdf30a	0.006285076

network.3.weight f4 [100, 126]
0	0xbe15bb44	-0.14622217
1	0xbd937a42	-0.07201053
2	0x3dcf0acc	0.10109481
3	0x3d05b70b	0.032645267
4	0x3c24fc17	0.0100698685
5	0x3cafd29f	0.021462737
6	0xbdcf0e14	-0.10110107
7	0xbda463d3	-0.080268525
8	0x3da54538	0.08069843
9	0xbc8b0155	-0.016968409
10	0xbcb8b3c9	-0.022546666
11	0xbcb48d6b	-0.02204009
12	0x3d586bff	0.052837368
13	0xba25dedd	-0.00063274597
14	0xbc91d274	-0.017800547
15	0xbcbbdf0d	-0.022933507
16	0x3d17196a	0.03688947
17	0xbd0db802	-0.03459931
18	0xbde1b0e6	-0.11020069
19	0x3d73f330	0.059558094
20	0xbd21c758	-0.03949675
21	0x3cdf96c4	0.02729357
22	0xbbbcce45	-0.005761894
23	0x3d4d28a2	0.05008758
24	0xbdbcefc5	-0.0922542
25	0x3d78e881	0.060768608
26	0x3dc6d33d	0.09708259
27	0x3ceccdd5	0.028906742
28	0x3df83942	0.12120296
29	0x3c080df7	0.008304111
30	0xbc37643f	-0.011193334
31	0x3b975447	0.004618201
32	0x3dfdedf6	0.12398903
33	0xbbd2b51c	-0.0064302813
34	0xbcb254e1	-0.021768989
35	0x3c6765c3	0.014123383
36	0xbdcd8bac	-0.10036406
37	0x3c179715	0.009252329
38	0x3ca47bd0	0.02007857
39	0xbd9af08b	-0.07565411
40	0xbd038204	-0.032106414
41	0xbd204fd3	-0.039138626
42	0x3ca635fe	0.020289417
43	0xbb4464de	-0.0029967348
44	0x3d871634	0.06596032
45	0xbd8fadb7	-0.07015555
46	0xbdebcfbe	-0.11514233
47	0x3da3e01a	0.08001728
48	0x3d391fc9	0.04519633
49	0xbdd38342	-0.1032777
50	0xbdbad30a	-0.09122284
51	0xbcfb67b2	-0.030689094
52	0xbd0e4c05	-0.034740467
53	0xbdb70d1c	-0.08938047
54	0x3e0c878b	0.1372358
55	0xbd5f3345	-0.054492254
56	0x3cbba06d	0.022903645
57	0xbd3f05dc	-0.046636447
58	0x3d2686f8	0.04065606
59	0x3cd8ec9b	0.02648001
60	0x3d3ef6b8	0.046622008
61	0xbd90cb6c	-0.0707005
62	0xbda73e99	-0.081662364
63	0xbc6c1ade	-0.0144107025
64	0x3d2bc1b8	0.04193279
65	0xbd9f2661	-0.07770992
66	0x3d05862c	0.03259866
67	0xbcba6138	-0.022751436
68	0x3cc86486	0.024461996
69	0x3cf58982	0.029972795
70	0xbd87ea20	-0.06636453
71	0xbd173a62	-0.036920913
72	0xbdced7f9	-0.10099787
73	0x3c192175	0.009346356
74	0xbdbb64cb	-0.09150084
75	0x3d1b594e	0.037926964
76	0x3ce0d651	0.027445944
77	0x3d95028a	0.07275875
78	0xbd628eb2	-0.055311866
79	0x3dec9770	0.11552322
80	0x3b8f1a96	0.004367183
81	0x3d9a2453	0.075264595
82	0xbcd633f5	-0.026147822
83	0xbd3c7e16	-0.046018682
84	0x3d56f595	0.0524803
85	0xbdb1fc02	-0.08690645
86	0xbade532c	-0.0016962043
87	0xbc99b38d	-0.018762374
88	0xbd721ada	-0.05910764
89	0xbdd66a02	-0.10469438
90	0x3d71933c	0.058978304
91	0xbd1430ab	-0.036179226
92	0xbcb67812	-0.02227405
93	0x3e244d97	0.16045223
94	0x3d7ed471	0.06221432
95	0x3d5bb58e	0.05363994
96	0xbddda75c	-0.10822937
97	0xbcdbcf80	-0.026832342
98	0x3d72bb8e	0.059260897
99	0xbc3f3e94	-0.011672635
100	0x3cdcc0dd	0.026947433
101	0x3c83f760	0.016109169
102	0xbd8a1a4e	-0.067432985
103	0x3dadc463	0.084847234
104	0x3d87644a	0.066109255
105	0xba3f54d1	-0.00072987104
106	0xbc67922d	-0.014133972
107	0x3d9a003a	0.075195745
108	0xbd6b0b8f	-0.05738407
109	0x3d279daa	0.040921845
110	0x3d1cdfc3	0.038299333
111	0xbde15ad8	-0.11003655
112	0xbce854e1	-0.028360786
113	0x3dc551c9	0.0963474
114	0x3da3e230	0.08002126
115	0xbd29221d	-0.0412923
116	0x3dbcc2ab	0.092168175
117	0x3e1e8f62	0.15484384
118	0xbd1653af	-0.0367009
119	0x3dde4995	0.108538784
120	0xbd18a638	-0.037267894
121	0xbdc4efbb	-0.096160375
122	0x3d80d024	0.062897
123	0x3ce989ea	0.028508145
124	0x3ce91e80	0.028456926
125	0xbbc8bb0d	-0.006125814
126	0xbaa6a591	-0.0012714138
127	0x3db4f49a	0.088357165
128	0x3d3f2b1d	0.046671975
129	0xbca6e856	-0.020374458
130	0xbd2bca2a	-0.041940846
131	0x3cfbdc7e	0.030744787
132	0xbd86ac8f	-0.06575882
133	0x3b7160c4	0.0036831358
134	0xbca7700c	-0.02043917
135	0x3d89e6e8	0.06733495
136	0xba9f84ab	-0.0012170275
137	0x3c92662a	0.017870981
138	0xbbeebc65	-0.007285642
139	0x3ddc90ee	0.10769831
140	0x3d6f9204	0.05848886
141	0xbe0a310e	-0.13495275
142	0x3ce7ab0c	0.028279804
143	0x3e05a3c2	0.1305075
144	0xbd192b6c	-0.037394926
145	0x3c79d7b8	0.015249185
146	0xbd8e30ea	-0.06942923
147	0x3ce6d494	0.028177537
148	0xbcd8dd4d	-0.026472712
149	0x3d629300	0.05531597
150	0xbcbc05d0	-0.02295199
151	0x3cc132c8	0.023583785
152	0x3c70f276	0.014706245
153	0x3d06b1e2	0.032884486
154	0x3d4045ca	0.046941556
155	0xbc4a5231	-0.0123486975
156	0x3bcc1be0	0.006228909
157	0xbcf673cf	-0.030084519
158	0x3d2745e6	0.040838145
159	0xbd429347	-0.047503736
160	0xbd58161c	-0.05275546
161	0x3da250b8	0.07925552
162	0xbda00cdb	-0.07814952
163	0xbdb8944e	-0.09012662
164	0x3d349cec	0.044094965
165	0xbd08f3ed	-0.03343575
166	0x3d6cd184	0.057816997
167	0xbd26d953	-0.0407346
168	0x3c74d263	0.014942738
169	0x3db1fda3	0.086909555
170	0x39406d8b	0.00018351355
171	0x3cc6d3e0	0.024270952
172	0xbe0de3d6	-0.13856444
173	0xbdaf2d6b	-0.08553585
174	0xbdaee38a	-0.085394934
175	0xbca397e4	-0.019969888
176	0xbd38706b	-0.045029085
177	0xbd0bf935	-0.03417321
178	0x3dff8b81	0.1247778
179	0xbe1cf6b6	-0.15328488
180	0xbd8d63c8	-0.069037974
181	0x3d9f4cce	0.07778321
182	0x3d481c34	0.04885502
183	0x3d66e71b	0.056372743
184	0x3d37e91f	0.044900056
185	0xbe13ebe0	-0.14445448
186	0x3d488fc4	0.04896523
187	0xbd3416a7	-0.043966915
188	0x3cd1c79e	0.02560788
189	0x3ac1c5a3	0.0014783632
190	0x3d4be81f	0.049781915
191	0xbdd06aed	-0.101766445
192	0x3c7ef40e	0.015561117
193	0x3d04c0ed	0.03241055
194	0x3d83534f	0.06412374
195	0xbd162c2a	-0.036663212
196	0xbd1528f5	-0.036416013
197	0x3c86fc65	0.016477773
198	0x3d2b75d8	0.04186043
199	0xbce93326	-0.028466772
200	0x3d1711cd	0.03688221
201	0xbde84ecf	-0.113431565
202	0xbc757137	-0.014980606
203	0x3db9138d	0.09036932
204	0xbd4d9c6f	-0.050198015
205	0xbd447a3a	-0.047968127
206	0xbca10b01	-0.019658567
207	0x3dd2aa6e	0.10286413
208	0xbc2e7f13	-0.010650414
209	0xbd916366	-0.07099037
210	0xbd9be632	-0.07612266
211	0x3dc0b347	0.094091944
212	0x3e060449	0.13087572
213	0xbcdf1134	-0.027229883
214	0x3d847781	0.06468106
215	0xbd515b52	-0.05111248
216	0x3c759bbb	0.014990742
217	0x3d23f627	0.04002967
218	0x3c99aff7	0.018760664
219	0x3c286c12	0.010279672
220	0x3dd0760d	0.101787664
221	0x3d9ff7fc	0.07810971
222	0xbce5be8c	-0.028044961
223	0x3ddb47d5	0.1070706
224	0x3e0d1db8	0.13780868
225	0xbba20981	-0.0049449806
226	0x3c135bdf	0.008994072
227	0xbdad394f	-0.08458196
228	0x3c6ac1d3	0.014328438
229	0xbbb08cba	-0.0053878697
230	0x3e21d27a	0.15802947
231	0x3cb70ac1	0.022343995
232	0xbd863720	-0.06553483
233	0xbc1fe4ea	-0.009759167
234	0xbd5e40df	-0.054261085
235	0x3cb222f4	0.021745183
236	0x3d924f17	0.071439914
237	0xb9e10706	-0.00042920577
238	0x3d435851	0.047691647
239	0x3c1c18aa	0.009527365
240	0xbd785423	-0.060627114
241	0x3ca5cdab	0.020239672
242	0x3e26d792	0.16293171
243	0xbd979c4c	-0.07402858
244	0xbe2217ee	-0.15829441
245	0xbc3a56ef	-0.011373266
246	0x3cf67cd2	0.030088816
247	0xbd570107	-0.052491214
248	0x3dcf7354	0.10129419
249	0x3d20768f	0.039175566
250	0x3bebf782	0.007201136
251	0xbc3d9cfe	-0.011573074
252	0xbd01791b	-0.031609636
253	0x3c917111	0.01775411
254	0x3da1d570	0.07902038
255	0x3d20dc13	0.03927238

network.3.bias f4 [100]
0	0x3efd35b0	0.49455023
1	0x3eff538d	0.49868432
2	0x3f00212a	0.50050604
3	0x3eff7995	0.49897447
4	0x3efdd3aa	0.4957555
5	0x3eff6c6d	0.4988741
6	0x3efe8e64	0.4971801
7	0x3effdc9f	0.49973008
8	0x3f0055cc	0.50130916
9	0x3efe3db2	0.49656445
10	0x3effc6c4	0.49956334
11	0x3f04ba98	0.5184722
12	0x3f00424e	0.5010117
13	0x3efd8080	0.495121
14	0x3efd1d48	0.49436402
15	0x3efd4498	0.49466395
16	0x3f005609	0.5013128
17	0x3f001c61	0.500433
18	0x3efebc7d	0.4975318
19	0x3efe596c	0.49677598
20	0x3efe2626	0.4963848
21	0x3effe20c	0.49977148
22	0x3efd4507	0.49466726
23	0x3efc2a95	0.49251238
24	0x3f010fd8	0.504148
25	0x3f009904	0.50233483
26	0x3f000dee	0.50021255
27	0x3efec88e	0.49762386
28	0x3f000eaf	0.50022405
29	0x3efdf795	0.49602953
30	0x3f009fef	0.5024404
31	0x3f04c664	0.5186522
32	0x3efd6ba5	0.4949619
33	0x3f03cc3f	0.5148353
34	0x3efe5334	0.49672854
35	0x3eff44e7	0.49857256
36	0x3eff44ca	0.4985717
37	0x3f006dc6	0.501675
38	0x3eff70fc	0.49890888
39	0x3efed1d4	0.4976946
40	0x3f046bb3	0.51726836
41	0x3efba6e5	0.49150768
42	0x3f01334f	0.50468916
43	0x3efd01f9	0.49415568
44	0x3effe629	0.49980286
45	0x3efd7853	0.49505863
46	0x3f001596	0.5003294
47	0x3efe1531	0.49625543
48	0x3efe99f4	0.49726832
49	0x3efbcdfd	0.49180594
50	0x3efeb6af	0.49748752
51	0x3efc1966	0.49238127
52	0x3efd765a	0.49504358
53	0x3f00188f	0.50037473
54	0x3efecddc	0.49766433
55	0x3efcd379	0.4938009
56	0x3eff47a1	0.49859336
57	0x3eff9f6b	0.49926314
58	0x3eff8ea4	0.49913514
59	0x3eff53d3	0.4986864
60	0x3eff4f55	0.49865213
61	0x3efe3a5d	0.49653903
62	0x3f035e3f	0.51315683
63	0x3eff5aa3	0.49873838
64	0x3efe3435	0.49649206
65	0x3f066f0b	0.5251319
66	0x3f01c28d	0.50687486
67	0x3f01011d	0.50392324
68	0x3efe41ed	0.49659672
69	0x3eff1922	0.49823862
70	0x3effece3	0.49985418
71	0x3ef84939	0.48493364
72	0x3efe9eb9	0.4973047
73	0x3eff6c26	0.49887198
74	0x3f00b8e5	0.50282127
75	0x3f004b6a	0.5011507
76	0x3eff990d	0.49921456
77	0x3effeb61	0.49984267
78	0x3f0157db	0.5052468
79	0x3efe2efa	0.49645215
80	0x3f00221f	0.50052065
81	0x3efe0ae9	0.496177
82	0x3efeabb0	0.49740362
83	0x3f0029ba	0.5006367
84	0x3eff5ab0	0.49873877
85	0x3f00a63d	0.5025366
86	0x3f00aba3	0.50261897
87	0x3efe9054	0.4971949
88	0x3efe6774	0.49688303
89	0x3f015f5d	0.5053614
90	0x3f005447	0.501286
91	0x3effdca8	0.49973035
92	0x3f01a8ca	0.50648177
93	0x3efe52c7	0.4967253
94	0x3efdf92c	0.49604166
95	0x3ef9b8d1	0.48773816
96	0x3efe87f5	0.49713102
97	0x3effba35	0.49946752
98	0x3f0027cd	0.5006073
99	0x3ef83d9d	0.48484507

network.4.running_mean f4 [100]
0	0x3ef9d261	0.4879332
1	0x3f1ddd65	0.61665946
2	0x3f63bb9b	0.8895814
3	0x3ea01ea9	0.31273392
4	0x3ed01f5b	0.40648922
5	0x3f33b72b	0.7020137
6	0x3f0e1972	0.55507576
7	0x3ec3ca7e	0.38240427
8	0x3f2a4500	0.66511536
9	0x3f06bed5	0.52634937
10	0x3eba4105	0.3637773
11	0x3f3de1be	0.7417258
12	0xbc668897	-0.0140706515
13	0x3f11719c	0.5681398
14	0x3ebc8958	0.36823535
15	0x3eccb864	0.3998443
16	0x3f64b4ea	0.8933855
17	0x3f2fae3c	0.68625236
18	0x3f140300	0.5781708
19	0x3efa0c69	0.48837593
20	0x3f07eba3	0.5309393
21	0x3f196bd2	0.59930146
22	0x3ed37d0d	0.41306344
23	0x3f059014	0.5217297
24	0x3f1ee9db	0.62075585
25	0x3f6b2fb1	0.91869646
26	0x3f28f6cc	0.6600158
27	0x3f194ad2	0.5987979
28	0x3ead4244	0.3383962
29	0x3efa609b	0.4890183
30	0x3f3a080f	0.72668546
31	0x3f4bee0e	0.7966012
32	0x3f12a2bb	0.57279557
33	0x3f33e544	0.70271707
34	0x3ecf327b	0.404682
35	0x3eaf8da0	0.3428774
36	0x3d81a4e8	0.063302815
37	0x3efd4e72	0.49473912
38	0x3e24ba70	0.16086745
39	0x3e8cdbcc	0.27511442
40	0x3f1702bd	0.58988553
41	0x3ea6dccb	0.32590327
42	0x3f0a435c	0.5400903
43	0x3f0dc532	0.5537902
44	0x3e8ddf37	0.27709362
45	0x3f34a505	0.705643
46	0x3f6784dd	0.9043711
47	0x3edcd4ba	0.43131047
48	0x3f026b8e	0.50945365
49	0x3f1bd761	0.6087552
50	0x3ef3ef0e	0.47643322
51	0x3ec80d38	0.39072585
52	0x3f06f7bf	0.5272178
53	0x3e8a8c58	0.270602
54	0x3f1f630a	0.62260497
55	0x3ed45b15	0.4147574
56	0x3eba5449	0.3639243
57	0x3ea6a9a5	0.32551304
58	0x3e65920e	0.22418997
59	0x3e9c5eec	0.3054117
60	0x3f0139b3	0.5047867
61	0x3ee596fa	0.44841748
62	0x3f480a09	0.7814031
63	0x3f0f6723	0.5601675
64	0x3ed29c23	0.41134748
65	0x3f2c14ec	0.67219424
66	0x3f0ecf2a	0.5578486
67	0x3f16434f	0.58696455
68	0x3ebe980c	0.37225378
69	0x3efc291f	0.49250123
70	0x3ef06507	0.46952078
71	0x3f24bff3	0.6435539
72	0x3f2e397b	0.6805646
73	0x3eee7fa8	0.4658177
74	0x3f043939	0.51649815
75	0x3f30843e	0.68951786
76	0x3f0fa81c	0.5611589
77	0x3e841a9c	0.2580155
78	0x3f45733f	0.77128977
79	0x3f168143	0.5879099
80	0x3ee1df9d	0.44115916
81	0x3e6c321d	0.23065992
82	0x3eae9ae0	0.34102535
83	0x3ec43219	0.3831947
84	0x3e8db622	0.2767802
85	0x3edf71ea	0.43641597
86	0x3f4acd0e	0.7921914
87	0x3f0c9dc9	0.5492826
88	0x3f0ad029	0.5422388
89	0x3f248a2c	0.64273334
90	0x3f5f22cc	0.8716247
91	0x3ee23350	0.44179773
92	0x3f0c6484	0.54840875
93	0x3dbef557	0.093241386
94	0x3f0467ea	0.5172106
95	0x3f135e13	0.5756542
96	0x3ef0ffac	0.47070062
97	0x3f12de25	0.57370216
98	0x3e8afb21	0.2714472
99	0x3e835055	0.25647226

network.4.running_var f4 [100]
0	0x3e80d913	0.25165614
1	0x3eba2300	0.36354828
2	0x3eacbcc6	0.33737773
3	0x3e79b4d9	0.24385394
4	0x3dfbd183	0.122958206
5	0x3ead0ff4	0.33801234
6	0x3e9dfd86	0.30857486
7	0x3f372bc2	0.71551144
8	0x3f2b73b8	0.6697345
9	0x3f2178e7	0.6307511
10	0x3e3a7c75	0.18211539
11	0x3e7464ea	0.2386662
12	0x3e998fa9	0.29992417
13	0x3f1b384a	0.60632765
14	0x3db2ab64	0.087240964
15	0x3e40a9df	0.188148
16	0x3ea13086	0.31482333
17	0x3e039d3b	0.12852947
18	0x3ee161eb	0.44020018
19	0x3e88a149	0.2668555
20	0x3d992d57	0.07479351
21	0x3f236468	0.6382508
22	0x3e5b9252	0.21442536
23	0x3e0e77e8	0.13912928
24	0x3e96f881	0.29486468
25	0x3f1e7fef	0.6191396
26	0x3e32053f	0.17384814
27	0x3e9a5b7b	0.3014792
28	0x3e84a256	0.25905102
29	0x3e04c231	0.12964703
30	0x3e20a2cc	0.15687102
31	0x3e918d92	0.28428322
32	0x3e5888fe	0.21146008
33	0x3e3bf387	0.18354617
34	0x3f1894bb	0.59601945
35	0x3e669b58	0.22520196
36	0x3e92606c	0.2858919
37	0x3f566802	0.83752453
38	0x3ddbbc90	0.10729325
39	0x3e403d44	0.18773371
40	0x3e92d40b	0.286774
41	0x3dd5b000	0.1043396
42	0x3d9c4caa	0.0763181
43	0x3daf0645	0.08546118
44	0x3e0c6b5b	0.13712828
45	0x3e63b868	0.22238314
46	0x3e9c5ec3	0.30541047
47	0x3e1a60a3	0.15075926
48	0x3e16c65e	0.14724109
49	0x3e52997b	0.2056636
50	0x3f2f4f9f	0.6848087
51	0x3d50e1ab	0.050996464
52	0x3e0751f6	0.1321486
53	0x3e1fa383	0.15589719
54	0x3ec2e518	0.3806541
55	0x3eb91a7b	0.36153015
56	0x3daf1a56	0.08549945
57	0x3e9cad86	0.30601138
58	0x3eddc566	0.43314666
59	0x3e6ade3d	0.2293634
60	0x3ea81190	0.328259
61	0x3e05c958	0.13065088
62	0x3e357ce5	0.17723425
63	0x3db76dd6	0.089564964
64	0x3d8ff0a0	0.070283175
65	0x3f5c6b60	0.8610134
66	0x3db6c470	0.08924186
67	0x3f0d8f80	0.5529709
68	0x3ed640b7	0.41846249
69	0x3e9c021c	0.3047036
70	0x3e505ff1	0.20349099
71	0x3f142d30	0.5788145
72	0x3ea81370	0.3282733
73	0x3e048c61	0.12944175
74	0x3e192205	0.14954384
75	0x3e411f8c	0.1885969
76	0x3fa810e9	1.313016
77	0x3eaaf80f	0.3339238
78	0x3ebebb8c	0.37252462
79	0x3e7309fb	0.23734276
80	0x3f09ffb7	0.53905815
81	0x3e8e9ba2	0.27853113
82	0x3f0f5c1f	0.5599994
83	0x3eba34ee	0.36368507
84	0x3f032332	0.5122558
85	0x3f0e5b19	0.55607754
86	0x3edd9854	0.4328028
87	0x3e3aacad	0.18229933
88	0x3ea8bb5c	0.32955444
89	0x3eb151ca	0.34632713
90	0x3eae9583	0.34098443
91	0x3ea12081	0.3147011
92	0x3f1c3c90	0.6102991
93	0x3f1ba26e	0.60794723
94	0x3ec0b17f	0.3763542
95	0x3e59c0ac	0.21264905
96	0x3f273f85	0.653313
97	0x3da371a6	0.07980661
98	0x3e4afd44	0.19823176
99	0x3e5812a9	0.21100868

network.6.weight f4 [100, 100]
0	0x3c3911df	0.011295765
1	0xbb900948	-0.0043956377
2	0xbe0fc0f8	-0.14038455
3	0xbb1c84e2	-0.0023882915
4	0xbe0bf0e8	-0.13666117
5	0xbd4d9aa9	-0.050196324
6	0xbd70167b	-0.05861519
7	0xbd854356	-0.06506984
8	0x3db258fb	0.08708378
9	0xbb822f6d	-0.0039729387
10	0x3c8fc9a9	0.017552214
11	0xbd4f59a3	-0.050622594
12	0x3d7d4090	0.06182915
13	0xbd65653f	-0.05600476
14	0x3d7b38d1	0.06133348
15	0xbbeb31b1	-0.0071775545
16	0x3c483fc3	0.012222233
17	0xbc844505	-0.016146192
18	0xbd8b56a9	-0.068036385
19	0x3cd49c35	0.025953392
20	0xbd204d59	-0.039136264
21	0xba3e12a9	-0.00072507054
22	0x3da6d913	0.08146872
23	0x3daf6dbb	0.08565851
24	0x3d682140	0.056672335
25	0xbd5c796c	-0.053826734
26	0xbdc8f5b4	-0.09812489
27	0x3dc328cd	0.095292665
28	0xbdf82d19	-0.12117977
29	0x3cae9067	0.02130909
30	0x3d23338e	0.03984409
31	0xba95ac5e	-0.0011419167
32	0xbcc176bc	-0.023616187
33	0x3ca0f6bc	0.019648902
34	0x3d2fa8d1	0.042885605
35	0x3c8b23d5	0.01698486
36	0x3d469182	0.04847861
37	0xbe11f7bd	-0.14254661
38	0x3c6c23f5	0.01441287
39	0xbdf0bd72	-0.11754884
40	0xbb62e9c6	-0.0034624203
41	0x3d874be7	0.06606274
42	0xbe0de7e1	-0.13857986
43	0x3db1a604	0.08674243
44	0xbd2f65b5	-0.042821605
45	0x3cfd5d26	0.030928206
46	0x3d7cc8ed	0.061715055
47	0x3d698fba	0.057021834
48	0xbdb2b4ac	-0.08725867
49	0xbc508d5e	-0.012729017
50	0x3d2b3b01	0.041804317
51	0x3cc305cb	0.023806473
52	0xbde83a38	-0.11339229
53	0x3d7345c8	0.05939272
54	0xbdbc7308	-0.09201628
55	0xbdd216a0	-0.102582216
56	0xbe0b7905	-0.13620384
57	0xbc4394af	-0.011937304
58	0xbd97947c	-0.07401368
59	0x3dbb7d50	0.09154761
60	0x3d80234a	0.06256731
61	0x3c09c74c	0.0084093325
62	0x3b3b1c5c	0.002855084
63	0xbe177501	-0.14790727
64	0x3e1067ba	0.14102069
65	0x3dbc59dd	0.091968276
66	0xbc31e7f7	-0.010858527
67	0x3d927938	0.07152027
68	0xbcddfd12	-0.027098212
69	0x3dd00fbd	0.10159252
70	0xbd878786	-0.06617646
71	0xbd7ceaad	-0.06174724
72	0x3dc84e95	0.09780613
73	0x3d98691a	0.074419215
74	0xbd8eec53	-0.06978669
75	0x3d1b84fd	0.037968624
76	0x3dbd9018	0.09255999
77	0x3d9645f9	0.07337565
78	0xbdba5837	-0.09098857
79	0xbcfaed32	-0.030630682
80	0x3b98b53d	0.004660277
81	0xbd96c5a8	-0.07361919
82	0xbc30981c	-0.010778453
83	0xbcbd5711	-0.023112806
84	0x3d12b651	0.0358184
85	0x3b0f6863	0.0021882288
86	0x3cf4d027	0.029884411
87	0x3d65fb77	0.05614802
88	0x3def3558	0.116800964
89	0xbdfcfaed	-0.12352548
90	0xbd94758e	-0.07248984
91	0x3d00b432	0.031421848
92	0x3ca22885	0.019794712
93	0x3dfa8ff5	0.12234489
94	0xbc22a0e7	-0.009926057
95	0x3d9af786	0.075667426
96	0xbbaba12e	-0.00523772
97	0x3e07b56b	0.13252799
98	0xbd85ac80	-0.065270424
99	0x3daa5f1b	0.08318921
100	0x3de208b9	0.1103682
101	0xbd9906be	-0.07471989
102	0x3db3edd3	0.08785596
103	0xbd6ed6ac	-0.058310196
104	0xbda5bbef	-0.08092486
105	0xbdbb4259	-0.09143514
106	0x3d2ee780	0.042701244
107	0x3d4766a8	0.048681885
108	0x3d495e79	0.04916236
109	0xbd975cbc	-0.073907346
110	0x3db01cc9	0.0859924
111	0xbcd2a6e4	-0.025714345
112	0x3e6ce6d6	0.23134932
113	0x3d05567b	0.032553177
114	0xbd82c7dc	-0.063857764
115	0x3ca557f6	0.020183545
116	0xbe3075f9	-0.17232503
117	0x3dd3d346	0.103430316
118	0x3d1fbe21	0.03899968
119	0xbd0ef95e	-0.034905784
120	0xbdc421db	-0.0957677
121	0x3ceba2a6	0.02876408
122	0xbcdce895	-0.026966373
123	0x3da59972	0.08085908
124	0xbd9b3b57	-0.075796776
125	0xbdda7b87	-0.10668092
126	0x3c998d5b	0.018744161
127	0x3d3d29f6	0.046182595
128	0x3d5c0406	0.053714775
129	0x3caba4b4	0.02095256
130	0xbd4d7219	-0.05015764
131	0x3dab9357	0.08377712
132	0xbdbea909	-0.09309585
133	0x3d914c7a	0.07094665
134	0x3d765152	0.060136147
135	0xbc5ffaef	-0.013670667
136	0x3e3655c6	0.17806157
137	0xbd9fb389	-0.077979155
138	0xbd3f01b4	-0.046632484
139	0xbd818c4e	-0.06325589
140	0x3d949a01	0.072559364
141	0x3da97564	0.082743436
142	0x3db31615	0.08744446
143	0x3cde485d	0.027134115
144	0x3d1cce34	0.038282588
145	0x3c9da4ae	0.019243564
146	0xbc68f90c	-0.014219534
147	0x3ca22a01	0.01979542
148	0x3d41d60c	0.04732327
149	0xbda7a9d1	-0.08186687
150	0xbbdac013	-0.006675729
151	0xbd426320	-0.047457814
152	0xbb5d842e	-0.003380071
153	0x3d40ac7a	0.047039486
154	0xbd44f99e	-0.048089616
155	0xbdfd1666	-0.12357788
156	0xbd990322	-0.07471301
157	0xbd1b6ac2	-0.03794361
158	0x3dfbf7c6	0.123031184
159	0x3d884c70	0.06655204
160	0x3dfd6a42	0.12373783
161	0xbd5c6b80	-0.053813457
162	0xbcaea42a	-0.021318514
163	0x3d85ee5f	0.06539606
164	0x3cf8e870	0.030384272
165	0x3ded8790	0.11598122
166	0x3bd2d232	0.0064337486
167	0xbd5f1d0f	-0.05447107
168	0x3ce77040	0.028251767
169	0x3acdc835	0.0015699925
170	0xbab6b8b6	-0.0013940546
171	0xbd892039	-0.06695599
172	0xbd1419ae	-0.036157303
173	0x3c93e18d	0.018051887
174	0xbdb32f0b	-0.08749207
175	0x3d13e59b	0.03610764
176	0xbd12f920	-0.035882115
177	0x3c5b5f40	0.013389409
178	0x3a1b2a84	0.0005919116
179	0x3d9814d9	0.074258514
180	0x3c2f06c2	0.0106827635
181	0xbce99a76	-0.028516036
182	0x3d7867dd	0.060645927
183	0x3d39ce82	0.045362957
184	0x3dcf5693	0.101239346
185	0x3dcdb8f0	0.1004504
186	0x3c145bc4	0.009055082
187	0x3e468b93	0.19389181
188	0x3c1109e5	0.008852457
189	0x3d7f5f70	0.062346876
190	0xbcfb66fa	-0.030688751
191	0x3d40da4b	0.04708318
192	0xbd4d4209	-0.050111804
193	0x3cf12232	0.02943525
194	0xbd521d11	-0.05129725
195	0x3dc11c2e	0.09429203
196	0x3d92919c	0.07156679
197	0xbd98c9c3	-0.07460358
198	0x3cc5b691	0.024134906
199	0xbd9a07d0	-0.07521021
200	0x3d8ba638	0.06818813
201	0xbb5d1419	-0.0033733903
202	0xbd6aef81	-0.057357315
203	0x3c53cfd9	0.012927973
204	0xbde1600b	-0.11004647
205	0x3d4c77be	0.049918883
206	0xbd975076	-0.073883936
207	0x3d89120c	0.06692895
208	0xbbc37187	-0.0059644612
209	0x3cc260aa	0.023727734
210	0x3bcc5a4d	0.0062363506
211	0xbd6932d3	-0.056933235
212	0xbcbdbef4	-0.023162343
213	0xbde95c17	-0.11394518
214	0x3b895a28	0.0041916557
215	0x3cc25d69	0.023726182
216	0xbd9c95f0	-0.07645786
217	0xbd71e507	-0.059056308
218	0x3d495eae	0.04916256
219	0x3d9e6da3	0.07735755
220	0x3dc667d7	0.09687775
221	0xbcff24a3	-0.0311454
222	0xbc9cdbee	-0.01914784
223	0xbb0eddd4	-0.00217997
224	0x3de44c87	0.11147409
225	0xbe1e11c1	-0.1543646
226	0xbddf3a56	-0.108997986
227	0xbccbcfe6	-0.024879407
228	0xbdc38599	-0.09546966
229	0xbbf346f7	-0.007424231
230	0xbd021e20	-0.03176701
231	0xbd662b83	-0.05619384
232	0xbbcd965a	-0.006274027
233	0x3cb73420	0.022363722
234	0xbcc7718b	-0.024346134
235	0xbd4f6942	-0.05063749
236	0x3d8d0830	0.06886327
237	0x3c0fb6b6	0.008771589
238	0xbd48fa80	-0.04906702
239	0xbe1acc0f	-0.15116905
240	0x3d5b583a	0.053550936
241	0x3d2078b3	0.039177608
242	0x3d37c0cc	0.0448616
243	0x3d121750	0.035666764
244	0xbdc410ab	-0.09573492
245	0x3d5d5fec	0.054046556
246	0xbd3606c1	-0.044440035
247	0x3d5ada9d	0.053431142
248	0x3af9d8d8	0.0019061817
249	0xbd65f48d	-0.056141425
250	0xbc0a9bfe	-0.008460043
251	0xbc424e3f	-0.011859476
252	0xbdd5e8b2	-0.10444774
253	0x3dda1c46	0.10649924
254	0x3b050756	0.0020298562
255	0xbd24b4c2	-0.040211447

network.6.bias f4 [100]
0	0x3efe2a1c	0.49641502
1	0x3f01bd83	0.50679797
2	0x3f002cda	0.5006844
3	0x3efe1818	0.49627757
4	0x3f005b43	0.50139254
5	0x3f004000	0.50097656
6	0x3f0045ea	0.5010668
7	0x3efec976	0.49763077
8	0x3f01366b	0.5047366
9	0x3f01319a	0.5046631
10	0x3efed30d	0.49770394
11	0x3f007c93	0.50190085
12	0x3efe90bf	0.49719808
13	0x3eff8ca6	0.49911994
14	0x3f0113e4	0.50420976
15	0x3efea74e	0.49737018
16	0x3efe4dd5	0.49668756
17	0x3f002dd0	0.50069904
18	0x3efdb9a6	0.495557
19	0x3effa740	0.4993229
20	0x3f001beb	0.500426
21	0x3efe6103	0.4968339
22	0x3efec0d1	0.49756482
23	0x3efeffe5	0.49804607
24	0x3eff11f9	0.498184
25	0x3f06e80f	0.52697843
26	0x3eff8fce	0.49914402
27	0x3efe76f8	0.4970014
28	0x3efe3968	0.49653172
29	0x3f011f33	0.5043823
30	0x3efe2bb5	0.4964272
31	0x3efe7cd9	0.49704626
32	0x3f0bec23	0.5465719
33	0x3eff5d93	0.4987608
34	0x3f004326	0.5010246
35	0x3f01000f	0.50390714
36	0x3f048790	0.5176935
37	0x3efa966d	0.4894289
38	0x3f025bfd	0.5092161
39	0x3effe32b	0.49978003
40	0x3f02037c	0.50786567
41	0x3efdff5a	0.4960888
42	0x3f05439c	0.5205629
43	0x3efdf7a9	0.49603012
44	0x3f0133cd	0.50469667
45	0x3efda3e9	0.49539116
46	0x3f020d11	0.5080119
47	0x3eff2ce8	0.49838948
48	0x3efeecbf	0.49789998
49	0x3effdcd1	0.49973157
50	0x3eff7fee	0.4990229
51	0x3f009ee3	0.5024244
52	0x3f08438a	0.53228056
53	0x3efdd52f	0.4957671
54	0x3efd9f8d	0.4953579
55	0x3efbf2d3	0.49208698
56	0x3f003fba	0.5009724
57	0x3f016563	0.5054533
58	0x3efe3013	0.49646053
59	0x3effec4e	0.49984974
60	0x3effd24a	0.49965125
61	0x3efe13dc	0.49624527
62	0x3eff3a3b	0.49849114
63	0x3efef306	0.49794787
64	0x3efcd99b	0.4938477
65	0x3efecf12	0.49767357
66	0x3efe1940	0.4962864
67	0x3efe6d7d	0.49692908
68	0x3eff08d4	0.49811423
69	0x3f020126	0.50783
70	0x3efe5079	0.4967077
71	0x3f024202	0.5088197
72	0x3efd17bf	0.4943218
73	0x3f00489f	0.5011081
74	0x3efd5202	0.4947663
75	0x3f00fbd8	0.50384283
76	0x3f00fe01	0.5038758
77	0x3efe059e	0.4961366
78	0x3f0058e2	0.50135624
79	0x3efb5f8d	0.49096337
80	0x3efef37f	0.49795148
81	0x3f0181c3	0.50588626
82	0x3efd87b4	0.49517596
83	0x3efd1482	0.4942971
84	0x3f085bcd	0.53265077
85	0x3efe1ba0	0.4963045
86	0x3eff017a	0.49805814
87	0x3efe3ee9	0.49657372
88	0x3f0155be	0.5052146
89	0x3eff61bf	0.49879262
90	0x3f00b337	0.5027346
91	0x3eff6d9e	0.4988832
92	0x3efce0f3	0.49390373
93	0x3eff90c5	0.49915138
94	0x3efe2a15	0.4964148
95	0x3f01b6de	0.5066966
96	0x3f029dd5	0.5102208
97	0x3f013922	0.504778
98	0x3efd151a	0.49430162
99	0x3efd9bb4	0.49532855

network.7.running_mean f4 [100]
0	0x3ef49253	0.47767887
1	0x3f34beb9	0.7060352
2	0x3ef788fe	0.48346704
3	0x3eea0f5e	0.4571485
4	0x3ec757cf	0.3893418
5	0x3f2713f3	0.65264815
6	0x3f18106d	0.59400064
7	0x3eb8379c	0.35979927
8	0x3f078b8e	0.5294732
9	0x3ede2fab	0.43395743
10	0x3e29f6fb	0.16598122
11	0x3f0967bf	0.5367393
12	0x3ef6aec7	0.4818022
13	0x3ea56648	0.32304597
14	0x3f3b67f9	0.73205525
15	0x3ec9b212	0.3939367
16	0x3f402abe	0.7506522
17	0x3c89331a	0.016748
18	0x3ebb2d06	0.36557788
19	0x3ee8fbb7	0.45504543
20	0xbcc0eaa7	-0.023549391
21	0x3f074634	0.52841496
22	0x3eb876d1	0.3602815
23	0x3eb5a484	0.35477078
24	0x3f0bb6af	0.5457563
25	0x3f67e4b2	0.90583336
26	0x3eaa61f9	0.33277872
27	0x3ea45c2c	0.32101572
28	0x3f07a8ef	0.5299215
29	0x3ef7e331	0.4841552
30	0x3e9ce514	0.30643523
31	0x3f29ab23	0.6627676
32	0x3f4e6b60	0.8063259
33	0x3ee2df94	0.44311202
34	0x3f40a204	0.75247216
35	0x3f5e6b4d	0.8688248
36	0x3f570c38	0.8400302
37	0x3f1a52d5	0.6028264
38	0x3f492239	0.78567845
39	0x3f16a913	0.58851737
40	0x3f547a52	0.82999146
41	0x3ee7cc51	0.4527307
42	0x3f4d6853	0.8023731
43	0x3ed8be32	0.42332608
44	0x3f18f01e	0.5974139
45	0x3eca9134	0.39563906
46	0x3f4e668c	0.80625224
47	0x3ee69fac	0.45043695
48	0x3eaf11d7	0.34193298
49	0x3ef615c6	0.48063487
50	0x3f31f90c	0.6952064
51	0x3f3bb670	0.7332525
52	0x3f3e8d23	0.7443411
53	0x3ecb7d7c	0.39744174
54	0x3ebcd93e	0.36884493
55	0x3e9a8476	0.30179185
56	0x3f3425b9	0.7037006
57	0x3f0b1624	0.5433066
58	0x3ece4f58	0.4029491
59	0x3ecaf701	0.39641574
60	0x3e97a87c	0.2962073
61	0x3f134e27	0.57541126
62	0x3ec75a00	0.38935852
63	0x3f09011b	0.5351731
64	0x3f094133	0.5361511
65	0x3f05bbb6	0.5223955
66	0x3f1446d8	0.579206
67	0x3f108f4b	0.5646865
68	0x3f0fc3c5	0.56158096
69	0x3f58510e	0.8449868
70	0x3ecd1986	0.40058535
71	0x3f1950ad	0.59888726
72	0x3f3995a3	0.7249395
73	0x3f15e066	0.5854553
74	0x3ecc4ebc	0.3990382
75	0x3ef5515b	0.47913632
76	0x3f4e9617	0.8069777
77	0x3e8c7826	0.27435416
78	0x3ed49f94	0.41527998
79	0x3ea1ba29	0.3158734
80	0x3f0e13a0	0.55498695
81	0x3f552228	0.83255243
82	0x3e7b9cee	0.24571583
83	0x3efe23e8	0.4963677
84	0x3f511350	0.81670094
85	0x3e8ad282	0.2711373
86	0x3eb12fbf	0.3460674
87	0x3ef607c2	0.48052794
88	0x3f5c5cca	0.86079085
89	0x3e109fcb	0.14123456
90	0x3f25d39e	0.6477603
91	0x3ef2c50c	0.4741596
92	0x3e9d997c	0.30781162
93	0x3eb3cb9f	0.35116288
94	0x3f120b4e	0.570485
95	0x3f3fe624	0.7496054
96	0x3f42e964	0.76137376
97	0x3f348fa4	0.7053168
98	0x3efeefaf	0.4979224
99	0x3e7fbf4c	0.24975318

network.7.running_var f4 [100]
0	0x3f02f867	0.5116028
1	0x3deb1195	0.11477963
2	0x3f070295	0.52738315
3	0x3e315356	0.17316946
4	0x3e97679c	0.29571235
5	0x3e6c75dd	0.23091836
6	0x3e010cc8	0.12602532
7	0x3e6df049	0.23236193
8	0x3ed1948d	0.40933648
9	0x3ea216da	0.3165806
10	0x3ee441e3	0.44581518
11	0x3e94c925	0.2905971
12	0x3ef915da	0.48649484
13	0x3e5bcf00	0.21465683
14	0x3e826da9	0.2547429
15	0x3e8ecc20	0.2789011
16	0x3ea5a4cc	0.32352293
17	0x3ed44f4b	0.41466746
18	0x3ed6cc76	0.41952866
19	0x3dc0733b	0.093969785
20	0x3e4055e0	0.18782759
21	0x3eef40ab	0.46729025
22	0x3e6689fb	0.22513573
23	0x3df495a0	0.11942601
24	0x3dc0225c	0.093815535
25	0x3ee28f4c	0.44249952
26	0x3e66f4f2	0.22554377
27	0x3ecab8d9	0.39594153
28	0x3e3aa6bf	0.18227671
29	0x3e95cafa	0.2925642
30	0x3f0776f5	0.5291589
31	0x3e8eeeb6	0.27916497
32	0x3ea97752	0.33098847
33	0x3f036061	0.5131894
34	0x3d94b61c	0.07261297
35	0x3e9d72ac	0.3075155
36	0x3ee36d9c	0.44419563
37	0x3dbba200	0.091617584
38	0x3f0cc85e	0.54993236
39	0x3e8ee3fa	0.27908307
40	0x3eb77608	0.35832238
41	0x3f294e2d	0.6613491
42	0x3ed5384f	0.41644523
43	0x3e3f6aaa	0.18693033
44	0x3eb8ddcf	0.36106727
45	0x3e64953f	0.22322558
46	0x3e108366	0.14112625
47	0x3ed67c6c	0.418918
48	0x3e98f43a	0.2987383
49	0x3ebe8108	0.37207818
50	0x3e6148b4	0.2200039
51	0x3f30b5c7	0.6902737
52	0x3ec6cbe5	0.38827434
53	0x3ec1e2f3	0.3786846
54	0x3e45dab3	0.19321708
55	0x3ec7f066	0.39050597
56	0x3e6ae021	0.22937061
57	0x3db4bd23	0.088251375
58	0x3e4fe019	0.2030033
59	0x3dbf125d	0.093296744
60	0x3e2362e9	0.159557
61	0x3f0d2ca9	0.5514627
62	0x3ea49654	0.3214594
63	0x3e3b5886	0.18295488
64	0x3eb4481b	0.35211262
65	0x3f0b3ce5	0.5438979
66	0x3e22fb78	0.1591624
67	0x3ea70c33	0.32626495
68	0x3d9d07f0	0.076675296
69	0x3f4b8d7d	0.7951277
70	0x3eefba02	0.468216
71	0x3e359272	0.17731646
72	0x3e4a35ee	0.19747135
73	0x3ddc113d	0.107454754
74	0x3e6b3d17	0.22972523
75	0x3dcb93ba	0.09940286
76	0x3e9f1086	0.31067294
77	0x3d750af0	0.059824884
78	0x3dbaa1c5	0.09112886
79	0x3e42053b	0.18947308
80	0x3e4b9b71	0.19883515
81	0x3ef22329	0.4729245
82	0x3dcad5cc	0.0990406
83	0x3ea3cad3	0.3199068
84	0x3f19a062	0.6001035
85	0x3e24f205	0.16107948
86	0x3e24c247	0.16089736
87	0x3e71ba2e	0.23606178
88	0x3e3bde5c	0.18346542
89	0x3e9b5da3	0.30344877
90	0x3ed224f6	0.41043824
91	0x3ea521ff	0.322525
92	0x3e9702eb	0.29494414
93	0x3dc929f6	0.098224565
94	0x3e917700	0.28411102
95	0x3e94f4e6	0.29093093
96	0x3e32458b	0.17409341
97	0x3d771b2e	0.060328655
98	0x3e957dee	0.2919764
99	0x3eeb4abc	0.45955455
