src/runs/ann_left_hand/20241104/20241104-1650/ann_left_hand_3_layers_best.pth (torch, 143302 bytes, 26 tensors)

network.0.weight f4 [63, 126]
00000000: 4b35 dfbd 6f0a f3bd 96bd a6bd 32a4 50bd
00000010: 8c50 e7bc 7cde 8e3d 2a90 bcbd a755 8cbd
00000020: 19c5 9a3c 8de6 ed3d 421b 4e3d 2210 eabc
00000030: 0ad5 99bd 72d9 143e 0fe9 6b3d e8ad 723d
00000040: df17 55bd cac1 c53d 27c4 323d 3a98 d8bc
00000050: 6bb0 143c f576 213d 8555 983c 16f4 d9bb
00000060: bc37 0f3c 93a4 b13c fe0f 9ebd d548 ba3c
00000070: 7199 9d3c 9c73 4dbb c8ca eebc 0d9f 5f3d
00000080: f2e5 b23d 7abd b9bc c9ab e4bd 33ad 0a3d
00000090: 8546 6c3d 905f 043d c7ad 16bd 7be7 963d
000000a0: 8de3 7bbc b960 33bd 0d5c b2bd d0fa 493c
000000b0: fbf1 0f3c b44f 033d 30b8 2fbc bb45 a33d
000000c0: 2b6f 0ebd 1062 97bc d7c0 be3c ef4a 113e
000000d0: a292 e7bc 444d 4b3c 71eb c13c ad12 793d
000000e0: 8d4b 233c 573c d63c e46c 0cbc 9d3a 26bd
000000f0: 2a35 86bd 2792 303d 7f73 0a3d f803 31bd
00000100: e2c2 b5bd 94e2 1fbe b5e4 5cbe 19ff c0bd
00000110: ebf4 9cbd 22ce 7bbc 5921 393d 5c8b b7bc
00000120: 909d 34bd 884d b3bd 5d89 0c3c 827b db3d
00000130: 4440 e23d cb3b eabd 2a56 b3bc 395d 933d
00000140: 5a15 f63d 2c66 cfbc d744 89bd 8d68 cd3c
00000150: ab7c 803e dcfe 5e3c 7ce9 823d f2a5 32bd
00000160: 1083 db39 4d0e 28be 430f 9bbc fce5 2d3d
00000170: 8844 0a3d 93b8 29bd 97b5 093d 2f51 0a3e
00000180: ab22 063c 1233 143d 51a3 4cbd 7343 353e
00000190: 110b 00bc 3388 49bd 3a24 3cbd 3685 62bc
000001a0: 7b0c e5bc ca09 5f3b ac85 1fbd 57bd ccbd
000001b0: 2dba 55bd e932 e6bc a2f8 c2bd 6d0f 05bd
000001c0: 83aa d5bb 3e19 983c 576d 183c db00 02bd
000001d0: 3869 1abd 99b0 c9bc d0c3 01bd 1a0c 813d
000001e0: 7742 a9bd 0c42 a6bd 0ed4 34bd ac8a 6f3d
000001f0: 071e 193c 68f9 b7bc fe67 74bc 9bfe e23c
00000200: 3890 86bb 912c c73a b0f1 5d3c d04b 5abd
00000210: 80a5 3ebc 8632 9a3d 7d01 8d3d c2aa 3abd
00000220: 615d 8abb e843 ac3d 63e5 e83c b576 afbd
00000230: e494 5e3c 265d 8f3d 51dd 973d 3896 b2bd
00000240: ca06 81bd 557c a7bd b35b 0e3d 18a6 093e
00000250: c4d7 92bc c8dd 2a3d 1616 c1bc 28a7 c6bc
00000260: 9b1b a7bb 7246 113c 5f3f 333c aaf4 80bc
00000270: 4593 11be 8a98 7abd d084 953c 34bd 133d
00000280: e6d6 e1bd 1f79 683c ac82 113d 4b0e 413b
00000290: 39d9 b5bd 193c 683d cbfa 393d 41f0 673d
000002a0: 005b 75bc 42a2 b8bd 2100 babd e105 3ebd
000002b0: c579 5b3c 687f d2bc 1a3d 943d e8c2 09bc
000002c0: bf9a 93bc 60fb b0bd d723 333d 1e6b 14bd
000002d0: be01 29bc 6eb4 32bd 71c0 36bd 1665 04bc
000002e0: fae3 2fbc f79c 4b3d d422 de3c 52a6 b8bd
000002f0: 342f 88bd 5345 5ebd d305 43bd 31a6 1cbe
00000300: 86ee 01bd 8cc9 57bd 1022 383d 120f 19be
00000310: dfac eebd 4759 c5bb 183a c5bc 16ec a6bd
00000320: 97b3 99bd 17e4 cfbb dfea ddbc 066b 22bd
00000330: 7ca9 95bc e54d dfbd 89de 1d3e 6239 cdbc
00000340: 7222 4cbd d538 463d 7d4c 033e e93f a43d
00000350: 8a46 453d 1c81 033d fb5a 103d 2d64 60bb
00000360: fb2b 813d 8ec9 8f3d 7f4e 843d e908 08bd
00000370: f06f a53d 26e4 213c 4ea0 24bc fe3c 593d
00000380: f1af 48bd 9f5d 9d3d 32f5 2cbd dcac 723c
00000390: c56d f13d b26f 353b 7823 af3d 5d8b e2bd
000003a0: 8fac 75bd 3565 b0bd 5a01 cabd eb72 a8bc
000003b0: d8ba cabc 5969 bb3a 7399 eb3c 08f6 9bbc
000003c0: bdd0 133c 1584 043d 13d3 a73d 017d 47bb
000003d0: bdd0 283d ba30 ce3d 7537 c93d 8624 9f3d
000003e0: f78e c33d 94e5 8c3d 4d34 603c 8084 77ba
000003f0: 5f6c 113d 5f96 9fbd e8e9 f4bc a3c8 20be
-0.10898837 -0.118672244 -0.081416294 -0.05093784 -0.02823665 0.06976029 -0.092071846 -0.068522744
0.018892812 0.1161624 0.050318964 -0.028572146 -0.07511337 0.14536074 0.05759531 0.05924788
-0.05202472 0.09656103 0.043644097 -0.026439775 0.009075264 0.039420087 0.018595466 -0.0066514118
0.008741315 0.02168492 -0.07717894 0.022739807 0.019238206 -0.0031349426 -0.029149428 0.054595042
0.08735265 -0.022673357 -0.11165578 0.033856582 0.05768444 0.032317698 -0.03678682 0.0736837
-0.015374077 -0.043793414 -0.087089635 0.012327865 0.00878572 0.032058433 -0.010725066 0.079722844
-0.034773987 -0.018479377 0.023285313 0.14188741 -0.028268162 0.012408558 0.023671838 0.060808826
0.009966743 0.02615182 -0.008570883 -0.04058324 -0.06553109 0.04310813 0.033801552 -0.043216676
-0.088750616 -0.15613776 -0.2157162 -0.09423656 -0.07663902 -0.01536897 0.04519782 -0.022405319
-0.044095576 -0.08755022 0.008577672 0.107169166 0.11047414 -0.11437186 -0.021891672 0.07195515
0.12015791 -0.025317274 -0.06702583 0.025074268 0.25095114 0.013610568 0.0639219 -0.04361529
0.00041868584 -0.16411705 -0.018928176 0.04245566 0.033756763 -0.04143579 0.033620443 0.13507532
0.008186976 0.036181517 -0.04996044 0.17701511 -0.007815138 -0.049202155 -0.045932986 -0.013825705
-0.027960053 0.0034032934 -0.03894584 -0.09997051 -0.052179504 -0.028100448 -0.09520079 -0.032485414
-0.0065205707 0.018566724 0.009303412 -0.031739097 -0.037698 -0.024620341 -0.031680882 0.06301136
-0.0826463 -0.08118066 -0.044147544 0.058481857 0.009345538 -0.022457793 -0.014917372 0.027709296
-0.0041065477 0.0015195777 0.013546392 -0.053294957 -0.011636138 0.07529168 0.068850495 -0.045573004
-0.0042225574 0.084113896 0.028429693 -0.085675634 0.013585303 0.070001885 0.0741526 -0.08720058
-0.06300123 -0.08178011 0.03475542 0.13442266 -0.01792515 0.041715413 -0.023570102 -0.024249628
-0.0050997264 0.008866893 0.010940402 -0.015741665 -0.14216335 -0.06118063 0.018251806 0.03606911
-0.11027317 0.014189034 0.03552501 0.0029457982 -0.088793226 0.05669794 0.04540519 0.05662561
-0.014975309 -0.09015323 -0.09082056 -0.046392325 0.013395731 -0.025695518 0.07238217 -0.008408286
-0.018018125 -0.08641696 0.04373535 -0.036234967 -0.010315357 -0.043629102 -0.04461712 -0.008080741
-0.010735506 0.04971024 0.027116217 -0.09016098 -0.06649628 -0.05426533 -0.047612976 -0.15297772
-0.031721614 -0.052682444 0.04495436 -0.14947155 -0.11654066 -0.0060226056 -0.024075553 -0.081504986
-0.07504957 -0.006344329 -0.027089534 -0.039652847 -0.018269293 -0.10903529 0.15416922 -0.025051776
-0.049837537 0.048394043 0.12822147 0.080200024 0.048162974 0.03210555 0.035243016 -0.0034239397
0.06307217 0.070208654 0.064602844 -0.033211622 0.08077991 0.009881055 -0.010047985 0.053036682
-0.048995916 0.076838724 -0.042226024 0.014811721 0.11788515 0.0027684984 0.08551687 -0.11061738
-0.059979018 -0.08613054 -0.09863539 -0.02056261 -0.024747297 0.0014298364 0.028759694 -0.019038215
0.009021935 0.032352526 0.08194556 -0.0030439498 0.041214693 0.100678876 0.09825031 0.07770638
0.09548753 0.06879726 0.0136843445 -0.0009442046 0.03550374 -0.07792353 -0.029896691 -0.15701537

network.0.bias f4 [63]
00000000: 95c5 003f 7b73 033f 8ec7 0a3f d0a0 073f
00000010: 4ca2 033f 139b da3e b639 ff3e 7a23 fc3e
00000020: e302 ed3e 94af e43e 0207 013f 4985 fc3e
00000030: d92c fd3e 095d 093f cf9f d73e 9b07 f43e
00000040: b360 d73e d739 013f f0f5 c93e 6ef1 a93e
00000050: 985f 0e3f 2d28 f73e ae12 db3e ceae d33e
00000060: 3abb f93e 4fe5 fa3e dd17 f03e 7864 093f
00000070: 0972 e83e 5f72 023f 2cca f63e 5ce8 ee3e
00000080: c40a 073f 6308 063f a9ed fe3e 10e1 f33e
00000090: dc0d 053f 4b15 f33e 2cd6 0a3f f340 003f
000000a0: c917 ef3e c62a 0b3f da73 fb3e 64f0 f23e
000000b0: 263e aa3e 1bd7 f43e 4868 053f 0a7f 003f
000000c0: 0fbf 073f 58c7 013f 32a0 f63e 40e0 0b3f
000000d0: bf37 fe3e 46e0 f63e df39 f33e 34a8 f83e
000000e0: 1a3a aa3e 1455 e63e af26 013f cf40 073f
000000f0: 57a7 f83e bb7e e93e 3ab6 fc3e
0.50301486 0.51348084 0.54210746 0.52979755 0.5141952 0.42696437 0.49848717 0.49245816
0.46291265 0.44665205 0.5040132 0.49320439 0.4944828 0.53657585 0.42114112 0.47662053
0.42065963 0.5047888 0.39445448 0.3319201 0.55614614 0.4827284 0.4278769 0.41344303
0.48775655 0.49003074 0.46893206 0.5366893 0.45399502 0.50955766 0.4820112 0.4666165
0.527508 0.5235655 0.49790695 0.47632647 0.5197427 0.47477183 0.5423305 0.50099105
0.46697834 0.5436214 0.49111825 0.47449028 0.3325054 0.47820362 0.52112246 0.50193846
0.5302591 0.506948 0.48169094 0.54639053 0.49651906 0.48217982 0.4750509 0.4856583
0.33247453 0.44986784 0.5044965 0.52833265 0.4856517 0.456045 0.49357778

network.1.running_mean f4 [63]
00000000: beff 153f 8d15 7a3f 2993 afbf bb8a 1e3f
00000010: 55d1 43bc 3248 903f 60ae 7f3e 7c20 b63e
00000020: 1ea2 993e 993d 733f 9ea0 573c 6d80 283f
00000030: fbe2 c8be 9d5e 4d3f c899 353f 3c32 d1be
00000040: 75c0 0a3f 0088 a73f da49 883f f69c f43e
00000050: ac23 29bf 8233 c13d 74e7 303c 238d 373f
00000060: 0542 a03f c885 80bf ff00 b03f 2d7e 503f
00000070: f024 743e 4d55 43bd 6017 8cbd 234a cb3f
00000080: e8f2 b13f a861 993e ed6b 7bbe 3e45 a73f
00000090: 0fd7 413f b3d2 493f 73f1 c03f 5d72 ce3b
000000a0: 9394 243f dc3d 613f 8c48 463f 5cf6 fe3d
000000b0: 0c61 dd3f 8787 fabe 1f4e 863e 3139 a23e
000000c0: e8ae d93e 1435 0cbf 06bb 8f3c 2636 8e3f
000000d0: c2b8 5f3e a32f 1bbf f957 03bf eb64 81be
000000e0: 36d6 5b3f 5ea3 9e3f 00c1 823f f0e3 ad3f
000000f0: 1748 a33d c0cc 8f3f 57ef efbd
0.58593357 0.97689134 -1.3716785 0.61930436 -0.011951764 1.1272032 0.24968863 0.3557166
0.30006498 0.95015866 0.013160853 0.6582096 -0.39235672 0.80222493 0.70937777 -0.40858638
0.54199916 1.3088379 1.0647538 0.47776002 -0.66070056 0.094336525 0.01079737 0.7169973
1.2520148 -1.0040827 1.3750304 0.8144253 0.23842216 -0.04768877 -0.06840396 1.5882
1.3902254 0.29957318 -0.24552889 1.3068006 0.7571878 0.78837126 1.5073684 0.0063002543
0.64289206 0.87985015 0.7745445 0.12449333 1.7295241 -0.48931524 0.26231477 0.3168426
0.42516255 -0.5476849 0.017545234 1.1110275 0.21847823 -0.6061956 -0.5130611 -0.25272307
0.85873735 1.2393606 1.0215149 1.3585186 0.079727344 1.123436 -0.11715572

network.1.running_var f4 [63]
00000000: 582f 4c3b dc93 4a3b a96e d53b 6a9e 1a3b
00000010: 01bd 7c3a b01e 2b3b 0829 9b3b 0376 603b
00000020: 2653 813b a624 223b 56ca 213b f68d 873a
00000030: 8f57 8b3b 7abe 333b 26eb 993a 7718 233b
00000040: 6880 4e3b 537c 553b 6b74 123b 66d4 993a
00000050: cadf 483b 4ef3 a03a e4af 953a 4de4 253b
00000060: 51c9 9a3b e748 383b b519 383b 8f2b af3a
00000070: d785 193b b556 163b 873d f13a 8ff5 113b
00000080: 9097 5f3b bfb5 e83a 7a93 623b c3d1 283b
00000090: 1fe5 263b e99b 033b 0b53 923b 7abe a23b
000000a0: 3f3e b13a 658a 1a3b fa41 b23a 3b50 d73a
000000b0: 9785 343b b9d5 883b dc80 1e3b 54cf f23a
000000c0: 2425 213b 8dea 363b 52c6 3a3b 511b f63a
000000d0: 8ef5 ad3b cc20 a33b e6fd 613b 8a48 043b
000000e0: d573 8f3a d144 4d3b d0fd 5b3b b885 3d3b
000000f0: 32b5 c53a d734 f43a bb7a 963b
0.0031156149 0.0030910885 0.006513436 0.0023592957 0.0009641201 0.002611082 0.004735116 0.0034250028
0.0039466796 0.0024741082 0.0024687252 0.001034199 0.004252381 0.0027426765 0.0011743053 0.0024886408
0.0031509642 0.0032575324 0.0022347223 0.0011736273 0.0030650967 0.0012279542 0.0011420217 0.002531308
0.004723706 0.0028119625 0.0028091494 0.0013364422 0.0023425722 0.0022939865 0.0018405177 0.0022271608
0.0034117438 0.001775436 0.0034572766 0.0025759793 0.0025466157 0.0020081943 0.004465466 0.004966554
0.0013522579 0.0023581025 0.0013599985 0.0016427109 0.0027545446 0.0041758684 0.0024185693 0.0018524923
0.0024588788 0.00279108 0.0028499556 0.0018776451 0.0053088134 0.004978275 0.003448361 0.0020184838
0.0010944555 0.0031321535 0.0033568032 0.0028918814 0.0015083908 0.001863147 0.0045922673

network.3.weight f4 [63, 63]
00000000: f92e 293c e317 ecbb f486 74bd f15a d53c
00000010: a8db acbc 0dec 4e3e 4968 04bd 16d0 d8bd
00000020: 2a38 a4bc 2ff5 bdbd 00a1 7abd 12ce 94ba
00000030: 8fef 113c 5603 e0bd 6dc0 ae3d 83b3 fabd
00000040: 9595 d1bd 03be b4bc 602c fa3d fede dbbd
00000050: aa66 193d 120f e63d f13b 943d 9d4e 21be
00000060: dcba 6b3d 83e5 37ba 05d0 b6bd a0b5 d6bc
00000070: 7592 e33d a2d9 bd3d 5967 9f3d 4922 c8bc
00000080: 4487 b53d de33 3f3c 68cd 98bd 4981 3d3d
00000090: 332a b3bd 1dff 1c3e 2349 55bd 37e5 993d
000000a0: 53c5 2b3d f468 6abd 008a 913d 8745 803d
000000b0: 40f7 1cbd 995c e63c 0ce4 013e 421c adbc
000000c0: 8d29 db3d 4354 b13c 1f19 393c de8c 0b3d
000000d0: 70c6 fdbd 52ff 73bd 50fd 90bd 4d69 9abd
000000e0: dee3 b03d 8b9f cabc 733b ad3d dba5 aabc
000000f0: 8c51 4ebc 154f 353c 71a3 be3d 001b 423c
00000100: 5827 33bc b803 8a3d d0e6 b03c f8cb 2bbc
00000110: d36e 9cbd 0961 e0bb b051 e3bd 2bce 10be
00000120: aeee ac3d b76b 3f3e 3611 ea3d c7e9 ea3d
00000130: c675 423d bb7e 20bd 2cad 363c fb34 1b3d
00000140: c414 b7bd 94d7 42bd 975f c9bd 9382 593e
00000150: 4b87 903d 7cd4 f1bc ab12 1cbe 45c6 d4bc
00000160: d57b 00bd 7aae 97bd 5018 76bc 39eb 083e
00000170: aa0d 923b c4e8 bb3a cf5d 983c 8776 1f3e
00000180: 4a08 87bd f32a 7c3c dc33 9b3d 33ac 263d
00000190: ad22 7e3d 7334 2a3d dad2 463e 156b a13d
000001a0: 626b 98bd f433 13bd b7d0 f4bd fbb8 1fbc
000001b0: 4c81 94bc 78b3 023d 56bd b63d 8cda d1bc
000001c0: a8e6 51bd 1c55 ee3b 8f00 563d 888a f83c
000001d0: cbdb bfbc 3905 a7bc f6bf a93d fbcc 9cbb
000001e0: d862 08be a22c efbd 52e8 4fbd 299c 693c
000001f0: 89af 83bd 89df 393e 2ab4 36bd 1d22 44bc
00000200: 35b9 be3d e13e 1dbe b2ae 4a3d feb5 94bd
00000210: cd13 f4bd f7c6 0c3e 161d 633c 986f 04bc
00000220: 6d33 09be 6fa1 56bd b605 9f3c 8cb6 cdbd
00000230: f406 0fbe 1c46 1d3c e8cc 033d 7d79 34bb
00000240: 10ef 45bd 28e2 383c 32fb b03d 8f9a cfbd
00000250: a48f e13d fba0 87bd a613 f63d da42 84bd
00000260: 1dec 2c3e 3878 8abd 528c 0abd ee39 a93d
00000270: 2806 6a3d d25a 80bb c4a7 bd3b e546 503b
00000280: b90e cd3c 8025 0cbe ebec 5abe 3ef2 dabd
00000290: 716d 1a3e ac57 c2bc 0c82 4fbe 06a8 953b
000002a0: ab10 e8bd 4f43 583c d9c4 bbbd fcc4 93b9
000002b0: 9cc2 3bbd 1147 703c 1693 2dba 7416 523c
000002c0: 4be0 7fbc dec0 593d 1f86 053e a20f 2e3d
000002d0: 81a9 9c3d 66f9 54bd 9f84 1cbc 46ff c8bc
000002e0: 75f0 a8bd 0540 68bd 2d83 0e3d b9dc b5bc
000002f0: 600f 85bd 54f7 56bb f572 2f3d af6e 6dbd
00000300: 20ab 45be 3939 0abe 9dae d0bd 9d48 03be
00000310: 214e 1cbe 6165 5ebe a816 143d 273c 083d
00000320: 5e45 dbbd 626d a53d dee0 16be b14f 143c
00000330: 6e3d a9bd b993 b93d 7602 c83d 39b0 c7bd
00000340: 5dca e03d 9946 1b3d 7c3b ddbd 28b1 af3d
00000350: e291 a5bd ddcf 24be 3354 e2bd 5cb1 91bc
00000360: 0e16 5dbd b820 d23c 4659 bf3d 632a ae3d
00000370: 8a79 cf3c ebeb 05be d1b1 653d 657a 5b3d
00000380: 7385 cebd 37c6 8e3d f4b4 05be fbcc 0a3d
00000390: 77bf 87bd 0308 d9bd 13bb 543d 3988 6dbd
000003a0: 8a24 4cbd 41e1 413d 43c8 4c3d 82cb 843c
000003b0: 9c98 103c 3311 59bd 5043 953d 705b aebc
000003c0: e613 8b3c 1916 37be 1bbf f9bd e11b 593d
000003d0: c1d4 b5bc 3bfb 783d a8f3 23bd d0eb 043e
000003e0: a660 0e3e bd63 813d 6f95 083e b546 8dbd
000003f0: 655e 5bbc cc8d 9ebc 6983 843d f835 9abd
0.010326141 -0.007204996 -0.059699014 0.02604434 -0.021100834 0.20207234 -0.032326017 -0.10586564
-0.020046312 -0.09275281 -0.061188698 -0.0011352918 0.008907213 -0.10938136 0.08532796 -0.122412704
-0.10233609 -0.02206326 0.12215495 -0.10735892 0.037451424 0.11233343 0.072379954 -0.15752645
0.05755125 -0.0007015096 -0.08926395 -0.026209652 0.11111919 0.09270026 0.07783384 -0.024430411
0.088636905 0.011670081 -0.07461053 0.046265874 -0.08748283 0.15331693 -0.0520717 0.075144224
0.04193623 -0.057228997 0.071063995 0.06263261 -0.038321733 0.028120326 0.12684649 -0.021131638
0.107012846 0.021646624 0.011297493 0.03406989 -0.123913646 -0.059569664 -0.070795655 -0.07539616
0.08637212 -0.02473428 0.08458605 -0.02083104 -0.0125926845 0.011066218 0.09308518 0.011847258
-0.010934673 0.067389905 0.021594435 -0.010485642 -0.076383255 -0.006847505 -0.11099565 -0.14141147
0.08443962 0.18693434 0.11429064 0.11470371 0.0474756 -0.03918336 0.011149686 0.037892323
-0.089395076 -0.047568873 -0.098326854 0.21241216 0.07057055 -0.029520266 -0.15241496 -0.025973449
-0.031368095 -0.07406326 -0.015020445 0.1337098 0.0044571953 0.0014336337 0.018599419 0.15572558
-0.06593378 0.015391099 0.07578251 0.040691566 0.06204479 0.041553926 0.19416371 0.078817524
-0.07442357 -0.03593822 -0.11953872 -0.009748693 -0.01812806 0.031909436 0.08922832 -0.025616907
-0.05124536 0.0072733294 0.052246626 0.030339494 -0.023420235 -0.020388233 0.08288567 -0.0047851778
-0.13318956 -0.11678435 -0.050758667 0.014258423 -0.06429965 0.18151678 -0.04460541 -0.011971024
0.09312669 -0.15356018 0.04948301 -0.07261275 -0.11917839 0.13747774 0.013861915 -0.008083247
-0.13398524 -0.05240005 0.019411903 -0.10044584 -0.13967496 0.009599235 0.032177836 -0.0027538233
-0.04832369 0.011284389 0.08641662 -0.101369016 0.110137254 -0.066225015 0.120154664 -0.064580634
0.16886945 -0.06761211 -0.033825226 0.08263002 0.057134777 -0.0039170766 0.0057878215 0.0031780538
0.025031434 -0.1368618 -0.2137944 -0.10690735 0.15080811 -0.023723446 -0.20264453 0.004567149
-0.11331304 0.013199641 -0.09168405 -0.0002818479 -0.04583989 0.014665381 -0.0006621344 0.012822736
-0.01561744 0.053162448 0.13039444 0.042495377 0.07649518 -0.051995657 -0.009553104 -0.024535786
-0.082489885 -0.05670168 0.034793068 -0.022199975 -0.06497073 -0.0032801228 0.04283424 -0.057966884
-0.1930356 -0.13498391 -0.10189555 -0.12820669 -0.15264179 -0.2171836 0.03615442 0.03326049
-0.1070659 0.08077504 -0.14734218 0.009052203 -0.0826367 0.09061379 0.097660944 -0.09750409
0.10976098 0.037909124 -0.10802361 0.08578712 -0.080844656 -0.16094919 -0.11051216 -0.017784767
-0.05397611 0.025650367 0.093431994 0.085041784 0.025326509 -0.13078277 0.056077782 0.05358352
-0.10084047 0.069714 -0.1305731 0.03388689 -0.06628316 -0.10597231 0.05193622 -0.05799124
-0.049839534 0.04733396 0.049995672 0.016210321 0.008825447 -0.052994918 0.072882295 -0.021283835
0.016977262 -0.17879523 -0.121946536 0.053005103 -0.022196176 0.060786467 -0.04002729 0.1298058
0.13904056 0.06317852 0.13338254 -0.06898252 -0.013389205 -0.019354723 0.06470377 -0.07529825

network.3.bias f4 [63]
00000000: 8153 ff3e 674d ff3e 20cc ff3e e6a1 ff3e
00000010: 3f80 ff3e 77f0 fe3e f487 003f fdfb ff3e
00000020: 99ed ff3e 0efe 003f 7ac5 ff3e 128f ff3e
00000030: fcfa ff3e 1057 ff3e 02e2 ff3e 0e4b 013f
00000040: a462 ff3e 640f 003f 78c0 fe3e ce81 ff3e
00000050: 1bd3 fe3e ff3c ff3e 6a3e ff3e f971 ff3e
00000060: 229b ff3e e31c 003f 768f ff3e 47aa ff3e
00000070: a5f1 fe3e b413 ff3e ca19 023f 25f0 ff3e
00000080: d804 003f 6a09 ff3e 51c5 ff3e 87cf 013f
00000090: b925 fe3e 8c25 003f 07ba ff3e 6810 ff3e
000000a0: 939e ff3e 8754 ff3e 1cb6 063f c240 ff3e
000000b0: 7d5c 003f 57fc ff3e ef98 ff3e 88fa fd3e
000000c0: a3b7 ff3e 39f6 fe3e 6c97 ff3e 9043 003f
000000d0: 8109 003f 201c 003f d8b8 fe3e 6425 003f
000000e0: 4114 013f ccd3 fe3e c59f fe3e eb1a 003f
000000f0: a6c2 ff3e af3b 003f f526 003f
0.49868396 0.4986374 0.49960423 0.49928206 0.49902532 0.49792835 0.5020745 0.4999694
0.4998596 0.50387657 0.4995535 0.4991384 0.49996173 0.4987111 0.49977118 0.5050515
0.49879944 0.50023484 0.49756217 0.4990372 0.49770436 0.49851224 0.49852306 0.49891642
0.49923044 0.5004408 0.4991414 0.499346 0.49793735 0.4981972 0.508206 0.49987903
0.5000739 0.4981187 0.49955228 0.50707287 0.49638155 0.5005729 0.49946615 0.49817204
0.4992567 0.49869177 0.52621627 0.49854094 0.50141126 0.49997208 0.49921367 0.49605203
0.4994479 0.49797228 0.49920213 0.5010309 0.500145 0.50042915 0.497504 0.50057054
0.5042153 0.49770963 0.4973127 0.50041074 0.49953192 0.5009107 0.50059444

network.4.running_mean f4 [63]
00000000: fb7c 0e3f 5717 1b3f 4dfb a83e 5881 933e
00000010: 8280 db3e 4555 2b3f 972a f93e 769d 873e
00000020: fc07 e63e 559a df3e 32d6 a63e 92ca 2c3f
00000030: e0a4 333f 1ea2 103f 04f2 b43e 08a7 ce3e
00000040: f5f5 c53e e82e cb3e 6191 1e3f 0e96 aa3e
00000050: 1053 fc3e e305 143f 1193 cf3e d836 023f
00000060: 61ac ad3e 5a13 183f a132 ea3e 58e8 e33e
00000070: 608c 0e3f 325f 1b3f 6cd6 0e3f 00ff c13e
00000080: 55dc b33e 236d df3e 28aa 053f 52fa e93e
00000090: d598 003f a06a fe3e 3c82 a03e 9406 c23e
000000a0: 71d0 813e 65a5 e43e 8105 073f eb54 ce3e
000000b0: 968a 3b3f 5a01 893e 22df ab3e 06cc b73e
000000c0: d449 cd3e 7a12 e03e 1ad8 023f 7c01 323f
000000d0: e607 cc3e e965 c83e bec3 3e3f d607 033f
000000e0: 03ff be3e bb2c a13e f50e af3e c6e0 be3e
000000f0: 8a5c 193f 4a00 d33e 76eb 433f
0.55659455 0.6058249 0.33004227 0.2880962 0.4287148 0.66926986 0.48665306 0.2648732
0.44927967 0.43672433 0.32585293 0.674966 0.70173454 0.5649737 0.35340893 0.4036181
0.38664213 0.39684224 0.6194058 0.33317608 0.49282122 0.5782148 0.4054189 0.50864935
0.33920577 0.5940453 0.45741752 0.44513202 0.55682945 0.6069213 0.5579593 0.37889862
0.35129037 0.43637952 0.5221276 0.45698792 0.50233203 0.49690723 0.3134936 0.37895644
0.2535434 0.44657436 0.52742773 0.40299162 0.7325834 0.26758844 0.33568674 0.35897845
0.4009539 0.43764096 0.51110995 0.69533515 0.39849776 0.3914025 0.7451743 0.5118383
0.37303934 0.3147944 0.341911 0.37280864 0.5990683 0.41211158 0.7653116

network.4.running_var f4 [63]
00000000: 9fa7 d73d 03b7 3a3e 4a79 393e c665 8f3d
00000010: 78fa 893d eb83 1c3e f616 e23d 63fe a33d
00000020: f017 143e f524 8e3d d07b 0a3e d28b 8d3e
00000030: 8fca 6a3e 38f9 033e 04cb a83d 2cfe a93d
00000040: 0625 833d 3ad1 903d 1509 d83d 01ec 733d
00000050: 2a9e b83d 0e0b a13d cbe6 9c3d 849a c83e
00000060: bb69 0d3e 75d9 b13e 4c75 113e 3714 543e
00000070: e920 0f3e 0df9 473e bd05 873d 62a7 083e
00000080: 5bf1 ff3d 2b7e 593d 2cf2 513e e6d0 353d
00000090: 79cc 603d 9dcd ff3d eef1 193e baff 603d
000000a0: 0b34 fc3d ac92 a23d b8b6 8c3e 2953 a13d
000000b0: d8ea 953e 90a5 753e 3bdd d03d 4f11 413d
000000c0: 3612 ae3e abee 373e 9f31 483e a6ef f53d
000000d0: 5c79 a73d 122a db3d e04b a73d 1631 503d
000000e0: 83e3 6d3d 5395 e63d 5a28 373d 0ee4 283d
000000f0: 1844 5e3e ad3c cb3d fdd8 d83d
0.10530018 0.18233876 0.18112674 0.070018336 0.06737226 0.15284698 0.11039536 0.08007505
0.14462256 0.06940643 0.13523793 0.27645737 0.22928832 0.12888038 0.08241847 0.083004326
0.06403546 0.07071157 0.10548607 0.059551243 0.090145424 0.07863437 0.07661208 0.39180386
0.13809864 0.3473622 0.14204901 0.20710836 0.13977398 0.19528599 0.06592891 0.13345101
0.12497207 0.05309884 0.20502537 0.044388674 0.0548825 0.124903895 0.15033695 0.05493138
0.12314614 0.07938132 0.27483153 0.0787719 0.29280734 0.23988938 0.10198446 0.047135647
0.3399827 0.17962138 0.19550179 0.120086 0.08177444 0.10701384 0.08168769 0.050828062
0.0580783 0.1125895 0.044716217 0.041233115 0.21705663 0.09923682 0.10588262

network.6.weight f4 [63, 63]
00000000: dfed a6bd 351c 7abc edcd 44bd 8ff9 3c3d
00000010: c6a9 d63c 72da 6c3d 699a 7abd 6533 a23d
00000020: ef0a b53d 00e6 92bd 5289 7c3d c974 59bd
00000030: 66af 34bd 3257 a03c b75f f2bd eb06 6e3d
00000040: 55cf 8e3d c151 a13c 8c21 4c3d 666b 63be
00000050: 7904 db3c 8dc8 08bd b1c2 1abe e54e b9bc
00000060: 292a e0bc 6e1f c93c 8d09 24be 2194 8ebc
00000070: 1902 69bd babf 963d 3eeb 323e c625 8bbc
00000080: e0e6 e7bd 61f7 873d 1782 563d a3dd 33bd
00000090: 21d0 8a3d b757 e53d f528 e63b 84ed 76bd
000000a0: fe31 3e3d 466a 303e 6c79 d0bd 6471 b43c
000000b0: ace0 403d 2261 a43d 154d 58bd 03c1 9e3d
000000c0: 7206 7a3d d93b 003e 9227 53bd 5525 823d
000000d0: 10db c43b 6447 1c3d b48d 95bd e25a 443e
000000e0: c1e3 6fbd 4e7f a03d 5d1f b1bd 1a53 033d
000000f0: 6afb a3bc 7c82 563c 9c15 c0bc 1eca 023e
00000100: 0a02 5b3d e3d9 5abd 9c0e 2b3d 02d8 1a3b
00000110: 4da2 49bd 8635 0abd ed8d d93d 11e9 02be
00000120: 18bf 013e e446 20bd 194b 5fb9 355a 523d
00000130: e9f5 f23d d0e2 9b3d 3d86 063d 68c3 073d
00000140: 759b 383d 2832 33be e120 0e3d d2d1 3b3c
00000150: 480c 1e3d 436c 883d ccdb 5f3d a7ec fabd
00000160: 0de3 07bd 1af4 86be 75e1 a1bd 348c 063d
00000170: 2f3d 32bd 7f04 e8bc 52c7 823d bd95 9ebd
00000180: 1f46 83bd 9035 10bd ea26 4bbd fe75 063e
00000190: f167 5abd 561c 903d 3b64 323d 357f be3d
000001a0: 009a a13d 5551 68bd 3d60 3bbc dd2d 603d
000001b0: c6d8 c23d 4335 993d 0eed 2fbe 06d7 5d3d
000001c0: fb53 14be c394 55bd ac97 bbbd a180 86bd
000001d0: 1760 0ebc 56a6 6c3d 8c7e d1bc e293 e2bc
000001e0: 3af8 a53d f04d 783d ec78 7f3c ca6c f93d
000001f0: 7d83 16be 2f00 b53c ef94 ddbd 1f77 563d
00000200: ce48 873d 2864 8bbd 6b56 3f3e 4a60 8b3d
00000210: 1f3c 983d b4b3 62bd 8bbb adbc 06c8 c73d
00000220: b301 92bd 0fff 10be 0150 e03d dae8 b33d
00000230: 6ff5 36bd 61ab d7bd 03dd d0bd 831f aabd
00000240: ac8d 11be c60e 203c d1e0 863d 96a6 e3bc
00000250: ae7a c23d a4f6 adbd d4bf c63c 8941 27be
00000260: dd40 85bd 7755 a53c fd63 8cbc 94a5 80bd
00000270: a1d2 5f3d 4dd8 913b d263 c73d 1cd0 49bd
00000280: f7aa d0bc f569 e3bc c04c 2fbe d5d2 09be
00000290: 4806 d23d 1575 41bc fe93 9ebd b4d1 943c
000002a0: ef99 e33c 40c2 7bbd b6c5 0ebe 3a18 bd3b
000002b0: 52ca 0c3d 4ba6 96be 772f cdbd 21ec 0cbe
000002c0: 62f7 09bd 1e67 923c c161 453d 7c15 4ebd
000002d0: 214b 393c f652 0a3c 2d1f 253d b367 3ebc
000002e0: cc06 bfbd 8ffd b63d 8b95 c23d d182 0ebc
000002f0: 0049 ffbc 776c 25bd a3cc 80bd 4614 c53d
00000300: ffd5 a63c d52f 0bbe a3fc 6bbd 3b3c eb3d
00000310: 7f9e 6ebc 4c9b 82bc 188b d03d 9ebc 15bd
00000320: b3be 3c3d 09c4 123e 4a5a 02be be82 4e3e
00000330: b686 3d3e 9934 b1bc 6e7f ecbd 2764 453c
00000340: e19b 893d 7d40 273c d697 823d c859 083e
00000350: 2f48 02bd 1a60 823d 1ae7 8b3d aaa3 e33c
00000360: fc2b c63c 53df 16bd 984b 123b 30e5 fe3d
00000370: 8958 cf3d 190d 2ebd a154 933d 91e4 0ebe
00000380: 73f2 c63d c960 8cbd 01dd c13b 268d 2b3e
00000390: ac99 7f3d edbb af3d 3e7c 1dbe 6bb3 d83d
000003a0: 303a 6fbd dd73 b03d 4eb9 1d3e 8c0f 04be
000003b0: 069c 4e3c 5ef7 b53c 25e6 9cbd a44f a2bd
000003c0: 3271 9d3c 9859 bd3d cbf4 b23d 8d6a 3b3d
000003d0: 1a06 ef3d 4731 3e3e fa8f 81bc 7847 503d
000003e0: 1e6b 85bd 398f a8bd 38c0 363d 4a00 edbb
000003f0: 39e8 423d 4425 09be da45 aabd c2e4 cabd
-0.08150839 -0.015265514 -0.04804795 0.046136435 0.026204001 0.057825513 -0.061182413 0.07919959
0.08839976 -0.07172775 0.061654396 -0.05308989 -0.044112585 0.019572828 -0.118346624 0.058112066
0.06973139 0.019692304 0.04983668 -0.22208938 0.026735531 -0.033394385 -0.15113331 -0.022620628
-0.027363854 0.02455112 -0.16019268 -0.017404618 -0.056886766 0.07360788 0.1747255 -0.016985785
-0.11323333 0.06638981 0.052370157 -0.04391254 0.06777979 0.11198371 0.0070239254 -0.060285106
0.046434395 0.1722804 -0.101794094 0.022026725 0.047089264 0.08026339 -0.052807886 0.07751658
0.061041303 0.1252283 -0.05155141 0.06354777 0.0060075596 0.03815402 -0.07302418 0.19175294
-0.058566812 0.078367814 -0.0864856 0.032061674 -0.020017345 0.013092633 -0.023447804 0.12772414
0.05346874 -0.05343045 0.04176198 0.0023627286 -0.049227048 -0.03374245 0.10622773 -0.1278422
0.12670553 -0.039130107 -0.00021294913 0.05135556 0.1186331 0.076116204 0.032842863 0.03314534
0.04507013 -0.17499602 0.034699325 0.011463599 0.03858593 0.06661274 0.054652974 -0.12252169
-0.033175517 -0.2635811 -0.07904331 0.032848552 -0.04351538 -0.028322456 0.063856736 -0.07743404
-0.06409859 -0.03520733 -0.04959766 0.13130948 -0.053321782 0.07036655 0.04355262 0.093016066
0.07890701 -0.05671819 -0.011436519 0.05473124 0.095140025 0.07480862 -0.17180273 0.05416014
-0.14485161 -0.052143823 -0.091597885 -0.06567503 -0.008689902 0.057775818 -0.025573038 -0.027658407
0.08103986 0.060621202 0.015592795 0.12178953 -0.14698596 0.022094814 -0.108194225 0.052359696
0.06605683 -0.06806213 0.1868531 0.06805475 0.07433342 -0.05534716 -0.021207592 0.09754948
-0.0712923 -0.14159797 0.109527595 0.08784647 -0.044667657 -0.10530735 -0.10198405 -0.08306792
-0.142142 0.009769147 0.06585849 -0.027789395 0.094960555 -0.084943086 0.024261393 -0.16333593
-0.06506512 0.020182354 -0.017137522 -0.062815815 0.05464423 0.004450834 0.09735836 -0.049270734
-0.025472147 -0.027760485 -0.17119122 -0.13459332 0.10255104 -0.0118077 -0.07743071 0.0181664
0.027783362 -0.061464548 -0.13942608 0.0057707103 0.034372635 -0.29423746 -0.10018819 -0.13761951
-0.03368319 0.017871436 0.04818893 -0.050313458 0.011309416 0.008442631 0.040312935 -0.0116214035
-0.09327468 0.08935081 0.09501179 -0.008698181 -0.031162739 -0.040386643 -0.06289031 0.096230075
0.020365713 -0.13592465 -0.05761398 0.114860974 -0.014564156 -0.015943192 0.1018278 -0.036556832
0.046080302 0.14332594 -0.12729755 0.20167062 0.1850842 -0.021631526 -0.11547743 0.012047804
0.06719185 0.010208246 0.06376617 0.13315499 -0.03180712 0.06365986 0.068311885 0.027788002
0.024190895 -0.036834072 0.002232289 0.12446058 0.101243086 -0.04249296 0.07193876 -0.13954379
0.09714212 -0.06854398 0.0059162383 0.16753063 0.062402412 0.08580766 -0.15379426 0.10581096
-0.0584051 0.08615849 0.1540272 -0.12896556 0.012610441 0.02221268 -0.07661084 -0.079253465
0.019219015 0.09245604 0.08738097 0.04575591 0.11671086 0.18573485 -0.015815724 0.050849408
-0.065145716 -0.082304426 0.044616908 -0.0072327005 0.047584746 -0.13393122 -0.083141044 -0.09906913

network.6.bias f4 [63]
00000000: b8f5 fe3e 077d fe3e cc97 ff3e 7e6d 033f
00000010: ca38 003f fcd4 ff3e 4f3c ff3e 43ad ff3e
00000020: cdf6 ff3e aa96 fd3e 9913 003f 20ad ff3e
00000030: 92ff ff3e a4a0 ff3e 7fe0 ff3e b0c9 ff3e
00000040: 7dbb fe3e 9c6f ff3e 82fe fe3e 8851 ff3e
00000050: f336 ff3e 4ec5 ff3e b0e7 ff3e 176c fe3e
00000060: 8758 ff3e 981b 003f 9190 ff3e 5ab3 ff3e
00000070: ce05 fe3e 8d4a ff3e 4643 ff3e c975 ff3e
00000080: 5b00 003f ad0e 063f 6f2c ff3e 1926 ff3e
00000090: 8c9d 003f 431f ff3e 3247 ff3e f562 ff3e
000000a0: 7a4b ff3e 0fda 033f 7217 003f d416 ff3e
000000b0: 3b3d ff3e 78c2 fe3e 5e05 003f ec26 003f
000000c0: 4809 003f d0a6 ff3e 0463 003f d14a ff3e
000000d0: 94af ff3e bd34 003f 1217 003f b542 003f
000000e0: 1609 003f 3de0 ff3e 8956 003f caf6 ff3e
000000f0: fd43 013f 84ac ff3e a512 fe3e
0.49796844 0.49704763 0.499205 0.51338947 0.50086653 0.49967182 0.498507 0.49936876
0.49992982 0.4952901 0.50029904 0.4993677 0.49999672 0.49927247 0.49975964 0.49958563
0.49752417 0.4988984 0.4980355 0.4986689 0.4984661 0.4995522 0.4998145 0.4969184
0.49872229 0.50042105 0.49914983 0.49941522 0.49613804 0.49861565 0.49856013 0.4989455
0.5000054 0.52366143 0.49838588 0.49833754 0.502404 0.49828538 0.49859005 0.49880186
0.49862272 0.51504606 0.50035775 0.49822104 0.49851403 0.49757743 0.5000819 0.5005939
0.5001416 0.49931955 0.50151086 0.49861768 0.49938643 0.5008047 0.500352 0.50101787
0.50013864 0.49975768 0.5013204 0.49992973 0.50494367 0.49936306 0.496236

network.7.running_mean f4 [63]
00000000: 1714 133f b0fe fc3e 9683 853e 9b40 413f
00000010: cb38 1b3f ac41 223f 8987 c93e 0dcf d33e
00000020: 7266 173f 66cd 183f fe23 243f 7833 c23e
00000030: 6f87 213d 91e0 ff3d c03b 223f 2bf8 fe3e
00000040: a814 fc3e 362f aa3e 241d 8a3e f57c 2e3f
00000050: a3e7 f73e 4c37 403e ec18 ee3e f633 333f
00000060: dc4b 023f 062c b53e 2767 383f 8990 fc3e
00000070: bb81 eb3e 8196 003f 9b83 723e f399 9d3e
00000080: fee7 9f3e 324a 393f a494 103f 6142 fa3e
00000090: a06f 4c3f 4e99 073f d336 b43e 7d89 d33e
000000a0: b8ac f03e c0eb 473f 3cdd 033f b405 e03e
000000b0: 892e ad3e e695 1f3f 1388 123f df58 1c3f
000000c0: 5d4c 133f 618c 943e ccd9 073f f074 2d3f
000000d0: 6dc2 f23e c130 d03e e6f4 d33e 3ca9 f33e
000000e0: b78f 6e3f 95e4 123f 4d56 0a3f 0a87 c93e
000000f0: 1529 173f 92bd db3e bfd6 f83e
0.5745253 0.4941306 0.26076955 0.75489205 0.60633534 0.6338146 0.39361218 0.41368905
0.59140694 0.59688413 0.6411742 0.37929893 0.0394358 0.124940045 0.6337242 0.49798712
0.4923451 0.33239144 0.26975358 0.6815942 0.48418912 0.18771094 0.4650339 0.7000116
0.50897 0.3538515 0.720324 0.49329022 0.45997414 0.5022965 0.23683016 0.30781516
0.31231683 0.7237884 0.5647681 0.48878768 0.79857826 0.529683 0.35198078 0.41315833
0.47006774 0.780941 0.5150945 0.4375435 0.33824566 0.623381 0.5723888 0.61073107
0.57538396 0.2901335 0.53066707 0.6775656 0.4741396 0.40662196 0.4139778 0.47590053
0.9318804 0.5738004 0.54037935 0.3936084 0.5904706 0.42918068 0.48601338

network.7.running_var f4 [63]
00000000: 1260 e23d 37ce 1a3e 81bf a53d e2c0 3b3e
00000010: a1a6 ac3e 15f2 623d 660d 483d a6a2 143e
00000020: 4495 443e 612a 183e 4248 273e f056 b93d
00000030: b77c e63d dd96 4d3e f2f0 993e 274a 8d3d
00000040: 4f07 123e fb1b d03d b120 2d3e 8bc9 903d
00000050: d182 0a3e 8fbd 0a3e b3b7 023e e12d 253e
00000060: e8ba d23d c443 293d c9a7 783e c2ef a13d
00000070: 1c16 b13d b8b4 bd3d 9154 0f3e 16c4 5b3e
00000080: 535f 543d 67a4 863e 87a9 333e 599f 1b3d
00000090: bc37 223e d34c 263d 9ce7 fb3d d9a2 3c3e
000000a0: b9e8 d43d 8b2b 4d3e 05c5 173e a198 893d
000000b0: 7ebc 173e 7ed3 4d3e 4a96 d33d 46e8 303e
000000c0: 7791 663d 931b 813d 99a3 5c3e f692 963d
000000d0: 507a c83d 5f83 043d dff6 8a3d 3480 e23d
000000e0: 749c 613e 04bd de3d 6a41 bf3e b9ab 0a3e
000000f0: 5a1b 7d3d fc84 643e eb30 973d
0.1105348 0.15117727 0.08093167 0.18335298 0.33720878 0.05540665 0.048840903 0.1451517
0.19197565 0.14859916 0.16336158 0.09049785 0.11254256 0.20077081 0.3006664 0.06898909
0.142606 0.10161587 0.16907002 0.07069691 0.13526465 0.13548873 0.12765388 0.16130783
0.10289556 0.041324392 0.24282755 0.07907058 0.08646795 0.09262985 0.13997103 0.2146152
0.05184872 0.26297304 0.17545138 0.037993763 0.15841573 0.04060061 0.12300035 0.18421496
0.10395951 0.20036142 0.1482125 0.06718565 0.14817998 0.20100209 0.103314 0.17276105
0.05629107 0.063040875 0.21546783 0.07352249 0.09788954 0.032351848 0.06785368 0.11059609
0.22032338 0.108758956 0.37354594 0.1354207 0.061793663 0.22316355 0.07382377

network.9.weight f4 [63, 63]
00000000: 3bf4 fdbd 515c 2c3e 9ac8 e03c 0d4c e43c
00000010: f8d2 f4bb 26c0 9c3c 1b60 1d3e f020 4e3d
00000020: 9d10 dfbc fa6c cbbc 0d4c 8638 f69d 673d
00000030: 270e 5cbe 9092 a6bc 0ec5 9e3d 67bc c5bd
00000040: c0be 113d 1f44 e53d 5320 99bd 77ac 753d
00000050: 45ec aebc 9902 953d 73aa de3d 3ac7 7b3d
00000060: e663 f4bc ca1e 423d a3b4 013d 4732 bdbd
00000070: cf4f f0bc 902e 5d3d 0507 273c 32ec dcbd
00000080: ae89 11bd 8093 253d 196c 2c3c d717 45bd
00000090: e6a2 43bd ced8 803c d71d d93c c3f6 20bd
000000a0: a2b2 abbb a2a2 14bd ce9e 48bc 7d28 2a3e
000000b0: acaa 0f3d 5d94 b43c 7516 c8bd 2cf3 a63d
000000c0: 109e 5b3d 35b5 32be c46e d33d f3a0 efbd
000000d0: bc31 b63c ec18 ce3d e72f 183d e8cc 743d
000000e0: 0c33 67bd 13b4 e03b a7c9 b0bc b9ca b6bd
000000f0: 9903 893b 342f 873d 2c67 1dbd f4aa 14bc
00000100: 9964 923c 1433 0abe e385 44bd 7ccc af3d
00000110: 6d98 883d 5ed1 00be 3b06 f1bd b8e3 d83d
00000120: 0b34 6bbc 7fe1 bf3d f1a1 86bc 9c48 a73d
00000130: 5385 763d e21b 9ebd f173 203d a8a9 623d
00000140: 0096 7a3d 5465 8f3c 08a6 14be 21dd 40bd
00000150: ad4f fe3d fbb5 fbbd 12d9 1cbe a961 2a3d
00000160: 7728 60bd c8b7 163e aa94 e33c 1eae 80bd
00000170: 740d 64bd c145 133e 8b62 5dbd b043 e13d
00000180: 8584 ccbc 914a f53b b2e4 2d3e 003e 103e
00000190: 1d65 8e3d 4a2e 973d f897 e23d 8764 cb3d
000001a0: ad0d f5bc 4bd0 143c db0d 013d 7344 223e
000001b0: cd73 a83d 7b80 0a3e 0065 bb3d 1580 80bd
000001c0: 2a20 eabc c482 0d3d 2189 9f3d 3f4c 443d
000001d0: 9b60 27be e1e3 c03d f81f 783a 0a30 03bc
000001e0: 8b5d 38be e0b1 84bd f599 9c3c 305b 4f3d
000001f0: 9de3 733c 0964 d2bd b8d7 b23d 23c0 053e
00000200: a658 c03c 2338 3f3e d47a 93ba adbb 033d
00000210: 05c0 843d b52f acbd e594 e63d f07d 58bd
00000220: 77c8 c5bd 864f 273d 113f 3bbb fd5b da3d
00000230: 77cd aebd 77a5 f2bd 8ee8 1abe 88d0 81bd
00000240: bdc9 8b3d 2b28 96bd d8e9 ddbd 8d6e 803c
00000250: 3dc1 663c d119 6f3d bfac c5bd 8409 d13b
00000260: ae4c 87bd b1dd 143e f146 d93d e862 4f3d
00000270: 61ce 1cbd 3d98 4a3d 5cd4 b0bd 6750 a2bc
00000280: 6ab9 e2bc d2a9 e2bd f210 bf3d 0c0d 8ebc
00000290: 2274 52bb 0ac6 67bd 1c7f 7dbd 5484 593c
000002a0: ec65 653d 83ec d13d 5c16 ce3c 093a 62bd
000002b0: 3b84 dabc b09b 2e3d 7383 a53d e330 903d
000002c0: aeee c1bc 8fbf b93c fc8b c9bd c16b 5dbc
000002d0: 98b3 313e 4cd5 11bd aa56 293e 8992 acbc
000002e0: e4c2 a5bd f949 4fbd 9404 473d a350 aa3d
000002f0: b386 d43d e772 d23c b8ff 103e 4589 073d
00000300: 7a6f ebbc 3165 3dbc 39d5 053e e000 bbbd
00000310: 9198 a43d cfbf d6bd 21d3 05be 56b1 fc3c
00000320: 15dd a6bd 3562 34be 3b0a dbbd a9d0 583d
00000330: 971e a1bd 7a99 56bd a70f b23d fea8 893d
00000340: ce5f a53d 1f17 803c 4dea a03d 8648 62bd
00000350: 2f74 f13d 14c5 853c a5a2 02be 9db3 903c
00000360: 173d 423d 35ee 4c3d f93b f63d 1470 93be
00000370: f136 b3bd eb63 0fbd 4b09 09be 5bc8 023d
00000380: 8904 53ba c8f6 80bd 5359 983d 03a7 d43d
00000390: e91d a3bd 0bc1 1b3c 0529 5abd 5138 c2bc
000003a0: 3cff b23b 07b4 09be 90aa f5ba 786a ca3d
000003b0: 27e9 713d 58cc 8abc 25ab 95bd 14aa a53c
000003c0: ead6 d73d 7cc6 1fbe e479 c0bd a4fe 243d
000003d0: daf2 c4bd 07f2 41bd a2a6 1dbd 9af0 97bb
000003e0: 1069 32bd c11d a0bd 79e3 1cbd 9b55 e6bc
000003f0: 98f8 0ebe 76c2 abbb aed4 5b3d 82a8 e93d
-0.12400099 0.16832091 0.027439404 0.027868295 -0.0074714385 0.019134592 0.15368693 0.05032438
-0.027229602 -0.024832238 6.4037835e-05 0.056547128 -0.21489774 -0.020333558 0.07752429 -0.096550755
0.035582304 0.11194634 -0.074768685 0.05997893 -0.021352896 0.07275886 0.10872354 0.061469294
-0.029832792 0.047392644 0.03166641 -0.09238105 -0.02933493 0.053999484 0.010194545 -0.10787238
-0.035531692 0.04042387 0.010523819 -0.04811844 -0.047762774 0.01572838 0.026503487 -0.03929783
-0.0052398006 -0.03628791 -0.012244893 0.16617008 0.035074875 0.022043401 -0.09769908 0.0815185
0.053617537 -0.17451937 0.10323861 -0.117006205 0.022240512 0.10063347 0.03715506 0.059765726
-0.056445166 0.006857404 -0.02158053 -0.08925385 0.004181337 0.066008 -0.03842847 -0.0090739615
0.017870234 -0.13496047 -0.047979247 0.08583924 0.06669698 -0.12579867 -0.117687665 0.10590309
-0.01435567 0.09369182 -0.016434642 0.08168146 0.06018574 -0.07720162 0.03917307 0.055337578
0.061178207 0.017504372 -0.14516461 -0.047085885 0.12417541 -0.122905694 -0.15317181 0.041597042
-0.05472609 0.14718544 0.02778085 -0.0628321 -0.055676892 0.14382078 -0.054049056 0.109992385
-0.024965534 0.0074856956 0.16981772 0.14086151 0.069528796 0.07381876 0.11064142 0.099312834
-0.029913748 0.009082864 0.031507354 0.15846424 0.08225212 0.13525574 0.091501236 -0.0627443
-0.02857979 0.034548536 0.07789827 0.047924276 -0.16345446 0.094184645 0.0009465213 -0.008007059
-0.18004434 -0.064792395 0.019116381 0.050624073 0.01488581 -0.102729864 0.08732551 0.13061576
0.02347977 0.18673758 -0.0011251816 0.032161403 0.06481937 -0.08407537 0.11258868 -0.05285448
-0.09657376 0.040847324 -0.0028571526 0.106620766 -0.08535283 -0.11847966 -0.15127775 -0.06338602
0.06825588 -0.0733188 -0.10835618 0.015677715 0.0140841575 0.05837423 -0.09652089 0.006379308
-0.06606422 0.14537694 0.10609234 0.050631434 -0.038282756 0.049461592 -0.08634254 -0.01981373
-0.027676303 -0.11067547 0.09329404 -0.017340206 -0.0032112678 -0.05658535 -0.0618888 0.013276178
0.056005403 0.10250189 0.025157146 -0.055231128 -0.02667438 0.042628944 0.080817126 0.070405744
-0.023673382 0.02267435 -0.09841153 -0.01351446 0.17353666 -0.035603806 0.16536966 -0.021065967
-0.08093813 -0.050607655 0.04858835 0.083161615 0.10377254 0.025689555 0.14160049 0.033089895
-0.02873968 -0.01155977 0.13069619 -0.09131026 0.08036912 -0.10485803 -0.1306882 0.03084628
-0.08147637 -0.17615588 -0.10695311 0.05293337 -0.07867163 -0.05239246 0.08694392 0.06721686
0.08074914 0.015636025 0.07857189 -0.055244945 0.117897384 0.016329326 -0.12757356 0.017663771
0.04742154 0.05003186 0.120231576 -0.28796446 -0.087507136 -0.0350074 -0.13382451 0.031929355
-0.0008049687 -0.0629707 0.07438912 0.103834175 -0.07964689 0.009506474 -0.053261776 -0.023708494
0.005462555 -0.13447581 -0.0018742848 0.098835886 0.059060242 -0.016943142 -0.07308034 0.020222701
0.105390385 -0.1560306 -0.09398249 0.040281907 -0.09616633 -0.047349956 -0.03848899 -0.0046368362
-0.043557227 -0.07818175 -0.038302872 -0.028116992 -0.13962018 -0.0052416874 0.053669624 0.114090934

network.9.bias f4 [63]
00000000: 9724 fc3e 232f ff3e d66f 003f 09e7 ff3e
00000010: 0694 fe3e d16f fd3e e30d ff3e 17d8 ff3e
00000020: 9f2f 033f 3d67 003f 15ca fe3e f011 ff3e
00000030: 6595 013f 089f 003f afc2 003f f62e ff3e
00000040: 2df6 fd3e 0087 fe3e bd2a 003f 2383 003f
00000050: 2ca7 fe3e e314 ff3e 92aa fe3e 3e18 ff3e
00000060: 4fda fd3e c43b 023f e353 fe3e effc fe3e
00000070: 42b7 ff3e 899b ff3e 95fd fe3e f990 003f
00000080: cee9 013f 2770 fe3e 7422 fe3e ee35 013f
00000090: b9bd ff3e 2993 013f ee08 003f 0d44 003f
000000a0: f76c ff3e 1f67 fe3e 4d98 023f f2bf ff3e
000000b0: d877 ff3e 258b ff3e 341e 033f bcc2 013f
000000c0: 5fa6 023f a3d1 033f 47bd ff3e 65f4 fe3e
000000d0: d8c8 ff3e 16af fe3e ca2b fd3e 81ab ff3e
000000e0: 6c3e 003f 2752 ff3e a27a ff3e da66 043f
000000f0: d39e ff3e dbfe fe3e 9e8f ff3e
0.49246666 0.4984065 0.5017065 0.49980953 0.49722308 0.49499372 0.49815282 0.4996955
0.5124454 0.5015753 0.4976355 0.49818373 0.5061858 0.5024266 0.50297064 0.49840516
0.4960188 0.49712372 0.50065213 0.502001 0.49736917 0.49820623 0.4973951 0.49823183
0.4958062 0.50872445 0.49673375 0.49802348 0.49944502 0.4992335 0.49802843 0.5022121
0.5074738 0.4969494 0.4963566 0.50472915 0.49949434 0.50615174 0.50013626 0.5010384
0.4988782 0.4968805 0.5101364 0.4995113 0.4989612 0.49910846 0.5121796 0.50687766
0.5103511 0.51491755 0.49949095 0.49795833 0.4995792 0.49742955 0.4944747 0.49935535
0.5009525 0.49867365 0.4989825 0.5171944 0.4992586 0.49803814 0.4991426

network.10.running_mean f4 [63]
00000000: 0e3f 0e3f 5f71 2e3f d3e1 103f 673f ba3e
00000010: f95e eb3e c076 f43e 4511 123f ec05 bd3e
00000020: 19e8 313f f313 143f 1a3f b73e b472 0e3f
00000030: 0beb 463f aa87 3d3f de1d 343f d2b7 be3e
00000040: e9c5 eb3e c5f6 1b3f 2120 e83e ef35 ed3e
00000050: 46e0 a03e 9cdc c23e 9fc7 363f c62b f53e
00000060: affd 0e3f 6139 4d3f b497 d03e 8b80 063f
00000070: e4fa b43e 6cda b53e 7398 073f 77a5 053f
00000080: 3d90 393f d99e d23e 89b6 b53e 68ca 553f
00000090: 5ec3 123e de77 0f3f d928 c23e 5bb7 2c3f
000000a0: 1623 083f e8b0 113f 048d 373f e19d e23e
000000b0: d727 e93e e222 1a3f 4da6 313f 49b9 3f3f
000000c0: 6259 2c3f 46f6 223f a0df e23e 4b41 b63e
000000d0: edac 943e 07e8 df3e 5bdf 0d3f 8781 cf3e
000000e0: 3dc2 023f c869 0a3f e15d 063e 54ac 163f
000000f0: 54e5 1c3f 5cb4 e43e 0c67 a73e
0.55564964 0.6814174 0.5659458 0.36376497 0.45970896 0.4774685 0.570576 0.3691858
0.6949478 0.5784294 0.3579033 0.55643773 0.777024 0.7403513 0.70358074 0.3724962
0.4604943 0.60923415 0.45337012 0.4633021 0.31421107 0.38058937 0.7139835 0.4788496
0.5585584 0.8016568 0.4074074 0.5253989 0.35347664 0.35518205 0.52966994 0.52205604
0.72485715 0.41136816 0.35490826 0.8351197 0.14332339 0.5604228 0.3792179 0.6746728
0.53178537 0.5691056 0.7169955 0.44261077 0.45538208 0.60209477 0.6939438 0.748921
0.6732389 0.63657033 0.44311237 0.3559669 0.29038182 0.4373171 0.5541894 0.4052851
0.51077634 0.5406766 0.1312175 0.588567 0.61287427 0.44668853 0.32695806

network.10.running_var f4 [63]
00000000: b47b a83d 20e6 2a3e ef68 713e 5b90 723e
00000010: af19 503e b81a 0d3e aaab b23e aeb9 603d
00000020: a759 463e 45e0 213e 53b8 b33d 9aa5 823d
00000030: 5607 543e 5193 b63e 06b7 a33e 42e2 143e
00000040: 556a ca3e 8913 6a3e 6360 923d c5ff 613d
00000050: 3905 ca3d 3470 fa3d 7db5 3d3e daf4 5c3e
00000060: 63ca d43d afdc 153e a683 a83d cb9a ae3d
00000070: 2980 923d 5031 7b3d b6ca 243e 2b20 103e
00000080: c142 fb3d cfb6 973d 2a25 3c3e 0c35 9a3e
00000090: bd7a 453e b229 353e 1fd8 363e 165e ec3d
000000a0: c3b8 523e cf98 9d3d 0194 1f3e e287 123d
000000b0: e8f7 823d a63c 923e f563 853e def4 403e
000000c0: 67d7 a03e 3eb4 493e 3597 da3d ba0b 0d3e
000000d0: e6de 833e 41ec 703e 17aa 123e fd8c e63d
000000e0: 09f9 143e 6b1f e43d f378 a53e ac4d 703d
000000f0: 3f84 273e 8b3a 213e fc58 b53e
0.082267195 0.16689348 0.23575185 0.2368788 0.20322298 0.13779724 0.34896594 0.054864578
0.19370137 0.15808208 0.087753914 0.06379242 0.20705923 0.35659268 0.31975573 0.14539436
0.3953425 0.22859015 0.071472906 0.05517556 0.098642774 0.12228432 0.18526264 0.21577778
0.10390165 0.14634965 0.08228235 0.08525618 0.07153351 0.061326325 0.16092953 0.14074771
0.12268592 0.07407915 0.18373552 0.30118597 0.19285102 0.17691687 0.17855881 0.11541383
0.20578294 0.076951616 0.15583803 0.03577412 0.063949406 0.28561896 0.26052824 0.1884341
0.3141434 0.19697663 0.10673372 0.13774005 0.25755996 0.23527624 0.14322697 0.1125736
0.14548124 0.11138805 0.3231884 0.058667824 0.16359042 0.15744989 0.35419452

network.12.weight f4 [63, 63]
00000000: 45ee 4d3d 2389 aebc 1766 af3d adea 8e3d
00000010: 3c60 b83a 2fec 2bbe c074 143e 7e12 153c
00000020: a4e9 04bd c61a af3d b0a5 5d3d af82 023d
00000030: 0593 873d eafd 9b3d 5d26 a93d 763f 6a3c
00000040: d0a6 0bbe 6c88 433d 77d7 aabc fab6 0abc
00000050: 65c0 0ebd e95c 293d 84db 1a3d ff69 fc3d
00000060: c748 c1bd 9edd 1a3d a8bf 743d ad82 593d
00000070: 5547 a63d 7920 8b3d 4f8d e8bc d2a0 173d
00000080: 0076 833c 667c 3b3d cce8 29be eaf8 a63d
00000090: 59f5 f93d 259d 793d e828 503d f0d9 b6bc
000000a0: b695 89ba b57b e8bc a9e8 88bd 3411 0d3d
000000b0: a055 c6bd 9036 dbbd 804e 443e c93d c1bd
000000c0: 5236 103e 9b54 1b3d ed91 8bbc ebac 853d
000000d0: 4257 963d 4ca0 d3bc 29c4 c8bc 1bd8 f4bc
000000e0: a98a a4bd ec32 a33b e2aa c03d 7939 c23c
000000f0: 2e9f 0e3e 2a8d 92bc 8f2b 8b3d 155f a2bd
00000100: bd28 383e 07fb 663d 8da8 38b9 d715 353d
00000110: a877 a4bc cf49 67bd dea7 9a3d 5889 69bd
00000120: f8bb 7cbd 4ec8 1c3d f4af 4e3d d74c 013e
00000130: 711a 713d 9967 083e b246 eebc 0c51 3f3d
00000140: cf38 88bd 06ec 0e3e 6819 34be 6942 d73d
00000150: 68e0 83bd 30c8 c4bd edbe 8b3d 937a 3bbd
00000160: 75a5 8e3d f00e 983d 869c 1e3d c9ab dabd
00000170: cbdc cebd e3e1 7ebd 32e5 f63d 514e cd3d
00000180: a722 87bc 0756 c6bd 862d c23b 6004 e33d
00000190: c2db 52bb 2c8a e8bb 3176 01bd 65e3 0f3e
000001a0: f527 a6bd 02b0 8d3d 1d0e 8e3d c496 03be
000001b0: 4c42 81bd 3ac8 053e e329 d3bd e817 ab3d
000001c0: aed7 c1bc b28f 34bd 29ba be3d 7291 9f3d
000001d0: b309 8abe 69df c5bd b621 d1bc 4f7f b2bb
000001e0: 8fb2 88bd ae9f ffbd f952 32be 6688 05bd
000001f0: e02c 38be 6749 8b3c 00f1 5abd bd46 c7bc
00000200: 4e3d c9bd 6ea0 f13d b415 343d cb85 f93c
00000210: 63c8 203e e929 c23c 296f 123e 1e9b 0f3c
00000220: 16b7 b9bd 73d7 d23d 0e7e 3f3d 2929 de3a
00000230: 8673 bebd 15fe b63d 1fae 56be 8ef4 643d
00000240: a5d4 68bc 3584 cb3b 249a ce3c cff6 a13d
00000250: 7d1e de3d 12ba 903d c69b c2bd e895 f63d
00000260: e792 f73b 25de f53b 1f96 983c c750 833d
00000270: 0a91 d33b 987c 0dbc 9f57 903d 74a7 3b3d
00000280: 251f a1bd d165 f33d cb89 033e f311 e4bd
00000290: 4fa6 a0bd 28fa 22bd 1f85 f33d 4e13 adbd
000002a0: ea0d 773b 91c0 04bd 9669 acbc 5c87 6dbd
000002b0: 924c 1b3e 016d c23d 4f0e b13d c850 033e
000002c0: fecf e0bc 7557 9b3c 4466 f03c 8132 503d
000002d0: 5a3c e53c 90fd abbd e9d1 513d 49f0 ba3b
000002e0: c813 5d3d 0f6a 153d 4c45 4a3d 7609 72bd
000002f0: bfc6 0a3e 5c17 91bb 7e54 4dbd c167 25be
00000300: 5e66 0a3e 364c 7f3d 6e0e 183d 320a 043c
00000310: 6c89 d03c adb3 2d3d b0e1 c5bd bc36 f9bc
00000320: a17d c03d 7cf9 933b 3658 05bb 1027 973d
00000330: 5680 adbd 022f a3bb 8568 e43c 9eb2 1c3e
00000340: 5089 803c d04f 9bbd 41cf 863d b51e 073d
00000350: e31f 503e 3e1e 853c f39b 473c 1453 a3bd
00000360: 54c4 0e3c 66a2 82bd 39dc 0fbd c7fd 2abe
00000370: 29af 7d3d cfc8 d8bd b7a0 84bd 6ca1 ddbd
00000380: 5b13 173d 680a c03c 4b12 4abd 4e3e a23c
00000390: 8c9b 0dbe 6b90 e6bc 4a7b 66bd 97fe bebc
000003a0: eeef 813e 9332 2fbe 74b2 f13b a017 883d
000003b0: 0d04 dc3d acd5 4a3d 7a0c afbd a4fe 8a3b
000003c0: 034e 3c3d b440 c3bd a9bd b53d 2f44 0dbd
000003d0: 2bc8 113d dec2 c3bc a523 8c3d a2a9 ffbd
000003e0: 3912 98be 6045 0c3d 22dc 95bc 2fce 2fbc
000003f0: 73af bbbd 885a 8d3d 841a 32be 285c c83c
0.05027606 -0.021305626 0.08564394 0.069783546 0.0014066766 -0.16789316 0.14497662 0.009098647
-0.03244938 0.085500285 0.05411309 0.03186291 0.066198386 0.0761679 0.0825927 0.014297357
-0.13637853 0.047737524 -0.020854695 -0.008466477 -0.03485145 0.04134837 0.037807003 0.12324905
-0.09437709 0.037809007 0.05975309 0.053103138 0.08119074 0.06793303 -0.028387694 0.037018605
0.016047478 0.045772932 -0.16592711 0.08152945 0.122049995 0.06094088 0.05082026 -0.022320718
-0.0010496888 -0.0283793 -0.066850014 0.034440234 -0.096843004 -0.10703766 0.1917057 -0.09435613
0.14083222 0.037922483 -0.017037356 0.06527122 0.07340862 -0.025833271 -0.024507599 -0.029888203
-0.0803426 0.0049804356 0.09407593 0.023709046 0.1392791 -0.017889578 0.067954175 -0.07928292
0.1798429 0.056391742 -0.00017610397 0.04421028 -0.020076588 -0.056466874 0.075515494 -0.057015747
-0.0617027 0.038276963 0.05046077 0.12626968 0.058863107 0.1332077 -0.029086445 0.04670815
-0.066514604 0.13957223 -0.17587817 0.105107136 -0.064392865 -0.09608495 0.068235256 -0.045771193
0.06965152 0.07424724 0.03872349 -0.10677297 -0.10100707 -0.06222714 0.12055434 0.10024703
-0.016496016 -0.09684377 0.005925837 0.11084819 -0.0032174443 -0.0070965495 -0.031606857 0.14051588
-0.0811309 0.069183365 0.06936286 -0.12850481 -0.06311473 0.13064662 -0.10310724 0.08354169
-0.023662414 -0.04408235 0.09312851 0.07791413 -0.26960525 -0.09661753 -0.02552877 -0.0054473053
-0.06674682 -0.12481628 -0.17414464 -0.032600783 -0.17985868 0.017002774 -0.05345249 -0.024325723
-0.09826146 0.11798178 0.04396601 0.030459305 0.15701441 0.023701625 0.14300217 0.00876501
-0.09068124 0.10295 0.046751074 0.0016949523 -0.09299378 0.08935181 -0.2096486 0.055897288
-0.014210855 0.0062108287 0.025219984 0.07908403 0.10845659 0.0706674 -0.09502368 0.12040311
0.007555354 0.0075032883 0.01862627 0.064118914 0.006456499 -0.0086356625 0.070479624 0.045813993
-0.078672685 0.11884654 0.12845533 -0.11136236 -0.07844221 -0.03978935 0.11890625 -0.08450948
0.0037697502 -0.032410208 -0.021046441 -0.057990417 0.15165928 0.09493447 0.08645307 0.12823784
-0.027442928 0.018962601 0.029345639 0.050829414 0.02798288 -0.083979726 0.051225577 0.0057049138
0.053973943 0.0364781 0.049382493 -0.059091054 0.13552378 -0.0044278335 -0.050129406 -0.1615286
0.13515612 0.06232854 0.037123136 0.008059071 0.025456153 0.04240768 -0.09662187 -0.030421607
0.09398962 0.004515825 -0.0020346767 0.073804975 -0.08471744 -0.004979969 0.02788187 0.15302512
0.015690476 -0.075835824 0.06582499 0.03298827 0.20324664 0.016249772 0.012183177 -0.0797483
0.0087138 -0.06378631 -0.03512213 -0.16698371 0.061934624 -0.10585176 -0.064759664 -0.108218044
0.036883693 0.023442462 -0.04933385 0.0198051 -0.13828868 -0.028145036 -0.05626992 -0.023314757
0.25378364 -0.17109136 0.0073760096 0.06645131 0.1074296 0.04952018 -0.085473016 0.0042417813
0.045972835 -0.095338255 0.088740654 -0.034488853 0.035591286 -0.02389663 0.06842736 -0.12483527
-0.29701403 0.03424585 -0.018293444 -0.01073031 -0.09164324 0.06902033 -0.17392927 0.024458006
