src/runs/ann_left_hand/20241104/20241104-1748/ann_left_hand_5_layers_best.pth (torch, 180080 bytes, 34 tensors)

network.0.weight f4 [63, 126]
00000000: 1551 08bd 5eb3 1b3d 8ab7 963a dd99 3cbd
00000010: 58e6 98bc 496a cd3c 12cf 843c aff5 6dbd
00000020: 93c7 7cbd 88c1 963c c63c ddbc bc1c cdba
00000030: 88a0 203d 4833 1e3e b577 a23d 340e 543b
00000040: b548 2fbc 1be7 083d 7e83 093e 6bf9 be3c
00000050: 68e0 933d 40d5 37be 2c5d 813d ab99 203e
00000060: 380f 8f3d 4c6d 99bd 7ddd 1d3e 0201 9c3d
00000070: 307d 9f3b 6d89 6cbd e0d2 053e b716 b8bd
00000080: 1a72 93bd 7cc3 10bd 0a7d 15bc 22b3 8abd
00000090: 4586 25be 55da 13be 2294 4ebe 686c 5dbd
000000a0: 8891 81bd 64a7 2bbd aee1 a4bd 7a27 9d3d
000000b0: d417 1e3e 80af ca3d 2c6c 86bc 3bc6 283e
000000c0: 10b6 533c 1601 0f3d 83d1 62bb 81e7 5c3d
000000d0: 9973 cfbb 5d87 2ebd 9840 c9bb d235 acbd
000000e0: 0396 59bc 7efa 41bd 0d69 9dbd 1812 8fbc
000000f0: ee69 fabc dff8 62bc fe2d 1bbd d5d4 0f3e
00000100: e6fe 03bc 1145 bfbc 2cf3 0a3b c84a 363c
00000110: 5581 293d 2765 e33b 1156 febc 1e02 8dbc
00000120: 3f20 47bd 81ac 07bd 369d c9bd 2065 21bd
00000130: c74f ba3c 95ad 4e3c 8f2f 41bd ab3b fbbd
00000140: 1401 433d 38d1 83bd 5ecb 473c deca 4abd
00000150: 7e8e 003d c824 753e 0dc4 893d f3e6 ae3d
00000160: 279e 923c 96e5 85bd 9121 cabc 88a0 3cbd
00000170: d67e 25bd 8d46 a5bd 90eb e1bc 4814 30be
00000180: efc0 b6bd 6e39 26be e67f 5dbe 20c4 46be
00000190: 24ea 37be 5736 adbd d872 8a3c c6ea aebd
000001a0: 9a2b fbbd af6a 3a3e f538 e93d 42fe 413c
000001b0: 10fc ca3c 77c0 193c 5b7e 57bd 5cb8 20bc
000001c0: d545 1abd a230 04bd 1ef7 b0ba ffb2 e33b
000001d0: 657e 9dbd 95ac 5abd 2ed2 e2bd c870 37be
000001e0: a7e4 00be 99b2 dbbd d759 ae3b 1665 7c3d
000001f0: fe95 a3bc 7435 2dbd 0da9 783e 34c3 10be
00000200: b71c 20be 612d 49be 0f20 1bbd 3ee2 a3bd
00000210: bef0 cfbd 4fd0 123c ac75 6ebc 0cf0 85bd
00000220: 7887 b4bc 4f47 393c ea2b a03c 9952 31be
00000230: 1508 48bd 475b b23d edc6 853d 3d76 213d
00000240: 50d8 493d 2df0 ef3b 9f58 e63d 568f 2b3c
00000250: a436 3d3b f136 df3c 5d2d e73c d1d0 1cbd
00000260: e345 833c 9e30 74bc 93b2 f2bc 44d9 78bc
00000270: b4ae 93bb 044a 233d bd7a afbd 0156 78bd
00000280: 3ac5 84bd a2ac 1f3c 851d 90bd fca9 7cbd
00000290: 3f70 c2bc 2498 8a3d b2ad 08bd c421 67bc
000002a0: 3d5b 18be 9b62 afbd 5406 563c ea4d 21bd
000002b0: 9755 13bc 88b9 563c 5f40 1e3d 9c01 3dbb
000002c0: c458 60bc 514f afbd bb4c 043c 7fde 27bd
000002d0: d557 0b3a 3a31 8c3c e182 0cbc 57c2 7abd
000002e0: d002 d2bc 3812 de3c 5f8a 12bd 11e2 493a
000002f0: 7146 f3bc f91b dabc d68a 103c 4a6a b3bd
00000300: e223 063d 6304 cabc 70d2 ba3c 8924 1ebd
00000310: 42bf 45bc fc6a a63c 7e02 7b3d 8e8f 583d
00000320: 84e7 aebc d87e a13c 1d18 c43d ec4f 90bb
00000330: 69e6 43bc 3d09 a8bd dc01 e23d 2ac4 b83d
00000340: 3035 b03d 63ec 133d 9295 ae3e 6256 3b3e
00000350: de89 823e c503 963d 2da0 dbbc d40c 273d
00000360: eaef 0cbc 7a0e 66bc e8dd 083d 3653 59bb
00000370: 45a7 763d 194d aabc 44cd 7ebd 3f41 0abe
00000380: 7562 07bc b2fb 33bd 5f49 acbd 0190 6c3d
00000390: 39cc 1a3e 467a dbbc cf3a 203d 4711 9ebe
000003a0: 0488 0abe 217c 553c 01a0 39bc b516 ebba
000003b0: ece5 2f3d 8501 303d cd3a cd3c c9c7 da3c
000003c0: 597a 503d 85aa 29bd 1e9e bf3d ae18 caba
000003d0: c6c3 66bd df5b 433d 1da8 803d ad02 c83c
000003e0: 1c3e 05be 30c6 bebc bcd3 6dbd 3270 79bc
000003f0: 9d45 d43d 1c27 f1bc 7067 65bc c00e 2f3a
-0.03328045 0.038012855 0.0011498791 -0.046045173 -0.018664524 0.025075095 0.01621202 -0.05809563
-0.061713766 0.01840283 -0.027006518 -0.0015648822 0.039215595 0.1544925 0.079329886 0.0032357099
-0.010698487 0.033423524 0.13429067 0.023312291 0.072205365 -0.17952442 0.06316599 0.1568362
0.069853246 -0.0749155 0.15416522 0.0761738 0.0048672184 -0.057748247 0.13068724 -0.089887075
-0.071994975 -0.03534268 -0.00912405 -0.06772448 -0.16164501 -0.14438756 -0.20173696 -0.054058462
-0.06326586 -0.041907683 -0.080508575 0.07673545 0.15438777 0.09896755 -0.016409002 0.16481869
0.012921825 0.034913145 -0.0034609742 0.053931717 -0.006330919 -0.04260956 -0.0061417334 -0.08408703
-0.0132803945 -0.04735803 -0.076860525 -0.017464682 -0.03056809 -0.013853281 -0.03788566 0.14046033
-0.008056378 -0.023348363 0.002120207 0.011126228 0.041383106 0.0069395485 -0.031046899 -0.017212924
-0.048614737 -0.033123497 -0.09844439 -0.03940308 0.022743119 0.012614627 -0.047164496 -0.1226724
0.04760845 -0.0643639 0.012194483 -0.049509875 0.03138589 0.23939812 0.06726847 0.08540144
0.017897679 -0.06537931 -0.024674209 -0.046051532 -0.040404163 -0.08070097 -0.027578145 -0.17195237
-0.08923518 -0.16232845 -0.2163082 -0.19410753 -0.17960411 -0.0845763 0.016900465 -0.08540873
-0.12264176 0.18204759 0.11387817 0.011840405 0.024778396 0.009384266 -0.052610736 -0.00980958
-0.037664253 -0.032272942 -0.0013501381 0.006948828 -0.076901235 -0.053387243 -0.11075245 -0.17914116
-0.12587224 -0.10727424 0.0053207683 0.06161984 -0.019968983 -0.042287305 0.24283238 -0.14136964
-0.15635954 -0.19646217 -0.03787237 -0.08002137 -0.1015334 0.008960797 -0.014554422 -0.06539926
-0.022037253 0.011308505 0.01955219 -0.17316665 -0.048835833 0.08708816 0.06532083 0.0394194
0.049278557 0.0073223324 0.11247372 0.010471186 0.002887168 0.027247878 0.028219873 -0.03828508
0.016024536 -0.014904169 -0.029626166 -0.015188519 -0.00450691 0.03986551 -0.08568332 -0.060628895
-0.064829305 0.009745749 -0.070368804 -0.061685547 -0.023735164 0.067673 -0.033368774 -0.014107171
-0.14878555 -0.085637294 0.013063032 -0.039380945 -0.008992574 0.013105758 0.038635608 -0.002884007
-0.013693038 -0.0856005 0.008074935 -0.040983673 0.0005315517 0.017113317 -0.008576126 -0.061220493
-0.025636107 0.027108297 -0.035776492 0.0007701228 -0.029696675 -0.026624667 0.008822164 -0.087605074
0.032749064 -0.024660295 0.022805423 -0.03860906 -0.012069525 0.020314686 0.061281674 0.05287128
-0.02135063 0.019713804 0.09574912 -0.0044040587 -0.0119567895 -0.08204887 0.11035511 0.0902179
0.08603895 0.036114108 0.34098488 0.18294671 0.2549581 0.07324938 -0.026809776 0.04078372
-0.008602122 -0.014041537 0.03341475 -0.003316117 0.060218114 -0.020788716 -0.062207475 -0.13501452
-0.00826322 -0.043941207 -0.08412432 0.05775452 0.15116967 -0.026791703 0.039118584 -0.30872557
-0.13528448 0.013030083 -0.011329652 -0.0017935844 0.04294388 0.0429702 0.025052452 0.026706593
0.05089793 -0.041422386 0.0935633 -0.0015418732 -0.056339048 0.047695037 0.06282065 0.024415338
-0.13011974 -0.023287863 -0.058063254 -0.015224503 0.1036484 -0.029437594 -0.014001712 0.0006677918

network.0.bias f4 [63]
00000000: baae ed3e 1651 8f3e 032a 023f 037f f73e
00000010: 1134 003f 4e78 cd3e d394 b43e 184a 083f
00000020: ae03 fd3e 8070 013f 4b3f fe3e 9a6e 003f
00000030: c429 e33e 51f4 eb3e bfc6 073f b0b2 f83e
00000040: a617 ce3e 616d d33e 4e95 f23e c3f2 053f
00000050: a61e e23e 7811 0c3f 2c8b 0c3f cc09 ed3e
00000060: e018 e93e e718 053f ec47 c53e 25e1 013f
00000070: f8f7 dc3e c98f c93e 2d94 083f fbbb c93d
00000080: 1d18 003f 2949 ff3e 2d33 063f 0eda f03e
00000090: 2680 113f 228b 023f 991e 043f d40d db3e
000000a0: 7242 f23e 8c10 ee3e 41db f03e 0fd9 033f
000000b0: 80fa 9e3e a042 fe3e 6081 e33e 77b3 033f
000000c0: 96cd 033f 474d e43e 31b1 ed3e 5dbf 083f
000000d0: c476 d83e f6fa f53e b73d f63e 5f34 dc3e
000000e0: 6c84 ba3e eb56 ea3e 28bf d63e a7d3 d83e
000000f0: 645d d73e 9bd5 f43e 64ef e43e
0.46422368 0.2799155 0.50845355 0.4833909 0.5007945 0.40130848 0.35269794 0.5323806
0.4941687 0.50562286 0.49657664 0.50168765 0.44367802 0.46084836 0.5303764 0.48573828
0.40252417 0.41294387 0.47379535 0.5232355 0.44164008 0.54714155 0.5489986 0.46296537
0.4552679 0.5199112 0.38531435 0.5073417 0.43157935 0.39367512 0.533511 0.098503076
0.50036794 0.49860504 0.5242184 0.47041363 0.56836164 0.5099355 0.5160919 0.42783988
0.4731632 0.46497 0.47042277 0.5150308 0.3105049 0.49660206 0.44434643 0.51445717
0.51485574 0.44590208 0.4642425 0.53417 0.4227811 0.4804303 0.4809396 0.43008706
0.36429155 0.45769438 0.41942716 0.42348978 0.4206344 0.47819218 0.4471389

network.1.running_mean f4 [63]
00000000: 028d 54bf 7435 4f3f 99b9 eabe b8b4 cbbe
00000010: 5319 a3be 5327 9b3f dc5e 213f 0b25 f03e
00000020: 5eae 033f 4086 0a3f b370 aabf 1ed8 86bd
00000030: 5cec 3d3f 7fb7 9bbc fa22 9a3e 84eb 543e
00000040: cfe0 603e 6fe9 243f bf6b a63e acd8 8d3f
00000050: 3963 8b3e 9771 c23f fd86 ca3e 7e51 a13d
00000060: 487d 883f 0d7a c93c 3b12 863f dce9 f6bd
00000070: bc9d 1e3f 898e a73f 3288 6bbf 8544 863e
00000080: 7155 19be 051f 3b3e 904a c3be b75f 1e3f
00000090: 6fe6 df3f c7ff 33bf 9f3a bdbe ee80 d23f
000000a0: 8d2f 93bf b521 943f 13b4 393f 152e 2c3e
000000b0: c9e2 943f a335 debe 1ee5 b93e 18dc f2be
000000c0: 6d37 d7be 5f73 d13e ca96 823f 332a 93be
000000d0: be71 c83f bc15 8c3f 3b9f 8e3f f117 893e
000000e0: 3a84 0e3e d16f 1e3f d572 b23e 93ea ed3f
000000f0: 35f3 933f 2b09 133f 1072 0b3f
-0.8302766 0.8094094 -0.45844725 -0.39786315 -0.31855258 1.2121376 0.6303537 0.46903262
0.5143794 0.541111 -1.3315643 -0.0658419 0.7418878 -0.019008396 0.3010481 0.20792967
0.21960758 0.6441869 0.3250408 1.1081748 0.27224138 1.5190915 0.39556113 0.078768715
1.0663233 0.024594331 1.0474313 -0.12056324 0.61959434 1.3090373 -0.9200469 0.2622415
-0.14974 0.18273552 -0.38142824 0.618648 1.7492198 -0.7031216 -0.36958787 1.6445596
-1.1498886 1.1572787 0.72540396 0.16814454 1.1631709 -0.43400297 0.36307615 -0.47433543
-0.42034474 0.40908334 1.0202267 -0.28743133 1.5659711 1.0944133 1.1142343 0.26776078
0.13917628 0.6188937 0.34853235 1.8587211 1.1558596 0.57435864 0.5447092

network.1.running_var f4 [63]
00000000: 72e6 b23b c54a 033b 9481 a93b 8477 2a3b
00000010: fbec e53b 2379 1b3b c892 083b 746a ed3a
00000020: d711 723b fe32 b23b 60f7 cb3b ec90 7f3b
00000030: d595 813b 8e3f 1a3b 2808 5f3b cc39 763b
00000040: d4e5 263b 8f37 353b f81e fe3a e467 ab3b
00000050: 5f0c dd3a 78a8 5a3b ca07 833b e890 fb3a
00000060: 3d8c 323b fd97 c23b b92f 0f3b 57d2 8c3b
00000070: e634 073b 5c4b 623b 8219 db3b e86d 333a
00000080: 1abf 803b ef99 c13b 4835 623b e822 3f3b
00000090: 4a62 bf3b bd60 623b 235f 333b 695e d13b
000000a0: dedf ac3b 0a7d ae3b a72a 933b d822 bd3b
000000b0: 6b3b 483b 57b3 a73b 4180 053b 6898 183b
000000c0: 6ddf 8c3b ac41 633b 2131 583b aa5d 5f3b
000000d0: 16b4 9b3b 9777 b93b e215 653b a54f f53a
000000e0: 557f e43a aa4a 473b f9a9 d73a 41ad 803b
000000f0: 015d 223b bf0c f43b 57dc 233b
0.0054596 0.002003358 0.0051729176 0.0026011178 0.0070167757 0.0023723326 0.0020839442 0.001811339
0.0036936903 0.0054382076 0.0062245578 0.0038996292 0.003954629 0.0023536417 0.003403196 0.003757107
0.0025466578 0.0027651524 0.0019387892 0.0052308906 0.0016864649 0.0033364575 0.0039987313 0.0019192966
0.0027244233 0.0059385286 0.0021848513 0.0042975354 0.0020630895 0.003452978 0.0066863904 0.00068446854
0.003929031 0.005908243 0.0034516621 0.0029165093 0.0058405744 0.0034542524 0.0027369938 0.0063894284
0.0052757105 0.0053249644 0.0044911685 0.005771976 0.0030552994 0.0051178145 0.0020370635 0.00232842
0.0042990954 0.0034676595 0.0032988267 0.0034082928 0.0047516925 0.005660008 0.003495567 0.0018715753
0.0017432967 0.0030409493 0.0016453854 0.0039269035 0.0024774673 0.0074478085 0.002500316

network.3.weight f4 [63, 63]
00000000: 2fbb 823d 9fe7 903d d543 eebd 6cb9 21bd
00000010: 30f3 eb3d 3a2c 1bbc e1e6 3cbe c477 80bd
00000020: 3a2b e03c 9767 4dbd 8b67 93bc e72e 77bd
00000030: 0d63 1dbe 79c6 2dbe 1777 56be 7ef3 e43c
00000040: a5fb 62bd 923c c13d 3436 ad3d 06a3 0cbe
00000050: faf6 9c3d 372d 113d 3860 ff3d f1cd b13d
00000060: b5f7 cabc 2c94 b8bc 0d34 54bc 8edf a33c
00000070: 8e0e 64bd 5b62 73bd 3695 51bd 4470 ccbd
00000080: 13e2 99bd f862 6a3c 8ea8 1f3d 551e e8bd
00000090: 41b7 173d b173 6a3e 9594 1c3e 34be 80bc
000000a0: be95 44bd eac4 f4bd 776e 7cbd 9cae 7a3d
000000b0: f7d3 bbbd 9119 9bbd 2fb3 c33d 5ffe d1bd
000000c0: b5e8 b63d e36a cebd 2221 df3d c445 54bd
000000d0: f0b7 d9bc 71dd 8dbd 98b4 033e 238a 49be
000000e0: bab8 f63d 201f d8bc 557c d43d 6b28 d9bd
000000f0: ccca 043d 1352 54ba 6b34 e63d 4c87 fb3c
00000100: d6a2 bebd ea41 a63d e877 c9bd b6a9 ac3b
00000110: f118 94bd 446f 043e 4124 0a3e 3253 5abe
00000120: 6eb8 4e3c f9e8 043d 9969 b4bd 0b21 44bd
00000130: 5d2e b7bd fe73 c93b 9a45 82bd 9d16 5ebd
00000140: 5e4f 82bd 7caf c0bd 18e4 f1bd dca4 293d
00000150: 138e bdbc 29d5 fd3d e2c9 0a3d a469 043e
00000160: 2522 bebc a191 b73c 8e75 123d c62a 913c
00000170: ad99 60bd 1a75 163d 8eb8 7a3d 4b21 303a
00000180: 7d5b 0f3e afef c53d 09d2 1c3e d17b b9bd
00000190: 7089 98bd ef19 faba fba2 083e 4494 b3bc
000001a0: d7c1 2e3d 879b 3b3d 2aec 79bd 5d03 123e
000001b0: 73af afbd 6a46 993d 1f6c 073e 3eca debd
000001c0: 403f 6bbd 1cbc 46be bf88 20bb e330 de3d
000001d0: a3e2 90ba 7471 6a3d 6f8a 163d 3723 35bd
000001e0: 7a5c 073e 2ff4 56bd 0755 963c 2f86 ad3d
000001f0: 029e 9ebd 52c2 3e3c a808 fd3d f431 4cbc
00000200: 1468 74bd 84c4 bf3d 0039 fbbd 57a3 c3bd
00000210: d57d 7b3d b296 993d 953c 2ebe 3473 1ebe
00000220: cbf6 adbd 688a 563d 13e7 dbbb 460c d73d
00000230: e646 a23d 19e0 8fbd 92b9 1ebe b1db e23c
00000240: 74b8 513e dd45 5a3d d638 d9bd f17d b1bd
00000250: 1e8e 2dbe 1d62 08bd 9983 3b3d 6c14 42be
00000260: 5114 88bd 1f8b 1cbe 875c 223c db08 43bc
00000270: 2594 b53d 9cd0 1cbd c040 93bd 055a cdbd
00000280: e981 693c 425e f23d 3d49 b4bd ad32 3fbc
00000290: 7c3a 9dbd d0f2 b13d 5f41 0a3e 94c8 8e3d
000002a0: ee5a 66bc d694 b23d 173f 003d b65c 903d
000002b0: d3ec 85bd a04e 04be d62f 3f3d 4cff 613d
000002c0: 3bbd b73c f3b2 ae3c cbc8 7b3d 698c f33d
000002d0: 3ff1 4b3d d7af e43d 3e5f 11bb b16d 8e3d
000002e0: 171d eabd 6e56 8abd 71c1 a0bc 650a ff3d
000002f0: 2619 c7bb 237f d53d ff7c 973c 1648 013c
00000300: f0eb 9a3c b2d3 00be 9ea8 37bd 17fc 043d
00000310: bbf5 acbd 1f29 ef3b 754b d0bb 216a a13d
00000320: c250 453d 69f6 0cbe d23b 463a 42b1 503d
00000330: c2f4 a1bc 3eee f53c 3037 913d 6eeb 0f3e
00000340: fcff 2bbe 5a08 373c 0145 11bc 2715 e8bc
00000350: bcbe 903c e8d2 723d 66d0 24be 25ad d73d
00000360: 24d9 85bc ca09 583c 1f18 eebd 736d f5bd
00000370: 026e 0c3d e18f c7bd 2446 c4bd 9273 10be
00000380: 1c8a 923b a5b9 d03d 96a7 1ebe 27b9 d4bd
00000390: 9fb3 4f3d 3f2a 2e3e f314 3abd 3312 7fbd
000003a0: 4bec f83d 1125 363d 91b4 9a3d 1468 6ebc
000003b0: 1a4f a1bd 5d15 fe3c 47d8 503d dfb5 1d3e
000003c0: 2d29 ec3d de8e 06be 1065 1fbe 5379 debd
000003d0: 8398 06be 0ace d13c 94a3 80bd 33cb ad3c
000003e0: ca24 55bd cdbb 3d3c b823 02be c4c9 6e3d
000003f0: 2b33 dc3d ee5e 723d dfaa 2bbd de84 f4bd
0.06383359 0.07075428 -0.11634032 -0.039483473 0.11520994 -0.009470994 -0.18447448 -0.062728435
0.027364362 -0.05014762 -0.01799371 -0.060347464 -0.15369816 -0.16970243 -0.20943867 0.027948137
-0.05541577 0.09435381 0.08457604 -0.13734064 0.076642945 0.03544351 0.12469524 0.08681858
-0.024776319 -0.022531591 -0.012951863 0.02000406 -0.055677943 -0.05941997 -0.05116769 -0.099823505
-0.07513823 0.014305823 0.038979106 -0.113339104 0.03704 0.22895695 0.15291055 -0.015715696
-0.047994368 -0.11951621 -0.061628785 0.061201677 -0.091712885 -0.07573236 0.09555661 -0.102535956
0.08931104 -0.10078981 0.108949915 -0.051824346 -0.026576966 -0.06927002 0.1286186 -0.19681601
0.120469525 -0.026382029 0.10375277 -0.10603412 0.032419965 -0.0008099388 0.11240467 0.030704163
-0.09308402 0.08118041 -0.098373234 0.0052692546 -0.0723132 0.1293307 0.13490392 -0.21320799
0.012617214 0.032448743 -0.08809204 -0.047883075 -0.0894439 0.0061478605 -0.06360932 -0.054220784
-0.06362794 -0.09408471 -0.118110836 0.041416988 -0.023139035 0.12394173 0.033883937 0.12930924
-0.02320964 0.022408308 0.03575664 0.017720591 -0.054834057 0.03673277 0.06121116 0.0006718828
0.13999744 0.09664857 0.15314497 -0.09056819 -0.07448089 -0.0019081215 0.13343422 -0.021921284
0.04266533 0.04580262 -0.06101624 0.14259095 -0.08578386 0.074841335 0.13224839 -0.108784184
-0.057433367 -0.19407696 -0.002449557 0.10849168 -0.0011053871 0.057237104 0.036753114 -0.044223037
0.13218871 -0.052478965 0.018351091 0.08472859 -0.07744981 0.011643009 0.12355167 -0.012463082
-0.05966957 0.09363654 -0.12266731 -0.09552639 0.0613993 0.07499446 -0.17015298 -0.15473634
-0.08494338 0.05237809 -0.006710896 0.10500388 0.07923679 -0.07025165 -0.15500477 0.027692648
0.2048052 0.053289283 -0.10606544 -0.086665995 -0.16948745 -0.033296693 0.0457798 -0.18953103
-0.066445 -0.15287445 0.009909756 -0.011903967 0.08866147 -0.038284883 -0.071900845 -0.100269355
0.014252164 0.118343845 -0.088030316 -0.011669797 -0.07677171 0.08688891 0.135015 0.06971851
-0.014059765 0.087197945 0.031310167 0.07048933 -0.06539311 -0.12920618 0.04667648 0.05517511
0.0224291 0.021325564 0.061470788 0.118920155 0.049790617 0.11166351 -0.0022182013 0.06954516
-0.1143133 -0.067547664 -0.01962349 0.124531545 -0.006075996 0.1042464 0.01849222 0.007890722
0.018911332 -0.12580755 -0.04483854 0.032466974 -0.08445307 0.007298603 -0.0063566514 0.078815706
0.04817272 -0.13765873 0.00075620145 0.050950296 -0.01977003 0.03002083 0.07090604 0.14054653
-0.16796869 0.011171425 -0.0088665495 -0.028330399 0.017669074 0.059283167 -0.16095123 0.105310716
-0.016338892 0.013185928 -0.116256945 -0.119837664 0.0342846 -0.097442396 -0.09583691 -0.14106587
0.0044720303 0.10191659 -0.15493616 -0.103868775 0.05070841 0.17008303 -0.045430135 -0.062273216
0.12154444 0.044468943 0.075539716 -0.014551181 -0.078764156 0.031016046 0.05098751 0.1540141
0.11531291 -0.13140437 -0.15565896 -0.108629845 -0.13144116 0.025610942 -0.062812 0.021215057
-0.052037038 0.01158042 -0.12708938 0.058297887 0.10751947 0.059172563 -0.041911002 -0.11939405

network.3.bias f4 [63]
00000000: 06c1 ff3e 7ef2 fd3e 33b4 ff3e 32b7 ff3e
00000010: bf73 fe3e 82e5 ff3e ecd3 ff3e 1748 ff3e
00000020: 3b20 023f 703a ff3e 5038 ff3e 2ef0 ff3e
00000030: 30c3 ff3e e24b fd3e f597 ff3e f0eb ff3e
00000040: 5dea fd3e d49f 003f e932 003f 8264 013f
00000050: 1bb7 fe3e da37 fd3e 917c ff3e 36f1 003f
00000060: 3a99 fe3e ceaf fe3e 1440 fe3e 7ae4 fe3e
00000070: 0637 ff3e c55a 003f 3cab ff3e ea59 ff3e
00000080: 99c6 fe3e 846b 003f 2801 003f 22a3 003f
00000090: 39a2 ff3e 7385 ff3e ec88 003f 33b0 ff3e
000000a0: e957 033f 5ef9 fd3e 5832 fe3e fb51 ff3e
000000b0: 1007 ff3e 8abb fe3e 6e5f 003f 5b6e 013f
000000c0: a730 ff3e bd97 fe3e 2991 ff3e 0740 003f
000000d0: 8d22 003f d1d5 fe3e 6bd5 fe3e 91b7 ff3e
000000e0: c229 003f ae3f 023f b806 013f 3730 ff3e
000000f0: 210d ff3e ecea ff3e bea6 ff3e
0.49951953 0.4959907 0.4994217 0.49944454 0.49697682 0.49979788 0.4996637 0.49859688
0.5083043 0.49849272 0.4984765 0.4998793 0.49953604 0.49471956 0.49920622 0.49984694
0.49592867 0.5024388 0.5007768 0.5054399 0.49749073 0.49456674 0.49899724 0.5036806
0.49726278 0.49743503 0.49658263 0.4978369 0.49846667 0.50138503 0.4993533 0.49873286
0.49760893 0.50164056 0.50001764 0.5024892 0.49928454 0.499065 0.50208926 0.49939117
0.51306015 0.49604315 0.49647784 0.49867234 0.49810076 0.49752456 0.50145614 0.50559014
0.49841806 0.49725142 0.49915436 0.500977 0.5005272 0.49772504 0.497722 0.49944738
0.5006372 0.5087842 0.50400877 0.49841473 0.49814704 0.4998392 0.49931902

network.4.running_mean f4 [63]
00000000: 81cc bf3e 2df0 063f e6d2 eb3e 7030 bb3e
00000010: d5dc c23e fa7f 673e b274 e03e f6f4 0f3f
00000020: 5b87 183f d2ca be3e 3bcd 0a3f 9767 5a3e
00000030: c444 8a3e ab42 9e3e 2f0e 7a3e 4417 bd3e
00000040: b420 d53e 567d 043f 207f 603f 268d 333f
00000050: 1548 ae3e 5c3f 153f 0d67 ef3e 19a4 093f
00000060: bf1e 213f 0809 013f 6c82 db3e ff78 063f
00000070: b1ac 943e 243e cd3e 8bf6 973e 92ff 903e
00000080: ec92 133f b735 fb3e 75eb d53e 5678 333f
00000090: 6277 aa3e ed3f 613e e1fd 263f c39f 853e
000000a0: e263 213f 494c f73e 4fe3 c63e 9c6b ae3e
000000b0: 4114 203f b00d c43e 90cb 033f c08d 083f
000000c0: 9c1c b53e b834 d73e f1f7 233e 490e b83e
000000d0: 4178 1a3f 8c7a 8a3e 71a1 083f 1101 193f
000000e0: c271 4a3f 79e1 003f fceb ca3e ae79 ca3e
000000f0: e385 133f c2f3 923e c0d1 bc3e
0.37460712 0.5271023 0.4605934 0.36560392 0.38059106 0.22607413 0.4383903 0.56233156
0.59581536 0.37264115 0.54219407 0.21328579 0.2700559 0.3091024 0.24419473 0.36931813
0.41626513 0.5175375 0.8769398 0.7013725 0.3403937 0.58299804 0.4675831 0.5376602
0.6293754 0.50404406 0.42872941 0.52528375 0.29038003 0.40086472 0.29680285 0.28319985
0.5764606 0.4906442 0.41781202 0.70105493 0.33294207 0.21997042 0.6523114 0.2609845
0.63043034 0.48300388 0.38845298 0.34066474 0.62530905 0.38291693 0.51482487 0.53341293
0.3537339 0.4203241 0.16012551 0.359484 0.6033974 0.2704662 0.5337134 0.5976725
0.7907983 0.50344044 0.39633167 0.3954596 0.5762617 0.28701597 0.36878777

network.4.running_var f4 [63]
00000000: 87e9 b73d ef82 923d 8ee8 f93d 4905 7c3d
00000010: 80e9 5e3d bc5e 583e 8395 a03d 9023 d63d
00000020: e9bd d53d 0c61 663e 6993 db3d 2673 053e
00000030: 82ac 113e f4a9 053e 8d06 3a3e 3e7d 133e
00000040: 04ba 843d d36b 4c3e db99 a83e 7dfe ba3d
00000050: 9389 e83d 0638 a53d 8dc3 213e 612f d43d
00000060: c32b d23d 03d2 033e 0d23 b83d 7d5e ca3d
00000070: 651f 1c3e 463e b53d 89f3 903d 5c21 0a3e
00000080: 2bf4 f53d 4c11 d53d 30c6 a53d bc68 1e3e
00000090: 8c3d 4c3e b367 f63d dd1c 1b3e 9f7e ec3d
000000a0: 6a07 e43d 86e4 fc3d ef42 fc3d a4b7 5c3e
000000b0: 4414 1f3e cae8 be3d 9cb3 453e e029 4e3d
000000c0: bbcc 993d 06ae 073e 8fe4 3a3e e9dc 243e
000000d0: 0d73 4c3e 882b 7b3e 6a16 393d 75d7 2b3e
000000e0: 695c fa3d 8a1f 9e3d ae73 fb3d e023 d83d
000000f0: 6d18 f53d a5f0 273e 156b 253e
0.08980089 0.0715388 0.122025594 0.061528478 0.0544219 0.21129888 0.07841017 0.10456002
0.10436613 0.22497958 0.10721476 0.13032207 0.14225963 0.13053113 0.18166561 0.14403245
0.06480792 0.19963007 0.32929882 0.09130571 0.11354365 0.08067326 0.15797253 0.10360599
0.10262253 0.12873082 0.089910604 0.098813035 0.15246351 0.08849768 0.07077701 0.13489288
0.12009462 0.1040369 0.08094442 0.1546964 0.19945353 0.12031498 0.15147729 0.115475886
0.111342266 0.12348275 0.12317454 0.21554428 0.15535074 0.09321745 0.19306797 0.050332904
0.07509752 0.13249978 0.1825125 0.16099896 0.19965763 0.24528325 0.04518739 0.16781409
0.12224657 0.07720859 0.122779235 0.105537176 0.119675495 0.16400392 0.1615413

network.6.weight f4 [63, 63]
00000000: 59cc 223e 6068 583d d9d5 11bd 8985 b7bd
00000010: bf24 233e eee2 373e ad07 92bd 84c0 22be
00000020: 7ba1 debb 7921 b23d fadf 91bd 238b 9a3d
00000030: 6ac8 2c3d 5927 adbd d2f0 e53d b575 92bd
00000040: 30a3 593d ac3c 0c3e fc24 13bd 1fd9 313d
00000050: c946 453e 65d2 6fbd 4766 20be ed37 683d
00000060: e5ef 193e a80d 0b3d 782a c73d abef 2b3e
00000070: 7fe8 9dbd 0530 2c3c 2c15 293d 88af 9b3c
00000080: 4253 413d 85d4 0bbd a8c3 90bd 066a 05bd
00000090: f568 82bd 25f4 a43d a008 6fba 08e9 743b
000000a0: 46d5 db3b 5224 003e 6e70 ee3d 42d8 41be
000000b0: 0ec2 bc3d 8406 09bd fcee 9fbd bd6c aabd
000000c0: 3e21 1a3e dac7 e9bd 9813 e1ba 481d 73bb
000000d0: 8691 93bd 05c0 b43d 1fc3 5cbe 7ae7 babd
000000e0: 74e8 e3bd f972 583d c65a b73d aba2 ffbd
000000f0: 863c 023e fe2f 143e 88bb a4bc 6696 2cbd
00000100: d9c5 0abe 069c 3cbe 2576 fd3c ced2 d1bd
00000110: a63e 023e c682 e0bd dc83 df3d a2a9 f63c
00000120: fbef 923d 6f94 ea3c b58a fd3d 0336 e1bd
00000130: 0f6c 17bc 0fda d33c 7688 70bd 37c7 afbc
00000140: 91e1 4f3d ea5a 87bd 2e5f a5bd d513 443e
00000150: a84d c3bd 2aaf 383d bc1b b4bc 957c bb3b
00000160: 99df e73c 2fd6 d8bc 659d ecbb d270 613c
00000170: 8b5d 59be abe5 9bbd 1df3 36bc 9882 b03c
00000180: a135 263d 8178 76bd 52ce debc 84b4 66bd
00000190: bb88 09be e71d 803d 0b17 d23c aabd 2b3b
000001a0: 8cb4 cdbd 6f13 d6bd 766b a93c f441 81be
000001b0: d377 523d 38aa 0abe f228 76bd 3ded 05bd
000001c0: 54d7 0abe 769e 073e eb90 1cbd 2191 74bd
000001d0: a4b6 3cbe b625 4abd 45a6 a6b9 829f 133e
000001e0: d0fc afbd dfb6 f7bd 9b30 3a3d c276 583d
000001f0: d468 2b3d 99ae e33d 9a72 623e 1b49 83bd
00000200: 7a0f cc3d 2f02 8a3d 076c 9f3d b4f8 42bd
00000210: 12bf 043e 32bb 4fbd ee7f 1dbd 7d7c 853b
00000220: 1176 b63c 84b5 54bd 38bc 26bd c9cb 343c
00000230: 6ac0 583e 073a 103d 061c 193d e15c e8bd
00000240: e9d8 463e c78f ae3c d1a0 aa3d 1314 d73d
00000250: 9b84 0e3e 9352 5abd ef70 8e3c a229 c03d
00000260: a361 e83c 7aa4 9cbd d819 b13b 45df c33c
00000270: b7f1 13be bafc f1bc 28c1 10bb d2e4 f2bd
00000280: 2e2f 113d c38e 6fbc 3742 f43d 56f7 62be
00000290: 0237 3e3c 8b1c f43d 1df5 a6bd 4626 30be
000002a0: c7e9 1e3e a205 203e dd70 833d b3db c73d
000002b0: 4021 c43d 71dd 923c ff60 1fbe 2caf 243c
000002c0: e978 013d 4a4e 163e 02db 0abe 5863 cabd
000002d0: a33e aebc 17f9 953d f6f0 6abd e604 d13d
000002e0: b0dc 7d3d 01a1 87be b6a5 353d 3732 fabd
000002f0: 1af2 883d af2b b93d b57c 813c 1bc5 2e3d
00000300: 835e 90be 8832 1ebd dc31 e6bd cc76 433d
00000310: dbaa 963c fc22 0cbe d1a9 04bd b789 f83c
00000320: a1d0 15be 169e 023b 5fdd 693d 6847 e53d
00000330: f7e1 883e cb78 03be 5db0 c03d c57e 8ebd
00000340: c3ea 0c3d dd10 5c3d 4543 a339 fcf3 1b3d
00000350: e0ca bdbc ee7b 88bd c431 d43c 380c f13c
00000360: 91a3 babc 6771 103e f23b cdbb e34d 24be
00000370: 6b00 b13d b797 e7bb 3fca 7ebd 3d5c 073e
00000380: 8988 b4bd fa92 fa3c dea1 3cbd 3a28 c33d
00000390: 5d76 b23c 3e23 943c e041 313d bd71 28bd
000003a0: 1d91 0abe af2f dabc 563a 9c3c 6c54 e73d
000003b0: 4ade 9c3b 4cb4 3c3d 1cf7 10be 8291 d4bb
000003c0: 09f2 d3bd 0989 5cbb 9c71 713c 2938 d13c
000003d0: b23c 85bd b1ca 03be a026 a2bd 6e00 c63a
000003e0: 2290 97bc 3c02 b4bc 67ea e03d 66d2 313e
000003f0: 6434 35bd 6641 063e 1ae9 fb3d 2704 0bbb
0.15898265 0.052833915 -0.03560433 -0.08961017 0.15931986 0.1795766 -0.0713037 -0.15893751
-0.0067941523 0.08697791 -0.07122798 0.075460695 0.042183317 -0.084547706 0.112275735 -0.07151357
0.053134143 0.1369502 -0.035923943 0.043419953 0.19265284 -0.058550257 -0.15664016 0.05669396
0.15032919 0.03394857 0.09724897 0.16790645 -0.07710361 0.010509496 0.041279957 0.019004598
0.04719854 -0.03413822 -0.070685685 -0.032571815 -0.06367675 0.080543794 -0.00091184117 0.0037370343
0.006708774 0.12513855 0.11642538 -0.18930152 0.092167005 -0.03345348 -0.078092545 -0.083215214
0.15051743 -0.11415072 -0.0017171977 -0.003709631 -0.07205491 0.08825687 -0.21558808 -0.09126182
-0.11128321 0.05284402 0.089528605 -0.12482198 0.127184 0.14471433 -0.020108953 -0.04213562
-0.13552035 -0.18418893 0.030940125 -0.10245286 0.12719211 -0.10962443 0.10913822 0.030110184
0.07174679 0.028635232 0.12379972 -0.1099663 -0.009242072 0.025860814 -0.05872389 -0.021457298
0.050752226 -0.06609137 -0.08074795 0.1914819 -0.09536296 0.045088924 -0.021985881 0.0057216384
0.028304862 -0.026469318 -0.0072209113 0.013759809 -0.2122709 -0.07612165 -0.011166361 0.021546647
0.04057849 -0.060173515 -0.02719799 -0.056324497 -0.13431065 0.062557034 0.025645753 0.0026205578
-0.10044202 -0.104529254 0.020681124 -0.2524563 0.051383805 -0.13541496 -0.060097642 -0.03269695
-0.13558704 0.13244042 -0.038224142 -0.05970872 -0.18429047 -0.04935237 -0.00031785868 0.14416316
-0.08593142 -0.12095427 0.04545651 0.05284763 0.04184802 0.11117286 0.2211403 -0.06410428
0.099638894 0.06738698 0.077842765 -0.047600463 0.12963513 -0.050715633 -0.03845208 0.004073678
0.022273095 -0.05193092 -0.040706843 0.011034914 0.2116715 0.03521159 0.03738024 -0.1134584
0.19418682 0.021308793 0.083314545 0.10501876 0.13917772 -0.053301405 0.017387835 0.09382941
0.02836687 -0.07648559 0.005404692 0.023910174 -0.14447676 -0.029539455 -0.0022087786 -0.1186005
0.035445385 -0.014621439 0.11926692 -0.22164664 0.011609795 0.11919507 -0.081522204 -0.172021
0.15518866 0.15627149 0.06418011 0.09758701 0.095766544 0.017927857 -0.15564345 0.01005153
0.03160945 0.14678302 -0.13560107 -0.098822296 -0.021270102 0.07322901 -0.057358705 0.102060124
0.061978042 -0.26490024 0.044347487 -0.12216609 0.06686802 0.09041535 0.015806535 0.042668443
-0.28197107 -0.03862241 -0.11239979 0.047720715 0.018392017 -0.1368522 -0.032388512 0.030339105
-0.14630367 0.0019930652 0.05709588 0.1119526 0.26734897 -0.12839048 0.094086386 -0.06957773
0.034403574 0.05372702 0.00031139902 0.03807448 -0.023168027 -0.06664263 0.025902636 0.029424772
-0.022783073 0.1410576 -0.0062632496 -0.16045336 0.08642658 -0.0070676464 -0.062204596 0.1321878
-0.088151045 0.030587662 -0.046052806 0.09529157 0.021784956 0.018083211 0.043275714 -0.041124094
-0.13531919 -0.026634065 0.019070785 0.11295399 0.004787241 0.046070382 -0.14156765 -0.0064870724
-0.10348899 -0.0033651015 0.014736559 0.025539475 -0.06505717 -0.1287029 -0.079175234 0.0015106329
-0.018501345 -0.021973722 0.10982209 0.17365417 -0.044239417 0.13110885 0.1230032 -0.0021212192

network.6.bias f4 [63]
00000000: 9c78 ff3e 52c8 ff3e c9d9 ff3e b05c ff3e
00000010: 2f37 fe3e c21a 003f 3ce0 ff3e e706 003f
00000020: 767d fe3e 9267 003f 69bd 003f 8574 003f
00000030: 9f24 003f f117 ff3e cddc ff3e 14f2 fc3e
00000040: 2ca9 ff3e eb0d ff3e 2826 013f 7224 003f
00000050: 8403 003f 2e08 003f c015 003f 2ba1 fe3e
00000060: 7ffc ff3e 41ce fe3e 4da4 fe3e adef ff3e
00000070: fefd 063f 90eb ff3e 0d0a ff3e 52b8 ff3e
00000080: 4eee 003f 649a fe3e 2867 fe3e afb8 ff3e
00000090: ed5b 003f b605 ff3e e569 ff3e e6ea 003f
000000a0: 0646 003f 8916 ff3e b320 fe3e 1c34 003f
000000b0: 4938 ff3e ab6a fe3e 25fb fe3e ec42 ff3e
000000c0: fc0f ff3e 4b50 013f 0f69 003f f597 ff3e
000000d0: 07b8 ff3e 5bc1 ff3e 8b02 003f 0260 ff3e
000000e0: 7bc0 003f 1a2d 003f 06c4 fe3e 0881 003f
000000f0: b8eb 003f 76a7 fd3e 3c90 ff3e
0.49896705 0.4995752 0.49970844 0.49875402 0.49651477 0.5004083 0.49975765 0.5001053
0.49705094 0.50158036 0.50289017 0.50177795 0.5005588 0.49822953 0.49973145 0.4940344
0.49933755 0.49815306 0.50448847 0.5005561 0.50005364 0.5001248 0.5003319 0.49732336
0.49997327 0.49766734 0.49734727 0.49987546 0.5273131 0.49984407 0.49812356 0.49945313
0.50363624 0.49727166 0.49688077 0.4994559 0.5014027 0.49809045 0.4988548 0.50358427
0.5010685 0.4982188 0.49634323 0.5007951 0.4984763 0.49690756 0.49800983 0.49855745
0.49816883 0.5051314 0.50160307 0.49920622 0.4994509 0.49952206 0.5000388 0.49877936
0.502937 0.5006882 0.4975893 0.50196886 0.5035968 0.49541825 0.4991473

network.7.running_mean f4 [63]
00000000: 0ebb 233f 32c8 653e 48d7 293f 84c6 f03e
00000010: c30e 1a3f b853 013f 8739 a23e 1bea 2a3f
00000020: 3cb7 133f 9e4c 053f 2ccd 183f 8664 d13e
00000030: c3d8 0b3f 77e5 e43e 7898 b83e 6a50 723e
00000040: 41b0 a63e fcd3 c13e a6bd 293f d08e 023f
00000050: c882 c03e 35c1 243f 954d 1e3f 6fca c33e
00000060: e2a9 463f b4e9 ee3e 06a4 ef3e daf6 df3e
00000070: b2b9 333f 0214 7b3e 33a8 ae3e 79e6 d23e
00000080: cb33 263f 30d8 f83e e995 e93e 288b 993e
00000090: e5c0 e83e 494e d93e 1d9f 0f3f c14d 043f
000000a0: b48d 103f 5fa6 993e 1c91 1e3f 425b f13e
000000b0: 0ef4 2c3f a40e d53e f2f8 373f c893 253e
000000c0: 9e1f c23e b647 2e3f 5788 053f d291 d23e
000000d0: 5e15 8b3e 698d db3e 5ef0 013f 7088 063f
000000e0: daa0 fa3e 5925 fc3e 7a73 173f 7a21 f83e
000000f0: 032d ac3e 18b1 a23e fd03 123f
0.639573 0.2243965 0.6634412 0.47026455 0.60178775 0.5051837 0.31684515 0.66763467
0.5770147 0.52070034 0.5968807 0.40897006 0.5462763 0.44706318 0.36053824 0.23663488
0.32556346 0.37857044 0.66305006 0.50999165 0.37599778 0.6435731 0.6183713 0.38240382
0.7760297 0.46662676 0.46804827 0.4374302 0.70205224 0.24519351 0.341127 0.41191462
0.6492278 0.48602438 0.45622185 0.2998898 0.45459667 0.4244254 0.5610216 0.51681143
0.5646622 0.30009744 0.6194017 0.47139937 0.675599 0.41612732 0.71864235 0.16169655
0.37914747 0.6807817 0.52161163 0.41126877 0.2716474 0.42881325 0.50757396 0.5255194
0.48950845 0.49247244 0.5916058 0.4846304 0.3362809 0.31775737 0.57037336

network.7.running_var f4 [63]
00000000: 4d24 a53e 95c6 133e 78d4 4d3e 0767 9a3d
00000010: ae70 0b3e e2ec 063e 7072 113e 4b57 4d3e
00000020: 8be0 173e ac42 e03d db29 f93d 4034 9e3d
00000030: 4ab9 f63d 5c5d c93d 7809 f93d a899 263e
00000040: 7462 243e 6734 de3d 42d1 b73d 9bc9 8b3d
00000050: 79ee 9b3e 2333 8c3e e3f8 f23d 18c7 f53d
00000060: fd9d ad3e 15fa 4d3e 92fe 653e bf1a 863e
00000070: 9d92 ce3d a2f1 7c3e 9c99 e93d cecf 3e3e
00000080: 7f83 393e c546 523e 7a50 4e3e d3f5 033e
00000090: af11 283e 159f 0a3e 8d2e f83d 6711 013e
000000a0: c846 133e cf4b 563d 6155 cc3d c598 ab3e
000000b0: 233b 153e bd52 f73d 97ed 973d 4109 d73d
000000c0: fc1b 353e 6b0b d53d b87b 293d 6cd5 3b3e
000000d0: 246d c03d 0ffe e03d 4d62 133e 7967 5b3e
000000e0: 5338 b83d 3639 0e3e c7b9 d13d b811 403e
000000f0: 2bbc bc3d 41d1 693d 7e5d 433d
0.32254258 0.14431222 0.20100582 0.07539182 0.13617203 0.13176301 0.1420381 0.20052831
0.1483175 0.10950217 0.121661864 0.0772481 0.1204706 0.0983226 0.12160009 0.16269553
0.16053182 0.10849839 0.0897546 0.068255626 0.30455378 0.27382764 0.118638776 0.12000865
0.33909598 0.2011493 0.22460392 0.2619228 0.10086558 0.2470155 0.11406252 0.18633959
0.18116568 0.20534809 0.20147887 0.12886743 0.16412996 0.13537247 0.12118254 0.12604295
0.1438247 0.05231839 0.09977222 0.3351499 0.1457334 0.12076328 0.074183635 0.10499812
0.17686456 0.104025684 0.041377753 0.18343133 0.09395817 0.10985958 0.14392968 0.2142619
0.08995118 0.13889012 0.10240512 0.18756759 0.09215578 0.057084326 0.047696583

network.9.weight f4 [63, 63]
00000000: 98d5 96bc 3eaf 02bd a7d2 afbd c661 83bd
00000010: 1c72 04bd cd98 acbd 6a40 9dbc 3fbb 4c3d
00000020: 2a18 193c 7841 a33d a453 bebc 9fb1 e83c
00000030: f787 793d 2ab3 30bd c012 d1bb 1d1f aabd
00000040: 52f2 db3d 5dd1 c63d 4c72 82bd 3b03 ea3d
00000050: 9c90 86bc 449e d53b 215b 0a3c 75fe 073d
00000060: 9132 b33c 6955 203c 410a e63d 2f9f 98bd
00000070: 36f0 113d ae69 1b3e 401f 9bba 6ac3 38be
00000080: e87c d93d 77c2 90bc 30c3 e13c 332b 4f3e
00000090: 732f 0e3c f340 31bd 73ad 11be fe2a babd
000000a0: abe1 813d 4a38 6e3d 9287 51be 2af1 22bd
000000b0: 4020 7bbd 0b69 183e 2ba0 1c3d 8574 033e
000000c0: be92 f53c 28ae 3a3d 5567 03be ae90 67be
000000d0: c486 e23c ce5e 333d f043 103c 96ba fdbb
000000e0: 847c 7b3d 560f b3bd d27c dc3d f345 7cbd
000000f0: 9571 7cbb 0578 27be be56 b2bd f377 cd3d
00000100: cf73 ddbb 01a3 013d 675e d7bc 32a3 963d
00000110: 8bb6 f43d 04b8 b4bd dd30 8b3d 31f7 073e
00000120: 12ae 0fbd 8961 66bd 2151 4e3d 6398 e1bc
00000130: bd2e 833d 0200 1f3d da55 04be a38a 4c3e
00000140: ace6 21be 647e b03c 959f eb3d 8870 6ebd
00000150: 725d 10be 8c2b 95bd 51da bdbd 5334 383d
00000160: 5734 bbbb 1660 a0bd ce07 353d 9e66 36bb
00000170: 1593 1e3e 7517 a8bc 0c79 aebc 23e0 ad3d
00000180: 3971 a33d e455 b03d 2c55 8abd 37bc 1c3e
00000190: 6082 3fbd 19d9 533d b846 2d3d 8be4 93bd
000001a0: b482 b2ba 15f6 04be 33bd b73d 0f97 9dbd
000001b0: 5e33 883d b41d 25be 2e9c 003e 1e00 f8bd
000001c0: d601 813d 2ee6 2bbe edea 273e 3697 543c
000001d0: 0c38 b93d ec6b e7bd 031b 33bd 6c55 f5bd
000001e0: 3d30 813d 503a 51bc 5d08 1ebe 8d21 30bd
000001f0: 343f a6bd b3b3 4cbe 47bc d13d c90e 3b3d
00000200: 0e5d ec3d df8d 78bd 26f9 14bd be67 aa3d
00000210: ac2d 3abd 0cd6 453b 4467 c63d f7c8 3fbe
00000220: 828d 7b3c dff5 4a3c 1eae 4f3d fa71 083d
00000230: db36 1e3e 45e2 93bd 9514 16be e319 9cbd
00000240: ca64 483d 297c 123e a716 5d3c ac7a 7fbd
00000250: 90a4 203e 3c12 41bd 022b cf3d 1489 debd
00000260: 820c 963d c774 693d f8f7 f63c 8995 9f3c
00000270: 8a0b 973d a91d 25be 5471 a83d 891b c8bd
00000280: 5995 1bbd 8e31 65be a548 073e 81bd 6b3d
00000290: f1eb 0ebd 0098 87bd 0c61 a5bc 4909 fd3d
000002a0: 0bee 873a 50fb 4ebe b62d 48bd 0564 46bd
000002b0: a2e5 2c3d 48ff 10be f9f8 f3bd 0d8a 9a3d
000002c0: 7a22 acbd 20b2 5bbd 78ba ccbb 5c1a 11be
000002d0: 976a be3d 5143 1c3e 40bd a33d 6d5a 6f3d
000002e0: bf4a d03d 383e 9fbd 65b5 5cbd fc2e 96bc
000002f0: 3c16 c63d c174 00be 8eee 0dbe 9479 6bbd
00000300: 703e c23d 20c7 eebb 9f2c d73d 3b72 b8bd
00000310: fccf 15bc c19d 9c3c b5f8 f3bd 3dfa cb3d
00000320: f731 f0bd a352 953d 9049 da3d f7e6 37be
00000330: 6b35 b93d 0ce4 73bd 1247 09be 864f 5b3c
00000340: c134 5abe ce19 01be 5953 13bd 9573 8ebc
00000350: d511 5c3d 32ff ab3c 86af 693d 6f91 44bd
00000360: 525e bfba 1f84 3abd ba66 dabd 19f0 0bbc
00000370: 763d 123e fc6d 3cbd 1e91 debd 3791 1b3d
00000380: 4405 d7bd ff9d 5dbd 7d63 37be c9f7 33bd
00000390: c694 97bd dcf4 1e3d cd3c b33d d723 953d
000003a0: c606 36be d61b 9d3b df86 a63d 076c 20be
000003b0: 7776 c4bd c327 8dbd b1cf 8138 b36d 57bd
000003c0: 2293 be3c a78a 2d3d 70d2 9d3b 16b7 7dbd
000003d0: ad24 833d 7fd7 a5bc d875 623e ed25 a33d
000003e0: 238d 6f3c d43b 79bd a7fe f1bc 4361 4bbc
000003f0: 9446 3cbe 2a4e ebb8 5d12 f0bc 5351 473c
-0.018412396 -0.031905405 -0.085851006 -0.06415133 -0.032335386 -0.08427582 -0.019195754 0.04998326
0.00934414 0.079714715 -0.023233242 0.028405009 0.06092068 -0.043139614 -0.006380409 -0.08306716
0.10739578 0.097079016 -0.06369457 0.114263974 -0.016426377 0.006519111 0.008444578 0.033201654
0.021874698 0.009785988 0.112324245 -0.07452237 0.035629474 0.15177032 -0.0011834875 -0.18043295
0.10619527 -0.017670853 0.027558893 0.20231323 0.008678305 -0.04327483 -0.14226322 -0.09090231
0.06341871 0.05815915 -0.20461872 -0.039780773 -0.061310053 0.1488382 0.038238686 0.12837417
0.029977199 0.045576245 -0.12832387 -0.22613785 0.027652152 0.043791585 0.00880526 -0.00774319
0.061398044 -0.087431595 0.10765995 -0.061590146 -0.0038519849 -0.16354378 -0.08707951 0.10032644
-0.00675819 0.031649593 -0.026290132 0.07355346 0.1194888 -0.08824161 0.06796429 0.1327789
-0.035078116 -0.05624536 0.05037034 -0.027538484 0.06405399 0.038818367 -0.12923375 0.1997476
-0.1581065 0.021544643 0.11505047 -0.058212787 -0.14098147 -0.072836965 -0.09270156 0.044971775
-0.0057130265 -0.07830827 0.044196896 -0.002783216 0.15485795 -0.020518998 -0.021297954 0.08490016
0.0798058 0.08610132 -0.067545265 0.15306173 -0.046755195 0.051720712 0.04230377 -0.072213255
-0.0013619275 -0.12984498 0.08971634 -0.07694828 0.066504225 -0.16124612 0.12559578 -0.12109397
0.06299178 -0.16787025 0.16398211 0.012975505 0.09043893 -0.11299881 -0.043726932 -0.119791836
0.06308029 -0.01277025 -0.15432878 -0.043000747 -0.08117524 -0.19990425 0.10240989 0.045668397
0.11541186 -0.060682174 -0.03637042 0.083205685 -0.045453712 0.0030187396 0.09687665 -0.18729006
0.015353562 0.012387722 0.05070316 0.03331182 0.15450613 -0.07220892 -0.14656289 -0.07622125
0.048924245 0.14305176 0.01349417 -0.06237285 0.15687776 -0.04713653 0.10115625 -0.10865989
0.073266044 0.056996133 0.030147538 0.019480484 0.07375248 -0.16124596 0.082247406 -0.09770877
-0.037984226 -0.22382185 0.13211305 0.057553772 -0.03489298 -0.066207886 -0.020187877 0.12355287
0.0010370625 -0.20213056 -0.04887172 -0.04843523 0.042211182 -0.14159882 -0.11912722 0.07545862
-0.084050134 -0.05363667 -0.0062478147 -0.14170212 0.09297674 0.15260054 0.07995081 0.058435846
0.10170507 -0.07775539 -0.05388393 -0.01833295 0.096722096 -0.12544538 -0.13860533 -0.057488993
0.09484565 -0.007286921 0.10506558 -0.09006163 -0.009143826 0.019118192 -0.119126715 0.099598385
-0.1172828 0.07291152 0.10658562 -0.179592 0.09043392 -0.059543654 -0.13406017 0.013385659
-0.21309187 -0.126075 -0.03596816 -0.017389098 0.053727943 0.02099571 0.057052158 -0.04799026
-0.0014600253 -0.045536157 -0.10664125 -0.00854113 0.14281258 -0.046003327 -0.10867523 0.037980285
-0.10499051 -0.054105755 -0.17909046 -0.04393748 -0.07401423 0.038807735 0.08751831 0.072822265
-0.17776021 0.004794578 0.08131193 -0.15666209 -0.09592908 -0.068923496 6.189885e-05 -0.05259485
0.023263518 0.042368557 0.004816346 -0.061942182 0.0640348 -0.020244358 0.22115266 0.07966218
0.014621052 -0.060848072 -0.029540373 -0.012413326 -0.18386298 -0.000112202324 -0.029305631 0.012165385

network.9.bias f4 [63]
00000000: 5b5c 013f a373 fe3e ae5e 003f b1db ff3e
00000010: 4f1f 003f 279e 003f e39e fd3e 1e85 ff3e
00000020: 5fd7 ff3e 5d76 ff3e 272b ff3e 0b9e ff3e
00000030: 8336 003f 6f18 ff3e 5b1e ff3e f88f fe3e
00000040: fe2e ff3e 540b ff3e 9d12 ff3e adb5 fd3e
00000050: 4fee ff3e fe32 013f a81a 023f c073 ff3e
00000060: 50d7 003f 825f ff3e 1f65 ff3e 75cd ff3e
00000070: cf3f ff3e 90f9 013f 8f9d ff3e 46b0 ff3e
00000080: 96f9 fe3e ec7d ff3e c4e8 023f d159 ff3e
00000090: e52a 003f e9d7 fe3e 382d 003f 8f8b 023f
000000a0: 4938 ff3e 7e94 fe3e bca6 ff3e 457e 013f
000000b0: c7b1 fe3e c028 ff3e 7699 ff3e c0c4 ff3e
000000c0: e446 ff3e e2a1 ff3e 4589 ff3e fc3c 013f
000000d0: 8c20 043f d23d ff3e a0b9 ff3e e420 ff3e
000000e0: 1100 003f 3630 003f a998 ff3e 2c79 ff3e
000000f0: 0cb8 003f f84e 003f c460 ff3e
0.5053155 0.496976 0.5014447 0.499723 0.50047773 0.5024132 0.49535283 0.49906248
0.49969003 0.49894992 0.4983761 0.49925265 0.5008318 0.4982333 0.49827847 0.49719214
0.4984054 0.4981333 0.49818888 0.4955267 0.49986503 0.5046843 0.50821924 0.49892998
0.5032854 0.49877554 0.49881837 0.4996144 0.4985337 0.5077143 0.49924895 0.49939173
0.49799794 0.49900758 0.5113642 0.49873212 0.5006545 0.497741 0.50069 0.509942
0.4984763 0.49722666 0.49931896 0.50583297 0.49745008 0.49835777 0.4992177 0.49954796
0.49858773 0.49928194 0.49909416 0.5048368 0.5161216 0.49851853 0.49946308 0.4982978
0.500001 0.50073564 0.49921158 0.49897134 0.50280833 0.50120497 0.49878514

network.10.running_mean f4 [63]
00000000: 814c f23e 0788 ec3e 65fb 003f b4e2 733e
00000010: 921a 0d3f 1b82 0a3f 3c6d e53e fa3a b03e
00000020: 75f6 a33e 8919 d83e 516b b43e de81 a33e
00000030: b8c9 1f3f 750c f53e 92d3 3b3f 4672 153f
00000040: bbf1 c23e 0a18 263f 3893 133f d468 1d3f
00000050: 21fd 183f 9440 313f a915 4b3f 81e1 e33e
00000060: 2601 543f 20a7 403f 759c 2e3f d54a 8a3e
00000070: cee6 f23e 790a 183f cecd d03e 8a7d e53e
00000080: bd35 d93e 6434 a93e eff1 453f 164d f03e
00000090: 6498 063f 36b3 173f 2729 d13e 3ba8 473f
000000a0: b410 843e f0ae d93e 57d5 9a3e d830 173f
000000b0: 64b1 0e3f e771 2d3f 8314 f63e 64ea b73e
000000c0: f80f a43e 5ae8 c73e 947e 1d3e 33f9 2f3f
000000d0: 0d33 533f ca2b 043f 7cf7 273f 7b7b c93e
000000e0: ec09 a03e a5e5 2d3f 1b58 003f 6250 003f
000000f0: 9fdd 093f 2f59 0c3f cbc4 d93e
0.47323993 0.4619753 0.503836 0.23816949 0.5511867 0.54104775 0.44809902 0.34419996
0.3202397 0.42206982 0.35238126 0.31935018 0.62417173 0.47861066 0.73369706 0.5837749
0.3807505 0.6488043 0.57646513 0.6148808 0.59761244 0.69239163 0.79329926 0.44507983
0.8281425 0.7525501 0.68207484 0.27010217 0.47441715 0.5939098 0.40782017 0.4482234
0.42423812 0.33047783 0.77322286 0.46933812 0.5257628 0.5925783 0.4085171 0.77991074
0.25793993 0.4251628 0.3024089 0.59058905 0.55739427 0.67751926 0.48062524 0.35921013
0.32043433 0.39044458 0.15380317 0.6873962 0.8249977 0.51629317 0.65612006 0.3935202
0.3125757 0.67928535 0.5013444 0.50122654 0.5385379 0.54823583 0.42532954

network.10.running_var f4 [63]
00000000: 3d36 fb3c e1a0 963d 53b9 113e 67b2 e23d
00000010: a0c3 b83d aa42 463e 8706 df3d 54b9 813e
00000020: 81b0 4c3e a60d 5f3d dce6 9e3e 806d 1f3e
00000030: 4781 af3d 2710 4f3e 7e5e 5a3e d24c b23d
00000040: b42b 883d b582 c63d 1aee f63d e011 b53d
00000050: 6c93 6d3e 6baa 403e 2c8f 0d3e 0ab0 cc3d
00000060: b597 fe3d 1f49 d53d 70cc 3c3e 801f 943e
00000070: 4d07 d13d 6233 a03d 035c b43d c7b2 0c3e
00000080: dbb7 fa3d c05c 7d3d ea6d 2f3e 7235 3a3e
00000090: b879 233e 6a31 163e 0f51 9e3e 7df7 083e
000000a0: 6cbb 7b3e 9526 333e 2190 293e cc53 d73d
000000b0: b80f 0e3e 3363 a43d d5f9 a23d a143 b63d
000000c0: 08ad 153e d03a 053e 3d21 0e3e df7a 223e
000000d0: d72e 5a3e ff3d b23e c438 033e 48ba 293e
000000e0: 3b9a 3e3e cac8 bc3d 6074 853e 3abe 253e
000000f0: 9e7a 473e 08b9 473e b94f a93e
0.030665511 0.07354904 0.14230852 0.11069184 0.090216875 0.19361368 0.10889917 0.25336707
0.19989206 0.054456376 0.31035507 0.15569115 0.085695796 0.20221005 0.21325108 0.087060586
0.06648961 0.09692899 0.12057133 0.088413 0.23200768 0.1881501 0.13824147 0.09994514
0.124312796 0.10414337 0.18437362 0.28930283 0.10206471 0.078223005 0.08806612 0.13740073
0.12242099 0.06185603 0.17131773 0.1818445 0.15964401 0.14667287 0.30921218 0.1337566
0.24583215 0.17495187 0.16558887 0.1051403 0.13873184 0.08026733 0.07957808 0.08899618
0.14616787 0.13010716 0.13879867 0.15867184 0.2130693 0.34812924 0.12814623 0.16574967
0.18613522 0.09217985 0.2606535 0.16185847 0.19480368 0.19504178 0.33068636

network.12.weight f4 [63, 63]
00000000: 90e6 ef3d 280f eb3c dc7a 01bd 0452 fc3b
00000010: 07c5 ba3d 04dd 213d ebc3 fbbd ecd4 40bd
00000020: ad29 5bbd bab8 043e 321e 863d 581d e1bc
00000030: 6339 003d 2e64 71bd 4304 a9bd 1cb3 88bd
00000040: b915 e2bc 2665 2dbd 132c 353d 4d9e 2fbd
00000050: bfd2 c33d c1d3 c5bc 91f3 e2bb c528 25be
00000060: 74dd 53bd 080e 05be e06b 6cba a733 b63c
00000070: cf8d 32be ca3d 5a3c 3bc7 11bd fd5a 06be
00000080: 3c1f d53d e036 0fbd 1b93 0f3e 13fe 1cbe
00000090: e263 663a cfab a0bd 029c 8b3d d0a8 503d
000000a0: 66af c7bd e625 e43a e182 eabc e558 823d
000000b0: 18b2 42be aedd e5bc 9de1 9a3d 9ec9 4d3c
000000c0: e666 013e 8540 49bd ff44 f63b 0fbc 323e
000000d0: 0d31 143e 39fd 14be e7d1 d2bc a4eb 403e
000000e0: 6a3e a1bd 9f5e eb3c a5ab 9e3d 3c49 0e3e
000000f0: e67f 273e 0078 11bd 0b94 813d e84b ebbd
00000100: c302 8bbd 5935 4e3d 52b4 bb3d b8f9 ee3b
00000110: f3b2 72bd 0f64 dabd b7a7 db3b 01e9 a53d
00000120: ab28 cc3d 2a66 80bd 7bcd f1bc 6880 e13b
00000130: 74b8 4a3d 7aa8 34be 3311 b4bc d63b a0bd
00000140: 85c0 6fbd eab7 5bbb fce1 963c 9bea 453e
00000150: ec30 0a3e cd59 883d d64f dcbc 88d0 91bd
00000160: 720f b73c bb8c b7bd 80b5 f3bc bb64 7f3d
00000170: 9b3b 3a3c 5899 34be 6c84 603d 6a89 4a3d
00000180: 3d32 1d3d d8e5 f93d 6ba2 8fbd d85e 1cbd
00000190: 8c0c 21bd e093 eebc ab02 d1bc e554 1cbe
000001a0: 838f a13c fcf8 54be dfc0 923d 8064 8dbd
000001b0: 5af4 b0ba b1a3 dcbd 3dfb a03c 8417 dabd
000001c0: 5675 2c3e d76a 203e 88a2 b73d ea83 4c3b
000001d0: 8f93 d73d ea58 ef3d 0b36 a7bb 2b93 1f3e
000001e0: 1bec 14ba e7b6 5ebb 6ee3 e1bb 3b15 f13d
000001f0: 72b7 be3c 2a69 12bd b4d7 55bc 68e2 60bd
00000200: 605c 283a 3aea 873d b6cb c2bc 1a6d 6bbd
00000210: 3118 cf3d b4a8 4bbe 2931 f63d 0791 983d
00000220: e268 053d 92fc 19be 572c 46bd 225b c13c
00000230: cef1 383d c5e3 453e 92ee a03d 228e 9bbd
00000240: 019d e1bd b55e aabd 79ff fb3c 933f 83bc
00000250: 4925 873d a9c4 0bbe 94c4 95bd b1dd 1abe
00000260: 1cb7 023d 126a 79be 36d5 0cbe e9dd 723d
00000270: 35f4 553c 8bfd f23d 33e1 863d 54ed 2abd
00000280: 9389 6cbd 0cee 183d 0265 033d 0822 0dbe
00000290: 683e 653d 81ec 08be 940d 8fbd c2dd f53d
000002a0: 4e62 a8bd c06e 1d3d 5301 0bbc 9577 973d
000002b0: afa6 a33d f58e 1dbd 19df c9bd 2cf5 643e
000002c0: cdc7 87bd 11e9 a93d 70a8 613d 7afc ebbd
000002d0: b859 6c3d eb3b afbb 40b5 53bd e6be 10be
000002e0: 4abf 80bc a230 24be 1c23 263c 25f8 423d
000002f0: 8c2d 863d 2d2d 0a3d 4bcb 3b3d 00f9 0cbd
00000300: f25c 23bc 0f6e 443e 715f 833d 8722 a3bd
00000310: 5a66 d4bd 6693 e7bc 2760 92bc fef4 8d3c
00000320: 387b b4bd ac89 98bd 05b5 803d 6f0f 07be
00000330: 5ea7 2cbb 0ad9 18be 5012 f43c 6ae6 143c
00000340: 3e44 d0bd 126b abbc bff6 5fbc 2eaa 8e3d
00000350: bcf7 b23d 797b 21bd 9df2 9abd afb2 3a3e
00000360: 4e14 633e e66e c73d e51e 173d 0d96 43be
00000370: 770f 353d b325 dcbd 2258 ffbc c649 dbbc
00000380: 2e1a 84ba 5056 7ebc d36a 35bd b9fc 5bbc
00000390: 992d d33d 95be 0e3e 9a63 6c3c 1fa8 c2bd
000003a0: e2ee f93d f6a3 9dbd d192 8e3d ab05 743d
000003b0: 69c9 393d 1d03 dcbd ed97 823d b2a4 c7bd
000003c0: 5379 1e3e 19b1 e0bd fb37 c2bc 87f1 61bd
000003d0: a424 b03d ed47 ea3d 2648 04be 5b0b c73d
000003e0: a629 273e 0810 14bd 9435 1f3c e176 c83d
000003f0: 24d1 bd3d e86f 91bd 8b04 393d 0816 88bd
0.11713898 0.02869375 -0.03161131 0.0077002067 0.09119611 0.039517418 -0.12293228 -0.047078058
-0.053506542 0.12961093 0.06548728 -0.027479813 0.03130473 -0.05893343 -0.08252766 -0.066747874
-0.027598249 -0.04233279 0.044231486 -0.042875577 0.09561681 -0.024148824 -0.006926008 -0.16128834
-0.051724866 -0.12993634 -0.000901876 0.022241427 -0.17436908 0.013320396 -0.03559039 -0.13120647
0.10406348 -0.034964442 0.1402096 -0.15331297 0.00087886874 -0.0784527 0.068168655 0.050942242
-0.097502515 0.0017406314 -0.028626861 0.063646115 -0.1901325 -0.028059807 0.075625636 0.012560276
0.12636909 -0.049133796 0.007515549 0.17454551 0.14471836 -0.14549722 -0.025734855 0.1883989
-0.07873233 0.028731642 0.07747582 0.13895124 0.16357383 -0.03551483 0.06327065 -0.11489087
-0.06787636 0.050343845 0.09165253 0.0072929524 -0.05925269 -0.10663616 0.006703343 0.081010826
0.09968694 -0.06269486 -0.029516926 0.0068817623 0.049492314 -0.17642394 -0.021980857 -0.07823913
-0.05853321 -0.003352637 0.018418305 0.19327776 0.13495225 0.06657753 -0.026893537 -0.07119852
0.022346232 -0.08962389 -0.029749632 0.062351923 0.01136675 -0.17636621 0.054813787 0.049447455
0.03837799 0.12202042 -0.07013401 -0.038176388 -0.039318606 -0.029123247 -0.025513967 -0.1526676
0.019721752 -0.20798105 0.071656935 -0.069039345 -0.0013500557 -0.10773409 0.01965105 -0.106490165
0.16841635 0.15665756 0.08966547 0.0031206557 0.105261914 0.11686881 -0.005102878 0.15583484
-0.00056809344 -0.003398353 -0.006893567 0.117716275 0.023280833 -0.035744824 -0.013051916 -0.054903418
0.00064224564 0.06636472 -0.023778778 -0.057477094 0.10112036 -0.19888574 0.12021095 0.07449537
0.032570727 -0.15037754 -0.04838213 0.023603026 0.045152478 0.19325168 0.07858004 -0.07595469
-0.11016274 -0.08318845 0.030761467 -0.016021525 0.065989085 -0.13649239 -0.07312885 -0.15123631
0.031912908 -0.24356869 -0.13753209 0.05929366 0.013058712 0.11864766 0.06585922 -0.04173024
-0.05774839 0.037336394 0.03207875 -0.13782513 0.05596772 -0.13371469 -0.06985012 0.120051876
-0.08221875 0.038435698 -0.008484202 0.07395855 0.07990777 -0.038466413 -0.098570056 0.2235915
-0.06629906 0.08296407 0.055092275 -0.115227655 0.05770275 -0.005347719 -0.051686525 -0.14135322
-0.015716214 -0.16034177 0.010140207 0.04759993 0.06551656 0.03373449 0.045848172 -0.034417152
-0.00997089 0.19182609 0.064146884 -0.0796557 -0.103710845 -0.028268527 -0.017868115 0.017328735
-0.088125646 -0.07448134 0.06284527 -0.13189481 -0.0026344876 -0.14926544 0.029793888 0.009088138
-0.10169266 -0.020925079 -0.013669669 0.06966053 0.08738658 -0.039424393 -0.07565806 0.18232225
0.22175714 0.09737949 0.036894698 -0.19100209 0.0442042 -0.10749378 -0.031169955 -0.026768576
-0.0010078603 -0.015523508 -0.04429133 -0.013426953 0.103114314 0.13939889 0.014428044 -0.09504723
0.122037664 -0.07697289 0.06961597 0.059575718 0.045358095 -0.10742781 0.06376634 -0.0974821
0.15475969 -0.10971279 -0.023708334 -0.05516198 0.08600739 0.114395 -0.12918147 0.09718963
0.16324481 -0.0361481 0.009717364 0.09788299 0.09268406 -0.071014225 0.04517035 -0.06644827
