src/runs/ann_left_hand/20241104/20241104-1620/ann_left_hand_3_layers_best.pth (torch, 143302 bytes, 26 tensors)

network.0.weight f4 [63, 126]
0	0xbe08d506	-0.13362512
1	0x3d590bf2	0.052989908
2	0x3e47a755	0.19497426
3	0x3e890904	0.2676469
4	0x3e1aa7d7	0.15103088
5	0x3d775e3b	0.0603926
6	0x3e051cc7	0.12999259
7	0x3ae5585b	0.0017497645
8	0x3e0c6065	0.13708647
9	0x3d8db5ac	0.06919417
10	0x3db729d7	0.08943527
11	0xbc9af64c	-0.018916272
12	0x3d50e8a7	0.051003125
13	0xbcf177f9	-0.029476153
14	0x3e165f91	0.14684893
15	0x3d97b325	0.07407216
16	0x3ba074c0	0.00489673
17	0xbbaa8eb2	-0.005204999
18	0xba73898f	-0.0009290212
19	0x3c47be80	0.012191415
20	0xbd755722	-0.05989755
21	0xbcdc40b3	-0.02688632
22	0x3d621f23	0.055205476
23	0x3d4c2f13	0.04984958
24	0x3dcdae18	0.100429714
25	0x3d218d8e	0.039441638
26	0xbd2e620f	-0.042573985
27	0xbcb78d5c	-0.022406273
28	0xbbd5c9d5	-0.0065243044
29	0x3cf3ce18	0.02976136
30	0xbd0ac81c	-0.033882245
31	0xbc20cfa9	-0.009815135
32	0xbcf56f44	-0.029960282
33	0xbd0a6985	-0.033792038
34	0xbc0aba2d	-0.008467239
35	0xbca76eca	-0.02043857
36	0xbd211681	-0.039328102
37	0xbca6cb6c	-0.020360671
38	0x3d2c07cd	0.041999627
39	0xbc7b8674	-0.01535188
40	0xbb451968	-0.0030074958
41	0xbcd35532	-0.02579746
42	0x3ebcad6e	0.36851066
43	0xbcd6391a	-0.026150275
44	0xbebbb4d7	-0.36661407
45	0xbe49411e	-0.19653746
46	0xbe0002c9	-0.12501062
47	0xbdf5535d	-0.11978791
48	0xbdd58b4c	-0.104269594
49	0xbd8bd949	-0.06828553
50	0xbd2e470b	-0.04254822
51	0xbd887636	-0.06663172
52	0xbda5aa67	-0.08089142
53	0xbda344f7	-0.079721384
54	0xbdd4003e	-0.10351609
55	0x3d9ef17c	0.07760903
56	0xbe20b91f	-0.15695618
57	0xbe1b7fa1	-0.15185405
58	0xbd8f31ef	-0.06991946
59	0x3d95d29e	0.07315563
60	0x3cea8485	0.028627643
61	0x3b7635b8	0.003756864
62	0x3be89079	0.0070973006
63	0x3d8f1057	0.069855385
64	0x3abeb896	0.001455086
65	0xbc4ea926	-0.01261357
66	0xbd82adc5	-0.063808
67	0xbc89d8be	-0.016826984
68	0xbc89d239	-0.016823875
69	0xbcdea8b3	-0.027180051
70	0xbce37d37	-0.027769668
71	0x3c44248c	0.011971604
72	0xbcfbf36a	-0.030755717
73	0xbc15b2b7	-0.009136847
74	0xbc5d238b	-0.013497244
75	0x3c8c930e	0.017159965
76	0x3b4a600f	0.003088001
77	0xbc5f51d6	-0.013630351
78	0x3c5e3c8f	0.013564243
79	0xbc8d31ae	-0.017235603
80	0x3c0cfa2a	0.008604566
81	0x3d6c41f9	0.057680104
82	0xbd17e57a	-0.03708408
83	0xbce557ea	-0.027996022
84	0x3e53f255	0.20697911
85	0xbd891bdd	-0.066947676
86	0x3d818f3d	0.06326149
87	0xbc290a89	-0.010317453
88	0xbbab8ba6	-0.0052351533
89	0x3d3aa1b2	0.04556436
90	0xbd02d670	-0.031942785
91	0xbd1f986a	-0.038963713
92	0xba4f3170	-0.000790379
93	0x3da00ce0	0.07814956
94	0xbd27be66	-0.040953062
95	0xbcdd5464	-0.02701778
96	0xbcde739b	-0.027154734
97	0x3d9d5ec7	0.07684093
98	0xbcd2568a	-0.02567603
99	0xbd627cf1	-0.055294935
100	0xbc407959	-0.011747682
101	0x3b88b7f1	0.004172318
102	0x3c61dacf	0.013785078
103	0xbd7b6d2b	-0.061383408
104	0xbcb1df3e	-0.021712895
105	0x3dcfda34	0.10149041
106	0x3c0e0060	0.008667082
107	0x3d5a1681	0.053244118
108	0xbc15db83	-0.009146574
109	0xbbc3f672	-0.0059803063
110	0x3ca7fc43	0.02050603
111	0xbd0344b8	-0.032047957
112	0xbd07b57f	-0.033132073
113	0xbc69192b	-0.014227192
114	0xbc1c6f03	-0.009547952
115	0xbc8da758	-0.01729171
116	0xbc91777a	-0.017757166
117	0xbc55377e	-0.013013719
118	0xb9dcb350	-0.00042095268
119	0x3c126d62	0.008937212
120	0xbc81f48e	-0.015863683
121	0x3c68bcfc	0.014205214
122	0x3c959f5e	0.018264469
123	0x3be6cfde	0.0070438227
124	0x3c1d29d7	0.009592495
125	0xbb3f4726	-0.0029186695
126	0x3cc2cdd8	0.023779795
127	0x3d16e87d	0.03684281
128	0xbca798ab	-0.02045854
129	0xbc0a9d71	-0.0084603885
130	0x3c83431b	0.01602321
131	0x3d8d5932	0.06901778
132	0xbda00d4a	-0.07815035
133	0xbcf080e8	-0.029358342
134	0xbcedbc0c	-0.029020332
135	0xbd3e2038	-0.046417445
136	0x3c0fea33	0.008783865
137	0xbd947bc3	-0.07250168
138	0xba044983	-0.00050463545
139	0x3cd7ad65	0.026327798
140	0xbce71de8	-0.028212503
141	0xbe0d0cb7	-0.13774382
142	0xbccaa2b0	-0.024735779
143	0xbdcc08d1	-0.09962619
144	0xbd9935c7	-0.0748096
145	0xbda0c810	-0.07850659
146	0xbc956b6b	-0.018239697
147	0x3e589b7a	0.2115306
148	0xbd9a30db	-0.0752885
149	0xbdf9c638	-0.1219601
150	0xbdd1f394	-0.10251537
151	0xbd60a070	-0.054840505
152	0x3d60b4cb	0.054859918
153	0xbd4e9cae	-0.05044239
154	0xbca430ea	-0.020042855
155	0xbd490464	-0.049076453
156	0x3e07d162	0.13263467
157	0x3d1aef57	0.03782591
158	0xbc21222d	-0.009834808
159	0xbd036349	-0.032077108
160	0x3dad8ba2	0.084738985
161	0xba77bdfd	-0.00094506127
162	0xbd53259e	-0.051549546
163	0xbc6a1cb7	-0.014289073
164	0xbd0e37b3	-0.034721088
165	0xbda20bdb	-0.079124175
166	0xbd9ea171	-0.07745636
167	0xbd283284	-0.0410638
168	0xbd11c15b	-0.03558479
169	0x3c12f819	0.008970284
170	0x3d3ccee3	0.04609574
171	0xbc5ff17e	-0.013668416
172	0x3c1bcbb0	0.009509012
173	0x3d8d0a21	0.068866976
174	0x3c9188bc	0.017765395
175	0x3ca86feb	0.02056118
176	0x3cab85f7	0.020937903
177	0x3c33360c	0.010938179
178	0x39b2eb63	0.00034126182
179	0xbbb4a178	-0.0055124126
180	0xbc19e9c9	-0.009394118
181	0xbd452fc0	-0.04814124
182	0x3d10af22	0.03532327
183	0xbc2fac7e	-0.010722278
184	0x3baee11a	0.005336893
185	0xbc5c56c1	-0.013448418
186	0xbcf3d55b	-0.029764822
187	0xbcdde0fe	-0.027084824
188	0x3ba9b6f0	0.0051792786
189	0x3e3071c3	0.17230897
190	0x3de954b5	0.1139311
191	0x3dd1a626	0.102367684
192	0xbb7016f2	-0.003663477
193	0xbb93bd12	-0.004508623
194	0xbc064994	-0.008196253
195	0x3c17372c	0.009229463
196	0x3c37e62d	0.011224312
197	0x3cb44c4e	0.022009041
198	0x3cd987c1	0.02655399
199	0xbbd6b2ab	-0.0065520606
200	0xbd68e6d0	-0.056860745
201	0x3c295b8c	0.010336768
202	0xbdba792a	-0.091051415
203	0xbd5b804d	-0.053589154
204	0xbe3de134	-0.1854294
205	0xbd4e65b5	-0.050389964
206	0xbd3766e1	-0.044775847
207	0xbdf57b28	-0.11986381
208	0xbdc71756	-0.09721248
209	0xbcebc16f	-0.02877876
210	0x3e8d865c	0.2764157
211	0xbd4b8e6c	-0.04969637
212	0xbe9b7686	-0.30363864
213	0xbe7fd75e	-0.249845
214	0xbdec9bb3	-0.11553135
215	0xbd980baa	-0.074241
216	0xbdbd861b	-0.09254094
217	0xbd0e582f	-0.034752067
218	0xbd953b8a	-0.07286747
219	0x3a05ca95	0.00051037344
220	0xbdbbcfda	-0.09170504
221	0xbdcf637a	-0.101263955
222	0xbd29bdc2	-0.041440733
223	0xbc3464d4	-0.011010367
224	0xbd057a3b	-0.03258727
225	0xbd2b2b48	-0.041789323
226	0xbcbfd7e7	-0.02341838
227	0x3cdad531	0.026712986
228	0x3d0daca9	0.03458849
229	0x3c84640b	0.016160985
230	0x37d7294b	2.5649226e-05
231	0x3e4a9519	0.19783439
232	0xbdb3be9c	-0.0877659
233	0xbe6d919a	-0.23200074
234	0xbe2832c7	-0.1642562
235	0xbdadfc21	-0.084953554
236	0xbd21794f	-0.03942233
237	0xbd8b1919	-0.067918964
238	0xbc6ac699	-0.014329576
239	0xbd013e30	-0.031553447
240	0x3d2067d5	0.039161522
241	0xbd992f31	-0.07479704
242	0xbd216212	-0.039400168
243	0xbcda786d	-0.026668752
244	0x3d8939f0	0.06700504
245	0x3cad3e69	0.021147924
246	0x3d6db399	0.058032606
247	0x3c17fde5	0.009276842
248	0x3db6ddd0	0.08929026
249	0x3dc4e30e	0.0961362
250	0x3d0606a6	0.032721184
251	0x3c86a3b7	0.016435487
252	0xbea4e74f	-0.32207724
253	0xbe279e8c	-0.16369075
254	0x3d6d4290	0.057924807
255	0x3de5f9cb	0.11229285

network.0.bias f4 [63]
0	0x3ea85488	0.32876992
1	0x3f319f85	0.6938403
2	0x3f1b2576	0.60604036
3	0x3ebb1dac	0.36546075
4	0x3eb3ba94	0.35103285
5	0x3f4a09be	0.78921115
6	0x3f126e9b	0.5720002
7	0x3f09d680	0.53842926
8	0x3ef63e4e	0.4809441
9	0x3ec0329d	0.37538615
10	0x3f177fd4	0.59179425
11	0x3f0995e9	0.5374437
12	0x3f085155	0.532491
13	0x3f0bf67c	0.5467298
14	0x3ef4850c	0.47757757
15	0x3f188053	0.5957081
16	0x3eaf5ab6	0.34248894
17	0x3e192819	0.14956702
18	0x3f057710	0.521348
19	0x3f07dea4	0.530741
20	0x3f23df73	0.6401283
21	0x3f3a1c18	0.7269912
22	0x3e7f1d87	0.24913608
23	0x3eff6d88	0.49888253
24	0x3ed17017	0.4090583
25	0x3edae2fe	0.42751306
26	0x3ea7b658	0.32756305
27	0x3ed88fa3	0.42297086
28	0x3ef7f31a	0.4842766
29	0x3ef4b431	0.47793725
30	0x3eae2c57	0.34018204
31	0x3e9038e0	0.28168392
32	0x3ea4e549	0.3220618
33	0x3efcfeb8	0.49413085
34	0x3f0e979b	0.5570008
35	0x3e96f3c6	0.2948286
36	0x3edf45df	0.43607995
37	0x3ef5ee81	0.48033527
38	0x3f0036f9	0.5008388
39	0x3e9b3a7d	0.3031806
40	0x3f005d40	0.5014229
41	0x3eee480a	0.46539336
42	0x3ebd7958	0.3700664
43	0x3ef6dd5c	0.4821576
44	0x3f0213fa	0.5081173
45	0x3f1211bc	0.5705831
46	0x3edfe3ff	0.43728635
47	0x3e948867	0.29010317
48	0x3ebefa41	0.37300304
49	0x3ec7c892	0.3902021
50	0x3f09fb4e	0.53899086
51	0x3f0bb719	0.5457626
52	0x3ea76d3a	0.3270052
53	0x3ef2ba2c	0.47407663
54	0x3f274f58	0.65355444
55	0x3ef1c85d	0.47223178
56	0x3eb91497	0.3614852
57	0x3f04e125	0.51906043
58	0x3ed17ef7	0.4091718
59	0x3f0d05d8	0.5508704
60	0x3ed32135	0.41236272
61	0x3edb518b	0.4283565
62	0x3eed111a	0.4630211

network.1.running_mean f4 [63]
0	0x3f0a2c48	0.5397382
1	0xbf0b83fe	-0.5449828
2	0x3e7eb4e2	0.24873689
3	0xbd9433fd	-0.072364785
4	0xbf96acaf	-1.1771449
5	0x3f346673	0.70468825
6	0x3eaa31f2	0.3324123
7	0x3ec36e9c	0.38170326
8	0xbdbfbdb3	-0.09362354
9	0x3f15ee04	0.5856631
10	0xbef8185c	-0.48456085
11	0xbecf551c	-0.4049462
12	0xbe3e9578	-0.18611705
13	0x3f565ce6	0.837355
14	0x3e9d9c84	0.30783474
15	0x3f34107a	0.7033764
16	0x3fcf2338	1.6182623
17	0x3f618f9b	0.8810975
18	0x3ee95ffb	0.4558104
19	0xbd4aa54d	-0.04947405
20	0x3f70835d	0.93950444
21	0x3fbe1302	1.4849551
22	0x3e6bb30f	0.23017524
23	0xbe0da348	-0.13831818
24	0x3e83edf7	0.2576749
25	0xbdb8dd15	-0.09026543
26	0x3f73e0ea	0.95265067
27	0x3f26a74e	0.65099037
28	0x3d739a59	0.05947337
29	0x3fc11672	1.5084975
30	0x3e816826	0.2527477
31	0x3f425f6a	0.7592684
32	0x3f76db05	0.9642795
33	0x3edbe2c4	0.42946446
34	0xbe3b78c9	-0.18307795
35	0x3ef0631b	0.4695061
36	0x3f15c6fc	0.5850675
37	0x3e912ee6	0.28356093
38	0x3f573860	0.84070396
39	0x3ed176e6	0.40911025
40	0xbf814833	-1.0100158
41	0x3f883408	1.0640879
42	0x3f550267	0.8320679
43	0xbe593fcc	-0.21215743
44	0x3f868d57	1.0511883
45	0x3f3286b6	0.697368
46	0x3c7a83d1	0.015290217
47	0x3fa933f8	1.3218985
48	0x3ee6fce1	0.45114806
49	0x3fb69cda	1.4266617
50	0xbeca07af	-0.39458987
51	0x3d41e79c	0.04734002
52	0x3ef930d0	0.48670053
53	0x3f0acab9	0.5421558
54	0x3f32407d	0.6962965
55	0xbe90f721	-0.28313544
56	0x3e8862d6	0.26637906
57	0x3e93fbdf	0.289031
58	0x3fbc1df7	1.4696645
59	0xbf1b6d23	-0.60713404
60	0x3eea240f	0.45730636
61	0xbeaaedfe	-0.333847
62	0xbefc9161	-0.49329665

network.1.running_var f4 [63]
0	0x3aa1e6d2	0.0012352115
1	0x3af149ed	0.0018408872
2	0x3baa3f42	0.005195529
3	0x3b62e8f0	0.0034623705
4	0x3c50dedf	0.012748449
5	0x3b9aed71	0.0047280123
6	0x3a9ffc58	0.0012205942
7	0x3b978bd2	0.004624822
8	0x3bd07856	0.0063620014
9	0x3b3cc958	0.0028806534
10	0x3b8bb926	0.004264015
11	0x3b8cbd59	0.004295033
12	0x3b218d29	0.0024650788
13	0x3b713c89	0.0036809763
14	0x3b33bee8	0.0027427021
15	0x3ba5f787	0.005064908
16	0x3be536d9	0.0069950637
17	0x3ba2856b	0.0049597523
18	0x3ad434fe	0.0016190109
19	0x3b8b4dfc	0.00425124
20	0x3b951be2	0.004550443
21	0x3bdeff73	0.0068053543
22	0x3b477cd5	0.0030439396
23	0x3b14ff10	0.0022735037
24	0x3ae662b7	0.0017577027
25	0x3b99df4a	0.0046958076
26	0x3b3db771	0.002894845
27	0x3bc64bbb	0.0060515082
28	0x3b44efb9	0.0030050112
29	0x3bc02ad0	0.0058644786
30	0x3b993041	0.0046749418
31	0x3ad5c5ba	0.0016309537
32	0x3b7c6fae	0.0038518715
33	0x3b405999	0.002935028
34	0x3b213e22	0.0024603684
35	0x3aee3e6d	0.0018176563
36	0x3b0b3d34	0.0021246197
37	0x3b9eba75	0.0048440048
38	0x3bafa529	0.005360265
39	0x3b321603	0.0027173765
40	0x3b683dbc	0.0035437187
41	0x3b22560e	0.002477053
42	0x3ad63cca	0.0016345021
43	0x3bfe3813	0.0077581494
44	0x3b227373	0.0024788051
45	0x3b6a25e0	0.0035728142
46	0x3ad42440	0.001618512
47	0x3b358855	0.0027699668
48	0x3afce62e	0.0019294673
49	0x3bebd31d	0.0071967975
50	0x3b9e6cd2	0.0048347497
51	0x3b10514b	0.002202111
52	0x3af4b6c3	0.001867019
53	0x3b5f9fcb	0.0034122344
54	0x3b75be58	0.0037497487
55	0x3b0be79b	0.0021347764
56	0x3b3f491e	0.0029187868
57	0x3b8643cc	0.0040974375
58	0x3ba06ccb	0.0048957816
59	0x3b443ef5	0.0029944752
60	0x3b339705	0.0027403247
61	0x3b0a7b64	0.0021130675
62	0x3bcc26c2	0.006230206

network.3.weight f4 [63, 63]
0	0x3c340615	0.010987778
1	0xbd85a535	-0.06525651
2	0xbd4f26fd	-0.05057429
3	0x3e3dc487	0.18532
4	0xbd293b18	-0.04131612
5	0xbe56ff84	-0.20995909
6	0x3e1f2226	0.1554037
7	0x3c8551df	0.01627439
8	0x3d8fe413	0.070259236
9	0xbde3a20d	-0.11114893
10	0x3d909f75	0.07061664
11	0xbd65b6e2	-0.056082614
12	0xbd86e9bb	-0.06587549
13	0x3e2279ae	0.1586673
14	0xbdd5e7d6	-0.1044461
15	0xbd40ded9	-0.047087524
16	0x3d85991d	0.06523345
17	0x3d380304	0.04492475
18	0x3dce5dca	0.100764826
19	0x3d7d5f3d	0.061858404
20	0xbe18feb4	-0.14940912
21	0x3dd6bff0	0.10485828
22	0xbddeccdd	-0.10878918
23	0xbe80a50e	-0.25125927
24	0x3dea8558	0.114512146
25	0x3d36c8a5	0.044624943
26	0xbdb56840	-0.08857775
27	0x3dbcdae0	0.092214346
28	0x3c5be633	0.013421583
29	0x3d814b6c	0.06313214
30	0x3cf41c83	0.029798752
31	0xbb847928	-0.0040427633
32	0xbde95975	-0.11394016
33	0x3d9388fd	0.07203863
34	0x3dd1795d	0.10228226
35	0xbdecf792	-0.11570658
36	0x3dcce2cb	0.10004195
37	0xbd1b6374	-0.037936643
38	0xbc55ca33	-0.013048696
39	0x3d629fa0	0.05532801
40	0x3dc3deac	0.09563956
41	0x3c5cc9b3	0.013475823
42	0x3c384e2c	0.011249106
43	0x3c2f7e15	0.010711213
44	0xbdf995ef	-0.12186801
45	0x3afc9284	0.0019269739
46	0x3da18e52	0.078884736
47	0xbd473f0b	-0.048644107
48	0x3dcc10c6	0.09964137
49	0x3dde9a91	0.10869325
50	0xbc60a497	-0.013711116
51	0x3d84ca5e	0.06483911
52	0xbcf9f833	-0.030513858
53	0xbca20262	-0.019776527
54	0xbe4216cc	-0.18954009
55	0xbd23e5b4	-0.040013984
56	0xbe0415ce	-0.12898943
57	0xbb8cf60a	-0.004301791
58	0xbd51c934	-0.051217273
59	0xbd5abbe5	-0.053401846
60	0xbba53fa0	-0.005042985
61	0xbdfeb996	-0.124377415
62	0xbd4eb84a	-0.05046872
63	0x3dc51e04	0.09624866
64	0x3c98f1db	0.018670013
65	0xbc1b16bf	-0.009465872
66	0xbe086841	-0.1332102
67	0x3d5c8751	0.053839985
68	0x3dc2406d	0.094849445
69	0x3d810c5a	0.06301184
70	0xbe004a3a	-0.12528315
71	0x3b32cbf2	0.0027282205
72	0x3dd908bd	0.1059737
73	0x3c125bd7	0.008933029
74	0x3c1485e6	0.009065127
75	0x3d8eb42a	0.06967957
76	0xbc073abc	-0.008253749
77	0xbc645e49	-0.013938495
78	0xbddae752	-0.10688652
79	0x3dd8d835	0.10588113
80	0x3de90b83	0.11379149
81	0xbddbe9d7	-0.10737961
82	0xbd815fd8	-0.06317109
83	0xbc823345	-0.015893588
84	0xbe599821	-0.21249439
85	0x3e26e5a3	0.16298537
86	0xbe214e4a	-0.15752521
87	0x3d297ba4	0.04137768
88	0x3db8aca9	0.09017307
89	0x3e37ea46	0.17960462
90	0xbdba87d7	-0.09107941
91	0xbd379f02	-0.044829376
92	0xbc94fb46	-0.018186223
93	0x3db8630c	0.09003267
94	0xbd8b5c6b	-0.06804737
95	0x3d628952	0.05530674
96	0xbe0aeb34	-0.13566285
97	0x3dd7ac77	0.10530942
98	0x3d9876bb	0.07444521
99	0xbd446f8f	-0.047957953
100	0xbd9c0814	-0.07618728
101	0xbc7fee64	-0.015620802
102	0x3c6b52de	0.014363019
103	0x3d5f1bbc	0.05446981
104	0xbe0cf3d1	-0.13764884
105	0x3dba25c0	0.090892315
106	0xbdae38d3	-0.08506932
107	0xbc82cff4	-0.0159683
108	0x3cd69b01	0.026196958
109	0x3d1a94e2	0.037739642
110	0xbba7cbe7	-0.0051207426
111	0x3d001ae3	0.03127564
112	0x3d234182	0.039857395
113	0xbdba1856	-0.09086673
114	0x3dd602ce	0.10449754
115	0xbc020b53	-0.00793727
116	0x3da10bc9	0.07863576
117	0xbe0ea89d	-0.13931508
118	0xbdb9b7d4	-0.090682656
119	0xbd0148d9	-0.031563614
120	0x3c62889a	0.013826514
121	0xbe9164cf	-0.28397223
122	0x3e3b8773	0.18313389
123	0xbdb99c17	-0.09062975
124	0xbd98c6c3	-0.07459786
125	0xbc44d038	-0.012012534
126	0xbd0a19a1	-0.033715848
127	0x3d68697c	0.056741223
128	0xbced0f01	-0.028937818
129	0x3d48bf2f	0.049010452
130	0xbddb2c8d	-0.10701857
131	0x3d28fd4d	0.04125719
132	0xbb7e9256	-0.0038844547
133	0xbde9f9ee	-0.114246234
134	0x3d73bf31	0.059508506
135	0xbe46ce49	-0.19414629
136	0xbc9ef610	-0.019404441
137	0xbd0c0ab6	-0.034189902
138	0x3d569de9	0.05239669
139	0x3d9bd788	0.07609469
140	0x3d95fe39	0.0732388
141	0x3e261707	0.16219722
142	0xbd928021	-0.07153345
143	0xbd51cb6e	-0.051219396
144	0x3c6af8a7	0.01434151
145	0x3cb38eb7	0.021918638
146	0x3c86073b	0.01636087
147	0x3e135be8	0.14390528
148	0x3dc6246f	0.09674918
149	0xbe2467a0	-0.16055155
150	0x3d85b886	0.06529336
151	0xbd773be6	-0.060359858
152	0x3e53c2a1	0.20679714
153	0xbda672bd	-0.08127353
154	0xbb81df86	-0.0039634136
155	0x3e3ba636	0.18325123
156	0xbe0405eb	-0.12892883
157	0xbce88b58	-0.028386757
158	0xbbb87931	-0.0056296815
159	0xbe33c58b	-0.17555825
160	0xbe892c47	-0.26791593
161	0x3cc1d0b4	0.023659088
162	0x3c5c0e26	0.013431108
163	0x3d61f7a3	0.055167805
164	0x3d8dc4be	0.06922291
165	0x3d212848	0.039345056
166	0x3c66dce7	0.014090753
167	0xbd241e08	-0.040067703
168	0x3cfb50e2	0.030678216
169	0xbce69859	-0.028148817
170	0x3d65cc9a	0.056103326
171	0x3dfba954	0.12288156
172	0x3d8c917b	0.06863686
173	0x3dc2b54a	0.095072344
174	0x3d913ede	0.07092069
175	0xbcbe4eaa	-0.02323087
176	0xbd4f547f	-0.05061769
177	0x3e18c353	0.1491826
178	0xbd3cf09d	-0.046127904
179	0xbb3f4845	-0.0029187363
180	0xbdd4cd67	-0.1039074
181	0xbdad06a4	-0.08448532
182	0xbdc44f27	-0.095854096
183	0xbc2a74a0	-0.010403782
184	0xbd5b7c17	-0.05358514
185	0xbdb09525	-0.08622197
186	0x3d66576d	0.05623572
187	0x3dd100a2	0.10205199
188	0xbc808413	-0.015687978
189	0xbb423480	-0.0029633343
190	0xbdd46093	-0.103699826
191	0xbde43680	-0.111432076
192	0xbd870666	-0.06593017
193	0x3e0d06f8	0.1377219
194	0x3b2db415	0.0026505042
195	0xbde0d66d	-0.109783985
196	0xbd23eb5b	-0.040019374
197	0x3ce5fc5e	0.02807444
198	0x3cb4ba62	0.02206153
199	0x3e12e6e2	0.14345887
200	0xbd2e149f	-0.042500135
201	0xbd0926d0	-0.03348428
202	0xbd8b6e3c	-0.06808135
203	0xbe13434a	-0.14381137
204	0xbe7cffd1	-0.24706961
205	0xb7d1bf5b	-2.5003848e-05
206	0xbd8f532d	-0.069982864
207	0x3d4cce91	0.050001685
208	0x3dbf4b6b	0.09340557
209	0x3cb44e23	0.022009915
210	0x3d89c412	0.067268506
211	0xbda1bf03	-0.07897761
212	0x3ca3a530	0.019976228
213	0xbd31199e	-0.04323732
214	0xbddcc087	-0.10778909
215	0x3d880f41	0.066435345
216	0x3b701306	0.0036632433
217	0x3e028da8	0.1274935
218	0xbe0bdd7b	-0.13658707
219	0x3d3d79a4	0.046258584
220	0x3b50288f	0.0031762456
221	0x3c2c02ac	0.010498684
222	0xbd7f4cf8	-0.062329262
223	0x3cb79cc6	0.022413623
224	0x3d0605ff	0.032720562
225	0xbe168188	-0.1469785
226	0xbca27934	-0.019833185
227	0xbc956078	-0.018234476
228	0x3dbf76f2	0.09348859
229	0x3e1e0750	0.15432477
230	0xbdb890f7	-0.09012025
231	0xbe01e448	-0.12684739
232	0x3d9c3ec4	0.07629159
233	0x3ddfb4af	0.109231345
234	0xbd810e5c	-0.06301567
235	0x3d84e4b9	0.06488938
236	0x3cc42877	0.023945076
237	0xbe4ba008	-0.19885266
238	0x3c57d331	0.013172911
239	0xbdbd5f84	-0.09246734
240	0xbbd2f67d	-0.006438075
241	0x3ca50a85	0.020146618
242	0xbd971581	-0.073771484
243	0x3e03ce34	0.12871629
244	0x3d15007f	0.036377426
245	0x3cd353fb	0.025796881
246	0xbe024d9f	-0.12724923
247	0xbed6ce89	-0.4195445
248	0x3b302367	0.002687657
249	0x3df76b52	0.120810166
250	0xbdd4e319	-0.10394878
251	0x3dc96494	0.09833637
252	0x3c9251ec	0.017861329
253	0xbd2bcd81	-0.04194403
254	0x3d3deb83	0.04636718
255	0xbe63be5f	-0.2224059

network.3.bias f4 [63]
0	0x3efb2fc5	0.49059883
1	0x3eff1fb3	0.49828872
2	0x3efed1fd	0.49769583
3	0x3efef453	0.4979578
4	0x3eff4d79	0.49863794
5	0x3f018dbf	0.5060691
6	0x3eff087e	0.49811167
7	0x3efc92e7	0.49330828
8	0x3effbef3	0.4995037
9	0x3f0100dd	0.5039194
10	0x3efddbc1	0.4958172
11	0x3eff8567	0.49906465
12	0x3eff476a	0.49859172
13	0x3f010299	0.5039459
14	0x3f00bb6d	0.5028599
15	0x3efee7f4	0.4978634
16	0x3efc8725	0.49321857
17	0x3f0162b0	0.5054121
18	0x3f014671	0.5049811
19	0x3efe556c	0.49674547
20	0x3f008df1	0.50216585
21	0x3effd932	0.49970394
22	0x3efecea5	0.49767032
23	0x3eff7dbe	0.4990062
24	0x3effe3f8	0.49978614
25	0x3f002887	0.5006184
26	0x3f00205f	0.50049394
27	0x3efe2ca5	0.49643436
28	0x3efeccb6	0.49765557
29	0x3f00a0c7	0.50245327
30	0x3efefd8e	0.49802822
31	0x3eff7d83	0.49900445
32	0x3f01806c	0.5058658
33	0x3efd4f5c	0.4947461
34	0x3efd97c9	0.49529865
35	0x3f0012c6	0.50028646
36	0x3efd19be	0.49433702
37	0x3efef613	0.49797115
38	0x3f04d66b	0.51889676
39	0x3efd89d3	0.49519214
40	0x3eff087b	0.49811158
41	0x3efd5b9a	0.4948395
42	0x3efd7ee6	0.49510878
43	0x3f0179fb	0.5057675
44	0x3effa053	0.49927005
45	0x3efeac3c	0.4974078
46	0x3efd3474	0.4945408
47	0x3f0205ca	0.50790083
48	0x3efec56a	0.4975999
49	0x3eff690d	0.49884835
50	0x3f00149b	0.5003144
51	0x3eff36ce	0.498465
52	0x3eff1591	0.4982114
53	0x3f08afc7	0.53393215
54	0x3f015f17	0.5053572
55	0x3f007fae	0.50194824
56	0x3f03bd35	0.5146058
57	0x3eff9e8a	0.49925643
58	0x3efe3411	0.496491
59	0x3f0147ad	0.50499994
60	0x3f007bc6	0.50188863
61	0x3efafaa0	0.49019337
62	0x3efc8db4	0.4932686

network.4.running_mean f4 [63]
0	0x3ee15fef	0.44018504
1	0x3ee1ed7a	0.44126493
2	0x3efe5f63	0.4968215
3	0x3e9e3624	0.3090068
4	0x3e5f640a	0.21815506
5	0x3ea5670f	0.3230519
6	0x3eb172b1	0.34657815
7	0x3e84d2c6	0.25942057
8	0x3d85d4bb	0.06534716
9	0x3f192441	0.59820944
10	0x3f0c2019	0.5473648
11	0x3e835c5b	0.256564
12	0x3ed7da2d	0.42158642
13	0x3f141955	0.57851154
14	0x3f4a102f	0.78930944
15	0x3f068154	0.5254109
16	0x3ef4ad15	0.477883
17	0x3f119ebb	0.5688283
18	0x3ef7f9c5	0.48432747
19	0x3f0645c9	0.52450234
20	0x3ed8bb0a	0.423302
21	0x3ede0205	0.43360916
22	0x3e99df3e	0.30053133
23	0x3e956b8f	0.29183623
24	0x3ed9949d	0.42496195
25	0x3ea9e9de	0.3318624
26	0x3eb8842d	0.36038342
27	0x3ec122cc	0.3772186
28	0x3e80f5c0	0.25187492
29	0x3eaed083	0.34143457
30	0x3ec1272b	0.37725195
31	0x3e6d1ff9	0.23156728
32	0x3f0b61f8	0.54446363
33	0x3ead16e3	0.33806524
34	0x3eb6c56c	0.35697496
35	0x3efe3b14	0.49654448
36	0x3ee3e780	0.44512558
37	0x3f0d0556	0.55086267
38	0x3ef7f70e	0.48430675
39	0x3f0baf8b	0.5456473
40	0x3e6bed86	0.23039827
41	0x3ea0e238	0.3142259
42	0x3e8f6664	0.28007805
43	0x3f23fcdf	0.64057726
44	0x3ea03a67	0.31294557
45	0x3f27b794	0.65514493
46	0x3ee40e2c	0.44542062
47	0x3f3488a4	0.70521
48	0x3ec0e27c	0.37672794
49	0x3e33ac9d	0.17546315
50	0x3ed6bfcf	0.41943213
51	0x3ecbd76a	0.39812785
52	0x3ec7d9f7	0.3903348
53	0x3f11b7f6	0.5692133
54	0x3ee8b0d8	0.4544742
55	0x3f42aba0	0.7604313
56	0x3f0a34b7	0.53986686
57	0x3f21a60c	0.6314399
58	0x3eec4cb3	0.46152267
59	0x3f173a04	0.590729
60	0x3ee61c41	0.4494343
61	0x3eb34143	0.35010728
62	0x3ebf790b	0.37397036

network.4.running_var f4 [63]
0	0x3e16a187	0.14710055
1	0x3e2680c8	0.16260064
2	0x3de4c97b	0.11171242
3	0x3e23a0b0	0.15979266
4	0x3ec5fe32	0.38670498
5	0x3d4e0d0f	0.050305422
6	0x3e691949	0.22763552
7	0x3de1206b	0.10992511
8	0x3e6a8855	0.22903569
9	0x3dcebb0e	0.100942716
10	0x3d9a2d89	0.075282164
11	0x3e8d6801	0.2761841
12	0x3d5136dd	0.051077712
13	0x3d4e3bfb	0.05035017
14	0x3ebce1a2	0.36890894
15	0x3d839302	0.06424524
16	0x3df9ddb7	0.12200492
17	0x3e139e0a	0.14415756
18	0x3dd5f354	0.10446802
19	0x3e3bbe7b	0.18334381
20	0x3dc1a5ef	0.094554774
21	0x3e7aea74	0.245035
22	0x3de7e45b	0.11322852
23	0x3e687756	0.22701773
24	0x3e14ef69	0.14544453
25	0x3e060b9b	0.13090365
26	0x3e8ad1a4	0.27113068
27	0x3e68e065	0.2274185
28	0x3e1c027e	0.15235326
29	0x3d99729f	0.07492565
30	0x3e20d0de	0.15704677
31	0x3dc39fef	0.09551989
32	0x3e000f59	0.12505855
33	0x3e067624	0.13131005
34	0x3e6141b7	0.21997724
35	0x3ec87559	0.3915203
36	0x3e2e56c0	0.1702528
37	0x3d8ae3e0	0.06781745
38	0x3e84a271	0.25905183
39	0x3e2d484d	0.16922112
40	0x3e494532	0.19655302
41	0x3e1ffbec	0.15623444
42	0x3e45e30b	0.19324891
43	0x3ef2a77e	0.4739341
44	0x3e10ce6c	0.14141244
45	0x3e3ca663	0.18422846
46	0x3d73e607	0.059545543
47	0x3e8d0750	0.27544641
48	0x3e0c0628	0.13674223
49	0x3e5ff683	0.2187138
50	0x3e5cde21	0.2156911
51	0x3e43997c	0.19101518
52	0x3dc8d3c6	0.098060176
53	0x3e8b1521	0.27164558
54	0x3e2bfc88	0.16795552
55	0x3e9182c5	0.28420082
56	0x3ee9f575	0.4569508
57	0x3e5bfe4a	0.21483722
58	0x3e74d2ac	0.2390849
59	0x3da9bdba	0.082881406
60	0x3e976219	0.2956703
61	0x3e162d7d	0.1466579
62	0x3df415d0	0.11918223

network.6.weight f4 [63, 63]
0	0xbcb1662a	-0.021655161
1	0xbe028552	-0.1274617
2	0x3b89fd3e	0.004211097
3	0x3d403f96	0.04693564
4	0x3e0b876e	0.13625881
5	0xbc0e7eaf	-0.008697196
6	0x3ba7400d	0.005104071
7	0x3e0b80d5	0.13623364
8	0xbe0a37aa	-0.13497797
9	0x3da4bc4b	0.080437265
10	0xbe22c4b3	-0.15895347
11	0xbe206ba8	-0.15666068
12	0x3cb8e6bf	0.022570966
13	0xbcf0d7a3	-0.029399699
14	0x3c9166ce	0.017749216
15	0x3ddb822c	0.10718188
16	0xbe134f11	-0.1438563
17	0x3e1cd625	0.15316065
18	0xbd6c5498	-0.057697862
19	0xbc596ad0	-0.013270095
20	0xbc1301f3	-0.008972633
21	0xbe52b366	-0.20576248
22	0xbdcfb7cb	-0.101424776
23	0x3e268d54	0.1626485
24	0xbdcb4c99	-0.09926719
25	0xbdff7623	-0.12473705
26	0xbd46c1f9	-0.04852483
27	0x3c4ce077	0.012504688
28	0xbd7c9c1a	-0.061672308
29	0xbda1c57e	-0.07898997
30	0x3c490da5	0.0122713195
31	0x3ddec90c	0.108781904
32	0xbd51a6c7	-0.051184442
33	0xbcc7cf83	-0.024390941
34	0xbd038920	-0.032113194
35	0xbe13a40f	-0.14418052
36	0x3d94f48c	0.07273206
37	0x3da10045	0.078613795
38	0xbdd7f3c8	-0.105445445
39	0x3c3d7ae1	0.011564941
40	0x3cabcb68	0.020971015
41	0xbdf46afd	-0.11934469
42	0x3e387893	0.18014745
43	0xbb801201	-0.0039083962
44	0x3d436f55	0.047713596
45	0x3daa3f99	0.083129115
46	0xbd3ad918	-0.045617193
47	0x3dbdca38	0.09267086
48	0x3e440c4c	0.19145316
49	0x3d3e5fb8	0.046478003
50	0xbc95ac21	-0.018270554
51	0xbd6310ed	-0.055436064
52	0x3cdd99af	0.027050821
53	0xbd525573	-0.051351022
54	0xbdbe0b7e	-0.09279536
55	0xbe18df84	-0.14929014
56	0x3bccaa1b	0.006245864
57	0xbd1258d3	-0.03572924
58	0x3da62792	0.08113016
59	0xbd8fe2c6	-0.070256755
60	0xbbdcb27c	-0.006735144
61	0x3bf0b742	0.007346065
62	0x3dc6c635	0.09705774
63	0x3db8c3bb	0.090217076
64	0xbdaa62dc	-0.08319637
65	0x3dcd937c	0.10037896
66	0xbd52af02	-0.05143643
67	0x3c538072	0.012909042
68	0x3dd4f909	0.10399062
69	0x3d797701	0.060904507
70	0x3d7de810	0.06198889
71	0x3dec9ec4	0.1155372
72	0x3dcd16e8	0.10014135
73	0xbd9494ad	-0.0725492
74	0xb9d358db	-0.0004031126
75	0x3da1bea1	0.07897688
76	0x3cfc7a71	0.030820103
77	0xbdd0578e	-0.1017295
78	0xbde6e37d	-0.11273859
79	0x3d001034	0.031265453
80	0x3dd39837	0.10331767
81	0xbdfb7b3c	-0.122793645
82	0xbcbb4f80	-0.022865057
83	0xbbe58fba	-0.007005659
84	0x3d8f8203	0.0700722
85	0x3e489a84	0.19590193
86	0x3dc5278e	0.09626685
87	0x3dce5ce0	0.10076308
88	0xbca7a591	-0.02046469
89	0xbe1c602b	-0.1527106
90	0x3d680745	0.056647558
91	0xbb8b276c	-0.004246643
92	0xbd21e35e	-0.039523475
93	0x3cfe6ed8	0.031058714
94	0x3c48929a	0.012241984
95	0x3d83db39	0.06438298
96	0xbd733bb2	-0.0593831
97	0x3dcb1a7a	0.099171594
98	0xbd5c2f24	-0.053755894
99	0xbdad2978	-0.08455175
100	0x3debe59d	0.11518405
101	0xbd364fbc	-0.044509634
102	0x3c9623ee	0.01832768
103	0xbe6a1f96	-0.22863612
104	0x3d55e4f9	0.05222032
105	0x3d90a9ee	0.070636615
106	0x3daf507e	0.085602745
107	0x3cc95f6a	0.02458163
108	0xbe2bb2df	-0.16767453
109	0xbcc412a0	-0.023934662
110	0x3d964b51	0.07338584
111	0x3e873b90	0.2641263
112	0x3d567b27	0.05236354
113	0xbd424db6	-0.047437392
114	0x3e30404c	0.17212027
115	0x3be82cb7	0.0070854085
116	0xbb882fa1	-0.0041560684
117	0x3cdaf583	0.026728397
118	0xbe071190	-0.13190293
119	0x3e1b5305	0.15168388
120	0xbabc4929	-0.0014365065
121	0xbd246c01	-0.040142063
122	0x3d354435	0.0442545
123	0x3d3a35cf	0.045461472
124	0xbce7427e	-0.028229948
125	0xbe4ab905	-0.19797142
126	0xbd25c77e	-0.040473454
127	0xbd9c9585	-0.07645706
128	0xbe3702d2	-0.1787217
129	0xbd053445	-0.03252055
130	0x3e18bcea	0.14915815
131	0x3ce1ab83	0.027547603
132	0x3e055086	0.13018999
133	0xbd7eec94	-0.062237337
134	0xbd70d8c4	-0.058800474
135	0xbca31c92	-0.019911084
136	0xbd6928f8	-0.056923836
137	0xbc857274	-0.016289927
138	0x3d1d6caf	0.038433727
139	0xbdd4dbdb	-0.103934966
140	0x3caea048	0.021316662
141	0x3c6810dd	0.014164177
142	0xbd63b8c0	-0.055596113
143	0x3d781551	0.060567204
144	0xbc5668fe	-0.0130865555
145	0x3e084615	0.13307984
146	0x3c47f9ad	0.012205523
147	0x3cd65d83	0.026167637
148	0xbdb80352	-0.08985008
149	0xbccb9a15	-0.024853745
150	0xbe2d0202	-0.16895297
151	0x3e01e7fd	0.12686153
152	0x3d97c56c	0.07410702
153	0xbe0c744e	-0.13716242
154	0x3d10ce8c	0.03535323
155	0xbd1631bd	-0.036668528
156	0xbd0a8bf7	-0.033824887
157	0xbdf2d4c6	-0.118569896
158	0xbda3b8c7	-0.07994228
159	0x3d3f513e	0.046708338
160	0x3ca704cd	0.020388031
161	0xbe251f00	-0.16125107
162	0x3c98b965	0.01864309
163	0x3cff7e47	0.031188143
164	0xbd5b6052	-0.053558655
165	0x3d4d68f0	0.050148904
166	0x3c87ee69	0.016593175
167	0x3e022934	0.1271103
168	0xbe0d2f6d	-0.13787623
169	0x3c76d28b	0.015064846
170	0x3d9cb985	0.076525725
171	0xbd67bd76	-0.05657717
172	0x3d4a527f	0.04939508
173	0xbdcefbc7	-0.101066165
174	0xbdf8f769	-0.12156565
175	0x3d18c89a	0.037300684
176	0xbd4e12fa	-0.050311066
177	0xbe0a250a	-0.13490692
178	0x3d57a42e	0.05264681
179	0xbce24a66	-0.027623367
180	0x3e2fc193	0.17163686
181	0xbd3cf96b	-0.0461363
182	0xbdbd29f7	-0.0923652
183	0x3e2e31f9	0.1701125
184	0xbde93c02	-0.11388399
185	0x3b52f296	0.003218805
186	0x3e04f0ed	0.12982531
187	0x3d67b8c3	0.056572687
188	0x3b2e61b6	0.0026608533
189	0x3c230703	0.009950402
190	0xbe57b74e	-0.21066019
191	0x3caba2d7	0.020951672
192	0x3d3cad8e	0.046063952
193	0xbd023f5d	-0.03179871
194	0x3e1a2035	0.15051349
195	0x3c5a2b19	0.013315939
196	0x3d8455f8	0.0646171
197	0xbe13ddd6	-0.14440092
198	0x3db538e4	0.08848742
199	0xbda33853	-0.07969727
200	0x3bd450bd	0.0064793513
201	0x3c200ec3	0.0097691445
202	0x3dd2e637	0.10297816
203	0x3cf74473	0.030184006
204	0xbd0156ea	-0.03157703
205	0x3e630929	0.22171463
206	0x3e5de786	0.2167035
207	0x3dfb31e1	0.12265373
208	0xbd84c502	-0.06482889
209	0x3d241321	0.040057305
210	0x3cbe55d7	0.023234291
211	0x3dc3d6fa	0.09562488
212	0x3e38caa9	0.18046059
213	0x3ddee833	0.10884132
214	0x3d169869	0.036766443
215	0xbd582d1d	-0.0527774
216	0xbe45c5fe	-0.1931381
217	0x3dbe9f05	0.09307674
218	0xbd469bf9	-0.04848859
219	0x3d40f509	0.047108684
220	0x3e168ffe	0.14703366
221	0x3d1d62b8	0.038424224
222	0x3d25ea67	0.040506747
223	0xbe52ae16	-0.20574221
224	0x3a90a00c	0.0011034026
225	0xbd590065	-0.052978892
226	0x3de1f008	0.110321105
227	0xbe391f07	-0.18078242
228	0x3d55b1be	0.05217146
229	0xbd6faf80	-0.05851698
230	0xbddab2fa	-0.10678668
231	0xbdc90ecf	-0.09817278
232	0x3d67931b	0.056536775
233	0xbcaa29a3	-0.020771807
234	0xbd8a7947	-0.06761413
235	0xbc1f7bd5	-0.009734114
236	0xbd02ec8a	-0.031963862
237	0xbe140584	-0.14455229
238	0x3d99abb3	0.07503452
239	0xbd1cf4b1	-0.038319293
240	0x3d8f5971	0.069994815
241	0x3c9d5252	0.019204292
242	0x3ca2200e	0.019790675
243	0x3ab9d820	0.001417879
244	0x3e45e6a6	0.19326267
245	0xbd5818e5	-0.052758116
246	0x3b929d0a	0.004474287
247	0xbca93745	-0.020656237
248	0xbd0afe88	-0.033934146
249	0xbd11f039	-0.035629485
250	0x3d9d9211	0.076938756
251	0x3cb263ec	0.021776162
252	0xbdd9572f	-0.10612332
253	0x3d47149f	0.04860365
254	0x3d4d09c3	0.050058138
255	0x3b1041d5	0.0022011895

network.6.bias f4 [63]
0	0x3eff7512	0.49894005
1	0x3f02a63f	0.5103492
2	0x3efe256c	0.49637926
3	0x3efdba14	0.4955603
4	0x3f1722de	0.5903758
5	0x3ef4f4eb	0.47843108
6	0x3f00764d	0.5018051
7	0x3efdcbfe	0.49569696
8	0x3f00cf3f	0.5031623
9	0x3eff097b	0.4981192
10	0x3f045e47	0.51706356
11	0x3efe75a1	0.4969912
12	0x3ef6d7de	0.4821157
13	0x3f028c5b	0.50995415
14	0x3f050829	0.51965576
15	0x3effd2fd	0.4996566
16	0x3efd04c3	0.49417695
17	0x3f03a6df	0.514265
18	0x3efe7715	0.49700227
19	0x3f01283e	0.5045203
20	0x3efebe9c	0.49754798
21	0x3f02bb8f	0.5106744
22	0x3f003e3a	0.5009495
23	0x3efdc86c	0.49566972
24	0x3f021606	0.50814855
25	0x3f001229	0.5002771
26	0x3eff29fb	0.49836716
27	0x3efa01fb	0.48829636
28	0x3efefa35	0.49800268
29	0x3efe2a0b	0.4964145
30	0x3f00a47f	0.50251
31	0x3f00170d	0.5003517
32	0x3f06e8b8	0.5269885
33	0x3f002b8d	0.50066453
34	0x3f00afa0	0.5026798
35	0x3eff36bb	0.49846444
36	0x3efb8a8e	0.49129146
37	0x3efe0bc5	0.49618354
38	0x3f008d81	0.5021592
39	0x3eff6bfc	0.49887073
40	0x3f051be8	0.51995707
41	0x3ef7758f	0.48331878
42	0x3efc2e36	0.49254006
43	0x3f00bb22	0.5028554
44	0x3f0328bc	0.5123403
45	0x3eff6cce	0.498877
46	0x3f00634a	0.50151503
47	0x3f017074	0.50562215
48	0x3eff909a	0.4991501
49	0x3efcd527	0.49381372
50	0x3f00040a	0.50006163
51	0x3f00fca3	0.50385493
52	0x3eff1dcb	0.49827418
53	0x3efbe080	0.49194717
54	0x3efb2062	0.49048144
55	0x3f010356	0.50395715
56	0x3ef9a624	0.48759568
57	0x3f006950	0.50160694
58	0x3efbe564	0.4919845
59	0x3f00ccc4	0.5031245
60	0x3f005506	0.50129735
61	0x3eff5fd4	0.498778
62	0x3efe3816	0.49652165

network.7.running_mean f4 [63]
0	0x3ec6a61a	0.387986
1	0x3f20247c	0.6255567
2	0x3edcc336	0.43117684
3	0x3f1e3758	0.618032
4	0x3f2b1dac	0.6684215
5	0x3ee2bad3	0.4428316
6	0x3ea04dc9	0.31309345
7	0x3f515703	0.81773394
8	0x3e597058	0.21234262
9	0x3ed404a6	0.41409796
10	0x3ee5a4d4	0.44852316
11	0x3eebcfae	0.46056885
12	0x3ea723b3	0.32644424
13	0x3f10e790	0.56603336
14	0x3efb5cc8	0.49094224
15	0x3f158873	0.5841133
16	0x3f1e1f17	0.6176619
17	0x3eafc72b	0.3433164
18	0x3eb31301	0.34975436
19	0x3f3cd403	0.73761004
20	0x3ed49d8c	0.4152645
21	0x3ef5664f	0.47929618
22	0x3f156475	0.5835641
23	0x3f0ab3ea	0.5418078
24	0x3f3939f2	0.7235404
25	0x3eddd71e	0.43328184
26	0x3e43d657	0.19124733
27	0x3efd57f7	0.49481174
28	0x3eca1f1c	0.3947686
29	0x3eb9ca6a	0.36287242
30	0x3f165460	0.58722496
31	0x3f63630a	0.88822997
32	0x3ec6cdc9	0.38828877
33	0x3eeb4fb6	0.45959252
34	0x3ea228c1	0.31671718
35	0x3f136231	0.57571703
36	0x3f225082	0.63404095
37	0x3ee4b5d5	0.44669977
38	0x3f01f9f3	0.5077202
39	0x3e56e70e	0.20986578
40	0x3f06976a	0.5257479
41	0x3edc1352	0.4298349
42	0x3f1267c4	0.57189584
43	0x3f4339f6	0.76260316
44	0x3f064ba9	0.524592
45	0x3f0eee61	0.5583249
46	0x3f291162	0.6604215
47	0x3ecde950	0.40217066
48	0x3edf12ab	0.4356893
49	0x3ec6cfb3	0.38830337
50	0x3ef7f3dc	0.48428237
51	0x3f3db2b9	0.74100834
52	0x3ea5aae7	0.3235695
53	0x3f53fefe	0.8281096
54	0x3f2be371	0.67143923
55	0x3eedbd63	0.46433553
56	0x3eff972e	0.49920028
57	0x3f051c22	0.5199605
58	0x3eca70d5	0.3953921
59	0x3f0bd8a3	0.54627436
60	0x3ea1c9e2	0.31599337
61	0x3e8fb99a	0.2807129
62	0x3f2e8c94	0.68183255

network.7.running_var f4 [63]
0	0x3daf46a8	0.085583985
1	0x3e13eba6	0.14445361
2	0x3e4f34f6	0.20235047
3	0x3e69d0ff	0.22833632
4	0x3f956e05	1.16742
5	0x3d32cc34	0.043651775
6	0x3d7f180e	0.0622788
7	0x3e011d78	0.12608898
8	0x3e5c2b3b	0.21500866
9	0x3e0b4063	0.1359878
10	0x3e8d063e	0.27543825
11	0x3e050e9e	0.12993857
12	0x3df3d9ad	0.11906753
13	0x3e27b110	0.16376138
14	0x3ec1f0bb	0.37878975
15	0x3ea795b3	0.327314
16	0x3e89e9c9	0.26936176
17	0x3d089da8	0.033353478
18	0x3e87ca4d	0.2652153
19	0x3d88b77a	0.066756204
20	0x3e0dd028	0.13848937
21	0x3f5102ec	0.81645083
22	0x3e5092c8	0.20368493
23	0x3da6404c	0.081177324
24	0x3dfb2b49	0.12264115
25	0x3e6d9ea7	0.23205052
26	0x3e157820	0.14596605
27	0x3d716e24	0.05894293
28	0x3e00bbfe	0.12571713
29	0x3dd78c25	0.10524777
30	0x3e205871	0.15658738
31	0x3e64cda4	0.2234407
32	0x3f61396e	0.87978256
33	0x3dc072dd	0.093969084
34	0x3dbb1b35	0.09136049
35	0x3e0219a3	0.12705092
36	0x3e220e51	0.15825774
37	0x3dc00919	0.09376735
38	0x3e93e267	0.2888367
39	0x3d98f57e	0.07468699
40	0x3cf342a5	0.029694865
41	0x3d4bde23	0.049772393
42	0x3e2024ad	0.1563899
43	0x3ddb49f5	0.107074656
44	0x3ee3d2ce	0.4449677
45	0x3e42305c	0.1896376
46	0x3deacc30	0.11464727
47	0x3e8ae64c	0.27128828
48	0x3ed2f586	0.41202945
49	0x3e640c42	0.22270301
50	0x3e010b58	0.12601984
51	0x3e617dc9	0.2202064
52	0x3dc67b5e	0.09691499
53	0x3e2c92f4	0.16852933
54	0x3e31d16a	0.17365041
55	0x3d43584e	0.047691636
56	0x3e2b248a	0.16713157
57	0x3dc7f859	0.097641654
58	0x3df53c66	0.11974411
59	0x3e501f68	0.2032448
60	0x3e0d4222	0.13794759
61	0x3e3fbec0	0.18725109
62	0x3e1a9572	0.15096071

network.9.weight f4 [63, 63]
0	0x3ca7d918	0.02048926
1	0x3c008880	0.007845044
2	0xbcd37435	-0.025812248
3	0xbdf863a7	-0.12128382
4	0x3d1242e1	0.035708312
5	0xbc051986	-0.008123761
6	0x3bbb489a	0.005715442
7	0xbd757980	-0.059930325
8	0xbd93e959	-0.07222242
9	0x3dabd8e1	0.08390976
10	0x3df9ce31	0.12197531
11	0xbc2f3f8a	-0.010696301
12	0x3e30cdb5	0.17265971
13	0xbb19c4a3	-0.0023463152
14	0x3c8b8996	0.01703338
15	0x3e0b1509	0.13582243
16	0xbc05c267	-0.008164025
17	0xbbe4c086	-0.0069809584
18	0xbdfab439	-0.12241406
19	0x3d86230f	0.06549656
20	0x3d3728e5	0.044716734
21	0xbd8b00a1	-0.06787229
22	0xbe39cd4d	-0.18144722
23	0x3bb9f1d5	0.0056745806
24	0x3d93df23	0.07220294
25	0xbe2ae8e7	-0.16690408
26	0xbdacb6aa	-0.08433278
27	0x3dead0bb	0.114655934
28	0xbd75f328	-0.060046345
29	0x3c72235b	0.014778937
30	0xbd1cbe6e	-0.038267545
31	0x3df4be24	0.11950329
32	0xbd2dd45f	-0.04243886
33	0xbce14441	-0.027498366
34	0xbda3676d	-0.07978711
35	0xbe35ca4f	-0.17752956
36	0xbe1b9c42	-0.15196326
37	0x3d8a060a	0.06739433
38	0xbdc47ada	-0.095937446
39	0xbdce687c	-0.100785226
40	0xbd519d10	-0.051175177
41	0x3ddecb84	0.10878661
42	0x3d8e6b52	0.069540635
43	0x3d17193c	0.0368893
44	0x3ca9e851	0.02074066
45	0xbd24c12b	-0.04022328
46	0xbd341b10	-0.04397112
47	0x3e0b3738	0.13595283
48	0xbe2d85a0	-0.16945505
49	0x3e127091	0.14300753
50	0x3b752199	0.003740406
51	0xbd48b647	-0.04900196
52	0x3e0e0b99	0.13871612
53	0x3dab64cc	0.08368835
54	0x3dc37921	0.09544588
55	0xbdb4272a	-0.087965325
56	0x3e559d9f	0.20860909
57	0xbd415002	-0.047195442
58	0xbb3bb7f9	-0.0028643592
59	0xbc12b3f2	-0.008954035
60	0xbcac9915	-0.021069089
61	0x3e308f4a	0.1724216
62	0xbd5292fe	-0.051409714
63	0x3d10b7a2	0.035331376
64	0x3d81fede	0.0634744
65	0x3de8dc03	0.11370089
66	0x3ce98a37	0.028508289
67	0xbdc985b7	-0.09839957
68	0xbda66034	-0.08123818
69	0xbd14aca1	-0.036297444
70	0x3dbf8659	0.09351797
71	0xbe23456b	-0.1594445
72	0xbd528121	-0.05139268
73	0xbd8b0a8f	-0.06789123
74	0xbdb32cb2	-0.08748759
75	0xbd7314d2	-0.059346028
76	0xbd2b207f	-0.041779038
77	0xbe3a9f98	-0.18224943
78	0xbce881de	-0.028382238
79	0x3cbb1d74	0.022841193
80	0x3e242193	0.16028433
81	0xbe1bdb7b	-0.15220444
82	0x3c441ff2	0.011970507
83	0x3dc056e3	0.09391572
84	0xbda7d1f4	-0.08194342
85	0xbc02a585	-0.007974033
86	0x3dac284b	0.08406123
87	0xbd520292	-0.051271982
88	0xbdb0ce8a	-0.08633144
89	0x3e1723ea	0.14759794
90	0xbd332573	-0.043736886
91	0x3dd17229	0.102268524
92	0xbdf8ede7	-0.12154751
93	0x3dd83dbf	0.10558652
94	0x3ae0604a	0.001711854
95	0xbe0c716c	-0.13715142
96	0xbca2a4ca	-0.019853968
97	0xbdc8e618	-0.09809512
98	0xbcf7cdb3	-0.030249452
99	0xbe15fc13	-0.1464694
100	0xbcb7f80f	-0.02245715
101	0x3c891fa3	0.016738718
102	0x3e20d7fa	0.15707389
103	0x3b984d8e	0.004647917
104	0xbe0d25a1	-0.13783886
105	0xbe0803b4	-0.13282663
106	0xbdaba1e8	-0.083804905
107	0xbcfa2243	-0.030533915
108	0xbd23690d	-0.039895106
109	0xbd8c9b8f	-0.06865608
110	0xbb77ad99	-0.0037792681
111	0x3d7f0f3a	0.06227038
112	0xbd2818cc	-0.041039273
113	0x3d486cd1	0.0489319
114	0xbe18310a	-0.14862457
115	0x3e071a81	0.13193704
116	0xbe400232	-0.18750837
117	0x3dfb562b	0.122722946
118	0xbd334c20	-0.04377377
119	0xbe6f5d93	-0.2337554
120	0x3caebc65	0.021330068
121	0xbd9c06a0	-0.07618451
122	0xbc9a8d1e	-0.018866118
123	0x3c97d558	0.018534347
124	0xbd85ea34	-0.06538811
125	0x3db3acee	0.08773218
126	0x3d2c604a	0.042084016
127	0xbd741993	-0.059594702
128	0x3c790d91	0.015200988
129	0xbc9a1bb6	-0.018812042
130	0x3e3f1262	0.18659356
131	0xbe012881	-0.12613107
132	0x3d290fc8	0.041274816
133	0xbdbab381	-0.09116269
134	0x3db64589	0.088999815
135	0x3ce27342	0.02764285
136	0x3a066b10	0.0005127648
137	0xbc4a3705	-0.012342219
138	0xbc9944be	-0.018709537
139	0x3dd2ecbf	0.10299062
140	0x3e13a6ea	0.14419141
141	0x3e2a6d9d	0.16643377
142	0xbe1e0825	-0.15432794
143	0x3ba1fcb0	0.004943453
144	0x3dde8872	0.10865869
145	0x3d89b99b	0.067248546
146	0x3d97fbb6	0.07421057
147	0x3e3596c1	0.1773329
148	0xbb3e2873	-0.0029015809
149	0x3d96f517	0.07370966
150	0x3d8d97c0	0.0691371
151	0x3dc9e01b	0.09857198
152	0x3db7c7ef	0.08973681
153	0xbc06a777	-0.008218638
154	0x3e1ea629	0.15493073
155	0xbc9612f6	-0.018319588
156	0x3dea3c35	0.11437265
157	0xbd38e1f4	-0.04513736
158	0x3e626366	0.2210823
159	0x3becf7c2	0.0072316835
160	0x3d99a937	0.07502978
161	0x3d5b432b	0.053530853
162	0x3d3a2c26	0.04545226
163	0x3d2e82a5	0.04260506
164	0x3dbe9208	0.09305197
165	0xbbe05f43	-0.0068472936
166	0x3cf36d04	0.029715069
167	0xbd3a21d8	-0.045442432
168	0x39bf508c	0.0003649037
169	0xbd9fd3da	-0.07804079
170	0x3db236e1	0.087018736
171	0xbc935e92	-0.01798943
172	0x3e4d8766	0.20071182
173	0x3e189f97	0.14904629
174	0xbde93757	-0.11387508
175	0x3bfb75fe	0.007673978
176	0x3c9270ed	0.017876113
177	0xbe07f780	-0.13278008
178	0x3dfd3de6	0.12365322
179	0x3cb4039b	0.021974375
180	0xbe19b6d4	-0.1501115
181	0xbdc15c9f	-0.09441494
182	0xbd78fed4	-0.060789898
183	0xbdcd50b5	-0.10025159
184	0xbc5094b5	-0.012730767
185	0xbcb58a44	-0.022160657
186	0x3d6d078e	0.057868533
187	0x3db42007	0.08795171
188	0x3d29d1dc	0.041459903
189	0x3d51098d	0.0510345
190	0x3cf05ffd	0.029342646
191	0x3dd0af6b	0.10189708
192	0x3d972b1e	0.07381271
193	0xbd5b3de0	-0.053525805
194	0x3dba350f	0.090921514
195	0x3e1ff418	0.15620458
196	0xbdbeaad7	-0.09309929
197	0x3b76e278	0.0037671607
198	0x3ddeaf34	0.10873261
199	0x3de1fa84	0.1103411
200	0x3d6cfb33	0.05785675
201	0xbdff5f0a	-0.12469299
202	0xbde1f2f3	-0.11032667
203	0x3d90c04b	0.07067927
204	0x3d0edc22	0.034877904
205	0xbd4ebbbc	-0.050472006
206	0x3e0cc481	0.13746835
207	0x3da3c487	0.07996469
208	0x3d410299	0.047121618
209	0x3c90da00	0.017682076
210	0xbcc0ffdc	-0.023559503
211	0xbda59195	-0.08084408
212	0x3dace196	0.084414646
213	0xbc8a0c02	-0.016851429
214	0xbe3901cf	-0.18067096
215	0xbddff5c7	-0.1093555
216	0x3e21656e	0.15761349
217	0xbe14bdf6	-0.1452559
218	0x3d7f7c9b	0.062374692
219	0xbde9d26a	-0.114170864
220	0x3da6df50	0.08148062
221	0xbd7eaeaf	-0.06217831
222	0x3d671db7	0.056424823
223	0xbe96cbaf	-0.29452273
224	0x3d85499b	0.0650818
225	0xbd54ca00	-0.051950455
226	0x3d4b4771	0.04962868
227	0xbdce69ce	-0.100787744
228	0x3e0c338c	0.13691539
229	0xbe92913f	-0.2862644
230	0x3e28ad86	0.16472444
231	0xbcf09584	-0.02936817
232	0xbdf5ff97	-0.120116405
233	0x3d8ca5eb	0.06867584
234	0xbe048840	-0.129426
235	0x3b38d300	0.0028201938
236	0xbd3d12ca	-0.046160497
237	0xbdd747c2	-0.105117336
238	0xbc12beda	-0.008956635
239	0x3d907c50	0.07054961
240	0x3e01237a	0.1261119
241	0x3da562b1	0.080754645
242	0xbda81144	-0.08206418
243	0x3cfda505	0.030962477
244	0xbe396ec5	-0.18108661
245	0xbb3554ea	-0.002766902
246	0x3e17612a	0.14783159
247	0xbd00f5cb	-0.031484406
248	0x3d04f3a1	0.032458905
249	0x3c0a1e90	0.008430138
250	0x3c496352	0.012291746
251	0x3c42cad8	0.011889182
252	0x3d5aa8aa	0.053383507
253	0x3c9b84ff	0.018984316
254	0x3e46a698	0.19399488
255	0xbd136028	-0.035980374

network.9.bias f4 [63]
0	0x3efd8013	0.49511775
1	0x3efe03a1	0.49612144
2	0x3f032804	0.51232934
3	0x3f03ff8e	0.5156182
4	0x3efffe15	0.49998537
5	0x3ef811cd	0.4845108
6	0x3f017cdf	0.50581163
7	0x3efb29e5	0.490554
8	0x3f005ba9	0.5013986
9	0x3f04b04a	0.51831496
10	0x3efec402	0.49758917
11	0x3f002b45	0.50066024
12	0x3f00d68b	0.50327367
13	0x3f00a4cd	0.50251466
14	0x3f03587d	0.513069
15	0x3f053faf	0.520503
16	0x3efff13f	0.49988744
17	0x3f004b8b	0.5011527
18	0x3efe0678	0.4961431
19	0x3efcdb9e	0.49386305
20	0x3efcdacb	0.49385676
21	0x3efeff35	0.49804083
22	0x3efe77dc	0.4970082
23	0x3ef8b5c0	0.48576164
24	0x3efeb393	0.4974638
25	0x3eff4253	0.4985529
26	0x3eff1025	0.49817005
27	0x3efe0b23	0.49617872
28	0x3eff4a87	0.49861547
29	0x3f02ca98	0.51090384
30	0x3eff404a	0.49853736
31	0x3f02ee17	0.51144546
32	0x3f07900b	0.5295417
33	0x3eff1782	0.49822623
34	0x3f00eeb8	0.50364256
35	0x3f0114c6	0.5042232
36	0x3efe2d32	0.49643856
37	0x3f06e62f	0.5269498
38	0x3f01aa87	0.5065083
39	0x3efb0e2f	0.4903426
40	0x3effb0c3	0.49939546
41	0x3efcef94	0.49401534
42	0x3f03bfe5	0.5146468
43	0x3f01ae01	0.50656134
44	0x3eff3c1e	0.49850553
45	0x3eff7554	0.49894202
46	0x3efbca9e	0.49178022
47	0x3efd6525	0.4949123
48	0x3efdef2c	0.49596536
49	0x3eff1808	0.49823022
50	0x3f0393fd	0.5139769
51	0x3f037008	0.5134282
52	0x3efd4770	0.49468565
53	0x3effa54d	0.49930802
54	0x3efd227b	0.4944037
55	0x3f0000a1	0.5000096
56	0x3efe3af8	0.49654365
57	0x3efbe626	0.49199027
58	0x3efee56a	0.49784404
59	0x3ef9c051	0.48779538
60	0x3f00c258	0.50296545
61	0x3efea398	0.49734187
62	0x3ef8d8b9	0.48602846

network.10.running_mean f4 [63]
0	0x3ef43dbf	0.4770336
1	0x3e68b0f2	0.2272375
2	0x3f4d74b0	0.80256176
3	0x3efa04d0	0.48831797
4	0x3f01ce32	0.50705254
5	0x3f26b55e	0.65120494
6	0x3f069149	0.5256544
7	0x3f2a0a75	0.66422206
8	0x3f2a00d1	0.66407496
9	0x3f52ff2a	0.824206
10	0x3ee06eb9	0.43834475
11	0x3f035d67	0.51314396
12	0x3ee1226b	0.4397157
13	0x3f1078d5	0.56434375
14	0x3f049753	0.517934
15	0x3f311505	0.691727
16	0x3ecf5776	0.40496415
17	0x3f44377c	0.7664716
18	0x3eeb502b	0.459596
19	0x3f118e70	0.5685797
20	0x3eedf062	0.4647246
21	0x3f107e4b	0.5644271
22	0x3f11e3e4	0.5698836
23	0x3f286271	0.6577521
24	0x3ea46f7f	0.32116315
25	0x3f02e02b	0.51123303
26	0x3e99fce3	0.3007575
27	0x3f051085	0.5197833
28	0x3f345b31	0.7045165
29	0x3f52748c	0.82209086
30	0x3e2414d4	0.1602357
31	0x3f0f5254	0.55985
32	0x3f4c64b0	0.79841137
33	0x3ed94392	0.42434365
34	0x3f23c029	0.6396509
35	0x3f10bf10	0.5654154
36	0x3f0c064c	0.5469711
37	0x3f506f4a	0.81419814
38	0x3f344eb3	0.70432585
39	0x3f035ecc	0.51316524
40	0x3f1056fa	0.56382716
41	0x3e8d0136	0.27539986
42	0x3f399ef4	0.7250817
43	0x3f1af1da	0.60525286
44	0x3ed67fd8	0.41894412
45	0x3f0b4341	0.54399496
46	0x3f0a66bd	0.54063016
47	0x3f1f7df2	0.6230155
48	0x3f009ec2	0.50242245
49	0x3f128f2d	0.5724972
50	0x3f019dcd	0.5063141
51	0x3f1fa213	0.6235668
52	0x3f017a66	0.5057739
53	0x3f3be0ef	0.73390096
54	0x3ef4284e	0.47687
55	0x3eae8fe1	0.34094146
56	0x3f171d6a	0.5902926
57	0x3ed8349d	0.4222764
58	0x3e46fde2	0.19432786
59	0x3f0d2799	0.55138546
60	0x3ed87958	0.42280078
61	0x3efc419f	0.49268815
62	0x3f04205a	0.51611865

network.10.running_var f4 [63]
0	0x3e5d5f95	0.21618493
1	0x3e3a0a5c	0.18168014
2	0x3ed225eb	0.41044554
3	0x3d5f3371	0.054492418
4	0x3e9651a1	0.29359153
5	0x3e08c644	0.13356882
6	0x3e3c20df	0.18371914
7	0x3e0c1dc6	0.13683233
8	0x3e059d85	0.1304837
9	0x3f872f5c	1.0561328
10	0x3e1fa0b6	0.1558865
11	0x3e8eaa28	0.27864194
12	0x3dcf4c69	0.10121996
13	0x3e665d9c	0.22496647
14	0x3e4ea04d	0.20178337
15	0x3f68b35c	0.9089868
16	0x3e50435e	0.20338199
17	0x3e83db20	0.25753117
18	0x3e0f94d4	0.14021617
19	0x3e1171f4	0.14203626
20	0x3e3bdec6	0.183467
21	0x3e55c2de	0.20875117
22	0x3e0beb0b	0.1366388
23	0x3e1e405f	0.15454243
24	0x3eb49b2f	0.35274646
25	0x3dc7e4f5	0.09760467
26	0x3e5c6d96	0.21526179
27	0x3d98e73c	0.074659795
28	0x3e151988	0.1456052
29	0x3f2080b8	0.6269641
30	0x3d6959bf	0.056970354
31	0x3dea208e	0.114319906
32	0x3f868bb6	1.0511386
33	0x3e1067d5	0.14102109
34	0x3e67089e	0.22561881
35	0x3d7fef21	0.06248391
36	0x3d9b3ecb	0.07580336
37	0x3f76e599	0.9644409
38	0x3e089d29	0.13341202
39	0x3e38e47c	0.1805591
40	0x3ef16e08	0.4715426
41	0x3e30d0da	0.1726717
42	0x3eca9a38	0.39570785
43	0x3e4e3f90	0.20141435
44	0x3d88dd94	0.06682888
45	0x3e1b3122	0.15155461
46	0x3dc1b6ab	0.09458669
47	0x3e88789f	0.26654527
48	0x3debeae4	0.11519411
49	0x3e9ae4eb	0.30252776
50	0x3ed0a44c	0.4075035
51	0x3f5cf18e	0.86306083
52	0x3e1d6e9e	0.15374228
53	0x3e69c60e	0.22829458
54	0x3dfecfd5	0.124419846
55	0x3db36598	0.08759612
56	0x3e7ee19c	0.2489075
57	0x3e20cc28	0.1570288
58	0x3e6c1fa0	0.23058939
59	0x3e2535ce	0.16133806
60	0x3de17982	0.11009504
61	0x3dd3bbce	0.10338555
62	0x3dc51ff7	0.096252374
