src/runs/ann_left_hand/20241106/20241106-1750/ann_left_hand_5_layers_best.pth (torch, 321584 bytes, 34 tensors)

network.0.weight f4 [126, 141]
000000 7a 5f 6a 3d ad 2f 95 3b 1b 4e cd bc 0c ba 04 3d
       0.05721996 0.0045528025 -0.025061658 0.03240399
000010 ef 47 67 3d 39 06 0d 3e bf 08 b8 3c d0 90 a1 bb
       0.056465086 0.13771905 0.022465108 -0.004930593
000020 4d c4 48 bd de cd d9 3d 13 39 a1 3d 20 1c 69 3c
       -0.049015332 0.10634969 0.07872214 0.014227897
000030 2c fa 74 3d 65 c3 bb bc c0 7a 9d 3d 5c 8e 32 3d
       0.059808895 -0.02292032 0.07689428 0.043592796
000040 54 a7 18 3e 2e 18 9c 3d 15 89 e7 bb cf 27 00 3e
       0.1490758 0.076217994 -0.007065902 0.12515186
000050 7d df 51 3d 1a 96 7f bd b2 b5 74 bd 38 05 60 bd
       0.051238526 -0.062399007 -0.05974359 -0.054692477
000060 66 da 29 3d e7 19 15 3d 73 b0 94 3c 3f e9 3b 3c
       0.041468047 0.036401656 0.018150544 0.011469184
000070 c0 38 97 39 20 38 95 3d d5 7e 8c bb 59 c6 27 3d
       0.00028843246 0.072860956 -0.0042875805 0.040960643
000080 4b 6b c0 3d 5f 06 1b bb 14 53 37 bd f8 29 ab 3d
       0.093954645 -0.002365492 -0.044756964 0.08357614
000090 a7 f5 ee 3d d8 bb 8d 3c 8f 78 3b 3c 9f 25 62 bb
       0.11667948 0.017301485 0.011442318 -0.0034507287
0000a0 7d e1 86 3d c1 aa b0 3d 4a 9b 01 3d de 6b d5 3d
       0.06585977 0.08626319 0.031642236 0.10420965
0000b0 bc fa a8 bd be ae 91 3d a4 66 88 3d 9b 0c 01 bd
       -0.08250949 0.071134076 0.06660202 -0.031506162
0000c0 40 91 68 bd 44 1d 0c bd 54 bc 67 bb 65 bb d7 3c
       -0.056779146 -0.034207597 -0.0035360055 0.026334474
0000d0 5b eb 9b bd 55 8c d9 3c 98 59 a5 bc cc 76 42 3d
       -0.0761325 0.026556173 -0.020184323 0.047476575
0000e0 f2 41 55 bd d9 51 b4 bc c8 64 96 bd 0c c2 35 bd
       -0.052064843 -0.022011684 -0.07343441 -0.04437451
0000f0 2c 94 1b be da 28 43 bd 4d 93 d4 bd d4 70 8b bd
       -0.15193242 -0.04764638 -0.10379658 -0.0680863
000100 ff 33 11 be 56 8c fa bd 48 f0 03 be b9 c4 6b bd
       -0.14179991 -0.12233798 -0.12884629 -0.057560656
000110 bc e0 c0 3c b9 52 1d 3d 1a 04 a5 3d 24 c4 4f 3d
       0.023544662 0.03840897 0.08057423 0.050724164
000120 3d 5e b1 3d cd 45 8d bb ee d8 80 3d 70 ee e7 3d
       0.08660553 -0.0043112994 0.06291376 0.11324775
000130 62 0a c8 bc e1 e2 7a 3d 46 27 d9 3d 84 c6 46 3d
       -0.024419013 0.061251525 0.10603194 0.048529163
000140 c7 79 af 3c bb 59 49 3c 54 68 55 39 4e b4 b2 bb
       0.021420373 0.01228946 0.00020352128 -0.005453623
000150 4c 41 0e bc 84 87 f7 3d a6 73 33 3b 98 78 8c 3d
       -0.00868256 0.120863944 0.0027382164 0.06858939
000160 7c 55 88 3d 5a 5f 18 bc 05 8f aa 3c 5d 96 31 bd
       0.0665693 -0.009300077 0.02082015 -0.04335629
000170 51 f8 9b bd 38 de 7c bd fc 81 38 bd 9e 25 63 bc
       -0.07615722 -0.06173536 -0.045045838 -0.013863949
000180 bd bd d6 3c b6 1f 2d bd 57 b2 c7 bc 69 60 17 be
       0.026213521 -0.04226657 -0.024377031 -0.14782871
000190 b9 9c 19 bb 9f b8 90 3c a2 86 11 bd 3a 36 9c bd
       -0.0023439361 0.01766616 -0.035528786 -0.076275304
0001a0 9a 5d 26 3c d7 b4 5d bd e0 39 60 3d 1d 9d 3b bd
       0.010154152 -0.05412754 0.054742694 -0.04580413
0001b0 c9 0b d0 3c da ed ff 3d 3a 79 60 3d a0 4c 5b 3d
       0.025396245 0.124965385 0.05480311 0.053539872
0001c0 78 89 ee 3c cc bf e0 3c ea 77 7b 3b b6 da 1c be
       0.029118285 0.027435206 0.0038371035 -0.15317807
0001d0 98 c2 de bd ba 55 9e ba b4 c2 1d 3d d4 1d 20 bc
       -0.108769596 -0.0012079992 0.03851576 -0.009772737
0001e0 64 4d 67 bd 2c 39 23 3d 4f dc 05 bd eb 04 40 3b
       -0.05647029 0.039849445 -0.032680806 0.0029299806
0001f0 35 0a 09 be e0 aa fb bd 47 99 97 bd 03 f4 38 3c
       -0.133828 -0.12288451 -0.07402282 0.011288646
000200 f6 0c a1 bd 30 53 d1 bd 08 96 e4 3c 16 1e 53 3d
       -0.078638 -0.10220945 0.027903572 0.051542364
000210 be 96 9e bd c6 ce 79 bb 24 b4 91 bd 65 31 30 bd
       -0.077435955 -0.0038117631 -0.07114437 -0.043015856
000220 64 e5 14 3c 86 d6 6b 3d 68 a5 02 3b bf d4 55 bd
       0.009087894 0.057577632 0.0019935016 -0.052204844
000230 e0 d0 51 3d 78 2c 3d 3d 6e 9b 94 bc e6 46 e4 3c
       0.05122459 0.046184987 -0.01814052 0.027865838
000240 16 bd 00 3d 14 d3 00 bd ba d8 c2 3d af 78 22 bd
       0.031430326 -0.0314513 0.095139936 -0.039665874
000250 9b 20 a2 3d 49 ad 5d 3d 4e c1 70 3b 57 1f d8 3d
       0.07916375 0.054120336 0.0036736312 0.105528526
000260 8f 61 c9 3d 32 03 be 3d 27 6f f8 ba 27 d8 af bd
       0.09833061 0.09277953 -0.0018954024 -0.0858615
000270 7a 3d 06 3d bf 85 f5 3c 15 1a 98 3d 48 bb aa bc
       0.032773472 0.029971002 0.0742685 -0.020841256
000280 14 7a c1 3c a8 41 d6 bc 82 19 15 3d fc 75 59 bd
       0.023617782 -0.026154354 0.03640128 -0.053091034
000290 f9 13 af 3d 2b 5d ce 3d 20 92 ba bb 6a a0 3f 3d
       0.08548731 0.10076364 -0.005693689 0.046783842
0002a0 a0 e0 89 bc 24 86 24 3d e4 73 b1 3c c3 a7 ff 3b
       -0.016830742 0.04016699 0.021661706 0.007801981
0002b0 7d 6c df bc 34 f9 aa bc 92 05 8f bc 8b ab 98 bc
       -0.02727341 -0.020870782 -0.01745871 -0.018636486
0002c0 dd 75 33 bd ea 58 17 3d a5 11 66 3d 0c 22 74 3d
       -0.043813575 0.03695003 0.05616917 0.059602782
0002d0 22 24 57 3d cb 9a b0 bc a9 0f 2c bc 92 64 05 3d
       0.052524693 -0.021558186 -0.010501781 0.032566614
0002e0 50 dc 81 3c a5 89 c3 3c 62 0e a8 bd e0 5e 81 bd
       0.015852123 0.023869345 -0.08205868 -0.06316924
0002f0 e5 2b 16 be 75 97 58 bd a7 05 16 bd a2 df 27 bd
       -0.14665182 -0.052878816 -0.036626484 -0.040984757
000300 a4 b5 fa bb 14 91 49 3c 70 97 ab 3d cc e3 54 3d
       -0.007651048 0.012302656 0.08378494 0.051975057
000310 88 1b 3b 3c 43 15 8b bd 94 a9 c1 bd 0b d5 8c 3c
       0.011420138 -0.06791165 -0.094561726 0.01719143
000320 f5 11 2f bb 14 38 f3 bc 09 d8 c4 bd 7d 16 d6 3c
       -0.0026713584 -0.029689826 -0.09611518 0.02613377
000330 de ac 0a bc bb 0e 91 bd 39 6a 91 bd d7 ec 25 bd
       -0.008464066 -0.07082888 -0.071003385 -0.04050907
000340 db 37 5c bd 3f bd 92 3d 2f fb 7e 3b b8 4d cb 3b
       -0.053764205 0.07165002 0.0038907041 0.006204333
000350 0f 81 70 bc cf 14 b0 3c b7 b6 cb bc cf f4 67 3c
       -0.0146792075 0.021494297 -0.024867399 0.014157488
000360 74 59 04 3d 1e 6a 24 3d f4 98 b7 3d df 1b 81 bc
       0.03231187 0.040140264 0.0896472 -0.01576036
000370 ee de f5 3b 7e 32 87 bc 3a 53 f1 3d 24 02 a4 3b
       0.007503382 -0.016503569 0.11783452 0.005005138
000380 fd 6a d6 bd 05 5a 98 3c 98 5c ab 3d 28 69 06 bd
       -0.10469625 0.018597612 0.0836727 -0.03281513
000390 89 4b 45 3d bd 05 67 bb ff ab 59 3d 87 44 66 3e
       0.04816774 -0.0035251223 0.053142544 0.22487079
0003a0 7b e1 1a bd e2 4e 18 3d 19 c4 82 bd ac d4 04 3e
       -0.03781269 0.037184604 -0.06385059 0.12971753
0003b0 5c a5 d9 bc c6 f2 76 3d 16 a4 6a bd 82 f0 53 3d
       -0.026568107 0.06029012 -0.05728539 0.051743038
0003c0 75 87 ae 3c 58 e7 5c 3d e6 8f 4a bc be 85 51 bc
       0.021304825 0.053931564 -0.01236341 -0.012788234
0003d0 d8 7c 25 3c 85 ee 10 bd 6a 7c a4 bd 4d 15 85 3d
       0.010100566 -0.03538372 -0.080315426 0.064982034
0003e0 24 3a f5 bd e8 14 c6 bc f3 40 70 bd 7a 2b 70 bd
       -0.1197398 -0.02417989 -0.05865569 -0.058635212
0003f0 56 97 7e bd f4 66 92 bd 93 ba 08 bc 71 6b ba bd
       -0.062156044 -0.07148543 -0.008345264 -0.09102524

network.0.bias f4 [126]
000000 41 3e ee 3e e6 36 e4 3e 8c 3a fa 3e 17 c5 02 3f
       0.4653187 0.44573134 0.48872793 0.51081985
000010 d8 7e fe 3e ab 76 11 3f e6 38 03 3f 06 5a f4 3e
       0.4970615 0.568217 0.51258695 0.47724932
000020 20 d1 fa 3e e8 57 dd 3e 94 5a fd 3e ed 9d f4 3e
       0.48987675 0.4323113 0.49483168 0.47776738
000030 08 de 0c 3f 88 33 ec 3e af ad 0c 3f fe 88 f5 3e
       0.5502629 0.46133065 0.5495252 0.4795608
000040 ca 9a ff 3e bd f7 05 3f 1a 1b 0d 3f ef a8 07 3f
       0.49922782 0.52331144 0.5511948 0.5299215
000050 b0 c3 01 3f f0 76 0c 3f f6 82 01 3f a4 25 09 3f
       0.5068922 0.54868984 0.50590456 0.5357306
000060 36 be f5 3e 15 31 04 3f b6 82 0b 3f 4c 79 12 3f
       0.47996682 0.51637393 0.54496324 0.57216334
000070 94 d0 05 3f ab 7e e6 3e c5 8a ef 3e f9 e4 0b 3f
       0.5227139 0.45018515 0.4678556 0.5464626
000080 a3 f7 f8 3e ed 99 ef 3e 43 ea f3 3e 43 b8 e3 3e
       0.48626432 0.46797124 0.47639665 0.44476518
000090 2d c5 04 3f cb 04 f6 3e ce 1f 00 3f 0a b2 ff 3e
       0.51863366 0.48050532 0.5004853 0.4994052
0000a0 97 d4 f0 3e 9b 80 d2 3e 67 71 10 3f a1 ac 10 3f
       0.47037193 0.41113743 0.5642304 0.5651341
0000b0 c3 70 05 3f ab 65 f1 3e 8f b7 0f 3f 9e 12 0a 3f
       0.52125186 0.4714788 0.56139463 0.5393466
0000c0 91 f3 d5 3e 71 3e 04 3f fb c2 05 3f 88 48 07 3f
       0.4178739 0.5165778 0.5225064 0.5284505
0000d0 9a 7b 03 3f 48 d4 11 3f 76 a6 ea 3e 43 7f 0e 3f
       0.51360476 0.5696454 0.45830125 0.55662936
0000e0 b8 6e f7 3e 64 0c 04 3f 98 c9 06 3f ca 7e eb 3e
       0.4832666 0.51581407 0.5265136 0.4599517
0000f0 ca 40 14 3f 83 89 00 3f 62 30 dd 3e a0 25 0c 3f
       0.5791136 0.50209826 0.43200976 0.5474491
000100 7f ed f9 3e 78 d3 18 3f be 43 0a 3f 43 f4 e8 3e
       0.48814008 0.59697676 0.54009616 0.45498857
000110 20 de 02 3f 66 2a 09 3f dc 1f 0c 3f a9 89 f8 3e
       0.51120186 0.5358032 0.54736114 0.48542526
000120 bf aa fe 3e 16 a3 0d 3f ea 35 0a 3f 94 8a de 3e
       0.49739644 0.55326974 0.53988516 0.43465102
000130 91 4b fd 3e ae b6 e1 3e 5e ff 10 3f 23 06 f6 3e
       0.49471715 0.44084686 0.5663966 0.48051557
000140 ca 20 09 3f ef df f2 3e bf 3c 04 3f 36 3d f7 3e
       0.5356566 0.47436473 0.5165519 0.48288888
000150 21 00 02 3f 7b d7 f4 3e 74 6f 0a 3f bf 6e ee 3e
       0.50781447 0.4782065 0.54076314 0.46568868
000160 e0 95 09 3f a2 b9 2f 3f 57 a0 06 3f c7 a0 fc 3e
       0.53744316 0.6864263 0.5258841 0.49341413
000170 ac 05 02 3f 02 1d e8 3e 51 05 0d 3f 59 ca 00 3f
       0.50789905 0.4533463 0.5508624 0.5030876
000180 1a de de 3e 90 e1 f2 3e 7a f5 f3 3e 64 e8 07 3f
       0.43528825 0.47437716 0.4764822 0.53088975
000190 81 17 12 3f c2 f1 03 3f dc 74 05 3f 4d 82 10 3f
       0.57067114 0.5154077 0.5213144 0.56448823
0001a0 2a fb 0c 3f 56 3e f2 3e e0 92 16 3f 4d 5a 00 3f
       0.55070746 0.47313184 0.58817863 0.5013779
0001b0 a4 05 f2 3e a3 3b de 3e 8c cd f9 3e 9d 31 ed 3e
       0.47269928 0.43404874 0.48789632 0.46326914
0001c0 69 8f 0c 3f 4a 2b f4 3e 74 36 05 3f a5 b6 0a 3f
       0.54906327 0.47689277 0.52036214 0.54184943
0001d0 96 cc 15 3f c6 83 02 3f de 4c f5 3e 0b f3 00 3f
       0.585153 0.5098232 0.47910208 0.50370854
0001e0 2c d9 04 3f 2a 24 fc 3e d2 47 ef 3e 4f fb d9 3e
       0.5189388 0.4924634 0.46734482 0.42574546
0001f0 62 40 00 3f 17 0d f5 3e
       0.5009824 0.4786155

network.1.running_mean f4 [126]
000000 17 57 9f 3f 7a 5f 04 3f eb 5f 44 bf cf 3b bd bd
       1.2448453 0.51708186 -0.7670886 -0.09239923
000010 f1 be f0 be 05 ff 0c bf 7c b1 c7 be 6b 48 18 3e
       -0.47020677 -0.5507663 -0.39002597 0.14871375
000020 ad 30 1e 3f a0 84 02 40 1e 03 c3 3e 5a 71 83 3f
       0.61793023 2.0393448 0.38088316 1.0268967
000030 7b 47 f1 3e 22 75 cd 3e cd 50 6e bf 65 61 40 3f
       0.47124848 0.40128428 -0.9309204 0.7514861
000040 22 2f 1b 3f af 8a 18 bf 67 88 4d bf 57 49 29 bf
       0.60618794 -0.59586614 -0.8028626 -0.6612753
000050 0e c4 2d bf ce bf cf 3d 3d b1 4b bf 0b 04 76 3f
       -0.6787728 0.10144006 -0.7956732 0.9609992
000060 d4 1f 9b 3f 62 6a 43 3e b9 29 f1 3e 14 12 00 3f
       1.2119088 0.1908355 0.47102144 0.50027585
000070 fb 83 74 3f cc 44 b8 3f 35 d4 4c 3f a7 2b ec 3f
       0.95513886 1.4395995 0.800113 1.8450822
000080 1b 02 1d 3e d3 4a d6 3e 09 38 61 3f 74 e1 99 3f
       0.15332834 0.4185396 0.8797613 1.2021928
000090 9f b6 3a 3f bc 23 8c bb a1 14 25 3f 78 69 18 3f
       0.7293491 -0.004276721 0.644846 0.5953593
0000a0 c4 d0 46 be 1f 9d a8 3e 6c 55 f7 3e 38 ae e9 3e
       -0.19415575 0.32932374 0.4830736 0.4564073
0000b0 28 9e a3 3f 73 4e 56 3e e6 e1 33 3f b4 c3 98 be
       1.278264 0.20928364 0.7026657 -0.2983681
0000c0 04 1e 6e 3f b5 ae f8 be 92 a3 90 3f 2c f8 8a 3f
       0.9301455 -0.4857079 1.1299918 1.0856986
0000d0 22 ac 8a 3f e4 b1 db 3e 29 0c d6 3e 2e ef 1d 3f
       1.0833781 0.42909157 0.41806152 0.61693084
0000e0 6a 18 6c 3f 5b 6b 82 3e ab 6f 34 3f 97 bb ad 3f
       0.9222475 0.2547253 0.7048289 1.3572873
0000f0 99 20 c8 3e 16 a2 ae 3f 39 c8 4d 3f a8 cf 4c 3f
       0.3908737 1.3643215 0.8038364 0.8000436
000100 69 40 b0 be 0c 37 2a bf c4 d5 e7 bd 24 03 4c 3f
       -0.3442414 -0.66490245 -0.113200694 0.7969229
000110 db 57 be 3d c9 c0 5c 3f 24 a7 35 bf 1c e8 25 3f
       0.09294101 0.86231667 -0.7095816 0.64807296
000120 16 96 8d bd 0f 84 34 3f da 9f cb 3f 53 22 0f 3f
       -0.06913392 0.70514005 1.5908158 0.5591175
000130 85 18 cd 3b 1d 96 84 3f a2 6d d2 3e a5 ea 0a 3f
       0.0062590265 1.0358311 0.41099268 0.5426429
000140 f2 a3 bb 3e fb a8 5c 3f f0 96 4b 3b 18 02 b0 be
       0.36648518 0.86195344 0.0031065308 -0.34376597
000150 c7 73 85 3e bb d3 9b 3e 6c 56 99 3f 5b ca 8b 3e
       0.26064894 0.30434975 1.1979499 0.27302822
000160 81 56 33 3f 57 5d 50 3f de 3b 42 3f 3e b7 b0 3f
       0.7005387 0.81392425 0.758726 1.3805921
000170 19 6b d2 bc 23 a1 2b 3f 4c 3f 13 3f 3f 4e 54 3f
       -0.025685834 0.6704275 0.5751846 0.82931894
000180 4e bc 76 3f 12 d7 bf be 50 8d a2 3e 36 5d 40 3f
       0.9638108 -0.37468773 0.31748438 0.7514223
000190 b8 43 6d bf 58 6e a0 3e 76 58 06 3f 1f aa ea 3e
       -0.92681456 0.31334186 0.5247873 0.45832917
0001a0 a5 db c7 3e 4a 90 9d 3d 9c a4 65 3f 15 9c 37 bd
       0.39034763 0.076935366 0.897043 -0.044826586
0001b0 87 59 9b be 1a 67 32 3f 24 b0 fd 3f b6 a1 01 3f
       -0.3034174 0.6968857 1.9819379 0.50637376
0001c0 70 66 93 3e 56 ef 6b 3f 20 7d 09 3f d2 b3 5a 3e
       0.2878909 0.9216207 0.5370655 0.21357659
0001d0 7d e4 84 3f fb 36 17 3f b2 e8 b2 3e b5 a5 cf bd
       1.0382229 0.5906827 0.34943157 -0.10139028
0001e0 f9 b5 b8 3f 56 b4 ce 3e fd e8 6e 3e f8 fc b1 3b
       1.4430534 0.4037196 0.23331065 0.0054317676
0001f0 99 84 13 bc bd a7 9f be
       -0.009003782 -0.31182662

network.1.running_var f4 [126]
000000 a9 52 d7 3b be 12 44 3b fe 96 ce 3b f6 44 a0 3b
       0.006571133 0.0029918398 0.0063046208 0.0048910333
000010 fb 78 06 3c 1b 71 20 3b 80 d0 e3 3b 92 27 0b 3b
       0.008207555 0.0024481479 0.0069523454 0.0021233303
000020 53 a8 ad 3b 54 55 ff 3b 9c 09 95 3a dc b8 9f 3b
       0.005299607 0.0077921543 0.0011370662 0.004874332
000030 3b eb 0e 3a b9 9b 08 3b ac 7e 09 3c f9 44 81 3b
       0.0005451922 0.002084477 0.008392017 0.0039449898
000040 f9 2e 2a 3a 48 6b a0 3b 6f 96 05 3c 88 45 17 3c
       0.0006491985 0.0048956014 0.008153542 0.009232886
000050 88 c7 0a 3c 29 57 be 3a 0e 58 25 3c 7b 3a 2b 3b
       0.0084704235 0.0014521825 0.010091795 0.0026127386
000060 09 e8 67 3b e3 c3 30 3b f2 e6 47 3b e8 47 56 3b
       0.0035386106 0.0026972226 0.0030502644 0.0032696668
000070 04 2d 17 3c 19 a5 6c 3b 63 fd c3 3a ed 20 89 3b
       0.009227041 0.0036109148 0.0014952834 0.0041848333
000080 09 c2 6a 3b 3e 83 3f 3b f5 a4 a0 3b 1c 00 be 3b
       0.003582122 0.0029222514 0.004902477 0.005798353
000090 57 1e a5 3a cb bf bb 3b db d0 8b 3b d4 6e 9c 3a
       0.0012597543 0.0057296506 0.004266841 0.0011934885
0000a0 3f cc 17 3b 80 8a 30 3b ea 39 80 3a 25 33 34 3b
       0.0023162512 0.0026938021 0.0009782885 0.0027496305
0000b0 55 06 a2 3b e1 15 3d 3b 43 c2 4d 3b d6 2c d1 3b
       0.0049446025 0.0028852152 0.0031396307 0.0063835187
0000c0 13 64 ae 3a f4 52 5b 3b 79 e5 c3 3b 8d f1 f0 3b
       0.0013304971 0.0033466192 0.005978283 0.007353014
0000d0 40 8f d4 3b 8b 63 d0 3b 15 3c 12 3b 4a c8 9b 3b
       0.0064868033 0.0063595227 0.0022313644 0.004754101
0000e0 9e b0 88 3b 29 e6 01 3b 85 1a 35 3b f6 b7 a0 3b
       0.004171445 0.0019821024 0.0027634215 0.0049047424
0000f0 71 52 36 3b 5b 72 10 3c d5 ed 89 3b 92 1f 7c 3b
       0.0027820135 0.008816327 0.00420926 0.0038470966
000100 c0 24 f2 3b a0 62 c0 3b 2e 8f c3 3b bf 74 65 3b
       0.007389635 0.005871132 0.005967996 0.0035012213
000110 6c 37 5d 3b 92 2e 9a 3b d8 85 33 3c eb 22 22 3b
       0.0033754958 0.0047052586 0.010957204 0.002474005
000120 a5 05 0f 3c 63 d4 15 3b 97 24 4c 3b 49 cf d3 3a
       0.008729373 0.0022862188 0.003114974 0.0016159798
000130 64 4b 1e 3b 34 86 b4 3b cb 13 a8 3b 42 a9 64 3b
       0.0024153823 0.0055091623 0.0051293126 0.0034890925
000140 d4 0d b7 3b 1c f7 a5 3b 9a fc 94 3b 06 94 4e 3c
       0.0055863652 0.005064858 0.004546714 0.012608534
000150 f0 f2 e3 3a 81 1d 3d 3b f4 9a d2 3b f1 2f 3c 3c
       0.0017391127 0.0028856697 0.0064271633 0.0114860395
000160 c2 de b1 3b ef 34 41 3a 08 3b 16 3c c1 52 e7 3b
       0.005428166 0.00073702534 0.009169348 0.0070594256
000170 1e 0b fd 3a 91 61 a7 3b 3c 1f ab 3b 13 31 22 3c
       0.0019305681 0.0051080664 0.0052222293 0.0098993955
000180 87 69 40 3c 59 44 bf 3c da 43 2e 3b 86 4a 2a 3b
       0.01174391 0.02334802 0.0026590736 0.002598436
000190 fa 9a c0 3b eb 49 cb 3b 2e 3c 73 3b c2 25 47 3b
       0.0058778496 0.00620388 0.0037114727 0.0030387496
0001a0 08 af 3c 3b 06 b2 81 3b 20 f3 dd 3a 34 76 4e 3b
       0.002879085 0.0039579896 0.0016933419 0.003150356
0001b0 fc e8 37 3b 57 f6 e4 3b b3 8e db 3b 8d 7f 06 3b
       0.0028062453 0.006987374 0.0067003607 0.0020522804
0001c0 56 f3 e2 3a b5 bf cd 3b da e9 89 3b e5 1f 66 3b
       0.0017314951 0.006278957 0.0042087855 0.0035114225
0001d0 9e e8 56 3b ba 65 9f 3b 91 b4 b6 3b d6 ce 9e 3b
       0.003279246 0.0048644217 0.0055757244 0.004846434
0001e0 e7 63 a5 3b 80 d1 1d 3c 87 b9 a4 3b 32 2e 88 3a
       0.0050473097 0.009632468 0.0050269994 0.0010389744
0001f0 53 24 cb 3a 2c 7b 51 3c
       0.0015498496 0.012785714

network.3.weight f4 [100, 126]
000000 53 21 7c bd 91 5f a1 bd b4 0c d4 3c fd 0c bb 3c
       -0.061555218 -0.07879556 0.025884964 0.022833342
000010 18 94 0a 3d ff a7 f7 3c a4 d1 fb bc bd 92 f4 bd
       0.03383264 0.030231474 -0.030739613 -0.119420506
000020 a2 82 b8 bd 4f c9 2f bd aa b6 c2 3d a3 94 6e 3d
       -0.09009291 -0.042916592 0.09507497 0.05824722
000030 21 b0 ba bd ce 27 ef 3c ff cb 81 bb a6 cc 8d bc
       -0.09115625 0.029193785 -0.003961086 -0.017309498
000040 1a d2 5e 3d 47 b9 4e 3d 7f c4 b1 bd 30 12 10 bd
       0.054399587 0.050469663 -0.08680057 -0.035173595
000050 b2 c6 9b 3d 29 2d bb 3c d0 48 c2 bd 2c 93 a2 3d
       0.076062575 0.022848682 -0.09486544 0.07938227
000060 92 ec c0 3d b5 b8 18 bd 24 27 8e bd 4b 6a 12 bb
       0.09420122 -0.037285525 -0.06941059 -0.0022341188
000070 8a bd 84 bd 87 e4 e1 bd 41 d8 8f bc 85 90 bd 3b
       -0.06481464 -0.11029916 -0.017559173 0.0057850503
000080 cf 5e b8 3d df a2 8b 3c 4e 51 fa bd 01 69 8c bc
       0.09002458 0.017045436 -0.12222539 -0.017139914
000090 94 9b 63 bd 4e 93 98 3b 44 26 87 bd cc cd 10 3d
       -0.055568293 0.004656232 -0.065990955 0.035352513
0000a0 45 85 bd 3d 14 a0 03 bd 6e 95 e5 3a 56 9f ee 3d
       0.09253935 -0.032135084 0.0017515847 0.11651485
0000b0 b4 df 6a bd 08 e1 18 bd d3 07 90 3c 56 a8 aa 3d
       -0.057342246 -0.03732398 0.017581856 0.08332889
0000c0 49 ea bf bd 4d d4 96 3b 4d 3e 05 be 90 cc d3 bc
       -0.09370858 0.004602945 -0.13012047 -0.025854379
0000d0 f2 c6 ce bd 76 bb 35 bd 29 e1 b6 3d a1 af c7 bd
       -0.100965396 -0.04436823 0.08929665 -0.097502954
0000e0 d7 3b 92 bd 98 f2 98 bc dd d1 e2 3c be bd 08 3d
       -0.0714032 -0.018670365 0.027687961 0.033384077
0000f0 16 e7 8a bd d5 26 68 bb 8d 15 ad 3d 02 70 e1 bc
       -0.067823574 -0.0035423536 0.08451376 -0.02751923
000100 71 d6 fc ba 19 2d 0f 3d 21 ff 79 3b d9 a8 a8 3c
       -0.0019289983 0.034955118 0.0038146453 0.020588325
000110 78 4e a3 3c e1 4b 07 3c d9 0e 64 bd d3 15 6e 3d
       0.019934878 0.008257837 -0.055678222 0.058126282
000120 26 e7 88 bc a3 06 be 3d a5 c8 d1 3c 0f 1c b2 bd
       -0.016711783 0.092786096 0.02560837 -0.08696758
000130 44 34 84 3d 02 8a 8f bd 3a b4 d3 bd af 50 66 3d
       0.064552814 -0.07008745 -0.1033711 0.05622929
000140 7b 5d 4f bd 93 da bd 3c 5f 4e 39 bd 50 af a6 bd
       -0.05062626 0.023175513 -0.045240756 -0.08138907
000150 d6 28 02 bd 9c f1 7b bd f1 2e bf bd d5 08 a2 bd
       -0.031777225 -0.061509714 -0.09335125 -0.07911841
000160 ec 0d c7 3b 2f d5 a0 3d 13 af c6 3d 32 10 64 3d
       0.0060746577 0.078531615 0.097013615 0.055679508
000170 ad c2 ff bd 61 3d 06 3d e3 0d 4c bc 04 bb 8d 39
       -0.12488303 0.03277338 -0.012454483 0.00027032953
000180 ad 71 e5 3c 94 a2 75 3c 95 8b f6 bc e8 46 c6 3d
       0.028008306 0.014992375 -0.030095855 0.09681493
000190 1f 3b 48 3d 59 ed a1 3d 78 8d 0b 3c cc 84 7a 3c
       0.048884507 0.079065986 0.0085176155 0.01529045
0001a0 46 b0 35 bd a4 e9 ed 3d c6 6e 33 bd fb 5f 83 ba
       -0.04435756 0.11616829 -0.043806814 -0.0010023111
0001b0 cc 6c 43 3c 64 c8 01 be 38 ee 11 3d ef 3f 9d bd
       0.011927795 -0.12674099 0.035627574 -0.0767821
0001c0 46 2a cc 3d 17 57 bd bd e3 d3 65 bb 5d b0 50 3d
       0.099690005 -0.09245127 -0.0035068921 0.050949443
0001d0 ed ed c8 bc 27 51 a3 bd f0 25 d6 b9 92 41 65 bc
       -0.024527514 -0.07974463 -0.00040845526 -0.013992684
0001e0 7a 69 8d bd 5d 3c e2 bd 44 58 95 3d d3 5a cc bd
       -0.06904884 -0.1104667 0.07292226 -0.09978261
0001f0 46 f2 43 bd ab b7 91 3d d7 a4 c8 bc cf 53 62 3d
       -0.04783847 0.0711511 -0.024492664 0.055255707
000200 81 5d a1 bd d6 72 60 bd 90 58 05 3d b2 68 25 3d
       -0.078791626 -0.054797016 0.032555163 0.04038305
000210 cd 86 9f 3c 17 bc c3 3d 9b 08 29 bd 19 d7 b2 3c
       0.019473458 0.0955736 -0.041267972 0.021831082
000220 a0 80 92 bd 0c 56 15 bd e2 d3 a4 bc 5e 9b ce 3d
       -0.071534395 -0.036459014 -0.020120565 0.10088228
000230 15 52 89 bd 74 07 52 3c 43 29 47 be 41 d9 44 3d
       -0.06705109 0.01281916 -0.19449334 0.048058752
000240 16 32 44 3c 59 2b 4c 3a b7 25 82 bd ac 48 1c 3e
       0.011974832 0.0007788442 -0.0635485 0.15262097
000250 52 d6 27 bd eb 46 59 bd ef 9b ed ba 4e 7f 80 3d
       -0.040975876 -0.05304615 -0.0018128137 0.062742814
000260 29 60 26 be b3 1d 97 bc 90 80 a7 3d 53 6d 4d bd
       -0.1624762 -0.018446779 0.08178818 -0.050153088
000270 26 92 b0 3d 6a 9a f8 bc 32 36 ce bd 9a 21 e3 bc
       0.086216256 -0.030347068 -0.10068931 -0.027725983
000280 a7 b5 6c bb 9d 7f c6 bb f1 83 2e 3d 64 49 1c bd
       -0.0036119015 -0.006057693 0.042606298 -0.03815593
000290 78 d8 51 3d c5 39 95 3c 56 26 50 bd 28 31 d1 3d
       0.05123183 0.018216023 -0.05081781 0.10214454
0002a0 d8 bf f3 3d ca 34 39 3d e1 a3 45 3d 65 b6 82 3d
       0.11901826 0.04521636 0.04825199 0.06382445
0002b0 be 36 60 3d 8f cb 19 3d 3e 81 10 3d c4 82 8d 3d
       0.054739706 0.037547644 0.035279505 0.06909707
0002c0 95 1c 8c bd 2c 63 a2 bd 8e 31 b5 3d 98 82 a2 bd
       -0.06841389 -0.07929072 0.088473424 -0.07935065
0002d0 44 65 01 3d 1a 6c aa 3c 5d cc af bd 94 ff 04 3d
       0.031590715 0.0208035 -0.08583901 0.0324703
0002e0 35 95 f5 bb e8 fd 80 3d 53 f0 08 be 39 e4 bd 3c
       -0.0074945935 0.06298429 -0.13372926 0.023180114
0002f0 6f 9f 97 3d ce 90 29 3d 3f 2f 67 bd 08 81 17 bd
       0.074034564 0.041397862 -0.05644154 -0.03698829
000300 91 f8 dc bc 9a b9 32 bd 3a c4 a3 3d ad be aa bd
       -0.026973994 -0.043634035 0.079964116 -0.0833715
000310 9d 0c 93 bd 8c 60 b6 3c 88 8e 8a 3b a3 4a f6 3c
       -0.0718014 0.022262834 0.004228417 0.030064886
000320 f7 b4 10 bd 49 fa 13 3d e8 4e 7c 3d e9 ca 2b bd
       -0.03532883 0.036127362 0.06159869 -0.041941557
000330 0a c1 a5 3b 53 4a ea 3b 73 57 92 bd 93 59 7c 3d
       0.0050584124 0.0071499734 -0.07145586 0.061608862
000340 ff 65 25 bc 25 4c 61 bd df 77 c2 3d 46 a4 b9 bc
       -0.010095119 -0.055004258 0.0949552 -0.02266134
000350 f1 65 6d 3d 91 c9 c6 bd ba 6f ff 3c 4c 4d 50 3e
       0.057958547 -0.097064145 0.031181205 0.20341986
000360 31 3e 65 3b 5b 4d 84 bd 50 1a ed 3b 3a 4b 1b 3c
       0.0034979696 -0.06460067 0.0072358027 0.009478385
000370 25 d2 de bc 36 ae 5c bc 18 e0 1c 3d 0a b4 b1 3d
       -0.027199814 -0.0134692695 0.03829965 0.08676918
000380 48 57 b9 bc a9 f6 5f 3d 9e 06 79 3c 50 5b b0 bd
       -0.022624627 0.054678593 0.015199332 -0.086111665
000390 8d 0f 17 ba d7 d7 52 3c 46 fc 2c bd de af ab bd
       -0.000576251 0.012868843 -0.042232774 -0.083831534
0003a0 e5 c0 3b 3d 8d ce a3 bd d3 29 99 3d 16 62 61 3a
       0.045838255 -0.07998381 0.074786805 0.0008597685
0003b0 24 3a ac bd 5a f0 d0 3d b9 12 80 3d 65 fe c1 3b
       -0.08409527 0.102020934 0.06253571 0.005920219
0003c0 f2 02 ff 3c 41 98 63 3d 89 28 20 3d a2 66 11 3e
       0.031129334 0.055565123 0.039101157 0.14199308
0003d0 cc 9c 26 3d 29 13 68 bc 50 c8 42 bd 6b d5 e8 bd
       0.040676877 -0.014164724 -0.047554314 -0.11368831
0003e0 9d 33 8d bd 21 6f c7 3c e7 29 b6 bd c8 16 9c 3d
       -0.0689461 0.024344983 -0.08894711 0.07621533
0003f0 7d 5e a0 3d 19 6f c3 bd 93 f6 6d bd 44 cd 94 3d
       0.07830522 -0.095426746 -0.05809648 0.07265714

network.3.bias f4 [100]
000000 2b 95 fd 3e c3 b5 03 3f f9 28 09 3f 0e dc 05 3f
       0.4952787 0.5144922 0.53578144 0.522889
000010 4d 64 fb 3e e7 df 00 3f 94 14 fc 3e 77 34 00 3f
       0.4909996 0.5034165 0.4923445 0.50080055
000020 83 74 fe 3e 7e 65 02 3f 26 44 fe 3e 28 8e 00 3f
       0.49698266 0.50936115 0.49661368 0.50216913
000030 58 83 0a 3f 85 d8 fe 3e b4 24 fe 3e 1b 49 fd 3e
       0.54106665 0.49774566 0.49637377 0.49469838
000040 b4 cb fd 3e 08 f3 01 3f a8 08 01 3f 20 75 00 3f
       0.49569476 0.5076146 0.50403833 0.5017872
000050 c7 41 fb 3e e3 f2 00 3f 33 25 ff 3e 87 5e ff 3e
       0.49073622 0.50370616 0.49833068 0.49876806
000060 9c c6 05 3f 7a bf 01 3f 9e 1d ff 3e 54 ed 00 3f
       0.5225618 0.50682795 0.49827284 0.50362134
000070 fa e3 ff 3e 10 db fe 3e de fd fe 3e d4 a9 fd 3e
       0.4997862 0.49776506 0.4980306 0.4954363
000080 3e 8b fe 3e 19 22 00 3f 3f ac 05 3f cf f6 00 3f
       0.49715608 0.5005203 0.5221595 0.503766
000090 88 86 01 3f a1 d7 00 3f e1 91 fc 3e b1 e0 fd 3e
       0.50595903 0.50329024 0.49330047 0.49585488
0000a0 39 6e fe 3e 82 a7 ff 3e 44 2d fc 3e 6a 89 fc 3e
       0.49693468 0.49932486 0.49253285 0.4932359
0000b0 f8 37 fe 3e d6 de fd 3e 91 ca fe 3e a0 32 00 3f
       0.49652076 0.49584073 0.4976392 0.5007725
0000c0 95 ff 00 3f 99 72 fe 3e da 78 03 3f e1 e6 fe 3e
       0.5038999 0.49696806 0.5135628 0.49785522
0000d0 79 37 fb 3e 96 88 00 3f ea 75 01 3f 6c 70 fe 3e
       0.4906576 0.50208414 0.5057055 0.49695146
0000e0 5d 5d ff 3e 70 67 fb 3e 0d f7 fe 3e f7 52 fe 3e
       0.49875918 0.49102354 0.4979786 0.49672672
0000f0 33 e1 00 3f 70 61 00 3f d8 dc 03 3f f5 36 fc 3e
       0.50343627 0.5014868 0.51508856 0.4926068
000100 06 ca fd 3e 29 7f 00 3f d5 c7 fa 3e 0f 7f ff 3e
       0.49568194 0.5019403 0.48980585 0.49901626
000110 b5 c9 00 3f b6 99 fb 3e 4c 5a 01 3f c7 cf 02 3f
       0.5030778 0.4914071 0.5052841 0.51098293
000120 0b ee fe 3e eb 04 fd 3e cb 35 02 3f a8 5e 00 3f
       0.49790987 0.49417815 0.5086333 0.50144434
000130 a4 f9 fb 3e 43 1a fe 3e 8e 2d 04 3f 0e ee ff 3e
       0.49213898 0.4962941 0.5163201 0.4998631
000140 b5 30 02 3f ad 11 fa 3e d0 97 00 3f f1 96 fe 3e
       0.5085557 0.4884161 0.5023165 0.49724534
000150 8d 8e fd 3e 32 ca ff 3e 77 52 17 3f 9b 40 fd 3e
       0.4952282 0.4995895 0.59110206 0.49463353
000160 0a 2b fc 3e 1b d8 f9 3e a8 40 02 3f 2e 21 07 3f
       0.49251586 0.48797688 0.5087991 0.52785003
000170 d8 51 00 3f b7 3d 01 3f 55 16 fd 3e 05 07 00 3f
       0.50124884 0.50484794 0.494311 0.5001071
000180 97 20 fe 3e 24 3f ff 3e b5 29 02 3f 27 76 01 3f
       0.4963424 0.4985286 0.5084489 0.5057091

network.4.running_mean f4 [100]
000000 2c 33 8d 3e 50 76 11 3f 1a c9 21 3f 62 c1 3a 3f
       0.27578104 0.56821156 0.6319748 0.7295133
000010 15 91 01 3f 63 bb 2f 3f 4d a4 90 3e 68 41 f4 3e
       0.50612 0.68645304 0.28250352 0.4770615
000020 49 47 72 3d ce f0 3e 3f c9 76 d1 3e 95 f0 1b 3f
       0.059150014 0.7458619 0.40910938 0.60913974
000030 2e 10 54 3f a8 4d 2d 3e 51 a5 af 3e c8 e8 8e 3e
       0.8283719 0.16924155 0.34305814 0.27911973
000040 7f 70 7b 3e e2 2c d7 3e 5e 32 3d 3f fe 8a e0 3e
       0.24554633 0.4202643 0.7390498 0.43856043
000050 d3 ae 17 3f 8b 16 20 3f 96 2f bf 3e 2c e7 4a 3f
       0.59251136 0.625344 0.37340993 0.7925899
000060 ab f6 0b 3f f8 b4 25 3f 60 ae fa 3e c9 cc f9 3e
       0.5467326 0.6472926 0.48961163 0.4878905
000070 01 51 02 3f 5d 3b 35 3f 9a 7b ae 3e 16 80 03 3f
       0.5090485 0.70793706 0.34078676 0.5136732
000080 3d b5 37 3f f5 ea ff 3a d0 3c 1c 3f 69 0a 3c 3f
       0.7176092 0.0019524979 0.6103029 0.73453385
000090 71 7e 01 3f ac cb fe 3e de f6 33 3f b3 51 a7 3e
       0.5058356 0.49764764 0.70298564 0.3267952
0000a0 34 33 f2 3e e6 82 ac 3d 80 9e 1f 3f d4 0d 09 3f
       0.4730469 0.084234044 0.62351227 0.53536725
0000b0 85 ac 5a 3f 5b bb 1f 3f fe f7 ba 3e 9f c9 0c 3f
       0.85419494 0.62395257 0.36517328 0.5499515
0000c0 bb 20 24 3f 91 d8 6b 3e ec e7 4a 3f d9 15 8f 3e
       0.6411244 0.23031832 0.79260135 0.27946356
0000d0 0b 48 8e 3e c4 f9 17 3f f5 9e 36 3f b5 7f 96 3e
       0.2778934 0.5936549 0.713363 0.29394308
0000e0 a5 6c ce 3e 31 ca 09 3f 70 71 36 3f 46 80 4b 3f
       0.40317264 0.53824145 0.7126684 0.79492605
0000f0 c5 2d f0 3e 6e 1e 28 3f 65 67 4e 3f 5a 03 a5 3e
       0.4690992 0.6567143 0.8062652 0.3222912
000100 ae f7 08 3f 03 69 6a 3e 21 4b 69 3e 58 f7 27 3f
       0.5350293 0.22891621 0.22782566 0.6561179
000110 6c 17 0f 3f 8b 98 2e 3f fe 7b 26 3f a5 75 dc 3e
       0.55895114 0.6820151 0.6503295 0.43058506
000120 ee bd 53 3e 04 8e 0d 3f e0 7e 20 3f f1 7d 43 3e
       0.20677921 0.55294824 0.62693596 0.19091012
000130 a4 92 e8 3e 50 7f c2 3e 94 75 21 3f a8 7d 1f 3f
       0.45424378 0.37987757 0.63070035 0.6230111
000140 bc 89 38 3f 44 41 04 3f e1 a0 22 3f ef a7 12 3f
       0.72085166 0.5166209 0.6352673 0.57287496
000150 89 f0 0c 3f 75 b2 9f 3e ad 9b 35 3f a5 74 c2 3e
       0.5505453 0.3119084 0.7094067 0.37979618
000160 52 55 1c 3e f8 90 e3 3e 8d 2a 2d 3f fc 15 02 3f
       0.15266922 0.4444654 0.6764305 0.50814795
000170 13 53 35 3f d7 28 52 3f 71 ad c0 3e 63 07 d7 3e
       0.70829886 0.82093567 0.37632325 0.41997823
000180 83 13 0d 3f 9b 53 39 3f df 8c 60 3f e4 24 06 3f
       0.551079 0.72393197 0.8771495 0.5240004

network.4.running_var f4 [100]
000000 c2 c7 23 3e 54 88 10 3e 7d 2b ea 3d 25 67 d0 3e
       0.1599417 0.14114505 0.11434076 0.40703693
000010 da 93 87 3e 13 75 a7 3e 70 64 2a 3e 00 5c 9b 3e
       0.2647999 0.32706508 0.16639876 0.30343628
000020 a2 fd aa 3e a6 48 33 3e 9d 0c b1 3d c4 77 0e 3e
       0.3339663 0.17508182 0.08644984 0.13912874
000030 d8 6a bd 3e 18 7b 7e 3e e0 b6 ca 3e 4e 6b 68 3e
       0.36995578 0.24851644 0.39592648 0.22697183
000040 c7 0d 94 3e c6 67 99 3e dc d8 3e 3e e6 6b d3 3e
       0.2891676 0.29961985 0.18637413 0.41293257
000050 ca 55 94 3e 16 38 3b 3e ad f1 ad 3e 84 89 25 3f
       0.28971702 0.18283114 0.33973446 0.6466296
000060 6e 0c 59 3d 31 66 15 3e 0a e9 f8 3e 25 bd 3b 3e
       0.05299037 0.14589764 0.48615295 0.18333872
000070 49 4d 4a 3e db 1b 33 3e b6 da be 3d 60 fd f2 3e
       0.19756044 0.17491095 0.093190596 0.47458935
000080 cb 4b a9 3e fc 58 8c 3e 00 5d 7c 3e 5d 15 70 3e
       0.33065638 0.2741164 0.24644852 0.2344565
000090 f3 49 88 3e 39 cd 35 3e bf 84 b0 3e fd d9 cb 3e
       0.2661892 0.17754067 0.34476277 0.3981475
0000a0 45 0d 0d 3e b7 eb ad 3e 4c 16 12 3e 43 2a 0b 3e
       0.13774593 0.339689 0.14266318 0.1359034
0000b0 ad e6 be 3e 90 bb f8 3e ba 81 12 3e 7f bb 5a 3e
       0.37285367 0.485806 0.143073 0.21360587
0000c0 2d 44 4f 3e 34 f7 b5 3e ec 72 a0 3e ca c8 2d 3e
       0.20240851 0.35540164 0.31337678 0.16971126
0000d0 7e 49 ca 3d 27 9d 9b 3e 51 be 90 3e 7c f8 91 3e
       0.09877299 0.30393335 0.282702 0.2850989
0000e0 6c 66 5b 3e 64 0d a0 3e 67 3d 4e 3e 5a 1f 77 3e
       0.2142579 0.31260216 0.2014061 0.24133053
0000f0 16 71 26 3e 58 4d cc 3e ea 80 a9 3e 1c 50 ba 3e
       0.16254076 0.3990276 0.33106166 0.36389244
000100 d0 93 47 3e 11 b7 b2 3e b0 42 97 3d 80 6f c1 3e
       0.1948998 0.34905294 0.073857665 0.3778038
000110 d6 74 d9 3e 1d be cf 3e da a4 b1 3e c9 d6 20 3d
       0.4247195 0.40574732 0.34696084 0.039267335
000120 72 fd 8d 3e 50 8e ca 3e d1 67 ac 3e 99 4a ad 3e
       0.27732426 0.395617 0.33672956 0.33845976
000130 bb a2 b2 3e a0 cb 92 3e 33 a3 d4 3d 5c ce 13 3e
       0.34889778 0.2867098 0.1038269 0.14434189
000140 ab 4e 7f 3e ff e3 10 3e b7 90 f1 3e 85 1c 3b 3e
       0.24932353 0.14149474 0.4718072 0.18272598
000150 94 44 cf 3e 2b ea fa 3d 1a f1 ab 3d 2b e0 7a 3e
       0.40482008 0.12251695 0.08395596 0.24499576
000160 79 3b 76 3e 3d c1 62 3e e2 fd b7 3e 62 5b 92 3e
       0.24046125 0.22144027 0.35935885 0.28585345
000170 89 2b 18 3e a2 08 96 3e a7 3b 4e 3e 0d 24 bb 3e
       0.14860357 0.2930346 0.20139943 0.36550942
000180 8e 2e 8c 3e e7 17 8a 3e 40 23 8a 3e bd 64 34 3e
       0.27379268 0.2697136 0.2698002 0.17616554

network.6.weight f4 [100, 100]
000000 0e 45 99 bd 49 dd 2e 3d a9 df fd 3d 75 6e 8a 3c
       -0.07483874 0.042691503 0.123961754 0.016898373
000010 f6 f8 ad 3d 4b 14 49 3d 76 5a 9c bc 79 fe 98 3d
       0.08494751 0.04909162 -0.019086104 0.07470412
000020 0f ac 11 bd b0 d6 6b bd 85 0f e2 3d 44 e1 95 bd
       -0.03556448 -0.05757779 0.11038116 -0.07318357
000030 ed ed 71 3d e0 c8 52 3d 98 ee 14 3e 59 bd 06 bd
       0.059064794 0.0514611 0.14544141 -0.03289542
000040 05 8f 31 3d 17 82 09 bd 44 0b 04 bc 01 34 57 bd
       0.043349285 -0.03357133 -0.008059327 -0.05253983
000050 1a 42 a2 bd e5 6e 57 3d bf 3d 26 bd 2f 9c 70 bd
       -0.07922764 0.05259599 -0.04058623 -0.0587427
000060 ef 37 19 3d c3 72 c1 bc 31 74 52 3d d3 19 a5 3d
       0.037406858 -0.023614293 0.05138034 0.08061566
000070 ec f6 cb 3c 65 25 b5 bd 9f bf 06 bc 4e db 0f 3e
       0.024898015 -0.08845023 -0.008224397 0.14048502
000080 05 ad db 3d ae 6b 24 3d 16 6c c1 3c 85 19 50 3d
       0.1072636 0.040141754 0.02361111 0.050805587
000090 f9 8a 00 bd 1e 54 81 bc b0 e6 b3 3d 47 54 97 3d
       -0.031382535 -0.01578718 0.087842345 0.073891215
0000a0 68 2a 3a 3d 1d 08 f4 bc 1a b7 25 bd ee be 76 bd
       0.045450598 -0.029789025 -0.040457822 -0.06024068
0000b0 96 fa 9b 3d be 60 16 bd 6d 00 ac bc c0 bf aa 3d
       0.07616155 -0.036713354 -0.020996297 0.08337355
0000c0 43 86 30 bc a1 b8 ed 3c d2 ea 4a 3d d6 26 a8 3d
       -0.010774198 0.029018702 0.04954035 0.08210532
0000d0 33 b6 38 bd c2 44 ab 3d 79 55 1d bd c1 34 95 3d
       -0.045095634 0.08362724 -0.03841159 0.07285453
0000e0 0b 4a 3e bd b6 75 51 3b ed 89 1c bd 39 1a 1c be
       -0.04645733 0.003196103 -0.038217474 -0.15244378
0000f0 0b db 77 ba 05 46 57 3c 1a 53 b7 3d 0b fe c8 3d
       -0.0009454942 0.013139253 0.08951397 0.0981408
000100 b6 5e 5d 3d 66 78 4c bd a1 bf 51 bd fd b0 08 bc
       0.0540454 -0.04991951 -0.051208142 -0.008342979
000110 57 58 c3 39 02 e9 94 3d be 5b c4 bd 06 6a 04 3e
       0.00037259117 0.07271005 -0.09587811 0.1293107
000120 46 fd c1 bd 5f 5a ce bd db 9e 8e 3d 44 d9 26 bd
       -0.09472136 -0.10075831 0.06963893 -0.040734544
000130 00 a8 cd 3d b4 22 42 3c 2c ad d5 bd 21 4a 30 3d
       0.10041809 0.011849094 -0.104334205 0.043039445
000140 aa ca 7b bc 49 b1 20 bd ca 80 90 39 55 8a 91 3d
       -0.015368143 -0.039231572 0.00027561776 0.07106463
000150 1e 3b 92 bd af f1 00 3c 52 51 3b 3d 8d 4c e8 bd
       -0.07140182 0.007870122 0.04573185 -0.11342726
000160 65 95 c6 3b a0 67 1b bd d7 f9 11 bd 3b 1e 8e bc
       0.0060602897 -0.03794062 -0.035638656 -0.0173484
000170 32 b4 41 bc 41 69 31 bd 03 e9 75 bd a1 f8 a1 bd
       -0.011822747 -0.04331327 -0.06003667 -0.0790875
000180 f3 94 fa bd 00 17 18 bd bc ca a9 bd 45 73 90 bd
       -0.12235441 -0.03713131 -0.08290622 -0.07053236
000190 bc 9f 39 3d 18 f3 a3 bd 78 53 ee bc e0 18 da bd
       0.04531835 -0.08005351 -0.029092535 -0.10649276
0001a0 38 76 16 3c f1 4b 20 3d 6d 47 9f 3c 6b e7 f1 bd
       0.009183459 0.039134923 0.019443238 -0.118117176
0001b0 b8 aa c2 bd cf b0 02 3d 60 8d 7a 3d ac 23 c5 3b
       -0.09505218 0.0319069 0.061169982 0.0060162153
0001c0 74 e1 9c 3d cb 06 8b 3d f4 76 51 3d 7a 92 b5 3d
       0.07660189 0.06788405 0.051138833 0.08865829
0001d0 99 05 61 bd 0b f5 ad bd da c8 89 3d 00 89 bf bd
       -0.05493698 -0.08494004 0.067277625 -0.093523026
0001e0 ee 12 00 be cc a9 af bc 92 96 f1 3d bb a0 11 be
       -0.12507221 -0.02144327 0.11796297 -0.1422147
0001f0 20 fd 96 bd 04 b6 21 3b 6b b3 88 3d a6 85 46 bd
       -0.073724985 0.002467514 0.06674846 -0.0484673
000200 79 45 91 bd 0f 00 3d 3d a3 83 8a bd e1 2d db 3d
       -0.07093329 0.046142634 -0.06763389 0.1070211
000210 fd 43 7a 3d 1e ee 9c 3d 97 8a 67 bc 1e 93 a3 3d
       0.061099995 0.07662605 -0.0141321635 0.07987045
000220 20 55 c1 bd ec c4 97 3b 80 ec 06 3d 2b 32 8d bd
       -0.094400644 0.004631629 0.032940388 -0.068943344
000230 28 3d 66 3d a9 10 60 bc 47 26 21 bd e4 a3 6f bd
       0.056210667 -0.013675847 -0.039343145 -0.058505908
000240 e1 9e 67 bd bd 57 bb bd d2 2d 96 3d a3 ee 64 bd
       -0.056548003 -0.09147594 0.07332958 -0.055891644
000250 e2 21 89 3d c8 0e 9c 3d 47 59 00 3e f4 63 9a bc
       0.06695916 0.07620007 0.12534057 -0.01884649
000260 2f fe f3 ba 5c 09 a7 bd 3c a2 14 3d 7b 7f 08 3e
       -0.0018615181 -0.08156082 0.03628753 0.1332988
000270 b6 58 9b 3d 8d 53 82 3d 69 98 11 bd ed 00 c0 bd
       0.0758528 0.06363592 -0.03554574 -0.093751766
000280 40 7b 2a 3d 93 5b db bd c5 b0 85 3d 2c 0f ff 3d
       0.041621447 -0.10710826 0.06527857 0.12454066
000290 85 26 3a 3d 54 99 7e bd 0d e6 47 bd 15 f7 1e 3d
       0.04544689 -0.062157944 -0.048803378 0.038809855
0002a0 81 27 2d 3d cd b6 d3 3a c9 b6 f1 bd 98 68 bf bd
       0.042274002 0.0016152501 -0.118024416 -0.093461215
0002b0 11 a5 d3 bd 36 ee b5 bd 44 dc 37 3d c3 3a 3f be
       -0.10334218 -0.08883326 0.044887796 -0.1867476
0002c0 63 f3 51 bd 00 77 d3 bc de 87 53 3b e0 d3 29 3d
       -0.051257502 -0.02581358 0.0032277028 0.041461825
0002d0 60 26 80 3d df 35 09 3d c7 e0 37 3d b2 d3 39 3d
       0.062573195 0.03349864 0.0448921 0.045367904
0002e0 c5 63 a9 bc 22 ed cc bd 66 f7 d8 3c 39 7f 36 bb
       -0.020677457 -0.10006167 0.026485156 -0.0027846827
0002f0 18 f3 dc 3c de 3b c3 3d a1 36 68 bc a1 85 91 3d
       0.026971385 0.09532903 -0.014173181 0.07105566
000300 7f 81 c3 bd 08 f4 81 bd 06 b0 92 3d fa 41 7b 3d
       -0.09546184 -0.063453734 0.0716248 0.061342217
000310 ca 55 35 bd 79 d2 5a 3d b5 bb b3 bd a6 83 e4 bc
       -0.044271268 0.05342338 -0.08776037 -0.027894806
000320 36 30 8c 3d 0a 03 1e bd 77 cd 06 bd d1 3f 18 3e
       0.06845133 -0.038577117 -0.03291079 0.14868094
000330 ff 5a 2f bd e4 38 ab bd c8 96 be bd 16 de cf bd
       -0.04281139 -0.083604604 -0.09306103 -0.101497814
000340 df fa da bd fe fd a4 3d fc bd 58 3d b2 2d 16 be
       -0.10692381 0.08056258 0.05291556 -0.14665869
000350 40 e4 3d 3d b6 09 c2 bd 21 b2 46 bd 03 47 0c 3d
       0.046360254 -0.094745085 -0.04850972 0.03424741
000360 26 81 2c 3d 10 72 09 be 80 d1 34 3c 8c 94 91 3d
       0.042115353 -0.13422418 0.011036277 0.07108411
000370 a8 2f 6e 3c 40 d7 90 bd f2 a8 3d 3d d6 ec 97 3d
       0.014537729 -0.07072306 0.046303697 0.0741822
000380 52 36 19 3d a0 71 c4 3d 03 b8 2d 3d 51 91 4b 3d
       0.03740532 0.09591985 0.042411815 0.04969913
000390 92 02 8b bd f8 c8 d6 3d b9 06 a8 3c 3a 20 b0 3d
       -0.067875996 0.104875505 0.020511018 0.08599897
0003a0 cb fa c5 3d d4 f9 11 3c 8b 79 cd 3b 3f 2d 27 3d
       0.096669756 0.008909661 0.0062705926 0.040814634
0003b0 1d 1b 8e bd a8 af b5 bc 87 fd 57 3c 7d ec ab bd
       -0.06938765 -0.022178486 0.013183004 -0.08394716
0003c0 f5 d1 7f 3c 3b cc cb 3d 8e 53 00 bc 9e ff 07 3e
       0.0156140225 0.09951063 -0.007832421 0.13281104
0003d0 55 e5 3c 3d 86 7c ce 3b 12 df 21 be 1c 06 4e 3d
       0.046117146 0.0063014654 -0.15807751 0.050298795
0003e0 e6 2e 33 3d 9b 43 da bd 68 5d 15 bc 5c 56 cd 3d
       0.043745898 -0.10657426 -0.009116508 0.10026237
0003f0 79 87 38 3c 16 6b 8d 3d 87 e0 7c 3d d6 2f 96 bc
       0.011262768 0.06905191 0.061737563 -0.018333357

network.6.bias f4 [100]
000000 88 ef fd 3e 5c dc fe 3e 4d 35 00 3f 3e 7d fe 3e
       0.4959681 0.49777496 0.5008133 0.49704927
000010 c7 c9 fd 3e bb 20 fd 3e a4 3b 06 3f f2 31 ff 3e
       0.49568006 0.49439034 0.52434754 0.49842793
000020 3f 7a fe 3e 87 24 ff 3e ed 4e 00 3f c1 20 09 3f
       0.4970264 0.49832556 0.5012043 0.53565603
000030 ac 05 0d 3f 1b e9 fe 3e e1 e0 07 3f 0b 53 fe 3e
       0.5508678 0.4978722 0.5307751 0.49672732
000040 70 c1 10 3f 76 83 f9 3e 15 c2 04 3f e8 fc 03 3f
       0.5654516 0.4873311 0.51858646 0.5155778
000050 04 d7 04 3f 54 5a fe 3e 35 5e fe 3e c8 d3 fe 3e
       0.5189059 0.4967829 0.4968125 0.4977095
000060 8f 3b 01 3f 5c 5c 00 3f b4 ea 0b 3f b7 e5 fa 3e
       0.50481504 0.5014093 0.54655004 0.49003384
000070 51 31 03 3f f9 9b ff 3e 4e 7d fe 3e 1a 0e 00 3f
       0.51247126 0.49923685 0.49704975 0.5002152
000080 51 44 fc 3e 9e bd fd 3e 29 ba 00 3f e1 e5 fd 3e
       0.4927087 0.4955873 0.5028406 0.49589446
000090 1a 4a fd 3e 98 a5 fe 3e 90 85 fe 3e bd aa fc 3e
       0.49470598 0.49735713 0.49711275 0.49349013
0000a0 23 82 ff 3e 7b c7 fa 3e 97 af ff 3e 23 44 0a 3f
       0.49903974 0.48980317 0.49938652 0.5401022
0000b0 98 cd 06 3f 2e b6 0a 3f 82 49 fd 3e 58 1e 01 3f
       0.5265746 0.54184234 0.49470145 0.50436926
0000c0 6b 7c fb 3e ab 62 01 3f 9c fc 03 3f cb a5 01 3f
       0.4911836 0.5054118 0.51557326 0.50643605
0000d0 5e aa fd 3e a3 67 fe 3e d9 53 ff 3e c2 73 10 3f
       0.49544042 0.49688444 0.49868658 0.5642663
0000e0 3c b2 00 3f e9 b7 f6 3e 76 19 fe 3e 21 61 08 3f
       0.50271964 0.48187187 0.496288 0.53273207
0000f0 02 60 01 3f bf d8 ff 3e 9a 5e 06 3f e8 ea 00 3f
       0.5053712 0.49970052 0.524881 0.5035844
000100 3d 04 00 3f c6 65 fe 3e 43 a0 fe 3e 2a 60 ff 3e
       0.5000647 0.49687022 0.49731645 0.49878055
000110 25 3a 03 3f bf 1c fd 3e d6 18 03 3f ca f0 03 3f
       0.51260597 0.49435994 0.5120977 0.5153929
000120 5f 08 01 3f bc fd ff 3e 4c e4 fd 3e 8d 66 fe 3e
       0.504034 0.4999827 0.4958824 0.49687615
000130 d8 4a 03 3f e3 69 fe 3e 98 93 fc 3e 95 25 fa 3e
       0.5128608 0.4969016 0.49331355 0.48856798
000140 1e e9 fd 3e 79 6a 01 3f 41 a5 01 3f 17 0e fd 3e
       0.49591917 0.5055309 0.5064278 0.49424812
000150 aa 03 00 3f c8 9e 02 3f 17 33 fb 3e 43 33 ff 3e
       0.5000559 0.5102353 0.49062416 0.49843797
000160 49 5d fb 3e b9 d3 00 3f ab d2 ff 3e 4d 93 02 3f
       0.49094608 0.50323063 0.49965414 0.51006013
000170 35 a6 ff 3e 5a 1d ff 3e 0a 4d 00 3f c0 63 08 3f
       0.49931493 0.4982708 0.5011755 0.53277206
000180 5f cf fe 3e 20 b4 ff 3e 94 2b 00 3f 1b 66 fe 3e
       0.49767587 0.49942112 0.50066495 0.49687275

network.7.running_mean f4 [100]
000000 e3 d1 0c 3f e3 03 d9 3e e9 49 28 3f ad 45 1a 3f
       0.5500776 0.42385778 0.6573778 0.60262567
000010 2c 29 e0 3e e4 e1 8a 3e e4 b6 7d 3f 55 09 3c 3f
       0.43781412 0.27125466 0.99107194 0.7345174
000020 c7 05 15 3f a4 65 17 3f 7a 17 0d 3f 9d ec 72 3f
       0.5821194 0.59139466 0.5511395 0.94892293
000030 a8 cc 35 3f 36 87 0b 3f 24 99 0f 3f 5e a2 ae 3e
       0.71015406 0.5450319 0.5609305 0.3410825
000040 98 af 1e 3f cb 46 af 3e 68 62 40 3f c6 5f e1 3e
       0.61986685 0.34233698 0.75150156 0.44018382
000050 0a d3 18 3f 3b 81 a3 3e a0 e6 97 3e 2d 9f e3 3e
       0.5969702 0.31934533 0.2966814 0.4445738
000060 ad 04 21 3f ad 51 e8 3e 5a 02 e0 3e af 3c 27 3f
       0.6289776 0.45374814 0.43751794 0.6532697
000070 28 d8 31 3f f8 fa b8 3e f7 2f 0e 3f be d3 e2 3e
       0.69470453 0.36128974 0.5554194 0.4430217
000080 5c 3b 8e 3e b6 b1 f6 3e 7a ab a3 3e 52 a6 82 3e
       0.27779663 0.48182458 0.31966764 0.25517517
000090 da f9 db 3e b0 a8 9a 3e b5 f8 df 3e ec 56 ed 3e
       0.4296406 0.30206823 0.43744436 0.4635538
0000a0 34 15 2a 3f 0c 4f 10 3f e7 ca 1e 3f ae af 51 3f
       0.66438603 0.56370616 0.62028354 0.8190869
0000b0 bb 9e 39 3f b6 54 ae 3e 31 0e 09 3f ae da c3 3e
       0.7250783 0.34049004 0.5353728 0.38252777
0000c0 bb 5c 15 3f 55 59 02 3f 56 8f 24 3f 62 c4 56 3f
       0.5834462 0.5091756 0.64281213 0.83893406
0000d0 c6 3d af 3e e6 f0 f8 3e 58 f0 fc 3e 5d c1 18 3f
       0.34226817 0.4862129 0.49402118 0.5967005
0000e0 3d 3f da 3e 04 5d 20 3f f8 9c 61 3e 44 bc 71 3f
       0.42626372 0.6264193 0.22032535 0.94427896
0000f0 40 42 bb 3e fd 93 82 3e d1 21 d0 3e d8 69 68 3f
       0.36573982 0.2550353 0.406508 0.90786505
000100 20 77 2b 3f 57 93 ba 3e d6 06 a1 3e 1c ac 83 3e
       0.66978645 0.36440536 0.31450528 0.25717247
000110 54 a9 2e 3f d6 9d 19 3f 29 e7 39 3f 28 ba 4d 3f
       0.68227124 0.60006464 0.7261835 0.80362177
000120 8f 2a 08 3f aa de f7 3e 35 40 c9 3e 64 91 f7 3e
       0.5318994 0.48412067 0.393068 0.48353112
000130 16 4c 23 3f d5 23 38 3f 83 0b a9 3e 7d ae d1 3e
       0.6378797 0.71929675 0.33016595 0.40953436
000140 c3 8c 37 3f 74 53 29 3f 92 06 19 3f b2 e1 17 3f
       0.7169916 0.66142964 0.5977565 0.5932876
000150 1c c9 59 3f a8 58 fc 3e 38 a2 74 3e 8c 2e 31 3f
       0.85072494 0.4928639 0.23890007 0.6921165
000160 66 c0 fe 3e 5d c3 d4 3e 5a e8 06 3f e0 f5 eb 3e
       0.49756163 0.415553 0.5269829 0.46086025
000170 20 46 6f 3e ef 4c 35 3f ca c0 ef 3e cb 0f 41 3f
       0.23366594 0.70820516 0.46826774 0.75414723
000180 c0 90 31 3f b8 54 f4 3e 99 37 15 3f 62 eb 33 3e
       0.69361496 0.47720885 0.5828796 0.1757026

network.7.running_var f4 [100]
000000 a2 66 d0 3e bd 03 0a 3f 23 d5 9d 3e 35 e4 3c 3e
       0.40703303 0.53911954 0.30826673 0.18446429
000010 1b 61 13 3e f2 3c 54 3e de 50 75 3e ed 28 40 3e
       0.14392512 0.20726374 0.2395663 0.18765612
000020 7a 0c 18 3e 6e 7a 2b 3e 30 22 0f 3e 3c 41 88 3e
       0.1484851 0.16745922 0.13977885 0.2661227
000030 56 f2 b3 3e fa f2 52 3e c3 a7 c0 3d 51 b0 8a 3e
       0.35145825 0.206005 0.09406998 0.27087644
000040 3e 12 ef 3d f2 fa 83 3e 2c d4 d0 3d 2a a3 85 3d
       0.11673401 0.25777394 0.101967186 0.06525262
000050 3b eb 9e 3d a1 23 3d 3e 4f 9a c7 3e ea 4b 65 3e
       0.077597104 0.18470623 0.38984916 0.2239224
000060 f2 9c fc 3d 78 f1 06 3e 76 9e 26 3d 54 59 e7 3d
       0.123346224 0.1317805 0.040678464 0.11296335
000070 bf 35 35 3e ff f5 47 3e f5 8f 9f 3d 89 a6 ee 3e
       0.17696284 0.19527434 0.077911295 0.4661143
000080 22 be 34 3e a2 bc 94 3e 02 34 4e 3e bc 67 92 3e
       0.17650655 0.29050165 0.20137027 0.28594768
000090 78 65 96 3e 74 6f 8e 3e 83 e5 95 3e 01 6f 7d 3e
       0.2937429 0.27819407 0.29276666 0.24749376
0000a0 cb c9 bd 3e 71 ad b4 3e 2a f8 54 3f 1b 75 5e 3e
       0.37068018 0.35288575 0.8319117 0.2172436
0000b0 99 38 9b 3e 31 6a 85 3d 0e 4b 84 3e 6c f0 37 3e
       0.30316618 0.06514395 0.25838512 0.17962807
0000c0 3a 69 0a 3e e9 8c a4 3e c5 ae b9 3d dc 99 29 3f
       0.13516703 0.32138756 0.09066538 0.66250396
0000d0 9e 95 d2 3d e2 68 2d 3e af d8 26 3e e2 4a ba 3d
       0.102824435 0.16934541 0.16293596 0.09096314
0000e0 2f b7 dc 3d 53 37 c8 3d b2 62 a4 3e 30 91 78 3e
       0.10777127 0.09776177 0.3210655 0.24274135
0000f0 33 7a b4 3d 7d 83 80 3e 01 63 87 3d b3 c7 40 3e
       0.0881237 0.25100318 0.0661068 0.18826179
000100 e6 a9 a6 3e 17 a9 cf 3d fe 21 3d 3e 84 b5 7c 3e
       0.32551497 0.10139673 0.18469998 0.24678618
000110 aa a4 5e 3d d3 fb fd 3d 61 f7 d2 3d 60 e4 d1 3e
       0.054356255 0.12401547 0.1030109 0.4099455
000120 f5 df 23 3e 76 cd 8f 3d 54 ea f8 3d 8b 65 e7 3d
       0.16003402 0.070216104 0.121540695 0.11298665
000130 5e 5f c9 3e 5d 4b 3c 3e 06 29 47 3e bf 5b 91 3e
       0.39330572 0.18388124 0.19449243 0.2839031
000140 64 35 37 3e 6f 12 86 3e 23 41 a6 3d 0f e8 95 3e
       0.1789146 0.2618594 0.081178926 0.2927861
000150 f3 f2 74 3e 6e c2 e3 3d 48 59 b9 3e d2 46 d5 3d
       0.23920803 0.11121069 0.3620093 0.104138985
000160 35 2a 5a 3e 69 f2 55 3e a0 87 fd 3e 08 6f fa 3d
       0.21305163 0.20893253 0.49517536 0.12228209
000170 17 74 8c 3e a0 8e 44 3e 58 91 a1 3d 27 63 4d 3e
       0.2743232 0.19195032 0.0788905 0.20057355
000180 b1 d1 88 3e e6 b7 58 3e ed 65 31 3e ec 27 08 3f
       0.26722482 0.21163902 0.17324038 0.53185916
